results/InfoNCE_dim10_reg1.pt (torch, 305581 bytes, 13 tensors)

fc.0.weight f4 [100, 20]
00000000: b5b6 553c de6a 12bc ef70 f13c 20f4 a5bc
00000010: 006c 163d b266 563d 4d31 bfbc 1ef5 eb3b
00000020: e803 bc3b aa18 e53b 1dfc 893b a1cb 4dbc
00000030: 2f30 123d 8981 82bc 627c 8d3c 66dd 6b3d
00000040: 7a04 97bc c988 dc3c 01c6 c33c b4c7 afbb
00000050: 895d 2f3d 26ca 4fbd 6d36 233d 6e4e 25bd
00000060: 7991 a53c 2816 dabc 6f16 cebb 4578 aa3d
00000070: 05a5 8dbc 7f87 efbc b5f7 00bd 68f6 3c3d
00000080: c2c1 e1bc b2c0 ed3c 991b 9cbc dc33 fd3c
00000090: 05db d53a a24f 89bd 8c75 903c 1e44 323d
000000a0: 4fa1 8cbc 1a28 dabc a9a2 32bc a748 48bc
000000b0: cf49 ff38 961f 65bc 826f 633d a1dd 65bb
000000c0: 625a a7bc 1418 52bc a461 b7bc 95f5 b6bc
000000d0: d724 39bb 9441 b6bc 210e 7fbc 1685 02bc
000000e0: 47e4 7d3d a6d2 45bd e458 12bd 25bb fcbc
000000f0: 3867 563d e2fc bf3c b9ae 4fbd b901 d0bc
00000100: 0c52 fe3c 0995 333c e8c7 c33c 8671 40bd
00000110: dfff 193d e21a b83c 3cb2 4cbd e2c4 5ebd
00000120: 60cf 4d3d 44fd b53c c9d8 f2bc 49aa 43bc
00000130: 4bb5 3fbd 8bff 7e3d 3117 3dbd fba8 52bc
00000140: ad7a e5bc 503f 99bc cac9 073b e8b0 133d
00000150: 659a ea3a df31 e93c a18a 1bba 6c59 06bd
00000160: f8e9 783c bf89 693d bfe9 f2bc d8fd eebc
00000170: 582a 25bc 82cb 0e3d dc1c 16bc f7de 833d
00000180: 6151 3b3c 2853 08bd e931 e43c 3bec ad3c
00000190: dee8 8cbd a3ac 613d 0de5 203d 22e1 96bb
000001a0: ec2c 943b c6dd 92bd 6fd5 cebc 950b 3dbd
000001b0: cd10 e13c bd27 873d 79a3 a23d abcf 12bd
000001c0: 0693 01bd aaa3 293a 2b02 643b da91 863d
000001d0: 655d 36bb cd19 e83c 80e7 43bd 3122 58bd
000001e0: 67e3 71bc 7e6c 553c 2d54 1ebd f0fe b3bb
000001f0: 20a4 5c3d 0c2f 0b3c 2d5b 9f3c 3e82 aabc
00000200: a7db 87bc 7452 763c f9e4 96bc 0e5e 313c
00000210: a58d 70bd ceb3 83bb a9d3 cd3c bf3f 603b
00000220: f3ff 0a3d 1683 0bbd 9fc8 ecbc a981 843c
00000230: 2d9e 41ba f36d b03b 5597 3d3c 42b7 44bd
00000240: b429 da3b 2c00 0d3d 5cd5 eb3c a1f6 b8bc
00000250: e90b ad3c 20cc 2dbd a3ee f9ba fcb5 d63b
00000260: d831 c93c 5aba 48bd 571e 783c aeb8 4c3d
00000270: 361f 1c3d 840f fabc d8ba 913c 13fa 44bd
00000280: eda5 66bc 3417 9abc 41b6 80ba e8a8 b43d
00000290: 7526 f73c c100 ca3c 1edf 83bd 213d 3c3d
000002a0: 2101 93bc 0541 c7bc 1bde b83c ac25 9e3c
000002b0: 7fd2 c73a f173 83bd 48a6 81bc dc14 aabc
000002c0: 5fd8 653d 44f0 65bd b224 0f3c 16a1 cc3c
000002d0: 98ad ff3c ef18 3e3d 2320 69bd b308 6f3d
000002e0: ef4b 1ebd 0d87 30bd d43d aeba 9de2 013d
000002f0: d21e 24bb 7939 27bd a0bd abbc 75a4 69bd
00000300: 4562 a63d 91de 58bd ab2c 6b3d 2e6d 8f3d
00000310: d82e b73c 4b6a cbbc 4197 603c 786e d23c
00000320: fc63 e43c 8dc6 3c3d e53e b2bc 9a33 2dbd
00000330: 5944 063d 8d9c 0bbd 297c 2f3d 1f4c bb3a
00000340: bd6d 3ebd 18ee 31bd 9c67 0cbd b20a 61bd
00000350: e443 d63c 57ea 433d b111 d4bc e914 173d
00000360: d723 29bd 329c 703c a3bf 363d b66d 063d
00000370: 38f7 1c3d c82e acbb 0cf8 e1bc 9b2c 68bd
00000380: d17d ef3c 1889 eabc 9cc6 a4bc 3875 1aba
00000390: 06a3 46bd c291 cbbc 0f25 2f3d 6294 42bc
000003a0: 6fe2 2fbd ca79 3cbd c478 a93c 7e73 fabc
000003b0: 3c57 2abc 3ae9 09bb aae6 21bd c2ec 2abd
000003c0: 7c94 0bbd 134d e9bb 4366 00bd 0bee d5bb
000003d0: ab66 fabc 1a86 5d3d c71b 6c3b cfde debc
000003e0: 0872 39bd b49d 07bd 030c 0e3d 56e8 e43c
000003f0: 36fa e73c 0c04 1d3c 9ac7 8d3c 41b9 14bd
0.013044049 -0.008936612 0.029472796 -0.02025801 0.03672409 0.05234403 -0.023338938 0.007200851
0.0057377703 0.0069914656 0.0042109624 -0.012560756 0.035690483 -0.015930908 0.017271224 0.05758419
-0.018434752 0.026920693 0.023898127 -0.0053643826 0.04281381 -0.050729893 0.039846826 -0.040358
0.020210968 -0.026621893 -0.0062892954 0.08323721 -0.017290602 -0.029239414 -0.03148623 0.04613343
-0.027558211 0.029022548 -0.019056128 0.030908518 0.0016315883 -0.06704642 0.017634176 0.043521993
-0.017166762 -0.02663045 -0.010903039 -0.012224353 0.000121730955 -0.013984581 0.055526264 -0.0035074728
-0.02042884 -0.0128231235 -0.022385426 -0.0223339 -0.0028250718 -0.022248067 -0.015567333 -0.0079663005
0.06198528 -0.048296593 -0.035729304 -0.030850956 0.05234453 0.023436014 -0.050703738 -0.025391446
0.031044982 0.010960826 0.023899034 -0.046983264 0.037597533 0.022473756 -0.049974665 -0.05438698
0.050246596 0.022215493 -0.029644387 -0.011942455 -0.046803754 0.062255424 -0.046164695 -0.012857671
-0.028012598 -0.018706948 0.002071964 0.036057383 0.0017898796 0.028466163 -0.0005933438 -0.032800123
0.015192501 0.05701613 -0.029652474 -0.029173777 -0.010080896 0.03486205 -0.009162154 0.064390115
0.011432976 -0.03328243 0.02785583 0.021230808 -0.068803534 0.05509628 0.03928094 -0.0046044746
0.0045219567 -0.07171206 -0.025248257 -0.046153624 0.027473832 0.06599376 0.07941336 -0.03584258
-0.031634353 0.0006471226 0.0034791331 0.06570788 -0.0027826664 0.028332615 -0.047828197 -0.052766982
-0.01476369 0.013026355 -0.038654495 -0.0054930374 0.05386746 0.008495104 0.019452656 -0.020814057
-0.01658423 0.015034307 -0.01841973 0.010825647 -0.058728833 -0.004019237 0.025125341 0.0034217683
0.0339355 -0.03406056 -0.028904257 0.016175108 -0.0007385936 0.0053842007 0.011571725 -0.04802633
0.0066578034 0.034423992 0.028788261 -0.02257854 0.021123843 -0.042430997 -0.0019068312 0.006552456
0.0245599 -0.049005844 0.015143952 0.04998081 0.038115703 -0.030524977 0.01778929 -0.04809005
-0.014077646 -0.018809892 -0.0009819941 0.08821279 0.030169705 0.024658563 -0.064390406 0.045956735
-0.017944874 -0.024322996 0.022566846 0.019305073 0.0015245228 -0.064185984 -0.01582636 -0.0207619
0.05611455 -0.05613734 0.008736776 0.024979156 0.031210706 0.046410497 -0.056915414 0.058357906
-0.038646635 -0.043097544 -0.0013293573 0.031710256 -0.0025042784 -0.040826295 -0.020964444 -0.057041604
0.08124212 -0.05294663 0.057415646 0.07003246 0.022361204 -0.024830958 0.013707937 0.025687441
0.027879708 0.04608779 -0.021758506 -0.04228554 0.032780025 -0.034084845 0.042843018 0.0014289654
-0.046491373 -0.043439955 -0.034278497 -0.05494184 0.02615542 0.047830906 -0.025887342 0.036885176
-0.041293945 0.014685677 0.044616353 0.032819472 0.038321704 -0.0052546 -0.027584098 -0.056683164
0.029234799 -0.028629825 -0.020114236 -0.0005892101 -0.048495315 -0.024849776 0.04275995 -0.0118761975
-0.042940553 -0.046014585 0.020687468 -0.03057265 -0.010396775 -0.0021043555 -0.03952662 -0.041729696
-0.034077153 -0.0071197837 -0.031347524 -0.006528621 -0.030566534 0.054082967 0.0036027299 -0.027205853
-0.045274764 -0.03310938 0.034679424 0.027942818 0.028317552 0.009583484 0.017307092 -0.036309484

fc.0.bias f4 [100]
00000000: 9660 a3bc d19d 82bc b8b9 93bc 4b1b 60bc
00000010: f1d0 81bc cdc0 87bc 7c04 a1bc fc78 b6bc
00000020: 3e03 78bc e9c8 76bc 68ad 64bc 155f a8bc
00000030: 1d92 8a3b 6f47 a6bc 30fb a9bc caed 8fbc
00000040: 9ee0 6dbc 3e00 5dbc 027a 8fbc 18e0 85bb
00000050: 1a30 95bc 1952 9ebc b813 23bc 556e eabb
00000060: aa1d 25bc 6446 13bc 9765 81bc fc24 08bb
00000070: 747d 9bbc 4023 1dbc ec96 81bc 28fc 92bc
00000080: 0bfe 62bc b918 60bc 38e8 45bc db54 98bc
00000090: 7576 57bc 63c9 adbc 328b 77bc 60ba 55bc
000000a0: 561d 4bbc 36c2 b1bb f730 6bbc 131f aebb
000000b0: 0c3b 61bc 32a2 4bbc affa 2bbc 429b 43bc
000000c0: 25b1 9abc 94b4 8dbc e144 9ebc 3c40 2abc
000000d0: 20ab 21bc cb89 93bc 9768 32bc d058 53bc
000000e0: c9e3 6bbc e8b1 07bc 9d3c aebc 6056 57bc
000000f0: de60 84bc f521 7dbc f33a 9cbc 9d4f a9bc
00000100: 5929 8cbc 6931 a3bc a653 70bc b5b6 8dbc
00000110: e829 96bc f440 59bc beeb 9ebc 5670 3ebc
00000120: fc30 9cbc 6932 87bc 10a1 98bc 9399 a5bc
00000130: 547d 70bc a254 65bc d173 a0bc c21c 98bc
00000140: 22f9 69bb fa6d 5bbc 2e0b 23bc dded 56bc
00000150: 2c57 9dbc 545e 9abc 530d 65bc e4f8 38bc
00000160: 6b15 1cbb c21e 5ebc 8815 a7bc 7211 07bc
00000170: 683a 2cbc 5818 8fbc 546d 95bc 9188 4bbc
00000180: 3206 6dbc fbca 53bc d293 acbb c51b 2dbc
-0.019943517 -0.015944393 -0.018032894 -0.013678382 -0.015846701 -0.016571427 -0.019655459 -0.022274487
-0.015137492 -0.015062549 -0.013957359 -0.020553151 0.004228844 -0.020297734 -0.020749658 -0.017569441
-0.014518885 -0.013488827 -0.017514233 -0.004085552 -0.018211413 -0.019326257 -0.009953432 -0.007154266
-0.010077873 -0.00898895 -0.015795512 -0.0020773998 -0.01898072 -0.009590924 -0.015819035 -0.017942503
-0.013854514 -0.013677769 -0.012079291 -0.01859515 -0.013150801 -0.021214193 -0.01510887 -0.013044924
-0.012397131 -0.005424763 -0.014354936 -0.005313763 -0.013746988 -0.012428807 -0.010496779 -0.011938872
-0.018883297 -0.01729802 -0.019319953 -0.010391291 -0.00986746 -0.01801004 -0.010889194 -0.0128995925
-0.01439757 -0.008282162 -0.021269137 -0.013143152 -0.016159471 -0.0154499905 -0.019071078 -0.020667845
-0.01710956 -0.019921022 -0.014668381 -0.017299036 -0.01833053 -0.013260115 -0.01939952 -0.011623463
-0.019066326 -0.01650353 -0.018631488 -0.020214831 -0.014678318 -0.013997229 -0.019586476 -0.0185684
-0.0035701473 -0.01339292 -0.009951396 -0.013118234 -0.019206606 -0.018843807 -0.0139802275 -0.011289809
-0.0023816477 -0.013557138 -0.02039601 -0.008243905 -0.010511972 -0.017467663 -0.018240608 -0.012422697
-0.014466809 -0.012926812 -0.005266645 -0.010565703

fc.1.weight f4 [100, 100]
00000000: d92e c5bc cdf4 5e3d 06f0 6a3b 26e3 cc3c
00000010: d65b 92bc 8c13 853d bef0 33bd d076 02bd
00000020: 6f65 363d ee47 423d 3f44 cb3b f08c 18bc
00000030: f0ea d23c cd5f 90bb dd4b 77bd 8705 263d
00000040: 2d11 c1bc 0744 853d 482d c03c 79d0 ebbc
00000050: 4338 f63b 9cb4 583c 1549 143d 838f c13c
00000060: 83c2 4c3d acbf a53c d7b8 343d 860f 513c
00000070: 7afd 67bb a6dc 6dbc 84e4 a13d e6d2 d03b
00000080: 8469 d33c f8c2 fc3c f61e 4e3d e724 303b
00000090: 8df8 643c ebc7 d0bc 5024 783d c18a 083d
000000a0: e77a 3b3d 2b63 af3b 848a 8b3b 1bf0 a23c
000000b0: d0c6 303d aab7 273d 567c a03c 23c9 033d
000000c0: ad65 503c 9943 aebc 773a 9e3c c632 4e3d
000000d0: 0e50 653d 6eae 363c 0881 0d3d 1581 90bc
000000e0: 3676 543c 9b96 913c 726d 9cbb 379d 7dbc
000000f0: b8c1 b03c 5401 223d 0386 433c ecda d13b
00000100: 98e9 c6bc d22c 3a3c 8083 5e3d d87f b6ba
00000110: 4833 9fbc ba86 f03c 88a0 ebbc c575 3cbc
00000120: b83f 313c fdbc ad39 ed86 dfbc a44d 8abb
00000130: e466 b43c 0b2f f23c 73cf 1dbd 56ec 283b
00000140: 78ea 273d ea0a 7e3d ca56 5b3d 1a78 f43c
00000150: fb98 46bc aaed dfbc 36f2 623d 82e4 5a3d
00000160: baf7 143d 40ef 223d 8c14 98bc 4358 c43c
00000170: 0cd3 883c f008 2fbd 2f3e 0abc 62e0 4c3d
00000180: 6bac 393d 316c 243a f23f ea3b 61b8 be3c
00000190: c225 a43c ce53 44bd 87c3 b33b 49f0 99bc
000001a0: 39c9 8a3c 15df 94bd b28f b13c 5427 6d3c
000001b0: 49c1 dabb c4cb 1cbd 0c90 67bd a71d af3c
000001c0: f1e3 1fbd 577d f43c 7ce4 82bc d691 7fbd
000001d0: ec35 a93c e454 82bd 90fa 52bd fcc1 6e3a
000001e0: 0746 173d 6d9d e9bb bfae 7ebc 5153 6cbc
000001f0: a1b2 05bd 9a64 04bd a8d3 46bd 720c b43b
00000200: a2b7 5a3c 0936 b3bc f3e7 3abd fb1f 7f3c
00000210: 8b92 5ebd 235d 0437 74ff 8dbc d61c af3c
00000220: 2dc6 e6bc ffad bb3c bf05 a6bd 4b0d dfbc
00000230: 828f 163d 3c7d 22bd b8b3 bcbc 4b2d 28bd
00000240: 3360 9fbc 1d50 4dbc aee7 75bc bdc1 89bd
00000250: 66ef 563d 56f6 60bc 9735 5bbc 479d 41bc
00000260: a93a ecbc bc97 493b 2900 30bd a191 63bc
00000270: 3368 25bd 4090 c1bc a774 05bc f7bb e33b
00000280: aeaf 573d a9c4 42bd 594b 823c bbeb 2f3d
00000290: cdec fc3b 7469 fc3c 27bd 79bd d922 e13c
000002a0: b5be 713c d0ed 16bd 7219 c9bc 0a9e 9f3c
000002b0: 2646 923a 3d80 e13c b142 9d3a 8bf8 e33c
000002c0: a5dd 4cbd 556e 18bd 6f7f fd3c d6bb 9fbb
000002d0: 81c6 de3c 7d33 d0bc 1dd1 4bbd e626 e3bc
000002e0: d20d bc3b d9dc aabc 442e 36bd 7b4c 793b
000002f0: 8855 5cbd 665c 10bd f561 8bbb 8b76 9f3c
00000300: 9a1e 8fbc 7d2d 00bb 6fc0 b93c cae7 e5bc
00000310: 3d8b 2bbd 0868 42bd ac72 a83c ac82 7ebd
00000320: 2e7c 25bc 843f 8f3b 0c47 38bd 86e7 9a3c
00000330: f885 d3bc a930 2b3d 53d4 f3bc 3036 dabc
00000340: 5a1b 303d 46ec a23c 886f 943d e4a2 07bd
00000350: 4f46 cc3c 42ce 19bd 7846 863b 1a52 db3c
00000360: b6ed 93bc d1a6 993c 63d4 6a3d 7aef 34bc
00000370: 386c 8b3c 4599 6bbc 80ce c63b fa13 6b3d
00000380: 59fe b93c da1c cf3c b785 db3c 00f4 5f3c
00000390: 9a7f 2b3b e70f 9c3c 74ca 663d 8269 6bbb
000003a0: 51b4 d23c 2ac1 2c3d 61fd 393d c3b0 b43c
000003b0: 6871 483d 0328 82bc 5d46 3e3d bbb5 3b3d
000003c0: 0db0 92bc 66a8 0c3c 0569 9d3d 8bb9 093c
000003d0: 2f89 0d3d 5034 9c3c ed7f 5c3c 6ad8 ba3b
000003e0: 05df d43c 35c5 0bbd 9115 1bbd c068 293d
000003f0: 298d 5e3d e0ef a6bc be4f 343d da84 c83b
-0.02407019 0.05443268 0.0035848632 0.025010657 -0.017866056 0.06497869 -0.04393076 -0.03185159
0.04453033 0.04743188 0.006203204 -0.009310946 0.025746793 -0.0044059516 -0.060375083 0.040532615
-0.02356776 0.06507116 0.023459092 -0.028785931 0.007514031 0.013226654 0.03620251 0.023628002
0.04999019 0.020232998 0.04412159 0.012760049 -0.0035398887 -0.014517939 0.07904914 0.0063727973
0.02580715 0.030854687 0.050322495 0.0026877464 0.013975275 -0.025485953 0.060581505 0.03333545
0.045771506 0.005352398 0.0042584557 0.019889882 0.043158352 0.04094664 0.019590538 0.03217424
0.012719554 -0.021272467 0.019314988 0.05034139 0.05598455 0.011149986 0.034546882 -0.017639676
0.012967637 0.01777201 -0.004773789 -0.0154793775 0.021576747 0.039552048 0.011933806 0.0064042713
-0.024281308 0.011363225 0.054324627 -0.0013923598 -0.019433632 0.029361118 -0.02876307 -0.011502688
0.010818414 0.0003313794 -0.027286017 -0.0042206813 0.022021718 0.029563447 -0.038527917 0.0025775633
0.04099509 0.062022127 0.053549565 0.029842425 -0.012121434 -0.027335007 0.05540677 0.05344058
0.036369063 0.039778948 -0.018564485 0.023967868 0.016702197 -0.042733133 -0.008437677 0.050018676
0.045330446 0.00062722253 0.007148736 0.023281278 0.020037536 -0.047931485 0.005485955 -0.018791335
0.016941654 -0.07269112 0.021674965 0.014474709 -0.0066758734 -0.038280264 -0.05653386 0.021376444
-0.03903574 0.029844923 -0.01597809 -0.06239494 0.020655595 -0.06363848 -0.051508486 0.00091078854
0.036932018 -0.0071293623 -0.015544592 -0.014424161 -0.032641057 -0.032322504 -0.048541695 0.0054946477
0.013349446 -0.021876352 -0.04563136 0.01557159 -0.054338973 7.889498e-06 -0.017333724 0.021376055
-0.02817067 0.022910116 -0.08106565 -0.027228018 0.036757953 -0.039670214 -0.023034915 -0.04105882
-0.019455051 -0.0125313075 -0.01500885 -0.06726406 0.052474402 -0.013730606 -0.013379476 -0.011817283
-0.028836565 0.0030760607 -0.042968903 -0.013889701 -0.040382575 -0.023628354 -0.008145488 0.0069498974
0.052657776 -0.04755083 0.01590507 0.04294942 0.0077186585 0.030812003 -0.060971405 0.027482437
0.014754941 -0.03684789 -0.024548266 0.019484539 0.0011159822 0.02752697 0.0011998025 0.027828475
-0.050016064 -0.037214596 0.030944554 -0.0048746867 0.027194263 -0.025415177 -0.049759973 -0.02772851
0.005738952 -0.020857261 -0.044477716 0.003803997 -0.053792506 -0.035244368 -0.0042536207 0.019465705
-0.017470647 -0.0019558363 0.022674767 -0.028064627 -0.041880835 -0.047462493 0.020562492 -0.062136337
-0.0101004075 0.0043715853 -0.04498963 0.018909227 -0.025820717 0.041794453 -0.02976433 -0.026637167
0.042994834 0.019888055 0.072478354 -0.03311433 0.02493587 -0.03755022 0.004097756 0.026772548
-0.018057685 0.018756302 0.057331454 -0.011043424 0.017019376 -0.014379804 0.006067097 0.057392098
0.02270429 0.025282312 0.026797159 0.013669014 0.0026168586 0.019050552 0.056345418 -0.0035921042
0.025720747 0.042176403 0.045407657 0.022056943 0.048936278 -0.01588822 0.046453822 0.04582761
-0.017906213 0.008585071 0.076860465 0.008406053 0.034554657 0.019067913 0.013458234 0.005702068
0.02598525 -0.03412362 -0.037862364 0.041359663 0.05433384 -0.020378053 0.04402136 0.0061193528

fc.1.bias f4 [100]
00000000: 254f 453c 5615 10bc e538 0a3b 08a3 2dbb
00000010: 3895 1ebc ed14 6aba 9083 a6bb 059d 513c
00000020: a2e7 af3a 97a0 f0b9 5afb 63bc 8a81 3f3b
00000030: 32ba 1fbc c9e7 ce3b 7adb fcba b732 04bc
00000040: 67a7 073c b802 6aba a257 103b 9d8b 34bc
00000050: bbca 19bc a817 36b8 fb6c 41bc 253b 92bb
00000060: 2899 073c d922 d7ba 4f59 e7bb 502b f8bb
00000070: f5ec 2dbb d315 45bc 54e7 04bb fb9c e83b
00000080: bf7d 43bc 4546 c6bb bfc8 efbb e090 6fbb
00000090: 88ec 383c 3060 3b3c 9685 60bc 48ed 9cba
000000a0: 290a 42ba 0814 69bc 694b f8b7 2e60 3e3a
000000b0: 9e19 4bba 222f 14bc ad68 593a b655 583c
000000c0: f4ca e538 b76d 1cbc 3c3c a6bb ba9e 34bc
000000d0: dfaf 8a3b 4159 13bb 0407 95bb b16f 48bc
000000e0: 1bd5 dfbb f1f4 593c 4b22 3d3c 7f25 13bc
000000f0: d254 903b 214a 4b3c a968 14bc 0709 52bc
00000100: 64e5 4e39 2a67 243a c699 023c 4990 62bc
00000110: afe0 ce39 4482 3ebc fa5e 36bc 494a 96ba
00000120: 073d 23bc b24c 3abc ce14 8d3b c51d 1f3b
00000130: 8400 903b 2ea1 66ba 78c3 9eba 2e69 9abb
00000140: 8ac9 f5bb fb57 583c e013 12bb a1fb 123c
00000150: ffed 49bc c7b4 54bb 158f d9bb 2376 593c
00000160: ee7b 78bb 2e16 20bc fd3f bb3a 7451 053c
00000170: a167 04bc 5136 e3ba 7a42 c83b c0dc 89ba
00000180: 0f3e 7e3b ce9d 3c3b 10f5 a9ba a480 3e3c
0.012042795 -0.008794149 0.002109104 -0.002649488 -0.009679131 -0.000892951 -0.0050816014 0.012793784
0.0013420472 -0.00045896016 -0.013914907 0.0029221498 -0.009748982 0.006314252 -0.0019291483 -0.008068732
0.008279658 -0.0008926797 0.002202489 -0.0110196145 -0.009386714 -4.3414213e-05 -0.011805768 -0.004462617
0.008276261 -0.0016413584 -0.007060207 -0.0075735226 -0.0026538942 -0.012029129 -0.0020279484 0.0070987917
-0.011931836 -0.0060508572 -0.007317632 -0.0036554858 0.011286862 0.011436507 -0.013703724 -0.0011972571
-0.00074020267 -0.014225967 -2.959902e-05 0.00072622567 -0.00077476527 -0.00904444 0.0008293491 0.013204029
0.00010957374 -0.009547642 -0.0050730985 -0.0110241715 0.0042323912 -0.002248362 -0.0045479555 -0.012233661
-0.006830824 0.0133030275 0.011543821 -0.008981108 0.0044046426 0.01240781 -0.009058156 -0.012819535
0.00019731146 0.0006271476 0.007971233 -0.013828346 0.00039458784 -0.011627737 -0.011131043 -0.001146623
-0.0099632805 -0.011370825 0.0043054586 0.0024279219 0.0043945927 -0.00087978214 -0.0012112698 -0.0047122454
-0.007500832 0.01320457 -0.0022289678 0.008971126 -0.012324809 -0.0032456385 -0.006639371 0.013272795
-0.0037915665 -0.009770913 0.0014286038 0.008137096 -0.008081348 -0.0017334913 0.0061114402 -0.0010518059
0.0038794314 0.0028780582 -0.0012966711 0.01162735

fc.2.weight f4 [100, 100]
00000000: 8226 943d 9d8c bcbc bf0b fd3c ef02 84bc
00000010: 77d9 fcbb 5eaf ce3c 2fa2 dcbb 8bbb 193d
00000020: 1e2c 703c 9b30 dd3c 0c71 1fbd 7cf5 183c
00000030: c75f 09bd 37fe c73c 05fa adbc 06bc 9bba
00000040: 5a78 4e3d 30cd 583d 761d 863d 843f eabc
00000050: d16c cabd c284 3a3b 9391 d5bc c114 4dbd
00000060: 0a14 a33c 7d51 58bd 5458 89bd 40a7 5cbd
00000070: ffea f6bb 6667 26bd 0abc 7bbc f8a1 103d
00000080: 04b5 4abd d5b1 28bd d674 f0bc d2a0 67bc
00000090: 21af 463d 6b9f ef3c 3ed2 15bd e43e 98bd
000000a0: 8444 013c 3855 353a 37c2 563d 0756 903c
000000b0: 8904 8abd b869 4fbd a194 253d dc6e 463d
000000c0: b6e2 5bbd a41f 24bd a077 debc d860 bcbc
000000d0: 28e0 473c b5b7 58bc 164f a2bc cc46 39bd
000000e0: d5fd 11bd 4b5a 823d 8e7d 233d bc2c 30bd
000000f0: 8240 2f3d 212b 813c 673b 263c 94f2 90bc
00000100: 7b81 35bd 7f43 a53c 6776 ba3c 501a 10bd
00000110: fefa 053d ee98 06bd f28a 3cbc 2826 913c
00000120: 0996 b9bd edef 72bd aad2 053b 6ed5 54bc
00000130: 67f7 2e3d 9a78 fc3c cd3d 62bd 4ae5 67bd
00000140: 9853 4f3c 24d5 bb3c 4133 1dbc 3724 b13c
00000150: ff90 18bd 26c1 453d 1a3f 4bbd d21b 383d
00000160: 03e8 0f3d d303 90bc 6f67 553d 7ba8 593d
00000170: cb93 28bd 245c 0b3d d4de f03c 82a1 2f3c
00000180: d3a3 0a3d 8a27 f43c c6f2 a73c f984 c2bb
00000190: 451d b0bd 5833 5e3d 7d7c 85bd 3606 5c3d
000001a0: 908f 743c be0f 7abd 72a4 1f3d 924d 5ebd
000001b0: 3089 fdbc 0e8c 00bd ba6b 153d d14d 2cbd
000001c0: faa8 683d 81e0 0dbd 1bb2 60bc a67e 6d3c
000001d0: 60f9 9dbc 2c90 abbc 031f 38bd 590e 543d
000001e0: 649a e93c c78a c6bc d684 333d a90e 393d
000001f0: b1cf 4ebd 60af 97bc d3ad 953c a445 d13c
00000200: fc4d 02bc a94a ad3d cec0 eeba 5042 63bd
00000210: 322f 013d 5026 833c 98db a13c 2548 b13c
00000220: 7013 a83b 7de4 33bd 0ae3 513c 174a 7a3d
00000230: 41e9 94bd 8b13 0c3d bba4 57bd a9aa aabc
00000240: e788 383d b846 533d abca 8fbc 518a 9dbd
00000250: 358a 273d bb62 be3c e9b7 ea3c 1273 753d
00000260: 5ed2 c33b 067d a7bb ca2b 7f3c 3303 4a3d
00000270: c6dc e13c ae0e 84bd 46ad 5ebc 79c5 99bb
00000280: 69ca 8ebd a9c3 98bd 47ef 103d 514b 2a3d
00000290: d516 b53d ca0a 40bd b629 82bd daac 7c3d
000002a0: e2c9 dfbc 7e81 683d 5e29 e23c 6f3d 61bd
000002b0: 678e c93c 8037 6e3d 05c7 03bd 313a 24bd
000002c0: 875b 47bd 46de 8dbc c0e2 693c 2c2f cf3c
000002d0: 4af1 103d 0e24 44bd 101c 4b3b ba19 fe3b
000002e0: 2d6e 343d 81c6 f33b fb77 3f3d 4976 5abd
000002f0: 11ef 11bd 81cb 893d 4bea 593b d92f 63bd
00000300: 0b52 523d e02e 55bd ec0a 37bd 0951 c3bc
00000310: cf0a 28bd c87e 8dbd 1b74 a3bd 4dcb 72bd
00000320: 0bbd 6b3d 7d41 42bd b93d 263d a9b9 35bc
00000330: 8b84 ccbc b039 5f3d 8db9 99bc 7209 a33d
00000340: 4f02 553d 2e8d 453d 846d 31bd 066c b23b
00000350: efc3 14bd c951 8c3d e8ab 0fbd 0d57 38bd
00000360: f3b5 3d3d 1004 8f3d 9c88 833d 4c3a 37bd
00000370: 3779 14bd 2180 bb3c 0ed1 41bd 5a17 fb3b
00000380: 8b14 873d eb02 26bd 4175 edbc 1a49 3ebd
00000390: a620 89bc 80d9 34bd 1393 8c3c d9e3 d43c
000003a0: e131 3fbd e503 5bbd 6454 50bd 4284 fcbc
000003b0: b314 2d3c 42ed ec3b 7fcf 2bbd 6576 34bd
000003c0: 4930 423d 3d77 b4bc 83f2 5a3c 76dc 463d
000003d0: ab41 34bd 2d08 a0bd ccc1 6cbc 54df 943d
000003e0: 7861 0ebd 313b 72bc 1304 08bd ce16 363c
000003f0: 123a 1c3d 4dd6 1ebd c00a 05bd 55b7 d1bc
0.07233907 -0.023016268 0.03088939 -0.01611468 -0.0077163535 0.025230106 -0.006733201 0.03753237
0.014658956 0.027000716 -0.03892617 0.009335872 -0.033538606 0.024413211 -0.021237383 -0.0011881597
0.050407745 0.052930057 0.06548588 -0.02859474 -0.09884036 0.0028460477 -0.026070392 -0.05006862
0.019907016 -0.05281209 -0.067063004 -0.05387044 -0.007535338 -0.040625952 -0.015364656 0.035310715
-0.049489036 -0.04118522 -0.029352587 -0.014137464 0.04850686 0.029250821 -0.036577456 -0.074338704
0.007889871 0.00069173006 0.05243131 0.017619146 -0.06739146 -0.05063793 0.040424947 0.048445567
-0.053683005 -0.040069237 -0.027156651 -0.022995397 0.012199439 -0.013227393 -0.019813102 -0.045233533
-0.035642464 0.06364878 0.03991466 -0.043011412 0.04278613 0.015767636 0.010145999 -0.017693795
-0.044312935 0.020173786 0.022761537 -0.035181344 0.032710068 -0.03286069 -0.0115077365 0.01771839
-0.0906182 -0.059310842 0.0020419755 -0.012990339 0.04271641 0.030819226 -0.05523472 -0.05661515
0.012654208 0.022928782 -0.009594739 0.021623714 -0.037247654 0.048279904 -0.049620725 0.044948407
0.035133373 -0.017579949 0.052100595 0.05313919 -0.04115657 0.03402342 0.029403128 0.010719659
0.03384764 0.02980401 0.020501506 -0.0059362617 -0.08599333 0.054248184 -0.06517885 0.05371686
0.014926806 -0.06105017 0.038975187 -0.054273196 -0.030949205 -0.031383567 0.03647969 -0.0420664
0.056801774 -0.03463793 -0.013714339 0.014495527 -0.01928395 -0.02094277 -0.04495145 0.051771495
0.028516002 -0.024236096 0.043827854 0.045179997 -0.05049104 -0.018516243 0.018271362 0.025545903
-0.007953163 0.08461506 -0.0018215419 -0.055483162 0.03153915 0.01600948 0.01975803 0.021640847
0.0051292703 -0.043919075 0.012810478 0.061105814 -0.07271052 0.034198325 -0.052647334 -0.02083333
0.045052435 0.051581115 -0.017552694 -0.076923974 0.04090329 0.023240438 0.028652148 0.059924193
0.0059760055 -0.0051113395 0.015574405 0.049319457 0.027571093 -0.064481124 -0.013591116 -0.00469273
-0.069722004 -0.07459194 0.035384443 0.041575734 0.088422455 -0.04688529 -0.06355612 0.06168828
-0.027317945 0.05676412 0.027607616 -0.05499023 0.024604036 0.058158398 -0.03217222 -0.04009456
-0.04867127 -0.017317902 0.014275253 0.025291048 0.03538636 -0.047885947 0.0030992068 0.0077545317
0.044050384 0.007439435 0.04674528 -0.05333546 -0.035628382 0.067282684 0.0033251222 -0.055465553
0.051347774 -0.052046657 -0.04468815 -0.023842352 -0.041025933 -0.06908947 -0.0798113 -0.059275914
0.057553332 -0.047425736 0.040586207 -0.011091628 -0.024965545 0.054498374 -0.018765235 0.07960786
0.052004155 0.048230343 -0.043317333 0.0054450063 -0.03631967 0.06851537 -0.035076052 -0.045004893
0.0463161 0.06983197 0.064225405 -0.04473333 -0.036248412 0.022888245 -0.04731851 0.007662696
0.06595715 -0.040530127 -0.028986575 -0.046456434 -0.0167392 -0.044152737 0.017159974 0.025987552
-0.046678428 -0.05347051 -0.05086173 -0.030824784 0.010564017 0.007230432 -0.04194593 -0.044058222
0.04740933 -0.022029513 0.013363483 0.04855009 -0.04400794 -0.078140594 -0.014450502 0.07269159
-0.034760922 -0.01478462 -0.03320701 0.0111138355 0.038141318 -0.038778592 -0.032480955 -0.025600115

fc.2.bias f4 [100]
00000000: 5a22 393c ad6e 02bc e346 c83b 41ba 213c
00000010: f305 35bb 04c0 0c3c 3cc4 083c 6627 d43b
00000020: 1ca3 a3bb c9ff fabb 87e2 f23b d4e9 47bb
00000030: 63ae 8ebb 4546 01bc 954a d03b 90ba 023c
00000040: 1ea8 4dbb 2350 08bb 5111 6ebb dd16 3a3c
00000050: cd57 ecbb c54a 0d3c f127 0c3c 830a 283c
00000060: e750 f4bb 1d35 713b 0f02 c3bb 63cc 88bb
00000070: 45bd 0d3c 592c c1bb 529a 113c 18bc d3bb
00000080: ebe1 fb3b 7aaa 8cbb 5c84 e03b 24e9 4cbb
00000090: eeaf be3b 0ca8 59bb c519 adbb c418 133c
000000a0: 254e 163c 3127 c8ba 6490 f63b be6c 2a3c
000000b0: 1cbc d3ba c4b1 c3bb 1cf0 d83b 61c5 ba3b
000000c0: 6fea 94bb 286c ee3b 0344 11bc 376b 6fbb
000000d0: 094e d23b a176 4a3c 18b5 db3b 49a3 053c
000000e0: a973 023c 5de6 0e3c cfbc 0f3c 2295 d63b
000000f0: 5d26 2b3c 8876 b03b 2d0b 833b 83bd 6dbb
00000100: 0eb8 e0bb 9914 81bb c5f4 173c 40a6 b83b
00000110: 2ed4 063c efa4 41bb 4db2 0f3c c27b 97bb
00000120: c4d2 083c 36c6 153c 8ca7 09bb 614b f5ba
00000130: bab0 87bb 4e2f 9fbb d002 fe3b 18de 5cbb
00000140: 84a0 c13b 48ba 033c 92d3 83bb 557c 013c
00000150: 53e0 dd3b 549e 253c 8a50 8f3b 1fcc 94bb
00000160: 49ba c63b a8e8 343c a072 363c aa9b 8cbb
00000170: 4eca a53b a702 ee3b ccfd c0bb 4c75 db3b
00000180: b239 103c 46d4 d9bb 5e64 f3bb e8f2 e1bb
0.011299694 -0.0079609575 0.006111966 0.009871067 -0.0027621954 0.008590702 0.008347567 0.006474423
-0.0049938094 -0.0076598865 0.007412258 -0.0030504363 -0.0043542846 -0.007890289 0.006356547 0.00797905
-0.0031380723 -0.0020799718 -0.003632624 0.01135799 -0.007212615 0.0086237835 0.008554445 0.010256412
-0.0074559334 0.003680534 -0.005951173 -0.0041747554 0.008651082 -0.005895179 0.0088868905 -0.0064616315
0.0076868436 -0.0042927833 0.006851716 -0.0031266892 0.0058193123 -0.0033211736 -0.005282613 0.008978073
0.009173905 -0.0015270469 0.007524537 0.010401903 -0.0016154083 -0.005972119 0.00662042 0.005699799
-0.004544548 0.007276077 -0.008866313 -0.003653241 0.006417994 0.012357385 0.0067049377 0.008156606
0.007962146 0.008721915 0.008773043 0.0065485397 0.010446158 0.005385224 0.003999135 -0.0036276288
-0.0068578785 -0.003939223 0.009274666 0.005635053 0.0082292985 -0.002954777 0.008770538 -0.0046229074
0.008351032 0.009141495 -0.0021004407 -0.0018714481 -0.0041409405 -0.004857934 0.0077518 -0.0033701714
0.0059090275 0.008040018 -0.004023024 0.007903178 0.0067711263 0.010108549 0.0043736147 -0.0045409347
0.0060646874 0.011041798 0.011135727 -0.0042910175 0.005059517 0.0072635 -0.00588963 0.0066973325
0.008802818 -0.0066476194 -0.007427736 -0.0068954118

fc.3.weight f4 [100, 100]
00000000: 9f05 e0bc 3678 793d d4b6 22bd decf 42bd
00000010: 95cb 3e3d 2790 89bc 3849 55bd 1a48 a4bc
00000020: aa63 4f3d 0dbb 703d 84ed 9bbd c9a4 c43c
00000030: c865 653d bd18 fc3c dd56 67bd a80d 5cbd
00000040: 3a6f 5d3d 8041 d53c 3b01 3a3d e3be 77bd
00000050: 29c5 263d e17d 14bd 27b7 0ebd eec6 85bd
00000060: 9a68 863d 2559 33bd bc89 d93c fe57 4f3d
00000070: 5fb6 05bd 12b9 633d ca49 6abd 368e bc3c
00000080: f15a 4abd fd5e 213d 700d a9bd ce51 813d
00000090: 04fb 83bc c67a 353d 8e09 8c3d 8e5f 94bc
000000a0: 4e6b 02bd 07df d83c 3fee fbbc 8bfc 86bd
000000b0: be9b 753d 20e2 933d 11bf 79bd 5c40 2abd
000000c0: 6dc5 543d a3d4 a8bd febf 173d a9bc 333d
000000d0: e9e4 33bd 2d05 fabc de8b 30bd e0bf 1abd
000000e0: 8623 71bd d839 15bd b12d 85bd ddcf 44bc
000000f0: 1dfe 6bbd f6c6 383c 1efc af3b 07b3 653d
00000100: 4793 683d 08b0 923c 4e75 81bd 3fba fbbc
00000110: 0425 37bd af35 373d 8004 31bd feee 603d
00000120: f76f 24bd fd7b a7bd effe fa3c 208e 2c3d
00000130: aeaf e83c a684 7b3d f31d 6cbc 0052 bf3c
00000140: 74a6 c9bc d489 4ebd 87a9 e73c 048e 74bd
00000150: 09ac 1ebd 6dbf 73bd a151 6dbd 0612 30ba
00000160: 30e3 13bd fb25 5bbd 0340 a4bc 5839 d83c
00000170: 4f61 52bd 8e47 15bd aa19 a13c dc59 09bd
00000180: 0c59 1fbd 2664 813d 6d5e 2f3d 5193 133d
00000190: ab27 71bd 04c2 753d d929 8ebd 7e87 c1bc
000001a0: 63c7 c73c 4a49 02bc 1fda a6bd 73da c7bc
000001b0: 752e 323d 2b8d 833d 17e1 d8bc 9be6 173d
000001c0: 85c9 243d 07a4 363d 1811 84bd d929 83bd
000001d0: c45a 223d a967 14bc abd4 063d e7b8 6ebd
000001e0: 9bd1 e73c 0a79 61bd 129f 0ebd c409 40bd
000001f0: a23e 8a3d dff1 d9bc 3be5 6d3d 7bd2 273d
00000200: adc9 2dbd 46c1 423d 095e 523c 87aa 5f3d
00000210: ded5 17bd 5399 373d f887 83bd 76f3 0c3d
00000220: 8ed8 e9bc 39f6 2a3c b46a df3c 6729 3bbd
00000230: 4a1e 49bd e512 ab3c a7da 2cbd 9d81 46bd
00000240: 6cad 5f3d 99a2 3c3d b70e 38bd d738 1cbd
00000250: 147f 8e3b 60c7 3cbd 6b61 813d ea5c 9e3c
00000260: 5626 58bd a438 58bd 9cf9 32bd 7706 0d3c
00000270: 7b6b 41bd 745c 48bd d1d1 28bd f53f 60bd
00000280: 89f8 96bd c0f4 18bd 3d10 27bd c80b 833d
00000290: 989a 693d bd4c 123d 7443 0ebd 8f2b 36bd
000002a0: 1fc5 74bd d4d5 2f3d 7d3b 75bd 40e6 ea3c
000002b0: 0349 11bd d1b2 96bd 6b93 c73c 6a0a 383d
000002c0: d957 1d3d b8a4 aa3d 3eb5 c8bc c830 113c
000002d0: 7ad9 11bd 8001 90bd 49f9 7d3b 49c8 61bd
000002e0: dbcd a1bc dd16 75bd 3cb9 99bc d3d5 113d
000002f0: 180e 71bd ae80 5ebd 4757 7cbd b93b 803d
00000300: f972 7fbd 3ca8 58bd 1cbc 3d3d 0a4b 88bd
00000310: 0a6e 4abd a3ed 4d3d 0b7d 7c3d 06db 093d
00000320: 8935 60bd 5a7b 1d3d d64b 30bd 39b8 74bd
00000330: 5147 c03c cb01 55bd 0698 1dbd d4ee 2bbd
00000340: f644 973d d04c 8e3d 65d4 9abd 463f d83c
00000350: 1b18 ae3b 91fb a63d f5e2 69bc 8ec4 43bd
00000360: c48f 7c3c 488d fb3c 8b61 283d 575f 70bc
00000370: dcf6 413d 8d21 2fbd e3f6 1fbd f59a 24bd
00000380: 959b 743d beaa a2bc c7f6 833c 0d07 413d
00000390: 9910 1ebd d1d2 4a3c cebc 8cbd 0623 443d
000003a0: 017c 83bd f988 173d da51 8fbd d2c1 473d
000003b0: 6f7f 54bd 4dec a13c 08da 363d bcbc 2cbd
000003c0: f06c a5bc c09a 1c3d 29d5 83bd 887b abbd
000003d0: 1057 ab3c 1d93 4e3d 690d 25bc 71a2 1bbd
000003e0: 8c86 523d dcb1 bcbc a2a8 9c3c 5250 333d
000003f0: 9e5d 57bd 0195 46bd ef95 2bbd 5aa0 80bd
-0.02734643 0.060905658 -0.03972514 -0.04756152 0.04658087 -0.01679237 -0.05207178 -0.020053912
0.050632156 0.058772136 -0.07613662 0.024004357 0.05600527 0.030773515 -0.056479324 -0.05372396
0.054061152 0.02603221 0.04541133 -0.060484778 0.04071537 -0.03625286 -0.034842636 -0.065320835
0.0656292 -0.043786187 0.026554935 0.050621025 -0.032644626 0.05559642 -0.057199277 0.02301703
-0.049403135 0.03939723 -0.08254516 0.06314431 -0.016110905 0.04430654 0.0683776 -0.01811197
-0.031840615 0.026473535 -0.030753253 -0.065911375 0.05996298 0.07220864 -0.06097323 -0.041565284
0.051946092 -0.08243682 0.037048332 0.043881092 -0.043919478 -0.030520046 -0.043102138 -0.037780643
-0.05887177 -0.036432117 -0.065028556 -0.012012449 -0.05761539 0.011277905 0.005370631 0.056078937
0.05678108 0.017906204 -0.06321202 -0.030728457 -0.044713035 0.04472893 -0.043217182 0.05491542
-0.04014584 -0.08177946 0.03063914 0.04212773 0.028404083 0.0614058 -0.014411437 0.02335453
-0.024615504 -0.050424412 0.02827908 -0.05970575 -0.038738284 -0.05950873 -0.057939176 -0.0006716553
-0.036105335 -0.053503018 -0.020050054 0.026394531 -0.051362332 -0.036445193 0.019665558 -0.033532962
-0.03890328 0.0631793 0.04281466 0.036029164 -0.05887572 0.05999948 -0.069415756 -0.023624178
0.024387067 -0.007952044 -0.08147072 -0.024396157 0.043501336 0.0642341 -0.026474519 0.037085157
0.040231247 0.044590022 -0.06448573 -0.06404466 0.039637342 -0.009057918 0.03291766 -0.058281805
0.02829819 -0.055047072 -0.03481967 -0.046884313 0.067502275 -0.026604591 0.05807994 0.040972214
-0.04242866 0.0475476 0.012839803 0.054605987 -0.037069194 0.044823956 -0.06422418 0.03441187
-0.028545644 0.010434681 0.02727256 -0.04569378 -0.04910115 0.020883033 -0.04220071 -0.048463453
0.054608747 0.046053503 -0.04493591 -0.038140144 0.004348645 -0.046088576 0.06317409 0.019331414
-0.052770935 -0.05278839 -0.043695077 0.008607498 -0.047221642 -0.048916295 -0.04121572 -0.054748494
-0.07371623 -0.037342787 -0.04078697 0.063987315 0.057032198 0.035717715 -0.034732297 -0.044475134
-0.0597583 0.04292853 -0.059871186 0.028674245 -0.03547002 -0.07358325 0.024362287 0.044931807
0.038413856 0.08332199 -0.024500486 0.008861728 -0.035607792 -0.07031536 0.0038753322 -0.055122647
-0.01975148 -0.059836257 -0.018765084 0.03560431 -0.05885133 -0.054321937 -0.06160667 0.06261391
-0.062365506 -0.052894816 0.046321973 -0.066549376 -0.049421348 0.050275456 0.061642688 0.033656143
-0.054738555 0.038447715 -0.043041073 -0.059746 0.023471506 -0.052003663 -0.03847506 -0.04197581
0.073862 0.069482446 -0.07560042 0.026397359 0.005312932 0.08153451 -0.014275302 -0.04779487
0.015415136 0.030707017 0.04110865 -0.014671168 0.047354564 -0.042756606 -0.03905381 -0.04018684
0.059718687 -0.019856807 0.016108884 0.047125865 -0.038590048 0.012379364 -0.06871949 0.047884963
-0.06420136 0.03699586 -0.06998034 0.048768826 -0.051879343 0.019765997 0.044641525 -0.04217218
-0.020193547 0.03823352 -0.064371414 -0.08373171 0.020915538 0.050433267 -0.010073998 -0.037996713
0.051397845 -0.023034029 0.01912338 0.04377777 -0.052579515 -0.048481945 -0.041891035 -0.06280585

fc.3.bias f4 [100]
00000000: e035 37bb ecf4 a2bb 0f10 5cbb dbd1 1c3c
00000010: bd34 8abb 7c42 64bb 0e7e 78bb c647 84bb
00000020: 44fc 70bb 20e8 35bb 85a6 fe3b 4426 003c
00000030: 9906 013c 1452 0fbb c863 0a3c a2e8 063c
00000040: 2d93 fe3b 41b7 60bb a6dd 92bb aba2 61bb
00000050: 2e90 9bbb 4361 153c 7e41 22bb c219 b2bb
00000060: 4bd9 0e3c 08d1 5cbb 7112 153c cf93 ecba
00000070: ea33 89bb 89ba fd3b 3387 a4bb 8de2 6fbb
00000080: 2e7f 053c 3723 77bb 4546 92bb 319b 093c
00000090: 9594 6cbb 3a34 0f3c 267d 043c 185d e73b
000000a0: e8fb 84bb 0b43 66bb 0429 72bb a0e0 103c
000000b0: ac70 60bb df96 47bb 6c86 0c3c 4683 093c
000000c0: 1667 14bb cefe ff3b 096a 20bb 3530 90bb
000000d0: 38f4 89bb 0a90 85bb e2c5 243c 22d2 053c
000000e0: eada fb3b e108 f93b 2757 0a3c 0292 5bbb
000000f0: 8803 0b3c ec2c 84bb 870e 89bb 779e 003c
00000100: d94a 0e3c c018 013c 4f6f 8cbb f03d ff3b
00000110: 08a8 183c ee41 8cbb d6bd 99bb e202 9fbb
00000120: 5083 84bb 1805 223c d248 1abb 39b8 88bb
00000130: bc91 56bb 5f4f 27bb 2165 54bb 5216 0f3c
00000140: afd8 82bb f9f0 193c 5ad0 93bb ab0e 75bb
00000150: 20ed 76bb 60e6 0e3c 2e49 58bb fcc7 1d3c
00000160: acdd 75bb 015c 31bb cb71 013c ab65 43bb
00000170: 2578 9dbb 820f fe3b 74d8 033c a95d 39bb
00000180: edad 98bb cba2 86bb ed61 073c 8b3f f03b
-0.0027955696 -0.0049730446 -0.0033578908 0.009571518 -0.0042177127 -0.0034829667 -0.0037916931 -0.0040368764
-0.0036771456 -0.0027756765 0.0077713155 0.007821623 0.007875108 -0.002186899 0.008446641 0.008234175
0.0077690096 -0.0034288915 -0.004481989 -0.0034429233 -0.004747412 0.009117427 -0.0024758275 -0.0054351995
0.008718799 -0.0033693928 0.009098635 -0.0018049421 -0.004187097 0.007743184 -0.005021 -0.003660354
0.008147998 -0.0037710199 -0.004463943 0.008398817 -0.0036099304 0.008740479 0.008086478 0.007060658
-0.00405835 -0.0035135176 -0.0036950717 0.008842617 -0.0034246845 -0.0030454916 0.008576971 0.008393114
-0.0022644452 0.0078123575 -0.0024477264 -0.004400278 -0.0042100213 -0.0040760087 0.010056945 0.008167775
0.0076860087 0.0075999354 0.00844363 -0.0033503775 0.008484729 -0.0040336754 -0.00418264 0.007850281
0.008684837 0.007879436 -0.00428573 0.007789366 0.0093174055 -0.0042803204 -0.0046918197 -0.0048526386
-0.004043974 0.00988891 -0.002354194 -0.0041723517 -0.0032740673 -0.0025529487 -0.003240891 0.008733349
-0.003993116 0.009395831 -0.0045109214 -0.0037392776 -0.0037677959 0.008721918 -0.0033002603 0.0096301995
-0.003751616 -0.0027062895 0.0079006655 -0.0029815238 -0.004805582 0.0077533135 0.008047212 -0.0028284586
-0.0046594054 -0.004108762 0.008263093 0.0073317937

fc.4.weight f4 [100, 100]
00000000: 90d3 32bd 08d3 45bd 9c0c d5bc d602 dc3c
00000010: 02f3 afbc b82e e53b ff4c 1dbd d1bd 99bd
00000020: 5f1e 98bb 0c4f 76bd 475a 383d 88ef 5b3d
00000030: dba2 df3c 4992 debc ed05 803d 9a10 97bc
00000040: 95c7 f4bb 043a 89bc c01f c6bc 6ab4 c7bc
00000050: 531f 94bd e313 ba3d 8c14 2dbd 60a0 96bd
00000060: e18e 4c3c 99e0 f9bc 460f 683d b08a 2abd
00000070: 654a 27bd d83c 573d bcb5 41bd e0ca 80bd
00000080: 1cea bb3c 0f82 3ebd b22f 3ebd cc33 983d
00000090: 8caf 00bd 17a5 193d 00ff 073d f947 f93b
000000a0: 3e79 4cbd dd52 29bd 2094 6cbd 8d77 e0bb
000000b0: c507 ffbc f8ef 69bd a8b9 3d3d cacb b23c
000000c0: b09c 8dbd 5120 7a3c 8c29 71bd ba9c 69bb
000000d0: 9f52 85bd b889 1cbd a44a 553d f06a 063d
000000e0: 245c 0b3d 6a11 413d 62e7 503d 1764 3cbd
000000f0: 86b7 903d 701f 41bd b2b2 89bd 2355 aa3d
00000100: 3af0 82bb b7d1 903d 7011 40bd 7c85 1b3d
00000110: afd4 f13c eeb8 2bbd 8317 49bc 3c5e 22bd
00000120: 55e9 50bd ba84 6c3c 6a9b 6cbd 3193 c7bb
00000130: b82b 66bd d41c 38bd 57a5 37bd 824d a63d
00000140: d2d1 8cbc 71d7 383d 6fc5 4cbd d365 fcbc
00000150: 3559 62bd 3fd6 553d a475 84bd 1abe 1e3d
00000160: 060d 60bd 8892 92bd 39c6 353d 3c1a 44bd
00000170: 3710 afbc 930b 0a3d 7c99 7c3d d07f 0cbb
00000180: 8618 c7bd 3870 45bd 281d 2c3d a4d8 273b
00000190: baf2 c0bc 8f3b 45bd 1097 60bd 4a77 4f3d
000001a0: 1b95 10bd 0191 363b 55cd afbc fe92 9ebc
000001b0: a6e9 4abc 5118 42bd 64b2 8e3d fed6 8e3d
000001c0: 4f93 463d e78a b8bc ad2e a63d 677d 1b3c
000001d0: afbf 543d 0d03 b0bc fdeb 72bd 0d43 0ebd
000001e0: 080d 1bbd 2a52 a03d 2355 1bbd 7eda 05bd
000001f0: 3d07 ae3d 2b71 23bc 4960 993d 72e2 e5bc
00000200: bb8e c8bc 027a 673d a3b5 93bc b84e 59bd
00000210: e607 f7ba 9229 13bd e65f 69bd 745f 043d
00000220: a2d2 82bd b541 9f3d 41bf e23c 7bfc 8c3c
00000230: 50f4 3dbd 6475 8bbd f735 a2bd 4069 8c3d
00000240: 423d 91bd d03e ebbc 1ced 8c3d 8717 923d
00000250: 2a0c 9abb ddd5 7f3d b64a f8bc 6885 87bd
00000260: d787 debc d451 8dbd 8f41 123d eda6 903d
00000270: 9580 423d 7d2e ec3c ed2e 8d3d c942 43bd
00000280: cf8d 0e3d 641a 06bd dc13 89bd d88d ab3c
00000290: 2291 443d d881 863d 9f5f 69bd 4249 4e3d
000002a0: c41f a93d d61f 86bd 80b4 80bd 1051 50bd
000002b0: f664 8ebd 08d2 573d 0129 a4bd d51d 68bc
000002c0: f032 05bc 9c77 75bd 538c 4cbd 6884 af3d
000002d0: d29d f0bc 6a45 f03c de56 d1bc 473b c9bc
000002e0: 71e7 55bd 3407 8f3d ea2c 25bd 5890 703d
000002f0: 2a63 12bd 9989 63bd 693a 6e3d 0dac 47bd
00000300: 7ff5 09bd 03dc 8e3d 6c05 403d 31a9 b7bc
00000310: 85b7 7cbd 366f b8bb f0c4 3b3d 24d2 913d
00000320: 8ad0 133c 7b3f 103d d17e 933d 0356 d7bc
00000330: 0fba 3d3d 964f 733d 3e1e 363d d44a 7d3d
00000340: 448f 3a3c c731 543d 5fd3 62bd 695d 63bd
00000350: bfa8 50bd ebeb 663c b308 4ebd e0b7 51bd
00000360: 5010 32bd 68d5 203d 6730 073d 368b a93c
00000370: 6641 f53c ec45 e6ba a4ed 4c3d e340 923d
00000380: de2c 27bd c5a1 fc3c d025 2bbd 8605 163d
00000390: 6fee 433d f1b5 0ebd f538 6d3d 9261 2d3d
000003a0: c1ac 81bd c1b3 ad3c 3d59 923d 9016 8bbd
000003b0: 6b00 9e3d 8e13 35bd 67c6 95bd 28ee 3fbd
000003c0: e2db b93c f37c 763c ada8 583d 3a5e 75bd
000003d0: 6c72 153d 14c4 bd3c 8369 2fbd 16b6 8bbc
000003e0: 970f 7c3d a45b c2bc ea1c 393d 6272 753d
000003f0: efb8 d7bb 2a80 563c ca99 51bd b7ad 23bd
-0.043658793 -0.04829696 -0.02600699 0.026856821 -0.02147818 0.0069940947 -0.038403507 -0.07506908
-0.0046422924 -0.06013398 0.04500797 0.05369523 0.027299335 -0.027169364 0.0625113 -0.018440533
-0.007470081 -0.016751297 -0.024185061 -0.02437802 -0.07232537 0.09085824 -0.042255923 -0.07354808
0.012485237 -0.030502604 0.05665519 -0.04163617 -0.040842433 0.05254826 -0.047292456 -0.06288695
0.02293878 -0.046510752 -0.046432205 0.074317545 -0.031417415 0.037510958 0.03320217 0.0076074568
-0.049920313 -0.04133879 -0.05775845 -0.006850189 -0.031131634 -0.057113618 0.046319634 0.02182569
-0.069146514 0.015266494 -0.058877513 -0.0035646395 -0.06509899 -0.038217276 0.052073136 0.032816827
0.03402342 0.047135748 0.051001914 -0.04599389 0.07066254 -0.04714912 -0.067235366 0.0831702
-0.0039959224 0.0707125 -0.04689163 0.037969097 0.02952036 -0.04192441 -0.012273672 -0.03964065
-0.051003773 0.014435941 -0.057765402 -0.0060905446 -0.056194037 -0.044949368 -0.044835415 0.08120252
-0.017189894 0.045127336 -0.049992975 -0.030810272 -0.055260856 0.052206274 -0.06467751 0.038755514
-0.05469992 -0.07156855 0.044378493 -0.04787658 -0.021370037 0.033702444 0.06166981 -0.0021438487
-0.09721474 -0.048202723 0.042019993 0.0025611306 -0.023553241 -0.048152503 -0.054831564 0.050650872
-0.035298448 0.0027857425 -0.021460215 -0.0193572 -0.012384808 -0.04738647 0.06967619 0.069746
0.04848033 -0.022527171 0.081143714 0.0094903475 0.051940616 -0.02148583 -0.059307087 -0.034731913
-0.037854224 0.078281716 -0.03792299 -0.032679074 0.08497474 -0.009975712 0.07489068 -0.02806208
-0.024482122 0.05651284 -0.018030947 -0.053053588 -0.0018846958 -0.035928316 -0.05697622 0.032317594
-0.06387831 0.077762045 0.027679088 0.017210236 -0.046375573 -0.068095 -0.07920449 0.06856012
-0.07091762 -0.028716475 0.068811625 0.07133394 -0.004701157 0.062459815 -0.030309062 -0.06617242
-0.027164383 -0.06900373 0.035707053 0.070630886 0.047485907 0.028830761 0.06893716 -0.047671113
0.034803208 -0.03274001 -0.06693241 0.02094166 0.047989972 0.065677345 -0.056975957 0.050362833
0.08258012 -0.06549041 -0.06284428 -0.050858557 -0.069528505 0.052690536 -0.080156334 -0.014167269
-0.00812982 -0.05992852 -0.04993851 0.08570176 -0.02937213 0.029329974 -0.025554117 -0.024564398
-0.052222673 0.06983796 -0.040326037 0.058731407 -0.0357391 -0.055551145 0.058161173 -0.048748065
-0.03368139 0.06975558 0.04688017 -0.022419544 -0.061698455 -0.0056284918 0.04584211 0.07120159
0.009021888 0.03521679 0.07201923 -0.02628613 0.046320017 0.05940207 0.044462435 0.06183894
0.011386696 0.051805284 -0.05537736 -0.055509005 -0.05094218 0.014094333 -0.050301265 -0.051200747
-0.043472588 0.03926602 0.033005144 0.020696264 0.029938411 -0.0017568446 0.05003132 0.071412824
-0.040814273 0.030838856 -0.041784108 0.03662636 0.04783481 -0.03484148 0.057915647 0.04232938
-0.06331778 0.021203877 0.07145927 -0.06791413 0.077149235 -0.044208102 -0.07313233 -0.046857983
0.022687856 0.015044439 0.052895237 -0.059904315 0.036486074 0.023164786 -0.042825233 -0.017054599
0.061538305 -0.023725338 0.04519359 0.059923537 -0.006583325 0.01309208 -0.051172055 -0.03996059

fc.4.bias f4 [100]
00000000: f948 eb3b 67b6 253c 7467 51ba ad86 0a3c
00000010: bcdd 223c bb3c 193c 9d63 8f39 946c e03b
00000020: a651 34ba 1294 acba 0887 e2ba ee45 103c
00000030: 714a bbb9 0d47 6fba 4977 123c 85cd 1cbb
00000040: 8cff f83b 2098 043c 7065 98ba 5329 38b8
00000050: e3af 103c 266c 13ba 0fea fcba 9fe9 1dba
00000060: f8ba cfba f9b6 afb9 7836 c438 7e08 103c
00000070: 5037 083c 264b 163c 94fd 87ba 1476 1eba
00000080: 4955 0bba c91a f0b9 2c38 3abb a4ff 1d3c
00000090: c0d6 0a3c 4c51 123c e074 183c 2738 003c
000000a0: 90e6 273c 7698 123c 4d7e 153c 31b1 103c
000000b0: 07ea c6ba 4af2 193c 2f2c 053c 7639 203c
000000c0: 5e47 69ba de41 e13b 78aa 1b3c fb8a e5ba
000000d0: 43a6 0b3c 2989 4bba c806 213c 124c 0d3c
000000e0: c1a1 ebba 0c76 143c b533 1c3c 5e86 89ba
000000f0: 97aa deba d339 163c f4e3 3ab9 eee1 143c
00000100: 9f96 c83a 2606 54ba 085a 0eba be3e 4dba
00000110: fb86 0a3c e9dc c9b9 c9be 8aba bcb3 153a
00000120: 83cf f0b9 6f7c 6dba 33df 0a3c e598 143c
00000130: 2ed0 93ba d9af 95ba 6023 91ba 6be7 9b3a
00000140: 40f2 023c 08cb 053c 5c6a f9ba ba90 1b3c
00000150: 1839 67b9 0824 e83b fafe f83b d843 203c
00000160: 44fe d8ba 3505 283c dfb2 0f3c 86f2 1a3c
00000170: 2f07 1b3c dede 263c 1a81 b1b8 9b27 1a3c
00000180: d533 183c 9ded 183c b42e 3bba 5168 083c
0.00718033 0.010114289 -0.0007988133 0.008454961 0.009940561 0.009352858 0.00027349303 0.006848881
-0.00068786216 -0.0013166687 -0.0017282674 0.008805735 -0.00035722883 -0.0009127714 0.008939573 -0.002392621
0.007598823 0.00809291 -0.001162691 -4.3907505e-05 0.008830997 -0.00056237204 -0.0019295829 -0.0006023887
-0.0015848568 -0.00033514926 9.356154e-05 0.008791087 0.008313969 0.00917319 -0.0010375255 -0.00060448167
-0.00053151377 -0.00045796324 -0.0028414829 0.009643469 0.008474052 0.0089305155 0.009305209 0.007825888
0.0102478415 0.008947482 0.009124351 0.008831308 -0.0015175947 0.009396145 0.00812821 0.009779325
-0.0008898879 0.006874307 0.009501092 -0.0017512733 0.008523527 -0.0007764274 0.009828277 0.008624094
-0.0017977284 0.009061348 0.009533812 -0.0010492315 -0.0016988096 0.00916906 -0.00017823261 0.009087069
0.0015303678 -0.00080880744 -0.0005430286 -0.0007829479 0.008455033 -0.00038502298 -0.0010585423 0.00057106814
-0.00045930975 -0.00090593746 0.008476066 0.009069656 -0.0011277252 -0.0011420205 -0.0011073165 0.001189453
0.007992327 0.008166082 -0.001902889 0.009494955 -0.00022051146 0.0070843734 0.007598755 0.0097818
-0.0016555269 0.010255148 0.008770674 0.009457236 0.009462162 0.010184972 -8.464065e-05 0.009408857
0.0092897015 0.009333995 -0.0007140443 0.008325652
