results/InfoNCE_dim6_reg1.pt (torch, 408485 bytes, 5 tensors)

fc.0.weight f4 [100, 12]
000000 51 2f c9 be 6f b3 0c 3d ef ff 45 be 26 1c de 3d
       -0.39293912 0.03435081 -0.19335912 0.10845213
000010 76 32 0e 3f 66 84 34 be 93 4c 1d bf ee 46 84 be
       0.5554575 -0.17628631 -0.6144497 -0.25835365
000020 6c 88 6c be 38 63 5b 3e ea 4b 8e 3e e2 78 0c 3f
       -0.23098916 0.21424568 0.27792293 0.5487195
000030 ab 25 a8 3e 07 57 c4 3e eb 46 b0 be 51 e4 d4 be
       0.32841238 0.38347647 -0.34429106 -0.41580442
000040 b1 18 73 be c4 56 a3 3e 31 79 0b bf 9f 42 28 be
       -0.23739888 0.31902134 -0.544818 -0.16431664
000050 91 5c 5a 3e b6 c3 5e 3e b3 c4 25 3e 68 b2 77 bd
       0.21324374 0.21754345 0.16188316 -0.060472876
000060 21 e5 bd be e0 f4 cb bc 60 b6 07 be 26 63 e8 be
       -0.37088874 -0.024897039 -0.13253164 -0.45388144
000070 0d 81 bd 3e c2 99 24 bf 81 d1 a9 be 52 af b2 3e
       0.3701252 -0.64297116 -0.3316765 0.34899384
000080 13 74 fb be fc e1 2e be f3 0b 9f 3e 2f a8 b9 3e
       -0.49111995 -0.17078394 0.31063804 0.36261126
000090 49 20 db be 8e 23 a6 3d 47 28 d9 3e 4d d9 bb be
       -0.4279807 0.0811225 0.42413542 -0.36689225
0000a0 1f 1a ac be 83 6d 8b be 6a 54 a3 3e 3f b3 20 3e
       -0.3361368 -0.27231988 0.3190034 0.15693377
0000b0 01 f8 85 be 48 ab 58 3e a1 04 81 3d b9 c5 4d 3e
       -0.26165774 0.21159089 0.06299711 0.20094956
0000c0 5a b3 2b bf 59 f2 33 be 01 f9 d9 be dd 5c b0 3d
       -0.67070544 -0.17572917 -0.42572787 0.08611462
0000d0 ab 00 0a 3e 90 13 8b be cb 82 30 3f 25 c8 aa be
       0.13476817 -0.27163363 0.68949574 -0.33355823
0000e0 24 2d 7e bf e2 c9 7c 3e 0e bc 37 3f a6 bf 8c 3c
       -0.9928763 0.24686387 0.71771324 0.017181229
0000f0 94 57 4e 3e 46 bf d9 be 6e 43 9d be f1 c1 d0 3d
       0.20150596 -0.42528743 -0.30715507 0.101932414
000100 f7 76 c8 3d 24 6f f9 3d 28 37 09 bf 58 d5 a0 3e
       0.09788316 0.121794015 -0.53599787 0.31412768
000110 77 c0 12 3e bc c0 90 be ec bc 2d 3e c0 c8 57 be
       0.14331232 -0.28272045 0.16966599 -0.21072674
000120 ef 1e 8f be 55 92 35 3d 05 67 a3 be 09 82 40 bf
       -0.27953288 0.044329006 -0.31914535 -0.7519842
000130 1c 8b 11 be 0c 4e fb 3d 92 4a 88 3e 38 bb ae be
       -0.14213222 0.12270746 0.26619393 -0.34127212
000140 10 05 20 3f 5f bd 30 3f 5c 6a 81 3e 8a 0f 10 bf
       0.62507725 0.6903896 0.25276458 -0.5627371
000150 ab d6 c2 3e b4 8a 57 3e 3f 0a c4 bd eb 9e bc 3d
       0.38054404 0.21049005 -0.09572267 0.09209999
000160 b5 08 a5 3e 0d d4 b1 be e2 01 9a be 12 3c 9e be
       0.32233205 -0.34732094 -0.3007956 -0.30905205
000170 48 1e 10 3e 0e 42 06 bd 92 62 a5 be 07 c2 f3 3e
       0.14074051 -0.03277784 -0.32301766 0.4760897
000180 15 9a 64 3f 91 38 c2 be 12 63 49 3e 01 39 99 be
       0.8929761 -0.37933782 0.19666699 -0.29926303
000190 59 c7 8c be 25 59 fb be 49 09 77 3e df f8 01 3e
       -0.2749584 -0.4909145 0.24124636 0.12692593
0001a0 b4 88 9f 3e 60 cc 18 bf 2d f8 1e 3f 78 b7 99 3d
       0.31158984 -0.5968685 0.62097436 0.07505697
0001b0 c7 14 0a bf 6a 82 6b 3e f6 e0 c4 be 1b 51 da 3e
       -0.53937954 0.22998968 -0.38452882 0.42640004
0001c0 1d d5 22 3e 79 80 91 3d 3d ec 4a be fb 09 b4 bd
       0.15901609 0.07104582 -0.1981668 -0.08790966
0001d0 6b 58 cd 3e 10 34 a9 3e 45 95 76 3e 35 2a 4d be
       0.4010652 0.33047533 0.2408038 -0.20035632
0001e0 f1 16 b9 be 61 b6 4e bf 47 e2 be be cd 6a 04 bf
       -0.36150315 -0.8074704 -0.3728201 -0.51725465
0001f0 ab 9f e5 be f8 34 6c 3e bb 9e 9a 3e 0e 11 15 3f
       -0.4484838 0.23067081 0.30199227 0.5822915
000200 c2 73 16 3e 05 6a b8 3d 1f d0 1a 3f fc cc 10 be
       0.14692596 0.090045966 0.6047382 -0.14140695
000210 f6 1f c4 3e 38 8b 26 be 2c 2d cf 3c 31 31 1e be
       0.38305634 -0.16264045 0.025290094 -0.15448453
000220 c7 80 e9 bd 45 ea 71 3e b1 fe c7 3d 1c d2 88 be
       -0.114015155 0.23624523 0.097653754 -0.267228
000230 d5 10 75 3d db cf dc be db 0f 41 3e ff 6a 46 3f
       0.059830505 -0.4312733 0.18853705 0.77507013
000240 4c 99 89 3e 71 85 b4 be d1 b8 34 3e b8 e5 3c be
       0.2687477 -0.35258058 0.17648627 -0.18447006
000250 22 13 3a bd fd cb 2d bf a0 c8 8f 3d 7a c6 6d bd
       -0.045428403 -0.67889386 0.07020688 -0.05805061
000260 4c 95 b5 3e 33 7b ab be 2a 90 a9 3e 89 58 d0 be
       0.35465467 -0.3349243 0.331178 -0.40692547
000270 10 fd 01 be 26 c5 9e 3e 9e 4d 3c 3f b7 fc 1c 3d
       -0.12694192 0.31009787 0.73555934 0.038326945
000280 92 9d 29 3e aa 0a 37 be 3a 50 93 be 27 2d 1b bf
       0.16564015 -0.17875162 -0.28772146 -0.6061577
000290 c5 fc 55 bf 0d 7f 67 be 16 76 82 be e7 9f 1f 3f
       -0.8358882 -0.2260706 -0.25480717 0.62353367
0002a0 b2 a4 ee be 5a 6f e0 3e 54 bb 8d 3e ae 9b 8c 3e
       -0.46610028 0.43834955 0.27681983 0.27462524
0002b0 c4 d2 b1 be 09 93 15 3f 36 ee cd 3e 53 2e 85 be
       -0.34731114 0.5842748 0.40220803 -0.26011905
0002c0 11 6c 94 be 88 cb d5 be 0d b6 c2 3e db 33 df be
       -0.28988698 -0.41756845 0.3802952 -0.4359425
0002d0 b1 9b 58 bd b8 fd 0f be 24 40 55 3f f6 ba 54 be
       -0.052882854 -0.1406163 0.83300996 -0.20774445
0002e0 c6 b9 96 3e 6d c8 8e 3d c5 a7 0a bf 62 e5 b9 3b
       0.2943861 0.06971822 -0.54162246 0.0056730965
0002f0 ff b1 95 3e b9 0a 22 3d e5 90 76 3e 68 7d 7e 3e
       0.29237363 0.039561007 0.2407871 0.24852526
000300 0f 12 16 3f 47 c0 1e 3e 36 7e 3b 3e 7c 2c 37 3d
       0.58621305 0.15503035 0.18309864 0.044720158
000310 c7 6f 89 3e c1 50 b4 bc 13 5a 07 bf a6 30 ce bd
       0.26843092 -0.022011163 -0.5287182 -0.10067873
000320 16 fe b3 be 2b 12 97 be 44 ef f1 be 4e 47 c9 be
       -0.3515479 -0.2950605 -0.47252858 -0.39312214
000330 67 da a7 3c 48 17 b1 bd 96 39 eb 3e f2 9d af be
       0.020489885 -0.08647019 0.45942372 -0.3430019
000340 b1 87 d0 be 9e 3c 71 be 8f 1f 57 be 53 b8 37 bd
       -0.40728524 -0.2355828 -0.21008132 -0.04485352
000350 2e 85 c6 be 07 1c a6 3e 9b a3 82 3e 42 ac 64 3e
       -0.38773483 0.32443258 0.25515446 0.22331336
000360 85 db 9b be bd b8 a4 3e 3f 74 d9 be 92 9f 6b bd
       -0.30440918 0.32172194 -0.424715 -0.057525225
000370 54 96 7e 3e b2 d5 da be c1 1a 09 3e 89 e0 08 bf
       0.24862033 -0.42741162 0.13389112 -0.53467613
000380 56 bf ad 3e d9 0c ba 39 ec 77 41 be b3 34 80 3d
       0.3393504 0.00035486257 -0.18893403 0.062600516
000390 b4 78 95 be e5 60 48 bd 56 c4 10 3f 28 aa b1 be
       -0.29193652 -0.04892053 0.56549585 -0.3470013
0003a0 ea 82 cb be 9d 1c 7b 3d 95 41 d4 3d 1b ca 82 3d
       -0.39748317 0.061306585 0.10364071 0.06386205
0003b0 a0 7d ae be 6a 40 3d 3e 7d 24 9c 3e be af ed 3d
       -0.3408022 0.18481603 0.30496588 0.11605786
0003c0 28 82 c3 3d 73 ff d6 be b5 08 67 3e ee 90 05 3e
       0.0954631 -0.41991767 0.22561915 0.13043568
0003d0 74 64 6b 3e 9f e6 f8 be f3 15 69 be 18 e2 f6 3e
       0.22987539 -0.4861345 -0.22762279 0.4821937
0003e0 a1 69 2a be ac 36 83 bd 6b 15 1d 3c 98 aa e8 3e
       -0.16641857 -0.06406912 0.009587626 0.45442653
0003f0 64 73 16 bf db 86 8a be f0 db 85 be d0 40 78 be
       -0.5876982 -0.27056012 -0.26144361 -0.24243474

fc.0.bias f4 [100]
000000 87 c0 cc bd 3f ff 92 bd 5e e7 4e bd 34 9e 38 be
       -0.09997659 -0.071775906 -0.050513618 -0.180291
000010 43 a0 22 bd 7e 6d ab bd 7f 7a 74 bd a4 cd e2 bc
       -0.03970362 -0.08370493 -0.059687134 -0.027685948
000020 31 cf 08 be 32 5c f8 bd 5f 6a db bd 46 20 e5 be
       -0.13360287 -0.1212696 -0.10713648 -0.44751185
000030 e9 46 d1 bc f6 03 c1 bd 45 65 4c bc 68 bf 07 be
       -0.025546508 -0.094245836 -0.012475316 -0.1325661
000040 a1 51 8d bd 61 f2 12 be af 33 ff bd 3b 84 2f be
       -0.06900335 -0.14350273 -0.1246103 -0.17140286
000050 ff 14 ad bd a7 c2 c8 bd aa fc 39 bd c6 bb a0 bd
       -0.0845127 -0.09802752 -0.045406975 -0.07848315
000060 c4 9f c4 bd 66 90 18 be cb c6 4e bd 5f 1f 2b be
       -0.096007854 -0.14898834 -0.050482552 -0.16711186
000070 0f b1 9f bd f4 cf 94 bd 1a 9f d8 bc 99 80 fa bd
       -0.07797443 -0.072662264 -0.026443053 -0.12231559
000080 8b d6 f6 bd cd fb 6d be be cd b0 bd ca b2 37 be
       -0.120526396 -0.23240586 -0.08632992 -0.17939296
000090 3d 03 98 bd 70 aa 9f bd 83 6f 55 bd f7 e3 42 bd
       -0.07422493 -0.0779618 -0.0521083 -0.047580685
0000a0 e3 ae db bd 9e 63 1e bd 44 ad 58 3b bc 2c b4 bd
       -0.10726716 -0.03866922 0.0033062259 -0.08797595
0000b0 3b f2 2d be 6a 14 51 bd 68 3d 9f bd 16 72 ca bd
       -0.16986935 -0.05104486 -0.07775384 -0.098850414
0000c0 fe d5 1c be be 77 09 be 00 91 f2 bc 95 44 76 bd
       -0.15316007 -0.13424584 -0.029610157 -0.060124
0000d0 e6 69 ae bd 98 94 30 be 91 8d 2f be 10 2a 30 be
       -0.08516292 -0.17244184 -0.17143847 -0.17203546
0000e0 52 4b 03 be 00 fd a2 be 11 ea 83 bd 12 d4 17 be
       -0.12821701 -0.3183365 -0.06441129 -0.14826992
0000f0 ee 5b cd bd 78 00 6e bd 4f f0 1e be 06 f4 e8 bd
       -0.100273 -0.058105916 -0.15521358 -0.11374669
000100 33 d5 4d be cc 46 e0 3b 18 ac 4a be 04 39 df bd
       -0.2010086 0.006844377 -0.19792211 -0.10899547
000110 9c ff 98 bd a6 d5 9d bc d6 c5 d2 bd f6 8e 08 be
       -0.074706286 -0.019266915 -0.102916405 -0.13335785
000120 c8 33 84 bb 2f e1 aa bd 9a f2 78 bd 36 42 2a be
       -0.004034493 -0.083437316 -0.060778238 -0.1662682
000130 4c ba e1 bc a0 ab e8 bd 04 1d c0 bd 00 86 12 bf
       -0.027554654 -0.1136086 -0.09380534 -0.5723572
000140 13 95 8e bd 4f 04 46 be 24 1d 81 be 52 e8 d1 bd
       -0.069620274 -0.19337581 -0.25217545 -0.1024939
000150 e4 48 1f bc 03 bd 95 bd 5a 48 6f bd 2c 7a 8e bb
       -0.009721968 -0.07311442 -0.05841861 -0.00434806
000160 4a 0c 72 be 16 34 86 be a9 1b 24 bd 0d 18 0f bd
       -0.236375 -0.26211613 -0.04006544 -0.034935046
000170 e4 35 5c be 0d de bf 3c 10 d7 b9 bd 33 af 7e bd
       -0.21504933 0.023421312 -0.09074223 -0.0621788
000180 53 d7 17 be a5 18 11 be ac df c9 bd e5 ad 06 bd
       -0.14828233 -0.14169557 -0.09857115 -0.032880682

fc.1.weight f4 [100, 100]
000000 02 cf df bd 49 b7 8d 3d 4e e7 d9 bd 12 35 bb be
       -0.109281555 0.069197245 -0.10639821 -0.36563927
000010 47 36 04 bd 66 21 a7 3e ed 73 00 bf 2f 25 91 bd
       -0.032278325 0.32642668 -0.5017689 -0.0708717
000020 c6 17 fc be 4f e6 90 be 09 3f 9a bd 46 18 99 bc
       -0.49236888 -0.28300712 -0.07531554 -0.018688332
000030 ee e5 99 be 84 b8 d5 bd 73 36 4b 3e eb 91 89 be
       -0.30058235 -0.10435584 0.1984499 -0.2686914
000040 39 af 4b 3e 30 fe 02 bf 53 7b 0f 3e 06 ce 85 be
       0.19891061 -0.5116911 0.14011888 -0.26133746
000050 78 a8 2a 3b 0a 76 d8 3d eb 7b c7 be 77 5d 15 be
       0.0026040357 0.10569389 -0.3896173 -0.14586435
000060 01 0d 25 3e bf a1 8c 3e 9b 02 ee 3e 55 3d c5 3d
       0.16118242 0.27467152 0.46486363 0.09630839
000070 12 e7 c3 be e3 69 a5 3e f2 53 4d bd f9 58 60 be
       -0.3826223 0.32307348 -0.050128885 -0.2190894
000080 47 b8 c8 3c 78 50 78 3e be 87 ea 3e 42 61 20 3e
       0.024501933 0.24249446 0.45806688 0.15662101
000090 05 34 b3 3e 5d f4 55 be 9a e5 42 be a3 ea 21 3d
       0.35000625 -0.20893998 -0.19032899 0.039530408
0000a0 29 9a cd 3d a6 2b ee be 72 cb 2d 3e 26 90 c9 3e
       0.10039169 -0.46517676 0.1697214 0.3936779
0000b0 e6 50 0d 3e 64 1b 53 bc 75 95 27 3e e3 e2 f8 bc
       0.13800392 -0.012884948 0.16365607 -0.030381626
0000c0 4b 2c 39 be 59 e9 bb be 7e 1b ef bd 51 b0 45 be
       -0.18083303 -0.36701468 -0.116751656 -0.1930554
0000d0 17 c3 00 3e 73 75 3b be 8d fc 9a bd c9 4a c7 3d
       0.12574421 -0.18306522 -0.075677015 0.09731061
0000e0 d1 9b b5 be 16 13 62 bd 89 65 1d 3c 84 ad ba bc
       -0.3547044 -0.055193983 0.009606727 -0.022787817
0000f0 fa 42 02 bf fc d4 a9 be aa f0 05 be ec cd f1 3d
       -0.5088345 -0.33170307 -0.13080087 0.118068546
000100 62 10 69 be 59 c0 03 3f 84 13 60 bd d8 b7 c3 be
       -0.22760156 0.51465374 -0.05470611 -0.382262
000110 6f 42 48 be b2 d2 57 be 84 8d 39 3e 5d ab c2 3e
       -0.19556592 -0.21076468 0.1812039 0.38021365
000120 0e 99 25 be 16 8e 4f be 95 a3 ad 3e 62 da d8 bd
       -0.16171667 -0.20269045 0.33913866 -0.10588528
000130 67 db ed 3d 71 eb eb 3d 9e dc 21 3f df 66 34 be
       0.11614113 0.11519516 0.6322726 -0.17617367
000140 f5 40 00 3f f5 94 53 be 74 9a 6a 3e b7 99 85 3c
       0.50099117 -0.20662291 0.22910482 0.016308649
000150 69 82 43 be 6f 10 7a 3e ed 62 0c 3e 89 88 7e 3d
       -0.19092716 0.24420331 0.13709612 0.06214193
000160 1d e0 8a 3e 96 cc 10 3e 43 67 30 3e ed 3d 35 be
       0.2712411 0.14140543 0.17226891 -0.17699404
000170 ec ec 32 3f 0a 6d 14 3e 38 c0 cf be 18 6c 8a bd
       0.69892764 0.1449472 -0.4057634 -0.067588985
000180 26 19 12 3f 57 ef 80 be 52 60 8f 3e dd f1 62 3e
       0.57069623 -0.25182602 0.28003174 0.22162576
000190 f1 55 13 be 54 a7 21 3f 44 1c b2 be 68 f2 d9 bd
       -0.14388253 0.6314595 -0.3478719 -0.106419384
0001a0 e3 9e e8 be 17 d9 27 3e 02 94 9f 3e ce 96 e7 3e
       -0.4543372 0.16391407 0.31167608 0.45232242
0001b0 5d ec 00 be 24 91 8e be 53 9f 32 bf c2 3c 09 3c
       -0.12590165 -0.27845109 -0.6977436 0.008376302
0001c0 de bb 25 be b8 95 74 3e 84 72 81 be b9 c7 70 bd
       -0.16184947 0.23885238 -0.2528268 -0.05878422
0001d0 60 5e c3 3e bf 1f e9 3e 4f 06 a0 3e 81 a3 e9 bc
       0.3815794 0.45532033 0.31254813 -0.028520348
0001e0 b6 88 02 be 61 d8 44 bd b3 57 b8 3e 86 20 90 3e
       -0.12747464 -0.048057918 0.3600441 0.28149813
0001f0 2b 87 fa be e8 19 50 3e e6 d3 c5 3e 70 e6 e6 3d
       -0.4893125 0.20322382 0.38638228 0.11274421
000200 19 d8 0c bf 31 0f fc bc d1 1e 9a 3c 3a 65 1d 3e
       -0.5501724 -0.030768963 0.018813523 0.15370646
000210 a7 f6 84 be b8 01 17 3c a9 fc 9a bd cb fc 3c 3f
       -0.2596943 0.009216718 -0.07567722 0.7382323
000220 0b 83 41 3e 95 c0 83 be 59 ca dd 3d fe 29 d0 3c
       0.18897645 -0.25732866 0.108296104 0.025410648
000230 d6 df 6e be 98 82 1a 3f 09 05 b1 3d 36 0c 1d be
       -0.23327574 0.6035552 0.086435385 -0.1533669
000240 d8 d3 47 3d a6 46 5b bd 65 ac 00 bf 2f 93 a2 3c
       0.048786014 -0.053534172 -0.50263053 0.019845573
000250 ec 92 de be e0 c8 1c bf 9b b8 44 3e c2 96 d5 bd
       -0.43471467 -0.6124401 0.19211046 -0.104291454
000260 72 d4 42 bd 16 c6 f1 bd 78 f3 5e 3e 41 22 23 be
       -0.047565885 -0.1180536 0.21772563 -0.15931036
000270 bb fb c7 bd ec 7c 5e bd c9 6e 39 bc 2a de be be
       -0.09764811 -0.054318354 -0.011317917 -0.37278873
000280 ab e9 22 3f 67 21 f9 be a3 5f c4 3e f1 a6 29 3c
       0.636378 -0.48658296 0.38354215 0.010354743
000290 f0 df 21 be 5d 4c 03 3e ef bc 35 be 2d 90 8c 3e
       -0.15808082 0.12822099 -0.17747854 0.27453747
0002a0 ac 1e 7f be 62 fc a4 3d d6 df 84 bd 9f 0a 8f be
       -0.24914044 0.08055951 -0.06488006 -0.2793779
0002b0 0d 64 19 be 64 60 95 3e 6b b8 55 3e a3 3e 52 3c
       -0.14979573 0.29175103 0.20871131 0.012832317
0002c0 24 2f 3e be 89 f0 57 be e1 d6 bd be e8 51 62 be
       -0.1857267 -0.2108785 -0.37078002 -0.22101557
0002d0 8d 41 c7 3d 3e 04 be bd bb 5f 9a 3e 60 e6 02 bd
       0.097293 -0.09278153 0.30151162 -0.031957984
0002e0 ed fa 78 3e 06 dd 35 be d4 0b ed be ed cf 02 3e
       0.2431447 -0.17760095 -0.46298087 0.1277463
0002f0 3f ed fd 3d bb 0f ac 3d 41 4d 06 3d 82 fb f0 be
       0.12398767 0.08401438 0.03278852 -0.47066885
000300 b6 0c 9a be 3d 1e 8a bc 70 10 56 3e 74 fb 87 be
       -0.30087823 -0.016860122 0.20904708 -0.2655903
000310 c2 4d aa bd 4a d9 7b 3e de 5f 92 3e 24 0b 88 3e
       -0.083156124 0.24594608 0.28588766 0.26571
000320 5b 61 13 be 68 a0 78 3d 31 6e 94 bd 42 0e b2 bc
       -0.14392607 0.06069985 -0.0724758 -0.021735314
000330 09 e8 ef be 77 99 70 3e be fa bb bd f9 8c 20 3e
       -0.46856716 0.23496042 -0.09178685 0.15678777
000340 81 eb 0a bd 88 1a 4c be b8 bf 62 3e 85 de 8c bd
       -0.033916 -0.19931996 0.22143447 -0.0687838
000350 62 87 bc bd 1a da 04 be 48 d2 f5 be 19 41 ba bd
       -0.0920551 -0.12973824 -0.48011994 -0.09094448
000360 df 54 7c 3d 3c 4f 2e 3e 6f 45 58 3e 2e ee 33 be
       0.061604377 0.17022413 0.21120237 -0.17571327
000370 68 ef 38 3f fb 83 d8 bd ae 14 c1 3e cf 50 15 bd
       0.72240305 -0.10572048 0.3771109 -0.03645402
000380 8c b7 3a be da 93 5d 3f 48 56 ea bd 0e ac 08 be
       -0.1823408 0.8655373 -0.11442238 -0.13346884
000390 eb 8f 38 3d c7 38 bc 3e 52 98 aa bb 37 eb c1 3e
       0.045059126 0.36762068 -0.0052061463 0.37874767
0003a0 3d 00 47 be 20 a7 57 be bc 6e b6 3e 54 28 cc bc
       -0.19433685 -0.21059847 0.3563136 -0.024921574
0003b0 d2 67 8f bd 4e f2 c0 be e4 b8 9a be c0 6e 8a bd
       -0.07002224 -0.37684864 -0.30219185 -0.06759405
0003c0 c0 e2 4c 3d f1 72 82 3c 42 35 cf 3d 87 af 85 be
       0.050020933 0.015923949 0.1011758 -0.2611048
0003d0 52 c1 03 be f7 17 a6 3c 4d f9 c6 be cf 03 d4 be
       -0.12866715 0.0202751 -0.38862076 -0.41409156
0003e0 ba 13 f3 3d bd 1e a9 bd a3 58 88 3e 30 d4 80 3e
       0.11868997 -0.08257816 0.26630124 0.25161886
0003f0 3d 74 d8 bd 05 4d b3 bc ec 55 04 bf ae 11 5d 3e
       -0.10569046 -0.021887312 -0.51693606 0.21588776

fc.1.bias f4 [100]
000000 11 96 9b 3d 94 52 06 be 65 2f 44 bd e3 fd e9 bd
       0.07596982 -0.13117439 -0.04789676 -0.11425378
000010 16 c6 b7 3d 50 5a 9d be bc cf 04 bd 0b 36 57 3d
       0.08973329 -0.30732965 -0.032424673 0.052541774
000020 1e 60 2f 3d 44 e7 ff bd c7 17 0b be 73 56 8d 3d
       0.042816274 -0.12495282 -0.13583289 0.069012545
000030 1a 84 91 3d 98 1b 16 bd 8a 4b 30 3e 18 51 b3 3c
       0.071052745 -0.03664741 0.17216316 0.021889254
000040 ab 2e 5b 3d 40 b9 02 3e 2a 4d 32 bd 8f 35 cf 3d
       0.053511303 0.1276598 -0.04353062 0.10117637
000050 06 5e 7e be 31 e1 a3 bd 1d b7 bc bd a2 2c 9f bd
       -0.24840555 -0.08001936 -0.092146136 -0.07772185
000060 b3 b7 16 3c c7 db 05 be 75 98 e3 bd 76 0f 8b bd
       0.009199071 -0.1307212 -0.11113063 -0.06790058
000070 4a 3f fd bd 57 ff 26 be e9 9f 9e 3d 44 7c 10 3e
       -0.12365587 -0.16308342 0.07745344 0.14109904
000080 7c c0 3e bd 63 3e 8b 3d 7a d8 ee bd 42 bc 2d bc
       -0.046570286 0.06799009 -0.116623834 -0.010603966
000090 9f f6 a7 bd d5 f6 1b be ed d9 d6 bd f4 fd fa 3d
       -0.08201336 -0.15230878 -0.10490785 0.12255469
0000a0 d5 04 cc 3d c7 c8 8f bd 1e c2 e4 3d 4d 2a aa 3d
       0.09961859 -0.07020717 0.111698374 0.083088495
0000b0 5a 5a 7f bd 46 26 c1 bd bc e0 9e 3d 4c 6f af 3d
       -0.062342025 -0.09431128 0.077577084 0.0856615
0000c0 01 d0 72 bd 23 08 a2 3d a1 cb 9b 3d 31 f4 c5 bd
       -0.0592804 0.07911708 0.076071985 -0.096657164
0000d0 6c 66 be 3d da e6 ef 3c bf 88 64 be 31 c6 27 bd
       0.09296879 0.029284883 -0.2231779 -0.040960494
0000e0 40 b5 0d 3d 44 3b af bd ac ba d4 bd 87 94 0a be
       0.03459668 -0.08556226 -0.10387167 -0.13533221
0000f0 71 66 e1 3d ca 73 eb bd 38 8e 19 bd d8 c5 17 3d
       0.11005867 -0.114966944 -0.037489146 0.037053913
000100 3b 92 52 bd 37 7b a8 3d b7 42 45 3d c5 81 03 bb
       -0.051408987 0.08226626 0.048159327 -0.0020066362
000110 de 93 87 3d 89 41 5d bb ba 33 14 3d c2 4e 81 bd
       0.0662 -0.0033760986 0.036182143 -0.0631385
000120 37 84 85 bc ee 0b 85 be 80 24 db bc 93 3a d6 3c
       -0.016298397 -0.25985664 -0.026750803 0.026150977
000130 c1 54 01 be e9 4c e0 bd 4f d1 ba 3d 62 ab 72 bd
       -0.12629987 -0.109521694 0.09121954 -0.059245475
000140 22 f7 0e be 74 3d 4e 3d 17 b9 9f bd 25 fd 44 bd
       -0.13961461 0.050351575 -0.07798975 -0.04809298
000150 ee a0 c8 3d de 54 a0 be 77 97 af 3d af 7d a4 bc
       0.0979632 -0.3131475 0.085738115 -0.020079462
000160 44 43 a3 3d 8b 12 04 be ea 47 5e be 9e 87 63 be
       0.07971814 -0.12897699 -0.2170712 -0.22219703
000170 37 74 a5 bd 04 a4 b2 3d 7d 19 8e bd 32 9c c3 bd
       -0.08078807 0.0872269 -0.06938455 -0.09551276
000180 c8 7d 98 bc 99 66 ab be bd 28 5a 3d ff 3b f4 3d
       -0.018614665 -0.33476713 0.053261507 0.11925506

fc.2.weight f4 [1, 100]
000000 5b 9e bf be e2 14 b3 be 47 68 82 be b9 62 b0 be
       -0.37425503 -0.3497687 -0.25470182 -0.3445032
000010 de 91 2b 3e 2d 71 c4 be bb b6 ee 3c 59 22 29 3e
       0.16754863 -0.38367596 0.029139867 0.16517009
000020 bb e3 02 3d 9e 73 16 bb fe 8a 13 bb 36 2a 71 3d
       0.031955462 -0.0022957097 -0.0022513266 0.058878146
000030 8f c4 88 3d 0a 34 a3 3d c4 4d a4 3e ae 30 67 3e
       0.066781156 0.0796891 0.3209058 0.22577164
000040 e7 d9 c0 be 1d 3f 0d 3e 14 53 50 bb 5c 50 33 3e
       -0.37666246 0.13793607 -0.00317878 0.17511123
000050 e9 25 a8 be 28 3f 91 bb d4 d5 54 bb 16 36 89 be
       -0.32841423 -0.0044325776 -0.0032476084 -0.26799077
000060 30 0d be be 9d ce 13 bb 15 6b 00 bf af f5 66 bb
       -0.37119436 -0.002255357 -0.50163394 -0.0035241654
000070 69 77 fd be 53 56 de be 22 12 ff 3d 0b cf fe be
       -0.49505165 -0.43425235 0.124546304 -0.49767336
000080 e1 ce 15 bb 22 2d 20 3e f5 96 81 be 08 b8 43 3e
       -0.0022858905 0.15642217 -0.25310484 0.19113171
000090 15 31 e7 be 62 31 de ba 39 2b 47 bb 73 d3 3b 3e
       -0.45154634 -0.0016951973 -0.0030390753 0.1834238
0000a0 80 9e 6c 3e cd ca cd be 4a 27 5b 3e 43 c2 ce be
       0.23107338 -0.40193787 0.21401706 -0.40382585
0000b0 0a 83 00 bb 32 d6 b7 be 33 fe b8 3d 2c c9 30 3e
       -0.0019609355 -0.35905606 0.0903286 0.17264241
0000c0 bb 31 c7 be 42 00 ae 3e 02 f1 ad 3d 25 72 87 bb
       -0.3890513 0.33984572 0.08493234 -0.00413348
0000d0 54 f9 0f bf 4e 88 d5 be aa 50 1d bf 73 32 fd be
       -0.5623982 -0.41705555 -0.6145121 -0.49452552
0000e0 bf 9c 7d be 7f 96 87 bb 0d 54 0f bb 05 c5 1f bf
       -0.24766825 -0.0041378136 -0.0021870167 -0.6241
0000f0 4e 15 2f bf 4a 73 c5 be 5e af 98 3e 53 a5 0c bf
       -0.68391883 -0.3856452 0.29821295 -0.54939765
000100 73 ea 55 3e 04 27 d0 3d a4 13 64 3e 6a 89 ca 3d
       0.20890217 0.10163692 0.22273117 0.09889491
000110 25 df 7c 3e 35 7a ba be 55 63 a0 3d 14 a5 a1 be
       0.24694498 -0.36421362 0.07831446 -0.31571257
000120 67 98 3f be 03 76 ae be ae cb 29 bf 51 3f 77 3e
       -0.1871048 -0.3407441 -0.66326416 0.24145247
000130 ff 6e 00 bf a0 b3 97 bb 2e 82 ca be d3 04 f0 be
       -0.50169367 -0.0046295673 -0.39552444 -0.4687868
000140 36 e6 bc be cc 70 80 3d 6b f2 40 be 06 5a b8 be
       -0.36894387 0.06271514 -0.18842475 -0.36006182
000150 92 29 3f 3e a4 df c6 be 6b c8 30 3e b2 39 ca be
       0.18668202 -0.388425 0.17263953 -0.39497143
000160 6b f6 54 3e 66 aa f4 ba 2c 43 6b be 64 cf e6 be
       0.20797126 -0.0018666505 -0.22974843 -0.450801
000170 71 a6 27 bf 55 19 a6 3d bb e3 09 bb c0 1d 11 bf
       -0.65488344 0.081103005 -0.002104028 -0.5668602
000180 96 bb 59 3e ca c0 2d bf 18 b9 8c 3d 33 46 21 3e
       0.21262965 -0.678723 0.06871241 0.15749435
