results/MINE_dim10_batchsize40.pt (torch, 137591 bytes, 7 tensors)

fc.0.weight f4 [100, 20]
0	0x3d3086c1	0.04309726
1	0xbcb38f74	-0.02191899
2	0x394a86f9	0.00019314502
3	0xbd45b649	-0.048269544
4	0x3db9b1c0	0.09067106
5	0xbdda223b	-0.1065106
6	0x3d932b67	0.07186013
7	0xbd6b042e	-0.057377033
8	0xbc672c47	-0.014109678
9	0x3dbbc41b	0.091682635
10	0xbd334906	-0.043770812
11	0x3c5adf93	0.013358968
12	0x3b0cede3	0.0021504096
13	0x3c8cda0f	0.017193822
14	0xbd46d676	-0.04854437
15	0x3da887d4	0.08229032
16	0xbd3bb87b	-0.04583023
17	0x3d0e235c	0.03470169
18	0x3ba29d47	0.0049625966
19	0xbd37b082	-0.044846065
20	0xbd927001	-0.07150269
21	0xbde8ae26	-0.11361341
22	0xbdb11d94	-0.0864822
23	0xbdaf387e	-0.08555697
24	0x3d6495c7	0.0558069
25	0xbd8e6b5c	-0.06954071
26	0x3d9e829d	0.07739756
27	0xbcfe1ab4	-0.031018592
28	0x3c376c3f	0.0111952415
29	0xbac985d3	-0.0015374966
30	0x3d257b61	0.040400866
31	0x3d902a60	0.070393324
32	0x3d88fb20	0.06688523
33	0x3daebd73	0.08532228
34	0xbd1179bc	-0.035516486
35	0x3d1bfb44	0.038081422
36	0xbd8b216d	-0.06793485
37	0x3c80e08a	0.015732069
38	0xba8d2454	-0.0010768273
39	0xbc8868e0	-0.01665157
40	0xb8db4d8d	-0.00010457179
41	0xbcb13bb6	-0.021634918
42	0x3b47a24f	0.0030461734
43	0x3b0f65a6	0.0021880656
44	0xbcd19e4a	-0.025588173
45	0xbc091b0c	-0.008368265
46	0x3cb2ba88	0.02181746
47	0xbb3905e1	-0.0028232264
48	0x3c817d37	0.015806777
49	0x392330ee	0.00015563119
50	0xb9b747b3	-0.000349579
51	0x3c9bc85c	0.019016437
52	0xbaba2348	-0.0014201188
53	0x3982b558	0.00024930644
54	0x3cc5a8c6	0.024128329
55	0x3c18cf69	0.009326794
56	0xbcbc3b01	-0.022977354
57	0x3b125be0	0.0022332594
58	0xbc837f1d	-0.016051823
59	0xbb68bfc7	-0.0035514699
60	0x3d5548cc	0.052071378
61	0x3d36522f	0.04451197
62	0x3cbab507	0.022791399
63	0x3ba98654	0.005173484
64	0xbd2fc823	-0.042915475
65	0xbdb0b272	-0.08627786
66	0x3d485d12	0.048916884
67	0x3d5c1516	0.053731047
68	0x3c990a0c	0.018681549
69	0xbdb59856	-0.088669464
70	0x3c38a1da	0.011269057
71	0x3ce1a523	0.027544564
72	0x3c99c462	0.0187704
73	0xbbf53bf3	-0.007483953
74	0xbc4f9daa	-0.012671867
75	0xbd06916c	-0.03285353
76	0x3cd9a4d3	0.026567852
77	0x3cf5b4b7	0.029993398
78	0x3b81a770	0.0039567277
79	0xbd24f612	-0.040273733
80	0xbd1a4e44	-0.037672296
81	0x3d9b65a4	0.07587746
82	0x3d3cd88a	0.046104945
83	0x3da5a8f9	0.080888696
84	0xbdaf14c6	-0.08548884
85	0x3d7c99cf	0.06167012
86	0xbd5971be	-0.05308699
87	0xbcfb8257	-0.0307018
88	0xbd86e7b7	-0.06587165
89	0x3d91de4f	0.0712248
90	0xbc33302d	-0.010936779
91	0xbd725c40	-0.059170008
92	0xbd64aaa0	-0.055826783
93	0xbd3908b4	-0.045174316
94	0x3caffb10	0.02148202
95	0xbd0510a0	-0.032486558
96	0x3d308904	0.04309942
97	0x3baad826	0.005213755
98	0x3d543878	0.051811665
99	0xbdcb8378	-0.09937185
100	0x3ded3fce	0.115844354
101	0x3d392a91	0.04520661
102	0x3cd67982	0.026180986
103	0xbd8b80a3	-0.06811645
104	0xbd6e4aaa	-0.058176674
105	0xbd8a6e12	-0.067592755
106	0xbab9dac2	-0.0014179575
107	0x3dbf7257	0.093479805
108	0x3d807d18	0.0627386
109	0xbdd27936	-0.102770254
110	0xbdc7d444	-0.09757283
111	0xbcc1be34	-0.023650266
112	0xbc95c6b7	-0.018283231
113	0x3d458da6	0.04823079
114	0x3d10c59e	0.035344712
115	0x3ced648e	0.028978612
116	0xba9d411c	-0.0011997554
117	0xbd7ed3af	-0.062213596
118	0xbd367b64	-0.04455127
119	0x3d8f53b5	0.06998388
120	0x3d8b22ab	0.06793722
121	0xbd5b7a00	-0.053583145
122	0xbc842007	-0.016128553
123	0xbda3bdd6	-0.07995193
124	0x3d21f18d	0.039537
125	0xbd386b9e	-0.045024507
126	0xbd5a19ba	-0.05324719
127	0xbd80cf11	-0.06289495
128	0x3d7b4f34	0.06135483
129	0xbc1d1721	-0.009588034
130	0xbd35eb8e	-0.044414096
131	0x3d350b3d	0.04420017
132	0x3cb00e0e	0.021491077
133	0x3d68d8c3	0.056847345
134	0xbcb41548	-0.021982804
135	0x3d313828	0.043266445
136	0x3d1b8328	0.037966877
137	0x3cd8b830	0.026455015
138	0xbcfb99de	-0.030713018
139	0x3c31ba0d	0.010847581
140	0x3d06bacf	0.032893
141	0xbbf50fbf	-0.0074786837
142	0xbc3b51a2	-0.011433037
143	0xbd553aa8	-0.052057892
144	0xbccbdfd2	-0.024887
145	0x3bc375db	0.005964977
146	0x3d85a597	0.065257244
147	0x3da91700	0.0825634
148	0x3d7af6c3	0.061270487
149	0x3c86d3cc	0.016458414
150	0x3b5fe262	0.0034162034
151	0x3b9bdd6a	0.004756619
152	0x3adf35f1	0.0017029626
153	0xbcbdc12c	-0.0231634
154	0xbc88813b	-0.016663184
155	0x3c0e31c8	0.008678861
156	0x3d198762	0.037482627
157	0x3cf765bb	0.030199876
158	0x3c4daa0c	0.012552749
159	0x3c130b6b	0.00897489
160	0x3a149f38	0.00056694774
161	0xbbf36a06	-0.0074284105
162	0xbd9f4930	-0.07777631
163	0x3d8b9b63	0.06816747
164	0xbddd2c19	-0.107994266
165	0xbdb6c8a1	-0.08924986
166	0xbd0767dd	-0.033058036
167	0x3d0ff43a	0.035145022
168	0xbd639ed2	-0.055571385
169	0x3d5bbfde	0.053649776
170	0xba2c72d8	-0.00065783923
171	0x3baf6982	0.0053531537
172	0x3d7f9b69	0.06240407
173	0xbd824d75	-0.0636243
174	0x3db2ad79	0.087244935
175	0x3d852735	0.06501619
176	0x3cb23a2b	0.021756252
177	0xbc9789c4	-0.018498309
178	0x3d3426c3	0.04398228
179	0xbd1a8b82	-0.0377307
180	0x3d7c7b59	0.06164107
181	0xbd9c81b8	-0.076419294
182	0x3b053d7e	0.0020330842
183	0x3d154e16	0.03645142
184	0x3cc3d2ea	0.023904283
185	0xbd3986a1	-0.045294408
186	0xbde441ac	-0.111453384
187	0x3db34320	0.087530375
188	0x3dc6aaa6	0.09700517
189	0xbc98deb6	-0.018660884
190	0x3ca86c01	0.020559313
191	0xbcefd5b3	-0.029276704
192	0x3c054b62	0.008135648
193	0x3c329c63	0.010901543
194	0x3ce79f3c	0.028274171
195	0xbbeed80c	-0.0072889384
196	0xbd7402cb	-0.059572976
197	0x3d6a6827	0.057228234
198	0x3d184f4f	0.03718501
199	0xbcb549a9	-0.02212985
200	0x3d333227	0.043749
201	0xbc853fd5	-0.016265789
202	0x3d428dd6	0.047498547
203	0xbdb8b072	-0.09018029
204	0x3d66bec9	0.05633429
205	0x3c8aea99	0.016957568
206	0x3c3ffb28	0.011717595
207	0xbdb3b924	-0.08775547
208	0x3dccf57f	0.10007762
209	0xbd2ddcb3	-0.042446803
210	0xbce72ca1	-0.028219523
211	0x3c4b2d54	0.012400944
212	0xbcf7bc11	-0.030241044
213	0x3dabe2d2	0.08392872
214	0xbd10e14b	-0.035371106
215	0xbd263352	-0.040576287
216	0xbc0ef49a	-0.00872531
217	0x3d6e974d	0.05824976
218	0xbd9d686a	-0.07685931
219	0x3cca9791	0.024730476
220	0x3d19272b	0.03739087
221	0xbd6545dd	-0.05597483
222	0x3beab8d9	0.007163149
223	0xbd91b6ca	-0.07114942
224	0x3d201183	0.0390792
225	0xbb23b0d5	-0.0024977226
226	0x3ca70f08	0.02039291
227	0xbb3f1d8f	-0.0029161905
228	0x3d8e3f18	0.06945628
229	0x3c9bd8f4	0.01902435
230	0x3b021713	0.001985018
231	0xbbcd90db	-0.0062733716
232	0x3c0f4e86	0.008746749
233	0xbcfca6d6	-0.030841272
234	0x3c0a9a01	0.008459569
235	0x3b8accb4	0.0042358283
236	0x3bb35446	0.0054726927
237	0x3aa0541e	0.00122321
238	0x3cb72c53	0.022360003
239	0x3b93a3c0	0.0045056045
240	0xbc0f26ad	-0.008737248
241	0x3bb80d4d	0.00561682
242	0xbc1e47d3	-0.009660679
243	0xbb3dea45	-0.0028978747
244	0xbd681187	-0.05665734
245	0xbad8a4a8	-0.0016528564
246	0x3d451af4	0.048121408
247	0x3d2ed8a5	0.042687077
248	0xbda6a0f4	-0.08136168
249	0xbd45c9ab	-0.04828803
250	0xb98c5516	-0.00026766275
251	0x3c05f3f8	0.008175842
252	0x3b22b3a2	0.0024826308
253	0x3c0d86f6	0.008638134
254	0xbd044ac3	-0.03229786
255	0xbb4c338d	-0.0031158656

fc.0.bias f4 [100]
0	0xbd46aa7f	-0.04850244
1	0xbd3b6f3b	-0.045760375
2	0xba327736	-0.0006807925
3	0xbdaae02d	-0.083435394
4	0xbc1a18fd	-0.009405372
5	0xbd60d44c	-0.054889962
6	0xbd001418	-0.031269163
7	0xbda0f0ee	-0.07858454
8	0xbd619083	-0.055069458
9	0xbdcd2f33	-0.10018768
10	0xbd339995	-0.04384764
11	0xbd94f16f	-0.07272612
12	0xbd9d7c01	-0.076896675
13	0xbdc6a56f	-0.09699523
14	0xbda3907c	-0.079865426
15	0xbdc2ee17	-0.09518068
16	0xbda249a9	-0.07924206
17	0xbd91b607	-0.07114797
18	0xbd8f814c	-0.07007083
19	0xbdae0fa6	-0.084990785
20	0xbd33f6c0	-0.04393649
21	0xbd847cef	-0.06469142
22	0xbd5e69c8	-0.0543001
23	0xbd45c1dd	-0.048280586
24	0xbd56ea79	-0.052469704
25	0xbd8fbe90	-0.07018769
26	0xbd178055	-0.03698762
27	0xbdb4482c	-0.08802828
28	0xbd555c73	-0.05209012
29	0xbdb3b768	-0.08775216
30	0xbd549bba	-0.051906325
31	0xbd843746	-0.06455855
32	0xbd4f0065	-0.050537486
33	0xbd2f1b86	-0.042750858
34	0xbd75ce29	-0.060011063
35	0xbd143b80	-0.036189556
36	0xbd55fad0	-0.052241147
37	0xbdb00135	-0.0859398
38	0xbdbfb5ce	-0.09360848
39	0xbd64e6af	-0.05588406
40	0xbdaf0063	-0.08544996
41	0xbd8ee0ad	-0.06976447
42	0xbd82cc5a	-0.06386633
43	0xbd7cdc4b	-0.061733525
44	0xbd7825d0	-0.060582936
45	0xbd4af862	-0.049553283
46	0xbd908f29	-0.07058556
47	0xbd8ddbfc	-0.06926724
48	0xbd54d594	-0.051961496
49	0xbdb48c8e	-0.08815871
50	0xbd1cec10	-0.038311064
51	0xbd26f235	-0.04075833
52	0xbc1b14ae	-0.00946538
53	0xbda56eb0	-0.080777526
54	0xbd9a425b	-0.075321876
55	0xbdb7219b	-0.089419566
56	0xbda56fee	-0.080779895
57	0xbd32684b	-0.043556493
58	0xbaed6d50	-0.0018114243
59	0xbd756f08	-0.05992034
60	0xbd3cc109	-0.04608253
61	0xbd751305	-0.05983259
62	0xbd852b7e	-0.06502436
63	0xbda17ca4	-0.078851014
64	0xbd39b39d	-0.04533731
65	0xbd53ff41	-0.0517571
66	0xbd95cbd4	-0.07314268
67	0xbdafb872	-0.08580102
68	0xbd27e17a	-0.040986516
69	0xbd5b4f11	-0.0535422
70	0xbd7a1923	-0.06105913
71	0xbdbd8ec7	-0.09255748
72	0xbdbdfa5a	-0.092762664
73	0xbd7ecd10	-0.06220728
74	0xbd5d1805	-0.053977985
75	0xbdbb526b	-0.09146579
76	0xbba0b228	-0.0049040504
77	0xbdbfd420	-0.093666315
78	0xbd985334	-0.07437745
79	0xbda45edb	-0.08025905
80	0xbd30c320	-0.043154836
81	0xbb35a938	-0.002771927
82	0xbd2c65a1	-0.04208911
83	0xbdb31cd0	-0.0874573
84	0xbcf79613	-0.030222928
85	0xbd29f587	-0.04149392
86	0xbd0b22d3	-0.033968758
87	0xbcfbde63	-0.03074569
88	0xbd756262	-0.05990828
89	0xbd12a5b3	-0.035802554
90	0xbcd229d2	-0.025654707
91	0xbd041bc4	-0.032253042
92	0xbd4218f0	-0.047387064
93	0xbd652d22	-0.055951245
94	0xbd02e244	-0.031954065
95	0xbdb8a584	-0.090159446
96	0xbd62f99a	-0.05541382
97	0xbd663c39	-0.056209777
98	0xbd2de5ca	-0.042455472
99	0xbd54ae40	-0.05192399

fc.1.weight f4 [100, 100]
0	0x3d9576a3	0.07298019
1	0x3d1e1992	0.038598605
2	0xbc945af4	-0.018109776
3	0x3c712f32	0.014720725
4	0x3d721915	0.05910595
5	0x3d0480c3	0.03234936
6	0x3d9e638f	0.07733833
7	0xbaf226c9	-0.0018474694
8	0x3d88953f	0.066690914
9	0xbd0263a3	-0.031833302
10	0x3da0db1d	0.078542925
11	0xbc57ac25	-0.013163601
12	0x3cb6d847	0.022319926
13	0xbc2b4b62	-0.010454984
14	0xbc87a723	-0.01655919
15	0xbd6c0cc8	-0.057629377
16	0xba019983	-0.00049438345
17	0xbc28bc9e	-0.010298876
18	0xbd57ee75	-0.052717645
19	0x3c1f760d	0.009732735
20	0x3d515012	0.05110175
21	0x3d864ed1	0.06558002
22	0x3d52669e	0.051367395
23	0x3d5dd8c6	0.05416181
24	0x3d79c962	0.06098307
25	0x3de348b2	0.1109785
26	0x3d52f723	0.05150522
27	0xbd7c0869	-0.061531458
28	0x3d334691	0.04376847
29	0xbc976291	-0.018479617
30	0x3def76f6	0.11692612
31	0x3ddb6560	0.10712695
32	0x3daa1473	0.08304682
33	0x3c504e35	0.0127139585
34	0xbcdfa589	-0.027300613
35	0x3dbce6be	0.09223698
36	0x3c97e02a	0.018539507
37	0x3bb90814	0.005646715
38	0xbc688c12	-0.014193552
39	0xbcc4762b	-0.023982128
40	0xbd0b50d1	-0.03401262
41	0xbcbef17e	-0.023308512
42	0x3c4670bd	0.01211184
43	0xbca97988	-0.020687833
44	0x3df8387a	0.12120147
45	0x3da112e8	0.07864934
46	0x3a8123da	0.0009852604
47	0xbd46bb2e	-0.048518352
48	0x3c57da68	0.013174631
49	0xbd4ae4d4	-0.049534634
50	0x3d5ac541	0.053410772
51	0x3d346c37	0.044048514
52	0x3c49d065	0.0123177515
53	0xbcaa118d	-0.020760322
54	0xbc6815ee	-0.014165385
55	0xbce79f64	-0.028274246
56	0x3ad94f67	0.001657945
57	0x3de1b95a	0.11021681
58	0x3c8d1b19	0.017224835
59	0xbc243960	-0.010023445
60	0x3d276aea	0.040873446
61	0x3d32f7f3	0.043693494
62	0x3d286463	0.04111136
63	0xbd2d0317	-0.042239275
64	0xbc57a473	-0.013161766
65	0x3d5c4f57	0.053786602
66	0xbb4143bd	-0.0029489838
67	0xbcd549fe	-0.026036259
68	0x3c8450c8	0.0161518
69	0x3d038252	0.032106705
70	0x3cfbe245	0.030747542
71	0xbc3fa3c3	-0.011696759
72	0xbc9b7606	-0.018977176
73	0x3d44f4bd	0.048084963
74	0x3d6ff471	0.058582727
75	0xbd209546	-0.03920486
76	0xbc265194	-0.010151286
77	0xbc5f7b95	-0.013640304
78	0x3baf04f4	0.0053411666
79	0xbc3d4191	-0.011551277
80	0x3c9c8bb3	0.019109583
81	0xba145592	-0.0005658503
82	0x3d1b240e	0.03787618
83	0x3ac4447a	0.0014974021
84	0x3ced7cd6	0.02899019
85	0x3d841743	0.06449749
86	0x3c35be45	0.011092727
87	0x3d282b98	0.0410572
88	0xbb99ebc3	-0.0046972944
89	0x3d25e3da	0.0405005
90	0x3d668c27	0.056286003
91	0x3d357c16	0.04430779
92	0x3c9f1696	0.01941995
93	0x3d872d4f	0.06600439
94	0x3d401382	0.046893604
95	0xbd7eb842	-0.06218744
96	0xbcd563fa	-0.02604865
97	0x3dd583a8	0.10425502
98	0x3d78b720	0.060721517
99	0x3c3fa320	0.011696607
100	0x3bb8ac21	0.0056357537
101	0x3d466605	0.048437137
102	0x3cc2bc71	0.023771496
103	0xbd3fbf11	-0.046813074
104	0x3d9c8386	0.076422736
105	0x3d59df5f	0.05319154
106	0xbce64e77	-0.028113587
107	0xbc4ec816	-0.012620946
108	0x3ddb543b	0.10709425
109	0xbc26f106	-0.0101893
110	0x3d1dbbbc	0.038509116
111	0xbd3dca26	-0.046335362
112	0xbbcdc449	-0.0062795025
113	0xbc970528	-0.018435076
114	0x3c514977	0.012773863
115	0xbcb112a7	-0.02161534
116	0x3c9e696b	0.019337377
117	0x3c67df57	0.014152369
118	0xbbe6e975	-0.007046873
119	0xbd6ca9c9	-0.057779107
120	0x3cca8903	0.024723535
121	0x3dda80bb	0.10669085
122	0x3cf2e527	0.029650284
123	0x3d89ff06	0.06738095
124	0x3d57fa9d	0.052729238
125	0x3dc5d71c	0.096601695
126	0x3d850ee9	0.064969845
127	0xbc0c68b1	-0.008569882
128	0x3c9aefde	0.018913206
129	0xbc11a706	-0.008889919
130	0x3d1e3dec	0.038633272
131	0x3d03f694	0.032217577
132	0x3c4bf788	0.012449153
133	0x3cc418fc	0.023937695
134	0xbb8d636e	-0.0043148315
135	0x3d7aaab6	0.06119796
136	0x3d8b2fdf	0.0679624
137	0xbca9ad64	-0.020712562
138	0xbcfa38b1	-0.03054461
139	0x3d371649	0.044698987
140	0xbd402034	-0.04690571
141	0x3b97c53f	0.004631668
142	0xbcce44e4	-0.025179334
143	0xbd19f806	-0.03759005
144	0x3d30f626	0.043203495
145	0x3d1bcc04	0.03803636
146	0xbce805fd	-0.028323168
147	0xbd531911	-0.051537577
148	0x3cf07dc3	0.029356843
149	0xbd16cf9c	-0.036819085
150	0x3cd387cd	0.02582159
151	0x3d3561d5	0.044282753
152	0x3d58c77b	0.052924614
153	0xbc8e0fee	-0.01734158
154	0x3c6fa9fd	0.014627931
155	0xbd2c8e21	-0.042127732
156	0xbd1ceff1	-0.038314763
157	0x3cbd9b1a	0.023145247
158	0xbbb99226	-0.005663174
159	0xbcc54ede	-0.024085458
160	0x3db70c38	0.089378774
161	0x3d5416f1	0.05177969
162	0x3d4baf86	0.04972794
163	0xbc4146c8	-0.011796661
164	0x3c336024	0.010948215
165	0x3d7e6308	0.062106162
166	0xbcee3ac5	-0.029080758
167	0xbc0a5719	-0.008443617
168	0x3de0de3e	0.10979889
169	0x3d1a7f0d	0.03771882
170	0x3d8aaef2	0.067716494
171	0xbcc0ad3e	-0.023520108
172	0xbc0c44d3	-0.008561331
173	0x3d5760e7	0.052582648
174	0x3d7db636	0.061941348
175	0xbcc916cd	-0.024547005
176	0xba02e6d1	-0.0004993501
177	0xbd105de1	-0.03524578
178	0xbc99aa06	-0.018757831
179	0xbc931cca	-0.017958064
180	0x3d06585b	0.032799106
181	0x3ce482dc	0.02789443
182	0x3d5d371e	0.054007642
183	0xbd51d5c6	-0.05122926
184	0x3db30f61	0.08743168
185	0x3d6ec892	0.058296748
186	0xbc577226	-0.013149774
187	0x3c7c32b1	0.015392945
188	0x3cb4beab	0.022063574
189	0x3c362919	0.011118197
190	0x3d3beda3	0.045880925
191	0x3d83a393	0.06427684
192	0x3cf47e72	0.02984545
193	0x3daaf6bf	0.08347844
194	0x3d803662	0.06260373
195	0xbd5dbd42	-0.05413557
196	0xbc58b69d	-0.013227132
197	0x3d20b63b	0.03923629
198	0x3d82e05f	0.06390452
199	0x3d4850af	0.04890507
200	0xbccf85e5	-0.0253324
201	0xbd830588	-0.063975394
202	0xbb82bb18	-0.0039895885
203	0x3b8a379d	0.0042180554
204	0xbd4833c3	-0.04887749
205	0xbd1a751a	-0.037709333
206	0xbc3b9551	-0.011449174
207	0xbb78d719	-0.0037970005
208	0xbd9c4404	-0.076301605
209	0x3d49d64f	0.049276646
210	0xbd0f3620	-0.034963727
211	0x3cf6262b	0.030047497
212	0xbc5c7f04	-0.013458017
213	0x3d1230fa	0.03569124
214	0x3c4f5c05	0.0126562165
215	0x3c65ad77	0.014018408
216	0x3c91c298	0.017792985
217	0x3cc318fc	0.023815624
218	0x3c6bc4b3	0.0143901585
219	0x3af3aff7	0.001859187
220	0xbd0b8a21	-0.034067277
221	0xbd62ac77	-0.055340257
222	0xbd8389f6	-0.06422798
223	0xbd58ffcd	-0.052978326
224	0xbd427831	-0.047477905
225	0xbdbfe29e	-0.09369396
226	0xbd682870	-0.05667919
227	0x3d1303e0	0.035892367
228	0xbd8bf386	-0.06833558
229	0x3d26ffba	0.040771224
230	0xbd4a1a05	-0.04934122
231	0xbc5ac0d8	-0.013351642
232	0xbd7339e6	-0.059381388
233	0xbcc223ab	-0.023698648
234	0x3d531ff8	0.05154416
235	0xbda660c9	-0.08123929
236	0xbd4236a2	-0.047415383
237	0x3c92ea33	0.01793394
238	0x3bf2bcb1	0.0074077477
239	0xbd613339	-0.05498049
240	0x3d0d054b	0.034428876
241	0x3d0d8b07	0.034556415
242	0xbd091fe0	-0.033477664
243	0x3d20f8db	0.039299827
244	0xbd3adda8	-0.045621544
245	0xb91adedb	-0.00014769605
246	0x3c73620e	0.014854921
247	0x3ce0e279	0.02745174
248	0xbd8830a7	-0.06649905
249	0x3cc21fe2	0.023696844
250	0xbd2fd1f6	-0.042924844
251	0xbd98218b	-0.07428273
252	0xbd2b86f3	-0.041876744
253	0x3d14deb1	0.036345188
254	0x3d56ab73	0.0524096
255	0x3c8d5803	0.017253881

fc.1.bias f4 [100]
0	0x3ca9fed5	0.020751396
1	0x3d1e583b	0.038658362
2	0xbd08a778	-0.033362836
3	0x3cce44ba	0.025179256
4	0x3ca81213	0.020516431
5	0xbd2e0b15	-0.042491037
6	0xbcf08f07	-0.029365076
7	0x3d62d8d8	0.05538258
8	0xbd1d5984	-0.038415447
9	0xbd3d9fd6	-0.04629501
10	0x3ceebc0e	0.029142406
11	0xbcdb8c26	-0.026800226
12	0xbd299e0f	-0.041410502
13	0xbd392aaf	-0.045206722
14	0xbd211ad4	-0.039332226
15	0xbd5f054a	-0.054448403
16	0xbd2b4d17	-0.041821565
17	0xbd29cf86	-0.041457675
18	0x3cc8b52e	0.024500456
19	0x3d6350b2	0.05549688
20	0x3cf43ce0	0.029814184
21	0xbc96d66b	-0.01841279
22	0x3d11730e	0.035510115
23	0xbcec4d7f	-0.028845547
24	0x3cb06556	0.021532696
25	0xbc8da735	-0.017291645
26	0x3d0eadca	0.034833707
27	0xbc7e8c60	-0.015536398
28	0xbc861d2d	-0.016371334
29	0x3d0c2498	0.034214586
30	0xbcd5d53e	-0.026102658
31	0xbd394c0b	-0.045238536
32	0x3d7140ea	0.058899797
33	0x3c9c395a	0.019070316
34	0x3d445ded	0.047941137
35	0x3d11425b	0.035463672
36	0x3ccd345a	0.025049377
37	0x3d106475	0.035252053
38	0x3d7393b3	0.05946703
39	0xbcbee24a	-0.023301262
40	0xbd0d67ca	-0.03452281
41	0xbd101e43	-0.03518511
42	0x3d39ec2c	0.045391247
43	0x3d2d36b1	0.042288486
44	0x3d02bcea	0.031918444
45	0x3cd3aed4	0.0258402
46	0xbd1d4043	-0.038391363
47	0x3c8f2d2e	0.017477598
48	0x3c7e676f	0.01552759
49	0xbd3d74bc	-0.046253905
50	0x3d056017	0.03256234
51	0x3ccec206	0.025239002
52	0x3d26804a	0.04064969
53	0x3cf2bc33	0.029630756
54	0xbd528950	-0.051400483
55	0x3d5b1f12	0.053496428
56	0x3cfa67e9	0.030567126
57	0x3d7285ab	0.059209507
58	0x3d02ab1c	0.031901464
59	0x3ce0bda9	0.027434187
60	0x3d20c585	0.03925087
61	0xbd4ad2a9	-0.049517307
62	0xbcea0e39	-0.028571235
63	0x3ce3dd92	0.027815614
64	0xbd57356c	-0.05254118
65	0xbd12708d	-0.035751868
66	0xbcb30fd3	-0.021858132
67	0x3c8ef294	0.017449655
68	0xbd545198	-0.051835626
69	0x3d394e8e	0.04524093
70	0x3ccd89cf	0.025090126
71	0x3d1a8af5	0.037730176
72	0x3d23cf15	0.03999241
73	0xbd2e237d	-0.042514313
74	0x3cfae947	0.030628813
75	0xbd10491f	-0.035225984
76	0xbd4a59a6	-0.0494019
77	0xbd270820	-0.040779233
78	0xbce98459	-0.028505491
79	0xbd2546fe	-0.040350907
80	0x3d850b40	0.064962864
81	0xbcf2c815	-0.029636422
82	0x3d60fe3f	0.054929968
83	0x3cee320b	0.029076597
84	0xbcaf4aba	-0.021397937
85	0x3d2d5cc6	0.042324804
86	0xbd4565fd	-0.048192967
87	0xbd713c60	-0.05889547
88	0x3d4ed74b	0.050498288
89	0x3d1cf493	0.03831918
90	0xbccba45a	-0.024858642
91	0x3cf1494c	0.029453896
92	0x3d5f4bf4	0.054515794
93	0x3d01f61e	0.031728856
94	0x3d065868	0.032799155
95	0x3cd8db21	0.026471676
96	0x3cebb249	0.028771536
97	0x3d44c682	0.048040874
98	0xbd4ca4e5	-0.049961943
99	0x3cec7ff7	0.028869612

fc.2.weight f4 [100, 100]
0	0xbddab5dd	-0.10679219
1	0xbda7ab15	-0.08186928
2	0x3d970769	0.0737446
3	0xbdd5c7d3	-0.10438504
4	0xbe0210ad	-0.12701674
5	0x3d454c0c	0.048168227
6	0x3db67566	0.08909111
7	0xbdd2e66e	-0.10297857
8	0x3ddf6207	0.10907369
9	0x3df5f213	0.120090626
10	0xbd9c75d1	-0.07639659
11	0x3da08ee1	0.07839752
12	0x3dd75111	0.10513509
13	0x3db38a07	0.08766561
14	0x3dcfd103	0.10147288
15	0x3d9a6233	0.07538261
16	0x3da1702b	0.078827225
17	0x3dc1d83c	0.094650716
18	0xbd96d490	-0.07364762
19	0xbe07612f	-0.13220666
20	0xbd958520	-0.07300782
21	0x3dd0ad71	0.10189331
22	0xbd7a7dfc	-0.061155304
23	0x3df08ae8	0.11745244
24	0xbdc2a1bf	-0.09503507
25	0x3d6528b7	0.05594703
26	0xbda34c50	-0.0797354
27	0x3d52fb1e	0.051509015
28	0x3daadb85	0.08342651
29	0xbda3e741	-0.080030926
30	0x3dec2806	0.11531071
31	0x3ddff41e	0.109352335
32	0xbdd34590	-0.10316002
33	0xbd6a3293	-0.057177138
34	0xbdc93060	-0.0982368
35	0xbd81a517	-0.063303165
36	0xbdc04cad	-0.09389625
37	0xbdbe95da	-0.09305926
38	0xbdf2218e	-0.11822806
39	0x3dd81a62	0.10551907
40	0x3dc52030	0.0962528
41	0x3d977693	0.07395663
42	0xbe0fa182	-0.14026454
43	0xbde75d7a	-0.11297126
44	0xbdd36f5c	-0.103239745
45	0xbd83f853	-0.064438485
46	0x3de4048a	0.11133678
47	0xbdbd496e	-0.09242521
48	0xbd5e98c6	-0.054344915
49	0x3dffedc7	0.12496524
50	0xbd9ef37a	-0.07761283
51	0xbde32b95	-0.11092297
52	0xbd8d12f7	-0.06888383
53	0xbddb0b14	-0.10695472
54	0x3daa6461	0.08319927
55	0xbdac5ba1	-0.08415914
56	0xbdc56539	-0.09638447
57	0xbdeec7e9	-0.116592236
58	0xbe084f6b	-0.13311546
59	0xbdd07f72	-0.10180558
60	0xbdea021e	-0.11426185
61	0x3dfbbb8d	0.12291632
62	0x3da88f0f	0.08230411
63	0xbde5e0c8	-0.11224514
64	0x3dc70e88	0.097195685
65	0x3d92b4bb	0.07163378
66	0x3dba9dff	0.091121666
67	0xbda54cf8	-0.08071321
68	0x3dd16326	0.10223989
69	0xbd9467b8	-0.07246345
70	0xbd811ed5	-0.06304709
71	0xbd8eee2a	-0.0697902
72	0xbde0f23d	-0.10983703
73	0x3d297b24	0.0413772
74	0xbdb2a3d7	-0.08722656
75	0x3deb0205	0.114749946
76	0x3dcb29ac	0.09920058
77	0x3db4b646	0.088238284
78	0x3d39a7e5	0.045326132
79	0x3d762ec1	0.06010318
80	0xbddab70e	-0.10679446
81	0x3dd0ee40	0.102016926
82	0xbdcee64c	-0.101025194
83	0xbe10a877	-0.14126764
84	0x3d8bb783	0.068221115
85	0xbdce2c38	-0.10067028
86	0x3d943ec8	0.07238537
87	0x3e0af9d3	0.13571863
88	0xbdfddbc5	-0.12395433
89	0xbdbfd5b1	-0.0936693
90	0x3d795091	0.06086785
91	0xbd786226	-0.060640477
92	0xbdc47001	-0.095916755
93	0xbde6d779	-0.11271567
94	0xbd6ab741	-0.05730367
95	0xbdd0f9fe	-0.10203932
96	0xbdbb5cdb	-0.0914857
97	0xbddc77a4	-0.10765007
98	0x3d6b911e	0.05751144
99	0xbe14ee96	-0.14544138
100	0x3e13d1d6	0.14435515
101	0x3e1ae181	0.15125085
102	0xbde0fcdd	-0.1098573
103	0x3db061a5	0.08612374
104	0x3deb5899	0.11491508
105	0xbdd12ed6	-0.10214011
106	0xbe03a5ce	-0.12856218
107	0x3e04136a	0.12898031
108	0xbe11781a	-0.14205971
109	0xbdfc7c74	-0.12328425
110	0x3dbb34ad	0.091409065
111	0xbdf5d7c1	-0.120040424
112	0xbde05a3d	-0.109547116
113	0xbe2164d0	-0.15761113
114	0xbe143d40	-0.1447649
115	0xbda78fcc	-0.08181724
116	0xbdbce200	-0.092227936
117	0xbdd93bd7	-0.10607117
118	0x3e016429	0.12635864
119	0x3e1850ef	0.14874624
120	0x3de0f8cf	0.109849565
121	0xbdd35b41	-0.1032014
122	0x3df5d0d0	0.120027184
123	0xbdd988cc	-0.10621795
124	0x3dba2f24	0.090910226
125	0xbd962a87	-0.0733233
126	0x3df60eb9	0.12014527
127	0xbd9fa6fa	-0.0779552
128	0xbd96d312	-0.07364477
129	0x3e0880e4	0.13330418
130	0xbdde3669	-0.10850222
131	0xbe064b9f	-0.13114785
132	0x3de25c69	0.11052782
133	0x3e003a75	0.125223
134	0x3dfba017	0.12286394
135	0x3dcac2b0	0.09900415
136	0x3dde6df6	0.10860817
137	0x3e1240e4	0.14282566
138	0x3e386b8d	0.18009777
139	0xbd82f4ef	-0.063943736
140	0xbdb04c4c	-0.086083025
141	0xbde9aac5	-0.11409525
142	0x3e15a4ec	0.14613694
143	0x3e293b0f	0.16526435
144	0x3de82029	0.11334259
145	0x3dec20c0	0.11529684
146	0xbdc5ca6c	-0.096577495
147	0x3e0500d2	0.12988594
148	0x3df8aec5	0.1214271
149	0xbe2a1f5a	-0.16613522
150	0x3debf6cd	0.11521683
151	0x3dd5254d	0.10407505
152	0x3e0d4110	0.1379435
153	0x3e0932a8	0.1339823
154	0xbe2041bd	-0.15650077
155	0x3e10a192	0.14124134
156	0x3e1c0054	0.152345
157	0x3e3dac1c	0.18522686
158	0x3e097ea8	0.13427222
159	0x3db49715	0.08817879
160	0x3e2abd7c	0.16673845
161	0xbe244b29	-0.16044296
162	0xbdb612dc	-0.08890316
163	0x3dab5522	0.08365847
164	0xbe1c265d	-0.1524901
165	0xbde561d8	-0.11200303
166	0xbdcdf36a	-0.10056193
167	0x3dea2f5a	0.11434813
168	0xbe01d2bc	-0.12678045
169	0x3e030b90	0.1279738
170	0x3dd54610	0.10413754
171	0x3dee6759	0.11640806
172	0x3df63f01	0.12023736
173	0xbe1aa1ce	-0.15100786
174	0x3de50dc9	0.1118427
175	0xbe0c0353	-0.13673143
176	0xbe08e051	-0.1336682
177	0xbe010dca	-0.12602916
178	0xbe1970a2	-0.14984372
179	0xbe023815	-0.12716706
180	0x3e3dfeea	0.18554273
181	0xbd73b296	-0.059496485
182	0x3e03b2fe	0.12861249
183	0x3de936c2	0.11387397
184	0xbdca659d	-0.098826624
185	0x3e07d1d4	0.13263637
186	0xbdf6e5f2	-0.12055577
187	0xbe125211	-0.14289118
188	0x3e81d375	0.2535664
189	0x3df60b16	0.12013833
190	0xbdeacad7	-0.1146447
191	0x3de0ede0	0.10982871
192	0x3e150d51	0.14555861
193	0x3dfe1768	0.12406808
194	0x3de9e4f2	0.11420621
195	0x3dd5aa13	0.1043283
196	0x3e02d653	0.1277707
197	0x3e3afa94	0.1825965
198	0xbdb12327	-0.08649283
199	0x3dc94746	0.098280475
200	0xbd8943dd	-0.06702397
201	0xbd84ac3f	-0.06478166
202	0x3dabbfd3	0.08386197
203	0xbd906843	-0.07051136
204	0xbdda52de	-0.10660337
205	0x3d8fb975	0.07017795
206	0x3db86d4d	0.090052225
207	0xbdb17043	-0.0866399
208	0x3d9bbd6c	0.07604489
209	0x3dc46065	0.09588698
210	0xbd1ce8ff	-0.03830814
211	0x3d9868c8	0.074418604
212	0x3d892060	0.06695628
213	0x3d66d893	0.056358885
214	0x3dc7aa34	0.097492605
215	0x3db1d58b	0.08683308
216	0x3db5d359	0.08878202
217	0x3ddc3f36	0.10754244
218	0xbd847866	-0.06468277
219	0xbdf70ceb	-0.12063011
220	0xbd7df1fd	-0.061998356
221	0x3d528de4	0.05140485
222	0xbe161bc7	-0.14659034
223	0x3de56c63	0.11202314
224	0xbe0025b0	-0.12514377
225	0x3d821e5f	0.06353449
226	0xbd9684ca	-0.07349546
227	0x3d9b54ea	0.075845554
228	0x3d945d54	0.072443634
229	0xbd72116c	-0.059098646
230	0x3d58ddc1	0.052945856
231	0x3dc4252f	0.09577405
232	0xbd6e9f81	-0.058257584
233	0xbd8fd0d2	-0.07022251
234	0xbcc8a752	-0.024493847
235	0xbd9a5321	-0.07535387
236	0xbdd0ca92	-0.10194887
237	0xbd6c6820	-0.05771649
238	0xbddc09a2	-0.10744025
239	0x3ddc22a5	0.107487954
240	0x3dcbc3ee	0.0994948
241	0x3dbcfbe2	0.0922773
242	0xbdadbd75	-0.08483402
243	0xbe04a3d2	-0.12953117
244	0xbd9951d7	-0.07486313
245	0xbdae1e88	-0.08501917
246	0x3da1d0ce	0.079011545
247	0xbdaebfc1	-0.08532668
248	0xbdbabb20	-0.091177225
249	0x3de6a378	0.11261648
250	0xbd830de2	-0.06399132
251	0xbdac317d	-0.08407877
252	0xbdf7b0c1	-0.1209426
253	0xbdca386d	-0.098740436
254	0x3da23dc4	0.07921937
255	0xbdc477e4	-0.0959318

fc.2.bias f4 [100]
0	0xbcd0a601	-0.025469782
1	0x3d84a673	0.0647706
2	0xbcc55ebd	-0.024093026
3	0x3d832d2a	0.06405099
4	0xbca5bf59	-0.020232843
5	0xbcb32232	-0.021866892
6	0xbca49c17	-0.02009396
7	0xbccc3815	-0.024929086
8	0xbca75fbb	-0.02043139
9	0xbcb41262	-0.021981422
10	0xbcd3adb7	-0.02583967
11	0xbcc197c7	-0.023631943
12	0xbcbc8122	-0.023010794
13	0x3d874647	0.06605201
14	0x3d8f6e7d	0.07003496
15	0x3d8e6326	0.06952505
16	0x3d7304d2	0.05933077
17	0xbcba56a7	-0.022746397
18	0xbcac9981	-0.02106929
19	0xbca43a13	-0.020047223
20	0xbc921903	-0.017834192
21	0x3d79d9e2	0.060998805
22	0xbc83b9ce	-0.01607981
23	0x3d865397	0.06558912
24	0x3d8b5ab8	0.068044126
25	0xbce3b94a	-0.027798314
26	0xbcb5b27c	-0.022179835
27	0xbcdd0f53	-0.026984846
28	0x3d8afce4	0.06786516
29	0x3d85ad58	0.06527203
30	0x3d92fa70	0.071766734
31	0xbcab4974	-0.020909049
32	0xbcbe8227	-0.02325542
33	0x3d72463c	0.059149012
34	0x3d9bbdc2	0.07604553
35	0xbcde7079	-0.02715324
36	0x3d6c67cc	0.057716176
37	0xbcec8051	-0.02886978
38	0xbcfbf61f	-0.030757008
39	0x3d9cb6e9	0.07652075
40	0x3d8789f2	0.06618108
41	0xbcac51a1	-0.021035017
42	0x3d82e4ed	0.063913204
43	0xbcb17088	-0.021660104
44	0xbca5276a	-0.020160396
45	0xbcda6899	-0.026661204
46	0x3d833cc4	0.064080745
47	0xbcc1416e	-0.02359077
48	0x3d8af79b	0.06785508
49	0xbcd403d6	-0.025880735
50	0xbcd5e015	-0.026107827
51	0x3d89ee13	0.06734862
52	0xbcd617a9	-0.026134329
53	0xbcbfc04e	-0.023407128
54	0x3d86111d	0.06546233
55	0x3d88c65b	0.06678458
56	0x3d735bfa	0.059413888
57	0x3d76178b	0.060081046
58	0xbcab6d11	-0.02092603
59	0x3d7c7d2e	0.06164282
60	0xbcae7e5e	-0.021300491
61	0x3d8d9ebc	0.06915042
62	0x3d856bf1	0.06514729
63	0xbca603fa	-0.020265568
64	0xbc9ba646	-0.019000184
65	0x3d8d2582	0.0689192
66	0xbcc00f1d	-0.023444707
67	0x3d8a547e	0.06754397
68	0x3d8c776e	0.06858717
69	0xbc983f57	-0.01858489
70	0xbcdec437	-0.027193172
71	0x3d820858	0.06349248
72	0xbcb6b532	-0.022303198
73	0x3d9d446f	0.07679068
74	0x3d841833	0.06449928
75	0xbcd8a9ce	-0.026448157
76	0xbcb0d0a5	-0.021583864
77	0xbcbdf207	-0.023186697
78	0xbc9791b4	-0.018502094
79	0x3d866723	0.065626405
80	0xbcb1ce3a	-0.021704782
81	0xbc9f898b	-0.019474765
82	0x3d8c030d	0.068365194
83	0x3d99a7e1	0.075027235
84	0xbcbefd31	-0.02331409
85	0x3d863a18	0.06554049
86	0xbcac18a5	-0.021007845
87	0xbcdc4aec	-0.026891194
88	0xbccdbfd8	-0.025115892
89	0xbc98c34f	-0.018647818
90	0xbcb2a738	-0.021808252
91	0x3d7cd352	0.06172497
92	0xbc8e557f	-0.017374752
93	0x3d8f3505	0.069925345
94	0xbca9901e	-0.020698603
95	0xbcc34630	-0.023837179
96	0xbcafab91	-0.021444114
97	0x3d8b4167	0.06799584
98	0xbcc0ed11	-0.023550542
99	0x3d8841c5	0.066531695

fc.3.weight f4 [1, 100]
0	0x3dde8959	0.10866041
1	0xbe43197a	-0.19052687
2	0x3e055222	0.13019612
3	0xbe224d91	-0.15849902
4	0x3e01cac4	0.12675005
5	0x3df5d103	0.120027564
6	0x3deb4a87	0.11488824
7	0x3e19fbee	0.1503751
8	0x3dd6aeb2	0.10482539
9	0x3de8c1b7	0.11365073
10	0x3def9f1e	0.11700271
11	0x3e08f544	0.13374811
12	0x3dd79922	0.10527255
13	0xbe2c2cca	-0.1681396
14	0xbe27499d	-0.16336675
15	0xbe344976	-0.17606148
16	0xbe1d4c0e	-0.15361044
17	0x3df66b57	0.12032192
18	0x3dc9676c	0.09834179
19	0x3de36746	0.11103682
20	0x3de043f2	0.109504595
21	0xbe42b6ea	-0.19015089
22	0x3df1424b	0.117802225
23	0xbe363fa3	-0.17797713
24	0xbe2863c2	-0.16444305
25	0x3e191bf8	0.14952075
26	0x3df15bdc	0.11785099
27	0x3e019821	0.12655689
28	0xbe2df3ec	-0.1698758
29	0xbe387187	-0.18012057
30	0xbe1890a1	-0.14898922
31	0x3e019421	0.12654163
32	0x3dfe6c7b	0.12423035
33	0xbe31588e	-0.17318937
34	0xbe237095	-0.15960915
35	0x3ded6dc9	0.115932055
36	0xbe264ba9	-0.162398
37	0x3dd4c6d6	0.103894874
38	0x3de6e9a0	0.11275029
39	0xbe20b5b9	-0.15694322
40	0xbe207eb3	-0.15673332
41	0x3e13950c	0.14412326
42	0xbe225f79	-0.15856732
43	0x3dd33e79	0.1031465
44	0x3e054108	0.13013089
45	0x3dde4831	0.10853613
46	0xbe294559	-0.1653036
47	0x3df03501	0.1172886
48	0xbe1efa52	-0.15525177
49	0x3e0e8ee9	0.13921703
50	0x3e0180f6	0.12646851
51	0xbe214b6a	-0.15751424
52	0x3e1da4a6	0.1539484
53	0x3df7af3b	0.120939694
54	0xbe2df0f6	-0.1698645
55	0xbe13b850	-0.14425778
56	0xbe416f31	-0.18890072
57	0xbe2d41de	-0.16919658
58	0x3e028cda	0.12749043
59	0xbe3dd2f6	-0.18537506
60	0x3de611a2	0.11233832
61	0xbe13af90	-0.1442244
62	0xbe2dd333	-0.16975097
63	0x3dde067f	0.10841083
64	0x3df10ada	0.11769648
65	0xbe21e5b8	-0.15810287
66	0x3ddc2f5b	0.1075122
67	0xbe322ac7	-0.17399131
68	0xbe2b35b4	-0.16719705
69	0x3e090db5	0.13384135
70	0x3e102ee0	0.14080381
71	0xbe2dacaf	-0.16960405
72	0x3e0990d1	0.1343415
73	0xbe1b497f	-0.15164755
74	0xbe2eeec3	-0.17083268
75	0x3e0886d9	0.1333269
76	0x3df286a0	0.11842084
77	0x3dfee404	0.12445834
78	0x3de7ba0f	0.11314785
79	0xbe3fd364	-0.18732983
80	0x3dee8d6b	0.11648067
81	0x3de3a582	0.111155525
82	0xbe298118	-0.16553152
83	0xbe260655	-0.16213353
84	0x3e14abfd	0.14518733
85	0xbe1e91e6	-0.15485343
86	0x3dddd808	0.1083222
87	0x3ddac3c8	0.106818736
88	0x3e00a690	0.12563539
89	0x3de29bad	0.11064849
90	0x3e07ae98	0.13250196
91	0xbe1e68b9	-0.15469636
92	0x3e1bcc9b	0.1521477
93	0xbe1a6aa6	-0.15079746
94	0x3e1ca584	0.15297514
95	0x3e043bff	0.12913512
96	0x3df5bc19	0.119987674
97	0xbe2402fa	-0.1601676
98	0x3dfb45d4	0.12269178
99	0xbe34b0be	-0.17645547
