results/Smoothed_InfoNCE_GT_dim10.pt (torch, 69605 bytes, 5 tensors)

fc.0.weight f4 [100, 20]
000000 da fb f0 3d bf b6 50 3e 81 08 12 be 8b f3 f9 3d
       0.11766787 0.20382212 -0.14261056 0.12204655
000010 ff 0d bb 3d b9 c3 24 be 2a 98 35 3d 5b 67 1a be
       0.09133529 -0.16090287 0.044334568 -0.1507849
000020 94 8f b7 3d 14 f9 52 3e a2 6c aa bd 77 e9 68 be
       0.08962932 0.20602828 -0.08321501 -0.2274531
000030 5f b3 49 3e 6a a3 0a be 56 54 62 bd be fc 24 3e
       0.19697331 -0.135389 -0.05525621 0.16112038
000040 78 dd 50 bd 63 e5 52 3e 78 95 d7 bd bb d5 47 be
       -0.05099246 0.20595317 -0.10526556 -0.19515125
000050 e0 70 1a be b8 e2 de 3d 79 46 64 be 19 6b 26 be
       -0.15082121 0.10883087 -0.22292508 -0.16251792
000060 fc d6 57 be e3 84 19 3e ac 94 50 3e ec 0f e2 bc
       -0.21078104 0.14992099 0.20369214 -0.027595483
000070 e9 12 33 3e 68 d5 cb 3d 34 12 0f 3e 5f ae 06 be
       0.17487682 0.099528134 0.13971788 -0.13152455
000080 3e f3 6e 3e f6 a6 33 3e ec 89 51 3e ff bc 10 be
       0.23334977 0.1754416 0.2046277 -0.14134596
000090 e4 fc 4f be 0b 5c 50 3d 34 e9 2c be d7 5e e6 bd
       -0.20311314 0.05086903 -0.16885835 -0.11248558
0000a0 e4 e5 c7 3d 19 10 94 3d 5b f3 3e 3e a4 75 22 be
       0.09760645 0.07229633 0.1864752 -0.15865189
0000b0 62 d0 3c 3e 85 97 24 3e ac 35 e9 3d f3 5f 2b be
       0.18438867 0.16073425 0.1138719 -0.1673582
0000c0 7d e0 ed bd 99 23 04 be 7d 45 2e bd 0c cb 18 bd
       -0.11615083 -0.12904204 -0.042546738 -0.037303016
0000d0 b4 e9 59 be b1 9f 20 3e 5f 06 4c be e2 35 fa bd
       -0.21280557 0.15685917 -0.19924305 -0.122173086
0000e0 3c 8f 02 be 0d e2 24 3e 7f 25 f0 3d 78 2a ec 3d
       -0.12749952 0.16101857 0.11725902 0.11531538
0000f0 94 c4 05 be e9 52 a9 3d 37 2d 98 3d 38 42 b7 3d
       -0.1306327 0.08267767 0.07430499 0.08948177
000100 30 ba a9 bd 3a f4 93 3d d3 2c b1 bd a4 3f b5 bd
       -0.082874656 0.07224317 -0.08651128 -0.08850029
000110 a3 d2 c6 3d 71 be 54 bd e5 15 88 bd 82 71 34 3d
       0.097081445 -0.05193943 -0.06644801 0.044053562
000120 ff 84 88 3d c5 dd df 3c ed cf 7f bd 3b 02 cc 3d
       0.06665992 0.027327428 -0.062454153 0.09961363
000130 dd 22 85 bd 48 1c 92 bd 6a 5f 88 3d a0 46 90 bc
       -0.0650079 -0.071343005 0.06658824 -0.017611802
000140 cd 1e 02 be 44 f3 22 be 22 8b 47 be bd cb 04 3e
       -0.12707062 -0.15913111 -0.19486669 0.12968345
000150 05 3d 14 3e 25 b4 19 be 88 58 9f bd 5c b4 1e 3e
       0.14476402 -0.15010126 -0.07780558 0.15498489
000160 67 5f 94 3d 27 96 25 be 6a b4 eb 3d 2e 45 31 3e
       0.07244759 -0.1617056 0.115090206 0.17311546
000170 de f5 3b 3e 7d 4c 29 be 78 f8 22 be 12 ce df 3d
       0.1835551 -0.16533084 -0.15915096 0.10927977
000180 16 9d 03 3e 7b 47 06 be 24 be a7 bd 75 46 33 3e
       0.12852892 -0.13113205 -0.08190563 0.17507346
000190 f3 6d c5 bd 0b 0c cd 3d 88 2b 12 be bf 0f 01 be
       -0.09640112 0.10012063 -0.14274418 -0.12603663
0001a0 a7 46 46 be 68 b9 6e be 8b 2d 2a be ec 56 49 be
       -0.19362889 -0.23312914 -0.16618936 -0.19662064
0001b0 fa f6 27 be 85 44 18 bd b1 e1 d7 3d 57 19 f5 bd
       -0.16402808 -0.03717472 0.10541094 -0.11967724
0001c0 18 7a 22 3e ef 00 ed 3d 85 c4 26 3e 29 43 76 3e
       0.15866888 0.11572444 0.16285904 0.24049057
0001d0 d6 fa 37 3e a4 74 57 3e a2 89 28 3e 0e 30 4d 3d
       0.1796678 0.21040589 0.16458753 0.050094657
0001e0 47 80 05 bd b9 0c e3 3d ae 98 8f 3d 07 9e e1 3d
       -0.032593038 0.11086411 0.07011543 0.110164694
0001f0 10 17 c7 b9 b7 ed 94 3d ff d6 ed 3d c7 60 64 bc
       -0.0003797342 0.07271903 0.11613273 -0.013939089
000200 4c e9 0b be 34 6e 7f bd b8 f6 62 3a 0e 00 c6 3d
       -0.13663214 -0.062360957 0.000865798 0.09667979
000210 af ee 8d 3d 68 95 8f 3d 00 10 ab bb 30 c0 c6 3d
       0.06930291 0.07010919 -0.005220413 0.097046256
000220 42 9c bf 3d 96 e7 19 bc c3 dd e1 bd eb ee 1a bd
       0.09355976 -0.009393593 -0.11028626 -0.037825506
000230 4d 18 b5 3c b2 49 61 3d 5d ab 9e bd 81 d8 e8 3d
       0.022106314 0.055001922 -0.07747529 0.1136942
000240 63 30 ff bd ec 32 6f bd 2a 29 0c 3e 91 26 c4 bd
       -0.12460401 -0.058398172 0.13687578 -0.095776685
000250 84 c1 f9 3d 24 7d c7 3d 4f 15 0b 3d eb bc 1a 3d
       0.12195113 0.097406656 0.03395587 0.037777822
000260 6f 17 5d bd 21 e5 9f 3d ef bc b3 bd ea 08 af bc
       -0.053977426 0.07807375 -0.087762706 -0.021366555
000270 80 ce e5 3d 86 65 96 bd f7 b6 b1 3d 6b ab ac 3d
       0.112210274 -0.07343583 0.08677476 0.08431133
000280 d3 39 01 be 64 76 3c 3d 37 0a c8 bd 12 57 5a bd
       -0.12619714 0.046011344 -0.09767573 -0.053305693
000290 e5 0f 16 be 3a ad a8 bd b3 06 12 3e 85 2d 6e bc
       -0.14654501 -0.08236165 0.14260368 -0.01453722
0002a0 6a 38 5b 3d 39 8b e0 3b 52 0d b0 bd ae 4a 82 3c
       0.053520598 0.006852534 -0.08596291 0.01590475
0002b0 d6 2d 7b bd e1 1e 48 bd 5b c1 e2 bd 7c 36 33 bd
       -0.06132301 -0.048857573 -0.11072036 -0.043753132
0002c0 ee e2 e0 3d 4e 45 60 3b f0 df de 3c 13 fc 21 3a
       0.109807834 0.0034220996 0.027206391 0.00061792246
0002d0 71 08 5b 3e fd 24 39 3e 25 ef e5 3d 68 43 32 3e
       0.21389939 0.18080516 0.11227254 0.17408526
0002e0 8d d9 50 3e 38 c4 4b 3e 6e 0d 81 3d 6c 51 26 be
       0.20395489 0.1989907 0.0630139 -0.16241997
0002f0 61 ca a0 bd a9 c6 8f bd 2f a3 41 be 14 bf 25 be
       -0.07851101 -0.07020313 -0.18909906 -0.16186172
000300 e6 75 f8 bd 80 84 33 be da a0 6a be dc 6f 07 be
       -0.12131862 -0.17531013 -0.22912923 -0.13226265
000310 10 61 a8 bd 40 39 3b 3e 18 17 8c 3d 4e b2 c6 3d
       -0.08221638 0.18283558 0.06840342 0.09701978
000320 9d c3 2c 3e 65 57 21 3e f5 66 4f be 4e 14 81 bd
       0.16871496 0.15755995 -0.20254119 -0.06302701
000330 1b ea 5b 3e ee a2 f4 bd 74 b5 15 3e 03 7c cb bd
       0.21476023 -0.11945139 0.1462 -0.09935763
000340 e9 49 02 be d4 b9 db 3d ce 84 18 be d9 bd 25 be
       -0.12723507 0.10728803 -0.14894411 -0.16185702
000350 5a e1 36 3e 67 f1 04 3d 52 cd 42 be d7 bd 01 3e
       0.17859402 0.03245678 -0.19023636 0.12670074
000360 15 83 11 be 06 13 d5 3d 1b 0e f9 3d 97 71 dd bd
       -0.1421016 0.10404019 0.121608935 -0.10812681
000370 09 6c c6 3d 9e af 70 3e 4b 5d 36 3e 27 e2 76 3e
       0.09688575 0.23504493 0.17809026 0.24109708
000380 78 29 77 be e7 78 0b be 86 73 01 3e 11 47 19 3d
       -0.24136913 -0.1362034 0.12641725 0.03742129
000390 9f e8 47 3e d1 40 11 be fd d0 ec bd 71 1e 8a be
       0.19522332 -0.14184882 -0.11563299 -0.2697635
0003a0 6b 7a 45 be 28 6b 4a be 7e 86 7d 3e b5 ea 01 3e
       -0.1928498 -0.1976744 0.24758336 0.1268719
0003b0 10 ba 0f be a8 da 66 bb fe 0d 68 be 0d b1 1e 3e
       -0.14035821 -0.0035225544 -0.22661588 0.15497227
0003c0 1c 83 14 be fa 05 d4 3d 15 fd e5 3d 57 5a 09 3d
       -0.1450314 0.103527024 0.11229912 0.03353342
0003d0 5f ef 30 3e dc 9e 52 be 73 7c 59 be 2d f9 27 3d
       0.17278813 -0.20568413 -0.2123888 0.041009117
0003e0 f9 72 ed bd 35 bf 0b be 5c bd 1e 3e 85 90 d2 bd
       -0.11594195 -0.13647158 0.15501922 -0.10281471
0003f0 b7 0c ee bd fd be f7 bc 5f 8f 4b be 4e 7c 48 3e
       -0.11623519 -0.030242437 -0.1987891 0.19578668

fc.0.bias f4 [100]
000000 64 13 4f bd 95 00 6b bd 40 a8 34 bd e0 54 92 bd
       -0.0505556 -0.057373602 -0.04410577 -0.07145095
000010 88 c9 48 bd 41 8b 57 bd 94 8e ad bd 06 da ac bd
       -0.04902032 -0.052623037 -0.0847446 -0.08440022
000020 b8 d5 8b bd 1a 61 2d bd 0a f4 12 bd f7 b1 83 bd
       -0.06827873 -0.04232893 -0.035877265 -0.064304285
000030 1d db 19 bd f2 e9 8e bd ea 7e a3 bd d1 e8 9a bd
       -0.03756248 -0.06978215 -0.07983191 -0.075639375
000040 fa c4 92 bd 64 95 4b bd 4a cb 8d bd ad b6 b4 bd
       -0.071664765 -0.049703017 -0.0692354 -0.08823905
000050 31 80 27 bd 62 27 a8 bd 57 24 a3 bd b9 f2 1d bd
       -0.040893737 -0.08210637 -0.07965916 -0.038561556
000060 31 8b 69 bd e8 4d 0a bd ec 9f 3f bd 1c 8f 2d bd
       -0.05701751 -0.033765703 -0.046783373 -0.042372808
000070 48 b9 46 bd 75 fb 43 bd 26 e7 66 bd 85 9a a3 bd
       -0.04851654 -0.04784723 -0.056372784 -0.07988457
000080 5c 6d 92 bd 9a 59 a7 bd b7 72 9f bd cc da 9a bd
       -0.07149765 -0.08171387 -0.07785552 -0.075612634
000090 3c 12 5a bd 01 89 69 bd df 5c 28 bd 1d ec 93 bd
       -0.053240046 -0.057015423 -0.041104194 -0.072227694
0000a0 32 e5 9f bd 3c 80 69 bd b6 4b 9a bd b2 b7 5d bd
       -0.078073874 -0.05700706 -0.07533972 -0.054130264
0000b0 51 d3 3e bd 86 78 4b bd 0b 76 9b bc a2 58 41 bd
       -0.046588246 -0.049675487 -0.018977186 -0.047203667
0000c0 27 fd 1e bd 64 2e 61 bd bd 34 27 bd eb c4 a0 bd
       -0.038815644 -0.054975882 -0.04082178 -0.07850059
0000d0 25 47 74 bd e4 53 a8 bd f7 2c 40 bd 15 e8 97 bd
       -0.05963816 -0.08219126 -0.04691788 -0.07417313
0000e0 35 f0 82 bd 44 d0 6b bd 8e c6 5e bd 13 9e 28 bd
       -0.06393472 -0.057571664 -0.054388575 -0.041166376
0000f0 46 0b 7b bd 3c c3 9c bd 76 d1 40 bd ca e3 a8 bd
       -0.061290048 -0.076544255 -0.047074758 -0.08246572
000100 7e 03 5a bd c6 81 b0 bd 52 2c 4a bd 5b 74 87 bd
       -0.053225987 -0.08618502 -0.049358673 -0.0661399
000110 38 74 e0 bb a2 45 39 bd 16 f5 4f bd d2 74 ca bc
       -0.006849792 -0.045232423 -0.05077084 -0.024713907
000120 75 e7 8c bd 98 e8 81 bd b4 a3 ae bd 8e 8c 7b bd
       -0.068800844 -0.06343192 -0.08527318 -0.06141334
000130 42 22 aa bd dc 4d 00 3d df 94 f3 bc 02 73 20 bd
       -0.083073154 0.031324252 -0.029734073 -0.03917218
000140 48 59 a6 bd 74 19 ad bd 5e 98 97 bd d3 18 88 bd
       -0.08122498 -0.084521204 -0.074021086 -0.0664536
000150 df 38 8c bd f8 67 00 bd 87 06 a6 bd 56 14 52 bd
       -0.06846785 -0.031349152 -0.08106714 -0.051288925
000160 3d 4d 81 bd 6c ca a5 bd 75 32 a4 bd b2 e7 99 bd
       -0.0631356 -0.080952495 -0.080174364 -0.075148955
000170 ae d3 90 bd 4b 99 97 bd 79 ec 4c bd 6f 04 b3 bd
       -0.07071625 -0.07402285 -0.050030205 -0.0874108
000180 3e 44 62 bd 8d 89 24 bd e1 55 36 bd 65 61 95 bd
       -0.055240862 -0.04017024 -0.044515494 -0.07293967

fc.1.weight f4 [100, 100]
000000 90 3f 36 3e 60 52 70 3e a3 e8 3b 3e 9e c5 89 bd
       0.17797685 0.23468924 0.18350463 -0.067271456
000010 74 db 39 3e 3f 4b 41 3e 9a bf e1 bd 42 10 23 be
       0.18150121 0.1887636 -0.11022873 -0.1592417
000020 24 4e d1 bd 64 54 58 3e 6e 39 4b 3e ce 43 66 3e
       -0.10219982 0.21125942 0.19846126 0.22486803
000030 28 cf 54 3e fa 11 e1 bd 05 59 84 bd 7b e8 ff bd
       0.20782149 -0.10989757 -0.06462292 -0.12495514
000040 c9 5c ba bd 1b aa 5a 3e 0f 89 f4 bd 56 a5 01 be
       -0.090997286 0.21353953 -0.11940204 -0.12660727
000050 50 73 83 3e 7c 3e 0f be 0a 23 d0 bd f9 7c 93 3e
       0.25673914 -0.1398868 -0.10162933 0.28806284
000060 cd 3b 59 3e 8f 91 69 3e a3 7b 77 3e 76 84 71 3e
       0.21214218 0.22809432 0.24168257 0.23585686
000070 00 b7 2f 3e cd b5 81 3e 10 27 3c 3e bd f3 00 be
       0.17159653 0.25334015 0.18374276 -0.12592979
000080 dc b0 97 bd c8 7f 03 be e4 37 ea bd 91 6a e6 bd
       -0.0740678 -0.12841713 -0.114364415 -0.11250795
000090 0e 00 4a 3e 2e 2a 36 bd 2e 45 55 3e 84 cf a0 bd
       0.19726583 -0.04447382 0.20827171 -0.078520805
0000a0 b0 57 b0 bd 84 7d 4b 3e 09 69 01 be d7 3e 6c 3e
       -0.08610475 0.19872099 -0.12637724 0.23070846
0000b0 77 e8 61 3e be 19 21 3e 0e f5 85 3e b9 76 72 3e
       0.22061335 0.15732476 0.26163524 0.23678102
0000c0 d0 64 44 3e 72 bb 89 3e 46 a7 29 3e 26 67 b8 bd
       0.19179082 0.26900822 0.16567716 -0.09004049
0000d0 66 42 8a 3e 12 13 19 be 38 18 7e 3e b5 c3 da bd
       0.27003783 -0.14948681 0.24813926 -0.106818594
0000e0 76 28 55 bd 15 4a 4a 3e e2 59 36 3e fd 85 36 3e
       -0.05204054 0.19754823 0.17807725 0.1782455
0000f0 4c 8b 68 3e e6 32 15 be d5 20 6a 3e e7 08 d1 bd
       0.22709388 -0.14570197 0.22864087 -0.10206776
000100 ef 38 7f 3e 83 3f b8 bd f7 a1 75 3e 96 9a ec bd
       0.24924062 -0.08996489 0.23987566 -0.115529224
000110 8b cb 93 3e 26 ea 44 3e a4 07 75 3e df 08 66 3e
       0.28866228 0.19229946 0.23928696 0.22464322
000120 2f b6 85 3e 5d d1 5a 3e 0a 43 dd bd f9 52 5e 3e
       0.26115558 0.21368928 -0.10803802 0.21711339
000130 6b 65 1d be 03 dc 13 3e 04 8b 5f 3e 5c b5 72 3e
       -0.15370719 0.14439397 0.21830374 0.23701996
000140 2d 65 07 be e9 ce d2 bd 6b f4 d8 bd 36 0c 86 bd
       -0.13222189 -0.10293371 -0.10593494 -0.06545298
000150 a6 4e c4 bd c9 0c 78 3e 78 e1 09 be 98 f2 6b 3e
       -0.095853135 0.24223627 -0.13464916 0.23041761
000160 e8 37 be bd 48 a0 df bd 2e f3 f5 bd b5 32 dc bd
       -0.09288007 -0.10919243 -0.120092735 -0.10751859
000170 fe 76 91 bd a0 e5 cd bd f6 b5 30 3e 34 90 0c be
       -0.07102774 -0.10053563 0.17256913 -0.13726884
000180 fe cf 64 3e 37 2d 70 3e 9b 93 1e 3e 01 6e 17 bd
       0.22344968 0.23454748 0.15485995 -0.036970142
000190 67 b0 82 be 79 dd 73 be 7a 6f 76 be 49 e7 f3 3d
       -0.2552521 -0.23814954 -0.24065962 0.119093485
0001a0 61 dd 8a be 6f c3 84 be 36 a9 ed 3d c1 70 15 3e
       -0.27122024 -0.25930354 0.1160454 0.14593793
0001b0 0d cf d6 3d a9 27 6c be df 02 76 be 5a 0d 83 be
       0.104887106 -0.23062004 -0.24024533 -0.25596124
0001c0 26 ea 5b be c7 23 14 3e c7 52 cd 3d 48 5e 0b 3e
       -0.2147604 0.14466773 0.10025554 0.13610184
0001d0 ce da eb 3d 6c 52 76 be be 45 ee 3d e2 03 d0 3d
       0.11516343 -0.24054879 0.11634396 0.101569906
0001e0 b4 de 87 be a7 46 2a 3e 6b 8e c8 3d 31 c2 94 be
       -0.26537097 0.16628514 0.09792789 -0.29054406
0001f0 cd 4e 81 be 0a 59 8d be 5b 74 73 be 22 b3 38 be
       -0.25255433 -0.27606994 -0.23774855 -0.18037084
000200 d8 a2 84 be 41 50 84 be ef c9 3d be ee 38 15 3e
       -0.2590549 -0.2584248 -0.18534063 0.14572498
000210 d1 3e fa 3d a4 09 12 3e 95 0e d8 3d 68 24 12 3e
       0.122190125 0.1426149 0.10549656 0.142717
000220 43 07 65 be 05 7a ac 3d d9 a1 83 be b0 c9 c5 3d
       -0.22366051 0.08421711 -0.25709417 0.096576095
000230 2a 0d 9b 3d 12 7f 60 be ed bc e6 3d 68 e6 7b be
       0.0757087 -0.21923473 0.112665035 -0.24599612
000240 7c a2 8d be 40 c2 73 be d5 d4 66 be ed f3 90 be
       -0.27663028 -0.23804569 -0.22542126 -0.283111
000250 ad 02 6d be f3 ef 86 be 39 20 98 be ff cc c0 3d
       -0.23145552 -0.26354942 -0.29712084 0.094141
000260 7a 00 95 be 7c 98 ac 3d 98 7f 84 be 0d 06 10 3e
       -0.29101926 0.084275216 -0.25878596 0.14064808
000270 46 66 ed 3d 72 02 78 be 93 1a 87 be fd 34 84 be
       0.11591773 -0.24219683 -0.26387462 -0.25821677
000280 14 33 86 be cf f3 01 3e 5b 4c 70 be 7f 6f 05 3e
       -0.26210845 0.12690662 -0.23466627 0.13030814
000290 0f b6 7f be 95 d0 09 3e 68 af 7e be 44 b7 0a 3e
       -0.24971794 0.13458474 -0.248716 0.13546473
0002a0 9e 0b 57 be 4e 79 81 be c5 d5 88 be 5f 58 81 be
       -0.21000525 -0.2528786 -0.26725593 -0.25262734
0002b0 70 12 8a be bc 73 7d be 08 25 04 3e 18 9f 80 be
       -0.26967192 -0.2475118 0.12904751 -0.2512138
0002c0 d8 08 20 3e 31 3e b7 bd 59 38 82 be ee e2 6a be
       0.15628374 -0.08947409 -0.25433615 -0.2293813
0002d0 c9 00 00 3e 95 c7 de 3d ce 0d ef 3d 2a d3 d8 3d
       0.125003 0.10877911 0.11672555 0.10587151
0002e0 49 24 eb 3d f0 d6 b3 be 3a 5c 1f 3e d5 79 80 be
       0.1148153 -0.35124922 0.15562525 -0.2509295
0002f0 33 e4 e3 3d b5 c2 e4 3d e3 c7 ef 3d f7 15 0d 3e
       0.1112751 0.1116995 0.11708047 0.1377791
000300 5c be c3 3d 63 60 0f 3e 6b ec 75 be 44 7c 25 3e
       0.095577925 0.14001612 -0.24015968 0.16160685
000310 4b b9 8d be da ad 91 be ff ac 4a be 83 c1 c8 3d
       -0.2768043 -0.2845295 -0.19792555 0.098025344
000320 90 20 60 3e 79 6b 25 3e c0 83 66 3e 23 c4 99 bd
       0.21887422 0.16154279 0.22511196 -0.07508113
000330 84 46 5b 3e a6 f1 74 3e 5b 34 e5 bd 9c ab 1a be
       0.21413618 0.23920307 -0.11191627 -0.15104526
000340 c2 3a d9 bd 0a 0a 76 3e 51 a0 8c 3e de 1a 62 3e
       -0.1060691 0.24027267 0.27466062 0.22080562
000350 33 e4 89 3e 94 a9 bc bd d5 71 df bc 42 c0 b9 bd
       0.26931915 -0.09212032 -0.027275959 -0.090698734
000360 2b 3e 9b bd 7a 27 80 3e fa 67 d9 bd 13 f2 ca bd
       -0.07580217 0.25030118 -0.10615535 -0.09909453
000370 fc ad 9e 3e b4 d9 1c be 22 c4 fc bd 47 cb 82 3e
       0.30992115 -0.15317422 -0.12342097 0.25545713
000380 a8 0b 50 3e 89 e9 55 3e c8 1a 96 3e 8a cf 51 3e
       0.20316947 0.20889868 0.29317307 0.20489326
000390 46 16 5f 3e 62 33 73 3e a4 2b 39 3e 43 0d e0 bd
       0.2178584 0.2375007 0.18083054 -0.109400295
0003a0 74 f8 dc bd a9 d1 d6 bd 13 18 f4 bd 50 32 a4 bd
       -0.10789576 -0.10489208 -0.11918654 -0.08017409
0003b0 b3 5a 50 3e 10 f7 d4 bd 9d eb 48 3e 89 05 f9 bd
       0.20347099 -0.10398686 0.1962113 -0.12159259
0003c0 c5 4d d2 bd eb fd 34 3e 2f 02 c7 bd d3 2c 54 3e
       -0.102687396 0.17674987 -0.09717213 0.20720224
0003d0 35 62 97 3e 32 ac 3f 3e dd 4a 3c 3e 3f 00 61 3e
       0.29567114 0.18718031 0.18387933 0.2197275
0003e0 67 37 4e 3e dc 74 65 3e b1 d5 27 3e 72 52 d4 bd
       0.20138322 0.2240786 0.1639011 -0.10367288
0003f0 80 6f 50 3e 3d 3e c8 bd 02 b5 47 3e b1 09 00 be
       0.20355034 -0.09777496 0.19502643 -0.12503697

fc.1.bias f4 [100]
000000 f2 95 e2 3d 67 25 07 3c ba ff dd 3d 3e a0 da 3d
       0.11063756 0.0082486635 0.108397916 0.10675095
000010 20 ba 10 3c 4b 45 d5 3d c0 99 25 3c 34 9c 1c 3c
       0.008833438 0.10413607 0.010107458 0.009558726
000020 d1 73 d5 3d 56 68 e0 3b ed 11 d0 3d 3d 26 cc 3b
       0.10422481 0.0068483753 0.10159669 0.0062301443
000030 72 d0 cb 3d c0 c5 40 3c 7d eb e4 3d bb 53 07 3c
       0.09951867 0.011765897 0.11177728 0.008259709
000040 5a f1 bb 3d 50 9b 0f 3c 69 f7 c6 3d 74 ff e1 3d
       0.091768935 0.008765057 0.097151585 0.11035052
000050 4f 90 a6 3d 7a 8d d8 3d b1 49 d4 3d f9 01 ff 3b
       0.081329934 0.105738595 0.10365618 0.0077822176
000060 ea 04 0e 3c 6a d8 c3 3d fc 80 d5 3d 10 0f c9 3d
       0.008668164 0.09562762 0.104249924 0.09817326
000070 56 bf 28 3c bc 40 d4 3d 0a 6c 2d 3c b7 61 2a 3c
       0.010299524 0.103639096 0.010584841 0.010399274
000080 6b 55 fe 3b 0e 0f 2c 3c fc 6f d8 3d f7 24 dd 3d
       0.0077616475 0.010501636 0.10568234 0.10798066
000090 1d e4 c6 3d ab b7 18 3c f7 ed 69 3c 3e 71 d0 3d
       0.09711478 0.009321134 0.014277927 0.10177849
0000a0 2f 4f ef 3b 45 57 0f 3c cb f1 11 3c 77 3f d8 3b
       0.0073031406 0.008748834 0.008907746 0.0065993625
0000b0 08 77 c4 3d 42 59 4c 3c b7 36 0c 3c 36 80 2d 3c
       0.09593016 0.012472453 0.008557967 0.01058965
0000c0 4b d8 e8 3b d8 b5 76 3c 8b 4a cb 3b 5b c0 2f 3c
       0.0071058623 0.015058003 0.0062039546 0.010727013
0000d0 ee 1c f6 3b 16 8f 16 3c 67 97 57 3c a6 57 df 3d
       0.007510773 0.009189388 0.013158656 0.109053895
0000e0 b7 38 ec 3d aa 0e e7 3b 67 65 ce 3d 5b 21 de 3d
       0.11534255 0.0070513086 0.10077935 0.10846206
0000f0 57 c3 0b 3c 94 4d 0d 3c 6d 19 37 3c c3 ac f1 3b
       0.008530459 0.008624453 0.011175496 0.007375331
000100 11 04 24 3c da 40 d3 3d 47 ae e2 3b 6f be e0 3b
       0.010010735 0.10315104 0.006917748 0.006858639
000110 b8 bf f3 3d c6 c8 d3 3d 84 e3 1a 3c fa 23 0b 3c
       0.11901802 0.10341029 0.009453658 0.008492464
000120 90 54 f8 3b aa 58 cd 3d 21 93 ca 3d cb d8 d0 3d
       0.00757844 0.10026677 0.09891344 0.101976
000130 dd 88 33 3c 57 a4 2d 3c 7f f0 ff 3b fd a5 d7 3d
       0.010957924 0.010598264 0.007810652 0.105297066
000140 18 7a d0 3d ab c0 1d 3c 48 88 ab 3d 12 38 00 3c
       0.101795375 0.009628455 0.08375603 0.007825868
000150 2b 25 b5 3d 79 fa 32 3c ae 8b 13 3c 67 00 ce 3d
       0.0884498 0.010923975 0.00900547 0.100586705
000160 4b 4e 06 3c a2 b9 e9 3d 78 c5 dc 3d c6 d8 c6 3d
       0.008197377 0.1141236 0.10779852 0.09709315
000170 db 35 bb 3d 7c 73 c9 3d 47 ad da 3d 55 ab ce 3d
       0.091411315 0.0983648 0.10677581 0.10091273
000180 3b ed 1b 3c fb a1 c1 3d 6e 91 e4 3b 22 3b 95 3d
       0.009517009 0.094547234 0.0069753444 0.07286669

fc.2.weight f4 [1, 100]
000000 67 76 a4 be 09 52 90 3e 25 e8 9d be cd 99 9f be
       -0.32121584 0.28187588 -0.30841175 -0.31172028
000010 a8 4a 9a 3e 7b b3 a2 be 77 49 92 3e d1 c4 8b 3e
       0.30135083 -0.31777558 0.28571674 0.27298597
000020 0b be a3 be a8 6d a7 3e 9b ba a9 be 38 b3 8e 3e
       -0.3198093 0.3270085 -0.3315018 0.27871108
000030 35 46 98 be 58 4e 8d 3e 33 68 9f be ad 26 9f 3e
       -0.29741064 0.27598834 -0.31134185 0.31084195
000040 e5 0e a1 be 4e de 93 3e 99 ac 9a be 75 af 9a be
       -0.31456676 0.28880543 -0.30209807 -0.30211988
000050 cd e7 a8 be ad 75 a4 be 82 72 9c be f3 d7 93 3e
       -0.3298935 -0.3212103 -0.30556113 0.28875694
000060 55 8a 8e 3e 2b af a8 be 69 3c a5 be 4f c6 9f be
       0.27839914 -0.32946143 -0.32272652 -0.31205985
000070 93 56 99 3e 9d c9 a3 be f9 5e 8d 3e cd cb 9c 3e
       0.29948863 -0.31989756 0.2761152 0.30624238
000080 68 1f 9d 3e c4 2b aa 3e 7e e2 9c be 28 3a 98 be
       0.30688024 0.33236516 -0.3064155 -0.2973187
000090 9f 24 b3 be ff 20 8f 3e 9a 13 91 3e ab dd 9e be
       -0.34988877 0.27954862 0.28335267 -0.31028494
0000a0 0f dc a0 3e b6 99 99 3e 89 3f 94 3e 5b f6 94 3e
       0.3141789 0.30000085 0.28954723 0.29094204
0000b0 83 9a aa be 02 27 92 3e a6 f5 8e 3e d0 41 99 3e
       -0.33321008 0.28545386 0.2792179 0.29933023
0000c0 31 af 92 3e e5 d5 90 3e 1a d2 a5 3e fe f3 90 3e
       0.28649285 0.2828819 0.32386857 0.2831115
0000d0 9d 7b 8e 3e 24 e6 92 3e 06 d5 8c 3e b0 c7 9b be
       0.27828684 0.28691208 0.27506274 -0.30425787
0000e0 5e 3a 9b be f5 a0 91 3e 70 df 9c be a9 85 97 be
       -0.30317968 0.28443113 -0.3063922 -0.29594162
0000f0 83 9f 95 3e db a2 90 3e f2 9b 8c 3e cb 99 a5 3e
       0.2922326 0.2824925 0.27462727 0.32343897
000100 29 80 96 3e 4d ba a2 be b3 9f 95 3e 9a d1 9f 3e
       0.29394653 -0.3178276 0.29223403 0.312146
000110 58 fa 99 be 56 f3 a3 be b3 9d 8e 3e e5 af 9f 3e
       -0.3007381 -0.32021588 0.2785469 0.31188884
000120 e4 77 95 3e 02 c1 a1 be de 1e a0 be 10 6d a7 be
       0.29193032 -0.31592566 -0.3127355 -0.32700396
000130 94 b1 94 3e 05 46 96 3e dc 18 93 3e 47 28 a9 be
       0.2904173 0.29350296 0.28729904 -0.33038542
000140 c9 92 9d be 72 06 93 3e 3e 49 a4 be a9 19 97 3e
       -0.3077605 0.28715855 -0.3208713 0.29511765
000150 a6 6d b4 be 6c 8e 92 3e 60 5b 90 3e 98 4f 9e be
       -0.35239905 0.28624284 0.28194714 -0.309201
000160 d1 19 8d 3e e1 4c 9d be 1e c9 9d be e0 46 a5 be
       0.2755876 -0.30722716 -0.30817503 -0.32280636
000170 05 06 ac be b9 32 a3 be 22 21 9c be bb ee 9c be
       -0.33598343 -0.31874636 -0.30494028 -0.30650887
000180 89 d5 99 3e 76 f6 98 be be be 9d 3e 31 7a b8 be
       0.30045727 -0.29875535 0.30809587 -0.36030725
