results/Smoothed_MINE_dim6_reg1_alpha0.0.pt (torch, 230381 bytes, 13 tensors)

fc.0.weight f4 [100, 12]
0	0x3cf13c25	0.029447624
1	0xba9d13e4	-0.0011984077
2	0x3babdb27	0.005244631
3	0xbd002b36	-0.03129121
4	0x3d5e93f1	0.054340307
5	0x3d612c2f	0.054973777
6	0xbd0e9e3e	-0.03481888
7	0xbc82621a	-0.01591592
8	0xbc086b58	-0.008326374
9	0x3c302cc2	0.010752859
10	0xbcad26a5	-0.021136591
11	0xba49625f	-0.00076822
12	0x3d301cee	0.04299634
13	0xbc61e175	-0.013786663
14	0x3c0f51dd	0.008747545
15	0x3c8dc3d1	0.017305287
16	0x3c809484	0.015695818
17	0x3c0fa45c	0.008767214
18	0x3d3dc32b	0.046328705
19	0xbcbc2636	-0.02296744
20	0x3c9e0c0a	0.01929285
21	0xbc4976fa	-0.012296433
22	0x3d1f2b07	0.038859393
23	0xbbe5f7e3	-0.007018076
24	0x3abda565	0.0014468847
25	0x3cca9699	0.024730014
26	0x3ccbd0d4	0.02487985
27	0x3d8f30d6	0.069917366
28	0xbc122d45	-0.008921926
29	0x3cb82237	0.022477252
30	0x3a2e6cb9	0.0006653774
31	0x3d0fb0af	0.035080608
32	0x3c511b54	0.012762863
33	0x3d34af10	0.044112265
34	0xbb4e1f01	-0.0031451585
35	0x3d0db6c6	0.034598134
36	0x3cce9092	0.02521542
37	0xbd3cc598	-0.046086878
38	0xb904a302	-0.00012649226
39	0x3cc8b879	0.024502026
40	0xbd1983cb	-0.037479203
41	0xbc7bd129	-0.015369692
42	0xbcb6d7ac	-0.022319637
43	0x3c815989	0.015789764
44	0x3c8163bc	0.015794627
45	0xbce8ad7c	-0.028403036
46	0x3d637ed9	0.055540893
47	0x3c6d7247	0.014492578
48	0xbb6e6bf6	-0.0036380268
49	0x3c70d2f2	0.014698731
50	0x3bd49d2f	0.0064884643
51	0xbd160d12	-0.03663356
52	0x3cd7f5dc	0.026362352
53	0xbd3debfd	-0.046367634
54	0xbae442dc	-0.0017414945
55	0x3c832be9	0.016012149
56	0x3ca9f1ac	0.020745121
57	0xbd6be18a	-0.057588138
58	0x3baf9c09	0.005359177
59	0xbd2ea231	-0.042635147
60	0x3ce126ba	0.027484287
61	0xba7b2c03	-0.00095814484
62	0xbccc7a46	-0.024960648
63	0x3b13198c	0.0022445647
64	0xbb3e5536	-0.002904249
65	0xbd0469bd	-0.032327402
66	0x3ca87a10	0.020566016
67	0xbb1c1c4d	-0.002382058
68	0xbcba6a47	-0.022755755
69	0x3c46d658	0.0121360645
70	0xbcde2e2d	-0.027121628
71	0xbd2c29e4	-0.042032138
72	0xbb9f410f	-0.0048600505
73	0x3c0c7d1c	0.00857475
74	0xbcc9b26a	-0.024621207
75	0xbc4a9548	-0.012364693
76	0xbd1c1ca0	-0.038113236
77	0x3d5cfacb	0.053950112
78	0xbccd588a	-0.025066633
79	0x3c2356ee	0.009969456
80	0xbd2d13a9	-0.042255078
81	0xbc8cff26	-0.017211508
82	0xbcc21cef	-0.023695437
83	0x3d4d91ca	0.050187863
84	0x3c61fad8	0.013792716
85	0xbc391c14	-0.011298198
86	0xbc857eb2	-0.016295765
87	0xbc2f036c	-0.010681968
88	0xbd055840	-0.032554865
89	0x3d9607c5	0.07325701
90	0x3a546831	0.0008102684
91	0xbcac7241	-0.021050574
92	0xbcb0b904	-0.021572597
93	0xbc8500bd	-0.016235704
94	0xbd11988a	-0.035545863
95	0x3d934043	0.07189991
96	0x3cc6c9e9	0.0242662
97	0xbc87ad78	-0.016562209
98	0x3c64cc0b	0.013964663
99	0xbbc17fb5	-0.0059051164
100	0xbd2efcf0	-0.04272169
101	0x3c481811	0.012212769
102	0x3cda0576	0.026613932
103	0xbc150afa	-0.009096855
104	0x3c027296	0.00796189
105	0xbcfa3c6c	-0.03054639
106	0xbd6cb550	-0.0577901
107	0xbc9d7a0f	-0.019223241
108	0xbcb7c6cb	-0.022433659
109	0x3cfe7950	0.031063706
110	0x3daff0ae	0.08590828
111	0xbd113916	-0.035454832
112	0x3c002d3c	0.007823285
113	0x3d1d4aea	0.03840152
114	0x3cb2f391	0.021844657
115	0xbc601d1f	-0.013678818
116	0xbda97edf	-0.08276152
117	0x3d01b592	0.0316673
118	0xbca72b4a	-0.020406384
119	0xbd23b8bd	-0.039971102
120	0xbb9acdc1	-0.004724235
121	0x3b9ad9ec	0.0047256853
122	0xbcc63064	-0.024192996
123	0x3b4adb85	0.0030953598
124	0x3d9a625a	0.0753829
125	0x3c969f3e	0.01838648
126	0x3a5a1e73	0.00083205773
127	0xbc3003a6	-0.010743057
128	0x39bc0475	0.00035861475
129	0xb9463a65	-0.00018904505
130	0xbce4ee56	-0.027945679
131	0x3c4f7877	0.012662998
132	0xbd283a4d	-0.041071225
133	0xbb504856	-0.0031781397
134	0xbc4ac28c	-0.012375485
135	0xbafd7685	-0.001933769
136	0x3d0e266a	0.034704603
137	0xbcd741f1	-0.02627656
138	0xbcf5dd19	-0.030012654
139	0x3c232259	0.00995692
140	0xbcdfac49	-0.027303832
141	0xba63d9f6	-0.00086918415
142	0x3c80b3d3	0.015710747
143	0xbd102725	-0.03519358
144	0xbc8cba9c	-0.017178826
145	0x3d51d3fb	0.05122755
146	0xbc087f31	-0.008331106
147	0x3c79cd73	0.015246737
148	0xbcbae5a1	-0.022814574
149	0xbd72fb46	-0.059321664
150	0x3c998b0d	0.018743062
151	0xbd2e6a11	-0.04258162
152	0x3c6fe2c5	0.014641468
153	0xbc2f3b8c	-0.010695349
154	0x3cf33951	0.029690417
155	0x3d6dbea4	0.058043137
156	0x3cc972b5	0.02459083
157	0x3c49a803	0.0123081235
158	0x3c7c9d1a	0.015418315
159	0xbbafb0f5	-0.005361671
160	0xbc4d4170	-0.012527809
161	0xbbd2a2d3	-0.0064281016
162	0x3c51f708	0.0128152445
163	0x3d419814	0.047264174
164	0x3c5ec9c8	0.013597913
165	0x3b871a3e	0.0041230014
166	0xbd203727	-0.039115097
167	0x3c04348e	0.008069171
168	0xbbad9757	-0.005297582
169	0xbd477d49	-0.048703466
170	0x3ced4ae7	0.02896638
171	0xbcfa78c3	-0.030575162
172	0xbbd3bf1b	-0.0064619905
173	0xbd35fe13	-0.044431757
174	0x3bcef410	0.0063157156
175	0xbd3b8658	-0.045782417
176	0x3ce53a51	0.027981909
177	0xbd369507	-0.044575717
178	0xbbcbd4ee	-0.0062204516
179	0xbce298fd	-0.027660841
180	0x3c870526	0.016481947
181	0xbc400f64	-0.011722419
182	0xbd6bd5b6	-0.057576858
183	0x3d91b8ce	0.07115327
184	0xbc8ee21a	-0.017441798
185	0x3d3344ac	0.043766662
186	0xbc79ed92	-0.015254395
187	0x3ca3a0f8	0.019974217
188	0x3d79c601	0.060979847
189	0xbda673af	-0.08127534
190	0x3c501aea	0.012701729
191	0xbd894cdc	-0.06704113
192	0x3d6da8cf	0.058022317
193	0xbd4b5c94	-0.049648836
194	0x3d543ef7	0.05181786
195	0x3da1cd82	0.07900526
196	0x3c828da2	0.015936676
197	0xbcba97df	-0.022777496
198	0x3d398fdc	0.04530321
199	0xbd2666d8	-0.040625423
200	0x3d0c2cb8	0.034222335
201	0x3d5c9190	0.053849757
202	0x3ba651f6	0.0050756885
203	0xbcb859f3	-0.022503829
204	0x3d4a7f02	0.04943753
205	0x3d25d345	0.040484685
206	0x3ced2741	0.028949382
207	0x3b13741e	0.002249963
208	0xbc857a4e	-0.016293671
209	0xbd805c2e	-0.06267582
210	0xbd65676f	-0.056006845
211	0xbd417ccb	-0.047238152
212	0xbcc262ad	-0.023728693
213	0x3c4d3bb0	0.012526438
214	0x3c305d53	0.010764438
215	0x3d74cc99	0.059765432
216	0x3c7be888	0.015375264
217	0x3d3086f0	0.043097436
218	0x3ac25229	0.0014825511
219	0x3bdc91b7	0.0067312378
220	0x3d0b90a3	0.034073483
221	0x3bc20c7a	0.0059218975
222	0xbca5c5f7	-0.020235999
223	0xbd3669d2	-0.044534512
224	0x3b7f179d	0.0038923987
225	0xbbdbc72f	-0.006707094
226	0xbd1e1af4	-0.038599923
227	0xbc0e90ad	-0.008701486
228	0xbd0e1c88	-0.03469518
229	0xbd240f56	-0.040053688
230	0x3c9a9ba1	0.018873038
231	0xbcda9020	-0.026680052
232	0xbd1831f4	-0.037157014
233	0xbd2a4ed3	-0.04157908
234	0xbc0b009a	-0.00848403
235	0xbd41d009	-0.04731754
236	0x3bdc565d	0.0067241625
237	0xbce69e50	-0.028151661
238	0xbd0cd79e	-0.034385316
239	0xbd2974fe	-0.041371338
240	0x3ada1d47	0.0016640805
241	0x3d323302	0.043505676
242	0x3c91c401	0.017793657
243	0x39dde0b7	0.0004231983
244	0xbcb84dfa	-0.02249812
245	0x3d278e83	0.040907394
246	0xbc60df1b	-0.0137250675
247	0xbd3476d3	-0.044058632
248	0xbcf07018	-0.029350325
249	0x39bd9de7	0.00036166536
250	0x3cb78b13	0.022405183
251	0xbc805c85	-0.015669117
252	0x3c619d08	0.013770349
253	0x3c98eb63	0.018666929
254	0xbc36e319	-0.011162543
255	0xbb73dabd	-0.0037209236

fc.0.bias f4 [100]
0	0x3beb62eb	0.007183423
1	0xbba3a4b8	-0.0049940012
2	0xbc288535	-0.010285665
3	0x3cb72d28	0.0223604
4	0xbbc0bbd5	-0.0058817663
5	0xbb859f38	-0.0040778182
6	0xbc11fead	-0.008910817
7	0xbc121833	-0.008916902
8	0xbcf75b6e	-0.030194964
9	0xbbda704e	-0.00666622
10	0x3c87f099	0.016594218
11	0xbadff3ae	-0.0017086172
12	0xb92105a0	-0.00015356252
13	0xbb426955	-0.0029664834
14	0xbc740366	-0.014893388
15	0xbbe23376	-0.0069031073
16	0xbc8f6537	-0.017504318
17	0xbb83faf5	-0.004027719
18	0x3b94752a	0.0045305686
19	0xbc781a73	-0.015143025
20	0xbbf9298e	-0.0076038307
21	0x3c55d46c	0.013051134
22	0xbac3302d	-0.0014891677
23	0xbbf2b694	-0.007407019
24	0xbaecc7ad	-0.0018064879
25	0xbd0b08ce	-0.033943944
26	0xbb4cef5e	-0.0031270604
27	0xbb870961	-0.004120991
28	0x3c95a118	0.018265292
29	0xbc34f9a0	-0.011045843
30	0x3b9659c5	0.004588338
31	0xbb643f30	-0.0034827702
32	0xbbd0be5e	-0.00637035
33	0xbb8f4251	-0.004371919
34	0xbbf84e7d	-0.007577716
35	0x3a8d1921	0.0010764935
36	0x3aeee629	0.0018226552
37	0xbbfc208a	-0.0076943086
38	0xbc558ba4	-0.013033781
39	0xbb9e9f48	-0.004840765
40	0xbc0fea25	-0.008783852
41	0x3b987d36	0.004653598
42	0xbc3975ed	-0.01131962
43	0xbbd6bc16	-0.0065531833
44	0xbc296969	-0.010340073
45	0xbaf3d4e8	-0.001860288
46	0xbbad3065	-0.00528531
47	0x39feb114	0.0004857859
48	0xba5f64a9	-0.00085217744
49	0xbaacc9fb	-0.0013182753
50	0xbc146124	-0.009056363
51	0x3aecedf4	0.0018076287
52	0xbb98c1ae	-0.0046617603
53	0xbb9b75dc	-0.0047442745
54	0xbc023eee	-0.007949574
55	0x3c9c7350	0.019097954
56	0xbb6c7e61	-0.003608607
57	0xbc1d06fe	-0.009584187
58	0xbad175b2	-0.001598051
59	0xbc63a7c0	-0.013894975
60	0xbc2d7255	-0.010586341
61	0x3bf80f23	0.007570164
62	0xbc49736c	-0.012295585
63	0xbbba3567	-0.0056826356
64	0xbbc39593	-0.0059687584
65	0xbada2cde	-0.0016645452
66	0xbae072d4	-0.0017124065
67	0xbb664fd6	-0.00351428
68	0xbbc477b0	-0.005995713
69	0xbb83b2b3	-0.0040191053
70	0xbb251bcd	-0.0025193573
71	0xbc8b2512	-0.01698545
72	0xbc84f6d7	-0.016230984
73	0xbc5d7ef4	-0.0135190375
74	0x3b08ab0e	0.002085391
75	0xbbd661c4	-0.0065424163
76	0xbc4bc2ee	-0.012436612
77	0xbba285e6	-0.0049598096
78	0xbb7fdf58	-0.0039043035
79	0xbc27f8df	-0.010252207
80	0xbc05d6d4	-0.008168895
81	0xbb4cfd83	-0.0031279034
82	0x3a7f739c	0.0009744705
83	0x3c82cbb4	0.015966274
84	0xbc805e83	-0.015670067
85	0xbcf83ed7	-0.030303402
86	0xbc4758b2	-0.012167143
87	0xbbc53f07	-0.0060194763
88	0x3c00ec62	0.007868858
89	0xbb9cb7a3	-0.0047826334
90	0xb9ef7099	-0.00045669524
91	0x3a7958eb	0.0009511846
92	0xbb9e375a	-0.0048283758
93	0xbc47ccbc	-0.012194809
94	0xbbe1a0d7	-0.0068856287
95	0xbc9df28a	-0.01928069
96	0xbbcc28aa	-0.0062304335
97	0xbc26c845	-0.010179584
98	0xbb9195eb	-0.0044429204
99	0xbb4e4d78	-0.003147928

fc.1.weight f4 [100, 100]
0	0xba159ca8	-0.00057072425
1	0x3b9f72d1	0.004865982
2	0xbbee8486	-0.0072789816
3	0x3c294679	0.010331743
4	0xbc96e6cd	-0.018420601
5	0x3c84c04f	0.016204981
6	0xbd2ef367	-0.042712595
7	0xbd09c415	-0.033634264
8	0xbbb442d0	-0.0055011287
9	0x3d538780	0.051642895
10	0xbcbd31da	-0.02309506
11	0x3bc7f570	0.0061022565
12	0x3d109b44	0.035304323
13	0x3bac2cd1	0.005254366
14	0xbd8ae7ba	-0.067824796
15	0x3d16999d	0.03676759
16	0xbd2d582f	-0.042320427
17	0x3db8155f	0.08988451
18	0xbb9a3614	-0.0047061536
19	0xbd12421c	-0.035707578
20	0x3cee0934	0.029057123
21	0x3cb86b5b	0.022512129
22	0x37b0e664	2.1088119e-05
23	0x3d702136	0.058625422
24	0x3c0b2e8b	0.008494983
25	0xbcdde873	-0.02708838
26	0x3cc11c91	0.023573192
27	0x3cf5f701	0.030025007
28	0x3cccdc3f	0.025007365
29	0xbd0280d4	-0.03186114
30	0x3d2b4935	0.041817863
31	0x3d84fc57	0.064934425
32	0x3dbc472a	0.09193261
33	0x3d2489af	0.040170368
34	0x3d382504	0.044957176
35	0x3c9aff7a	0.018920649
36	0xbcd40f07	-0.025886072
37	0xbce700ab	-0.02819856
38	0x3dbe53cc	0.09293327
39	0xbaa608fe	-0.0012667475
40	0x3d203528	0.039113194
41	0xbcd2c6d1	-0.025729569
42	0xbd33ead4	-0.04392512
43	0xbcb1d68a	-0.021708746
44	0x3de22065	0.11041335
45	0x3d2f6b66	0.042827033
46	0x3d1d52a4	0.03840889
47	0x3cec8497	0.028871818
48	0x3d061dbf	0.03274321
49	0x3a93dba7	0.0011280671
50	0x3c564e3e	0.013080178
51	0x3d506c79	0.050884698
52	0x3ca77d11	0.020445378
53	0x3c82bcf2	0.015959237
54	0x3c5b2f4b	0.013377975
55	0xbae1329b	-0.0017181219
56	0xbc56e157	-0.013115249
57	0x3d04530f	0.032305773
58	0x3c8d67ea	0.017261464
59	0x3d5742e0	0.05255401
60	0x3ddf8c83	0.10915472
61	0x3cb4c82a	0.022068102
62	0x3b9bdaa0	0.0047562867
63	0x3b823d46	0.0039745895
64	0x3d84e7ea	0.064895466
65	0x3ca8ec3b	0.020620456
66	0x3c04b035	0.008098652
67	0x3bce443f	0.0062947567
68	0xbcc4ddf4	-0.024031617
69	0x3bc059b2	0.0058700675
70	0xbcc19191	-0.023628982
71	0xbca944c3	-0.020662671
72	0x3b1e7453	0.0024178221
73	0xba1b05a9	-0.0005913624
74	0xbbfb6fad	-0.007673225
75	0x3db08506	0.08619122
76	0x3da4b664	0.08042601
77	0xbc54d65e	-0.012990562
78	0xbccec466	-0.025240134
79	0x3dc7c5f5	0.09754554
80	0x3e010ffc	0.12603754
81	0x3d73611c	0.059418783
82	0x3d3697d2	0.04457838
83	0x3a718631	0.00092134165
84	0xbcd36095	-0.02580289
85	0xbce682b1	-0.02813849
86	0x3df5df45	0.12005476
87	0x3ddbb6c6	0.10728221
88	0x3c55ebfe	0.013056753
89	0x3d9e132f	0.07718503
90	0x3cb5856e	0.02215835
91	0xbb7e1417	-0.0038769299
92	0x3cef34b5	0.029199937
93	0xbd28cd8c	-0.04121165
94	0x3d9179d9	0.07103319
95	0x3dc56fdb	0.09640475
96	0x3d9668d6	0.073442146
97	0x3cb17ea6	0.021666836
98	0x3b25b724	0.0025286162
99	0xbbc00dd2	-0.0058610225
100	0xbb0fe10f	-0.0021954214
101	0xba8dd3e0	-0.001082059
102	0x3c3c08fe	0.011476753
103	0xbbc5a916	-0.0060321195
104	0x3c995cf1	0.018721076
105	0xbcd34602	-0.025790218
106	0x3cb7459b	0.022372058
107	0x3c9504c1	0.018190743
108	0x3d29e234	0.04147549
109	0xbd2cbf9f	-0.04217493
110	0xbcb664c5	-0.022264848
111	0x3bd4d7e2	0.006495462
112	0xbd096949	-0.033547673
113	0x3c826115	0.015915433
114	0xbb55739a	-0.0032570125
115	0xbda2a795	-0.0794212
116	0x3d146812	0.03623206
117	0xbdb4a679	-0.08820815
118	0xbc911a05	-0.017712602
119	0x3c6f70e8	0.014614321
120	0x3c757a2b	0.01498274
121	0xbca5aec8	-0.020224944
122	0x3c85349f	0.016260443
123	0xbd5dc866	-0.054146193
124	0xba2749b0	-0.0006381525
125	0x3bff7cd0	0.007796861
126	0xbca67057	-0.02031724
127	0xbcd74c04	-0.026281364
128	0xbc713583	-0.014722231
129	0xbb08a84c	-0.0020852266
130	0xbb86d760	-0.00411503
131	0xbcda1c4e	-0.026624825
132	0xbdf8a567	-0.12140923
133	0x3bcf32a9	0.006323178
134	0xbc3bc454	-0.0114603825
135	0x3c690489	0.014222273
136	0xbb4b1c22	-0.003099211
137	0x3cd9590b	0.026531717
138	0xbdd59778	-0.10429281
139	0x3baade61	0.005214498
140	0x3d220f9a	0.03956566
141	0xbca0c9f2	-0.019627545
142	0x3cf8d873	0.030376649
143	0xbbe93c1b	-0.007117761
144	0xbd9f03c6	-0.077643916
145	0xbcc9790a	-0.024593849
146	0xbc7dacc6	-0.015483087
147	0xbd92e144	-0.07171872
148	0x3d1d9aeb	0.03847782
149	0xbce798e6	-0.02827115
150	0xbb70faea	-0.003677065
151	0xbca66e5e	-0.020316299
152	0x3bc72bce	0.00607822
153	0xbb27b750	-0.002559144
154	0xbd09b1c3	-0.033616792
155	0xbd1a58bd	-0.037682284
156	0xbb8f71ab	-0.004377564
157	0xbcbc1ceb	-0.022963008
158	0xbc8f1057	-0.017463846
159	0xbd28f450	-0.04124862
160	0xbca74cc6	-0.02042235
161	0xbcac6646	-0.021044862
162	0x3cccf90b	0.025021097
163	0x3d3da4b5	0.046299655
164	0xbda9cf3e	-0.082914814
165	0x3c6c5b45	0.014426057
166	0xbc80e87d	-0.015735859
167	0x3c9b2a1d	0.01894098
168	0x3c8c513c	0.01712858
169	0xbb1eb22a	-0.002421508
170	0xbd035d92	-0.032071657
171	0x3d034684	0.03204967
172	0x3c4a265d	0.012338248
173	0x3d065755	0.03279813
174	0xbc4f54d4	-0.012654502
175	0xbd5fa145	-0.054597158
176	0xbde16d04	-0.11007121
177	0x3be329f2	0.0069324905
178	0x3c94c49c	0.018160157
179	0xbdca67dc	-0.09883091
180	0xbd7fd246	-0.06245639
181	0xbce8a094	-0.028396882
182	0xbcd3d947	-0.025860442
183	0x3b5c1480	0.0033581555
184	0x3c9e4662	0.01932067
185	0xbca48908	-0.020084873
186	0xbdd6d013	-0.10488906
187	0xbd0a4de3	-0.033765685
188	0xbccb9e7b	-0.024855843
189	0xbd912882	-0.070878044
190	0xbd6b17f0	-0.057395875
191	0x3d5a62ad	0.05331676
192	0xbcf02e33	-0.029318905
193	0x3a39dce9	0.0007090108
194	0xbda89104	-0.082307845
195	0xbd930148	-0.07177979
196	0xbdab3963	-0.08360555
197	0xbdb7e3c4	-0.0897899
198	0x3cc79c50	0.024366528
199	0xbd2e05d4	-0.042486027
200	0xbc5665e5	-0.013085817
201	0xbcac4b7a	-0.021032084
202	0xbc67c890	-0.014146939
203	0xbd0f84ab	-0.03503863
204	0x3ab64410	0.0013905782
205	0x3ad426c7	0.0016185873
206	0x38cb16a2	9.68401e-05
207	0x3be258e9	0.0069075716
208	0x3cc796df	0.024363933
209	0xbd56c942	-0.05243803
210	0x3cbef7fc	0.023311608
211	0xbc5dcea0	-0.013538033
212	0xbc99e1c7	-0.018784417
213	0xbcb8a2d4	-0.02253858
214	0x3d0ab8e1	0.03386772
215	0xbd9bbbcb	-0.07604178
216	0x3ca2c094	0.019867219
217	0xbd60fc5e	-0.054928176
218	0x3c068c3f	0.008212148
219	0x3c18e27d	0.009331343
220	0x3c89ebb7	0.01683603
221	0x3a6394c9	0.00086815335
222	0xbc15a296	-0.009133002
223	0xbc955522	-0.018229071
224	0x3c098606	0.00839377
225	0x3c4e1075	0.012577166
226	0xbb8eecca	-0.0043617235
227	0xbd22cd1e	-0.039746396
228	0xbb5b7b8a	-0.0033490383
229	0x3d07de20	0.03317082
230	0x3c4e6c44	0.012599055
231	0xbd011e11	-0.031522814
232	0xbdc3e104	-0.09564403
233	0xbc2bf827	-0.010496176
234	0xbbc3bd55	-0.005973498
235	0x3cf2fabd	0.029660577
236	0xba26d529	-0.0006364161
237	0x3c5bad35	0.013407995
238	0xbd62b9a4	-0.055352822
239	0x3bb1800a	0.005416875
240	0x3b44dc63	0.0030038587
241	0xbafdfc07	-0.0019377478
242	0x3d3c40ec	0.04596035
243	0xbc28619b	-0.010277177
244	0xbdae41db	-0.08508655
245	0xbcf7df66	-0.030257892
246	0xbc9ac2cd	-0.018891716
247	0xbd95c3b2	-0.073127165
248	0x3d1842a3	0.037172925
249	0xbccb9d69	-0.024855332
250	0xbc667b25	-0.014067446
251	0xbca1adf6	-0.019736271
252	0x3d22c251	0.039736096
253	0xbb49665f	-0.0030731184
254	0xba2d720a	-0.00066164194
255	0x3bb988a6	0.0056620417

fc.1.bias f4 [100]
0	0x3bcbf0e6	0.0062237857
1	0xbbe317ca	-0.006930326
2	0xbba2986b	-0.0049620173
3	0xbbdd5b05	-0.006755235
4	0xbbd4296e	-0.0064746654
5	0x3ab3fcd7	0.0013731968
6	0xbbb54a00	-0.005532503
7	0xbb912ae7	-0.004430163
8	0xbbd8a713	-0.0066117137
9	0x3b7f235e	0.0038930993
10	0xbbaece5b	-0.005334658
11	0x3bb2b2ba	0.005453435
12	0xbbc258b3	-0.005930984
13	0xbbc19aff	-0.0059083696
14	0x3b6b640f	0.0035917794
15	0x3b9792e5	0.0046256655
16	0x3b78d3e3	0.0037968091
17	0x3b229750	0.0024809428
18	0x3b8255e7	0.0039775255
19	0x3bae122e	0.005312226
20	0x3b7da91a	0.0038705529
21	0xbbb83842	-0.005621941
22	0xbbc7c38f	-0.0060963104
23	0xbbafb669	-0.005362321
24	0x3bd6663b	0.0065429485
25	0xbbdadd2d	-0.0066791982
26	0xbbcec7f1	-0.006310456
27	0xbbbf2b10	-0.005833991
28	0xbbb68835	-0.0055704364
29	0xbbbb265f	-0.0057113613
30	0xbbc919b4	-0.0061370973
31	0x3babf652	0.0052478695
32	0xbbd4815c	-0.0064851474
33	0xbbc92455	-0.0061383643
34	0x3b7d49b2	0.0038648662
35	0xbbbbc6d1	-0.005730488
36	0xbba7d75f	-0.00512211
37	0xbbc73c14	-0.00608016
38	0xbbd9a194	-0.006641576
39	0xbbb085c8	-0.0053870417
40	0x3bab07d1	0.0052194376
41	0x3b91e453	0.004452267
42	0x3b6677b4	0.0035166563
43	0x3b7776a9	0.0037759936
44	0xbbcc7115	-0.0062390664
45	0x3bc1b53d	0.005911498
46	0xbbad9d77	-0.0052983123
47	0x3b8294c9	0.0039850217
48	0x3b80b1be	0.0039274385
49	0xbba50a9d	-0.0050366656
50	0xbbbae9b2	-0.005704128
51	0xbbeb2aa2	-0.007176713
52	0x3b71e1f0	0.003690835
53	0x3b7317bc	0.0037093004
54	0xbbaaf406	-0.005217078
55	0xbbc86242	-0.006115229
56	0x3a8d9405	0.001080156
57	0x3bd93cde	0.0066295704
58	0xbbda7b99	-0.006667566
59	0xbbb4ac3f	-0.0055136974
60	0x3b44ad3f	0.003001049
61	0x3afd4784	0.0019323681
62	0xbc005028	-0.007831611
63	0xbbfcf23c	-0.0077193063
64	0xbbce918c	-0.0063039716
65	0x3bc9d22a	0.0061590867
66	0x3b81d1e9	0.003961791
67	0xbb9e3e10	-0.004829176
68	0x3ac2ed23	0.0014871698
69	0xbba96e31	-0.0051706065
70	0x391da47c	0.00015033962
71	0x3b83cef8	0.0040224753
72	0xbb8bd8fc	-0.00426781
73	0x3abe71cd	0.0014529765
74	0x3aa7c5b4	0.0012800009
75	0x3b9d951c	0.004809035
76	0x3ba0287c	0.0048876386
77	0x3a0c3863	0.00053489784
78	0xbbdeb5dd	-0.006796582
79	0xbbaae022	-0.005214707
80	0xbbb44891	-0.0055018147
81	0x3ba01913	0.0048858016
82	0x3b29778b	0.0025858607
83	0x3b237927	0.0024944039
84	0xbbac5c90	-0.0052600577
85	0x3b203704	0.0024446854
86	0xbbc200e2	-0.0059205154
87	0x3b81ce55	0.0039613643
88	0xba0f5baf	-0.0005468679
89	0x3ba14be4	0.004922377
90	0xbbb239d0	-0.0054390207
91	0x3b8596fb	0.004076836
92	0x3b897bc9	0.0041956645
93	0x3b669902	0.0035186415
94	0xbb8e8d60	-0.0043503493
95	0x3b91caea	0.004449238
96	0x3aae9f97	0.0013322708
97	0x3b76eb0f	0.0037676727
98	0x3b9e8088	0.0048370995
99	0x3b4260c3	0.0029659725

fc.2.weight f4 [100, 100]
0	0x3d984bd6	0.074363396
1	0xbccf72fd	-0.025323385
2	0xbcbfe038	-0.023422346
3	0xbc8e2cc4	-0.01735533
4	0xbc31c97c	-0.01085126
5	0x3d2f5c35	0.042812545
6	0xbb76a60a	-0.0037635588
7	0xbd0a19fc	-0.033716187
8	0xbdd7a94b	-0.10530337
9	0x3c960a4f	0.018315462
10	0xbd31cc81	-0.04340792
11	0x3c1d659f	0.009606748
12	0xbd16ad64	-0.036786452
13	0xbd0bc3e5	-0.034122366
14	0x3d4b15f4	0.049581483
15	0x3daa618d	0.083193876
16	0x3c8cf4c4	0.017206557
17	0x3d8be2c9	0.06830365
18	0x3d961e50	0.073300004
19	0x3d6d1334	0.05787964
20	0xbc6cfed1	-0.01446505
21	0xbd5a3fcb	-0.053283494
22	0xbcb3e8ed	-0.021961654
23	0xbda1953d	-0.07889793
24	0x3d37c938	0.04486963
25	0xbd6d7fbf	-0.057983156
26	0xbd8ad1ea	-0.06778319
27	0xbd41c1e9	-0.047304068
28	0xbc8161b2	-0.015793655
29	0xbccab9cc	-0.024746798
30	0xbcadb429	-0.021204071
31	0x3d1c3c12	0.038143225
32	0xbd2c0458	-0.04199633
33	0xbcfc28d4	-0.030781187
34	0x3d0bc848	0.03412655
35	0xbc8b5c7d	-0.017011875
36	0xbcfcae46	-0.030844819
37	0xbd64a7ee	-0.055824213
38	0xbcd499bd	-0.025952214
39	0xbdaa6008	-0.08319098
40	0x3d1e302d	0.038620163
41	0x3dae5feb	0.08514389
42	0x3d71a471	0.058994714
43	0x3d36dd3d	0.044644583
44	0xbdbf48a1	-0.09340025
45	0x3da6935f	0.081335776
46	0xbc2f37bf	-0.010694443
47	0x3dd1835d	0.10230134
48	0x3cb61aa1	0.022229495
49	0xbcdf63ca	-0.027269263
50	0xbcdf2402	-0.02723885
51	0xbc5632d9	-0.013073646
52	0x3ceb05bc	0.028689258
53	0x3d67c651	0.056585614
54	0xbce32893	-0.027729308
55	0xbcdf6fbe	-0.027274963
56	0x3d8b03e0	0.067878485
57	0x3d76c0bd	0.060242403
58	0xbd2c8243	-0.042116415
59	0xbd5e7522	-0.054310925
60	0x3d09ea5d	0.033670772
61	0x3d0d8d9a	0.03455887
62	0x3c7f6ff1	0.015590654
63	0xbc0babea	-0.008524874
64	0xbd72798f	-0.05919796
65	0x3d58771c	0.052847967
66	0x3cc8960f	0.024485616
67	0xbccbbfe1	-0.024871768
68	0x3d67244b	0.056431096
69	0xbcb38615	-0.021914521
70	0x3ddcd671	0.10783089
71	0x3d1a27e6	0.037635706
72	0xbda9ad3f	-0.08284997
73	0x3c53e753	0.01293357
74	0x3b3db47b	0.0028946686
75	0xbbf698ff	-0.007525563
76	0x3d4875c4	0.048940435
77	0x3d62b04a	0.055343904
78	0xbd4bb0fd	-0.049729336
79	0xbd4d2625	-0.050085206
80	0x3c172b63	0.009226653
81	0x3c834fee	0.016029324
82	0x3d64a227	0.055818703
83	0x3cf60171	0.030029984
84	0xbcd6c028	-0.026214674
85	0x3da33b23	0.07970264
86	0xbd4ad54b	-0.04951982
87	0x3d57b6e0	0.052664638
88	0x3d4a33ad	0.049365688
89	0x3d59f407	0.05321124
90	0xbccf910e	-0.025337722
91	0x3d4b36eb	0.04961292
92	0x3d679bc6	0.05654504
93	0x3cc0104c	0.023445271
94	0xbcf7a056	-0.030227821
95	0x3c5f4cc3	0.013629141
96	0xbba6053d	-0.0050665424
97	0x3d44f49b	0.048084836
98	0x3ce6f059	0.028190779
99	0x3cc339c9	0.023831265
100	0xbdb1dfa5	-0.08685235
101	0x3d6e31e2	0.05815304
102	0xbc22fcd6	-0.009947976
103	0x3d62f64c	0.05541067
104	0x3ca57015	0.020195046
105	0xbd997be7	-0.074943356
106	0x3d17938b	0.037005942
107	0x3c87d2b1	0.016579958
108	0x3db4b979	0.088244386
109	0xbcae0913	-0.021244561
110	0x3d1f215a	0.038850166
111	0xbd2dc09c	-0.042420015
112	0x3d6f7edf	0.058470603
113	0x3cc2e4f8	0.023790821
114	0xbdb50815	-0.08839432
115	0xbd8d2d75	-0.06893436
116	0x3c38ebf0	0.011286721
117	0xbd1c736e	-0.03819602
118	0xbd48cbca	-0.049022473
119	0xbd0f92c2	-0.03505207
120	0xbd6519a5	-0.05593266
121	0x3d02372f	0.03179091
122	0x3d1b14d8	0.037861675
123	0x3d95a26d	0.07306371
124	0xbd9a3c61	-0.075310476
125	0xbc58fe78	-0.013244264
126	0x3c9a9e34	0.018874265
127	0x3c9e56d2	0.019328509
128	0xba64ffc5	-0.00087356224
129	0x3d8ab1a0	0.067721605
130	0x3ba88dc4	0.005143853
131	0xbd6d4ff2	-0.05793757
132	0x3cbba1ee	0.022904363
133	0x3bceddea	0.0063130753
134	0xbd29f2c2	-0.041491278
135	0x3cccd322	0.02500302
136	0x3da87b43	0.08226635
137	0x3d2ad8e5	0.041710753
138	0x3af00dc8	0.0018314654
139	0x3d897625	0.067119874
140	0xbdd19835	-0.10234109
141	0xbd40088b	-0.046883147
142	0xbd7788ff	-0.060433384
143	0xbd409a02	-0.047021873
144	0x3d8e80be	0.069581494
145	0xbda02dd4	-0.07821241
146	0x3d07e9af	0.033181842
147	0xbe019488	-0.12654316
148	0xbd072c56	-0.033001266
149	0x3c4fb34a	0.012677023
150	0x3ced0640	0.028933644
151	0x3d4aaf23	0.04948343
152	0xbc098b51	-0.008395032
153	0xbd98fbc0	-0.074698925
154	0x3cbce7d5	0.023059765
155	0x3d02ccf7	0.03193375
156	0xbd9aad62	-0.075526014
157	0xbd7c08f6	-0.061531983
158	0x3d8bf4ff	0.06833839
159	0x3ba776a5	0.005110579
160	0xbd7b0c25	-0.06129088
161	0xbdba9de3	-0.09112146
162	0x3cf00160	0.02929753
163	0x3cfe0260	0.031006992
164	0x3dd1cae9	0.1024378
165	0xbd9f7888	-0.077866614
166	0xbd851499	-0.06498069
167	0x3d550310	0.052004874
168	0xbd5b3151	-0.05351383
169	0x3d3b260a	0.045690574
170	0xbdb6cf13	-0.08926215
171	0xbd92000f	-0.071289174
172	0x3c877c96	0.0165389
173	0xbc4f5c02	-0.012656214
174	0xbd0b33b0	-0.03398484
175	0xbd41add9	-0.047284935
176	0xbd57bc7d	-0.05266999
177	0xbd2bc071	-0.041931573
178	0x3c2669ba	0.010157043
179	0x3c9beabc	0.019032829
180	0x3d1c682f	0.038185295
181	0xbd34e016	-0.044159018
182	0xbd828720	-0.06373429
183	0xbba19624	-0.0049312282
184	0x3d04760a	0.032339133
185	0xbc8f97d9	-0.017528461
186	0x3d3cb3a7	0.046069767
187	0xbd803a1b	-0.06261083
188	0xbd489c2b	-0.04897706
189	0xb91b579e	-0.00014814592
190	0x3da3fea1	0.08007551
191	0xbd564a58	-0.052316993
192	0xbd33520f	-0.04377943
193	0xbd32f62f	-0.04369181
194	0x3c7420ff	0.014900445
195	0xbcdbe2bf	-0.02684152
196	0xbb98b5f7	-0.004660364
197	0xbdb1c3fd	-0.0867996
198	0xbdb31eb8	-0.087460935
199	0xbdb48e43	-0.08816197
200	0xbd83ab7d	-0.06429193
201	0x3d1bbb4f	0.03802043
202	0x3cdc7595	0.026911536
203	0x3d5cdfa0	0.053924203
204	0x3caf5cd5	0.02140657
205	0xbc976bb2	-0.01848397
206	0x3d24df5a	0.040252067
207	0x3d6bdfa1	0.057586316
208	0x3ded416b	0.11584743
209	0x3c885a6b	0.016644677
210	0x3cbbf6b4	0.022944786
211	0xbd433f7b	-0.04766796
212	0x3d080c1b	0.03321467
213	0x3d204b5c	0.03913437
214	0xbd7fd032	-0.06245441
215	0xbd8b6d16	-0.06807916
216	0xbc805d95	-0.015669623
217	0xbc3cc911	-0.011522547
218	0xbc90bf17	-0.017669244
219	0xbd71d44e	-0.05904036
220	0xbd24acac	-0.040203735
221	0x3c991484	0.01868654
222	0x3cdf3685	0.027247677
223	0x3dbb3041	0.09140063
224	0xbd42c460	-0.04755056
225	0x3cb5267b	0.022113075
226	0x3d3c534f	0.045977887
227	0x3d023fda	0.031799175
228	0x3cdf419a	0.027252961
229	0x3d45bc21	0.048275117
230	0x3d2c41e4	0.042055026
231	0xbd68aa96	-0.05680331
232	0x3c05ed92	0.008174317
233	0x3bb97b4d	0.0056604506
234	0xbce7788f	-0.028255729
235	0x3d0811b0	0.033219993
236	0x3c9f7136	0.019463163
237	0x3c3725a5	0.011178409
238	0x3cbb7fba	0.022888053
239	0x3c91de38	0.017806157
240	0xbd545b06	-0.05184462
241	0xbd1a53af	-0.037677463
242	0xbd57dd68	-0.052701384
243	0xbd1e785b	-0.038689
244	0x3d325229	0.043535385
245	0xbe133bfa	-0.14378348
246	0xbc916670	-0.017749041
247	0xbdc25b0f	-0.09490024
248	0xbd74fa43	-0.05980898
249	0x3d0c9032	0.034317203
250	0x3b9257e7	0.004466045
251	0x3d69c3ce	0.0570715
252	0xbc38dcd2	-0.011283116
253	0xbd8cfc8d	-0.06884108
254	0x3d151742	0.036399134
255	0x3d1091b7	0.035295215

fc.2.bias f4 [100]
0	0x3b960f57	0.0045794654
1	0xbb1d7454	-0.0024025636
2	0xbb47703e	-0.0030431892
3	0x3b7b5363	0.0038349263
4	0x3b750d23	0.0037391863
5	0x3b89a598	0.0042006485
6	0x3b8d1192	0.004305073
7	0x3b81d6db	0.0039623803
8	0xbb366806	-0.0027833
9	0x3b77f938	0.0037837755
10	0x3b7b81bd	0.003837689
11	0x3b7f5502	0.003896058
12	0x3b81fa96	0.0039666397
13	0xbb01d2e6	-0.0019809543
14	0x3b82f98e	0.0039970344
15	0x3b810156	0.003936927
16	0xbb20dff7	-0.0024547556
17	0x3b814ecb	0.0039461604
18	0xbb24a998	-0.00251255
19	0xbb174bd6	-0.0023085973
20	0xbb2261ee	-0.002477761
21	0xbb255169	-0.0025225526
22	0xbb09e45a	-0.002104065
23	0x3b7a88f1	0.0038228596
24	0xbb3018a7	-0.0026870163
25	0x3b59b7ef	0.0033221205
26	0xbb0b4c89	-0.0021255335
27	0xbad9ddd5	-0.0016621897
28	0xbb02ba9a	-0.001994765
29	0xbb12fb30	-0.0022427551
30	0x3b77f560	0.0037835464
31	0xbb2f52a4	-0.0026752139
32	0xbaf1ffc8	-0.001846307
33	0x3b7ef4d7	0.003890326
34	0x3b77c737	0.003780795
35	0x3b602a9a	0.003420508
36	0x3b81ab25	0.0039571696
37	0xbb1d1d52	-0.0023973775
38	0xbb161f27	-0.0022906752
39	0x3b8d988c	0.0043211635
40	0x3b6d228a	0.0036183917
41	0xbb177e88	-0.002311619
42	0xbb125773	-0.0022329956
43	0x3b9d5f1b	0.004802597
44	0xbb1c8232	-0.0023881313
45	0xbb1ed9fc	-0.0024238816
46	0x3b8a7bb7	0.0042261737
47	0x3b875005	0.004129412
48	0xbb03e61b	-0.0020126167
49	0x3b630aab	0.003464381
50	0xbb20c033	-0.0024528622
51	0x3b5e2182	0.0033894484
52	0xbb1facfa	-0.0024364577
53	0x3b8fe7ba	0.0043916376
54	0x3b779641	0.0037778767
55	0x3b7154a1	0.0036824124
56	0xbb0cc8e2	-0.002148204
57	0x3b8c4cdc	0.0042816233
58	0x3b60cbd6	0.0034301183
59	0xbb0e09dc	-0.0021673357
60	0x3b54e740	0.0032486469
61	0x3b80b245	0.0039275014
62	0x3b65ee71	0.003508475
63	0xbb185f0f	-0.0023250019
64	0xbb077df3	-0.0020674437
65	0xbb14293a	-0.002260758
66	0x3b756739	0.0037445559
67	0xbb122509	-0.0022299907
68	0xbb1c35f6	-0.0023835874
69	0xbb34fec5	-0.0027617675
70	0xbb202631	-0.0024436826
71	0x3b663266	0.0035125255
72	0x3b7828e3	0.0037866167
73	0x3b880ebb	0.0041521466
74	0xbb1cbec5	-0.0023917418
75	0xbb256d78	-0.002524225
76	0x3b95b359	0.004568499
77	0xbb2281b6	-0.0024796552
78	0x3b7777c8	0.0037760604
79	0xbb398810	-0.002830986
80	0x3b70ac05	0.0036723625
81	0xbb200423	-0.0024416528
82	0x3b6f5cb4	0.0036523761
83	0x3b994d5d	0.004678412
84	0xbb3dbffd	-0.0028953545
85	0x3b811caa	0.0039401846
86	0x3b451a72	0.0030075577
87	0xbb336dc6	-0.0027378662
88	0x3b5452e1	0.0032398032
89	0x3b71443d	0.0036814355
90	0x3b8df306	0.004331949
91	0xbb21ee1a	-0.002470857
92	0x3b7d1307	0.0038616078
93	0x3b725670	0.003697779
94	0xbb12b3f1	-0.0022385085
95	0x3b7caa75	0.0038553749
96	0x3b82b8ff	0.0039893384
97	0xbb097d39	-0.002097918
98	0xbb0c6674	-0.0021423372
99	0xbb041e3b	-0.002015962

fc.3.weight f4 [100, 100]
0	0xbce3f585	-0.027827034
1	0x3d808ccd	0.062768556
2	0x3d2e0ce4	0.042492762
3	0xbd42e6e9	-0.047583494
4	0xbd15c099	-0.03656063
5	0xbcb36296	-0.021897595
6	0xbd5cd94e	-0.053918175
7	0xbcf0b9f7	-0.02938555
8	0x3d6cc27f	0.057802673
9	0xbd0d0ab7	-0.034434047
10	0xbda5409b	-0.08068963
11	0xbd6e305c	-0.058151588
12	0xbcce8b08	-0.02521278
13	0x3d0799e8	0.03310576
14	0xbd7caab5	-0.061686236
15	0xbd6d1223	-0.057878625
16	0x3d80bf84	0.06286529
17	0xbd6b6d5c	-0.05747734
18	0x3d54ee3d	0.051985014
19	0x3d1ace94	0.037794665
20	0x3d1f36c0	0.038870573
21	0x3d557387	0.05211213
22	0x3d4835e7	0.04887953
23	0xbd84742e	-0.06467472
24	0x3d8a05f6	0.06739418
25	0xbd4e3839	-0.050346587
26	0x3cdf43c7	0.027253998
27	0x3d65fc1e	0.05614864
28	0x3d564d0f	0.052319583
29	0x3d75925b	0.05995403
30	0xbd771155	-0.060319263
31	0x3ce1df76	0.027572375
32	0x3d06fe33	0.032957267
33	0xbd347e8a	-0.04406599
34	0xbdb89e36	-0.09014551
35	0xbc943ce5	-0.018095443
36	0xbcbbff83	-0.022948986
37	0x3d5a3406	0.05327227
38	0x3d992a49	0.074787684
39	0xbcb0491e	-0.02151924
40	0xbcf014d8	-0.029306814
41	0x3d0e2e78	0.034712285
42	0x3d590846	0.052986406
43	0xbd881279	-0.066441484
44	0x3d843a61	0.064564474
45	0x3d9da986	0.0769835
46	0xbd8baa43	-0.06819584
47	0xbd512bf6	-0.051067315
48	0x3d7a173d	0.061057318
49	0xbdb3b591	-0.087748654
50	0x3d19be11	0.037534777
51	0xbd23e1ad	-0.040010143
52	0x3d24dd6b	0.040250223
53	0xbcc6a3a0	-0.024247944
54	0xbd4579bb	-0.048211794
55	0xbd2c4862	-0.042061217
56	0x3cca2867	0.024677468
57	0xbd107d8e	-0.03527599
58	0xbd86aa9e	-0.065755114
59	0x3d930d39	0.071802564
60	0xbd666ab2	-0.056254096
61	0x3a418e7f	0.00073835993
62	0xbb6fd071	-0.0036592747
63	0x3d8477d9	0.064681716
64	0x3d7d98d9	0.061913345
65	0x3cc9ed30	0.024649233
66	0xbd83d5e1	-0.064372785
67	0x3d644cb4	0.055737212
68	0x3d283a48	0.041071206
69	0x3d4cf6c5	0.050040025
70	0x3d2c04ad	0.041996647
71	0xbce696fc	-0.028148167
72	0xbd3fbcd2	-0.046810932
73	0xbdaee0ca	-0.08538969
74	0x3d118773	0.035529565
75	0x3d527233	0.05137844
76	0xbd5e4c09	-0.05427173
77	0x3d8d24ae	0.06891762
78	0xbcaaef27	-0.02086599
79	0x3d0090fc	0.031388268
80	0xbd012e05	-0.03153803
81	0x3d1d67e4	0.038429156
82	0xbd4a136f	-0.04933494
83	0xbd803ab1	-0.062611945
84	0x3d400ed0	0.046889126
85	0xbd64b8ee	-0.055840425
86	0xbd87c6b3	-0.06629696
87	0x3b60125c	0.003419063
88	0xbd12d92c	-0.035851642
89	0xbd4ca057	-0.0499576
90	0xbca171f7	-0.019707663
91	0x3cf60d67	0.030035688
92	0xbd77334b	-0.06035165
93	0xbd26f998	-0.040765375
94	0x3cd6d13a	0.026222814
95	0xbd325ef1	-0.043547574
96	0xbd2589d7	-0.040414657
97	0x3d897079	0.067109056
98	0x3d487aa5	0.048945088
99	0x3d124a3d	0.03571533
100	0xbd6d526e	-0.05793994
101	0x3d78a2ab	0.060702007
102	0x3c4c581e	0.012472181
103	0xbcb75250	-0.022378117
104	0xbd7182d9	-0.058962677
105	0xbc45e758	-0.012079082
106	0xbda7fee9	-0.08202917
107	0xbd0737fa	-0.033012368
108	0x3d4c52e5	0.049883742
109	0xbcef35ac	-0.029200397
110	0xbcf65345	-0.030069003
111	0xbd37b786	-0.044852756
112	0xbd277663	-0.040884387
113	0x3d3c2aca	0.045939244
114	0xbd8cc42e	-0.06873356
115	0xbd89d0c9	-0.06729276
116	0x3d42bb02	0.047541626
117	0xbdbc0f5e	-0.091826186
118	0x3d1e1032	0.038589664
119	0x3d281389	0.041034255
120	0x3ccf96b1	0.02534041
121	0x3d0a2ab4	0.03373213
122	0x3d48b705	0.049002666
123	0xbd3651b7	-0.044511523
124	0x3d8bfc6c	0.06835255
125	0xbd060572	-0.032720037
126	0x3d6d7042	0.057968386
127	0x3d3bc410	0.045841277
128	0x3d2e54f3	0.042561483
129	0x3d51cdae	0.051221542
130	0x3c2b682f	0.010461851
131	0x3d6eb065	0.05827369
132	0x3d3ab5b0	0.045583427
133	0xbd1dc0d4	-0.038513973
134	0xbd9171e3	-0.071018
135	0xbd4094f3	-0.04701705
136	0xbd0dd06e	-0.034622602
137	0x3c99aeed	0.018760169
138	0x3d063073	0.03276105
139	0xbd44a26f	-0.04800647
140	0xbd3a048e	-0.0454145
141	0x3ce8668c	0.02836921
142	0x3d29a629	0.04141823
143	0xbd43f361	-0.047839526
144	0x3d6f5c7f	0.05843782
145	0x3d4c00d0	0.049805462
146	0xbd527090	-0.05137688
147	0xbd4056f3	-0.04695792
148	0x3c4d91a2	0.012546929
149	0xbd4ef37d	-0.050525177
150	0x3d7fb088	0.062424213
151	0xbd84053e	-0.06446312
152	0x3d00b34a	0.031420983
153	0xbd3786af	-0.04480618
154	0xbd44088d	-0.047859717
155	0x3babe414	0.005245695
156	0x3d148f3e	0.03626942
157	0xbd3e5e6d	-0.04647677
158	0xbd2587d4	-0.04041274
159	0x3cf057cc	0.02933874
160	0xbd9294f4	-0.07157317
161	0xbd3fb612	-0.046804495
162	0xbd49fbab	-0.049312275
163	0x3d93044d	0.07178555
164	0x3d7a371e	0.06108772
165	0x3d2b2a74	0.041788533
166	0xbd0f48c1	-0.034981493
167	0x3d2c5bb2	0.042079635
168	0x3cd5bf13	0.026092088
169	0x3d428c50	0.047497094
170	0x3ccf69a2	0.025318924
171	0xbd5dde8c	-0.054167315
172	0xbd2958ef	-0.04134458
173	0xbd9c0446	-0.076180026
174	0x3ce84f97	0.028358264
175	0x3d5bc07a	0.053650357
176	0xbd3471c5	-0.04405381
177	0x3db88295	0.090092815
178	0xbcf3e3ff	-0.029771803
179	0x3c837841	0.016048552
180	0xbd2bb3c3	-0.04191948
181	0x3c98f92a	0.018673498
182	0xbd974b4c	-0.073874086
183	0xbd696088	-0.056976825
184	0x3d86b8e6	0.06578235
185	0xbd612a43	-0.054971945
186	0xbcd94aac	-0.026524864
187	0x3d1f2f10	0.03886324
188	0xbd6ab0ed	-0.057297636
189	0xbd49d854	-0.049278572
190	0xbd74f93d	-0.059808005
191	0x3d85bf22	0.06530596
192	0xbd90ab57	-0.070639305
193	0xbd66f976	-0.05639025
194	0x3d54aab1	0.051920597
195	0xbd9a8520	-0.07544923
196	0xbd4c724a	-0.049913682
197	0x3d5b0f0f	0.053481158
198	0x3d883478	0.066506326
199	0x3d05c5c5	0.03265931
200	0x3d0a1efa	0.033720948
201	0xbd50d8f1	-0.05098814
202	0xbd3e890d	-0.04651742
203	0x3d10b7f1	0.03533167
204	0x3d160ba2	0.036632188
205	0x3d1d1b5e	0.038356178
206	0x3d632b17	0.055461016
207	0x3d3135b8	0.04326412
208	0xbc39d0d1	-0.01134129
209	0x3d8fbf6c	0.07018933
210	0x3c548efb	0.012973542
211	0x3d1cdd56	0.03829702
212	0x3c7d4524	0.015458379
213	0xb9a71334	-0.0003186703
214	0x3d9093a9	0.07059414
215	0x3d366445	0.04452922
216	0xbd8418f7	-0.06450074
217	0x3d18bf6d	0.037291933
218	0xbd178d3f	-0.036999937
219	0xbc5998e3	-0.01328108
220	0xbd26b239	-0.04069731
221	0xbd3db910	-0.046319067
222	0xbd2332cf	-0.039843377
223	0x3d38564f	0.045004185
224	0xbcd009a9	-0.025395231
225	0x3d863143	0.06552365
226	0xbd87f965	-0.06639365
227	0xbd0b7c03	-0.034053814
228	0xbd330fab	-0.043716114
229	0xbd8d3da6	-0.06896524
230	0x3c9d77ba	0.01922213
231	0xbd0ba8bb	-0.03409646
232	0xbd88a35a	-0.06671782
233	0x3d4389d8	0.04773888
234	0x3c82446d	0.015901769
235	0x3d6dd61a	0.05806551
236	0x3d06c2fd	0.0329008
237	0xbd82a29b	-0.06378671
238	0xbd1d580c	-0.038414046
239	0x3d4bc336	0.049746715
240	0x3d9aa24a	0.075504854
241	0xbd2f2e6f	-0.042768892
242	0xbd8b9d8a	-0.068171576
243	0x3c10b2c5	0.0088316845
244	0xbd6b1220	-0.057390332
245	0xbd10f25c	-0.035387382
246	0x3da0227e	0.07819079
247	0x3d4f6f9f	0.05064356
248	0xbcf2fd8f	-0.029661922
249	0x3d8cf2d9	0.06882257
250	0xbd84589f	-0.06462216
251	0x3d5bb68f	0.0536409
252	0xbd6bb154	-0.05754216
253	0x3d40e197	0.04709014
254	0x3d396707	0.04526427
255	0x3ce421b8	0.02784811

fc.3.bias f4 [100]
0	0x3aba7d47	0.0014228009
1	0x3a97c8e2	0.0011580253
2	0x3a46df88	0.00075864093
3	0x3af6d8da	0.0018832937
4	0x3a8ac694	0.0010587745
5	0x3b01be5b	0.0019797299
6	0x3af7c737	0.0018903975
7	0x3aa6613e	0.0012693775
8	0x3ab969c0	0.0014145896
9	0x3acd38e4	0.0015657214
10	0x3b02a039	0.0019931926
11	0x3ab5e07f	0.0013876109
12	0x3a8b04b8	0.0010606265
13	0x3b196197	0.0023404115
14	0x3af5635f	0.0018721631
15	0x3b0263de	0.0019895951
16	0x3a8cb771	0.0010735822
17	0x3ac1a6d4	0.001477445
18	0x3aab14f9	0.0013052515
19	0x3ad8bded	0.0016536094
20	0x3aa0c335	0.0012265207
21	0x3afebcf0	0.001943497
22	0x3a92115a	0.0011144087
23	0x3a84f406	0.0010143525
24	0x3a971218	0.0011525778
25	0x3ae10e32	0.0017170368
26	0x3b0dfc93	0.0021665439
27	0x3b0d38b7	0.0021548697
28	0x39e9acd9	0.00044570005
29	0x3ab0ba03	0.001348317
30	0x3abc6c03	0.0014375452
31	0x3af4392b	0.001863276
32	0x3b0eeac9	0.0021807423
33	0x3ada4f56	0.0016655724
34	0x3ab345cd	0.0013677418
35	0x3afa9341	0.0019117371
36	0x3af11f79	0.001839622
37	0x3b024f78	0.0019883793
38	0x3ac1563e	0.0014750434
39	0x3ab880f1	0.0014076513
40	0x3abc86ca	0.0014383432
41	0x3abc1fd1	0.0014352744
42	0x3ad1f0a8	0.0016017156
43	0x3ae5afdb	0.0017523722
44	0x3a9b3a6e	0.0011842975
45	0x3afef912	0.0019452891
46	0x3ae16e31	0.0017198977
47	0x3b0d7df8	0.0021589976
48	0x3ad90b57	0.0016559166
49	0x3b225522	0.0024769981
50	0x3acbe890	0.001555698
51	0x3abb3ccd	0.0014285088
52	0x3ada276c	0.0016643829
53	0x3ad89b50	0.0016525779
54	0x3aea3b58	0.0017870469
55	0x3b088d04	0.0020836005
56	0x3b268ef1	0.002541479
57	0x3ae9e907	0.0017845937
58	0x3aa29838	0.0012404984
59	0x3ac3d123	0.0014939647
60	0x3ad27c3e	0.0016058756
61	0x3aa6b8ed	0.0012719907
62	0x3aa2ce18	0.001242104
63	0x3ab71985	0.0013969397
64	0x3af544d7	0.0018712532
65	0x3adf9437	0.0017057721
66	0x3a0bd5eb	0.00053343055
67	0x3ab8a475	0.0014087098
68	0x3ae38166	0.0017357289
69	0x3ab8d67a	0.0014102005
70	0x3a96bcfe	0.0011500416
71	0x3a9b3328	0.0011840807
72	0x3a782677	0.0009466181
73	0x3aa934da	0.0012909428
74	0x3af2d24b	0.0018525807
75	0x3b0e199b	0.0021682743
76	0x3b1acb02	0.0023619537
77	0x3ad25cfa	0.0016049438
78	0x3aefc8a9	0.0018294054
79	0x3b06a0bf	0.002054259
80	0x3a7afb8e	0.0009574228
81	0x3abd6d54	0.0014452138
82	0x3a97b564	0.0011574444
83	0x3ac90e15	0.001533928
84	0x3adba862	0.0016758556
85	0x3b0d9808	0.002160551
86	0x3ace12b6	0.0015722129
87	0x3b39dfc2	0.002836213
88	0x3aac6964	0.0013153967
89	0x3acecbbc	0.001577727
90	0x3b09e543	0.0021041192
91	0x3af7b712	0.0018899164
92	0x3aa4cd78	0.0012573441
93	0x3b1640c2	0.0022926782
94	0x3b0219fa	0.001985191
95	0x3ae98395	0.0017815704
96	0x3a3441b8	0.0006876248
97	0x3a4f0ded	0.00078984984
98	0x3aa22519	0.0012370675
99	0x3ab88a39	0.001407928

fc.4.weight f4 [100, 100]
0	0xbd40149d	-0.04689466
1	0xbd4e01fe	-0.05029487
2	0x3d7feda8	0.062482506
3	0x3cdc80bd	0.026916856
4	0xbcc84246	-0.024445664
5	0x3dc2063d	0.09473846
6	0xbd278db4	-0.040906623
7	0xbda0144f	-0.078163736
8	0x3dac2d36	0.08407061
9	0xbd809cf3	-0.06279936
10	0xbd3b159e	-0.045674913
11	0xbd187756	-0.037223183
12	0x3cece959	0.028919863
13	0xbcfdaaa2	-0.030965153
14	0x3d81c35d	0.06336091
15	0xbdd89595	-0.105754055
16	0xbbc48f9c	-0.005998565
17	0xbca01ce3	-0.019545024
18	0xbce685f4	-0.028140046
19	0xbceb4c96	-0.028723042
20	0x3c83070e	0.015994575
21	0x3dbb066f	0.091320865
22	0xbd395f74	-0.045257047
23	0xbd9cdfa8	-0.076598465
24	0x3c55c145	0.013046567
25	0xbd07c2fb	-0.033144932
26	0x3d7161b2	0.05893106
27	0xbd394676	-0.045233212
28	0xbd32a37d	-0.043612946
29	0x3d60efd2	0.05491621
30	0x3d265f5e	0.040618293
31	0x3ccf8e30	0.025336355
32	0x3cc03fad	0.023467863
33	0xbd500a84	-0.05079128
34	0xbd4b11a5	-0.049577374
35	0x3d9b4512	0.075815335
36	0xbd086a5a	-0.03330455
37	0x3d1ddec3	0.03854252
38	0xbd6a67ec	-0.057228014
39	0xbda76c76	-0.08174984
40	0xbd586291	-0.052828375
41	0xbd35bc93	-0.04436929
42	0xbd76a81c	-0.060218915
43	0xbbc2c059	-0.00594334
44	0x3d6aaa89	0.05729154
45	0xbd75cc5c	-0.060009345
46	0x3d3f3f2c	0.046691105
47	0x3cc02aff	0.023458002
48	0x3c9da184	0.019242056
49	0x3c8b6eaf	0.017020551
50	0xbd838ac2	-0.0642295
51	0x3dad6248	0.08466011
52	0x3cb58627	0.022158695
53	0xbd2bed0e	-0.04197412
54	0x3d62e3fd	0.055393208
55	0x3d1a9139	0.03773615
56	0x3d11ce37	0.035597052
57	0x3d4586a2	0.0482241
58	0x3d50b68e	0.050955348
59	0xbd484577	-0.04889437
60	0x3d91bc2a	0.071159676
61	0xbd51df7c	-0.051238522
62	0xbd8efcff	-0.06981849
63	0x3dac780a	0.08421333
64	0xbb835d02	-0.00400889
65	0x3d962a79	0.0733232
66	0xbd4a1790	-0.049338877
67	0x3d2c4d42	0.042065866
68	0x3cfb01c3	0.030640488
69	0xbd3aa7c6	-0.045570157
70	0xbc7fbcd0	-0.015608981
71	0xbd2e60d5	-0.042572815
72	0xbd5f039e	-0.05444681
73	0x3c68549c	0.014180329
74	0xbd7dbf81	-0.06195021
75	0xbc182866	-0.0092869755
76	0xbd6f97ff	-0.058494564
77	0xbd43e0e1	-0.047821883
78	0xbd42a555	-0.047520954
79	0xbc0c8209	-0.008575925
80	0xbca38816	-0.019962352
81	0x3d3c6e49	0.046003614
82	0xbd5791cd	-0.05262928
83	0xbd0d70c5	-0.034531374
84	0xbd6e3ea0	-0.058165193
85	0xbd21aa94	-0.039469317
86	0xbd8c3850	-0.06846678
87	0x3d1cae98	0.038252443
88	0xbd6a09ac	-0.05713813
89	0xbd9b5ddb	-0.07586261
90	0xbd3a9a4e	-0.045557313
91	0xbd528bc5	-0.051402826
92	0xbcda767b	-0.026667824
93	0xbd668771	-0.05628151
94	0x3d806a8c	0.06270322
95	0xbbacf9f1	-0.005278819
96	0xbdcb4e42	-0.09927036
97	0x3d2990f9	0.041398022
98	0x3d2fe51b	0.0429431
99	0x3b761728	0.0037550423
100	0xbcc23f3f	-0.023711799
101	0xbd3f725b	-0.046739917
102	0x3d0beba7	0.034160282
103	0x3d3fe9bb	0.046853762
104	0xbd0f117e	-0.03492879
105	0x3dbab4d2	0.0911652
106	0xbca9a1b4	-0.020706989
107	0xbc9c4a91	-0.019078525
108	0x3d9d96c1	0.0769477
109	0xbd401316	-0.0468932
110	0xbcb23e4e	-0.021758225
111	0xbcb83b7e	-0.022489306
112	0x3d3e503e	0.046463244
113	0xbcbdb2e9	-0.0231566
114	0x3da0990b	0.07841691
115	0xbda0779b	-0.07835313
116	0x3d4b196f	0.049584802
117	0xbcac25f3	-0.02101419
118	0xbd75d654	-0.060018852
119	0xbd13b4c5	-0.036061067
120	0x3d5130dc	0.051071987
121	0x3d98ebec	0.074668735
122	0xbd1b6af1	-0.037943784
123	0xbd03b8db	-0.032158714
124	0x3da7394e	0.08165227
125	0xbc1c7adc	-0.009550776
126	0x3d9658ab	0.07341131
127	0xbceb44a2	-0.02871925
128	0xbcc67329	-0.024224835
129	0x3d6177cc	0.055045888
130	0x3d909dda	0.07061358
131	0x3d123041	0.03569055
132	0xbba2c18b	-0.00496692
133	0xbd17b052	-0.037033387
134	0xbd68f36d	-0.056872774
135	0x3cf5a2f7	0.029984934
136	0xbd7fd499	-0.06245861
137	0x3d99b49d	0.075051524
138	0xbd827279	-0.0636949
139	0xbd966303	-0.07343104
140	0xbd3c9f6a	-0.046050467
141	0xbd8b0f9e	-0.06790088
142	0xbda0591e	-0.07829498
143	0x3d867119	0.065645404
144	0x3c93a756	0.018024128
145	0xbcea4b74	-0.028600432
146	0x3d85f5f9	0.06541056
147	0x3d8e08c1	0.069352634
148	0x3dabc80e	0.08387767
149	0x3d77c6a6	0.06049218
150	0xbd05ffe8	-0.032714754
151	0x3cb8a2c7	0.022538556
152	0x3d786f42	0.06065298
153	0xbd8e2157	-0.06939953
154	0x3d1149d0	0.035470784
155	0x3d93f6af	0.072247855
156	0x3d39c2e2	0.04535187
157	0x3cd68701	0.026187422
158	0x3d857e90	0.065182805
159	0xbd42cc1f	-0.047557946
160	0x3d021181	0.031754974
161	0xbd0934a9	-0.033497486
162	0xbd884f8e	-0.06655799
163	0x3c973903	0.018459802
164	0x3d35331f	0.044238206
165	0x3d83d8db	0.06437846
166	0xbd6623af	-0.056186374
167	0x3d50f188	0.051011592
168	0x3da39e88	0.07989222
169	0xbd8713fc	-0.065956086
170	0xbd808b8b	-0.06276616
171	0xbd4e36b5	-0.05034514
172	0xbd8e8032	-0.06958045
173	0x3d46a8f7	0.04850098
174	0xbda6a130	-0.08136213
175	0xbc64476a	-0.013933042
176	0xbbe99b01	-0.0071290736
177	0xbd746ae9	-0.05967227
178	0xbd4a8e52	-0.049452133
179	0xbbac05cb	-0.005249714
180	0xbcecf382	-0.028924707
181	0x3cd6d3ba	0.026224006
182	0xbccc49c8	-0.024937525
183	0xbccdefa6	-0.025138687
184	0xbd545a46	-0.051843904
185	0xbcbd07b8	-0.02307497
186	0xbd28397f	-0.041070458
187	0x3d5e7523	0.05431093
188	0xbd0ed365	-0.03486957
189	0xbd686488	-0.0567365
190	0xbd064667	-0.032781985
191	0xbd49182c	-0.049095318
192	0xbd12ab6b	-0.03580801
193	0xbcaf6ccd	-0.021414185
194	0x3d348cb3	0.044079494
195	0xbcb78371	-0.022401543
196	0xbd772a7f	-0.06034326
197	0x3dad14d9	0.08451242
198	0x3d2ffa1c	0.042963132
199	0x3d8c5440	0.06852007
200	0x3c4365fc	0.01192617
201	0x3d1a6301	0.037692074
202	0xbbcaf95b	-0.0061942763
203	0xbce4caba	-0.027928699
204	0x3d495d5e	0.049161308
205	0xbc93f734	-0.018062212
206	0x3d40af8c	0.047042415
207	0x3d84ba8e	0.06480895
208	0xbd894d66	-0.06704216
209	0x3d5da07f	0.05410814
210	0x3cc39d0e	0.0238786
211	0x3cbde3a7	0.023179842
212	0xbd5a89b4	-0.05335398
213	0x3c8e1922	0.017345969
214	0xbd556796	-0.05210074
215	0x3cc15297	0.023598952
216	0xbd3d2fcb	-0.046188157
217	0x3d2bd430	0.041950405
218	0x3d1623d3	0.03665526
219	0x3cc73208	0.024315849
220	0xbd456f22	-0.048201688
221	0xbb776256	-0.0037747822
222	0x3d579031	0.052627746
223	0x3d98cbe5	0.07460765
224	0xbd2fbbb7	-0.04290363
225	0x3d083016	0.033248983
226	0xbd39c4bb	-0.045353632
227	0x3d21a57c	0.03946446
228	0x3d4e58d2	0.050377674
229	0xbd1baa77	-0.038004365
230	0xbca08a13	-0.019597089
231	0xbd11bbe0	-0.035579562
232	0xbd852b06	-0.06502347
233	0x3cccadfb	0.024985304
234	0x3d97d079	0.0741281
235	0xbd9083a7	-0.07056361
236	0x3da2910f	0.07937824
237	0xbd3d9df1	-0.046293203
238	0x3bbde71a	0.0057953717
239	0x3cfd36ec	0.030909978
240	0x3cd1b23c	0.025597684
241	0x3c912dd8	0.017722055
242	0x3d62d174	0.05537553
243	0xbd7ec092	-0.062195368
244	0xbd29d640	-0.04146409
245	0x3cd2f298	0.025750443
246	0xbd374175	-0.04474016
247	0xbca1bbdb	-0.019742897
248	0xbc8ac8c9	-0.016941445
249	0xbcd7c3e9	-0.026338534
250	0x3d4cd797	0.05001029
251	0xbc92e034	-0.017929174
252	0xbdab2ddd	-0.08358357
253	0x3c8ba03e	0.017044183
254	0xbd670bed	-0.056407858
255	0xbd3bb1b7	-0.04582378

fc.4.bias f4 [100]
0	0xb99eb1b8	-0.0003026852
1	0x3add2f0c	0.0016874983
2	0x3bd4ecd3	0.006497958
3	0xb919a5cc	-0.00014652981
4	0x3a5fef30	0.00085424166
5	0x39b749e7	0.00034959542
6	0x3be815b8	0.007082667
7	0xbab45407	-0.0013757952
8	0x3bbbc711	0.0057305177
9	0x3977130a	0.00023562848
10	0x3bcccec9	0.0062502366
11	0x38aa328f	8.115649e-05
12	0x3bd596f1	0.0065182378
13	0x3ba5fff3	0.005065912
14	0xba068be3	-0.0005132539
15	0x3bd0583f	0.006358176
16	0xbab40017	-0.0013732937
17	0x3bcc2801	0.006230355
18	0x3bc95ff2	0.006145471
19	0x3bd0d57a	0.0063731046
20	0xb9d3a3e8	-0.00040367176
21	0x3a0f17b4	0.0005458549
22	0xb97a413c	-0.0002386616
23	0x3be90c0b	0.0071120313
24	0xba05e572	-0.00051077374
25	0x3bdd846b	0.00676017
26	0x3c010ffa	0.007877344
27	0x3a914b73	0.0011085108
28	0xba5b08db	-0.00083555066
29	0x3a8bd64b	0.0010668723
30	0x3bcb225d	0.006199165
31	0x3beb9c85	0.0071902894
32	0x3bdb005c	0.0066833925
33	0x3bd043fc	0.0063557606
34	0xb98fc928	-0.00027424959
35	0x39ce93c8	0.00039401487
36	0x3be433c8	0.0069641806
37	0x3935aba7	0.0001732545
38	0x3a5da2ec	0.0008454758
39	0x39ed72d9	0.0004528973
40	0x3c072671	0.008248911
41	0x3bf29111	0.007402547
42	0x3be48c17	0.006974708
43	0x39acf33d	0.00032987623
44	0x3be11a25	0.0068695717
45	0x3a72a3a8	0.0009255954
46	0xba07655f	-0.0005164947
47	0x3acbe80f	0.001555683
48	0x3bde0735	0.0067757615
49	0xba2f49e9	-0.00066867337
50	0x3a550143	0.0008125493
51	0x3bcd4ae0	0.0062650293
52	0xb9d67fc2	-0.00040912448
53	0x3bf4658d	0.007458395
54	0x3bf693ac	0.007524928
55	0xba7954cd	-0.00095112325
56	0x3bad348c	0.005285805
57	0x3a409a05	0.00073471694
58	0x3be5169e	0.0069912216
59	0x3bc14667	0.005898285
60	0xb90c65e9	-0.00013389405
61	0x3a04eec0	0.0005070977
62	0x3be96d88	0.007123653
63	0x3a6ec7e8	0.0009108768
64	0x3c11eb4e	0.008906199
65	0x3bd98390	0.006637998
66	0x3bd77adf	0.0065759267
67	0x3a557603	0.00081428903
68	0x3a37457b	0.00069912494
69	0x3bef9c32	0.007312321
70	0x3bd4d496	0.006495069
71	0x3ab66c77	0.0013917823
72	0x3bfc577c	0.0077008586
73	0x3bd8b93d	0.006613879
74	0xb9bbf6b9	-0.00035851242
75	0x3a74c51a	0.0009337232
76	0x398582bb	0.0002546514
77	0x3be2c866	0.006920862
78	0x3bad4306	0.005287531
79	0x3c114c95	0.008868356
80	0xba33d18a	-0.0006859532
81	0x3bd8af45	0.0066126906
82	0x3bab311c	0.00522436
83	0x3ab48cd1	0.0013774877
84	0x3becc34c	0.0072254296
85	0x3bb24dfb	0.005441425
86	0xbabfa320	-0.0014620759
87	0x3ac0eef5	0.0014719652
88	0xba874ebc	-0.0010323147
89	0x3af012a5	0.0018316103
90	0xb8f96ffd	-0.00011894105
91	0x3950f748	0.00019928545
92	0x3a8601e8	0.0010223957
93	0x3ab6e233	0.0013952911
94	0x3bf9c44c	0.0076222774
95	0x3a882831	0.0010387955
96	0x3bf8f8e3	0.007598029
97	0x3a8a5372	0.0010553433
98	0x3bee6256	0.007274906
99	0x380fc4c6	3.4277116e-05
