results/Smoothed_InfoNCE_dim25_reg1_alpha0.01.pt (torch, 316923 bytes, 13 tensors)

fc.0.weight f4 [100, 50]
00000000: 652d 103d f4bd 04bd 9d50 8fbd 8ba7 ebbc
00000010: 63d9 8d3d 3e4b 8e3d e872 80bd c38f 0fbc
00000020: 6231 45bd e676 4dbc d20d b4bc 864d febc
00000030: 3bf1 bf3d a7ed 003d 6f99 5cbd 00ee 7d3d
00000040: ed36 1a3d 0f5f ac3d 6828 4b3d 8e31 42bd
00000050: 1e1d 8a3d 736f b9bd b0ed 063d 37cc 83bb
00000060: 60cc bf3c 36db e3bc 65b4 d83c 6b46 9f3d
00000070: 8270 ddbb 8521 3ebd 3e0c 4abd 52db 783d
00000080: 9d02 e13b 0ade 2e3d 14c5 16bc 79ef dc3c
00000090: cfab 463d 4ab8 d4bd f671 cebc 0e71 1a3d
000000a0: 5b9e 82bd 4aac ebbc 1e3e 9fbd b5b7 e4bc
000000b0: 4240 473d f093 90bd f6a1 bb3d dfd8 3abd
000000c0: 5a55 903c 84c6 8cbc 857f 7abb e736 b83c
000000d0: 0a03 ebbb 7fed 24bc 7644 79bd 7854 1a3d
000000e0: 4138 963d 4f21 abbd 9a6f c8bd 2183 9ebd
000000f0: f156 5ebc 4b6f ff3b 61e8 0c3d c5db 0bbc
00000100: 93e7 49bd 27ab 1fbd 44be fb3c 4250 063d
00000110: 6c67 b6bc 51a0 b43d 2d17 ddbd df6b c2bd
00000120: b892 093d 4ee4 cdbc 2afd fb3c c316 48bc
00000130: a41a f2bc 92a0 4639 c85b d4bb 813d 2c3d
00000140: d4b8 49bd a6de 65bd f724 873d 9b40 d93d
00000150: 7e39 853d 3217 e03b 9507 6fbb 503b 49bd
00000160: 4265 9e3c ff1d 8f3d a0e4 e43c 29f2 f9bc
00000170: 8230 7ebc ecdf 143d e8f7 abbd d587 ea3d
00000180: 020c db3d 524c 9fbc dbaf 1f3d 5fa8 c1bc
00000190: 2d22 a8bd 8a42 453c 932e 8c3d 7662 43bd
000001a0: 61e3 213d 70be edbc c451 8dbd 80d9 8a3b
000001b0: 3cc7 fa3c 588c 8d3d d218 b03d 0acb c4bd
000001c0: c259 0fbd a0c7 633d 612a f83b 06e5 b93d
000001d0: 4d97 a0bd 197f ed3b 8be3 25bc a36d 7dbb
000001e0: ee0e 56bd 12f2 d4bc ddb8 253b ba6d 363b
000001f0: c527 f83d e28d b83d 9b3c bebc 73f4 8abd
00000200: 65a7 da3c 89bf 2ebd 717d 203c ade4 9c3d
00000210: aa8e 93ba 403c e7bc b02c 85bd 4dc2 6ebd
00000220: 5144 d33d f684 223d 5d29 31bd 0bc6 e43b
00000230: 65c5 8abd 6cd1 753d fcb8 9f3c b424 63bc
00000240: f7fb 813b 94b5 6e3d 1ef4 023d c9b8 3cbc
00000250: a453 483b 2e70 d7bd b50a e5bc 39ef e63c
00000260: 9670 26bd 60f2 06bd 9e6e 603c 41f8 2f3d
00000270: 2d36 3d3c 5546 f8bc 683f f23c 7f2d b6bc
00000280: 0c25 bdbc dc5a b3bc 7a4b 963c f50d ea3d
00000290: fc6d 89bb ecc5 993d 3fb4 aebd d362 6c3d
000002a0: 1b85 f1bc 46f2 dd3b 0bbf c13d e490 44bc
000002b0: caee 2fbd 4115 663c c40a 43bb 8cf1 54bd
000002c0: 4457 c43c ef91 6ebd 1fac 9cbc dc84 323c
000002d0: 9715 233d 269b fe3c cda2 00bd 352c 343d
000002e0: ddbd acbc 047c 1abc 719d 24bc e9b5 203c
000002f0: d3bd c93d c3c7 77bc 3ef4 383d ee27 abbd
00000300: 1415 913d 3b73 dfbc c129 673c 1303 bd3d
00000310: 969d a5ba 7a1f f7bc 9fc1 533c 3d1c 2f3b
00000320: bdd7 fcbc 129f 1f3c eb65 22bd 36a0 b4bd
00000330: 8d61 ac3c ed8c 37bb fe5e 54bc fcf7 873c
00000340: 33e7 88bd 2fa9 12bb 2093 c1bc 4046 9fbd
00000350: 7d26 0bbc 2a1e ea3c d139 02bd fc78 0c3d
00000360: 79b9 2fbc 37d7 273d 08ae 15bb 01a9 febc
00000370: c7a4 893d 6e2a 42bd 6f62 e9bc f150 22bd
00000380: 6a0d 5ebc 478a 0dbd cfc7 ae39 a6d6 dfbc
00000390: 8053 e2bd 5df5 0b3c 8ff3 15ba 3170 0cbc
000003a0: b607 63bc da02 6cbd 41d4 8e3b f402 c8bc
000003b0: 2bb5 76bd 3612 eabb 6d6a 453d fd5b d9bc
000003c0: 128a bc3c 1df8 d639 dfc9 233d b573 b3bb
000003d0: 909b c9bc ef97 9e3d f814 0abd c239 0abd
000003e0: cd9d 10bd dcbf dbbb a67a 893c 1368 e53c
000003f0: a1af 5bbd c109 ac3c 3407 3fbd 1693 08bb
0.03519954 -0.032407716 -0.06997798 -0.028766414 0.06926229 0.06947945 -0.06271917 -0.008762303
-0.0481428 -0.012540555 -0.021979246 -0.031042825 0.09372183 0.031476643 -0.053857263 0.061994553
0.037650038 0.084165685 0.04959908 -0.04741054 0.06743835 -0.090544604 0.03294152 -0.004022147
0.023412883 -0.027814489 0.026453206 0.07777103 -0.0067577967 -0.046418685 -0.04932808 0.060756035
0.0068667666 0.04269222 -0.0092022605 0.026969658 0.048503693 -0.10386713 -0.025200825 0.037705474
-0.0637786 -0.028768677 -0.0777552 -0.02791963 0.048645265 -0.07059467 0.09161751 -0.04561698
0.017618824 -0.017184503 -0.003822298 0.022487117 -0.007171993 -0.010066389 -0.060856305 0.037678212
0.07334948 -0.083559625 -0.09786911 -0.077398546 -0.013570533 0.0077952496 0.0344013 -0.008536284
-0.049293112 -0.038981583 0.030730374 0.032791384 -0.022266112 0.088196404 -0.10795436 -0.09493231
0.033587188 -0.025133278 0.030760366 -0.012212458 -0.029553719 0.00018942569 -0.0064806677 0.042050842
-0.04924853 -0.056120537 0.06598847 0.10608026 0.065051064 0.0068387026 -0.0036473025 -0.04912883
0.019335393 0.06988143 0.027941048 -0.030510979 -0.015514495 0.03634636 -0.08396894 0.11451689
0.1069565 -0.019445572 0.03898607 -0.023639856 -0.082096435 0.01203979 0.06844821 -0.04770132
0.039523486 -0.029021472 -0.06900361 0.004237354 0.03061258 0.06911534 0.08598484 -0.09609039
-0.03499771 0.0556103 0.0075734113 0.09076886 -0.07841358 0.0072478172 -0.010125051 -0.0038670085
-0.05226033 -0.025994334 0.002528719 0.0027836398 0.121169604 0.09011437 -0.023222258 -0.06784906
0.026691148 -0.04266313 0.009795533 0.07660804 -0.0011257727 -0.028226972 -0.06502664 -0.05829077
0.10315765 0.039677583 -0.043252338 0.0069816164 -0.06775931 0.060014173 0.019497387 -0.013863731
0.003966804 0.058278635 0.03197109 -0.011518666 0.0030567432 -0.105194435 -0.027959207 0.028190242
-0.040634714 -0.03294599 0.013698248 0.042961363 0.011548561 -0.030306974 0.02957125 -0.022238491
-0.023088954 -0.021893911 0.018346537 0.11428443 -0.0041940194 0.07508454 -0.08530473 0.057711434
-0.029482415 0.006773266 0.09460267 -0.011997435 -0.042952336 0.014043153 -0.0029761055 -0.05198817
0.023967393 -0.058244642 -0.019125042 0.010895934 0.03981551 0.03107984 -0.03140526 0.04398747
-0.021086628 -0.009428982 -0.010047303 0.009808996 0.09850659 -0.0151233105 0.045154803 -0.08357225
0.070840985 -0.027276626 0.014109076 0.09229102 -0.0012635465 -0.030166376 0.012924581 0.0026719712
-0.03086459 0.009742515 -0.039647978 -0.0881962 0.02104261 -0.0028007582 -0.012962101 0.01659774
-0.06684723 -0.0022378673 -0.023629725 -0.07777071 -0.008493063 0.028578836 -0.03179342 0.034295067
-0.0107253725 0.04097673 -0.0022839326 -0.031086447 0.06720882 -0.047403745 -0.02848932 -0.039627973
-0.013553003 -0.0345557 0.00033336735 -0.027324032 -0.110510826 0.008542386 -0.0005720192 -0.00857167
-0.013856819 -0.057619907 0.0043587987 -0.02441547 -0.06023137 -0.007143284 0.0481972 -0.026533121
0.023015056 0.0004100212 0.03998744 -0.00547644 -0.02461031 0.07743823 -0.033711404 -0.03374649
-0.03530674 -0.006706221 0.016782116 0.028003728 -0.05363429 0.021000745 -0.04663773 -0.0020839623

fc.0.bias f4 [100]
00000000: a04e a8bc d762 b2bc 75b5 b4bc ea1a 15bd
00000010: 1682 27bd 779d bcbc 06b8 19bd 4131 febc
00000020: 8b61 c7bc e24e 113b 399c e5bc a73f 23bd
00000030: fdf7 bbbc 6bc9 29bd 97fd abbc 78ed 17bd
00000040: 2d0c 27bd 0b57 b4bc 6297 01bd b47f 8bbc
00000050: 7508 a53b 8409 30bd c3d5 f6bc 8485 31bd
00000060: f273 2cbd 405a 14bd 4de0 d7bc b761 b8bc
00000070: 0dad a8bc f62a b1bc ee7e 31bd c803 a7bc
00000080: e075 a1bc 9267 dabc 82e9 8abc d3a6 23bd
00000090: 5ef0 bcbc b2a2 19bd 79f7 23bd 9d45 97bc
000000a0: e541 e8bc d895 2cbd 45f9 45bc 5dd0 9ebc
000000b0: 556d bcbc 9d7c d4bc e774 18bd 41d7 c8bc
000000c0: 72d5 0bbd 6f4b 563c ec77 b5bc 9a65 27bd
000000d0: 2e06 93bc 9735 9abc 99a8 12bd ceeb 4cbc
000000e0: c18f 2cbd 605c 3cbc ec5a c8bc 1a5a b9bc
000000f0: 4dec 8dbc d647 d0bc d24d 1ebd bdda 9abc
00000100: e06d b4bc e088 86bc 70d9 33bd c70c 15bd
00000110: 9e2c d6bc c9f4 cfbc 00c7 24bc b288 94bc
00000120: fa26 b2bc 7b49 c6bc 5de0 10bd e76a c4bc
00000130: 1063 18bd ed3f cabc c106 36bd 5779 c8bc
00000140: ee86 27bd b237 8fbc 0631 35bd 4e1f 92bc
00000150: 3607 f5bc 4009 b7bc 70b5 abbc 07ed 3bbd
00000160: 9b52 24bd 2f2f 88bc bd48 e0bc ea1c c8bc
00000170: fb22 9dbc d5c6 16bd 60b1 44bd d6e8 17bd
00000180: b9ff 14bd 77e1 9bbc 3bd6 8abc bf82 27bd
-0.020545304 -0.021775646 -0.022059182 -0.03640262 -0.040895544 -0.023024304 -0.037529014 -0.031029345
-0.024338504 0.0022172262 -0.028028594 -0.039855625 -0.022945398 -0.041451853 -0.020994944 -0.037091702
-0.040783096 -0.022014162 -0.03163851 -0.017028667 0.0050364085 -0.042977825 -0.030131226 -0.04334022
-0.04210276 -0.03621888 -0.026352072 -0.022507532 -0.02059033 -0.02162693 -0.04333394 -0.020387545
-0.019709527 -0.026660714 -0.016957048 -0.039954018 -0.023063835 -0.037508674 -0.04003093 -0.018465811
-0.028351733 -0.04213509 -0.012083356 -0.019386465 -0.023001352 -0.025938326 -0.03722086 -0.024516704
-0.034139104 0.013079508 -0.02215191 -0.04086838 -0.017947283 -0.018824382 -0.03580532 -0.012507392
-0.042129282 -0.011496633 -0.024457417 -0.022625972 -0.017324591 -0.025424879 -0.038648434 -0.01890313
-0.022025049 -0.016422689 -0.043908536 -0.03638914 -0.026144322 -0.025385277 -0.010057211 -0.018131588
-0.021747101 -0.02420496 -0.03537022 -0.023976756 -0.03720385 -0.024688685 -0.044440035 -0.024471922
-0.040900163 -0.017482612 -0.044236206 -0.017837193 -0.029910665 -0.022343278 -0.02096054 -0.045880344
-0.04011784 -0.016624061 -0.027378434 -0.02442785 -0.019181719 -0.036810715 -0.04802072 -0.037087284
-0.03637669 -0.019028408 -0.016947856 -0.040896174

fc.1.weight f4 [100, 100]
00000000: 8855 bc3b 19af dd3d 73be c43d a918 aabc
00000010: 0052 f2bb 2c10 983d 027d d4bc 3701 debc
00000020: fdd6 793d 4437 29bc 6593 50bc 23fe 22bb
00000030: 2558 213d 7d78 9e3b 5fc7 b2bd e040 bbbc
00000040: f254 f8bc a2f3 ce3d 1bdc abbc 68cc bdbc
00000050: aa00 11bd d991 c93c 040d e13d 5ac5 5cbb
00000060: 9259 403c 360b 92b9 ba23 b23d 09ca ca3d
00000070: 60d6 173d d043 13bd 53f9 973c 50bd 383d
00000080: 62c8 3e3d 8389 a33d e22b c83d f98d 203b
00000090: 1095 e53c 01ab 38bb 4529 823b 502b 4ebb
000000a0: 821e 1a3e 1434 6ebc 6510 c2bc f4c7 c23b
000000b0: b2f5 ad3d fc82 693d 95ae 8dbc 0758 ba3d
000000c0: eea6 873c ad66 72bd 571a 983d 31b9 9d38
000000d0: 738f 353e 5f70 013e 33fc ac3a 7451 3fbd
000000e0: 5804 b5bc 7ff9 6fbc 940c 0fbc a717 ae3d
000000f0: f94b bc3d 26e6 9e3d 9130 663c 881a 823d
00000100: 2b26 a9bd 967e 723d 246f 3fbc 834b 173c
00000110: b2ec 71bc 836e 193d 6fbc 03bd 70e1 203d
00000120: 1a95 dc3d 0376 eb3d 7d25 dbbc b83a f83d
00000130: 976f 97bc 9d5f 523d ec70 f7bc 9c61 023e
00000140: d88d 773c b47d d13d a8f4 193c dc9d 6c3c
00000150: fbe7 80bc 8140 473d 465d e53d 22e6 abbb
00000160: db9b a5bb a79a cc3d ceab 6f3d a0b8 813d
00000170: 29e8 c53c 7a59 1ebd e0c6 59bc 3247 9b3b
00000180: 9044 f1bb 1519 69bd 7db7 b13d 2690 a3bb
00000190: 8616 dfbc f654 6bbd 0b49 65bd 47ea 123d
000001a0: ae10 3d3c 2c70 bebd 6683 1e3c a4eb 3a3c
000001b0: f26a debc ad5b 253c d57e 9dbd 37c6 b53c
000001c0: 92d9 93bd 0579 953c 516d 50bd 55c7 833b
000001d0: b844 2b3d 9027 bcbd 1503 1dbc 0ff1 19ba
000001e0: 5bf4 063d 8e2e 9dbc e5d9 9fbd 1bd0 073c
000001f0: 4a26 833c 3780 af3a c78c aabd ca67 05bd
00000200: 3635 4abd a2e1 84bd f34a f13b e3f9 42bd
00000210: 62e8 a8bd 506b 0fbd dd2d c1bc e489 cc3c
00000220: 3670 16bd 5777 773c 9097 f6bc d66e 563c
00000230: f790 62bd 962d debb aa32 c0bc 8764 5abd
00000240: a5aa 68bd b1a8 60bd 11b0 e53c c750 c4bd
00000250: 960e 5c3d 74c5 b5bc f6d6 93bd 245d 2c3d
00000260: 06ff 57bd 4584 89bd b053 0f3a f9fa 8bbc
00000270: d31e 633c a7c0 b7bc ed4f a9bb 33bc 89bd
00000280: 353c 273c 4aff b8bd bf80 9f3c 9222 85bc
00000290: a4b8 b7bc cb31 2ebc bbc7 42bb c151 e53c
000002a0: 3b84 a739 5c66 98bd 949d c7bd f25a 56bd
000002b0: 4f06 9ebd 402e 7cbd 6bb2 123c 2fe9 57bd
000002c0: 2864 ce3b 1dd4 69bd c17e 973c a6ce 96bd
000002d0: 15ef 313d b703 06bc 3365 213b 087a 37bd
000002e0: a383 7e3c bbee b4bd d573 8dbd f6cf 773d
000002f0: c717 94bc bbb0 2dbd 199b bcbd 70af f6bc
00000300: 547d 26bd e89a 46bb faad 023d 4bf1 573c
00000310: aa9c 133c 1b54 3bbd 260e 8bbc ca75 ccbc
00000320: 4808 d7bb 59f4 82bc 0baa 42bd 802d 2ebd
00000330: 4aff bbbc aada de3d 1455 3dbc 1319 f0bc
00000340: 0326 e53d 34a2 70bd 3fbf 053e 214c 17bd
00000350: 927b 6f3d 255e 2cbd 8a93 3c3d 6688 0dbd
00000360: 24a1 f8bc 03a4 8a3d 082c 753c d335 b2bc
00000370: 2490 3e3d b25a 4538 c76b 633d 7568 c63c
00000380: 0dd6 93bc 5cfd efbc 1109 a23d b3f0 ef3a
00000390: 0562 e23d 3fe3 8d3d ec21 dcbb 44e8 b73d
000003a0: a9ac 8e3d e47c 323d caf1 91bd 9c24 a03c
000003b0: 58ed c13d dd74 15bc 7ed4 3cbc 7a71 92ba
000003c0: 2e65 443d 4a0b bebc 4d73 e13d f8f9 9e3c
000003d0: d8ed 953d 3475 ae3d 46e5 b9bc f2d5 dc3c
000003e0: 9365 b63c a4ef e83b 2cef 9539 f007 f2bb
000003f0: 6deb 853d 6e82 903d c0d5 4cbb dc13 313d
0.005747501 0.10824413 0.09606638 -0.020763712 -0.007395029 0.074249595 -0.025938515 -0.027100189
0.060996044 -0.010328118 -0.012730454 -0.0024870716 0.0393907 0.0048361407 -0.08729433 -0.022858083
-0.030313943 0.10105063 -0.020978978 -0.023168758 -0.035401024 0.024605678 0.10988811 -0.0033686967
0.011740105 -0.00027855643 0.086982206 0.099018164 0.03706968 -0.035953343 0.018551504 0.045102417
0.04657782 0.07985213 0.09773995 0.0024498685 0.02802518 -0.0028178098 0.003972205 -0.0031458922
0.150507 -0.014538784 -0.023689458 0.0059442464 0.08494128 0.057009682 -0.017295161 0.09098821
0.01655909 -0.05917995 0.07426899 7.520838e-05 0.17730503 0.12640522 0.001319772 -0.04670854
-0.022096798 -0.014646887 -0.008731026 0.08500605 0.09194178 0.07758741 0.014049665 0.06352717
-0.08259233 0.059202753 -0.011684213 0.009234312 -0.014765905 0.037458908 -0.032162126 0.039277494
0.10770626 0.11497118 -0.026751274 0.12120575 -0.018485827 0.051360715 -0.030205213 0.12732548
0.015109502 0.10229054 0.0093967095 0.0144419335 -0.015735617 0.0486455 0.11199431 -0.00524594
-0.00505398 0.09990435 0.058513455 0.063340425 0.024158554 -0.03865955 -0.013292044 0.0047387118
-0.0073629096 -0.056908686 0.08677576 -0.004991549 -0.02723242 -0.057454072 -0.055977862 0.035867956
0.011539621 -0.09298739 0.0096748825 0.01140872 -0.027150605 0.010092658 -0.07690207 0.022189243
-0.072192326 0.018246183 -0.050885502 0.004021565 0.041813582 -0.091872334 -0.009583254 -0.00058724073
0.03294788 -0.019187238 -0.07805232 0.008289362 0.016009469 0.0013389651 -0.083276324 -0.032569684
-0.049367152 -0.064883485 0.007363671 -0.04760159 -0.082474485 -0.03501445 -0.02358144 0.024968095
-0.036728106 0.015104136 -0.030101568 0.013087949 -0.05531403 -0.0067803366 -0.023461659 -0.053318527
-0.056803364 -0.054848377 0.028038057 -0.095857196 0.053724848 -0.02218888 -0.07218735 0.042081013
-0.052733444 -0.067146815 0.00054674875 -0.017087447 0.01386233 -0.022430731 -0.0051669986 -0.06725349
0.010207226 -0.090330675 0.01947057 -0.016251836 -0.02242691 -0.010631989 -0.00297211 0.027993085
0.00031951242 -0.074413985 -0.097468525 -0.052332826 -0.07716047 -0.061567545 0.008953671 -0.052712616
0.0062985606 -0.057087053 0.018493058 -0.07363634 0.043440897 -0.008179597 0.002462697 -0.044794112
0.015534314 -0.08834597 -0.06906859 0.06050106 -0.018077744 -0.04240487 -0.0920927 -0.030112952
-0.040646866 -0.0030304734 0.0319042 0.013180087 0.00900952 -0.045734506 -0.01697452 -0.02495851
-0.0065622665 -0.015985655 -0.047525447 -0.04252386 -0.02294888 0.108815506 -0.011555929 -0.029308831
0.11188891 -0.05874844 0.13061236 -0.036937837 0.058467455 -0.04208197 0.04603914 -0.034553908
-0.030350275 0.06769564 0.014964111 -0.021754181 0.046524182 4.7052927e-05 0.055522706 0.02421973
-0.018046403 -0.029295616 0.079118855 0.0018305987 0.11053852 0.069281094 -0.006717911 0.08979848
0.06966526 0.043576136 -0.07126196 0.019548707 0.09469098 -0.009122101 -0.011525271 -0.0011172735
0.047948055 -0.023198742 0.1100832 0.019406304 0.07320756 0.085184485 -0.022692334 0.026957486
0.022265231 0.0071086455 0.00028597692 -0.0073862 0.065390445 0.070561275 -0.0031255335 0.04323183

fc.1.bias f4 [100]
00000000: 58e2 403c fc29 ccbc 5a7f 383c 7539 ce3b
00000010: 4323 acbc 752c d0bc 0f46 ebbc d7cf afbc
00000020: df50 493c 8e5d e1bc 4ec4 afbc 3140 333c
00000030: 0689 dcbc 6869 803c bd10 a03c fdef c6bc
00000040: e352 673c 53e5 a73c 3cfc 1c3c 37f5 dbbc
00000050: a521 bc3c 5e07 a93c 944c bdbc b953 afbc
00000060: 2eed a63c de91 933c b68b 9a3c cc32 a1bc
00000070: b70b 9abc 6f2b c0bc c4f9 eabc 9fae 133c
00000080: 7709 5c3c 2ecf cfbc 3960 a73c 91c2 3c3c
00000090: 24b0 953c 177d 373c 2101 b03c 2c5b d0bc
000000a0: 1ad1 c53c a50c 543c 06a5 c0bc 365b a53c
000000b0: 105d d4bc 2948 b0bc fc7c 953c c9b5 30ba
000000c0: 2792 d6bc 4299 b4bc e2f2 c0bc 1cff dcbc
000000d0: e27e 043c a6d4 673c 2dbf 623c fe3b b1bc
000000e0: 1fa9 dabc 8a30 7c3c 813f b1bc 06d6 a9bc
000000f0: 41b9 2f3c f2e3 bebc ba1b bcbc 509b a8bc
00000100: 6112 473c 5675 b5bc d1ef d8bc cb02 a83c
00000110: 0ecf c6bc 8aa3 d1bc 2fcf b6bc c9e9 d9bc
00000120: d13e d5bc cbd1 c9bc 6ef1 d63c 1033 303c
00000130: 976e aebc 24e8 a63c b5f1 c63c 4802 933c
00000140: 2659 d4bc cba2 dabc cef2 a43c e0f6 a93c
00000150: 558f aebc b056 eabc 29d9 c4bc 5b9e c8bc
00000160: 83ba 883c fbe0 913c 917b 283c a339 613c
00000170: 4395 3a3c 1770 bebc fca5 943b 0baf a33c
00000180: ee07 c03c e070 be3c 0308 b93c 5504 f1bc
0.011772715 -0.024922363 0.011260832 0.0062934705 -0.021012908 -0.025411824 -0.02871993 -0.02146141
0.012287348 -0.02751043 -0.02145591 0.010940597 -0.026920807 0.015675262 0.019539231 -0.024284357
0.014118883 0.020495092 0.009581622 -0.026850326 0.022965262 0.020633396 -0.023107804 -0.021402227
0.020376768 0.01801389 0.018865447 -0.019677542 -0.018804414 -0.02345821 -0.02868355 0.009013801
0.013429991 -0.025367346 0.020431625 0.011520998 0.018272467 0.011199257 0.021484913 -0.0254341
0.024147559 0.012942468 -0.02351619 0.020185094 -0.025923282 -0.021518784 0.018248074 -0.0006740955
-0.026192738 -0.022045735 -0.023553316 -0.026977114 0.008086892 0.01414982 0.013839525 -0.021635052
-0.026691971 0.015392432 -0.021636726 -0.020731937 0.01072532 -0.023302052 -0.02296244 -0.020581871
0.012150378 -0.022150677 -0.02648154 0.020509144 -0.024268653 -0.025590677 -0.02231559 -0.026600735
-0.02603093 -0.02463617 0.02623817 0.010754362 -0.021292968 0.020374365 0.024285177 0.017945424
-0.025921416 -0.026688954 0.02013531 0.020747602 -0.02130858 -0.028605789 -0.024029331 -0.024489572
0.016690498 0.017807474 0.010283367 0.013746652 0.011388126 -0.023246808 0.0045363884 0.019980928
0.023441281 0.023247182 0.022586828 -0.029421011

fc.2.weight f4 [100, 100]
00000000: f5e1 b93d a92f fabb d568 a43d 6822 a43d
00000010: 5ca5 583c c21a cbbc 1c3d 1dbc 3902 88bc
00000020: 6017 003d 8a33 48bd bb27 a6bc 9c13 403d
00000030: f659 53bc 21cd 223d 18c4 a53d 4186 ef3c
00000040: 6f11 7b3d cc9e 913d 9b68 bd3d 70a5 0ebc
00000050: 5185 90bc 251e 423d 1a70 d0bc 278b 55bd
00000060: 0a9d 2f3d 8ac2 993c cd5f fa3b 4fb8 21bd
00000070: f4c2 463c f1dd 72bc 80bf bbbc f165 843d
00000080: 7af0 053d 6700 0abd 8ef9 6f3d 10bd b53d
00000090: 866e 1e3d cf61 273d e1cb 343d 65ec 95bd
000000a0: 1236 0d3d 6672 ef3d e1d8 383c 5879 fc3c
000000b0: 8dbd 82bd 6a1a d6bc e545 693d 0152 b13d
000000c0: 9c30 05bd 3692 1bbd 04e7 67bc 8d91 a4bc
000000d0: 90e6 2d3d ef75 933d c541 993d f252 01bd
000000e0: d31e 08bd 67fd 893d 63ec d53b db80 95bc
000000f0: 9265 843d 9b32 f6bc cb4c a93c 9f7d 643c
00000100: b1e4 3e3d 065b b1bc ab44 61bd a2bc 0f3d
00000110: 3636 10bd 94ca e7bc 907e d63c 437b eebc
00000120: ff7b b0bd d793 79bd 9e69 c53b e36b b73b
00000130: 9ae1 0abc 2df1 1d3d ee20 023d 293b de3c
00000140: 3823 133d 470e f6bc 6214 b13d b805 d03c
00000150: 57df 42bc e7cf c7bb 25bd 06bd e791 80bc
00000160: 3477 6a3d 3e47 ce3d dfd2 9e3d d15d bd3d
00000170: bb2f 813d ff73 a4bc 414c a73d 930c 133d
00000180: a243 813d 388d 743d a41d 4d3d 9d69 b4bd
00000190: 04b4 ddbd aafe 6e3d f23c d7bd 8fb0 24bd
000001a0: e38e e03b 11b4 973b 347c 163d 7148 183c
000001b0: 50f4 60bd 564e 5f3d 280d 153c bb38 acbd
000001c0: ff9f 663d d06b 52bd 0f87 f2bd d943 0abc
000001d0: 5866 06bd d81b 46bd f150 9bbd 31ff 263d
000001e0: 53d6 8bbd 6b30 a3bd 9728 5c3d 5290 5b3d
000001f0: 0138 a4bd 6390 e1bd f395 69bd 8c7d 953c
00000200: ae98 abbc 7d16 8b3d 83e0 bb3c 46b0 adbd
00000210: b3ff 85bd ff0f b53c f2b5 89bd fd42 a4bd
00000220: 09c6 603b ebdc 77bd d17c 9abd ea93 943d
00000230: 2d1b cebd e275 93bd 811d a9ba 35cb 1dbd
00000240: f831 7b3d ddfd 0f3d b7b0 57bd 816c ffbd
00000250: 9b0e 2a3d 7b04 f63c 35e7 ba3c 430e 573d
00000260: dd0c 1abd b713 cabd 09b3 a0bd ae5a 663d
00000270: 5e02 383d 5def 9fbd 96ca 403d aac2 35bc
00000280: fbef ccbd 56d3 5cbc c961 103d 69f8 e13c
00000290: d734 57bb 6779 baba 949c 843c 351c eebb
000002a0: 6fba 1e3d 3e8f 793d 97cb 2c3c 6ea0 1cbc
000002b0: 5431 de3c b22d 923d e07a 48bd 243b 98bd
000002c0: 2bd5 6f3c 5bb1 b9bc 5552 acbd 154e 7dbd
000002d0: 1dcd 773c 9c71 633c d94f bbbd 2430 24bc
000002e0: 52b2 d73c 9471 a33d 3188 5a3d d1c6 c93c
000002f0: da03 4dbd b627 7dbd 3fb3 e3bc e271 a6bd
00000300: 2389 71bd d688 7b3c 1f08 cabd 022a 8cbd
00000310: d67a 9fbd b1cd dfbd 98e5 f8bd 0971 113d
00000320: 9d4b afbd 3409 0b3d 5904 8cbd 1e85 22bd
00000330: df80 cb3b 5948 7e3d 0281 1c3d f801 473d
00000340: 41d9 edbc 08ec ba3d f157 17bc 4bab afbd
00000350: 23a6 d53c 3cd9 1ebd 4b7d b3bd e3bf fbbb
00000360: cf3c 6abd 22fb 90bc 9f58 35bd 9ff0 863c
00000370: bad9 40bd 302d b9bd 96b7 243d 7d0b 8d3d
00000380: 81d4 53bd b45e 93bd 6046 f5bc f394 e53c
00000390: 1997 a83b 512f 393d 4a5a 673d 64ed a6bd
000003a0: f211 a1bd 1d93 963c 7bf0 4abd 0ed2 93bd
000003b0: ccde 75bd 35a8 b7bd d5d8 6bbd 8db2 a43c
000003c0: 09ff 47bd 7304 6abd 23cd d13b 7bed efbc
000003d0: 1418 023d 0c7d f7bc a1b8 cabd 1238 bbbd
000003e0: 81cb 5c3c bead 4b3d e500 8fbb 24a9 6b3d
000003f0: 9193 11bd 6559 b9bd b63d 89bd 0a2a 6d3d
0.09076301 -0.007635076 0.080278076 0.08014375 0.0132230185 -0.024793033 -0.009597089 -0.016602622
0.031272292 -0.048877276 -0.020282617 0.0468937 -0.012899866 0.039746407 0.080940425 0.029238822
0.061295923 0.07110366 0.092484675 -0.008706436 -0.017641695 0.04739203 -0.02544408 -0.05213466
0.042874373 0.018769521 0.007640815 -0.03948241 0.012131441 -0.014823423 -0.022918463 0.06464756
0.03270004 -0.03369179 0.058587603 0.088739514 0.038679622 0.040864762 0.044139747 -0.07320479
0.034475394 0.11691742 0.011282177 0.03081958 -0.0638381 -0.026135642 0.056951422 0.08658219
-0.03251706 -0.037981234 -0.0141541995 -0.020088935 0.04245621 0.072002284 0.07483248 -0.031573243
-0.03323252 0.06737786 0.0065284236 -0.01824992 0.064646855 -0.030053427 0.0206665 0.013945966
0.046604816 -0.021649849 -0.054997128 0.035092004 -0.03520795 -0.028294839 0.026183397 -0.02911151
-0.086174004 -0.060932007 0.0060245534 0.005597578 -0.008476639 0.03856008 0.031769685 0.02712782
0.03592226 -0.030036105 0.08646466 0.025393352 -0.011894069 -0.006097782 -0.032895226 -0.015694572
0.057242587 0.10072182 0.07755064 0.0924641 0.06307932 -0.020074842 0.08168841 0.035900664
0.06311728 0.05970499 0.050077096 -0.08809207 -0.10825351 0.058348335 -0.10509671 -0.040207442
0.006852971 0.00462962 0.036739543 0.009294615 -0.054920495 0.054518066 0.009097375 -0.08409258
0.056304928 -0.05137235 -0.11842167 -0.008439028 -0.032812446 -0.048366398 -0.07583798 0.040770713
-0.068279885 -0.07968219 0.053749647 0.05360443 -0.080184944 -0.11013868 -0.05702777 0.018248342
-0.020946827 0.06791399 0.022934204 -0.08480887 -0.065429114 0.022102354 -0.067241564 -0.080205895
0.0034297726 -0.06051342 -0.07543338 0.07254775 -0.10063777 -0.07200219 -0.001290247 -0.03852387
0.06132695 0.035154212 -0.052658763 -0.12471867 0.041517835 0.030031433 0.022815326 0.052503835
-0.037609924 -0.098670416 -0.07846648 0.056238823 0.044924133 -0.07809327 0.0470682 -0.011093775
-0.1000671 -0.013478121 0.035249505 0.027584272 -0.0032837891 -0.0014226855 0.016187944 -0.007266546
0.038752016 0.060927622 0.0105465865 -0.009559734 0.02712313 0.07137622 -0.048945308 -0.07433155
0.014638226 -0.022667577 -0.08414141 -0.061842043 0.015124586 0.013882067 -0.09146089 -0.010021243
0.026330147 0.07980648 0.05335254 0.024630936 -0.0500525 -0.06180545 -0.027795432 -0.0812719
-0.058968674 0.015352448 -0.0986483 -0.0684395 -0.07787101 -0.109279044 -0.121531665 0.03550819
-0.08559344 0.033944324 -0.06836767 -0.03967773 0.006210431 0.062080715 0.03820897 0.048585862
-0.029034259 0.09127051 -0.009237275 -0.085775934 0.026080197 -0.03878139 -0.08764132 -0.007682787
-0.057186898 -0.017697874 -0.04427397 0.016472159 -0.04708264 -0.09041822 0.040214144 0.06886957
-0.05171633 -0.071957976 -0.029940784 0.028025126 0.0051449654 0.04521114 0.05648259 -0.081507474
-0.07864751 0.018380696 -0.049545746 -0.07217799 -0.06002693 -0.0896763 -0.057579834 0.02010467
-0.048827205 -0.05713315 0.006402628 -0.029288044 0.031761244 -0.030210994 -0.098984964 -0.09141554
0.0134762535 0.04972624 -0.0043641203 0.057534352 -0.03554112 -0.09050254 -0.067012236 0.05790142

fc.2.bias f4 [100]
00000000: d49f a03c 3ac8 9bbc a8fd 8bbc 5994 b93c
00000010: 27bf a73c ac49 b73c 162e ad3c 23c1 79bc
00000020: 09f7 84bc 64fd 97bc a181 8abc a539 9f3c
00000030: f002 953c a1aa af3c 3e34 bc3c b28f 953c
00000040: 0179 bc3c 8180 bc3c ed2d 7bbc 15d7 c13c
00000050: a6e2 b83c 3022 a43c f41c a23c db75 b83c
00000060: c214 80bc 3b38 8bbc 6e3a 85bc 4896 96bc
00000070: f356 aa3c f28c 8cbc 66d1 8bbc 254d 9d3c
00000080: ed1d 82bc c0d2 ae3c 9b3a 87bc d9db 89bc
00000090: 7307 993c b349 81bc 8e59 85bc 7b50 87bc
000000a0: efea 9bbc 7599 87bc 9029 a53c 2ecd bc3c
000000b0: d709 98bc 2649 92bc 9146 a6bc 965e 93bc
000000c0: 213c 93bc 314b 9e3c 3b0b 96bc f9e5 85bc
000000d0: 51c8 90bc f9bf c93c 618a b73c f14b 9f3c
000000e0: b1e4 aa3c f272 b53c 0bd3 a63c 8260 a83c
000000f0: c921 c13c 8327 8fbc fdfc 82bc 64ce 8ebc
00000100: f6ac 8dbc 721a 95bc 3774 a53c c505 bb3c
00000110: 13f4 6ebc 5830 98bc 1b89 a2bc 1d42 ad3c
00000120: 6870 a73c 5cd6 b53c 97ad 89bc 6603 aa3c
00000130: bcf3 94bc cc50 80bc c66f bd3c 9f66 88bc
00000140: b838 70bc 3716 a93c 7ac2 9b3c 08e7 b13c
00000150: 2dc7 a83c ca9d be3c 8aad 6fbc 08bd 8fbc
00000160: 5644 be3c 2524 aa3c c421 81bc 7909 94bc
00000170: 5b91 a23c ddc8 b83c 96b1 83bc 972b ac3c
00000180: d51d 8dbc 49b5 89bc a2a7 b13c d164 79bc
0.019607462 -0.019016374 -0.017088726 0.022653745 0.02047689 0.022373997 0.02114014 -0.015243801
-0.016231077 -0.018553443 -0.016907515 0.019436667 0.018189877 0.021443667 0.02297413 0.018256996
0.023006918 0.023010494 -0.015330774 0.02366213 0.022569012 0.020035833 0.019789197 0.022517135
-0.015634898 -0.016994586 -0.016263213 -0.018382207 0.020793414 -0.017157052 -0.017067622 0.019201824
-0.01588341 0.021340728 -0.016507437 -0.016828464 0.01868031 -0.015782213 -0.016278055 -0.016517868
-0.019032924 -0.016552666 0.02016142 0.023047056 -0.01855938 -0.017857146 -0.02029732 -0.017989438
-0.017973008 0.019322963 -0.018315902 -0.016345011 -0.017673643 0.024627673 0.022404851 0.019445391
0.020861002 0.022149537 0.020364305 0.020553831 0.02357568 -0.017474895 -0.015989775 -0.0174324
-0.017294388 -0.018201087 0.020197017 0.0228299 -0.014584559 -0.01857774 -0.019840768 0.02114969
0.020439342 0.022196941 -0.016806407 0.020753574 -0.018182628 -0.015663527 0.023124587 -0.016650496
-0.01466196 0.020640476 0.019013632 0.02171661 0.020602787 0.023268599 -0.014628777 -0.017546192
0.023225944 0.020769188 -0.015763171 -0.018070923 0.019844702 0.022556717 -0.01607589 0.021016879
-0.01722614 -0.016810076 0.021686379 -0.01522179

fc.3.weight f4 [100, 100]
00000000: 4740 20bd a6e0 ab3d cb46 693d 6e26 77bd
00000010: d349 4abd 26f3 12bd 3366 8cbd 242c 9a3d
00000020: 3ccf 9b3d f27d 983d 7899 c33c 4a44 8abd
00000030: 218b 16bd f289 8bbd badf 9bbd 1004 8dbd
00000040: 3375 21bd c1a7 94bd 872e 8a3d 19bd 8ebd
00000050: 2019 77bd 9a50 4abd 37b0 47bd 1742 a8bd
00000060: df25 ae3d 4e29 5c3d f31f 393d ec70 893d
00000070: 2612 4fbd 1a9e a13d 8ab3 463d 4a64 90bd
00000080: aba0 473d 2fb4 71bd 7f8b 8f3c 559f b03d
00000090: a6f5 dcbc ebf6 8c3d 3693 b93d 6d19 ae3d
000000a0: 6650 a33d e369 513d b87e 35bd 167b a7bd
000000b0: a59a ad3d 03b8 c13d c7a5 283d a1ee 633d
000000c0: 5bcd a13d b095 c9bd 9c37 593d 2cfb 833d
000000d0: 1a72 6b3d 6f2f 35bd 1892 85bd f2f0 4fbd
000000e0: 505b 9abd b5b5 46bd 2ed3 9fbd 39e8 03bd
000000f0: b271 96bd 84f0 d93d b993 c83d 4c07 a43d
00000100: 7673 9d3d 74d9 303d 98a3 9fbd 2e53 58bd
00000110: 1933 5b3d e7cf 8d3d 5051 633d 4eb1 32bd
00000120: 7973 73bd 2902 cebd 5895 5d3d 8d29 4abd
00000130: ad9b 5b3d 59b9 a63d db2e 0bbd da6b 3a3d
00000140: 53d3 973d 13a2 87bd 619b 74bd 0e81 9ebd
00000150: 7fc1 63bd f68e 93bd 6c72 173d c3f1 8d3c
00000160: 2cf2 61bd c511 88bd 2121 ac3d 443e 453d
00000170: d377 8cbd 7a28 62bd 47a1 1c3d 5144 50bd
00000180: 4cf2 803d 8e0f a93d 15ce 5abd ced7 5a3d
00000190: 29ae 93bd 9f3d ad3d 2f3f f13c fd24 1cbd
000001a0: 4c2a 98bd 0410 eebc 4a6c ccbd f9ca 953d
000001b0: 4baf 903d cffd a63d e7b3 9b3d 477c 69bd
000001c0: 08f1 61bd 13b6 6abd 8766 b0bd 1486 a5bd
000001d0: 0e03 67bd 3b22 e2bd 3f12 683d e47a 8cbd
000001e0: 193b 9bbd c001 8fbd f450 4fbd 08b9 85bd
000001f0: 7f86 b43d 44f3 953d 3a1c a13d e454 723d
00000200: e49a 7ebd 4f98 943d c8c0 f73d b111 2bbd
00000210: 0c01 823d 3973 66bd 3b36 1c3d 301c 733d
00000220: ca69 28bd ce83 163d 7e38 513d 8a48 763d
00000230: ae2c 853d 1615 423d a16e 6cbd 9964 87bd
00000240: f92d a63d c863 8f3d 188b 753d 0305 7b3d
00000250: 2f36 073d d457 83bd 46ee a43d 4f7a 2a3d
00000260: 95d2 503d 7c9a 8abd d421 8bbd 86d2 ccbb
00000270: a64a 86bd 069d 7fbd 3679 62bd df08 9dbd
00000280: ea13 bbbd 4535 763d b40e 5c3d 7404 b73d
00000290: eb36 a13d 4555 803d cadb 51bd 72e8 8cbd
000002a0: 6bcf 273d 38e7 8d3d 40a2 293d 214c 94bd
000002b0: cded 67bd 9579 c1bd 39ce 493d dbac 48bd
000002c0: be35 863d da31 d73d 0a87 3bbd a0e9 053d
000002d0: 29cd 853d 403f b4bd 7e39 b2bd a3d5 98bd
000002e0: 0462 1fbd 08fc 96bd 49e8 a03d 1ff6 613d
000002f0: 069d a2bd 19cc 8cbd df47 3a3d 064b b03d
00000300: f653 a7bd 181a 97bd 2864 883d 942e afbd
00000310: a1ce 603d 8ceb 913d b67b 1abd 4749 583d
00000320: af2c 0a3c dbaa f7bc afb5 a9bc 7a04 343c
00000330: 11cf 2f3c 0125 913c 1b65 013d b715 c1bc
00000340: a4b7 383c 9908 e6b9 fa36 58bd d197 1d3c
00000350: 5f4b 07bc 51e5 893d 9812 4e3d 403d 8d3c
00000360: 7886 a13a f65c 883c 5c17 2abc 8fc3 743d
00000370: c4b6 cc3c edb0 a13c 9b13 c23c 5724 e63c
00000380: d641 e33a c661 90b9 b2c4 36bd 5483 fcbb
00000390: 58fe e83c e7f4 35bd c9b1 48bd 6a60 033d
000003a0: cce7 23bd 4d0b e93c 9970 53bd f20a fdbb
000003b0: bdaf 933a 4ba5 24bd bfaa 58bc 302d 9abc
000003c0: 5b95 fe3b 6ea3 97bc f17c baba 8a72 4cbc
000003d0: fec8 0fbd dab2 3ebc fc93 e43b 436e 79bc
000003e0: dffc e8bb 99df 2d3d 1ca4 26bd 8b98 6ebc
000003f0: fb87 03bd 6695 f23c 93d7 ca3c e5df 323b
-0.0391238 0.08392458 0.05695228 -0.060339384 -0.04938681 -0.035876416 -0.068554305 0.075279504
0.07607886 0.07445897 0.02387689 -0.06751306 -0.036753777 -0.0681342 -0.07611032 -0.068855405
-0.03941841 -0.07258559 0.06747156 -0.06969661 -0.060326695 -0.049393274 -0.048752036 -0.08215731
0.08503317 0.05375033 0.045196485 0.06710991 -0.050554417 0.078914836 0.048511066 -0.070503786
0.04873721 -0.059009727 0.017522572 0.0862414 -0.026972603 0.06883033 0.090612814 0.08500943
0.07974319 0.051126372 -0.0443103 -0.08177774 0.08476762 0.094589256 0.041173723 0.055647496
0.079004966 -0.09843004 0.05303155 0.064443916 0.057481863 -0.04423469 -0.06522006 -0.050766893
-0.07536948 -0.048513133 -0.07803951 -0.032203887 -0.073459044 0.10641578 0.09793801 0.08009204
0.07688038 0.04317613 -0.07794875 -0.0528137 0.053515527 0.0692442 0.055497468 -0.043626122
-0.059436295 -0.10059006 0.054097503 -0.049356032 0.05361526 0.08140821 -0.03398023 0.04551301
0.07413354 -0.0662271 -0.059718493 -0.07739459 -0.055604454 -0.07205002 0.036974356 0.017327195
-0.055162594 -0.06644014 0.08404756 0.048155084 -0.06858792 -0.055214383 0.038239744 -0.0508464
0.062962145 0.0825492 -0.05341919 0.053428464 -0.07210953 0.08459019 0.029449074 -0.038121212
-0.074299425 -0.029060371 -0.09981592 0.073141046 0.070646845 0.08153879 0.07602673 -0.057003286
-0.055161506 -0.057302546 -0.086133055 -0.08082214 -0.056399398 -0.11041685 0.056658026 -0.06859377
-0.07579631 -0.06982756 -0.050614312 -0.065294325 0.088147156 0.0732179 0.07866712 0.05916299
-0.062159434 0.07255613 0.12097317 -0.04176492 0.06347856 -0.05626223 0.038137656 0.059353054
-0.041116513 0.036746792 0.051079266 0.060127772 0.065026626 0.04738339 -0.05772269 -0.06610984
0.08114237 0.07001454 0.059947103 0.061284076 0.033010658 -0.06413236 0.080532596 0.04162055
0.050982077 -0.06767747 -0.067935616 -0.0062506823 -0.06557207 -0.06240561 -0.055291377 -0.07667708
-0.09134658 0.060109396 0.05372496 0.08936396 0.07871803 0.06266264 -0.051234998 -0.06880273
0.040969294 0.06928867 0.0414145 -0.07241083 -0.05662327 -0.09447018 0.049268935 -0.048992973
0.06553219 0.10507555 -0.04578308 0.032693505 0.06533272 -0.088011265 -0.08702372 -0.07462623
-0.038911834 -0.0737229 0.07856805 0.05516636 -0.07940106 -0.06874866 0.045478698 0.086080596
-0.08170311 -0.07378024 0.06659728 -0.08553806 0.054884557 0.07125005 -0.037715636 0.052804258
0.008433505 -0.030232837 -0.020716516 0.010987395 0.010730521 0.01771784 0.031590562 -0.023569925
0.011274252 -0.00043875424 -0.052786805 0.009618715 -0.008257716 0.06733192 0.0503107 0.01724112
0.00123234 0.01664589 -0.010381546 0.05975681 0.024989493 0.019737685 0.02369099 0.0280935
0.0017338346 -0.00027538667 -0.044621177 -0.007706085 0.028441593 -0.04442301 -0.048997674 0.03207437
-0.04001598 0.028447771 -0.051621053 -0.007722252 0.0011267584 -0.0401967 -0.013224303 -0.018820375
0.0077692694 -0.018510547 -0.0014227909 -0.01247848 -0.03510379 -0.011639321 0.006975649 -0.015224042
-0.0071102227 0.042449567 -0.04068385 -0.014562736 -0.032112103 0.029612254 0.024760997 0.0027294096

fc.3.bias f4 [100]
00000000: 5048 43bc d3c5 31bc 23f6 b13b f58f 42bc
00000010: e066 28bc 7e06 c93b 37c7 35bc 6378 40bc
00000020: f757 083c f970 2bbc fa3a 3abc 5683 273c
00000030: 26ed 1d3c 2202 49bc 649e 163c 6912 fc3b
00000040: 5833 fc3b c9ff 27bc 38f7 26bc 4844 093c
00000050: 284d 1c3c f6dd 493b 3d40 2fbc 0656 19bc
00000060: 1767 3c3c cc55 45bc e0fe 213b 6dcf df3b
00000070: 11e0 1bbc e683 42bc 9400 d03b 1576 a53b
00000080: 0d2d ed3b ed51 36bc 573d 3a3c 86d9 1b3c
00000090: 06e0 59bc 28bf 173c 372c 013c 77da 2e3c
000000a0: d4a5 24bc 9358 36bc c1c3 34bc 3437 4abc
000000b0: 610c f83b 7e82 52bc d8a0 3e3c fdc2 353c
000000c0: 0338 cf3b 1e40 42bc ff72 39bc 1201 193c
000000d0: 2f35 103c ad8f 213c 50d7 3cbc 46d2 31bc
000000e0: 7622 ec3b 8b4c 0b3c 1e12 1f3c 3c85 3fbc
000000f0: 8937 3b3c 847f 37bc 309c 24bc d3b5 153c
00000100: 56a3 3c3c 427c 823b 2b63 1dbc ad72 c93b
00000110: 8164 023c 8b79 2cbc c5fe 27bc 393f 34bc
00000120: e46d 4abc 76ec 913b 0774 50bc c21f 023c
00000130: fb45 44bc 3ebd 39bc c459 2ebc 8fb3 383b
00000140: 298f 2fbc 50ab 313c 3b67 49bc 1e81 55bc
00000150: 1964 3ebc acf0 4ebc da86 44bc e1e4 143c
00000160: 8e12 37bc 3f68 40bc 79ef 303c b88b 5cbc
00000170: 751f 3cbc 00d2 9e3b eda7 0f3c d87f c93b
00000180: 4819 18bc ff2b 20bc e2e2 043c f3ff 223c
-0.011919096 -0.010850388 0.005430953 -0.011875142 -0.010278434 0.006134807 -0.01109486 -0.011747452
0.008321754 -0.0104639465 -0.0113666 0.010224184 0.00963906 -0.012268575 0.009193037 0.0076926243
0.0076965503 -0.010253855 -0.0101907775 0.008378096 0.00953988 0.0030802465 -0.010696468 -0.0093588885
0.011499188 -0.012044381 0.0024718568 0.006830147 -0.009513871 -0.011872267 0.006347725 0.005049477
0.0072380365 -0.011127931 0.011367164 0.009512311 -0.01329804 0.009261884 0.007884077 0.010672203
-0.010049302 -0.011129516 -0.0110329995 -0.012342263 0.007569835 -0.012848495 0.011635028 0.011093852
0.006323816 -0.011856107 -0.011318921 0.009338634 0.008801742 0.009860915 -0.011525944 -0.010853356
0.0072062565 0.008502136 0.009708909 -0.01168948 0.011426815 -0.011199836 -0.010047004 0.009137589
0.011513552 0.003982098 -0.009606163 0.0061477036 0.007958532 -0.010527025 -0.010253613 -0.011001402
-0.0123553015 0.004453237 -0.012722976 0.007942142 -0.011979575 -0.011336623 -0.010641519 0.0028183197
-0.010715284 0.010844067 -0.0122926785 -0.013031272 -0.011620545 -0.012630623 -0.011995042 0.009087772
-0.011173857 -0.011743604 0.010799282 -0.013461046 -0.011482109 0.0048468113 0.008768064 0.0061492734
-0.009283371 -0.0097761145 0.008110734 0.009948718

fc.4.weight f4 [100, 100]
00000000: a7fc cbbd 1a72 d6bd 2e8f ea3d 226b ebbd
00000010: cf48 9fbd 614f 193e 547c c1bd e869 06be
00000020: e0e9 0d3e d45f efbd 8383 c4bd ccb7 e13d
00000030: a883 a93d ed7e a9bd 59cc f43d 3145 273d
00000040: dac2 383d fbda 8fbd 869c a4bd ce00 f43d
00000050: 48bd 963d b630 123e 371f c5bd cb5a 04be
00000060: 4b97 8e3d 2bb1 b2bd ff97 e33d 299a d33d
00000070: 6bbc c6bd 0ae8 b5bd 16b7 bc3d 061f a23d
00000080: 0981 983d 5727 d2bd ad09 c53d 1ae8 063e
00000090: 3d20 b3bd b5c1 bf3d be69 b23d 5895 823d
000000a0: ad7e d7bd 9f86 c4bd 607d dfbd 90db 19be
000000b0: 0df7 e33d 6b26 e7bd c009 d63d 62fd a13d
000000c0: aa77 963d 052f 03be 263e f1bd fdbe 0f3e
000000d0: f5b6 9e3d 5ca2 d83d 5304 b9bd 0e9d dcbd
000000e0: d390 b73d 3cc4 c93d bb01 db3d 5326 cfbd
000000f0: 730b 013e 50b5 d3bd 4d2e fabd e112 103e
00000100: 93f0 553d 4cd3 013e 0010 d3bd 7cab b63d
00000110: 7551 ae3d d588 ccbd 3402 8dbd 9a96 bfbd
00000120: 9bc1 d2bd f3dd 8d3d d9a8 eabd f991 0c3e
00000130: b076 e5bd 135a ccbd 25ac cfbd b376 093e
00000140: 327b 96bd 93f1 d03d 9486 dcbd 11fa a4bd
00000150: 6433 e5bd f5ed b5bd 8940 f9bd 1842 c13d
00000160: 3dcf e2bd dd18 ffbd 3b83 d03d 6337 d5bd
00000170: dd01 9cbd c0f1 b63d e923 f13d 1def 103e
00000180: eb84 1bbe 9c08 d6bd ee9b c43d db75 723d
00000190: 354e 76bc e820 21bd a9f2 353d ea01 ffbc
000001a0: dd67 d7bc 5f1f d63d 8d63 51bc 1101 28bc
000001b0: d1fb b73d 144a 20bd 5d23 32bc 32bb a33d
000001c0: 49e0 6e3d f993 5cbc 604d be3d 786c c23c
000001d0: 4af1 703d 5f11 2cbc 5c52 50bd 1da6 893d
000001e0: adb3 883d 1583 ad3d 970e e4bc 4730 bebc
000001f0: 89d0 c33d 5e05 f9ba c038 ad3d ac41 9b3d
00000200: 4d5a 83bc 0dd8 c5bc 2c04 a43d 0464 433d
00000210: f7e0 793b cc41 e3bc 72bd 343d f8aa 353d
00000220: 2966 5fbd 402d b53d b392 143d c509 e13c
00000230: 2a50 18bd eafa 6abd 9e60 86bd 957c 68bc
00000240: dd77 f63c 01d2 a0bc 6037 a63d 6cfc a93d
00000250: 87b5 c53d ef7d a2bc ceba c8bc 8393 163d
00000260: 3ee3 973d b4a4 093d 9d26 3bbd 5c80 0cbc
00000270: bb5b 6d3d 3530 0e3d 1aaa a23d 17f4 1cbd
00000280: 76ff 353d 77ff c3bc ab16 6cbd 7e73 083d
00000290: 4f43 6f3d 9aad 9b3d 6c80 45bd 3ef2 653d
000002a0: c1e6 bd3d 4c07 6fbd 8f02 5dbd 4399 22bd
000002b0: bab4 65bd 5bd0 7e3d 1a5d 94bd 76ab b43d
000002c0: aa7c 7f3a 98b8 4cbd 5932 2abd 07bf be3d
000002d0: 4e78 a8bc 3890 253d 51b5 94bc c3fd 22bc
000002e0: cd08 34bd 0b3b 36bc 393b 04bd 321d 8d3d
000002f0: b070 debc 0060 33bd 718f 8f3d a3e8 24bd
00000300: 253a c1bc 6aaf a33d c8ec 693d a70b a43d
00000310: d79f 53bd 05f2 3e3b 8067 5e3d 27fe a73d
00000320: da6f 9e3c c738 3d3d 735e 493c 3736 713d
00000330: 8111 683d 2537 0c3a a975 613d ac4c 943d
00000340: c7ae 47bd 6d00 803d 23ed ed3c d20c 23bd
00000350: 3a10 11bd 1d6f c13c fdcc 0dbd 8920 20bd
00000360: 936b cfbc aeed 423d aac5 313d ec63 1cbd
00000370: 3672 fbbc 1574 813c 3622 713d cc6a a73d
00000380: db46 d2bc be3e 2a3d 8bd0 ccbc b37c bcbc
00000390: e3ee 6d3d 9ff2 4a3d 8713 eeb7 2bce 8bbc
000003a0: fcd4 37bd d5f1 023d 169f 383c f5d6 55bd
000003b0: f8a7 b33d bf00 e9bc f7c7 66bd cd2e 00bd
000003c0: 7972 043d a972 c23c f1f9 723d a7b1 d43c
000003d0: c04b c3bc 2365 083d 7ed7 debc 3097 d1ba
000003e0: 263c fd3a f48b 7f3d d97f 6c3d 6be6 cfb7
000003f0: ada5 85bd 376f 3dbd a8a2 073d 238a 323d
-0.09960299 -0.10470982 0.114530906 -0.11495043 -0.07777559 0.14971687 -0.09447542 -0.13126338
0.13858747 -0.116882 -0.09595396 0.110213846 0.082770646 -0.08276162 0.11953039 0.04083747
0.0451077 -0.07024189 -0.08037667 0.11914216 0.07360321 0.14276394 -0.096250944 -0.1292526
0.069624506 -0.08725198 0.11112975 0.10332138 -0.097039066 -0.088821486 0.09214608 0.079160735
0.074464865 -0.1026141 0.09620986 0.13174477 -0.08746383 0.093631186 0.08711575 0.06376141
-0.10522208 -0.095959894 -0.10912585 -0.15025163 0.111311056 -0.112866245 0.104510784 0.07909657
0.07347043 -0.12810905 -0.11779432 0.140377 0.0774974 0.105778426 -0.09034028 -0.10772143
0.0896317 0.09851882 0.106936894 -0.10114732 0.12602024 -0.10337317 -0.122158624 0.14069702
0.052231383 0.1267826 -0.10305786 0.08919427 0.085116304 -0.09987036 -0.06885186 -0.09354897
-0.102908336 0.06927099 -0.114579864 0.13727559 -0.112042785 -0.09978118 -0.10140256 0.13424186
-0.073477164 0.102023266 -0.10767856 -0.08055509 -0.111914426 -0.08883277 -0.12170512 0.094364345
-0.11074684 -0.12455914 0.1018128 -0.10410955 -0.07617543 0.08932829 0.117744274 0.14153714
-0.15187423 -0.10450861 0.09600054 0.059194427 -0.015033294 -0.039338022 0.044420872 -0.031128842
-0.026294643 0.10455202 -0.012780082 -0.0102541605 0.08983577 -0.039133146 -0.010872689 0.07994689
0.058319364 -0.013463014 0.09292102 0.023733363 0.05882386 -0.0105021885 -0.050859794 0.06721137
0.066748954 0.084722675 -0.027838988 -0.02321638 0.09561259 -0.0018998792 0.0845809 0.07580885
-0.01603427 -0.024150873 0.08008608 0.047702804 0.0038128474 -0.027741335 0.04412598 0.0443525
-0.054540787 0.088465214 0.036272716 0.027470479 -0.037185825 -0.057368197 -0.06561397 -0.014189859
0.030086452 -0.019631388 0.08116031 0.08300099 0.09653764 -0.01983544 -0.024503138 0.036761772
0.0741639 0.03360434 -0.04569112 -0.008575525 0.05794881 0.034713943 0.079426005 -0.03831872
0.04443308 -0.023925526 -0.057638805 0.033313267 0.0584138 0.07601471 -0.048218176 0.056139223
0.092725284 -0.05835657 -0.05395752 -0.039696943 -0.056080557 0.062210422 -0.0724432 0.08821766
0.00097460544 -0.04998073 -0.04155192 0.09313779 -0.020565178 0.04042074 -0.018152865 -0.009948197
-0.043953706 -0.011122475 -0.03228304 0.06890334 -0.027153343 -0.043792725 0.07009781 -0.040260922
-0.023587296 0.07992442 0.057110578 0.08010035 -0.051666107 0.0029135954 0.054297924 0.082027726
0.019340444 0.046196725 0.012290585 0.058889594 0.056657318 0.00053487933 0.05504385 0.072411865
-0.048750665 0.06250081 0.02904374 -0.03980715 -0.035415865 0.023612553 -0.03461932 -0.039093528
-0.02531985 0.04758995 0.043401398 -0.03818123 -0.030694108 0.015802423 0.058870517 0.08174667
-0.025668552 0.041563742 -0.025001785 -0.02300868 0.05808915 0.049547788 -2.8380904e-05 -0.017066082
-0.044880852 0.03196891 0.011268398 -0.052206952 0.08772272 -0.028442739 -0.056343045 -0.031294633
0.032335732 0.023736315 0.059320394 0.025963617 -0.023839831 0.033299576 -0.027202364 -0.0015990492
0.0019320294 0.06238933 0.057739113 -2.478362e-05 -0.06525741 -0.04624864 0.033114105 0.04358877

fc.4.bias f4 [100]
00000000: baf5 36bd 34e5 66bd fdb6 0bbd feea 73bd
00000010: b0b3 3abd c87a 75bd 90c9 5cbc 1a55 84bd
00000020: 923b 7bbc 36e9 7abd 34ec 08bd e39c 85bd
00000030: b7dd 37bc 0a39 e3bc 2e96 96bd be10 7bbd
00000040: 4985 1dbd fe50 1fbd 5e6b dabc 64e2 9abc
00000050: f338 65bd a2bd 99bc 52dc 05bd 16ed a1bc
00000060: b5c7 5cbd 226a 93bc 100a d0bc 41bf 5bbc
00000070: a969 36bd 1425 83bd ab50 b5bc 690d 99bc
00000080: 623a cdbc 06fc 7abc 20f8 09bd bd28 81bd
00000090: 0b95 89bd c001 31bd cea0 53bd e85a 62bd
000000a0: c29b 89bd a854 7fbd bcac b3bc a52a 8ebd
000000b0: 2782 c2bc 5370 5fbd 3c66 bdbc 34f9 d4bc
000000c0: b669 79bd 014b 3ebd 9d8d 26bd 1bba 79bd
000000d0: 69f8 72bd a2fa 8dbd 06d0 a8bc b378 7bbd
000000e0: 5bcf 04bd 2a23 b3bd 64ef 8fbd bd75 b8bc
000000f0: 4c5f 92bd 92b8 90bd 5c7f 9ebc 3442 5abd
00000100: 53ef 53bc f896 07bd ce6e dcbc 21b5 81bd
00000110: 220f 48bd 24de 8bbd 90d7 05bd a427 87bd
00000120: f126 b3bc 2920 95bd 2ecc d3bc d3c2 dabc
00000130: 1eaa 8fbd 3b8b 48bd f878 fabc 0118 51bc
00000140: dea7 90bd 804b 78bd a086 17bd aa9c 61bd
00000150: 00cf 79bc 2c63 93bd 5483 a1bd f0be 52bd
00000160: 51d3 4bbd 8f43 94bd b38c a2bd 4d4c 92bd
00000170: 73d6 42bd b45c 85bd 5847 6abc e353 44bd
00000180: c118 aabc 7c51 61bd f0f5 7cbc d0af 6fbd
-0.044667937 -0.05637093 -0.034110058 -0.059550278 -0.04558152 -0.059931546 -0.013475791 -0.06461544
-0.015334027 -0.061257564 -0.033428386 -0.065240644 -0.0112222945 -0.02773716 -0.07352863 -0.061295263
-0.03845719 -0.0388956 -0.026662525 -0.01890678 -0.055962514 -0.018767182 -0.032680817 -0.019766372
-0.053901393 -0.017994944 -0.025395423 -0.013412298 -0.04453436 -0.064035565 -0.022133192 -0.018683152
-0.025052253 -0.015318876 -0.033683896 -0.06306598 -0.06717881 -0.04321456 -0.051667027 -0.055262476
-0.067191616 -0.062336594 -0.021932952 -0.069417275 -0.023743702 -0.05455048 -0.023120038 -0.025997736
-0.06089183 -0.046458248 -0.040662397 -0.0609685 -0.059318934 -0.0693257 -0.020607006 -0.061394405
-0.032424312 -0.087469414 -0.07028082 -0.02251708 -0.07147083 -0.07066454 -0.019347839 -0.053285792
-0.012935477 -0.03310296 -0.026908305 -0.06333376 -0.048842557 -0.06829479 -0.03267628 -0.06599358
-0.021869155 -0.07281525 -0.025854196 -0.026704228 -0.07014869 -0.048960906 -0.03057526 -0.012762071
-0.07063268 -0.060618877 -0.036993623 -0.055081047 -0.015247107 -0.0719665 -0.07886377 -0.051451623
-0.049762074 -0.07239448 -0.079369925 -0.071434595 -0.047567796 -0.06511822 -0.014299236 -0.047931563
-0.020763757 -0.05500935 -0.015439495 -0.058517277
