results/Smoothed_InfoNCE_dim20_reg1_alpha0.001.pt (torch, 312891 bytes, 13 tensors)

fc.0.weight f4 [100, 40]
0.043068316 -0.061689936 0.07027312 -0.052321725 0.049658217 0.02815033 -0.016192645 0.06389049
-0.017413152 0.03236124 -0.012752215 0.008837654 0.039759155 0.032203097 0.007337214 0.031192752
0.008760987 -0.012002699 0.021642188 -0.013992771 0.040104013 -0.06590718 0.06570876 -0.055294566
0.030481396 0.007104549 0.0069788997 0.056411255 -0.018501969 0.02554641 -0.0040462413 0.021950282
0.022278553 0.043633312 -0.004667677 0.0019526619 0.0073900595 -0.02516955 0.004678065 0.022715943
0.025370678 -0.03485486 -0.051741827 -0.029883122 0.048870835 -0.023707949 0.03841075 -0.013204799
-0.03379738 0.032083694 -0.051067572 -0.07777149 0.054339338 -0.05020121 -0.02475067 -0.004795784
-0.01757274 -0.011640356 -0.082234606 -0.022083737 0.015656289 -0.027568353 -0.033699553 -0.035198268
0.035752352 -0.015892789 0.011146065 -0.03115069 -0.031672142 0.021337463 -0.04648845 -0.070113525
0.058843218 -0.040399525 -0.019690048 -0.014517361 -0.012604543 0.00085250236 -0.093541265 -0.009236841
-0.06142898 0.012449799 0.027461022 0.060502492 0.014518254 -0.05693416 -0.030812379 -0.05293868
-0.006525497 0.0910084 0.008045135 -0.06565632 -0.030630076 0.049776632 0.0058733453 0.071131214
-0.039209343 0.015581416 0.017912952 -0.05530859 -0.050220564 0.009176046 0.039989855 0.040108316
0.018217986 -0.0921927 -0.048036348 -0.031054273 -0.018724898 0.06967854 0.02438191 -0.052099362
0.0018558248 0.026928486 0.011750775 0.062851414 -0.040132143 0.012474197 0.010918309 -0.049483232
0.02223008 -0.016839543 -0.0073765456 0.08764587 0.13700655 -0.02633031 -0.023216607 0.013689474
-0.0013780697 0.03849381 -0.040072203 0.021921933 -0.10269757 0.02626067 -0.06402484 -0.07339703
0.011680313 0.010097163 -0.08317926 0.037675157 -0.039226893 0.0002708955 0.012126442 -0.07992824
-0.12385058 0.045631282 0.055762142 -0.012296586 -0.0015677201 -0.05356545 0.0534021 -0.045667887
0.092192486 -0.0167845 0.07408161 0.07048403 0.0007847548 -0.02935666 0.0686498 -0.035712607
0.05198292 -0.0073488145 -0.0460766 0.08242777 -0.011684794 0.028694829 -0.022193959 0.006135764
-0.01456539 -0.06541158 0.037361972 -0.028619366 0.04492512 -0.08396865 0.061253306 0.043434046
0.03870496 -0.053024475 -0.002917652 -0.011385893 0.03724859 -0.00046399442 -0.03691563 0.0496659
-0.007165634 0.013618132 -0.0042537013 0.013160811 -0.010507123 -0.06527974 0.022418292 -0.04876066
0.062657 -0.07239873 0.05803306 0.057663955 0.051324163 -0.046454206 -0.013277042 -0.011190564
-0.04700498 0.01623939 0.042427838 0.07368797 -0.03401528 0.04287358 0.03596229 0.047428355
0.03751793 -0.02769675 -0.109597236 -0.024088709 0.04430155 0.100584105 -0.067034855 0.08609363
-0.036320057 0.08861739 0.058148865 0.04349982 0.03648634 -0.027580388 -0.045405176 -0.05741182
0.045593843 -0.04116032 -0.057029255 -0.028516358 -0.058775194 0.01979499 0.107964166 0.011485237
-0.043642737 -0.099471055 0.0545713 -0.06924106 0.039561946 -0.07130473 -0.06297693 -0.050357148
-0.03780697 -0.026008258 -0.06935913 0.014772839 -0.021671614 0.07620038 -0.06451328 0.0092042545
-0.100202 -0.053578466 0.035670668 0.09767594 -0.014255614 0.10281778 0.0033297383 -0.0045752544
00000000: 6768 303d 96ae 7cbd 5beb 8f3d 4e4f 56bd
00000010: 6a66 4b3d 859b e63c 70a6 84bc 04d9 823d
00000020: 07a6 8ebc 388d 043d abee 50bc cfcb 103c
00000030: 7fda 223d 65e7 033d 036d f03b f187 ff3c
00000040: 3e8a 0f3c f8a6 44bc f54a b13c ef41 65bc
00000050: 1b44 243d 58fa 86bd 5092 863d 8e7c 62bd
00000060: 1fb4 f93c 47cd e83b 41af e43b 7d0f 673d
00000070: 7191 97bc b446 d13c 5596 84bb 14d1 b33c
00000080: 8381 b63c d8b8 323d 50f3 98bb 76f0 ff3a
00000090: 5028 f23b 5f30 cebc 744a 993b c916 ba3c
000000a0: 2bd6 cf3c f8c3 0ebd 3def 53bd 73cd f4bc
000000b0: c92c 483d 2c37 c2bc 9754 1d3d f158 58bc
000000c0: 1f6f 0abd 316a 033d 3b2c 51bd a946 9fbd
000000d0: ed92 5e3d c99f 4dbd ebc1 cabc f425 9dbb
000000e0: b5f4 8fbc 31b7 3ebc 9e6a a8bd f4e8 b4bc
000000f0: 9e41 803c 07d7 e1bc 8b08 0abd 0f2c 10bd
00000100: 0f71 123d 9831 82bc fc9d 363c bb2f ffbc
00000110: a6ba 01bd e7cb ae3c ac6a 3ebd ae97 8fbd
00000120: 9605 713d f979 25bd 064d a1bc 3ada 6dbc
00000130: 4983 4ebc 777a 5f3a 9092 bfbd 1f56 17bc
00000140: f49c 7bbd 3efa 4b3c f0f5 e03c 76d1 773d
00000150: f9dd 6d3c cb33 69bd 3e6a fcbc 3bd6 58bd
00000160: d6d3 d5bb 9d62 ba3d becf 033c d276 86bd
00000170: edeb fabc 95e2 4b3d 3175 c03b 3ead 913d
00000180: fa99 20bd 3249 7f3c 2fbe 923c 438b 62bd
00000190: 14b4 4dbd 2057 163c 67cc 233d 9e48 243d
000001a0: e33d 953c 87cf bcbd c3c1 44bd 8865 febc
000001b0: f564 99bc 9fb3 8e3d 92bc c73c 2466 55bd
000001c0: 263f f33a 2199 dc3c 5386 403c 3eb8 803d
000001d0: 9a61 24bd 9360 4c3c b5e2 323c eeae 4abd
000001e0: db1b b63c 15f3 89bc f3b6 f1bb ae7f b33d
000001f0: 724b 0c3e aab2 d7bc c130 bebc d149 603c
00000200: 59a0 b4ba afab 1d3d c022 24bd a095 b33c
00000210: 1b53 d2bd 9e20 d73c 751f 83bd 2f51 96bd
00000220: c95e 3f3c 926e 253c e359 aabd 4451 1a3d
00000230: 61ac 20bd fb06 8e39 fcad 463c 6bb1 a3bd
00000240: 5fa5 fdbd dee7 3a3d d866 643d 9f77 49bc
00000250: f57b cdba 7267 5bbd 29bc 5a3d 400e 3bbd
00000260: 6acf bc3d a67f 89bc 19b8 973d ee59 903d
00000270: 01b8 4d3a 617d f0bc 4498 8c3d 6247 12bd
00000280: 0bec 543d 53ce f0bb d1ba 3cbd e4cf a83d
00000290: 9471 3fbc 6b11 eb3c 1bd0 b5bc 850e c93b
000002a0: aca3 6ebc 82f6 85bd de08 193d 2973 eabc
000002b0: 6703 383d c1f7 abbd bfe4 7a3d e6e7 313d
000002c0: 1889 1e3d 3130 59bd 1436 3fbb e68b 3abc
000002d0: fa91 183d 4744 f3b9 d834 17bd 796e 4b3d
000002e0: b2cd eabb 961e 5f3c a262 8bbb 71a0 573c
000002f0: 1126 2cbc 62b1 85bd 91a6 b73c 42b9 47bd
00000300: 5052 803d c945 94bd 13b4 6d3d 0a31 6c3d
00000310: 4939 523d c446 3ebd f387 59bc a158 37bc
00000320: 4b88 40bd 7808 853c d0c8 2d3d b8e9 963d
00000330: 9b53 0bbd 359c 2f3d 324d 133d 3c44 423d
00000340: 67ac 193d 4be4 e2bc 8474 e0bd af55 c5bc
00000350: 8b75 353d 0aff cd3d 9249 89bd db51 b03d
00000360: 57c4 14bd 097d b53d 812d 6e3d de2c 323d
00000370: b372 153d 44f0 e1bc c7fa 39bd a828 6bbd
00000380: 9cc0 3a3d b997 28bd 8297 69bd 239b e9bc
00000390: 42be 70bd 1a29 a23c 511c dd3d 932c 3c3c
000003a0: bac2 32bd 7bb7 cbbd 2886 5f3d 42ce 8dbd
000003b0: b50b 223d 3708 92bd 0cfa 80bd 4c43 4ebd
000003c0: 7bdb 1abd 450f d5bc 290c 8ebd c709 723c
000003d0: ab88 b1bc f20e 9c3d 8a1f 84bd 71cd 163c
000003e0: b536 cdbd 1875 5bbd 681b 123d 530a c83d
000003f0: 6190 69bc 2192 d23d bd37 5a3b 04ec 95bb

fc.0.bias f4 [100]
-0.029241338 -0.02032753 -0.040613607 -0.02135917 -0.0447165 -0.020189635 -0.022908859 -0.03982447
-0.03320454 0.0010148064 -0.038944624 -0.018019546 -0.02039884 -0.022412572 -0.043960236 -0.038497355
-0.022768324 -0.017592518 -0.037348352 -0.01732152 -0.03677489 -0.03384631 -0.019856388 -0.0045405217
-0.0280154 -0.013731596 -0.0145599 -0.01981348 -0.025204295 -0.01233892 -0.0338613 -0.023081046
-0.021005932 -0.019753698 -0.04161876 -0.011109374 -0.018584233 0.00027749955 -0.014559205 -0.041429035
-0.005681861 -0.023121484 -0.0010507654 -0.015242841 -0.025440436 -0.03981675 -0.032940306 0.002176484
0.0018926993 -0.018727308 -0.032331057 -0.026817484 -0.041562855 -0.030167067 -0.01719894 -0.019506022
-0.018925283 -0.014595408 -0.02428415 -0.010442387 -0.037666805 -0.037836835 -0.032522626 -0.010561871
-0.02472636 -0.037699416 -0.017620195 -0.019877698 -0.007842219 -0.0047419514 -0.035215806 -0.0409317
-0.039173886 -0.00042380358 -0.009431969 -0.029528348 -0.019680537 -0.016620137 -0.019538434 -0.022414668
-0.02457242 -0.024909984 -0.024593212 -0.023214957 -0.02086936 -0.025700586 -0.016699586 -0.04364806
-0.022947064 -0.012839928 -0.031313542 -0.017201655 -0.018535104 -0.043852042 -0.0300801 -0.018874116
-0.0072940756 -0.022560744 -0.021503849 -0.021937227
00000000: 888b efbc ec85 a6bc 745a 26bd 6df9 aebc
00000010: a628 37bd bc64 a5bc 5cab bbbc fc1e 23bd
00000020: 7c01 08bd 4103 853a 6684 1fbd ba9d 93bc
00000030: 781b a7bc 929a b7bc a60f 34bd 67af 1dbd
00000040: a384 babc 2f1e 90bc 96fa 18bd dce5 8dbc
00000050: 44a1 16bd 6ea2 0abd dda9 a2bc a8c8 94bb
00000060: 8d80 e5bc 7dfa 60bc a68c 6ebc e14f a2bc
00000070: 3d79 cebc 2e29 4abc 26b2 0abd 7614 bdbc
00000080: a214 acbc 82d2 a1bc 6f78 2abd 1804 36bc
00000090: f63d 98bc 5c7d 9139 bb89 6ebc 7eb1 29bd
000000a0: e82e babb 4469 bdbc d6b9 89ba 1cbd 79bc
000000b0: 7668 d0bc e316 23bd 6aec 06bd 58a3 0e3b
000000c0: 7314 f83a 036a 99bc 926d 04bd 57b0 dbbc
000000d0: d03d 2abd ed20 f7bc cbe4 8cbc 18cb 9fbc
000000e0: 3209 9bbc 9421 6fbc 8eef c6bc 8c16 2bbc
000000f0: 8248 1abd ccfa 1abd 7236 05bd b30b 2dbc
00000100: ef8e cabc b46a 1abd 3a58 90bc 8ed6 a2bc
00000110: a77c 00bc 5f62 9bbb 733e 10bd 00a8 27bd
00000120: cc74 20bd f431 deb9 8c88 1abc 6fe5 f1bc
00000130: 1439 a1bc f426 88bc 110f a0bc f79e b7bc
00000140: 1a4c c9bc 0610 ccbc b477 c9bc 4b2d bebc
00000150: 38f6 aabc 098a d2bc 92cd 88bc 4fc8 32bd
00000160: 7bfb bbbc 905e 52bc a142 00bd 7cea 8cbc
00000170: eed6 97bc 339e 33bd 8b6a f6bc e49d 9abc
00000180: 2403 efbb 4fd1 b8bc d728 b0bc b3b5 b3bc

fc.1.weight f4 [100, 100]
-0.014832553 0.024544006 0.011744717 -0.06549285 0.010298643 -0.04921074 -0.07852891 0.0033581126
0.01959799 0.0026276624 -0.010780702 -0.044493508 -0.052365735 0.015281907 -0.024210878 0.011515632
-0.06853376 0.028546287 -0.003421373 -0.06461212 0.024984704 0.041711297 -0.04436788 -0.007404581
0.03335457 -0.03087264 -0.0193255 -0.029736768 -0.052109383 -0.05594875 0.06084187 -0.03904853
-0.06167433 -0.039365083 0.03913667 0.0040961537 -0.075644046 -0.018526 -0.03216667 0.011873458
0.047491748 -0.072116315 -0.03716539 -0.0503649 -0.0701186 0.008448111 -0.00097506057 -0.004250879
0.017754328 -0.05932049 0.029397832 -0.056255497 0.04260824 0.037405964 -0.03215351 -0.034574743
-0.09015214 -0.05618414 -0.05337149 -0.027933728 0.024454935 0.011578464 0.030951377 0.007868207
-0.07330737 0.017991714 -0.03335179 -0.03515603 -0.04780583 0.004034684 -0.0028612288 0.013174318
0.029071566 0.009232311 -0.041260753 0.011796669 -0.043084852 -0.04019745 -0.010483435 -0.051906895
-0.038780104 -0.039937116 -0.05870049 -0.07607996 -0.049937643 -0.07864401 0.011443767 0.019719446
-0.06413445 -0.02779863 0.011505631 -0.057070863 -0.061379794 -0.0141868815 0.021942407 -0.03623488
-0.008235864 -0.09242522 -0.038236115 -0.04675561 0.015344175 0.0020313615 -0.0006913846 -0.0545025
0.013776042 -0.09832701 -0.058587614 0.023449972 0.04177301 0.00025637654 0.0042001796 -0.05656801
-0.06892243 0.010876353 -0.013429814 -0.012634675 -0.04281211 -0.036110908 -0.0062520523 -0.05219184
0.03682055 -0.0057405382 -0.033478316 0.0011554167 0.009998691 -0.04106165 -0.028613102 -0.02832264
-0.048342343 -0.04067543 0.01817896 -0.04473704 -0.078843705 -0.017459132 0.03154468 0.016420174
-0.06385398 0.0037833026 -0.09053564 0.016129427 0.02334443 -0.09728889 0.016070431 -0.06866774
-0.052813366 0.026726322 0.027490435 -0.041151002 0.033243224 -0.08033841 -0.0071199797 -0.053920623
0.015552037 -0.0005276235 -0.050117448 -0.053539347 -0.075139865 -0.033134814 -0.07529343 -0.019215232
0.03806062 0.0016329789 0.021792874 0.026149936 -0.07194182 0.021420833 -0.06166779 -0.026451807
-0.023701511 0.0007624274 -0.034306746 0.02008768 -0.0046319966 0.011343739 -0.03728869 0.0142269675
-0.07513657 -0.048521217 0.026180068 -0.07981382 -0.038797215 -0.047464944 -0.0973695 -0.06561692
-0.05931397 -0.108278535 -0.009496914 0.05022368 -0.0830592 -0.03353885 -0.015230245 -0.017790774
-0.06761993 -0.0070394166 0.009739406 -0.034289885 -0.027628144 -0.079097725 -0.032517094 -0.082974665
0.0064174305 -0.020496858 -0.015593494 -0.078756906 0.0013537648 -0.067373514 -0.065348476 0.012653387
0.01863832 -0.017425034 0.05685248 -0.056023233 -0.04469675 -0.022018392 0.0342024 0.007588439
-0.044515472 -0.0030089912 0.02482559 -0.058041986 0.03471587 0.020680616 -0.05119342 0.031283185
0.011626433 -0.026058262 -0.008321798 -0.02754476 -0.041191567 -0.029048221 0.03493506 -0.04224824
-0.066932276 -0.039736435 0.031966772 0.0290826 -0.060254034 -0.0012559888 -0.047493592 0.030867869
0.001296319 -0.07315845 0.036491357 -0.06107732 -0.0746634 -0.00023263377 0.015293745 -0.018968297
0.040503416 -0.071428716 -0.009408693 -0.054351576 0.051332373 0.0052863373 -0.015135271 -0.013275082
00000000: 3d04 73bc 8310 c93c ea6c 403c 1e21 86bd
00000010: a4bb 283c 3391 49bd c4d3 a0bd c813 5c3b
00000020: f78b a03c dc34 2c3b 8ba1 30bc d33e 36bd
00000030: 747d 56bd f760 7a3c e455 c6bc 10ac 3c3c
00000040: 6e5b 8cbd e7d9 e93c 1d39 60bb 5c53 84bd
00000050: b9ac cc3c 77d9 2a3d 18bb 35bd 21a2 f2bb
00000060: cd9e 083d 9ee8 fcbc 8350 9ebc 869a f3bc
00000070: a670 55bd 842a 65bd 5335 793d 5af1 1fbd
00000080: 399e 7cbd 483d 21bd c64d 203d 0739 863b
00000090: 44eb 9abd d7c3 97bc 33c1 03bd e488 423c
000000a0: b586 423d b8b1 93bd bc3a 18bd 6d4b 4ebd
000000b0: 579a 8fbd f269 0a3c 359b 7fba f54a 8bbb
000000c0: 8671 913c 0bfa 72bd b9d3 f03c 2a6c 66bd
000000d0: fa85 2e3d ff36 193d 66b3 03bd 3f9e 0dbd
000000e0: afa1 b8bd 5721 66bd 109c 5abd 46d5 e4bc
000000f0: b755 c83c 99b3 3d3c be8d fd3c a7e9 003c
00000100: 2d22 96bd 5c63 933c e39b 08bd c5ff 0fbd
00000110: 0cd0 43bd 6235 843b 7483 3bbb 18d9 573c
00000120: 7e27 ee3c 1e43 173c 0901 29bd d146 413c
00000130: be79 30bd 15a6 24bd b7c2 2bbc 539c 54bd
00000140: e3d7 1ebd 1a95 23bd ed6f 70bd cfcf 9bbd
00000150: 6a8b 4cbd 1c10 a1bd a37e 3b3c ad8a a13c
00000160: ec58 83bd f4b9 e3bc 1d82 3c3c 23c3 69bd
00000170: 6169 7bbd 1870 68bc 90c0 b33c 076b 14bd
00000180: b8ef 06bc 6f49 bdbd 799d 1cbd cf82 3fbd
00000190: 2266 7b3c 9720 053b 093e 35ba 033e 5fbd
000001a0: e8b4 613c ac5f c9bd 91f9 6fbd 281a c03c
000001b0: 2d1a 2b3d 476a 8639 a9a1 893b dcb3 67bd
000001c0: 3427 8dbd bb32 323c b908 5cbc ab01 4fbc
000001d0: c05b 2fbd 08e9 13bd 04de ccbb 1cc7 55bd
000001e0: 25d1 163d 201b bcbb 8f20 09bd 5a71 973a
000001f0: 8dd1 233c 4330 28bd 0666 eabc e204 e8bc
00000200: 9f02 46bd 489b 26bd 0bec 943c 303e 37bd
00000210: cf78 a1bd 7406 8fbc ff34 013d 9a83 863c
00000220: e0c5 82bd 49f1 773b c06a b9bd dc21 843c
00000230: d13c bf3c 663f c7bd 23a6 833c aca1 8cbd
00000240: d452 58bd 29f1 da3c 9f33 e13c f48d 28bd
00000250: 0c2a 083d 7788 a4bd b84e e9bb dfdb 5cbd
00000260: f9cd 7e3c 3750 0aba f447 4dbd 134c 5bbd
00000270: eee2 99bd 5fb8 07bd 7133 9abd 4369 9dbc
00000280: 74e5 1b3d ae09 d63a f886 b23c 6438 d63c
00000290: 3c56 93bd be7a af3c 5d97 7cbd 76b1 d8bc
000002a0: ac29 c2bc a3dd 473a 3b85 0cbd eb8e a43c
000002b0: 01c8 97bb 17db 393c 07bc 18bd 3a18 693c
000002c0: 34e1 99bd 2fbe 46bd 9577 d63c 6e75 a3bd
000002d0: d4e9 1ebd 9a6a 42bd a969 c7bd 2a62 86bd
000002e0: 35f3 72bd 23c1 ddbd f298 1bbc 58b7 4d3d
000002f0: f11a aabd 0860 09bd 4788 79bc f5bd 91bc
00000300: 517c 8abd e8aa e6bb 0892 1f3c 8d73 0cbd
00000310: 6b54 e2bc fdfd a1bd a530 05bd 9fee a9bd
00000320: 4f49 d23b 07e9 a7bc db7b 7fbc 4d4b a1bd
00000330: cf70 b13a 20fb 89bd 6cd5 85bd 2750 4f3c
00000340: 64af 983c f2be 8ebc 25de 683d 9e78 65bd
00000350: f013 37bd ea5f b4bc d117 0c3d 71a8 f83b
00000360: db55 36bd 7f32 45bb 095f cb3c 6fbd 6dbd
00000370: 3a32 0e3d 656a a93c 31b0 51bd cc22 003d
00000380: cb7c 3e3c 2378 d5bc 2758 08bc 8ca5 e1bc
00000390: 7db8 28bd 89f6 edbc 1118 0f3d 7e0c 2dbd
000003a0: ca13 89bd acc2 22bd 97ef 023d a23e ee3c
000003b0: efcc 76bd fe9f a4ba a488 42bd 9dde fc3c
000003c0: 3fe9 a93a 19d4 95bd f677 153d 362c 7abd
000003d0: 20e9 98bd 27ef 73b9 9e92 7a3c 6763 9bbc
000003e0: e9e6 253d 3849 92bd eb26 1abc c29f 5ebd
000003f0: e541 523d 0339 ad3b edf9 77bc bb7f 59bc

fc.1.bias f4 [100]
-0.02071606 -0.029417476 -0.020416828 -0.02856331 0.012700123 0.012260267 0.012690136 0.017065963
0.02632049 -0.028295128 -0.018752456 0.02036097 -0.02430831 -0.02592424 0.009450972 0.016663026
-0.022555811 0.023700189 0.016876675 0.0131238215 -0.025064519 -0.02105717 0.02012916 -0.022679757
0.0145419 -0.019949757 0.018440241 0.0140064955 -0.020933276 0.009264287 -0.015775912 -0.019290924
-0.026504237 -0.02646247 0.023314886 0.02133691 -0.023982648 0.022547789 -0.026206195 -0.025096152
-0.02219927 0.02388218 0.0104864845 0.019796325 -0.022750638 0.012342384 0.022883235 -0.023096355
-0.025310948 -0.022971947 -0.019131172 -0.028784769 0.020886626 -0.024740998 -0.029413141 -0.023064012
0.022382405 0.019855592 -0.02484689 0.016763253 0.018727066 -0.027638119 0.009319135 0.026411725
0.021854894 -0.027205545 0.018995078 0.021876102 0.020607525 -0.020235911 0.015315896 -0.026640492
-0.024831736 0.014534199 -0.01976216 0.006030102 -0.027860623 0.013243496 -0.023911977 0.015491363
0.020317877 0.018953897 0.022167683 -0.025997993 0.020845158 -0.028336074 0.009770793 0.015199062
0.01156056 -0.027303603 -0.025479754 0.022915531 0.01839985 0.012207488 -0.017552234 -0.020774465
0.022761567 0.018113967 -0.028398888 0.013835507
00000000: bab4 a9bc ebfc f0bc 3141 a7bc 9afd e9bc
00000010: 2d14 503c 49df 483c 4aea 4f3c ebcd 8b3c
00000020: 119e d73c 2fcb e7bc c09e 99bc 0dcc a63c
00000030: 3922 c7bc 125f d4bc 40d8 1a3c e680 883c
00000040: f7c6 b8bc e626 c23c f440 8a3c 4c05 573c
00000050: 1b54 cdbc 1680 acbc e8e5 a43c e6ca b9bc
00000060: 2641 6e3c ac6d a3bc fd0f 973c 807b 653c
00000070: 437c abbc 3cc9 173c 7c3c 81bc 0008 9ebc
00000080: 6a1f d9bc d2c7 d8bc dcfe be3c beca ae3c
00000090: 4277 c4bc 24b6 b83c 60ae d6bc 7296 cdbc
000000a0: 3edb b5bc 90a4 c33c 81cf 2b3c e72b a23c
000000b0: 8c5f babc b637 4a3c 9f75 bb3c 9134 bdbc
000000c0: e858 cfbc aa2f bcbc fab8 9cbc 09ce ebbc
000000d0: 6e1a ab3c a2ad cabc d4f3 f0bc bdf0 bcbc
000000e0: 4e5b b73c 32a8 a23c b48b cbbc 1753 893c
000000f0: 8169 993c 5669 e2bc 49af 183c 675d d83c
00000100: 0909 b33c 2ade debc 919b 9b3c 8335 b33c
00000110: 1dd1 a83c c8c5 a5bc 86ef 7a3c 293d dabc
00000120: ed6b cbbc d920 6e3c 41e4 a1bc 2998 c53b
00000130: f63b e4bc 40fb 583c 0de3 c3bc 7ccf 7d3c
00000140: ad71 a63c 3445 9b3c 0099 b53c bef9 d4bc
00000150: 77c3 aa3c 0e21 e8bc ad15 203c 7d05 793c
00000160: 8168 3d3c ceab dfbc ebba d0bc 5ab9 bb3c
00000170: 48bb 963c ea01 483c b4c9 8fbc 362f aabc
00000180: 7776 ba3c be63 943c c9a4 e8bc 53ae 623c

fc.2.weight f4 [100, 100]
0.01935257 -0.02320003 -0.014711796 -0.014403584 0.06555194 0.07514501 0.08141962 0.04637142
0.035214994 -0.04409533 -0.005842332 0.03235898 -0.016977832 -0.02316037 0.080986604 0.10059765
-0.0035442498 0.07654539 0.10651935 0.07087963 -0.10813763 -0.051897727 0.04663321 -0.04131414
0.037268523 -0.036902633 0.0011612645 0.0455451 0.014649326 0.07005029 -0.0070663197 -0.0007483337
-0.04576346 -0.04200027 0.052588154 0.062187277 -0.02123131 0.03518755 -0.035580613 -0.078192376
-0.024306456 0.1101736 0.08790809 0.014011012 -0.06919969 0.021331927 0.05770348 -0.012627423
-0.04968547 -0.047665816 -0.0076541454 -0.030309143 -0.028264832 -0.014001669 -0.023771646 -0.019841645
0.051190242 0.04511578 -0.0411306 0.05472933 0.06796598 -0.07479607 0.0964629 0.084182695
0.06835028 -0.042482816 0.030935183 0.039832108 0.066568345 -0.0037973882 0.12202125 -0.03228426
-0.07101774 0.026532697 -0.05273603 0.016109295 -0.025403619 0.08533696 -0.06661193 0.017926395
0.09414441 0.021683186 0.08731184 -0.057138264 0.038034957 -0.0035781332 0.034531996 0.06927184
0.059814118 0.0032540574 -0.025870414 0.07585448 0.056759518 0.054980423 -0.028632762 -0.041184332
0.04761545 0.048729427 -0.043496102 0.0059603914 -0.019474922 0.05654865 -0.02305899 0.04983692
-0.05884839 -0.11613832 -0.041662924 -0.06863837 -0.051520538 0.050756957 0.010513509 -0.06434642
0.04397629 0.008831134 -0.1102494 -0.08233343 0.053035144 -0.033655856 -0.088461995 -0.045543443
0.0442968 0.041566998 -0.029370109 0.0496832 -0.07066146 -0.026944572 -0.044444565 -0.074521184
-0.014895223 -0.024183147 -0.012185929 -0.011293753 0.03527039 0.022881774 -0.06385483 -0.064453855
0.08720577 -0.063080065 0.018796604 0.066781245 -0.027322765 -0.072400086 -0.07757647 -0.014450803
0.05322161 -0.025427015 -0.042110927 -0.01877656 0.029797893 0.037570264 0.013236427 0.06881082
0.00913153 -0.006603154 0.028065423 0.025073977 -0.06792596 -0.04643733 0.06725506 -0.105114765
-0.09491343 0.011883545 -0.050941158 -0.060635127 -0.015347541 0.014614233 -0.07579275 -0.012657768
-0.06450657 0.029503081 -0.09893095 0.0052751503 0.024506291 -0.033871222 0.028039811 -0.07942758
0.03556337 -0.06825891 0.022723889 -0.051127415 -0.041204274 -0.057993494 -0.102629095 0.09026201
-0.03834316 0.06579464 -0.044404116 -0.07253931 -0.052195277 0.047748875 0.092579626 -0.078840084
-0.04702206 -0.07603118 0.017867258 0.02870657 -0.056736916 -0.09451038 -0.014526478 -0.08255429
0.003947685 0.034787755 0.012962504 0.046214577 -0.058252588 -0.057938986 -0.039341167 -0.028705152
-0.023802444 0.08917928 -0.0072527463 -0.06818599 0.016771229 0.0230823 -0.08259689 -0.080405645
0.025873462 -0.005770536 -0.05520504 -0.06764995 0.060249787 0.026541734 -0.041055504 0.06705767
-0.04142458 0.006993203 -0.018701693 -0.06331721 0.011816392 -0.04479136 0.023809263 -0.010474613
0.018527776 0.020200925 -0.048384294 -0.056557793 0.022460243 -0.093415126 0.03771194 0.016092766
0.02438072 -0.060114525 -0.068727866 -0.004469676 0.025658293 -0.089102596 -0.09294582 0.0150898965
0.0048413454 0.05834285 -0.012772387 0.07446445 0.008803281 -0.00011010954 0.038904 0.027370231
00000000: 4889 9e3c fd0d bebc bf09 71bc 03fd 6bbc
00000010: 1840 863d a1e5 993d 54bf a63d f5ef 3d3d
00000020: 993d 103d 4e9d 34bd 0871 bfbb da8a 043d
00000030: 1815 8bbc d1ba bdbc 4edc a53d 2406 ce3d
00000040: a546 68bb d4c3 9c3d d126 da3d 5729 913d
00000050: 4377 ddbd b692 54bd 7702 3f3d 0439 29bd
00000060: e1a6 183d 3727 17bd 9235 983a 808d 3a3d
00000070: ba03 703c 8776 8f3d 968c e7bb d32b 44ba
00000080: 7772 3bbd 7a08 2cbd ad66 573d 16b8 7e3d
00000090: 49ed adbc d220 103d fabc 11bd 5323 a0bd
000000a0: 551e c7bc b2a2 e13d 2809 b43d 728e 653c
000000b0: 91b8 8dbd 4bc0 ae3c 7c5a 6c3d 40e3 4ebc
000000c0: fe82 4bbd 3b3d 43bd a0cf fabb e14a f8bc
000000d0: a68b e7bc 4267 65bc c1bc c2bc f28a a2bc
000000e0: dcac 513d 53cb 383d 8f78 28bd dd2b 603d
000000f0: bf31 8b3d af2e 99bd 578e c53d fa67 ac3d
00000100: 3bfb 8b3d 7602 2ebd c86b fd3c fe26 233d
00000110: fc54 883d 9add 78bb 47e6 f93d 803c 04bd
00000120: c071 91bd 195b d93c bc01 58bd a4f7 833c
00000130: 401b d0bc 25c5 ae3d d66b 88bd 60da 923c
00000140: c9ce c03d f0a0 b13c 8dd0 b23d d009 6abd
00000150: 8bca 1b3d 1d7f 6abb 6c71 0d3d 65de 8d3d
00000160: a6ff 743d 0642 553b 31ee d3bc 9859 9b3d
00000170: ab7c 683d 2733 613d 418f eabc e7b0 28bd
00000180: 6b08 433d 8298 473d f828 32bd 634f c33b
00000190: df89 9fbc 8f9f 673d 35e6 bcbc cc21 4c3d
000001a0: 020b 71bd edd9 edbd bea6 2abd 4692 8cbd
000001b0: 3307 53bd 87e6 4f3d da40 2c3c 0ec8 83bd
000001c0: 7b20 343d 76b0 103c 70ca e1bd 6e9e a8bd
000001d0: 613b 593d b9da 09bd 902b b5bd c38b 3abd
000001e0: 9070 353d 2842 2a3d 9599 f0bc 9c80 4b3d
000001f0: f5b6 90bd ddba dcbc 810b 36bd 909e 98bd
00000200: 180b 74bc bc1b c6bc 7ea7 47bc 6f09 39bc
00000210: af77 103d 8f72 bb3c 52c6 82bd 6200 84bd
00000220: f098 b23d 1f30 81bd 56fb 993c 9bc4 883d
00000230: fed3 dfbc 7f46 94bd 6ae0 9ebd 10c3 6cbc
00000240: e7fe 593d 514c d0bc 827c 2cbd 4dd1 99bc
00000250: b61a f43c 47e3 193d 99dd 583c b0ec 8c3d
00000260: 6a9c 153c 455f d8bb 75e9 e53c f167 cd3c
00000270: c41c 8bbd 1235 3ebd 05bd 893d 6946 d7bd
00000280: f961 c2bd 33b3 423c ada7 50bd 8a5c 78bd
00000290: 4174 7bbc 8970 6f3c 3b39 9bbd 8762 4fbc
000002a0: 051c 84bd 72b0 f13c 4f9c cabd 2bdb ac3b
000002b0: 6bc1 c83c 8dbc 0abd bfb3 e53c edaa a2bd
000002c0: e5aa 113d 54cb 8bbd 7327 ba3c fb6a 51bd
000002d0: d0c5 28bd 968a 6dbd 342f d2bd 4adb b83d
000002e0: b80d 1dbd 57bf 863d 17e1 35bd 7d8f 94bd
000002f0: b7ca 55bd 5394 433d 639a bd3d e976 a1bd
00000300: 349a 40bd 3cb6 9bbd 5b5e 923c 0a2a eb3c
00000310: f864 68bd a88e c1bd 7700 6ebc 3912 a9bd
00000320: 955b 813b 9b7d 0e3d af60 543c 7f4b 3d3d
00000330: 449a 6ebd 6e51 6dbd 3424 21bd 1127 ebbc
00000340: 58fd c2bc a0a3 b63d 72a8 edbb 19a5 8bbd
00000350: d163 893c 1717 bd3c 8f28 a9bd b7ab a4bd
00000360: 95f4 d33c c416 bdbb ae1e 62bd 0f8c 8abd
00000370: 7bc8 763d 0d6e d93c d129 28bd 8855 893d
00000380: d2ac 29bd 3d27 e53b 4b34 99bc 74ac 81bd
00000390: 8a99 413c 2577 37bd a50b c33c b69d 2bbc
000003a0: 90c7 973c 697c a53c 9c2e 46bd 25a9 67bd
000003b0: 8bfe b73c 6e50 bfbd d677 1a3d fad4 833c
000003c0: 13ba c73c a63a 76bd 32c1 8cbd 5c76 92bb
000003d0: 5731 d23c 6c7b b6bd 615a bebd 9d3b 773c
000003e0: 26a4 9e3b eaf8 6e3d 4643 51bc d180 983d
000003f0: a33b 103c 9cea e6b8 cd59 1f3d 8937 e03c

fc.2.bias f4 [100]
0.02091189 -0.014675261 -0.014862974 0.020958653 -0.01586142 0.02267856 0.018320255 0.021518406
0.018047307 0.017491447 0.021909151 0.0231729 0.01925793 -0.012609944 0.01961338 0.01951379
-0.011907195 0.015375363 0.019781582 -0.017426932 -0.017568512 -0.01502995 0.018592972 0.018370682
0.01785138 0.018159822 -0.015065027 0.020163648 -0.014107639 0.018660238 0.017499913 -0.014456013
0.020258516 0.019908965 0.020633372 0.02393167 0.02318084 -0.019875396 -0.017922953 0.017510485
0.01730978 0.018508429 0.020585604 -0.015620335 -0.019070221 -0.017672306 0.021038625 0.016522486
-0.014809542 -0.015709933 -0.016473977 -0.011976441 0.018768046 -0.013275134 -0.016796313 0.017167835
0.017789626 0.019358141 0.017072452 -0.01716554 -0.016284935 0.018628288 0.016619517 -0.015043839
-0.013769569 0.019656504 0.023523534 0.024026837 0.016289026 0.019616429 -0.01562775 -0.016937083
0.02078016 0.019538062 0.020847157 0.018665852 0.015861414 -0.018759169 0.017259393 -0.019870369
0.023370013 0.021029837 -0.017196584 0.019732257 -0.016308853 0.02172087 -0.0136385625 0.019152332
0.022510098 0.018941337 0.021889113 -0.018270139 -0.016721677 0.021385634 -0.011762184 0.019180609
-0.017666874 0.0195031 -0.017602826 -0.017186515
00000000: 694f ab3c 8270 70bc d583 73bc 7bb1 ab3c
00000010: cfef 81bc 63c8 b93c 5c14 963c 5e47 b03c
00000020: f2d7 933c 394a 8f3c d27a b33c 18d5 bd3c
00000030: cec2 9d3c f099 4ebc 3dac a03c 62db 9f3c
00000040: 6516 43bc f2e8 7b3c fc0c a23c edc2 8ebc
00000050: d7eb 8fbc 2e40 76bc 4a50 983c 1d7e 963c
00000060: 0f3d 923c e8c3 943c 4ed3 76bc 3c2e a53c
00000070: ba23 67bc 5bdd 983c fa5b 8f3c ead8 6cbc
00000080: 30f5 a53c 2018 a33c 5107 a93c 590c c43c
00000090: bfe5 bd3c bad1 a2bc 28d3 92bc 2672 8f3c
000000a0: 3dcd 8d3c fd9e 973c 24a3 a83c 6fec 7fbc
000000b0: 2739 9cbc 83c5 90bc 3259 ac3c 2a5a 873c
000000c0: b9a3 72bc 1eb2 80bc 6ff4 86bc d638 44bc
000000d0: 72bf 993c f37f 59bc 6c98 89bc 8fa3 8c3c
000000e0: 8dbb 913c f794 9e3c 87db 8b3c bf9e 8cbc
000000f0: fc67 85bc 5a9a 983c a725 883c 6f7a 76bc
00000100: c299 61bc ad06 a13c 6db4 c03c eed3 c43c
00000110: 9070 853c a2b2 a03c c405 80bc a3bf 8abc
00000120: 273b aa3c 490e a03c a8c7 aa3c 21e9 983c
00000130: ccef 813c d4ac 99bc 9263 8d3c 2fc7 a2bc
00000140: 7872 bf3c c446 ac3c dadf 8cbc 8ba5 a13c
00000150: 259a 85bc f7ef b13c 4774 5fbc 5ae5 9c3c
00000160: 1967 b83c dd2a 9b3c cc50 b33c 42ab 95bc
00000170: e6fb 88bc ed30 af3c 2db6 40bc a720 9d3c
00000180: 1fba 90bc f7c4 9f3c cd33 90bc bcca 8cbc

fc.3.weight f4 [100, 100]
-0.040317304 0.07319881 0.0520058 -0.059158552 0.06418916 -0.03338439 -0.06126565 -0.038244978
-0.037783667 -0.036271445 -0.093840495 -0.07194624 -0.033741064 0.043069784 -0.075069495 -0.068267606
0.069225766 -0.061065447 -0.045694456 0.051870886 0.050966706 0.06001745 -0.04813477 -0.07504919
-0.02906206 -0.061041523 0.040417235 -0.04032492 0.058918014 -0.0357013 -0.064657055 0.03911885
-0.06641899 -0.054333393 -0.104099885 -0.037975214 -0.0390106 0.06971712 0.08716433 -0.02576695
-0.039314922 -0.05928866 -0.047437433 0.03391338 0.07851546 0.089866646 -0.07595795 -0.058524203
0.07135071 0.016412511 0.049017645 0.057146817 -0.06003932 0.07238677 0.053116206 -0.0524728
-0.06727481 -0.042361528 -0.07121298 0.08371418 0.041530795 -0.007161989 -0.012352657 0.07470326
0.07266588 -0.07300284 -0.08336945 -0.05310773 -0.053570632 -0.04420856 0.053237036 0.07051529
-0.059259832 -0.09912759 -0.060798883 -0.046308566 -0.059055895 0.08134296 -0.026884835 0.046136167
-0.048256263 -0.06470736 0.047401007 -0.0764309 0.05306883 -0.07015669 0.03167077 -0.095836736
-0.052081987 -0.06208818 -0.030718384 0.04345945 0.04303747 -0.054587513 0.03436249 -0.048136998
0.062673286 -0.034902256 0.062483877 0.05190107 -0.07456125 0.074410364 0.02526541 -0.037880067
0.044532865 -0.027832912 -0.09339835 -0.046205666 -0.048659485 -0.03509976 -0.047139585 -0.062800236
-0.052801494 0.059136804 -0.08606011 -0.081311814 0.057188038 -0.09944223 -0.061764408 0.0580481
0.04090423 0.044896256 -0.050787274 -0.058950856 -0.03137771 -0.046889074 0.07432858 -0.054177616
0.052446388 -0.047404293 0.002307363 0.07284982 -0.057507746 -0.052528214 -0.088771574 -0.07053314
-0.05407912 0.038498875 0.04887641 -0.05612004 -0.05925355 -0.06866027 -0.06174802 0.054505892
0.07602119 0.06626047 -0.0627852 -0.057802092 0.026045702 0.056192398 0.07772914 0.034750707
-0.07179839 0.0537793 0.056095887 -0.008261916 -0.057221696 -0.057458274 -0.04936518 0.044369016
0.028879564 -0.05860346 -0.061542816 0.0847149 0.07467536 -0.05878934 -0.05817561 -0.07070849
-0.071370654 -0.049590565 0.0395456 0.047313686 -0.0581715 -0.09401578 -0.07141917 -0.047101114
-0.05260359 0.10603425 -0.039379254 0.034420066 -0.06317972 -0.087561764 0.026174733 -0.074399546
0.07419457 -0.073450394 0.073984966 -0.06325251 -0.077694595 -0.065505415 -0.07501874 0.08275994
0.035248157 -0.074394986 0.063040495 -0.08341248 0.05535129 -0.051979788 0.0837986 0.05194976
-0.06906146 0.05248268 0.04989427 -0.0734927 0.042770233 -0.07195917 -0.04996722 -0.06396333
-0.016684143 -0.027806858 -0.09566917 -0.07141707 -0.08669311 0.095294625 -0.03466328 -0.06339491
0.0326376 -0.058158245 -0.05190546 0.099706635 0.059801653 0.055057164 -0.053672075 -0.051985584
-0.037136134 -0.039970852 0.031574156 -0.046165496 0.05476718 -0.081468195 -0.078908265 0.065727465
-0.08350925 -0.058529243 -0.09380987 -0.05452041 -0.07688889 0.04726421 0.065214485 -0.051950093
-0.029649312 -0.049704634 -0.08364475 0.01789224 0.04211664 0.06971021 -0.028499886 -0.056290295
0.07207733 0.07779277 0.032878414 0.058566786 -0.07096101 0.05630535 0.05600606 -0.07840939
00000000: c223 25bd 42e9 953d 0904 553d 3d50 72bd
00000010: 9b75 833d 12be 08bd b1f1 7abd c4a6 1cbd
00000020: 0cc3 1abd 5e91 14bd 722f c0bd 8d58 93bd
00000030: 1234 0abd f169 303d 09be 99bd e3cf 8bbd
00000040: 3dc6 8d3d c31f 7abd 1c2a 3bbd 9176 543d
00000050: 77c2 503d dcd4 753d f728 45bd 64b3 99bd
00000060: 8f13 eebc ad06 7abd 8b8c 253d be2b 25bd
00000070: 0454 713d 873b 12bd eb6a 84bd 163b 203d
00000080: ae06 88bd b18c 5ebd 5232 d5bd e68b 1bbd
00000090: 94c9 1fbd d9c7 8e3d 3683 b23d 3615 d3bc
000000a0: af08 21bd aad8 72bd c14d 42bd c2e8 0a3d
000000b0: b7cc a03d 010c b83d d78f 9bbd 13b7 6fbd
000000c0: 5220 923d 8873 863c bac6 483d c812 6a3d
000000d0: caeb 75bd 843f 943d 6190 593d b8ed 56bd
000000e0: 60c7 89bd 4883 2dbd 1cd8 91bd 5772 ab3d
000000f0: 321c 2a3d 1eaf eabb cc62 4abc 06fe 983d
00000100: d9d1 943d 8382 95bd 9abd aabd 7e87 59bd
00000110: e16c 5bbd 0914 35bd 140f 5a3d 526a 903d
00000120: 70ba 72bd 6803 cbbd 4008 79bd 0dae 3dbd
00000130: 98e4 71bd 2397 a63d 963d dcbc 47f9 3c3d
00000140: 5ca8 45bd 4b85 84bd 8f27 423d ce87 9cbd
00000150: b45e 593d 50ae 8fbd 36b9 013d 0d46 c4bd
00000160: ec53 55bd 2d50 7ebd 1fa5 fbbc 8902 323d
00000170: 0f48 303d 2897 5fbd afbf 0c3d 4d2b 45bd
00000180: da5a 803d abf5 0ebd 18ef 7f3d 3796 543d
00000190: 92b3 98bd 7664 983d 68f9 ce3c 2128 1bbd
000001a0: 1868 363d d901 e4bc a247 bfbd 2742 3dbd
000001b0: 2b4f 47bd c4c4 0fbd 7015 41bd 699d 80bd
000001c0: 6146 58bd 6f39 723d 4840 b0bd cf86 a6bd
000001d0: 013e 6a3d 5ea8 cbbd adfc 7cbd d8c3 6d3d
000001e0: 328b 273d 23e5 373d 5106 50bd 7476 71bd
000001f0: ea85 00bd c20e 40bd 9539 983d 59e9 5dbd
00000200: 06d2 563d 012b 42bd 2137 173b 4932 953d
00000210: 3e8d 6bbd d327 57bd dfcd b5bd ae73 90bd
00000220: 1182 5dbd ffb0 1d3d a132 483d 21de 65bd
00000230: dab3 72bd c19d 8cbd 7eeb 7cbd 9241 5f3d
00000240: ffb0 9b3d 92b3 873d 8795 80bd e3c1 6cbd
00000250: cc5d d53c 002a 663d 7530 9f3d c256 0e3d
00000260: 090b 93bd af47 5c3d cdc4 653d fd5c 07bc
00000270: 4c61 6abd 5e59 6bbd 2533 4abd 49bc 353d
00000280: d694 ec3c 2f0a 70bd 5214 7cbd 017f ad3d
00000290: 65ef 983d 17cd 70bd 8c49 6ebd 9dcf 90bd
000002a0: c72a 92bd 7a1f 4bbd 91fa 213d ffcb 413d
000002b0: 3d45 6ebd 588b c0bd 3744 92bd 19ed 40bd
000002c0: dd76 57bd 7c28 d93d 244c 21bd 0efc 0c3d
000002d0: 5e64 81bd 9553 b3bd 656c d63c ca5e 98bd
000002e0: 53f3 973d 296d 96bd 6e85 973d 888a 81bd
000002f0: 581e 9fbd b427 86bd 6da3 99bd 0b7e a93d
00000300: 5f60 103d 665c 98bd 601b 813d 2ad4 aabd
00000310: 09b8 623d c2e8 54bd 9a9e ab3d 46c9 543d
00000320: 1870 8dbd 14f8 563d ef5d 4c3d 5783 96bd
00000330: d72f 2f3d 545f 93bd 6daa 4cbd 35ff 82bd
00000340: 2fad 88bc 35cb e3bc 33ee c3bd 1d43 92bd
00000350: 288c b1bd d429 c33d 15fb 0dbd 31d5 81bd
00000360: 01af 053d 5737 6ebd d29a 54bd fe32 cc3d
00000370: 94f2 743d 9f83 613d 40d7 5bbd d6ee 54bd
00000380: 0f1c 18bd 7ab8 23bd e753 013d 0818 3dbd
00000390: 8d53 603d ccd8 a6bd a89a a1bd 1f9c 863d
000003a0: e606 abbd 5cbc 6fbd 641f c0bd cb50 5fbd
000003b0: ec77 9dbd 1e98 413d 2c8f 853d 9fc9 54bd
000003c0: 1de3 f2bc 1697 4bbd f04d abbd bf92 923c
000003d0: 7f82 2c3d 3ac4 8e3d 9878 e9bc a790 66bd
000003e0: 479d 933d d151 9f3d 84ab 063d bae3 6f3d
000003f0: 0254 91bd 70a0 663d 9c66 653d 1a95 a0bd

fc.3.bias f4 [100]
-0.0052227564 -0.0064495164 -0.0043165674 0.01950317 0.013067297 0.017477663 0.013818136 -0.006151526
0.014526043 0.014923637 0.015245927 0.013661969 0.013040676 -0.005377437 0.015719997 -0.004322519
0.014459283 -0.0046378705 -0.0078012194 -0.006436475 0.017239349 0.015568231 -0.0076317713 0.012067921
0.013303086 -0.003265245 0.018774536 0.017647019 -0.007581497 -0.0047273533 0.01345287 0.015223738
0.015678057 -0.00680698 -0.0058347797 0.015081631 0.017814804 0.014728533 -0.008302667 -0.0051524285
-0.0078326 -0.0033543531 0.014755157 0.017789531 0.015595247 -0.0049864682 0.016565552 0.014947236
-0.003425299 0.014465776 -0.005451027 -0.007447433 0.014714946 -0.004230077 0.018882882 0.01469265
0.017775653 0.013492343 0.012791101 -0.0048730792 0.012133323 -0.0072513847 0.014180453 0.01693322
0.0161527 -0.0044927513 0.013007214 0.015924964 0.015125768 -0.006026789 -0.009143039 0.014135148
-0.0063636512 0.01969997 -0.0048461314 -0.0063385917 -0.00501426 -0.0025656892 -0.0070837117 0.020415125
-0.0070193694 -0.004691838 -0.0053570084 -0.0058713467 -0.00497883 -0.005108261 -0.005258659 -0.00539977
-0.003994148 0.016465759 -0.0074732644 -0.00429522 -0.006317441 -0.004566736 0.013214454 -0.0037186244
-0.006988025 0.012863148 0.014251828 0.016410122
00000000: a823 abbb 7756 d3bb fe71 8dbb 1dc5 9f3c
00000010: 3718 563c 512d 8f3c 7765 623c bd92 c9bb
00000020: a4fe 6d3c 4582 743c 0dca 793c 74d6 5f3c
00000030: 8fa8 553c 3635 b0bb 39c7 803c eba3 8dbb
00000040: a1e6 6c3c 47f9 97bb 5fa1 ffbb 11e9 d2bb
00000050: 8939 8d3c e511 7f3c f013 fabb 88b8 453c
00000060: 30f5 593c b8fd 55bb 0ecd 993c 7b90 903c
00000070: 356e f8bb eae7 9abb 6d69 5c3c fc6c 793c
00000080: 456f 803c 160d dfbb ae31 bfbb f218 773c
00000090: 5af0 913c f24f 713c e907 08bc b4d5 a8bb
000000a0: 4e54 00bc b5d4 5bbb 9dbf 713c 5abb 913c
000000b0: 3583 7f3c 8765 a3bb 7bb4 873c 40e5 743c
000000c0: fb7a 60bb dd01 6d3c 879e b2bb 9909 f4bb
000000d0: f516 713c 759c 8abb 46b0 9a3c 71b9 703c
000000e0: 3f9e 913c fd0e 5d3c c491 513c 5aae 9fbb
000000f0: d8ca 463c 069d edbb 2155 683c 89b7 8a3c
00000100: ab52 843c ee37 93bb 361c 553c 1275 823c
00000110: 12d2 773c 5f7c c5bb afcc 15bc 1c97 673c
00000120: 2d86 d0bb d561 a13c 4ccc 9ebb f6b3 cfbb
00000130: a94e a4bb 1f25 28bb 7b1e e8bb 9f3d a73c
00000140: bd02 e6bb fdbd 99bb d889 afbb 6d64 c0bb
00000150: 7425 a3bb 3363 a7bb d450 acbb 8ef0 b0bb
00000160: 58e1 82bb 33e3 863c 49e2 f4bb ebbe 8cbb
00000170: 8902 cfbb 8fa4 95bb 7081 583c 2ab4 73bb
00000180: cdfb e4bb f4bf 523c 8080 693c 856e 863c

fc.4.weight f4 [100, 100]
-0.08401097 -0.091923475 -0.070094176 0.075157106 0.11190027 0.14030395 0.0935044 -0.11923305
0.12754034 0.07217409 0.09294552 0.09691404 0.07317061 -0.072255045 0.10962165 -0.14688201
0.039066564 -0.06159698 -0.06962907 -0.069117725 0.06335867 0.1375044 -0.08525319 0.06036858
0.058715552 -0.0756265 0.10649173 0.09290982 -0.08569227 -0.07860879 0.08561573 0.07179708
0.070714764 -0.090081476 -0.091622464 0.122590736 0.10280381 0.08378864 -0.09627633 -0.123741455
-0.09189067 -0.085292734 0.07575182 0.03796479 0.10330808 -0.09896521 0.09336105 0.06850488
-0.113993004 0.06225784 -0.10599028 -0.047764733 0.06888224 -0.08237494 0.10230503 0.08271123
0.08112723 0.09197688 0.09298139 -0.089834295 0.11545417 -0.0909529 0.067052476 0.1306128
0.043985497 -0.058089066 0.087274246 0.08231145 0.07356648 -0.08624335 -0.052601624 0.092584334
-0.09539399 0.060475167 -0.09901632 -0.050378706 -0.0986974 -0.08834235 -0.088444605 0.13021056
-0.061010085 -0.086699545 -0.094430335 -0.076758556 -0.10004839 -0.07930173 -0.10924495 -0.094007164
-0.09777008 0.06150094 -0.08485563 -0.09204767 -0.065070875 -0.09761872 0.10884391 -0.047216807
-0.14080328 0.08496526 0.08627234 0.048477847 -0.053929552 -0.08097701 -0.08788732 0.09314368
0.097705 0.13507766 0.10982551 -0.052779112 0.11942993 0.08445903 0.11248912 0.108099476
0.08971411 -0.056803934 0.12343809 -0.111803114 0.09363073 -0.054824606 -0.09346316 -0.069378674
0.09688452 0.11963368 -0.07051148 0.10107389 0.1263406 -0.044168044 0.11930309 0.1051099
-0.058669772 -0.067963675 0.11464609 0.08084343 0.04089648 -0.069165565 -0.09114995 0.0751873
0.069394864 0.11882014 -0.09581735 -0.107540086 -0.077870965 -0.10141432 0.05387252 0.10813059
0.06275909 -0.060822666 0.11073938 0.1132019 -0.03855882 0.104837365 -0.06690741 -0.09955847
0.10600976 -0.10259531 0.08072091 0.11596462 0.089254886 0.06884217 0.10636431 -0.08109064
0.075365156 -0.06592674 0.06639882 0.06326858 0.09071641 -0.05693587 0.07669356 0.08972937
0.12187804 -0.09901928 -0.09239862 0.081282675 -0.10314695 0.09307774 -0.111687556 -0.047504283
-0.040264077 -0.092788026 -0.08296243 0.12889798 -0.062361598 -0.09648315 -0.059133187 -0.05965669
-0.08615453 -0.055585254 -0.07453088 -0.06780651 -0.067967795 0.076559074 -0.06517837 -0.08259651
-0.06724651 -0.05527449 0.08908991 -0.056468386 -0.09386076 0.1272604 0.08544331 0.111769915
0.0007582163 0.029521447 0.06700194 -0.0024474522 -0.006928513 0.008494204 -0.006506891 0.056112718
-0.040429033 -0.0007644236 -0.032194324 -0.030767249 -0.027947739 0.009562645 -0.027095439 0.0161297
-0.020536276 0.035395037 0.028280014 0.016177198 -0.022549272 0.021643147 0.043403253 0.018113526
-0.01771337 0.02672062 -0.020022666 -0.0160193 0.042345244 0.03595873 0.0059710443 -0.010214799
-0.03997023 0.015490263 0.06654077 -0.045364045 0.02501133 -0.020316482 -0.005046022 0.023930151
0.015537282 0.009925507 -0.0005700546 -0.03501816 -0.01624224 0.015685681 -0.018940171 0.005963872
0.05750191 -0.0012424582 0.042472363 0.054109618 -0.058473922 0.008715603 -0.030259987 -0.019839354
00000000: f20d acbd 6042 bcbd 898d 8fbd f8eb 993d
00000010: f82b e53d d7ab 0f3e 3c7f bf3d 7530 f4bd
00000020: ef99 023e 02d0 933d 395a be3d de7a c63d
00000030: 79da 953d 74fa 93bd 5181 e03d 3d68 16be
00000040: 4304 203d 1d4d 7cbd b099 8ebd 988d 8dbd
00000050: 31c2 813d f4cd 0c3e 3999 aebd 0b45 773d
00000060: b87f 703d 11e2 9abd 5618 da3d 8147 be3d
00000070: 6e7f afbd a5fd a0bd 4d57 af3d 590a 933d
00000080: e7d2 903d a37c b8bd 8fa4 bbbd da10 fb3d
00000090: ce8a d23d 6199 ab3d 862c c5bd 296c fdbd
000000a0: 2d31 bcbd f5ad aebd c523 9b3d f880 1b3d
000000b0: 3093 d33d 46ae cabd 1434 bf3d 494c 8c3d
000000c0: 2a75 e9bd 1402 7f3d 6f11 d9bd f4a4 43bd
000000d0: 2212 8d3d 31b4 a8bd 4d85 d13d 8164 a93d
000000e0: 0826 a63d 605e bc3d 076d be3d 0bfb b7bd
000000f0: 3c73 ec3d 8445 babd cf52 893d 5dbf 053e
00000100: 232a 343d cdee 6dbd d7bc b23d e892 a83d
00000110: 06aa 963d 5aa0 b0bd cd74 57bd db9c bd3d
00000120: ed5d c3bd cfb4 773d 12c9 cabd e759 4ebd
00000130: dd21 cabd d6ec b4bd 7222 b5bd eb55 053e
00000140: b6e5 79bd 888f b1bd b164 c1bd 9733 9dbd
00000150: 2ce6 ccbd f268 a2bd d1bb dfbd d486 c0bd
00000160: ae3b c8bd 69e8 7b3d cac8 adbd 7d83 bcbd
00000170: e143 85bd 53ec c7bd 8ee9 de3d 6966 41bd
00000180: bc2e 10be 4402 ae3d 8daf b03d b590 463d
00000190: 3ce5 5cbd 46d7 a5bd 44fe b3bd 1dc2 be3d
000001a0: 8f19 c83d cc51 0a3e 32ec e03d e92e 58bd
000001b0: ae97 f43d dbf8 ac3d b260 e63d 4263 dd3d
000001c0: 08bc b73d 3eab 68bd 1ccd fc3d 08f9 e4bd
000001d0: 78c1 bf3d c48f 60bd 9d69 bfbd 6816 8ebd
000001e0: 646b c63d 8102 f53d 5368 90bd d4ff ce3d
000001f0: 6e5f 013e 8de9 34bd 2e55 f43d dc43 d73d
00000200: b74f 70bd 8a30 8bbd 92cb ea3d 3d91 a53d
00000210: 1183 273d ada6 8dbd d3ac babd cdfb 993d
00000220: e51e 8e3d f957 f33d e33b c4bd fa3d dcbd
00000230: d07a 9fbd 50b2 cfbd 6ea9 5c3d 9273 dd3d
00000240: d687 803d 3021 79bd 54cb e23d 66d6 e73d
00000250: daef 1dbd f9b4 d63d c106 89bd 50e5 cbbd
00000260: a51b d93d 7d1d d2bd 0151 a53d dc7e ed3d
00000270: 44cb b63d 20fd 8c3d 88d5 d93d d912 a6bd
00000280: 0c59 9a3d 9904 87bd 1bfc 873d f592 813d
00000290: 86c9 b93d 9635 69bd 8311 9d3d 08c4 b73d
000002a0: 329b f93d 9fca cabd 7d3b bdbd 8877 a63d
000002b0: b53e d3bd 8b9f be3d 72bc e4bd da93 42bd
000002c0: f2eb 24bd a607 bebd 35e8 a9bd d5fd 033e
000002d0: e06e 7fbd f598 c5bd a435 72bd 935a 74bd
000002e0: c971 b0bd 5dad 63bd a5a3 98bd 24de 8abd
000002f0: b332 8bbd 01cb 9c3d 3d7c 85bd 5c28 a9bd
00000300: 8ab8 89bd 8167 62bd c574 b63d 654b 67bd
00000310: 123a c0bd 8d50 023e e7fc ae3d a0e7 e43d
00000320: 09c3 463a f6d6 f13c 5038 893d 6f65 20bb
00000330: 9408 e3bb 462b 0b3c c237 d5bb 73d6 653d
00000340: ea98 25bd 9963 48ba 32de 03bd 990b fcbc
00000350: a8f2 e4bc a4ac 1c3c 41f7 ddbc 6f22 843c
00000360: b13b a8bc 63fa 103d 7dab e73c 0b86 843c
00000370: 40b9 b8bc f84c b13c 9cc7 313d d162 943c
00000380: a11b 91bc 34e5 da3c 9306 a4bc e83a 83bc
00000390: 3572 2d3d 7649 133d c0a8 c33b f95b 27bc
000003a0: d3b7 23bd dfca 7d3c 8746 883d a6cf 39bd
000003b0: 90e4 cc3c c06e a6bc 1a59 a5bb 2a09 c43c
000003c0: 1690 7e3c 989e 223c b76f 15ba 346f 0fbd
000003d0: 720e 85bc 427f 803c 6b28 9bbc 966c c33b
000003e0: 1f87 6b3d fbd9 a2ba 80f7 2d3d 0ca2 5d3d
000003f0: 5a82 6fbd e3cb 0e3c cbe3 f7bc 2486 a2bc

fc.4.bias f4 [100]
-0.003367822 -0.0060935956 0.015531247 0.005972256 0.0147489775 0.010102076 0.0155496 -0.002848067
0.016223006 0.019908706 0.013762779 0.020567374 0.015777176 0.01291185 0.017234635 0.020653993
0.004593351 0.052308004 0.017262256 0.015716933 -0.0014389971 0.019725129 0.011661733 0.0057986034
0.017705364 0.016155489 0.01687391 0.015171226 0.04856434 0.0077980775 0.014430192 0.016881987
0.016019491 0.016072595 0.016610872 0.008276085 0.018881947 0.00033443235 0.011350392 0.051931247
0.004596617 0.0038448193 0.015348237 0.039436083 -0.006749531 0.017827582 0.059988387 0.0062435577
0.018663457 0.017476788 0.0031722812 0.019953405 0.004867608 0.017076233 0.019071246 0.009782616
0.017809782 -0.008453133 0.016537547 0.017402276 -0.017908249 -0.00018527603 0.01579401 0.0129484525
0.0153422775 0.01425429 0.015878046 0.0001609245 0.033980608 0.014827031 0.014789088 -0.02146569
0.019858832 0.017430313 -0.0111572 0.019194648 0.01894653 0.00049248413 0.021413993 0.017594472
0.03158341 0.014603452 0.014829806 -0.0023856927 0.016606454 0.015903493 0.0152883055 0.011843761
0.01944656 0.008043757 -0.015420808 -0.0077442504 0.017959043 -0.0022436045 0.014813842 -0.0018159111
0.017848102 0.0013141559 0.003219114 0.024886793
00000000: adb6 5cbb c9ac c7bb c576 7e3c eab2 c33b
00000010: b2a5 713c 2e83 253c c0c3 7e3c a3a6 3abb
00000020: 1ce6 843c 9517 a33c 477d 613c e97c a83c
00000030: 233f 813c 398c 533c a62f 8d3c 9032 a93c
00000040: d283 963b eb40 563d 9369 8d3c ccc0 803c
00000050: bb9c bcba 9896 a13c da10 3f3c 3602 be3b
00000060: d70a 913c 8458 843c 273b 8a3c bc90 783c
00000070: 67eb 463d 0487 ff3b 9d6c 6c3c 184c 8a3c
00000080: 4f3b 833c adaa 833c 8613 883c 6b98 073c
00000090: 50ae 9a3c c056 af39 fff6 393c dcb5 543d
000000a0: 389f 963b 5df9 7b3b 2c77 7b3c bb87 213d
000000b0: 2b2b ddbb 260b 923c 62b6 753d c296 cc3b
000000c0: 1be4 983c 7b2b 8f3c 0ce6 4f3b 5375 a33c
000000d0: 7580 9f3b 75e3 8b3c 4d3b 9c3c 4447 203c
000000e0: d2e5 913c 027f 0abc c079 873c 388f 8e3c
000000f0: 52b4 92bc a846 42b9 7162 813c bf25 543c
00000100: 2d5e 7b3c d38a 693c ad12 823c d7bd 2839
00000110: 402f 0b3d 13ed 723c ee4d 723c d1d8 afbc
00000120: fdae a23c 04ca 8e3c b0cc 36bc 183e 9d3c
00000130: c135 9b3c 0d1a 013a 666c af3c 4822 903c
00000140: 9b5d 013d 5143 6f3c b7f8 723c 4859 1cbb
00000150: 420a 883c 0b48 823c cd7b 7a3c 560c 423c
00000160: 644e 9f3c f6c9 033c 8fa7 7cbc 7bc3 fdbb
00000170: d81e 933c 7009 13bb c2b5 723c de03 eeba
00000180: 2f36 923c c13f ac3a c5f7 523b 63df cb3c
