results/Smoothed_MINE_dim20_reg1_alpha0.0.pt (torch, 403565 bytes, 13 tensors)

fc.0.weight f4 [100, 40]
00000000: 8674 9f3c d245 bcbc f85f 333d a527 4abd
00000010: 1791 4d3d 58d8 303d 1a38 0abc 40da ed3c
00000020: 9063 bbbc 2720 6c3c 0f0e b0bc db89 813c
00000030: 9097 cf3c 3407 bebb 8920 7dbb b95e 823d
00000040: bd4c c43c ed72 953b 80cf b53c 2ec1 923c
00000050: 3478 d53c ae16 bebc 6996 7e3d 6c54 1abd
00000060: 7649 533d 769a e53c db3a e63b 30c0 4f3d
00000070: b13c 16bd a81d 603c 8373 c5bc 893a 093c
00000080: e854 083d 4e8b aa3c 7678 6cbb 118b 683d
00000090: 797e b83c 633d 7cbc 5475 7e3c 694c d83c
000000a0: 1449 2d3b 7c24 753c 2433 54bd a8de 6cbb
000000b0: 0cb4 0f3d 7d18 3ebd f3f1 033d 9a0f b63b
000000c0: 6246 bdbc ac7f 103d d826 1cbd d739 23bd
000000d0: 6a50 4a3d 1e12 37bd 387c 27bd 7d41 cdbb
000000e0: d9e9 9a3b b0d3 d8bc f138 4ebd 9c56 f2bc
000000f0: 5def f33c bf14 863c 09ab 1fbd 715d c4ba
00000100: 1ad4 673d b0f4 2fbd 8c6e 823c 399e 54bb
00000110: d273 b8bc ef59 5a3d 5f38 30bd f879 5ebd
00000120: ad31 853d d2d4 a9bc e3db 1dbd fec6 d0bc
00000130: 1a09 b3bb 7483 0b3c 30b3 5abd d555 cabc
00000140: 14c6 07bd 5da5 9f3b 21ba 5a3b 6b71 063d
00000150: 6e67 3a3d 1bdc dabc 7da1 5bbd 588d 17bd
00000160: ff79 743c e324 ba3d 1308 ac3c 9c81 34bd
00000170: fa74 73bc b96f 653c 9b74 843c c7bb 7f3d
00000180: 87e4 2cbc 6178 c23b 0363 8b3c 9df8 1fbc
00000190: bd67 2fbd 1b01 ad3c fb84 ad3c 9695 df3c
000001a0: 320b 913d 3934 0fbd d2e4 47bd 1b39 febc
000001b0: 307b 5bbc 35cd b53d 48fd 243d b5fb 2abd
000001c0: 944a abb9 99ad e53c 02ec e33c 7777 703d
000001d0: 7ee9 dfbc 0bfd f73b 5488 75b9 e1e1 e0bc
000001e0: c076 d939 8891 453c 604b 15bd 1a9a 76bc
000001f0: f7e9 803d e0e4 513d ac88 013d 4b26 02bc
00000200: 6a4b 0c3d 5689 98bc b6c1 eabc 51f8 9e3c
00000210: 4457 dfbc 2657 e9bc 6d0f 133d 7fd4 e83c
00000220: bebe 583d 94a5 0cbd 6568 12bd 36d5 9a3c
00000230: 2dc2 8dbb d995 c33c ed02 d9bc 5578 f2bc
00000240: ea04 1b3d 5034 463d 751b 193d 2d47 1dbb
00000250: 79e6 f43c 4a26 cdbc 7d69 8cbc 0dc4 bf3b
00000260: c6e9 4e3c d789 eebc 3ca3 333d 571e e73c
00000270: a6e4 2e3d c0d1 05bd ebdb ccbc 33ff 20bc
00000280: 6124 b53c 549c a4bc 93c5 d5bc 5d9f 963d
00000290: 396f edbb d26b 283d 6d0b d7bc faf9 323d
000002a0: d20d 13bc 46d0 74bd 9e40 7f3c 662a e4bc
000002b0: 6bc6 9d3c 9f10 51bd 747c e03c 29fe 843d
000002c0: c0a3 113d 4f09 44bd b26a f6bb a99a e6bb
000002d0: 6e64 e93c d12a b63b 1489 96bc 45cd 8b3d
000002e0: e843 d53b 5602 ae3c 403c 95bc 9966 643d
000002f0: c820 49bb d601 52bd 1cc0 b63b 3909 1cbd
00000300: b681 5d3d 829f 08bd d023 193d 44c7 8e3d
00000310: 69b2 fc3c 04ca 2fbd a04b 123a e45f 9bbc
00000320: fadb b6bb 03ae 843c 9bad cb3b 6557 093d
00000330: 9a28 07bb 12fd 973c 2e58 3f3d 6b17 1a3d
00000340: 85ea d33b 83ca 80bb eb22 89bd aed6 88bc
00000350: 125d 4d3d 0295 563d cec2 1ebd d071 643d
00000360: 4cfc b3bb 4040 793d ff88 293d 9e0b b63c
00000370: d31c bb3c 1953 aebc ae25 b7bc 435d 41bd
00000380: 749f aa3c cc9f fabc 4205 34bd 454e 70bc
00000390: 0d0f c0bc a621 9a3c cecd 7c3d 9f67 aa3c
000003a0: f578 68bd 87b5 8cbd 3f59 173d 0329 57bd
000003b0: 6700 583c 4ed0 1bbd 066f 26bd cb4c d7bc
000003c0: d48c f53a 77db b3bc be8e bebc 7799 c83b
000003d0: 2e29 e83a 7071 b63c d7b3 e53b f507 83bb
000003e0: 9e8c adbc 3467 debb 9487 56bb f33a 133c
000003f0: cb50 bebc 68a2 743c 61c6 3bba 0946 11bb
0.019464742 -0.022982512 0.043792695 -0.049354214 0.050187197 0.04317507 -0.008436227 0.029034734
-0.022874624 0.014411963 -0.021491079 0.015812805 0.025340825 -0.0057991985 -0.0038624129 0.06365723
0.023962373 0.0045608194 0.02219367 0.01791438 0.026058294 -0.023204174 0.06215516 -0.037678167
0.05158373 0.028027754 0.007026059 0.050720394 -0.036678974 0.013678946 -0.024102932 0.008375772
0.033284098 0.020818379 -0.0036082543 0.05677325 0.022521244 -0.015395495 0.015530903 0.026403623
0.0026441263 0.014962312 -0.051806584 -0.0036143456 0.035083815 -0.046410073 0.032213163 0.005556059
-0.02310485 0.035278007 -0.03812298 -0.039850082 0.049393095 -0.044695012 -0.04088995 -0.0062639103
0.004727584 -0.026468128 -0.050347272 -0.029582314 0.029777223 0.016367314 -0.03898147 -0.0014981461
0.05659876 -0.04295796 0.015921853 -0.003244294 -0.022516165 0.053308424 -0.04302251 -0.054315537
0.065036155 -0.020731363 -0.03853978 -0.025485512 -0.0054637315 0.008515228 -0.053393543 -0.024699131
-0.033147886 0.0048720078 0.0033375102 0.032823008 0.045508794 -0.026716283 -0.053620804 -0.03700003
0.014921664 0.09089067 0.020999944 -0.044068918 -0.014859432 0.014003688 0.016168883 0.062434938
-0.010552532 0.0059347604 0.017014986 -0.009763864 -0.042823542 0.021118691 0.021181574 0.027293008
0.070822135 -0.034961913 -0.048802204 -0.03103309 -0.013396069 0.08877031 0.04028061 -0.041743953
-0.00032671227 0.02803688 0.027822498 0.05870768 -0.027333017 0.007568007 -0.00023415807 -0.027451457
0.0004147794 0.012058623 -0.036448836 -0.015051389 0.06294625 0.051243663 0.03162448 -0.0079437
0.034251608 -0.018620174 -0.028656822 0.019405516 -0.027263291 -0.028483938 0.035903383 0.028421639
0.05291628 -0.034337595 -0.03574409 0.018900495 -0.004326126 0.023875164 -0.026490653 -0.029598394
0.037846483 0.048389733 0.0373797 -0.0023998723 0.029895054 -0.025042672 -0.017140144 0.0058522285
0.012628978 -0.029118462 0.043856844 0.02821271 0.042698525 -0.032670736 -0.025007209 -0.009826469
0.022112073 -0.020094074 -0.026095187 0.07354615 -0.007245925 0.04111845 -0.026250565 0.043695427
-0.008975463 -0.059768938 0.015579371 -0.027852248 0.019259652 -0.05104124 0.027403094 0.0649379
0.035556555 -0.04786044 -0.0075200433 -0.00703748 0.028490271 0.0055593033 -0.01837591 0.068262614
0.006508339 0.021241348 -0.018217206 0.055761907 -0.0030689705 -0.051271282 0.0055771004 -0.038094733
0.05407878 -0.033355244 0.03738767 0.06971601 0.030846791 -0.042917266 0.0005580727 -0.018966623
-0.0055804225 0.016196257 0.0062157637 0.03353061 -0.0020623566 0.01855329 0.046714954 0.03761999
0.006467166 -0.0039303913 -0.06696113 -0.01670393 0.050137587 0.0523882 -0.03876 0.055772603
-0.0054927226 0.06085229 0.041390415 0.022222336 0.022840893 -0.021279858 -0.022356834 -0.047208082
0.020827986 -0.030593775 -0.043950327 -0.014667098 -0.023444677 0.018814873 0.06171971 0.020801364
-0.05675598 -0.06870561 0.036950346 -0.052529346 0.01318369 -0.03804045 -0.040633224 -0.026281735
0.0018733987 -0.021955235 -0.023261424 0.00612181 0.0017712468 0.022270888 0.007009964 -0.0039987513
-0.021185216 -0.006787205 -0.003273462 0.008986223 -0.023231884 0.014931299 -0.00071630446 -0.0022166988

fc.0.bias f4 [100]
00000000: 3518 9dbd 70f4 91bd 8ad5 9fbd f294 89bd
00000010: 0cbc 8cbd 374e 0a3c 93ec 54bc 7fcf 94bd
00000020: d4f7 0fbd 98e8 cebd 48fe a4bd 3445 93bd
00000030: f997 403c a9e2 a8bd ebe8 95bd 1f13 d5bd
00000040: dfb7 a4bb 181f e03b 18d6 87bd d0cc bfba
00000050: a060 903c ea49 9fbd e4f2 593c bf26 053c
00000060: dc65 9abd e022 233c 736a dfbc 2966 a33b
00000070: 4c31 063b c0a8 96bd 5249 4d3b 5aad 453c
00000080: 5c53 48bd f356 5b3a 3f72 84bd 9146 92bd
00000090: 7978 a2bd 18fb 8fbd 7204 c73c 6bb6 a6bd
000000a0: 45eb 45bd 2fbc 3bbb e0cd 97bd d33c 533c
000000b0: ba07 d0ba d405 9d3b bc58 7abd df9f 173c
000000c0: 7a5c 90bd 2678 2b3d 3291 97bd 7856 b2bc
000000d0: 31ae 90bd 5a34 f8bc 0674 3e3b 1236 a4bc
000000e0: bc3b 0dba 9a7a 2539 5106 ab3a 4fc1 aabd
000000f0: 7c86 95bd 31a9 9abd 76a8 5fbd 4cc7 8cbd
00000100: dc9d 033c b641 8fbd 0fdd 9cbd deb6 8fbd
00000110: c1d0 5e3d af46 90bd 83af 99bd 5737 a0bd
00000120: 83fb 97bd 5d2d 5bbd 2e89 be3c 62cf 97bd
00000130: 2686 903a 2cba 99bd ddc5 7cbd bc89 233c
00000140: b6a2 b13b ed53 0dbd 251f 5a39 4540 95b9
00000150: 8bd7 ec3c ab93 c0bd 4c61 a8bd fb9e 93bd
00000160: ae30 b63b 09b1 bebd 81b0 96bd 39a3 003c
00000170: 135b 623c 4b86 96bd 5022 93bd cfff d1bc
00000180: 19c4 723c 881f a5bd 274c 34bd 9107 3d3c
-0.07670633 -0.07126701 -0.07804401 -0.06717862 -0.068718046 0.008441499 -0.012995857 -0.07266139
-0.035148457 -0.101029575 -0.08056313 -0.07190934 0.011754983 -0.08246357 -0.07319816 -0.10404038
-0.005026802 0.006839644 -0.06632632 -0.0014633182 0.0176242 -0.0777777 0.013302539 0.008126914
-0.075389594 0.009957045 -0.027272439 0.0049865437 0.002047616 -0.07356405 0.003132422 0.012065256
-0.048907623 0.00083671435 -0.06467103 -0.07142366 -0.079331346 -0.07030314 0.024294112 -0.08140262
-0.048320074 -0.0028646102 -0.074123144 0.01289292 -0.0015871443 0.0047919545 -0.06111978 0.009254425
-0.070488885 0.04186263 -0.07400741 -0.021769747 -0.070644744 -0.0302984 0.0029060855 -0.020045314
-0.0005387624 0.00015781299 0.0013048147 -0.08337652 -0.073010415 -0.07551802 -0.054604016 -0.0687395
0.008033242 -0.06994955 -0.07659351 -0.07017301 0.054398302 -0.07044732 -0.07504179 -0.07823055
-0.07421019 -0.05351006 0.023258772 -0.07412602 0.0011026307 -0.075062126 -0.061712135 0.009981569
0.005421008 -0.034503866 0.00020801702 -0.0002846738 0.028911373 -0.094031654 -0.08221683 -0.072080575
0.0055600023 -0.093111105 -0.07357884 0.007851415 0.013815659 -0.07349833 -0.07184279 -0.025634674
0.014817261 -0.08062655 -0.044017937 0.0115374485

fc.1.weight f4 [100, 100]
00000000: 0ea2 f9bc d199 41bc 9438 13bb 5200 91bc
00000010: c1a0 d1bc 86a6 8b3d 6560 dabc 9b09 0dbd
00000020: c395 ee3b 92e5 5ebc 1134 86bd 4116 55bc
00000030: 0cbf 933c 748f 13bc 7a7f 79bd 4a58 32bc
00000040: 78f7 5e3d 05bd 8f3d dc70 a8bc a0c1 c83c
00000050: 5daa 9d3c 101a f4b9 97c8 a53d 4cbb 903d
00000060: 2c2d 6dbc ce60 e93c c26c 2eba c851 573d
00000070: cb56 a93d e033 0fbd c448 233d 4079 913c
00000080: 2809 8cb9 f5af c43c dfec b53c c034 b1bc
00000090: d0ca 36bd c3af d7bb 99d3 b43c 7805 e0bc
000000a0: 8ed8 5f3d f466 1b3d 7feb 5cbd f894 273d
000000b0: cff5 963d 0c16 743d 7f4e 97bc 9d5b bb39
000000c0: b6dc a93c d052 0cbc c068 de3b b8ed 443c
000000d0: 77bd 8a3b ca16 e43c 8f30 d33c ad54 3cbc
000000e0: 8d4e fe3c c03b 373c b41d 833d 84f0 12bd
000000f0: b94a 7c3c 9f21 46bc 1beb 2d3c e0a1 1a39
00000100: 8366 f93c db6b c5ba 4d81 e3bc a614 16bb
00000110: b06d cbbb b191 4abc d0e7 f1bc d130 b4bc
00000120: b50f 6cbb 67d6 a13c e649 f0bb 2653 43bc
00000130: 29af 503d 9d9f c8bc 0b97 a0bc 95a8 8a3d
00000140: f054 963d 28db 453c b376 f93d 2707 b53d
00000150: eea4 be3b 1296 cabc 0a43 00bc ee25 2abc
00000160: c0c1 2c3d b92f 95bc 1bdd 5bbc 0dd1 133d
00000170: 4afc 143d 4c37 5abd 8086 a2bb 4239 333c
00000180: d5b0 9c3d da26 16bd f228 263c fc2d 7a3d
00000190: 70d5 e53c 2e05 3d3c 534a 853b a61d c03c
000001a0: 9621 cd3c 9617 74bd 46ba f33a 1b24 c43c
000001b0: 7349 0c3d a484 7b3c e214 843c 471b b53c
000001c0: 9ce4 01bd 9390 0e3d 618a 35bc 05de 30bc
000001d0: 2b5b 79bd c491 7dbd 0ef5 60bb 9085 2fbd
000001e0: cfd6 063d 07ca 6aba 7ee0 7abd 14fa 80bd
000001f0: 7d45 c73c 77a2 45bd 4934 b9bb 8856 22bd
00000200: a133 8ebd acbf 0e3b f0e8 1dbc bb77 683c
00000210: 48db c2bc 7b92 e63b 42d9 a73c fd13 273d
00000220: e7af 133d 08a8 803c 6c97 1fbd c3eb d63c
00000230: 2fc0 bf3c 5e0c 8cbd fe79 173d c3b0 93bd
00000240: 1dc7 46bd 7b37 25bd a052 673c d20e 13bd
00000250: 5fe7 313d a4f2 f0bc 9d2f bebb 8009 ba3c
00000260: fe55 913c 45bd 02bc 20fa c0bc 6ab2 87bc
00000270: 97d6 6cbd c6f9 dcbc 1180 8cbd 441d ed3c
00000280: 5e40 7b3d 3bfd a43b 7dea 563c 2175 3a3d
00000290: 6a89 8bbd 3a39 1c3d c9ea 233c 1443 173d
000002a0: 5bdc caba 031d a53b d5b7 b3bc 13c8 de3c
000002b0: a687 1a3c 99e5 a63c cb4b a0bc 3fba 053d
000002c0: b14b 9fbd 22df 933c 5231 3d3c d3fa 80bd
000002d0: 7a8e 01bb 466a 8f3c b05d c0bd 1b47 90bd
000002e0: 2c19 c9bb 9bba eebc 3f31 603c 98ec 5f3d
000002f0: d35c 50bd 2460 d53c 0595 c5bb 45f9 203b
00000300: 8d43 18bd b09e 423b f566 883c a668 833c
00000310: 582d 95bd a091 6a3a d8ad b33c 6ce2 c6bd
00000320: 97cc 853c a788 debb 5b56 c1bc 46ca 463b
00000330: 79a3 543c e061 1cbd 23eb 5bbc 7190 363c
00000340: 2814 b23c 4767 21bc 3183 863d b365 86bb
00000350: 62a1 53bc fe54 a8bb 31a4 f23c 862b d83b
00000360: c2fe 82bd 05cc 1fbd 135c a73c 1b03 57bd
00000370: f022 f63c 3917 a03c 598c a7bd d27a 16bd
00000380: c85a e13c 627b 22bd 5ffe 133c 6c6a 3cbd
00000390: ae59 6dbd 71b9 0f3d df85 033b b42d 1f3c
000003a0: 2bba b9bb 58c3 9ebc 3b66 803c ff19 583d
000003b0: 6159 2f3d db28 be3b bc1a 583b 1ff9 283d
000003c0: 1c27 5dbc ae16 61bd b462 4b3d afe8 8bbd
000003d0: 6f73 84bd fcd3 7cbd 2e6b 0c3b 76da 00bd
000003e0: fe29 403d ee54 c6bc 366a 2fbc 656c ae3c
000003f0: 0e6e 5a3d 4dba 5d3a 9b1a 793b 6347 f73c
-0.030472782 -0.011816458 -0.0022464143 -0.017700348 -0.025589349 0.06818871 -0.026657293 -0.03443299
0.0072810366 -0.0136045385 -0.065529 -0.013005794 0.018035434 -0.00900637 -0.060912587 -0.010885308
0.054435223 0.070184745 -0.020561628 0.02450639 0.019246275 -0.00046558725 0.080949 0.07066974
-0.014476102 0.028488543 -0.00066537794 0.052568227 0.082685076 -0.03496158 0.039864317 0.017758012
-0.00026709703 0.024009684 0.022207676 -0.021631598 -0.04462701 -0.0065822317 0.022073554 -0.027346358
0.054649882 0.03793998 -0.053935524 0.040913552 0.07371103 0.059591338 -0.018470047 0.00035735677
0.020735126 -0.008564666 0.0067873895 0.012019567 0.0042340118 0.027842898 0.02577999 -0.011494798
0.031043315 0.011183679 0.0640215 -0.035873905 0.015398675 -0.012092977 0.010615136 0.00014746888
0.03044439 -0.0015062051 -0.027771616 -0.002290049 -0.006208144 -0.012363837 -0.029529482 -0.021995934
-0.0036020104 0.019755555 -0.007333028 -0.01192168 0.050948296 -0.024490172 -0.019603273 0.06770436
0.07340419 0.012076177 0.12180843 0.08839255 0.005818001 -0.024729762 -0.007828483 -0.01038502
0.042176962 -0.018211232 -0.013419415 0.03608804 0.036373414 -0.05327539 -0.0049598813 0.010938944
0.076509155 -0.036658145 0.010141598 0.06107901 0.028055876 0.011536879 0.004067698 0.023451637
0.02504043 -0.059592806 0.0018594943 0.023942998 0.034249734 0.015351448 0.016123239 0.022107733
-0.03171216 0.034805845 -0.011080355 -0.010795121 -0.06087796 -0.06190659 -0.0034325751 -0.042851985
0.0329197 -0.0008956496 -0.06124925 -0.062976986 0.024325127 -0.04825064 -0.005651985 -0.039633304
-0.06943441 0.0021781726 -0.009638056 0.014188702 -0.023786202 0.007036505 0.020489339 0.040790547
0.036056425 0.015705124 -0.038962767 0.026235467 0.02340707 -0.06838296 0.036981575 -0.07211449
-0.048529733 -0.040336113 0.01411882 -0.035902806 0.043433543 -0.029412575 -0.005804016 0.022709608
0.0177412 -0.007979696 -0.023556769 -0.016564567 -0.057821836 -0.02697457 -0.06860364 0.028944619
0.061340682 0.0050350702 0.01311743 0.04552186 -0.06813319 0.038140513 0.010004708 0.036929205
-0.0015477048 0.005038859 -0.021938244 0.027195012 0.009431755 0.020373153 -0.01956739 0.03264832
-0.07778109 0.018050734 0.011547403 -0.06297841 -0.001976876 0.01750673 -0.093928695 -0.07044812
-0.006137034 -0.029141715 0.013683616 0.054668993 -0.050869774 0.02604682 -0.0060297274 0.0024562639
-0.037173796 0.0029696636 0.016650656 0.016041111 -0.07284039 0.00089480914 0.021933481 -0.09711155
0.016332908 -0.0067911926 -0.023600748 0.0030332967 0.012978428 -0.03817928 -0.01342276 0.011142836
0.021738127 -0.009851283 0.065679915 -0.004101479 -0.012916895 -0.005137085 0.029619308 0.0065969853
-0.063962474 -0.039012928 0.020429647 -0.052493196 0.030045956 0.019542323 -0.08181066 -0.036738224
0.027509108 -0.03966845 0.009032815 -0.04599993 -0.057946853 0.03508896 0.0020068807 0.009715486
-0.005667945 -0.019380257 0.015673747 0.052759167 0.042809848 0.00580321 0.003297492 0.041253205
-0.013498094 -0.05495327 0.049654678 -0.0683149 -0.0646733 -0.0617256 0.0021426189 -0.03145834
0.046915047 -0.02421042 -0.010706475 0.02129192 0.053327613 0.0008458242 0.0038010243 0.030185407

fc.1.bias f4 [100]
00000000: 568b 613d 1a01 60bd e035 70bd df92 72bd
00000010: e968 86bd 7214 4a3d e024 94bd bbb2 a1bd
00000020: 5619 563d 519b a53d b625 72bd 6253 583d
00000030: bcfe 7abd 8fe9 79bd 75e0 403d 19fe 5c3d
00000040: 5292 443d d272 663d ae54 3f3d a189 433d
00000050: 761b 823d 38b3 85bd 0faf 4bbd 4f3e 4a3d
00000060: b7f3 403d 467f 653d 7e5e 5ebd 22f1 1c3d
00000070: bec5 76bd 9522 3c3d 2622 84bd 9922 393d
00000080: 0ea7 6dbd f50f 5fbd 719d 813d 2c48 80bd
00000090: 2d3c 65bd a018 643d 43b7 55bd 21dd 58bd
000000a0: 1a64 363d 10ec 553d c673 473d c691 6a3d
000000b0: 437b 5fbd 0e46 493d 0271 4fbd 8787 243d
000000c0: 15e4 94bd eb47 77bd c722 a2bd 752f 6fbd
000000d0: 1f5c b33d 685c 513d 5320 57bd bad5 63bd
000000e0: 4652 5f3d 4cdd 523d 14ad 65bd 6a78 78bd
000000f0: e87b 66bd 94a5 74bd db43 6dbd 4e60 89bd
00000100: 2809 70bd b3bd 563d 5a6f 6a3d ddac 81bd
00000110: 1744 5e3d c65b 72bd 8163 453d e6d3 79bd
00000120: 59f1 67bd 70ac 373d 6563 4b3d 0b56 403d
00000130: 2b90 52bd 1bcb 413d 0dd2 70bd 2bc1 5dbd
00000140: 03bd 5ebd a352 533d 711f 6a3d af67 c53d
00000150: ba08 64bd 408c 493d 1818 a3bd c0e8 543d
00000160: b495 493d 32ba 5fbd 42ab 70bd 6c0a 5f3d
00000170: 8c4e 6abd ee31 933d bebf 4bbd 0a59 2e3d
00000180: fc22 643d aca7 393d 5f5a 393d df7b 2f3d
0.05506452 -0.05468855 -0.05864513 -0.0592221 -0.06562979 0.049335904 -0.07233596 -0.07895418
0.052270256 0.08086265 -0.059117995 0.052813895 -0.06127809 -0.061013754 0.04708906 0.053953264
0.047991104 0.056261845 0.046711616 0.047738675 0.06352894 -0.06528324 -0.049727496 0.04937583
0.047107425 0.05602958 -0.054289334 0.0383159 -0.060247175 0.045931417 -0.06451826 0.04519901
-0.058020644 -0.054458577 0.06328858 -0.06263766 -0.05596559 0.055687547 -0.052176725 -0.05294526
0.044529058 0.05222708 0.048694395 0.057267927 -0.05456091 0.049139075 -0.050644882 0.04016831
-0.07270066 -0.06037132 -0.079167895 -0.058394868 0.08757805 0.051113516 -0.05252106 -0.055623747
0.05452182 0.051480576 -0.056073263 -0.06066171 -0.05627051 -0.05972822 -0.05792604 -0.06707822
-0.058602482 0.052427005 0.0572351 -0.06331799 0.054264154 -0.059169553 0.048190597 -0.060993098
-0.05662665 0.044842184 0.049655337 0.046957057 -0.05140702 0.047312837 -0.05879407 -0.054139297
-0.054379474 0.05159248 0.05715889 0.09638917 -0.055672385 0.04920602 -0.0796358 0.05197978
0.049215034 -0.05462093 -0.058757074 0.0544533 -0.057203814 0.07187258 -0.049743406 0.042565383
0.055697426 0.04532592 0.0452522 0.042842742

fc.2.weight f4 [100, 100]
00000000: e1a9 a33d 5e6b 0dbd 2e61 7fbd 35c7 16bd
00000010: 23d1 21bd 14fe 483d 4667 d3bc ba1f 80bd
00000020: 8411 153d 498e 6e3d 7632 8dbd 7322 cb3c
00000030: 96d6 6abd a0cb 90bd 6c9c 8e3d b526 ac3d
00000040: 7be0 8c3d 9e4c 893d 96be ae3d 9dc3 773d
00000050: bdf5 21ba 859f c3bd 507f 76bc b447 0e3d
00000060: 1d71 2e3d ece0 123d 7bbf e3bd d10b 1f3d
00000070: 171a 3ebd b72a ad3d c677 84bd 0407 913d
00000080: 169f 96bd c93a 80bd caab 973d bbbf 24bd
00000090: 2b93 68bd 1eca 6f3d 9208 0fbd 2426 acbd
000000a0: 9554 003d 4181 b83d e24c 843d 425a 2f3d
000000b0: 3a95 d6bd 6625 543d 52d8 19bd 8703 1d3d
000000c0: f7fb 98bd f13b 92bd 9259 4bbd 118b 28bd
000000d0: 354e 223d b72c a43d ac66 04bd bb61 7dbd
000000e0: d40c 833d f8fa a33d 0546 7ebd 3bf3 9fbd
000000f0: 99fd 68bd 7323 82bd 04e1 ca3b 3745 35bd
00000100: 6b62 86bd 0f0a c33c a425 093d 506b 80bd
00000110: 7bd2 533d 9dc3 14bd 760e d03d b2ba 89bd
00000120: 8f42 d4bd 0da6 013d 4a5c b83c 7bec 4c3c
00000130: 1141 b9bc b470 5f3d 194d afbd ff83 84bd
00000140: b52d e1bb 3a58 393d b62c 953d 4967 453d
00000150: 7ed6 75bd 711c bf3d 3ef2 95bd e878 353d
00000160: 3b99 603d 933c bbbb e4b4 f4bc d584 883d
00000170: b1de 88bd f6d1 833d baa1 16bd 9a7b 303d
00000180: 029e 853d 4d44 273d 3964 e93c 6292 e23c
00000190: 4fd7 b5bd dd97 863d be57 5f3c 0aa7 953d
000001a0: 52b0 2a3d 10a3 9cbd 47cf 613d cf4c 0e3d
000001b0: c19f 77bd 0a9e 41bd 0f41 5b3d 724c 5ebd
000001c0: f9d7 863d bb06 3c3d e939 d4bd d678 97bd
000001d0: 2951 0ebd 5e61 c2bc 8b53 80bd 08cc 14bd
000001e0: ad7d 72bd c62b 5e3d 61c8 2f3d b0ad 11bd
000001f0: 9400 a8bd 95a0 c9bd 66d9 653d 4f35 88bd
00000200: ce74 bb3c 53e4 0ebd 2658 023d 8909 b8bd
00000210: 0035 5b3d 54bd 2b3d f3b8 9abd 2faa 283d
00000220: d92e ce3d 6ce3 99bd ae10 ab3c 448e 983d
00000230: 3f0e babd a691 78bd 9c79 84bd 4148 20bd
00000240: 6986 9f3d b8a6 4bbd b646 853d 5a6d a4bd
00000250: 85df 633d 744c 363d 9c33 283d 2ad2 8d3d
00000260: 898b 66bb ae17 bfbd 242e 993c 244a 873d
00000270: 7295 87bd cc73 86bd b948 be3d 233d 9a3c
00000280: 5077 a43c 0784 803c fb1d 403d fd4a 6a3d
00000290: eddc cc3d bfbd 5dbd 6e88 84bd adc2 863d
000002a0: 8085 2ebd ff18 583d 4965 9bbd 2131 f83c
000002b0: 8816 273d f29e 25bd 4e5a 41bd 2f73 57bd
000002c0: 76ac c63c 4846 2bbd 28ee f23c 3373 2c3d
000002d0: e704 5b3d 396e 92bd ce21 9bbd 4542 e6ba
000002e0: c385 7b3d 4455 00bd a0a7 5d3d 5b4b 62bd
000002f0: 05a8 7fbd 933a 7c3d ba0e 9b3d 0996 91bd
00000300: 1f9e 713d 4342 99bd ebda 033d 0335 5abd
00000310: 1435 89bd c8af a5bd 69ff bcbd 00e6 c0bd
00000320: 899f 8dbd b82e 333d 13b3 893d 4a1e 973d
00000330: 2aa1 453d 9bc6 ddbc 3af0 963d c420 c73d
00000340: 1de1 0ebc b023 0dbd e1c1 733d e778 55bd
00000350: 69a7 873d 46ef 983d 8e98 83bd 2f67 51bd
00000360: a0e6 81bd 36af 92bb ce2e c3bc 0efa 3ebd
00000370: 840d 68bd 0286 8d3d ba55 773c 2bb9 aebc
00000380: 08bd 92bc 1b78 9fbd 431d aa3d cfd7 19bd
00000390: a9d9 733d 2949 43bd f236 bb3d fd05 99bd
000003a0: 3466 473d 9b48 cf3c fc9e 8cbd dff4 753d
000003b0: 6a41 4a3d ae19 d2bd 66c2 823c d71c 9e3b
000003c0: 1836 09bd 8795 00bd 1bb1 5fbd 38cd 04bd
000003d0: bd5e 4e3d 8bf4 e7bd 0222 e7bb 557c abbc
000003e0: acb2 443d 76b9 9f3d ee4b 283d dc4f af3d
000003f0: 54d2 37bd acc4 acbd 9f49 493d ce5b 873d
0.07991386 -0.03452622 -0.062348537 -0.036811072 -0.03950609 0.049070433 -0.02580608 -0.06256051
0.036393657 0.058241162 -0.0689439 0.0247967 -0.05733355 -0.070700884 0.06963429 0.0840582
0.06878754 0.06704067 0.08532445 0.060489286 -0.00061782805 -0.0955191 -0.015045002 0.03473635
0.042588342 0.035859033 -0.111205064 0.03882963 -0.0464116 0.08455413 -0.064681575 0.07081416
-0.07354562 -0.062612124 0.07405813 -0.04022191 -0.056780975 0.058542363 -0.034920283 -0.08405712
0.031330664 0.09009028 0.06459977 0.042810686 -0.104776815 0.05179348 -0.037559815 0.038333442
-0.074699335 -0.07140339 -0.049645968 -0.04114825 0.039625365 0.08016341 -0.032324478 -0.06186078
0.06398931 0.08006853 -0.062078495 -0.078100644 -0.056882475 -0.06354418 0.0061913747 -0.04425546
-0.065617405 0.023808507 0.033483163 -0.06270468 0.0517144 -0.036319364 0.10159008 -0.067250624
-0.103642575 0.0316525 0.022504944 0.012507553 -0.022614034 0.05455084 -0.08559627 -0.06470489
-0.006871904 0.045250155 0.072839186 0.048194204 -0.06001901 0.09331597 -0.07321595 0.04430476
0.054833632 -0.005714008 -0.029871412 0.06665961 -0.066831 0.06436531 -0.03677533 0.043086626
0.06524278 0.04083662 0.028490173 0.027657691 -0.088789575 0.06571934 0.013631759 0.07307251
0.04167206 -0.07648289 0.055129316 0.03474122 -0.060455088 -0.04726986 0.05352884 -0.054272123
0.06584162 0.045904856 -0.10362608 -0.073960945 -0.03474537 -0.023728069 -0.062659346 -0.036327392
-0.059201885 0.054240964 0.042915706 -0.035566032 -0.08203235 -0.09845082 0.05611553 -0.06650793
0.022882845 -0.034885716 0.031822346 -0.08986194 0.05351734 0.041928604 -0.075548075 0.041177925
0.10067529 -0.075140804 0.020881977 0.0744901 -0.090847485 -0.060685776 -0.06468508 -0.039131407
0.077893086 -0.049719542 0.06507628 -0.0802867 0.055633087 0.044506505 0.041064844 0.06924851
-0.0035178384 -0.093306884 0.01869876 0.06605938 -0.06620301 -0.06565055 0.092912145 0.01882798
0.020076424 0.015687956 0.04690359 0.05720042 0.10003076 -0.054136034 -0.064713344 0.065801
-0.042607784 0.052758213 -0.07587678 0.030296864 0.04079297 -0.040434785 -0.047205262 -0.052600082
0.024252158 -0.041815072 0.029654577 0.04210205 0.053471472 -0.071499296 -0.07574807 -0.0017567357
0.061406862 -0.031331316 0.054114938 -0.055247646 -0.062416095 0.0615793 0.07571168 -0.07108695
0.058988687 -0.074833415 0.0321912 -0.053273212 -0.06699577 -0.08090168 -0.09228403 -0.09418869
-0.069151945 0.043745726 0.06723609 0.07378824 0.0482494 -0.027072242 0.07370038 0.097230464
-0.008720663 -0.034457862 0.05951107 -0.052117255 0.06623728 0.07467513 -0.06425582 -0.051123794
-0.06342816 -0.004476453 -0.02382603 -0.04662519 -0.056653515 0.069103256 0.015096122 -0.02132853
-0.017912403 -0.0778658 0.083063625 -0.037559327 0.05953375 -0.047677193 0.09141339 -0.07471845
0.048681453 0.025303176 -0.06866261 0.06004798 0.04937879 -0.10258804 0.015961837 0.0048252153
-0.033498853 -0.0313926 -0.05461226 -0.032422274 0.05038332 -0.1132594 -0.0070536146 -0.02093331
0.048021957 0.07799046 0.041088037 0.08560154 -0.04487832 -0.0843595 0.049142476 0.06609307

fc.2.bias f4 [100]
00000000: 8f90 363d dc51 ffbc 0ebc 64bd dde8 c2bd
00000010: 4924 e0bc 4dbd 2d3d 4706 e03c 04d9 f33c
00000020: a1bb 0ebd b53d d03d 65e8 083d 69dd 5e3d
00000030: 7d3c 963d 9ef8 d53c 197a 183d 89bb 4b3d
00000040: d17e a0bc 7210 373d a7e4 02bd 961d 11bd
00000050: 7181 10bd 0f1b debc 2a28 4abd 19bd 013d
00000060: 064c 94bd 775f 163d 133f 8cbd e24e f8bc
00000070: edd7 bbbd 174c b2bd 0d9b f63c e891 95bd
00000080: be48 b3bd a65b 9a3b df73 6a3d ef72 e63c
00000090: f796 7e3d a1a4 d8bc e6e8 5fbd f9b1 7abd
000000a0: 134e ad3c 59f3 0cbd 2226 afbd cbbd c4bd
000000b0: dbba 22bd f2a5 6ebd 2253 0d3d 7292 5f3c
000000c0: 05e2 1bbd 50c0 f93c 7927 02bd 68a9 3d3c
000000d0: db5c c4bd a884 d93c aacd fb3c e019 be3c
000000e0: cd15 8cbc ac98 123d 4ca1 5c3d efb0 2cbd
000000f0: 53f9 b73d 9f94 103d 79ac 373c 3f55 04bd
00000100: 4a3e 2abd 931a 7cbc f8f4 193c b187 c43d
00000110: e0b8 75bd 1ec7 d3bc b53d 263d f193 c53d
00000120: c613 4e3d eef9 403d fedc c4bd 3aa0 313d
00000130: 33b4 953c 6c74 54bd 2401 373b 3a6e a8bc
00000140: 79c2 db3c 23b2 4fbd e307 203c 2f35 3a3d
00000150: 7fee 98bd f56f b43c 367d d33d 1ad5 5fbd
00000160: c99c 873c 576e 5f3c 3194 65bd 238b 40bd
00000170: cdb4 fe3c e398 de3c ded3 8cbd df14 9e3c
00000180: b866 813d 9776 18bd 0404 c4bc 72f6 3cbd
0.044571456 -0.031166963 -0.055843405 -0.095170714 -0.027361052 0.04241686 0.027346743 0.029766567
-0.034846906 0.1016802 0.033424754 0.054410372 0.07335756 0.026119526 0.037225816 0.049739394
-0.01959172 0.044693418 -0.03195634 -0.035428606 -0.035279695 -0.027112512 -0.04935471 0.03167448
-0.07241063 0.036712136 -0.06847968 -0.030311052 -0.09172044 -0.08705919 0.03010323 -0.0730322
-0.08754109 0.0047106324 0.05723941 0.028130976 0.06215569 -0.026445689 -0.05466547 -0.061204884
0.021155393 -0.034411762 -0.08552195 -0.09606513 -0.03972898 -0.058263727 0.03450311 0.013645755
-0.038057346 0.03048721 -0.031775925 0.011576034 -0.09588023 0.026552513 0.030737717 0.023205698
-0.01710024 0.03579013 0.053864762 -0.042160925 0.08983102 0.035297986 0.011210554 -0.03230786
-0.04156331 -0.015387195 0.009396784 0.095961936 -0.059990764 -0.025851782 0.040586192 0.09647358
0.050311826 0.04711335 -0.096124634 0.043365695 0.018274402 -0.05186884 0.0027924264 -0.020560373
0.02682613 -0.050706994 0.009767505 0.045460876 -0.074673645 0.022026042 0.103266165 -0.05464659
0.016554253 0.013637147 -0.05604953 -0.04700769 0.031092072 0.027172511 -0.06876348 0.019297061
0.0631842 -0.03722247 -0.023927696 -0.046133466

fc.3.weight f4 [100, 100]
00000000: 173f b0bc 056b 4e3d 010a 363d bfff 423d
00000010: 9926 1a3d 0797 88bc fcb8 0abd 8f4f 84bc
00000020: f722 4a3d dca9 0fbd 29bb 94bd 6f66 53bd
00000030: 753f d9bc d98a 14bd 5073 60bd bd37 6cbd
00000040: d6ed 183d 2078 4abd 1699 233d 1333 cc3c
00000050: 2f04 0b3d 9c8e 143d bc46 463d 4b1c 67bd
00000060: a58d 8d3d b5cf 36bd bcec 053d bb67 393d
00000070: a92e 6b3d 5301 863d 5729 48bd df7e f03c
00000080: 99aa 083d 60e3 38bc f412 afbd 6bbf c0ba
00000090: 355e b2bc ede2 163d 12c6 973d 2f6a 923d
000000a0: b291 ebbb e920 f33c bee3 623d 72a2 e63c
000000b0: 2d24 833d 708a a13d 4e68 70bd b758 9bbc
000000c0: ce01 753d 69a6 94bd 553b f43c 5837 09bc
000000d0: 57ae 2a3d 7e87 a7bb 5fc0 1fbd f9f3 a1bc
000000e0: 3f43 f03a 232d e5bc 5817 81bd 00ab 863d
000000f0: 12e3 70bd bc7c 243c b05f e73c f699 713d
00000100: 490f 6d3d a7b8 40bb 57a1 0cbd 7bf0 20bd
00000110: 7cee 293d 4f7e f53c 20d1 23bd e69f 00bd
00000120: 0ac9 32bd 465a aabd 1192 253d 09fa 17bd
00000130: 3950 e8bc c4de 863d 9cab 6c3c 8641 de3b
00000140: fee9 27bc e94c 113d 9efc 97bc 0e6e 7cbd
00000150: 0329 3f3d d68a 01bd be78 8dbd 6ea6 843a
00000160: d1a6 47bc 20ed b8bc c2ec 933d e4c9 f13c
00000170: 024d 2fbd ae21 a8bc 4554 f23c daa1 99bc
00000180: 9d4c 21bd 0e14 7a3d 7eb4 013d e48f 263d
00000190: fee4 9fbd cd66 3e3d 192d 303d d08e 093e
000001a0: ca64 843c cc84 c3bc 19cd 68bd c385 08bd
000001b0: 53d2 373d c5fd bfbd 3beb aebc 7565 9abd
000001c0: a70f a7bd 29f0 9bbc 1e35 8bbd ee57 adbd
000001d0: 54f2 6a3b d5a3 ddbd 8226 163d 6347 e03c
000001e0: 66df bf3c e34b 8d3c 1aff 933d 3f00 57bd
000001f0: aa44 eb3d 2976 10bd 470e c03d f363 fd3c
00000200: 31ff d23d b82e f73d ce89 c03b 1479 d83d
00000210: 0b34 d43d 1bc7 b43c 1330 d0bd 7fc0 dabc
00000220: 3449 8dbd b945 dbbb 9104 543d 91c0 943d
00000230: ccd7 86bb 059e bd3c 53c1 d33d 8d98 cd3d
00000240: 01f0 953d e950 943d 0173 56bd b5c2 103c
00000250: bf30 f23b 350c 34bd 7ac4 5f3d 2725 843b
00000260: 99ef bc3d 5fb3 e0bc 035e 17bd 6f7f 273d
00000270: 4aca 07bd 3e0c 59bd f33e 9abd 6faf 2f3d
00000280: aa75 01be 5025 36bd 9055 4d3c 3fb7 853d
00000290: 09e3 993d 85c6 d9bc 0b25 333d 5be2 dbbd
000002a0: a189 633d 1821 c23c beac aabd 3230 e4bd
000002b0: d89d 95bd aa46 b3bd 2fc7 ce3d 360b 37bd
000002c0: 51a7 6dbc e0c4 da3d 640b 793d 200d 15bd
000002d0: 77a8 ccbc 1e2b 303d 2bc4 193c cfdf 96bd
000002e0: 77cb db3d 1e40 15bd bc43 cabd 356a 9c3d
000002f0: 4f07 ffb9 8d16 0a3d 6d19 673d 0a57 b63d
00000300: ad30 41bd fcf2 26bd 25d4 b33d 997c debc
00000310: f8bc b3bd 6169 5a3d db30 1b3d e339 283d
00000320: e2e2 7a3d de4e afbd 2afe 6fbd b2e7 0fbd
00000330: a9d0 bcbd 91af 753d 8316 cc3d 1a97 a73d
00000340: d6a4 37bd 3bac 683d 6bb3 623d 4c62 4b3d
00000350: 3153 d53c 6fca 083e f6c0 e43d 5d3d 8b3d
00000360: befe e4bd 4168 823d cda8 8abd e071 28bd
00000370: cc22 96bd cc4c 9fbd 0868 6cbd 477f af3d
00000380: 7215 c2bc 5c05 d13d 1d45 98bd 0aed 92bd
00000390: e273 fdbc f16d 36bd ba56 613d 3e63 04bd
000003a0: 5952 63bd ee75 ec3d e7f3 0e3d 902d d13d
000003b0: 88d6 3f3d ce0a c2bd ae2a 5abd 9fea 4cbd
000003c0: bc04 083e 576f 9abd 9933 68bd 6ed8 8cbd
000003d0: 7660 adbd 851b 3abd 27e8 e83d c782 ea3d
000003e0: 3fef 79bd ea82 d63d 2c84 ccbd de79 f13d
000003f0: acfb 1dbd 4e52 ba3d c3c7 b43d 145a a33d
-0.021514459 0.05039503 0.044443134 0.04760718 0.037634466 -0.016673578 -0.03386782 -0.016151218
0.04934975 -0.0350741 -0.072622605 -0.05161136 -0.026519516 -0.036265228 -0.05479747 -0.057670344
0.037336193 -0.049430966 0.039940916 0.024926698 0.033939537 0.036268815 0.0484073 -0.056423467
0.06911782 -0.04463168 0.03269647 0.04526494 0.057417545 0.06543221 -0.04886755 0.029357372
0.03336582 -0.011284679 -0.08548537 -0.0014705485 -0.021773437 0.036837507 0.07410826 0.07149159
-0.007188999 0.029678779 0.055392973 0.028153632 0.06403384 0.07887733 -0.058693223 -0.018963201
0.059816174 -0.07258303 0.029813448 -0.008375011 0.04167017 -0.0051125875 -0.03900182 -0.019769656
0.0018330588 -0.027975624 -0.063032806 0.065755844 -0.0588103 0.010039505 0.02824387 0.05898472
0.057875905 -0.0029406936 -0.034333553 -0.03929184 0.041487202 0.029967455 -0.03999436 -0.03140249
-0.043648757 -0.083179995 0.040422503 -0.037103686 -0.028358566 0.06585458 0.014445212 0.0067827133
-0.010248659 0.035473738 -0.018553074 -0.061628394 0.04666997 -0.031626545 -0.06907795 0.0010120401
-0.012185768 -0.022574008 0.07222892 0.029515214 -0.04279805 -0.020523872 0.029581198 -0.018753935
-0.039379705 0.061054282 0.03166627 0.04066457 -0.07807349 0.046484757 0.04301176 0.13433385
0.016161341 -0.023867033 -0.05683622 -0.03333069 0.044878315 -0.093745746 -0.021352401 -0.07538883
-0.08157282 -0.019035416 -0.06797241 -0.08464037 0.0035850005 -0.10822264 0.036657818 0.02737779
0.023421954 0.0172481 0.07226391 -0.05249047 0.11487706 -0.035268936 0.09377723 0.030931449
0.1030258 0.12069458 0.0058758026 0.10569969 0.10361489 0.022067597 -0.101654194 -0.026703117
-0.06898728 -0.006691661 0.051762167 0.072632916 -0.0041150805 0.023146639 0.10339608 0.100388624
0.07321168 0.07241995 -0.05235577 0.008835484 0.007391065 -0.043956954 0.054630734 0.004032749
0.09225387 -0.02742928 -0.03695489 0.040893015 -0.033151902 -0.05299019 -0.07531538 0.042891916
-0.12642542 -0.044469178 0.012532607 0.06529092 0.07514007 -0.02658392 0.0437365 -0.10736533
0.055551175 0.023697421 -0.08333729 -0.11142005 -0.07305497 -0.087537125 0.10096585 -0.044688426
-0.014505223 0.10682082 0.06080188 -0.03638947 -0.024982674 0.04300987 0.009385149 -0.07366907
0.10732167 -0.0364381 -0.098762006 0.07637445 -0.00048642835 0.033712912 0.056420732 0.0890332
-0.04716556 -0.04075907 0.08780698 -0.027159022 -0.08776277 0.053323153 0.03788839 0.04107083
0.06125153 -0.085599646 -0.058592 -0.03513307 -0.09219486 0.059981886 0.09965231 0.08183117
-0.044834934 0.056804877 0.055346888 0.04965429 0.026040645 0.13358472 0.11169617 0.067988135
-0.11181401 0.06367541 -0.067704774 -0.041124225 -0.07330856 -0.0777832 -0.0577164 0.08569198
-0.023691867 0.102061 -0.07435057 -0.07174118 -0.030939046 -0.044538442 0.05501435 -0.032321207
-0.055498455 0.11545931 0.034900572 0.102137685 0.046835452 -0.09474717 -0.05326336 -0.05002844
0.13283056 -0.07540768 -0.056689832 -0.06877218 -0.08465664 -0.0454364 0.113724045 0.11450725
-0.06101918 0.104741886 -0.09986147 0.117908224 -0.03857009 0.090977296 0.08827164 0.079761654

fc.3.bias f4 [100]
00000000: e5c2 813c 1e9c 8cbd 85c9 cbbd 90d2 34bc
00000010: 0f10 bcbd 625e edbc f807 30bd 55ac 5bbd
00000020: 7255 a8bd 4a15 a6bd 014c 0ebd 526b 8ebd
00000030: d6a3 04be b373 19bd 9d6f 95bd d0bc cabd
00000040: 1fa6 f8bd 0a7c c0bd e565 adbd d33b 38bd
00000050: bfdd 54bd ed96 9abd d7af 9abd a16b adbd
00000060: 1d08 ffbd 2bd5 15bd b541 e23c e59e 21bd
00000070: 086d f8bd 5353 febd 2961 cfbd f034 e4bc
00000080: 7497 86bd ed12 7fbd 0d90 b6bd b610 8fbd
00000090: 00bb 1abd 97a7 d6bd bba4 74bd 9996 7fbd
000000a0: c97a 4ebd 5c34 44bd 1886 83bd 5df6 84bd
000000b0: a0e4 2fbd 9840 323c 3a13 88bd 6667 9dbd
000000c0: 441a 8ebd b940 5cbd 1e87 d5bc cc1a 87bd
000000d0: e319 4bbd 5c08 98bd fe42 c13c 9501 9bbd
000000e0: 513e 72bc a95d bdbd 9bff f8bd b0c5 5bbd
000000f0: c656 f5bd c78e 85bd 05a4 80bd 9bcf bdbd
00000100: c0c4 a3bd 4761 90bd e57c cebd a03b f2bd
00000110: dc02 d2bd 1259 9fbd def2 90bd cc7a 80bd
00000120: a6d2 3dbd d5bb fc3c 9144 9a3c 6e63 2fbd
00000130: 0159 2bbd 5ced 3fbd 382c aabd ec95 19bd
00000140: dffc b6bd fa73 69bd c242 3abd e1c3 26bd
00000150: 65f5 28bd 150c 1ebd cae9 67bd 47c2 48bd
00000160: 6a3b 2ebd 8038 2bbd 17af 3bbd 3ee9 fc3c
00000170: 09a3 eb3c 22b3 17bd 4735 82bd 0596 dfbc
00000180: 69fa c7bd 08a6 e4bd d3fd 89bd e4d2 ffbd
0.015840003 -0.068657145 -0.09950546 -0.01103653 -0.091827504 -0.02897567 -0.04297635 -0.053631146
-0.082194224 -0.08109529 -0.03474045 -0.069540635 -0.12953123 -0.037463855 -0.07296679 -0.098992944
-0.1214106 -0.093986586 -0.084667005 -0.044978928 -0.051969286 -0.07548318 -0.0755307 -0.08467794
-0.12452719 -0.036580246 0.027619222 -0.039458174 -0.12130171 -0.124182366 -0.10125954 -0.027857274
-0.06571856 -0.06227391 -0.08914194 -0.06985609 -0.037775993 -0.10481184 -0.05972741 -0.06239948
-0.050410066 -0.047901496 -0.06422061 -0.064923026 -0.042942643 0.010879658 -0.06644292 -0.07685737
-0.069386035 -0.05377266 -0.026065405 -0.06596908 -0.049585234 -0.074234694 0.023591515 -0.07568661
-0.014785365 -0.0924638 -0.12158128 -0.053655326 -0.11979441 -0.06521373 -0.06281284 -0.09268113
-0.079965115 -0.07049804 -0.100824155 -0.11827779 -0.10254452 -0.07780661 -0.07077573 -0.06273422
-0.046343468 0.030851284 0.018831523 -0.042819433 -0.041832928 -0.046857223 -0.08309215 -0.037496492
-0.0893495 -0.05699537 -0.04547382 -0.04071415 -0.04124965 -0.03858574 -0.056619443 -0.049013402
-0.04253713 -0.04180193 -0.045821276 0.030872937 0.028764265 -0.03703607 -0.06357818 -0.027293215
-0.09764559 -0.111644804 -0.06737866 -0.12491396

fc.4.weight f4 [100, 100]
00000000: a46b 94bd 8e32 26bc c592 723e aef5 123e
00000010: 86fa f33c 7db2 5c3e a13b 04bd 6220 39bd
00000020: b432 7b3e 7425 5cbc d335 41bd a853 ea3b
00000030: 02ce 683e bc07 bcbc ad52 5b3e a508 24bd
00000040: cded 413e d128 1f3d c49f c73c 2a78 5f3b
00000050: fcb2 1f3e c41d 7c3e 9e6d 473b 3c27 e5bc
00000060: a426 553e 1351 ddbc 7842 193e 60ca 2cbd
00000070: 3762 0a3d 301e 763e cae4 5d3e a795 153e
00000080: 7540 2d3e 865a 2cbc 18c7 ab3b 4cea 6b3e
00000090: 4261 47bc c254 613e 9334 debc e511 4abd
000000a0: 7511 47bd 7e88 aebc a8c6 cabc 6e3e 133e
000000b0: 0e48 403e b12b b0bd 5d66 4b3e 7054 3a3e
000000c0: 4deb 2c3e 6557 1c3e 40a6 93bd 4037 723e
000000d0: 500b 223e beae 1f3a 9d12 143e 48f0 463e
000000e0: e7ce 143e 39de 5c3e ca14 773e df01 7ebc
000000f0: 0015 853e 729b 87bc 769d 0ebd 2e9f 803e
00000100: b160 1b3e a6d3 663e 1782 813c 93d2 6f3e
00000110: 83ff 513e fd1b 953b 0c5e c13c 829a dcbb
00000120: 642d 02bd 4995 cf3d ac94 c1bd f780 45bc
00000130: 5e9e 0fbd c93f c8bc 9dbd e73b f14d 18bb
00000140: 516a 003d e0d4 3fbc 0db6 cdbc 0603 89bc
00000150: 01bc 3bbd a822 07bd 4fa1 0abd 6cc3 2f3e
00000160: adc4 ffbc b8c4 88bd 3c5f efbc 2b0d c3bd
00000170: 45f8 99bd 294e 34bd 1ff2 553e 9b4a 22bc
00000180: 3e66 29bd d834 633e 9152 463e 6b68 4b3e
00000190: c269 53bd b302 19bb 46a1 423e 93eb 0e3e
000001a0: 5810 cc3c 9c99 413e 5e0f 4abc 241f 893c
000001b0: 9fab 603e 60e3 e23b d6c9 d4bc ba3b cf3c
000001c0: f07c 683e b407 8cbc b808 553e 0983 02bc
000001d0: 7c47 683e 74bb 2e3d 01cd 1cbb 3e3c 5abb
000001e0: 2bd4 2c3e 4b22 563e 20cd 673c aef7 b63c
000001f0: f659 843e c473 b9bb 0e6b 0f3e 5162 ebbc
00000200: dc31 763d 4117 653e 7966 693e 8d5d 093e
00000210: ec36 f53d fce8 c03b 62d0 5a3b 4abb 273e
00000220: 8217 28bd 4037 723e b496 fabc 5072 19bd
00000230: 8db5 2fbd 8a9e 2fbd 63f4 20bd 23f3 473e
00000240: a5bb 013e 76f6 68bd 2b00 493e d624 543e
00000250: ce67 5b3e fa96 323e f885 2ebd 56fc 1c3e
00000260: dab5 333e cf40 bbbc a237 d03d e370 553e
00000270: 3d16 083e ac73 323e 89e5 733e 7a8b 47bc
00000280: 0070 4f3e 075a b13b aa09 eabc 719d 2a3e
00000290: bd23 383e d58c 483e 1468 743c 90ae 663e
000002a0: 938e 713e d0cc 3fbc 9334 98bc 6d5c 35bc
000002b0: 8742 38bd 1041 e73d 0bf4 ecbd 3902 99bc
000002c0: d828 8c3c 28d9 0ebd 3c8e 143c 3936 e4ba
000002d0: 144a e53c c3fb d6bc ac59 903b 1661 d6bb
000002e0: 3bdf 1ebd 778c 95bc 1f4d 89bb 767d 2a3e
000002f0: 768c f8bb 03a1 43bd eb48 7cbc 4728 c0bd
00000300: 8a5a acbd e3df 1abc b25f 2d3e c388 f2bc
00000310: 4641 853b 39a5 7e3e b6cc 313e e113 7c3e
00000320: de7c c2bb cc56 08bc a223 85bc e5db 80bc
00000330: b732 293b 3d15 7dbb 8d99 0dbc e4be 903c
00000340: d63f 99bd 9e25 083c baa3 01bd 11fc aebc
00000350: 6e95 92bd acd0 04bd 15d6 53bd 3595 acbc
00000360: 0afd 81bd dcae 40bb 675a 34bc 3bff 8ebc
00000370: 4e24 3abd dc69 f1bb 701f 003c a0a7 d43c
00000380: ffe5 71bd 7ed7 9abc 0265 1cbc b82a a2bc
00000390: f494 6f3b f7c8 4abd 3a16 f9bc 2d28 bfbc
000003a0: 358b 81bd e207 a6bc f1af e33c 4481 9abd
000003b0: cbc3 0d3d ab2f 71bd 829e 23bd f377 69bc
000003c0: 2bb1 0cbd ab0e e2bc d501 253c 3b3c 87bd
000003d0: b8ff 07bd 2148 3a3b 5997 43bd fc12 cebc
000003e0: 8741 a1bc c110 9abc a96a c43b 82ca b5bc
000003f0: aa43 a2bd 758b ebbc 1a50 8dbc 1661 4cbd
-0.07247093 -0.010143889 0.236888 0.14351532 0.029782545 0.21552463 -0.03228343 -0.0451969
0.2453106 -0.013436664 -0.04717047 0.007151086 0.22734836 -0.022952907 0.21418257 -0.040047307
0.1893837 0.038857285 0.024368174 0.0034098723 0.15595621 0.2462073 0.0030430327 -0.02797281
0.20815521 -0.027016198 0.14966762 -0.042185187 0.03378507 0.24034953 0.21669307 0.14607869
0.1691912 -0.010519629 0.0052422397 0.23038596 -0.012169184 0.22004989 -0.027124679 -0.04933347
-0.048600633 -0.021305319 -0.02475293 0.14379284 0.18777487 -0.086020835 0.19863267 0.18196273
0.16886635 0.15267713 -0.07209444 0.23653889 0.15824628 0.0006091407 0.14460225 0.19427598
0.14532052 0.21569146 0.24129024 -0.015503376 0.25992584 -0.016553614 -0.034818135 0.25121444
0.15173604 0.22541675 0.015809102 0.23420171 0.20507626 0.0045504556 0.023604415 -0.006732286
-0.03178157 0.10135896 -0.09452185 -0.012054673 -0.03506314 -0.024444478 0.007072164 -0.0023239816
0.03135139 -0.011708468 -0.025111223 -0.016725074 -0.04583359 -0.032992035 -0.033845242 0.17164391
-0.031221712 -0.06678146 -0.029220216 -0.09523996 -0.07518057 -0.04401985 0.20893143 -0.009905483
-0.04135727 0.22188127 0.19367434 0.19864051 -0.05161453 -0.0023347556 0.19006833 0.13957052
0.024910137 0.18906254 -0.012332765 0.016738482 0.21940468 0.006924078 -0.02597515 0.025297035
0.2270391 -0.017093517 0.20804107 -0.0079658115 0.22683519 0.042659238 -0.0023925903 -0.0033300067
0.1687781 0.20911519 0.014148027 0.0223349 0.25849885 -0.0056595523 0.14005682 -0.028733404
0.060106143 0.22372152 0.22792996 0.13414593 0.11973366 0.005887149 0.0033388366 0.16380039
-0.041038044 0.23653889 -0.030589439 -0.037462533 -0.04289775 -0.042875804 -0.039295565 0.19526343
0.12669237 -0.05687567 0.1962897 0.20717177 0.21426317 0.17440405 -0.04260823 0.15330634
0.1754984 -0.022858052 0.10166861 0.20843844 0.13289733 0.17426938 0.2381803 -0.01217925
0.20257568 0.0054123434 -0.028569061 0.16661622 0.17982383 0.19584973 0.014917392 0.22527528
0.23589544 -0.011706546 -0.018579757 -0.011069399 -0.04498532 0.112917066 -0.11569985 -0.018677818
0.01710932 -0.034875065 0.009067114 -0.0017411179 0.027989425 -0.026243096 0.004405221 -0.0065423353
-0.038787108 -0.018255455 -0.0041901018 0.16649422 -0.0075851036 -0.047760975 -0.015398244 -0.09382682
-0.084157065 -0.009452793 0.16931036 -0.029606229 0.004066619 0.24867715 0.17363247 0.24616958
-0.0059352955 -0.008321475 -0.016252343 -0.015729854 0.0025817582 -0.0038617395 -0.008642566 0.017669149
-0.07482879 0.00830975 -0.031650282 -0.021360429 -0.07157408 -0.032425568 -0.051717836 -0.021067241
-0.063470915 -0.00294011 -0.011007882 -0.017455688 -0.04544478 -0.0073673557 0.007819995 0.025958836
-0.059057232 -0.018901583 -0.0095455665 -0.01979576 0.003655729 -0.04950806 -0.030406106 -0.023334587
-0.0632538 -0.02026743 0.027793856 -0.07544187 0.03461055 -0.05888335 -0.039946087 -0.0142497895
-0.034348648 -0.027594885 0.010071238 -0.06603285 -0.033202857 0.002842434 -0.04775176 -0.025155537
-0.019684566 -0.018806817 0.00599416 -0.02219129 -0.07923062 -0.028753022 -0.01725011 -0.049897276

fc.4.bias f4 [100]
00000000: 988b acbd 423e 6bbe e811 193e 324c 90be
00000010: f33a 28be 297a 85be f5f3 173e 9e53 40be
00000020: d9be 1c3e ce90 353e 96b7 133e 77a6 b3bd
00000030: e221 1a3e b984 183e 6683 48be 9fab 1d3e
00000040: 3287 79be 91c0 1d3e c4ef 1c3e 541e 193e
00000050: aafb 98be 1795 56be 9ef0 3fbe cb92 1e3e
00000060: 9982 91be d464 1e3e 8418 183e 0fdf 9f3f
00000070: b828 bd3e d27e a33f b853 183e 299c 183e
00000080: b13f 1a3e 5a9c 193e 6c72 663c 7608 62be
00000090: 91d4 1b3e f16e b3be 26b4 80be 6d17 aa3e
000000a0: 59a2 203e f4ff 173e 3f67 1d3e 4dcf a63f
000000b0: 88a0 1c3e f2bd 4fbe 936f b7bd 3d2b 85be
000000c0: e7a5 193e d1ec 88b8 1b79 46bd 6d44 223e
000000d0: 97fa 6fbe ed05 1d3e c762 1b3e 7c82 073d
000000e0: 81f1 1e3e 873e 7ebe 5dd2 193e 869f 173e
000000f0: c01b c9bd 8890 c63d d9da 173e ce24 3fbe
00000100: c949 113e 677f 123e ed7b 1d3e 2813 083e
00000110: 409f 573e d4fc 173e 8913 1a3e 9098 12be
00000120: 943a 163e ec87 1a3e c47a a5be 8041 50be
00000130: 424a 243e 52d1 173e aefe 1c3e c953 133e
00000140: 83cb 863e 92d3 233e 17d3 1c3e bbf3 55be
00000150: 4ec4 173e 56fd 1f3e 9808 963d 9675 b33f
00000160: d3ea 003e 242c 393f 355c 8cbe 5daa 14be
00000170: 4383 74be 822b 9b3e 4065 173e 6d62 96be
00000180: 6936 173e 0f84 4bbe c735 1d3e cd35 90be
-0.08425063 -0.22972968 0.14948237 -0.28183132 -0.16428737 -0.26069763 0.14839156 -0.18781897
0.15307178 0.1773102 0.14425501 -0.08771985 0.15051988 0.1489438 -0.19581375 0.153975
-0.24367979 0.1540549 0.15325838 0.14952976 -0.29879504 -0.20955311 -0.18744132 0.15485685
-0.2841995 0.1546815 0.14853102 1.2489947 0.36945128 1.2773077 0.14875686 0.1490332
0.15063359 0.1500105 0.014065366 -0.2207354 0.15217806 -0.3504558 -0.25137442 0.33220997
0.1568693 0.14843732 0.15371417 1.3032013 0.15295613 -0.20287302 -0.08956828 -0.2600955
0.15004693 -6.529096e-05 -0.04845534 0.15846415 -0.23435436 0.15334292 0.151744 0.033083424
0.15521814 -0.2482854 0.15021653 0.14806947 -0.09819746 0.09695536 0.14829578 -0.18666384
0.14188303 0.14306413 0.15379305 0.13288558 0.21056843 0.1484254 0.15046515 -0.1431601
0.14670783 0.15090913 -0.32320225 -0.20337486 0.16043952 0.14825943 0.15331528 0.1438743
0.26327142 0.15998676 0.153149 -0.20893757 0.14820978 0.15623984 0.07325858 1.4020259
0.12589578 0.7233298 -0.27414098 -0.14518113 -0.23878197 0.3030663 0.14784718 -0.29371968
0.1476685 -0.19874595 0.15352546 -0.28166047
