results/Smoothed_MINE_dim25_reg1_alpha0.0.pt (torch, 407533 bytes, 13 tensors)

fc.0.weight f4 [100, 50]
000000 ea 49 3f 3d 61 db 7d 39 37 a1 97 3d da eb 7c bd
       0.04670135 0.00024209685 0.07403796 -0.061748363
000010 33 98 52 3d 2a 9f 08 3d b0 b0 80 bc 3d e8 9d 3c
       0.05141468 0.033354916 -0.015709251 0.019275779
000020 89 cc b7 3c 24 dd 34 3d c9 bc 90 bb 0e ba d1 ba
       0.022436397 0.04415621 -0.004417036 -0.0016000883
000030 64 aa 94 bc 3c 19 dc bc 2e 31 55 3d de fc c2 3c
       -0.018147655 -0.026867501 0.052048855 0.023802217
000040 cc 9e 34 bc 4f 51 61 3d fd f9 81 3d 2f 14 4f bc
       -0.011024188 0.055009183 0.063465096 -0.0126390895
000050 11 35 8a 3b 31 c1 9b 3a 9b 01 42 3d 19 1a 3e bd
       0.004217752 0.0011883137 0.047364812 -0.046411607
000060 71 d5 80 b9 0f 0f e7 3c 38 33 97 3a 7e 93 b8 3d
       -0.0002457309 0.028205423 0.001153565 0.09012507
000070 32 fe 50 bd 42 52 40 3d c7 6d ba 3c 2d 86 9a 3c
       -0.05102367 0.046953447 0.022757424 0.018862808
000080 7f 73 70 3c db ba c9 3c 52 c8 fb 3c d8 f2 92 3b
       0.014675974 0.024625232 0.030735169 0.0044845156
000090 85 ec 05 3b 7f 00 c4 bc 92 8f a5 bc bf 60 85 3d
       0.0020435166 -0.023926018 -0.020210061 0.065125935
0000a0 51 44 b8 3b 91 98 82 bc 32 a7 00 3d d4 46 60 3d
       0.0056233783 -0.01594189 0.03140945 0.054755047
0000b0 e2 06 36 bc 59 10 6f 3b 37 b1 98 3c e5 62 4b 3d
       -0.011110039 0.003647825 0.01863919 0.04965486
0000c0 8a 4d fe bc 05 77 c8 ba 8f e5 7f bd 8e 5a 37 bd
       -0.031042833 -0.001529426 -0.062474784 -0.044764094
0000d0 0b 82 84 3d 27 32 8a bd 98 02 ad bc a1 45 a8 bc
       0.06470116 -0.06747847 -0.0211194 -0.020541014
0000e0 1e 32 e8 3c c0 3f 08 bd 34 fd 38 3c 9c 2f 4b bb
       0.02834421 -0.03326392 0.011290837 -0.003100372
0000f0 6f f8 e7 3c bc 66 ca 3b 6e b4 9a bd b2 3c c8 bc
       0.028316705 0.0061767977 -0.075539455 -0.024443004
000100 22 3d a1 3d 38 9c 89 3c 71 af f7 bb 27 e6 b8 bb
       0.07872988 0.016798124 -0.007558756 -0.0056426707
000110 91 d3 2e 3c 59 f0 e3 3c f3 23 93 bc 07 a1 48 bd
       0.010670559 0.027824568 -0.017961478 -0.048981693
000120 21 e3 d2 3c 90 9d a6 3c 07 0d a3 bb 2e 75 83 bd
       0.02574307 0.020338804 -0.004975918 -0.064188346
000130 1b 3b 3f bd 0b bd 92 3d ab d5 97 bd 18 59 c0 bb
       -0.046687227 0.07164963 -0.07413801 -0.005869996
000140 d5 b8 e2 bc 22 5c 1d 3d cf 3b a6 bc 1f f7 ec 3c
       -0.027676025 0.038417943 -0.02029219 0.02892643
000150 e1 61 af 3b 4a 47 1d 3d fb 9c 76 3a 39 84 7b bd
       0.0053522442 0.038398065 0.0009407547 -0.061405394
000160 ef dd cc bc 05 80 be 3d b8 13 35 3c c0 27 21 bb
       -0.02500817 0.093017615 0.011052065 -0.0024590343
000170 4c 5e 7d ba 58 7d a5 3c f7 ce d5 3b 79 cd a6 3c
       -0.00096652354 0.02020137 0.0065249163 0.020361649
000180 43 cb 03 bd 8c 68 e3 3b 1c ed be 3c a4 ee bb bb
       -0.032176267 0.006939953 0.023306422 -0.0057352353
000190 d4 79 41 bd 65 8d 8b 3b 87 17 2e bc 13 6a aa 3b
       -0.047235325 0.004258799 -0.010625727 0.0052006333
0001a0 3f 31 6b 3c d2 8e 85 bd c4 58 11 bd 5b f3 d6 bc
       0.014355003 -0.065213814 -0.035485044 -0.026239088
0001b0 09 b5 94 bb 0c 68 7f 3d 0f 49 23 3d 1c f7 48 3c
       -0.0045381826 0.062355086 0.039864596 0.012265947
0001c0 9b 70 27 bd 49 fc 28 bd 5c f1 05 3d 1f a3 7e 3c
       -0.040878873 -0.041256223 0.03270088 0.015541821
0001d0 85 5b 02 bd ff f5 35 bb 9a 02 a8 bd 22 3c b9 bc
       -0.03182556 -0.0027765033 -0.08203621 -0.022611681
0001e0 f1 fe 56 bb 4d c9 d3 3c 68 14 fe bc 94 9b 28 3d
       -0.0032805766 0.025852824 -0.03101559 0.041163996
0001f0 a3 37 25 3d 64 1e 1e bd 48 88 64 b8 8f cc 2b bc
       0.040336262 -0.0386032 -5.4486358e-05 -0.010485782
000200 fa a7 a6 3b 21 64 8c 3c 75 55 87 bd 6e b5 aa bc
       0.0050859423 0.017137589 -0.066080965 -0.020838466
000210 61 32 d3 bc ec 95 a1 3b 0b 70 32 3d 7a 16 f5 3c
       -0.025780858 0.004931202 0.043563884 0.029917944
000220 bc d1 bf 3c c1 10 ba bc fb e0 4e bd 74 be 43 3d
       0.023415439 -0.022713067 -0.050507527 0.047789052
000230 bc c2 fa b9 4a 5c 2a bc 3a 03 07 3b a0 c4 a9 bd
       -0.00047828804 -0.01039798 0.0020601288 -0.08289456
000240 18 b4 ce bc db 23 82 b9 7f 17 3b 3d 89 f4 cf bc
       -0.02523236 -0.00024822247 0.045676704 -0.025385158
000250 0c e2 32 3d fb d7 1f 3c 08 b5 64 bc 24 27 1d 3c
       0.043672606 0.009756084 -0.013959177 0.009591851
000260 66 54 9a 3b 57 d6 f8 bb 4a a9 fe 3c af cd 2d 3d
       0.004709768 -0.0075939107 0.031086583 0.042432483
000270 bf f2 a0 3d ac 86 ee bc 83 2a 00 3d 5c da 5f bd
       0.078588 -0.02911695 0.031290542 -0.054651603
000280 ae c8 1f bd af db de bc e2 da c7 bc 3c 3c c4 3d
       -0.039009742 -0.027204363 -0.024396364 0.09581801
000290 7d 9d 2e bc 28 0d 14 3d 7b fe 35 bd f5 0a ad 3d
       -0.010657665 0.03614536 -0.044432145 0.084493555
0002a0 1b db 4b bd a8 71 31 bc 39 53 83 3d 25 cf c5 bb
       -0.049769502 -0.01083032 0.06412358 -0.0060366564
0002b0 d3 d3 29 bb eb 5f 83 3b 0b 5f 53 bc d5 36 90 bc
       -0.002591361 0.004009237 -0.012901078 -0.017604271
0002c0 bd 8d 09 3d 6f 78 df 3b fd 0f 11 bc 3d 1f a5 3c
       0.033582438 0.0068197767 -0.00885391 0.020156497
0002d0 40 6f 4e 3d e5 53 91 3d 8e 41 0d bd 75 60 5f 3d
       0.050399065 0.0709608 -0.034486346 0.054535348
0002e0 35 7e 81 bd 8c 53 00 bd 43 a8 a2 bc d4 ee f5 ba
       -0.063229 -0.031329677 -0.019855624 -0.0018763193
0002f0 99 a0 b9 3d 41 a8 42 bc 0e fd a2 3c ef 72 0c bd
       0.09063835 -0.011880935 0.019896057 -0.034289297
000300 56 13 c1 3d ae ab 54 bd 82 fe 84 3c 0a c7 a3 3d
       0.09427516 -0.05192154 0.01623464 0.07996948
000310 7e df 20 39 6c 8c 06 3c 5c 03 92 3c 6a 94 60 3c
       0.00015342046 0.00821219 0.017823867 0.01370726
000320 87 06 6d bc fc 87 3e bb 4b 0f 9d bc e2 6d a0 bd
       -0.014466888 -0.0029072752 -0.019172331 -0.078334585
000330 28 d4 bc 3b bb 41 07 3c be 69 15 3c 9b 6b e9 3c
       0.0057625957 0.008255417 0.009119449 0.028493693
000340 16 95 81 bc 40 3f d7 39 7a 66 f9 bc 58 c2 24 bd
       -0.01581816 0.0004105512 -0.030444372 -0.040224403
000350 61 35 8d bc f2 0e 79 bc d1 10 14 bd 6d eb 3c 3c
       -0.017237367 -0.015201317 -0.03614885 0.011530739
000360 1c 91 32 bc 3f 54 45 3d 32 dc 20 3c 51 d1 0b bd
       -0.010898855 0.048176046 0.009818124 -0.034135167
000370 79 ff 67 3d 22 8b 35 bb 10 e7 33 bd c7 41 89 bd
       0.056640122 -0.0027701338 -0.04392153 -0.06701999
000380 03 d9 9b 3c 24 e3 9f bc 59 4b 84 bc f7 e2 34 bb
       0.019024378 -0.019517489 -0.01614921 -0.0027601102
000390 6e 0a 90 bd e5 81 28 bc fc df bb 3c 4a 66 25 3c
       -0.07033239 -0.0102848755 0.022933953 0.010095188
0003a0 08 63 2e 3c 0f bf 21 3c 67 95 02 bc 95 53 b3 bc
       0.010643728 0.009872212 -0.007970191 -0.021890441
0003b0 77 a2 2f bd 2e 4c 05 bc 5a 60 0c bc 21 e2 be bc
       -0.042879548 -0.008135838 -0.008567894 -0.023301186
0003c0 85 10 d6 3b 65 6b 00 3c be 5f ca 3c b0 53 71 bb
       0.006532731 0.007838105 0.024703857 -0.0036823563
0003d0 d6 22 05 bd b8 38 74 3d c5 d0 4d bb 6a c3 35 bd
       -0.032503925 0.059624404 -0.0031404954 -0.044375814
0003e0 b5 28 66 bd b5 be 2f 3c 95 20 20 3d bd 23 37 3d
       -0.056191165 0.01072662 0.039093573 0.044711817
0003f0 4c fd d4 3c bf 63 fd bb f9 41 dd 3b 4b b2 9d 3a
       0.025999688 -0.007732838 0.0067522493 0.0012031285

fc.0.bias f4 [100]
000000 07 ae b4 bd 59 04 e9 bd c2 58 b5 bd 0d c7 ad bd
       -0.088222556 -0.113777824 -0.0885482 -0.084852315
000010 18 b0 af bd c3 dc a1 bd 51 5a a6 bd 96 b5 a5 bd
       -0.08578509 -0.07903435 -0.08122695 -0.080912754
000020 c1 aa b7 bd c6 c4 c2 bd ac 04 11 bd 2d a7 b6 bd
       -0.089681156 -0.09510188 -0.035404846 -0.08918605
000030 fb 20 34 bd fd f9 ad bd 2d 55 c0 bd 0e a8 a8 bd
       -0.043976765 -0.08494947 -0.09391246 -0.08235179
000040 15 fc ac bd 7d 48 2c bd 81 77 ae bd 82 ed a2 bd
       -0.08446518 -0.042061318 -0.08518887 -0.07955457
000050 ce 3f a7 bd b8 3a ba bd b9 42 15 bd af 0b fb bc
       -0.08166467 -0.09093231 -0.036440585 -0.03064522
000060 70 14 aa bd f9 81 ec bc de 42 39 bd 32 45 39 bd
       -0.083046794 -0.02887057 -0.045229785 -0.045232005
000070 34 fa 91 bd 94 31 a3 bd 24 76 50 bd 89 84 0f bd
       -0.071278006 -0.07968441 -0.050893918 -0.035038505
000080 89 73 30 bd c4 71 2a bd 16 31 b2 bd b3 21 f3 3c
       -0.043078933 -0.0416124 -0.08700769 0.029679155
000090 91 e7 58 bd 4c f5 b1 bd 74 06 51 3d 62 4e 92 bd
       -0.052955214 -0.08689365 0.051031545 -0.071438566
0000a0 31 f0 b4 bd 7c ec aa bd f1 6d a6 bd 81 91 22 bd
       -0.088348754 -0.08345887 -0.081264384 -0.039689545
0000b0 e8 f1 25 bd d5 63 33 bd 45 d8 ed bd 92 93 26 bd
       -0.040513903 -0.04379638 -0.11613516 -0.040668078
0000c0 bd a3 9c bd cd 0b 96 bd aa b4 dd 3b 48 c8 bd bd
       -0.07648418 -0.073264696 0.0067659216 -0.09266716
0000d0 05 f7 5b bd dc 15 1e bd 27 b7 a2 bd a1 0e d6 3d
       -0.053702373 -0.038595065 -0.0794509 0.10452009
0000e0 be fe bf bd c0 ee a9 bd 39 70 ab bd 73 5d b3 bd
       -0.0937476 -0.08297491 -0.08371014 -0.087580584
0000f0 c3 21 a6 bd d7 51 8a bd 0c 25 a7 bd d5 8d 8a bd
       -0.08111908 -0.06753891 -0.08161363 -0.067653336
000100 d9 de 10 bd a1 83 ab bd b9 f0 9d bd 9c d7 ad bd
       -0.035368774 -0.083747156 -0.0771193 -0.0848839
000110 6d 42 a3 bd 1c 0c b5 bd 27 bf b9 bd e2 a0 1a bd
       -0.07971654 -0.088402 -0.090696625 -0.037751086
000120 8a e1 af bd f5 0b 21 bd e7 50 f0 bd 90 85 1a bd
       -0.0858794 -0.039318044 -0.11734181 -0.03772503
000130 2c 14 a4 bd 2a 01 93 bd 1a b3 ac bd 88 67 bc bd
       -0.0801166 -0.071779564 -0.084325984 -0.091994345
000140 e5 d6 b5 bd 9a b8 0d bd 18 00 0c bc 71 35 3a bd
       -0.088788785 -0.034599878 -0.008544944 -0.045461122
000150 4b 27 eb bd d5 43 28 bd 4c a2 b5 bd 31 1a d9 bc
       -0.11482104 -0.041080315 -0.08868846 -0.026501747
000160 b5 3b b4 bd 90 5f ad bc 7c 21 8b 3d b1 18 1f bd
       -0.08800451 -0.021163732 0.06793496 -0.038841907
000170 ae b2 00 bd 35 51 b6 bd 75 a3 b0 bd a8 23 22 bd
       -0.031420402 -0.08902208 -0.08624927 -0.039584786
000180 25 b5 ad bd 66 76 1a bd 65 03 b8 bd 49 86 15 3e
       -0.08481816 -0.03771057 -0.089850225 0.14602007

fc.1.weight f4 [100, 100]
000000 4a d0 bb bc a9 f9 39 bb fd 9e 25 3c 0b 96 88 bc
       -0.022926468 -0.0028377569 0.010108707 -0.016673109
000010 10 68 2a ba 12 2e 47 3b 5e a7 1e bd fe 00 37 bd
       -0.0006500492 0.003039245 -0.038733833 -0.04467868
000020 58 43 c9 bc 62 af df bc 0f ec 07 3d b9 a3 62 bc
       -0.024568245 -0.027305309 0.033184107 -0.01383298
000030 7e 87 78 3d 58 ec 9c bc 7c 73 52 bd f8 20 e8 bb
       0.06067609 -0.019155666 -0.051379666 -0.0070840083
000040 55 cd 0d bd fd dd d0 3d 65 7d fe bc 38 ff 42 bd
       -0.034619648 0.10198591 -0.031065652 -0.047606677
000050 c4 98 ae ba 00 44 76 3c e5 54 aa 3d ec 6b da 3c
       -0.0013320674 0.015030861 0.083169736 0.02666279
000060 61 26 ed ba 42 1f ed 3c 97 64 c7 3d 86 92 a5 3d
       -0.0018093103 0.028945569 0.09735983 0.08084588
000070 fa 6f 45 3a a0 2e 61 bc e5 92 dd 3c 4b bc 98 3d
       0.00075316394 -0.013744026 0.027047584 0.07457789
000080 e4 7f 1e 3d 8f dc bb 3d 18 a7 31 3b 0e 82 82 3c
       0.038696185 0.091729276 0.0027107652 0.015931156
000090 07 60 82 bc a0 4c aa bc 40 87 6c 3c 98 e9 33 3c
       -0.01591493 -0.02078849 0.014436543 0.010980986
0000a0 ff be 1d 3d d4 fa 71 bc 3b f5 13 bd d2 23 5d 3d
       0.038512226 -0.014769275 -0.036122542 0.05398924
0000b0 c7 f1 b3 3d bd ef b2 3d 02 c5 f3 bc 84 b6 54 3d
       0.0878635 0.08737133 -0.029757027 0.051931873
0000c0 13 8a 76 3c ea 3c 84 bc 89 8a 21 3d 7d 9e 43 bc
       0.015047568 -0.016142327 0.039438758 -0.011939642
0000d0 cb 2e 30 3d 73 34 9d 3d c1 af 4e bc ef 04 0c bb
       0.043013375 0.076760195 -0.012615145 -0.0021365245
0000e0 d0 a9 26 bc ab 31 a9 bc 0a da 25 ba 35 00 a2 3b
       -0.010172322 -0.020653566 -0.0006326741 0.0049438723
0000f0 15 b9 8b 3c 72 f1 aa 3b 3c 72 1d 3c 68 e9 ad 3c
       0.017056027 0.005216771 0.009609755 0.02122946
000100 ea 5b 1e 3c 51 11 cd 3b 50 61 0e bc 6e 3a 3a bc
       0.009665469 0.006258168 -0.008690193 -0.01136647
000110 52 a6 8a bc 13 65 45 bc 16 7f be bc 23 da 8e 3d
       -0.01692501 -0.012048024 -0.023253959 0.069752
000120 90 54 f6 ba 06 66 d1 3d ab a3 9f bc 6d f9 dd 3d
       -0.0018793512 0.102245376 -0.019487223 0.1083859
000130 93 4d b9 bb ec 13 c8 bb b2 56 04 bd a2 ac 0e 3c
       -0.0056549995 -0.0061058905 -0.03230924 0.008708151
000140 0f 34 e0 bb 42 b0 bb 3d 95 25 39 3d c9 ef 32 bc
       -0.0068421434 0.09164478 0.045201857 -0.010921427
000150 fb 63 d0 ba d0 de 5c 3d 6d 68 df bb 9c b4 61 3d
       -0.0015898937 0.053923428 -0.0068178684 0.055103883
000160 a7 d3 87 bc ac ab b8 3d b0 b8 ab bb c8 b0 99 3d
       -0.016580416 0.09017119 -0.0052405223 0.075044215
000170 60 d1 f1 ba 73 ac 12 bd 45 ed d6 bb 78 9f 85 3d
       -0.001844924 -0.03580899 -0.0065590465 0.06524557
000180 60 c3 09 bc 5c 4e b7 3b fd 99 cd 39 4d 73 f9 ba
       -0.008408397 0.005594058 0.00039215377 -0.0019031555
000190 2f 5a 8e 3c 4e d0 9c b7 48 eb 7b 3b 6d b0 ef 3c
       0.017376987 -1.8693649e-05 0.00384398 0.029258931
0001a0 cc ca 2b 3c f5 df bf bc 0c 35 82 3c 16 04 a7 3c
       0.010485362 -0.02342222 0.015894435 0.02038769
0001b0 87 6d 51 3d 1f d0 2d 3d 29 da c5 bd 99 c2 e6 3c
       0.051129844 0.042434808 -0.096607514 0.028168963
0001c0 91 ba 90 bd 86 a6 00 3d bc 23 bd bc f8 da b9 bb
       -0.07066835 0.03140881 -0.023088329 -0.005671855
0001d0 81 55 cd 3c 04 53 bb bd 3b 88 50 bc a7 5d 12 3b
       0.025065186 -0.09146693 -0.012727792 0.0022333653
0001e0 21 45 42 3d 29 b1 e6 ba bb 6c 8f bd 06 7f f5 bc
       0.047429208 -0.0017600405 -0.070031606 -0.029967796
0001f0 be 94 bd 3c 04 c7 24 bd 05 ef b7 bd fb 7c 3d bd
       0.023142215 -0.04022886 -0.08981136 -0.04626177
000200 3e 20 0c 3c 47 2e a7 bc dc 0f 69 bb cd a6 50 bd
       0.008552609 -0.020407809 -0.0035562431 -0.050940324
000210 11 fd ad bd cc c8 38 bd 73 60 06 3d 24 e5 25 3c
       -0.08495534 -0.04511337 0.032806825 0.010125432
000220 e8 69 cf 3c a8 8e ca 3c 9c 6b 4b bd 2a 3e 1d 3c
       0.025319055 0.024726227 -0.04966317 0.009597341
000230 ee 64 24 3d 1b 32 57 bb c4 eb 9f 3c d1 77 ab bd
       0.040135317 -0.0032836262 0.019521601 -0.083724625
000240 6b 28 7a bd 47 20 9f bd b0 3d db 3c 64 a8 aa bd
       -0.0610737 -0.07769828 0.026762813 -0.08332899
000250 2b 11 3f 3d 7e 3f 86 bc 08 39 f9 bc 78 c2 30 3d
       0.046647232 -0.016387697 -0.030422702 0.04315421
000260 d8 de 06 ba 6e dc 32 bd b4 5e d2 3b 3a 39 1a bd
       -0.00051449006 -0.04366725 0.006419981 -0.03765223
000270 5f fd c1 bc eb 11 76 3c 2f 4a 77 bc 80 28 22 bc
       -0.023680387 0.01501892 -0.01509337 -0.009897351
000280 02 44 4c 3d b2 f0 b3 bc c2 39 8e 3c cd a0 3f 3d
       0.049869545 -0.021965358 0.017361525 0.04678421
000290 11 1d 27 bd 04 90 ea 3c fc 91 0c bc 56 aa e7 3c
       -0.040799204 0.028633125 -0.008579727 0.028279465
0002a0 9e de 86 3b 67 6e e4 b9 41 ca f5 bc 6e b0 83 bd
       0.0041158935 -0.00043569805 -0.030003669 -0.06430136
0002b0 a6 4b 49 3b 72 81 7e bd 72 cd 5e bc 06 0b 93 bd
       0.0030715256 -0.062135167 -0.013598787 -0.07179837
0002c0 6e 36 7d bb 44 e6 7c 3b c6 fb b5 3c c0 1f 7b bc
       -0.003863718 0.0038589397 0.022214781 -0.015327394
0002d0 89 bf 68 3d e9 98 37 bd f1 c4 98 bc 70 62 83 3c
       0.056823287 -0.04482356 -0.018648596 0.01603815
0002e0 9a f2 25 bc d4 ae c3 bd 1e d0 49 3c 65 00 97 bc
       -0.0101286415 -0.0955483 0.012317685 -0.018432805
0002f0 5a 01 23 bb 3b b5 90 bd 41 2c 06 bd 84 18 4a bd
       -0.0024872632 -0.07065817 -0.032757048 -0.049339786
000300 fb f8 9a b9 00 20 1d bc 05 9b 93 3c e5 57 7e bd
       -0.00029558674 -0.009590149 0.018018255 -0.06209554
000310 3b 85 c7 3b 63 fc 8a bd f4 9c c9 3c 0a de 47 bd
       0.0060888804 -0.0678642 0.024610974 -0.048795737
000320 98 da e3 ba c4 f1 71 3c 1f 07 0c bd f9 39 13 3c
       -0.0017383872 0.014767114 -0.03418648 0.00898599
000330 23 75 c2 bc c5 29 fd 3c ba 70 02 3d 7a e7 c2 3c
       -0.023737496 0.030903706 0.031845786 0.023792017
000340 fe a0 60 3d bd 8c 48 3c ad 4e 7b bd ba fc 09 3c
       0.054841034 0.012240586 -0.061354328 0.008422071
000350 d1 96 87 bd 64 f4 44 3a a8 e0 7f 3c 76 c5 1d bc
       -0.06620563 0.00075132237 0.015617527 -0.009629598
000360 ae 35 06 3d 2f 37 38 bd 10 51 38 3d 5a 0b 82 3d
       0.032766037 -0.044974502 0.044999182 0.063498214
000370 3a f3 0c 3d cf c9 1d bd 47 8a 7c bd e5 cb 05 3d
       0.034411646 -0.038522538 -0.06165531 0.032665152
000380 2d bc b5 3c f5 f6 f8 bc c0 f2 7f bd e3 3e 84 bd
       0.022184456 -0.030391196 -0.062487364 -0.06457307
000390 97 64 76 3c 4d 55 00 3c a4 36 df 3c 16 d3 42 bd
       0.015038631 0.007832837 0.027247734 -0.04756459
0003a0 29 6d d4 bc f0 aa 12 bd bd f0 d7 3c a6 c3 d4 3c
       -0.025930958 -0.03580755 0.02635991 0.025972199
0003b0 db 05 a0 bc f6 c7 0c 3c fd 6e a7 3c 5b 6f 0a 3c
       -0.019534042 0.008592596 0.020438666 0.008449401
0003c0 8a 27 9a 3c 05 30 9a bc 12 62 86 3d a5 29 68 bd
       0.018817682 -0.018821726 0.06561674 -0.05668034
0003d0 e7 d4 86 bd ea 34 44 bd 12 fe 3d 3d f2 f0 a0 bd
       -0.06583577 -0.047902025 0.04638488 -0.07858457
0003e0 bb 49 8d 3d d8 e7 89 bc ed 29 a8 bc ab a6 1b 3d
       0.068988286 -0.016834185 -0.020527804 0.038000744
0003f0 25 68 dd 3b d8 ab 6d bd 6b bd 02 3d f1 05 4d 3d
       0.0067567998 -0.05802521 0.031918924 0.050054494

fc.1.bias f4 [100]
000000 f0 d5 30 3d 31 b1 56 bd 6d 22 65 bd b7 6f 55 bd
       0.043172777 -0.052415077 -0.055941034 -0.052108493
000010 7f 0c 6b bd e3 8a 38 3d fc 3e 5c bd bc 89 75 bd
       -0.057384964 0.045054328 -0.053771004 -0.059945807
000020 9b fd 42 3d a5 98 a7 3d 0f fa 76 bd 03 56 53 3d
       0.04760514 0.081834115 -0.06029707 0.0515957
000030 12 ba 73 bd 84 f8 61 bd 29 7c 32 3d 2c e6 47 3d
       -0.059503622 -0.055168644 0.04357544 0.048803493
000040 c6 be 44 3d d6 99 55 3d 77 06 3a 3d a0 67 53 3d
       0.0480335 0.052148663 0.04541632 0.051612496
000050 6b 0f 68 3d 04 02 6f bd 3a 5a 4c bd f9 25 33 3d
       0.05665533 -0.05835153 -0.049890734 0.043737385
000060 41 38 42 3d 9d fd 7b bd aa 50 5c bd 53 1a 5e bd
       0.04741693 -0.06152116 -0.053787865 -0.054224323
000070 5b 8b 64 bd 09 1e 51 bd 13 37 73 bd 49 86 26 3d
       -0.055796962 -0.051054034 -0.059378695 0.040655408
000080 47 c4 72 bd 67 7f 56 bd b4 d1 51 3d 57 39 56 bd
       -0.059269216 -0.052367594 0.05122538 -0.052300777
000090 a4 fc 40 3d c3 60 47 3d ee 86 4c 3d 30 59 50 bd
       0.047115937 0.048676264 0.049933366 -0.050866306
0000a0 ef 71 2f 3d bc e5 31 3d c1 c1 39 3d c0 14 4c 3d
       0.042833265 0.043431982 0.045350794 0.049824476
0000b0 3f f1 4a bd 8b b8 80 bd 45 7f 57 bd fa 41 14 3d
       -0.049546476 -0.06285199 -0.052611608 0.036195733
0000c0 5e 87 5c bd 96 cc 70 bd c5 5a 59 bd cb 00 5d bd
       -0.053840034 -0.05878886 -0.05306508 -0.053955834
0000d0 04 5b 4a 3d 14 8d 35 3d 44 36 65 bd 3f b8 5c bd
       0.049403206 0.044323996 -0.055959955 -0.05388665
0000e0 2f de 50 3d 87 22 43 3d d6 d7 5d bd 0d 9a 56 bd
       0.05099314 0.04764035 -0.054160915 -0.052393008
0000f0 54 e6 3f 3d da e8 61 3d b0 d7 48 3d 98 7e 5e bd
       0.046850517 0.055153705 0.04903382 -0.054319948
000100 2e 9f 60 bd 7c 8e 7b bd 81 37 60 bd 25 0d 68 bd
       -0.054839306 -0.06141518 -0.054740433 -0.05665316
000110 19 7f 58 3d 5b 54 48 bd a0 25 67 bd 82 61 4a 3d
       0.052855585 -0.048908573 -0.056432366 0.049409397
000120 c3 52 58 bd 7c 5e 57 bd f5 70 5b 3d 28 4a 1e 3d
       -0.052813303 -0.05258034 0.05357452 0.03864494
000130 29 ce 4e 3d 86 55 55 3d 87 0d 61 3d 74 97 58 bd
       0.05048958 0.052083515 0.05494454 -0.052878812
000140 a1 1c 69 bd 3d 9e 56 3d 4d 8d 5c bd a5 ef 5e 3d
       -0.05691207 0.052397 -0.053845692 0.05442776
000150 6c fd 58 bd bf c1 41 3d 37 79 64 bd 96 25 28 3d
       -0.052976057 0.04730391 -0.055779662 0.04105147
000160 3b ab 41 3d 22 b0 6e 3d 24 0b 35 3d c4 d9 33 3d
       0.04728244 0.058273442 0.044200078 0.04390885
000170 4a 02 80 bd c2 81 7c 3d e4 3e 67 bd c7 6e 57 3d
       -0.062504366 0.061647184 -0.05645646 0.05259588
000180 3e 7f 3d 3d c3 a6 3f 3d c8 0c 69 bd 16 5d 55 3d
       0.046263926 0.046789896 -0.056896955 0.052090727

fc.2.weight f4 [100, 100]
000000 18 74 e9 3d 73 41 93 bd 14 27 71 bc e2 7f 9e bd
       0.11399096 -0.07190218 -0.01471879 -0.077392355
000010 65 f9 0f bd c8 e9 b8 3d c0 cf 89 bc a7 2a 44 bd
       -0.03514995 0.09028965 -0.016822696 -0.04789224
000020 60 9e 42 3d 5d 18 72 3c 6f 19 59 bd 92 ae 55 3d
       0.04751432 0.0147763165 -0.05300277 0.052168436
000030 66 28 9e bd 42 bd b2 bd 76 93 8a 3d 4d 98 3a 3e
       -0.07722549 -0.08727504 0.06766407 0.1822216
000040 f3 3f 8b 3d f2 06 a2 3d 41 cd ea 3d 57 b7 fc 3d
       0.06799307 0.07911481 0.1146493 0.12339657
000050 6e a4 0e bd 85 91 d5 bd 1a 05 88 bd d6 af 1a 3d
       -0.03482478 -0.10428146 -0.06641598 0.037765346
000060 48 26 8b 3d e6 d7 d3 bd 0c c1 11 be 0a 19 fa bd
       0.06794411 -0.10343914 -0.14233798 -0.12211807
000070 d9 f1 3e bd a4 5f 68 bd 79 26 1d bd 9c a0 be 3d
       -0.046617363 -0.056731835 -0.03836677 0.093079776
000080 00 f7 b2 bd c9 32 84 bd 58 0f a5 3d 00 da 02 bc
       -0.08738518 -0.06454999 0.08059567 -0.007986546
000090 df 87 68 3d 97 e5 39 3d 70 a1 cf 3d 47 41 15 be
       0.0567702 0.04538497 0.10138214 -0.14575683
0000a0 17 a2 f9 3c e4 50 9e 3d d6 c7 08 3e 45 75 65 3d
       0.030472798 0.077302724 0.13357481 0.05602004
0000b0 fe 24 ff bd 35 9f 9b bd a0 e9 34 bd 57 70 fd 3d
       -0.124582276 -0.07598726 -0.044168115 0.12374943
0000c0 9f 93 4a bd cd b8 75 bd 6f ae 62 bd 07 ac 45 bd
       -0.04945719 -0.059990693 -0.055342134 -0.04825976
0000d0 ba 2f ec 3c bf ec 3e 3d 48 5c 93 bc 03 37 9c bd
       0.028831352 0.046612497 -0.017988339 -0.0762768
0000e0 54 ca 4e 3d e9 bb 9c 3d 9c 00 86 bd 5f 7d 95 bd
       0.050485924 0.076530285 -0.06543085 -0.07299303
0000f0 f0 51 ae 3d 02 b0 dd 3c 22 6a be 3d c4 91 8b bd
       0.08511722 0.027061466 0.09297587 -0.06814912
000100 71 7a 80 bd 67 75 1c be 88 e4 a8 bd 3a 72 66 bd
       -0.06273354 -0.1527916 -0.08246714 -0.05626128
000110 8c 0c b2 3d 95 6d df bd 0f 65 17 bd 5d 63 12 3d
       0.086937994 -0.10909573 -0.03696161 0.03573929
000120 5b 6a f0 bd dc b4 f1 bd a2 e5 45 3d 73 0d 6e 3c
       -0.11739036 -0.11802074 0.048314698 0.014529574
000130 14 43 5c 3d f6 d8 d5 3d 8f cf ab 3d f1 8f a4 bd
       0.05377491 0.10441773 0.08389198 -0.08035267
000140 86 eb 8e 3c 92 03 0e 3d 8f 0d 4e bd 33 d0 93 3d
       0.01744629 0.034671374 -0.0503059 0.07217445
000150 e0 df 9e bd c8 b7 11 3e 5d fb 6c bd 73 6c be 3d
       -0.077575445 0.14230263 -0.057856906 0.09298029
000160 49 58 a4 3d 6f 2c d7 3d 76 bd 96 3d 77 ff 10 3e
       0.080246516 0.10506522 0.073603556 0.14159952
000170 b4 83 64 bd df d4 3f 3d 44 eb 9f bd dc 5d 73 3d
       -0.055789664 0.04683387 -0.07808545 0.059415683
000180 e2 eb be 3d fb 9c c3 3d 3e 98 33 bd ec 05 20 bc
       0.09322335 0.09551426 -0.04384636 -0.009767037
000190 25 f7 d3 bd a5 48 ec 3c 9d 45 4f 3d 40 74 ea 3d
       -0.103498735 0.028843233 0.050603498 0.11447954
0001a0 c7 b4 d9 3d 36 6d 8a bd 4e 78 de 3d 39 29 ae 3d
       0.10630184 -0.067591116 0.1086279 0.08503956
0001b0 a3 15 9a bd 04 a5 64 bd ae 33 cf 3c 12 fd cd bd
       -0.07523658 -0.055821434 0.025293197 -0.10058035
0001c0 19 a5 e4 3c 8f 9c 4e 3d 1e 0f 0f be 94 27 c6 bd
       0.027910756 0.050442275 -0.1397061 -0.09675518
0001d0 22 0b 5a bc 01 87 ac bd 59 d8 76 bd 3e f3 b8 bc
       -0.013308318 -0.084241875 -0.06026492 -0.022576924
0001e0 1e f0 79 bd 50 14 04 3d 57 2d 59 3d 30 3d a4 ba
       -0.06102001 0.032245934 0.053021755 -0.0012530442
0001f0 db 66 7c bd a2 c8 38 bc 57 db 69 3c c0 a1 f6 3c
       -0.061621528 -0.011278303 0.014273486 0.030106425
000200 d1 6e 5d 3d af f7 f5 3d 6d 04 c2 3d af 40 89 bd
       0.05406076 0.120101325 0.094735004 -0.067017905
000210 ef 0e 49 3d 4e 03 a3 3d 02 ea bf bd 10 e0 b0 3d
       0.049086507 0.07959615 -0.09370805 0.086364865
000220 b2 6f 93 bd e7 82 ef bd c5 92 5a bd fb 66 5d 3d
       -0.071990386 -0.116948895 -0.053362627 0.054053288
000230 69 48 d7 bd f2 8f eb bd f3 13 33 bd be db d0 bd
       -0.10511858 -0.11502065 -0.043720197 -0.101981625
000240 5c ff 87 3d d8 d0 7b 3d 49 66 e7 3d f9 37 f2 bd
       0.06640503 0.061478466 0.11298806 -0.11827082
000250 07 be a1 3d 27 ca 98 3d f3 ab 9e 3d f3 c5 17 3e
       0.07897573 0.074604325 0.077476405 0.14821605
000260 0e 4b 5c bd 8c ed 0c be 13 35 fa 3c 95 49 aa 3d
       -0.053782515 -0.13762492 0.030542886 0.08314816
000270 9e 74 ba bd 69 ed f1 bd e0 42 dd 3d 1c e9 79 3d
       -0.09104274 -0.118128605 0.10803771 0.061013326
000280 27 95 14 be 7b 8c 12 be db 95 77 bd 1a b9 78 3d
       -0.14510022 -0.14311402 -0.060445648 0.0607234
000290 98 e8 1c 3e d0 da ab 3c ba 32 97 3d 3b eb b8 3d
       0.15323102 0.020978361 0.07382722 0.09029242
0002a0 2a ed 61 bc c0 f9 ab 3c 90 c1 dd 3b 4e 29 9a bd
       -0.0137894545 0.020993114 0.006767459 -0.075274095
0002b0 85 40 8b 3c ca 24 82 3d 5c 4c 17 bd f0 e8 e7 bd
       0.016998539 0.06354673 -0.036938056 -0.11323726
0002c0 2e 3a c9 bd 5b 82 85 bd 33 bf a2 bd 10 2e b3 3d
       -0.0982555 -0.06519004 -0.079466246 0.0874902
0002d0 e0 cd bc 3d 1c 0e 07 be 38 92 46 3d f7 d5 cd bc
       0.09218955 -0.13188976 0.04847929 -0.02512644
0002e0 14 c3 73 3d 46 18 63 3c d9 d6 a3 3d b2 9e 5b bd
       0.059512213 0.013860768 0.07999963 -0.05361814
0002f0 00 63 d9 bd 3a 07 5c bd 3b 8c 7c bd 91 47 87 bd
       -0.10614586 -0.05371783 -0.06165717 -0.06605447
000300 6f a7 ec 3c 42 60 68 bd 8e fd 80 3d b7 86 8d bd
       0.028888432 -0.056732424 0.06298362 -0.069104604
000310 de 47 86 bd 0a 60 10 be c1 d4 18 3d c9 df d7 bd
       -0.06556676 -0.14099136 0.037312273 -0.105407305
000320 c9 df 7f bd f5 70 4b 3b 26 6b b9 3d 56 01 e8 3d
       -0.062469278 0.003104267 0.0905364 0.1132838
000330 de 76 06 3e 96 1b 16 bc 79 66 fb 3d 96 0c 08 3e
       0.13131282 -0.00916185 0.122754045 0.13286051
000340 55 06 60 bd d8 ae a3 bb 49 60 2b 3c 67 e2 e5 bd
       -0.05469354 -0.0049952082 0.010459968 -0.112248234
000350 57 62 88 bc 20 c7 92 3d db 75 fd bd 05 de c4 bd
       -0.016648455 0.07166886 -0.12375995 -0.09612659
000360 96 07 14 bd de 86 9d bd 34 f8 27 bd d2 53 73 bd
       -0.036140047 -0.076917395 -0.04100819 -0.05940611
000370 0f a6 85 bd 15 08 fa 3c 20 66 ab 3c 5a c1 71 3c
       -0.06525814 0.030521432 0.02092272 0.014755571
000380 cf 89 f3 bc 74 5e 2a 3a d3 fe 0a 3d c5 b5 54 3d
       -0.029728798 0.000649906 0.033934426 0.05193116
000390 7a f9 c0 3d 76 00 d2 3d e9 2c 13 3e 4d 3b 57 bd
       0.09422584 0.10253994 0.143726 -0.052546788
0003a0 43 f0 17 3d e8 13 b0 3d 15 3f 9b bd 11 5f d8 3d
       0.037094366 0.08597547 -0.07580391 0.105650075
0003b0 be ab 14 be de 60 24 be 2e 58 e0 bc 51 da 07 bd
       -0.1451864 -0.16052577 -0.027385797 -0.033167187
0003c0 88 1a 07 bd 41 f0 02 be 9d 07 f9 bc 04 be d8 bd
       -0.032984287 -0.12786962 -0.030399138 -0.105831176
0003d0 34 b4 23 3d ac d8 40 bb 64 6f 86 3d 97 36 bb bd
       0.039966777 -0.0029426022 0.06564215 -0.091412716
0003e0 51 c0 42 3d cb 30 d6 3d 3f 30 4e 3d 62 b7 2e 3e
       0.04754669 0.10458525 0.05033898 0.17062142
0003f0 cb 9b c3 bd 19 c2 0f be 45 20 8e 3d 4a 2c a7 3d
       -0.095511995 -0.14038886 0.06939749 0.08162744

fc.2.bias f4 [100]
000000 7b 84 46 3d 42 d7 aa bc 4a 5d 55 3c a6 46 48 3d
       0.048466187 -0.020854596 0.01302273 0.0488955
000010 97 cb 64 bc 23 36 13 3d aa 22 1b 3d 1d 54 1f 3d
       -0.013964555 0.0359403 0.037874855 0.038898576
000020 55 df f2 3c 70 e4 46 3d 9e 25 0f 3d ee d2 21 3d
       0.029647509 0.0485577 0.034947984 0.0395078
000030 1a a8 1b 3d 72 a0 2b 3d 88 18 49 3d 74 70 27 3d
       0.03800211 0.04190106 0.04909566 0.040878728
000040 67 2d 8b 3c 1f d0 2b 3d 40 8a ba bc de ca 34 3d
       0.016989423 0.041946527 -0.022771 0.04413878
000050 62 d8 f0 3c f6 5b 47 3d 82 41 9d bc 7f d2 3c 3d
       0.029400054 0.048671685 -0.019196276 0.046099182
000060 4a 84 10 3d a6 91 22 3d 92 6a b9 bc 43 16 a5 bc
       0.03528241 0.039689682 -0.022633824 -0.020152217
000070 58 94 60 bc 73 ca 40 3c 73 40 21 3d 24 2d 12 bb
       -0.013707243 0.011767018 0.039368104 -0.0022304738
000080 f3 ed 53 3d 69 da d1 3c 8c df 39 3d 5a 4c ee bc
       0.051740598 0.025616841 0.045379207 -0.029089142
000090 18 4b 16 3d 62 c6 1b b9 a1 b1 9c bc b2 54 b4 3c
       0.03669271 -0.00014855855 -0.019127669 0.022013042
0000a0 96 63 23 3d e9 0c 0d 3d 5a a0 9b 3c ea c9 1b 3d
       0.039889894 0.03443614 0.01899736 0.038034357
0000b0 81 29 98 bc 78 6f 3a bc 2e 0c f9 3c 60 15 2f 3d
       -0.018574478 -0.011379115 0.030401316 0.042744994
0000c0 f4 d8 71 bc 0e 38 44 3d 4c f3 38 bb 14 12 bc 3c
       -0.014761198 0.04790502 -0.0028221188 0.02295784
0000d0 59 0d 08 bd 86 e9 04 3d 71 f2 40 3d cc 83 3b 3d
       -0.033215854 0.032449268 0.04710621 0.04577999
0000e0 e1 91 d5 bb b7 b0 30 3d 7d df 45 3d 5a 58 dc bc
       -0.0065176343 0.04313728 0.04830884 -0.026897598
0000f0 f4 b3 23 3d 85 ba 3f 3d ba e0 1d 3d 50 e7 b3 bc
       0.03996654 0.04680874 0.038544394 -0.021960884
000100 be 35 bf bc 34 42 d5 bc 44 3c cb 3c c5 b6 37 3d
       -0.023341056 -0.026032545 0.02480901 0.044852037
000110 36 14 49 3c 11 8e 38 3d 40 1e de 3c 1e 06 22 3d
       0.012272885 0.04505736 0.027114034 0.039556615
000120 97 c1 31 3d 9f 6b 1c bc c4 c4 be bc 97 7c 40 3d
       0.043397512 -0.009547143 -0.023287185 0.046993818
000130 b5 33 0e 3d 00 eb f4 bc 23 59 0e 3d b5 8a de bc
       0.03471728 -0.029897213 0.034752976 -0.02716575
000140 4c ac 55 3d 11 7b 2b 3d 11 6d 0b 3d 72 bf 2b 3d
       0.05216627 0.041865412 0.03403956 0.041930623
000150 14 fb b4 bc a1 3e 0c 3d 72 c2 e9 3c b3 d3 91 3c
       -0.02209238 0.034239415 0.028535102 0.017801141
000160 be 8b 14 3d 52 40 ff 3c 0c df 3e 3d 18 5d ef bc
       0.03626608 0.0311586 0.046599433 -0.029219195
000170 4b 93 21 3d 31 6f 12 3d a1 2d 0c 3d 07 89 46 3d
       0.03944711 0.03575057 0.034223203 0.048470523
000180 d2 33 3d 3d 3f c8 bc bc d0 c9 c5 ba 1e ae eb bc
       0.046191998 -0.023044704 -0.0015090052 -0.028769549

fc.3.weight f4 [100, 100]
000000 3d 45 c3 bc 6f 4d f4 3d e6 ad 0a 3e a6 d8 ca bc
       -0.023836726 0.11928832 0.135429 -0.02476151
000010 07 fb fe 3d 38 c5 b0 3b 71 40 4f bd 3c 0b 1c bd
       0.124502234 0.005394604 -0.050598565 -0.03809665
000020 7a c3 1e 3e af 2a 15 bd a7 d2 a4 bd ce bf ff bd
       0.15504256 -0.03641766 -0.08047991 -0.12487756
000030 de 38 b8 bd d3 fa 88 bd ba e9 71 bd 50 26 70 bd
       -0.089952216 -0.06688466 -0.05906079 -0.058630288
000040 06 9b 21 3e 3c a3 a5 bd 5c 13 4e 3d 01 6a 85 bd
       0.15781793 -0.08087775 0.05031143 -0.06514359
000050 30 4d 0b 3e 8d dc 2a bd 98 b6 e5 3d a1 16 61 bd
       0.13603663 -0.04171424 0.112164676 -0.05495322
000060 6f ef 2a 3e 75 9a 96 bd e9 8a c5 3d ad cd f8 3d
       0.16692899 -0.07353679 0.09645636 0.121486045
000070 f6 73 e5 3d a5 c5 15 3e 64 53 bd bd c4 0b de 3d
       0.112037584 0.14626177 -0.09244421 0.10842088
000080 b8 e1 6c bd 36 7a 21 bd fb 26 df bd fd 69 09 3e
       -0.05783245 -0.03942319 -0.10896107 0.13419338
000090 3c 44 8c bd 97 13 05 3e 46 b5 0d 3e 89 29 2a 3e
       -0.06848952 0.12995754 0.13838682 0.16617407
0000a0 79 cc 31 bd 79 a5 0b 3e 3d f5 15 3e cd 77 a3 bd
       -0.04340789 0.13637342 0.14644332 -0.079818346
0000b0 5a b4 00 3e 4a 6c 19 3e 90 c3 a4 bd a2 b9 41 bd
       0.12568799 0.14982715 -0.08045113 -0.047296174
0000c0 3e 6f 04 3e da d1 92 bd 60 f4 eb 3d 58 5c 37 bd
       0.1293306 -0.07168932 0.1152122 -0.0447658
0000d0 b1 63 aa 3d f3 46 ef bc b7 24 1c bd 95 8e 37 bd
       0.08319796 -0.029208636 -0.03812095 -0.04481371
0000e0 b9 5c d2 3d 11 7b 89 bd 0e 11 7a bd d0 f6 fe 3d
       0.10271592 -0.06712926 -0.06105142 0.124494195
0000f0 8c df e7 bd 02 3a 7b 3a 1a 8f 08 bd 43 0c 02 3e
       -0.11321935 0.0009583534 -0.033339597 0.1269999
000100 10 b0 f5 3d 86 7a 8c 3d 0f b3 83 bd db 02 70 bd
       0.11996472 0.06859307 -0.06430637 -0.058596473
000110 66 0b 05 3e 68 53 d1 bd ac 36 74 bd 42 47 93 bd
       0.1299263 -0.102209866 -0.05962245 -0.07191326
000120 9c 7c 2d bd b0 16 a0 3d 09 71 c7 3d 09 93 fa bc
       -0.042355165 0.07816827 0.097383566 -0.03058769
000130 56 52 4c bd 4d 31 f8 3d d8 e7 cb bc 15 92 69 3c
       -0.04988321 0.121187784 -0.024890825 0.01425602
000140 58 ef c9 bb 4f 03 17 3e 68 7b 21 bd 17 ed bc bd
       -0.006162565 0.14747356 -0.03942433 -0.09224909
000150 52 2b e1 3d 5f a0 6b bd 9f 31 0c be 5a 76 ba 3d
       0.10994591 -0.05752599 -0.13690804 0.09104605
000160 10 94 12 bd 36 b5 4a bd 4c b9 9c bc 97 9a b4 3d
       -0.035785735 -0.049489222 -0.019131325 0.08818548
000170 ff 9f f2 bd cd 53 6e bd 91 7d 04 3e d9 99 14 bd
       -0.11846923 -0.058185387 0.12938525 -0.036279533
000180 36 70 58 bd b9 7f 04 3e fe 7c 01 3e 0b 3d ca 3d
       -0.052841388 0.12939347 0.12645337 0.09874924
000190 6a de b0 bd 27 ad ef 3d 0e 8b ec 3d 47 90 3c bd
       -0.08636172 0.11702948 0.1154996 -0.04603603
0001a0 d1 ad c6 3d 90 ac 4c bd 5f 49 09 be d6 f2 a8 bd
       0.097011216 -0.049969256 -0.13406895 -0.08249442
0001b0 a3 81 20 3e 66 f9 75 bd 8f 71 ae bd 52 f1 c8 bd
       0.15674452 -0.060052298 -0.08517753 -0.09811653
0001c0 56 6f c3 bd 9b b5 c1 bd dd aa ca bd d5 da e7 bd
       -0.0954272 -0.094584666 -0.09895871 -0.11321036
0001d0 8f 46 1c 3e 84 93 18 be ac e8 ce 3d d7 af c7 bd
       0.15261291 -0.14900023 0.101029724 -0.09750336
0001e0 1e f3 04 3e f7 77 b1 bd 6d 35 bb 3d 98 18 9d bd
       0.12983367 -0.086654596 0.091410495 -0.076707065
0001f0 1e fa 36 3e 81 a4 a1 bd 16 43 dc 3d 0c 33 bf 3d
       0.1786885 -0.07892705 0.10754983 0.09335908
000200 a7 90 ad 3d 42 81 11 3e 48 70 1f bd 7d 94 15 3e
       0.08474856 0.14209464 -0.03892544 0.14607425
000210 81 0c 9d bd cb f5 cc bd 1a cb e2 bd 54 58 a8 3d
       -0.076684006 -0.10007819 -0.11073895 0.08219972
000220 4c c9 b4 bd 83 2a d9 3d 3e 4c cd 3d 4d 6f 13 3e
       -0.08827457 0.106038116 0.10024308 0.14397927
000230 b7 83 bb bd d9 01 13 3e 14 bb 0b 3e 9c c6 de bd
       -0.09155982 0.14356174 0.13645583 -0.108777255
000240 3a 7a 03 3e 66 a1 f8 3d 39 10 f5 bd f1 e8 b3 bd
       0.12839594 0.12140159 -0.11965985 -0.087846644
000250 58 5c 93 3d 47 f1 8c bd b0 50 16 3e 61 53 07 be
       0.071953475 -0.068819575 0.14679217 -0.132154
000260 1f c1 8b 3d 08 d7 eb bd 87 44 96 bd 71 80 eb bc
       0.06823944 -0.11515623 -0.07337289 -0.02874777
000270 5b dc dc 3d 77 76 c4 bd 15 97 8c bd 7e c8 8e 3d
       0.10784217 -0.09592908 -0.06864754 0.069718346
000280 9a 04 01 be 0c 0e aa bd 18 5b cd bd 57 a3 e9 3d
       -0.12599412 -0.083034605 -0.100271404 0.11408108
000290 9e 6a cb 3d e9 cc c1 3d 2b fd cf bd 5a 39 bd bd
       0.09932445 0.09462912 -0.1015571 -0.092394546
0002a0 2e 74 f2 3d 86 c2 b7 bd 56 a9 07 be 5f ef c9 bd
       0.11838566 -0.08972649 -0.1324819 -0.098601095
0002b0 50 38 9b bd a6 34 96 3d 79 b4 94 3d 40 78 83 bd
       -0.075791 0.07334261 0.07260985 -0.0641942
0002c0 a0 e2 bf bd 49 4b 06 3e ea cf c3 bd 9a 37 8d 3d
       -0.09369397 0.13114657 -0.09561141 0.06895371
0002d0 10 a0 63 bd 98 fa 0a 3e fe 33 f9 bd 51 eb df bd
       -0.05557257 0.13572156 -0.1216812 -0.10933555
0002e0 ce 8a e2 3d 61 c7 dd bd 98 8f 9c bd 32 49 0a 3e
       0.11061631 -0.10829044 -0.07644576 0.13504484
0002f0 49 1d e9 bd 4f 56 e2 bd 87 6c c0 bd f4 19 d6 3d
       -0.11382539 -0.11051618 -0.093957 0.10454169
000300 13 43 ee bd 85 82 fb bd 87 76 26 3e d5 df cf bd
       -0.11633887 -0.12280754 0.16256152 -0.101501144
000310 94 c8 b7 bd d6 62 cc 3d 87 84 0e 3e ef ea a3 3d
       -0.08973804 0.09979789 0.13917743 0.080037944
000320 e0 4f d8 3d db 63 74 bd 4e 72 3b bd 12 22 fd 3d
       0.1056211 -0.059665542 -0.045763306 0.12360014
000330 db 5a 78 bd 0a 1a 25 3e 61 37 1c 3e bf 3d fa 3d
       -0.06063352 0.16123214 0.152555 0.122188084
000340 29 87 a5 bb 5b 68 0d 3e 86 1d f3 3d 64 22 0f 3d
       -0.0050515127 0.1380934 0.118708655 0.034944907
000350 ba c6 98 3c bf e6 20 3e f3 ab 1c 3e 9f 90 17 3e
       0.018649448 0.15713023 0.15299968 0.14801262
000360 68 a5 7f bd 06 65 b9 3d bc 67 c9 bd 80 52 1b 3e
       -0.062413603 0.09052472 -0.09834239 0.1516819
000370 13 03 fc bc 5f 97 f8 3d 75 10 cc bc 24 e9 0f 3e
       -0.030763185 0.12138247 -0.024910191 0.1405378
000380 45 ad 6f bc 8b 49 d5 3d 0f 2e 8c bd 20 d4 00 bd
       -0.014628713 0.10414418 -0.068447225 -0.0314523
000390 d1 5a 5d bc dd 17 8d bd f6 28 49 3d 9b 38 2f bd
       -0.013510422 -0.06889317 0.04911133 -0.042778593
0003a0 68 11 c2 3d b0 93 20 3e 28 9f 6e 3d 2f ba fe bc
       0.09475976 0.15681338 0.058257252 -0.031094639
0003b0 a4 7e 59 3d a7 2c 86 bd 2c a8 69 bd 04 04 d1 bc
       0.05309929 -0.065514855 -0.057045147 -0.02551461
0003c0 07 c2 01 3e f2 51 04 bd 53 ee 6c bd f1 1f b3 3d
       0.12671672 -0.03230471 -0.05784447 0.08746327
0003d0 e2 fa 9e bd bd e5 2c bd 14 95 28 3e 10 67 12 3e
       -0.07762696 -0.042211283 0.16463119 0.14297128
0003e0 e0 9b 0b bd 87 22 16 3e 27 48 95 bd 16 58 1e 3e
       -0.0340842 0.14661609 -0.072891526 0.1546329
0003f0 97 ea 8b bd 65 0d 0d 3e 6f 0d 05 3e 31 03 bd 3d
       -0.06831854 0.13774641 0.12993406 0.09229124

fc.3.bias f4 [100]
000000 a8 29 8a 3c f3 c2 1e 3c dc 7b ab bd 05 45 3a 3c
       0.016865566 0.009690034 -0.08373234 0.011368995
000010 ee 99 d2 bb 51 34 fc bb 79 e6 a3 3b 09 2e 5e 3c
       -0.0064270413 -0.0076966663 0.0050018397 0.01356078
000020 45 d9 71 bd a3 ff 99 3b 62 37 8f 3b 13 48 c0 3b
       -0.059045095 0.0046996637 0.004370616 0.005867967
000030 66 6c ac bd 30 25 16 3d c5 b2 54 bd 02 96 07 bc
       -0.08419113 0.03665656 -0.0519283 -0.008275511
000040 0e 91 b1 bd f6 fa 7f bb f8 27 90 3b 83 58 8e 3c
       -0.08670245 -0.0039059496 0.004399296 0.01737619
000050 7d d2 98 bc a5 4c 47 bd a8 cc 47 3b 5f 26 0e bb
       -0.018655056 -0.04865708 0.0030486975 -0.0021690351
000060 f0 00 bb bd ef b8 9c 3c 27 55 2e 3c 41 50 82 3c
       -0.09131038 0.019131152 0.010640419 0.015907409
000070 06 e9 91 bc 45 f0 b1 bd 20 86 83 bd 1f 10 e4 3b
       -0.01781131 -0.08688406 -0.06422067 0.0069599296
000080 28 dd 39 bd 62 1d 12 3c 45 b0 67 3a 8f fd 18 bd
       -0.045376927 0.008918138 0.0008838217 -0.037351187
000090 ed 50 94 3c d2 2b ac bd 2e ce 99 3b a1 e2 10 3c
       0.018104995 -0.084067956 0.004693768 0.008843095
0000a0 20 e6 c1 3b 3e 0d 5f 3c a7 a2 cf 3b c1 3b f1 bc
       0.0059173256 0.013613997 0.0063365283 -0.029447438
0000b0 0c 21 ef bb af 41 69 3c dd af 1f bd 7d 67 39 bd
       -0.0072976407 0.014236852 -0.038986076 -0.04526471
0000c0 f8 a6 40 bd b6 2b 29 bd 91 0f 41 3c 67 83 2e bd
       -0.047034234 -0.04130145 0.0117834965 -0.042605784
0000d0 30 a7 61 bc ad 40 4c ba 27 c5 38 3d 25 26 5a bd
       -0.013772771 -0.000779162 0.045109894 -0.053259034
0000e0 c4 40 4d 3c 4c 59 96 bd db 13 89 bd ed aa 62 3c
       0.012527648 -0.07341251 -0.0669324 0.013834697
0000f0 ae 12 b4 bd cd 20 57 3b c3 08 77 3b d5 25 7d bd
       -0.08792625 0.0032825947 0.0037694431 -0.061803658
000100 3d 30 5d bd f0 33 5f bd 8b 9d 3c bc 48 c8 bd bd
       -0.05400108 -0.05449289 -0.011512171 -0.09266716
000110 a9 bd 80 bd 4a 56 e1 3b 59 21 59 3b ff f0 e6 3b
       -0.06286175 0.0068767415 0.003313145 0.007047772
000120 da 4d 73 3c b3 6b 3a 3d eb d9 91 3c ad aa ae 3a
       0.014850104 0.045512866 0.017804107 0.0013326012
000130 1f 0e 70 3c 31 be 5b 3c 13 e6 32 b9 e9 ab 4d 3c
       0.014651804 0.013412044 -0.00017061112 0.012553194
000140 42 58 e4 b9 e4 fc ee bc 84 fd 28 3c 51 4d 5e 3c
       -0.00043553306 -0.029173322 0.010314349 0.013568238
000150 b8 d1 b3 3b 4b e2 23 3c c5 31 1c 3c 68 7a 78 bb
       0.005487647 0.010002683 0.00953335 -0.0037914757
000160 b6 bd 60 3c 72 b6 0e 3c 5b d7 f9 bc 1b 23 b1 3c
       0.013717106 0.008710491 -0.030498197 0.021623185
000170 76 3f d9 3b 7e b0 49 3c db f5 38 bd aa ba 2a 3c
       0.0066298796 0.012310145 -0.04515634 0.010420481
000180 9b 1f 33 bc ae ca a7 bd 31 7c 11 bd e1 a4 b0 bd
       -0.010932828 -0.08192955 -0.03551883 -0.08625198

fc.4.weight f4 [100, 100]
000000 ae 32 07 bd 68 8c 36 bb 5f 01 66 3e be 71 04 3e
       -0.033007316 -0.0027854685 0.2246146 0.12934014
000010 99 71 3b 3d 09 42 52 3e 8f 12 25 bc 57 6c 03 bd
       0.045762632 0.20533003 -0.0100752255 -0.032085743
000020 77 c7 65 3e 51 02 5f bb 68 9c b4 bc 1b a2 ab 3c
       0.22439371 -0.003402848 -0.022047237 0.020951321
000030 e2 3d 3f 3e 8e 9e 04 3e 83 4f 48 3e a5 e0 cd bc
       0.1867595 0.12951109 0.19561581 -0.025131533
000040 b5 e7 1f 3e c2 6d 48 3d 9d 9c 68 3c 75 fd 60 3c
       0.15615733 0.0489328 0.014197496 0.013732304
000050 98 d4 0a 3e dd 58 5f 3e 42 18 b7 3c db 08 7c bc
       0.1355766 0.21811242 0.022350434 -0.015382971
000060 fe 22 3d 3e 8a 5c 2f bb af 56 1f 3e 1f 66 18 bc
       0.1847038 -0.0026758038 0.15560411 -0.009301691
000070 ab 0c 2b 3d 66 60 59 3e 48 ad 3a 3e 81 d0 01 3e
       0.041760128 0.2122818 0.18230164 0.12677194
000080 0a 58 1c 3e a6 92 b4 3a d4 2c 8f 3c 0f d7 4c 3e
       0.15267959 0.0013776615 0.01747743 0.20003913
000090 2a 7c 93 3b 71 88 49 3e c8 61 17 bc 2e 57 fc bc
       0.0045008855 0.19680955 -0.009239621 -0.03080329
0000a0 28 3f 2e bd 65 a9 bb bb 1e a3 56 39 48 f3 eb 3d
       -0.0425407 -0.0057269805 0.00020469396 0.115210116
0000b0 f7 3f 28 3e 2e 51 69 bd 0d 12 34 3e b6 b5 20 3e
       0.1643065 -0.056962185 0.17585011 0.15694317
0000c0 8e 48 15 3e 6e 93 0d 3e 39 b3 20 bd 7b cf 5a 3e
       0.14578459 0.13825771 -0.03923342 0.2136821
0000d0 1a f4 0a 3e 64 2f 97 3c d6 b4 07 3e 8a ff 2f 3e
       0.1356968 0.018455215 0.13252577 0.17187324
0000e0 0a 52 08 3e da 9b 48 3e 18 18 48 3e 03 99 56 bb
       0.13312545 0.19590703 0.19540441 -0.003274501
0000f0 dc 38 6c 3e 01 28 80 bb 62 8f 8f bc e5 24 5e 3e
       0.23068565 -0.003911019 -0.017524425 0.21693762
000100 c8 17 06 3e 7e 91 56 3e 13 65 08 3d 6f 7b 5d 3e
       0.1309501 0.20953938 0.033299517 0.21629117
000110 a6 4b 2d 3e e4 ef 99 3c 12 67 3e 3d 74 e4 7e 3c
       0.16923389 0.018791147 0.046485014 0.015557397
000120 0d 14 78 bb 87 f7 99 3d 78 67 56 bd ec 9c 82 bc
       -0.0037853748 0.07517915 -0.05234477 -0.015943967
000130 db 5a b1 bc 5c 92 f1 3a eb c4 bd 3c 6d ee 7a 3c
       -0.021649769 0.0018430459 0.023165187 0.015315634
000140 03 14 18 3d 21 d8 2e 3e 4c 20 64 bc d5 e0 d4 ba
       0.03712846 0.17074634 -0.013923716 -0.0016241322
000150 53 06 3d bd 86 9a 4e bc 7b ee cb bb e4 61 11 3e
       -0.04614861 -0.012610083 -0.0062234974 0.14197499
000160 60 7f c5 bc a7 e1 36 bd e6 8c 2a 3e 4b 35 2e bd
       -0.024108589 -0.044648793 0.16655311 -0.042531293
000170 27 99 02 bd 5f d5 e4 bc c7 06 45 3e c3 4c 85 3c
       -0.03188434 -0.027933775 0.19240867 0.016271954
000180 e0 c6 a3 bc 0d 98 50 3e ed b0 27 3e 1a 14 2a 3e
       -0.019992292 0.20370503 0.16376086 0.1660923
000190 d7 63 b0 3b 5a 40 51 3c e6 51 3a 3e e4 42 09 3e
       0.0053829956 0.01277169 0.18195304 0.13404423
0001a0 80 42 35 3d c2 e9 3e 3e a7 7c c9 3c 70 05 1f 3d
       0.044252872 0.18643859 0.024595572 0.038823545
0001b0 a7 63 50 3e 14 20 ba 3c 2b dc 8a 3c ba b6 3e 3d
       0.20350514 0.022720374 0.016950687 0.04656098
0001c0 e6 65 42 3e e0 9e eb 3d b0 1b 47 3e cc f6 17 3c
       0.18984184 0.115049124 0.19444156 0.00927515
0001d0 7f e2 49 3e fd bf 67 3d ba 8c 98 bb 2f c0 9b 3c
       0.19715308 0.05657958 -0.004655448 0.019012539
0001e0 3a 65 20 3e 2e c4 3d 3e ef 07 1f 3d f8 b7 21 3d
       0.15663615 0.18531868 0.038825925 0.039482087
0001f0 90 3f 75 3e f8 d1 0b 3d ef 25 1d 3e 23 94 a6 3c
       0.23950028 0.03413579 0.15346502 0.020334309
000200 62 43 8b 3d 77 6e 4a 3e 4f 43 4a 3e d2 5f f8 3d
       0.067999616 0.19768701 0.19752239 0.12127651
000210 fe 05 de 3d a8 15 db 3c 85 04 a3 3c 4e 24 0e 3e
       0.10840987 0.026743725 0.019899616 0.13881037
000220 52 bf 43 bc 4e 5e 5f 3e 37 15 82 bb ee 0e 35 bc
       -0.01194747 0.21813318 -0.003969814 -0.011050923
000230 35 85 a0 bc da 41 85 bc 9c 54 fa bb 62 a7 30 3e
       -0.019594768 -0.016266752 -0.0076394808 0.17251351
000240 9a 71 df 3d ec 80 1b bc b8 65 38 3e 45 70 41 3e
       0.1091034 -0.009491187 0.18007553 0.18890484
000250 0b 74 47 3e 0f 3e 29 3e 1c 87 e6 3b c3 8c 0b 3e
       0.1947786 0.1652758 0.0070351493 0.13627915
000260 c4 5e 22 3e 5b b5 e1 3a da 8d c4 3d 51 72 44 3e
       0.15856463 0.0017220186 0.095973685 0.19184233
000270 95 8f 01 3e 36 8c 22 3e 2a a7 47 3e 71 f1 2a 3c
       0.12652428 0.15873799 0.19497362 0.010433541
000280 64 ef 33 3e f1 29 d6 3c e8 b0 28 bb 7a 02 0a 3e
       0.17571789 0.026143046 -0.002574021 0.13477507
000290 4b 6b 27 3e 0b 3d 3e 3e b2 ed 0b 3d 54 56 58 3e
       0.16349523 0.18577974 0.03416223 0.21126682
0002a0 8c 99 4f 3e ac af 02 3c 7c 7f 18 3c c2 61 94 3c
       0.20273417 0.007976454 0.009307738 0.01811302
0002b0 1b cc f1 bb 1c 06 b8 3d 18 46 68 bd 8a 7e 7b bb
       -0.0073790676 0.0898554 -0.05670747 -0.0038374984
0002c0 c0 71 2f 3d 1f e6 cd 3a 51 03 f3 3c 16 73 07 3d
       0.04283309 0.001570884 0.029664667 0.03306874
0002d0 84 db 21 3d 94 e7 0c 3e 33 33 e0 3c c5 e5 af 3c
       0.039515987 0.13760215 0.027368164 0.021471867
0002e0 ad ca c6 bc b6 e6 8f 3c be 52 f9 3c cc 62 10 3e
       -0.024266565 0.017566066 0.030434962 0.14100188
0002f0 45 6d 41 3c 32 a6 42 bc 78 c9 25 3e 4d b9 c8 bc
       0.011805837 -0.011880444 0.16190135 -0.02450242
000300 b8 74 b8 bc 66 6c ac 3c bc 48 22 3e 08 b8 5d 3c
       -0.022516593 0.021047782 0.15848058 0.013532646
000310 90 05 e1 3c 67 75 6f 3e 7d 4a 17 3e dd 7e 5d 3e
       0.027468473 0.23384629 0.14774509 0.21630426
000320 2a 03 f0 3d 2a 08 14 3e 7d 3e b7 3c d1 a2 eb bd
       0.117193535 0.1445624 0.022368664 -0.11505664
000330 bc b0 2b 3e 36 bd 86 bd 7c 85 17 3e 8b 34 31 3e
       0.16766638 -0.06579058 0.14797014 0.173052
000340 79 52 57 bd 7f c7 2b 3e bb 2d 02 3e 7e c6 07 3e
       -0.052568886 0.1677532 0.12712757 0.13259313
000350 70 ba f9 bc 7d f8 10 be b5 80 4a bd b9 ff 14 3e
       -0.030484408 -0.14157291 -0.04943915 0.14550675
000360 6e 10 b0 bc 26 85 22 3e fb 01 11 3e 2c da 02 3e
       -0.02149221 0.15871105 0.14160912 0.12778538
000370 2e 7a 88 bd 83 84 1e bc 8a 4e 2c 3e 55 5b 3e 3e
       -0.06663929 -0.009675148 0.16826835 0.18589528
000380 0f 4e 69 bc 73 8e 0b 3e 23 6f 09 be 46 0b 14 3e
       -0.014239802 0.13628559 -0.13421302 0.14457425
000390 1f a3 30 3e 4b 0d 87 bc f5 67 a6 bb 46 c4 ed bd
       0.17249726 -0.01648583 -0.0050783106 -0.11609702
0003a0 0a 60 89 bd d9 33 07 3e 4b bf 40 3e 1c 2c ac bd
       -0.06707771 0.13203372 0.18822972 -0.08406851
0003b0 cb 67 3b 3e b7 6d 9f bc fc 23 eb 3d 49 7a 0c 3e
       0.18301313 -0.019461496 0.11481473 0.13718523
0003c0 74 96 03 3e 62 37 fb 3d c9 70 2b 3e f0 32 c7 bd
       0.12850362 0.12266423 0.16742243 -0.097265124
0003d0 b9 fc 02 be 66 bf 0e 3e 41 e7 37 bd d4 ed 74 bc
       -0.12791719 0.139402 -0.044898275 -0.014949281
0003e0 a4 5f b7 bc d1 d3 3f bd 98 ec 1a 3e 68 90 92 bc
       -0.022384472 -0.046832863 0.15129316 -0.017891124
0003f0 5f d2 eb bd db 85 00 3e d2 9e 11 be e5 fb 1b bd
       -0.115147345 0.12551062 -0.14220741 -0.038082022

fc.4.bias f4 [100]
000000 a0 60 2d be 0d db 6d be b9 5a 57 3d 26 d2 94 be
       -0.16931391 -0.23228092 0.052576754 -0.2906658
000010 d4 d2 58 be 1a 1c 82 be 62 61 d0 3d 48 e7 6c be
       -0.21174175 -0.25412065 0.10174824 -0.23135102
000020 8a 7d 88 3d e4 35 cc bd ca f8 d2 3d 64 97 30 be
       0.0666457 -0.09971216 0.10301359 -0.17245251
000030 03 7b c9 3d eb 64 c4 3d 2f 10 5a be 2b 10 97 3d
       0.09837916 0.09589561 -0.21295236 0.07376131
000040 7f 87 8b be b0 39 ac 3d 43 67 f0 3d 26 b4 b2 3d
       -0.27251813 0.084094405 0.117384456 0.08725767
000050 31 d6 87 be 31 59 6b be 3b b6 61 be 48 86 6f 3d
       -0.26530603 -0.22983243 -0.22042172 0.05847767
000060 20 57 87 be f3 0f ca 3d 81 40 02 3e e8 25 36 3f
       -0.2643366 0.09866323 0.12719919 0.7115159
000070 e0 82 66 3d 0f 37 04 3e fb 22 d2 3d 2a 4e 5e 3d
       0.056277156 0.12911628 0.10260578 0.05427376
000080 1c ed d4 3d da 54 dd 3d e5 c0 d4 bd c7 44 7f be
       0.103967875 0.108072 -0.10388354 -0.2492858
000090 0d 06 bb 3d 2b 93 98 be 85 d7 78 be 8f 40 09 be
       0.091320135 -0.2979978 -0.24300964 -0.13403533
0000a0 22 fb cc 3d 4c 83 bb 3d c1 b7 b8 3d 83 25 a4 3f
       0.10008837 0.09155902 0.09019423 1.2823948
0000b0 a9 28 ec 3d e7 b0 56 be a4 e2 45 be 3f bd 89 be
       0.11531193 -0.2096592 -0.19324738 -0.26902196
0000c0 ca 3c d3 3d 23 95 01 be fe 14 13 be b5 ec a9 3d
       0.10314329 -0.12654547 -0.14363477 0.082971014
0000d0 e1 4d 80 be c2 69 02 3e 5b 7f ec 3d bf 15 18 bd
       -0.25059417 0.12735656 0.11547729 -0.037130114
0000e0 c2 ab eb 3d 47 06 78 be 25 86 64 3d 9a f6 c7 3d
       0.115073696 -0.24221145 0.055791993 0.097638324
0000f0 ac 45 50 be 53 6e f7 bd b7 97 d6 3d e8 32 86 be
       -0.20339078 -0.120815895 0.10478156 -0.26210713
000100 58 1f 79 3d fd a9 e5 3d e9 d4 95 3d 6a b7 ef bd
       0.060820907 0.11214063 0.07316 -0.11704905
000110 45 dc c9 bc e0 8f bd 3d cb 18 c2 3d 13 5e 5a be
       -0.024641166 0.092559576 0.09477385 -0.21324949
000120 82 ea db 3d 58 6b d4 3d 05 17 97 be 5d 50 80 be
       0.10738088 0.10372037 -0.2950975 -0.25061312
000130 18 23 ac 3f b4 38 bb 3d af 81 c4 3d 74 89 de 3d
       1.344821 0.09141675 0.09595048 0.10866061
000140 45 02 df 3e 3f d0 06 3e 0c ef ca 3d 31 25 72 be
       0.4355642 0.13165377 0.09908876 -0.23647
000150 91 f8 de 3d 31 79 ef 3d 36 ce d5 bd 61 bb ac 3f
       0.10887254 0.11693037 -0.10439722 1.3494684
000160 15 6e ca bd dc 26 87 3e 18 fd 7d be b6 dd 45 be
       -0.09884278 0.26396835 -0.24803579 -0.19322857
000170 ef 8b 81 be 79 a3 98 bd 36 93 fc 3d 41 42 87 be
       -0.25302073 -0.07453055 0.12332766 -0.26417735
000180 77 bf c0 3d 3e bd 71 be 8a 78 65 3d 06 a0 8b be
       0.09411519 -0.23607346 0.056023158 -0.27270526
