results/Smoothed_MINE_dim6_reg1_alpha0.5.pt (torch, 230381 bytes, 13 tensors)

fc.0.weight f4 [100, 12]
000000 90 9a 73 3c f1 e6 50 3b b7 72 eb 3b 85 17 d9 bc
       0.014868394 0.0031875933 0.007185306 -0.026500473
000010 93 d4 4f 3d 48 e7 54 3d 2f a1 fe bc e4 8e 85 3b
       0.050739836 0.05197838 -0.031082718 0.004075872
000020 c9 1f 85 3a 01 be 14 3c a4 9b 45 3c 7f ac 0a bc
       0.0010156567 0.009078504 0.012061033 -0.008463978
000030 10 c9 1b 3d 58 8b 09 3c 89 a5 7d 3b 10 3c cc 3c
       0.038033545 0.008395039 0.0038703403 0.024930984
000040 c8 78 65 3c 8e 0b 3a 3c c1 65 26 3d 31 b1 62 bb
       0.014005847 0.011355294 0.040624384 -0.0034590478
000050 53 4a ea 3c 83 91 bd bb df 4a 1b 3d 91 0d 38 bc
       0.028599894 -0.0057851686 0.0379132 -0.011233703
000060 d9 bd 23 3c 94 9d 86 3c 7d e4 07 bb 1c 98 2a 3d
       0.009993994 0.016432561 -0.0020735555 0.04164897
000070 45 d3 84 bc d7 6c b6 3b 5f 6c a4 3b 66 98 89 3c
       -0.016214022 0.005567174 0.0050178017 0.016796302
000080 14 05 3c 3b 7b ef b3 3c f3 74 8f bb 93 e0 8a 3c
       0.002868955 0.02196478 -0.004377955 0.016952788
000090 85 97 93 3c 69 73 44 bd 81 b7 6e 3b d7 de ef 3c
       0.018016586 -0.047961626 0.0036425295 0.029281063
0000a0 94 d3 49 bc 1b d8 70 bc 45 62 8c bc 28 fd 78 3c
       -0.012318511 -0.014699961 -0.017136702 0.015197076
0000b0 f6 35 4d 3c 27 24 a9 bc e6 5b 34 3d 17 d6 a4 3c
       0.012525072 -0.020647122 0.044032954 0.020121617
0000c0 c3 5c a3 bc db 25 d9 3c de b2 e6 3b bf 09 e1 bc
       -0.019941693 0.026507309 0.0070403656 -0.027470468
0000d0 d2 7d 8b 3c d3 e5 28 bd a9 bc c8 bb a5 59 bf 3c
       0.01702777 -0.041234802 -0.0061260057 0.023358176
0000e0 c0 67 13 3d 2b 96 3c bd 87 f4 5b bb 8f 39 08 bd
       0.035987616 -0.04604165 -0.0033562498 -0.033258017
0000f0 b5 1b b7 3c 09 c6 5a 3b a7 52 91 bc 41 2c 73 bc
       0.022352079 0.0033382198 -0.017739607 -0.014842094
000100 3e 92 60 3c b0 76 a4 bc b1 60 00 bc d4 40 54 bc
       0.013706742 -0.020076126 -0.007835553 -0.012954909
000110 d9 66 72 bb cd 39 0a 3d 83 1a 9a bc f3 6d 3b bd
       -0.0036987572 0.03374653 -0.01881147 -0.045759153
000120 e5 74 53 bb 77 43 a8 3b f2 68 07 bd e5 ee 83 bc
       -0.003226572 0.0051349956 -0.033059068 -0.016105125
000130 bb 3a 16 bd 94 f7 05 3d e2 28 a5 bc 0e a4 34 3c
       -0.036677103 0.032706812 -0.020161096 0.011025442
000140 52 15 f4 bc 39 df 29 bc 4c bf bd bc 31 19 2e 3d
       -0.029795323 -0.010368162 -0.023162507 0.042504493
000150 23 94 23 3d 16 88 2b 3d b6 ec 08 bd 9c df b4 bc
       0.039936196 0.04187783 -0.03342887 -0.022079282
000160 d0 91 06 bd 51 d0 8d 3d 32 6f 02 3d 1e 15 1b 3d
       -0.0328539 0.06924499 0.031844325 0.037861936
000170 4d 33 a7 bc 89 18 bc bc a6 89 39 bd d1 19 ae 3d
       -0.020410204 -0.022960918 -0.045297287 0.08501018
000180 61 e4 45 3d 29 17 d8 ba 58 85 6c 3c db 31 4a bd
       0.048313502 -0.0016486394 0.0144360885 -0.049363952
000190 62 a3 7c bd ac a0 88 bb c1 ae 4b 3d da 26 32 3b
       -0.06167925 -0.004169544 0.049727205 0.0027183802
0001a0 77 c4 94 3c 0e 4b 4f bd aa 87 94 bd cd e9 44 bc
       0.018160088 -0.050608687 -0.07252438 -0.012018633
0001b0 0b 3f 11 bc 35 24 26 3d 35 de 8f 3d 30 9e ef bc
       -0.008865128 0.040561873 0.070248045 -0.029250234
0001c0 d4 70 89 ba f2 b3 15 3d 10 28 a9 3c 1b f3 24 bc
       -0.0010485896 0.036548562 0.020648986 -0.0100677265
0001d0 9a 0f 94 bd 11 f9 dc 3c ac 73 e3 bc e6 7f b9 bc
       -0.07229538 0.026974233 -0.027765118 -0.022643995
0001e0 da a7 bd bb 6a d1 85 3b dc f2 cf bc fb 5f 8f 3c
       -0.0057878317 0.004083802 -0.025384359 0.017501822
0001f0 98 83 54 3d 98 f9 1d 3b 17 7f 0b 3a 75 4a c5 3a
       0.05188331 0.0024105068 0.0005321367 0.0015052097
000200 fe 3a 25 bc b1 c8 c7 3b fc 35 db 3b 2a 16 af 3c
       -0.010084866 0.0060969223 0.006689785 0.021372873
000210 00 5d 39 bd ed 37 98 bc 78 eb ff bb 71 63 8f b6
       -0.045254707 -0.018581355 -0.0078100525 -4.2733086e-06
000220 34 d1 f3 3c e2 ff e8 bc b8 72 02 bd ba ac a5 3c
       0.029762842 -0.028442327 -0.031847686 0.020223964
000230 1a a2 82 bc ea e8 45 ba e7 57 18 3c d7 34 dc bc
       -0.015946437 -0.00075496605 0.009298301 -0.026880665
000240 9a ba 3a bc fa 7c fb 3c 1e 22 02 bc 67 d1 ee 3b
       -0.011397028 0.030699242 -0.0079427045 0.0072881463
000250 d0 65 41 bc e0 5f 93 bc 79 40 c6 3b b6 33 a3 bc
       -0.011804059 -0.017990053 0.006050166 -0.019922119
000260 1b a1 4f 3c ab 7c 19 bc 5b 71 8d 3c 56 18 2f 3c
       0.012672688 -0.009368102 0.017265966 0.0106869545
000270 09 ce 5a 3c 45 d1 d4 bc 23 5b 02 3c 7b da 73 bc
       0.013354787 -0.025978694 0.007956299 -0.014883633
000280 cc af a2 3b b2 3b cd bc 44 d2 36 3b 0e 23 66 3d
       0.0049648043 -0.025052879 0.0027896324 0.056185775
000290 bd 8d 01 3c e3 0e 2a bb 18 a1 bf bc 53 a7 cf 3c
       0.007907328 -0.0025948815 -0.023392245 0.025348341
0002a0 2d a7 9a bc d9 6d af bc 9c 57 79 3c f3 d5 c7 bb
       -0.018878544 -0.021414684 0.015218642 -0.006098503
0002b0 38 c2 20 bc 6e db b0 bc 5a 3f bd ba 38 9a 43 bc
       -0.00981193 -0.021589007 -0.0014438436 -0.011938624
0002c0 17 61 bc 3c 64 f5 f8 bc fb 9c c5 bb 90 36 d5 ba
       0.022995515 -0.030390449 -0.0060306764 -0.0016266871
0002d0 61 ff 01 3d c7 c4 9b 3c 65 e6 2e bd 29 30 7a 3d
       0.03173769 0.01901473 -0.04270019 0.061081085
0002e0 cd 0c ba bc 7d 7c 40 3d 17 15 87 bc 6d e1 ab ba
       -0.022711182 0.04699372 -0.016489549 -0.0013113447
0002f0 ca e2 4b 3d 22 90 8e bd a1 ee 24 3c 2c 45 6c bd
       0.04977683 -0.06961085 0.010066659 -0.057683155
000300 51 13 8c 3d 4c ea 64 bc a8 78 c9 3c a6 ce 5f 3d
       0.06839622 -0.013971876 0.024593666 0.054640435
000310 ab 2e b7 3c 85 05 6e bc f3 24 2e 3d 07 d1 b2 bb
       0.02236112 -0.014527683 0.042515706 -0.005457047
000320 fd 8b 9a 3c 84 6b 14 3d 6c 9f cc 3b d4 60 6b bc
       0.01886558 0.036235347 0.0062445905 -0.014366347
000330 b2 89 ae bb b3 b8 85 3c 98 cf 82 ba b1 0c 8a 3c
       -0.005326473 0.016323423 -0.0009980081 0.016851755
000340 ce 9c eb bc 8e 36 ba bb 68 1d 82 bc bd 0a ef bc
       -0.028761294 -0.005682773 -0.015883163 -0.029179925
000350 41 e6 05 3c fb ba 0a 3b a4 40 58 bc bd 58 90 3c
       0.008172573 0.0021168578 -0.013199005 0.017620439
000360 2e 43 3b 38 8c c4 4e 3d d7 23 c1 3c 0b 1c 4f 3a
       4.464684e-05 0.05048041 0.02357666 0.0007900602
000370 a3 6a ae 3b 7f 0a 6e 3c 05 1e a1 bb 11 c6 4e bd
       0.0053227707 0.01452887 -0.0049169087 -0.05048186
000380 4e 63 2a 3d ec f8 de bb 42 84 a3 bc a2 7b 87 3b
       0.04159861 -0.006804576 -0.019960526 0.004134611
000390 15 69 1f bd a1 51 bf 3a 5e 95 62 3b 25 af 6f bc
       -0.038918573 0.0014596471 0.0034573893 -0.01462916
0003a0 a3 35 17 bd c0 74 a6 bc e3 cb 7b bb 5d c5 4f bc
       -0.036916386 -0.020319343 -0.0038421087 -0.012681332
0003b0 67 e7 0c 3b 9e 94 86 bc 86 c2 fc bc df ae 97 bc
       0.0021500231 -0.016428288 -0.030854475 -0.018516002
0003c0 5e b7 bb 3b 06 38 3f 3d 2e cc 3e 3c 5e d1 e2 bb
       0.005728646 0.046684287 0.01164536 -0.006921931
0003d0 28 9f c5 bc 5d 83 68 3d d3 84 a6 bc d8 9d 0c bd
       -0.024123743 0.056765903 -0.020327007 -0.03433022
0003e0 6e 27 24 bd c4 70 94 3b 37 87 bf 3c 38 e4 c2 bb
       -0.040076666 0.0045300443 0.023379905 -0.005947616
0003f0 02 d2 13 3b b3 1b a7 3d b1 00 a7 bc 19 78 dd bc
       0.0022555594 0.0815958 -0.020386072 -0.027034806

fc.0.bias f4 [100]
000000 f5 8d 16 3c 93 73 d0 39 1e d0 98 b8 64 c2 8f 3c
       0.009189119 0.0003975896 -7.28669e-05 0.017548747
000010 a1 11 26 bc 8f 46 3c 3c c6 33 c4 bb 56 ca 52 bd
       -0.010136039 0.011491432 -0.005987617 -0.051462494
000020 95 93 c5 bc dd 4b 02 bc a1 7d 91 ba 21 4f 35 3b
       -0.024118224 -0.0079526575 -0.0011100062 0.0027665573
000030 39 ce e8 3a 72 c7 0d 3c 86 5f 8e 3a ed 0b 30 bc
       0.0017761654 0.0086535085 0.0010862208 -0.010745031
000040 9b 32 0b bb 4d 22 42 ba d7 93 4f 3c a1 bd ba 3a
       -0.002123988 -0.0007405624 0.012669525 0.0014247188
000050 0d 89 4b bc f7 6c 24 3a 8a ce 9f bc e5 36 15 bc
       -0.012422812 0.00062723405 -0.019507665 -0.009107326
000060 79 87 98 3b 2c 3b ce bc a8 57 9e bb ee 46 22 bc
       0.0046548215 -0.0251747 -0.004832227 -0.009904606
000070 a0 89 9c 3c 06 ff e0 bb b3 24 75 3c b1 a0 7f bc
       0.019108593 -0.0068663387 0.014962363 -0.015602277
000080 a3 86 72 3c 34 19 c8 bb a1 4b a6 bb 83 8f 5b ba
       0.014802608 -0.00610652 -0.0050749336 -0.0008375572
000090 b7 38 85 3a c3 f6 1f bb 9c 1c 70 bc 65 23 18 3c
       0.0010163997 -0.0024408556 -0.0146552585 0.009285782
0000a0 e9 dd 2e bb 54 16 ed ba 13 45 ac bb d6 e8 1f bb
       -0.0026682562 -0.0018088319 -0.0052572577 -0.0024400256
0000b0 e0 c6 93 3a 87 ba 10 3a ca 89 f9 bb 21 f5 10 bc
       0.0011274479 0.0005520959 -0.0076153027 -0.008847506
0000c0 0a 70 35 3c 52 ad 15 3b bc 13 82 bc 0f 55 1c bc
       0.0110740755 0.0022838903 -0.01587855 -0.009541764
0000d0 5c 71 02 bc fa ae b1 bb 60 ec 9c b9 47 7e e0 ba
       -0.007961597 -0.00542247 -0.00029930752 -0.0017127477
0000e0 29 27 94 3b 4c aa 24 bb 1e c4 ab bb bd dc 30 bc
       0.00452127 -0.002512592 -0.005241885 -0.010794816
0000f0 87 00 3f bb 32 1e 82 3c d5 53 b3 bb 45 f1 08 bb
       -0.0029144601 0.015883539 -0.00547264 -0.002089576
000100 47 20 a2 3c f2 fc f7 3b 50 a4 0b bc a4 5d 73 3b
       0.019790782 0.007567995 -0.008523062 0.0037134672
000110 47 66 78 bc dc d9 9c b9 09 d6 17 3b e8 4a 8a bc
       -0.015161104 -0.00029916957 0.0023168346 -0.016881421
000120 03 ac 9d bb 8f 92 57 3b 51 2c 92 bc 37 f1 14 bc
       -0.004811765 0.0032893752 -0.017843397 -0.009090713
000130 09 29 e8 bb a5 8a 99 b9 97 0b 0a 3c d3 e5 48 bc
       -0.00708497 -0.00029285732 0.008425615 -0.012261826
000140 36 0b bb ba 5a f8 b9 bb aa 66 30 bc f4 01 8b 3c
       -0.0014270309 -0.0056753578 -0.0107666645 0.016968705
000150 e9 82 35 bc ef 8f cd ba 4a 6b f9 bb f0 5b 3b bc
       -0.011078575 -0.0015683154 -0.007611667 -0.011435494
000160 49 b4 90 3c 6e d9 df bb c6 e7 b7 ba f9 ab 26 bb
       0.017664092 -0.0068313396 -0.0014030866 -0.0025432094
000170 74 65 9e bb b6 0e 06 bc 27 fc 09 3c 64 c0 d1 bb
       -0.0048338715 -0.008182218 0.008421934 -0.0064011086
000180 55 23 8f bb 73 6b 3e bc 9c 13 f2 bb 6c 4a 02 3b
       -0.0043682256 -0.011622298 -0.0073875915 0.0019880785

fc.1.weight f4 [100, 100]
000000 e5 47 59 3b ff 2d 0c 3c 0a 41 04 3c dc c9 89 3b
       0.0033154425 0.008555888 0.008072147 0.0042049717
000010 a2 ae 53 bc 7f ac ee 3c b7 e2 0a bd 2f 42 11 bd
       -0.012920054 0.029134987 -0.03390762 -0.03546351
000020 60 22 fd bb a4 73 98 3c 08 1e d6 bc 45 88 6b 3c
       -0.007725045 0.01860983 -0.026137367 0.014375751
000030 b0 87 de 3a a1 5e 91 3c 0e 13 3e bd 84 a6 c2 3c
       0.0016977694 0.017745318 -0.04640489 0.023761041
000040 12 9c b5 bc a4 f7 ec 3c 88 4e 8c bb 47 6d ba bc
       -0.022169147 0.028926678 -0.0042818226 -0.022757186
000050 d3 85 e8 3c 03 0d 11 3d 75 d4 d2 3a 7f 4b a4 3d
       0.028384125 0.0354128 0.0016085046 0.08022212
000060 53 81 b5 3c 34 0f a0 bc bd c8 a4 3d 85 fb 95 3c
       0.022156393 -0.0195385 0.080461 0.01830841
000070 04 4c bd 3c ef 48 0d bd 9b d0 60 3d 60 59 6c 3d
       0.023107536 -0.034493383 0.05488644 0.057702422
000080 2b 9b 1e 3c cf 7f f4 3c 18 d9 78 3d df 9b 86 3c
       0.00968055 0.0298461 0.06075391 0.016431747
000090 cb b4 a4 bc 43 6a 97 bc 6a 5f b5 3d e3 ff f6 3b
       -0.02010574 -0.018483287 0.088560894 0.0075378283
0000a0 b9 03 8c 3d 35 75 92 bc 57 4d 17 bd d6 54 87 bc
       0.068366475 -0.017878154 -0.03693899 -0.016519945
0000b0 15 48 8f 3c 0f 7a 86 3d ad 3d 17 3d 47 69 1c bc
       0.017490426 0.065662496 0.036924053 -0.009546584
0000c0 cf ea 14 3d 11 62 cb 3a c0 80 72 3c 48 a1 a8 3c
       0.036356743 0.0015516897 0.014801204 0.020584717
0000d0 2a aa c8 3c 5f 73 62 3c 0f da 8d 3d 74 54 6e bc
       0.024495203 0.013821452 0.06926357 -0.014546502
0000e0 e0 24 96 bc ff 9b 80 3d 31 36 af 3d 72 af 08 3d
       -0.01832813 0.06279754 0.08555258 0.033370443
0000f0 11 1a d0 3c 68 a4 84 3c 00 84 a1 3c 91 d0 5e 3c
       0.025403054 0.016191676 0.019716263 0.013599531
000100 99 a4 7d 3d 30 3b 07 3d ce bb 82 bb ff 7d e7 3b
       0.06192455 0.03301543 -0.003989673 0.0070645805
000110 7b b1 40 bc 37 03 19 3c 02 1f 12 bc 65 99 68 bc
       -0.011761065 0.009339145 -0.008918526 -0.014196728
000120 cc 83 8c 3c 1b 1f a7 3c 52 ec 3e 3d 93 5a 81 3d
       0.01715269 0.020400574 0.04661209 0.06316104
000130 6f f1 68 3d 85 37 bf bb e0 24 96 bc c6 c0 05 3d
       0.056870874 -0.005835476 -0.01832813 0.032654546
000140 d1 9b b6 3d e7 19 b6 3d 1c be bc 3c 4d c8 30 3b
       0.08916438 0.08891659 0.02303987 0.0026974857
000150 f7 d6 09 3d dc 2f a7 39 04 0e 02 3e b2 bb b0 3d
       0.033652272 0.0003188838 0.12700659 0.0862955
000160 0f ba 81 3c 1d f0 cb 3d bd ba b5 3c 3b 56 01 3d
       0.01583579 0.09957907 0.02218377 0.031576376
000170 e4 9a ae ba 09 1f 20 bd 00 f6 93 3b 83 2e a7 3d
       -0.0013321307 -0.039092097 0.0045154095 0.08163168
000180 af 8d 30 3d 78 ec 28 3d 2e fd 8c bb bd 50 bb bb
       0.04310387 0.04124114 -0.0043026423 -0.005716412
000190 68 bd bb 3a 3a 81 d1 bb 75 68 ff bb c9 b9 b5 39
       0.0014323415 -0.006393579 -0.0077944347 0.0003466143
0001a0 e9 e2 7c 3c e3 c5 12 bd 72 0b 43 3c 49 ba 94 3c
       0.015434959 -0.03583325 0.011904584 0.018155234
0001b0 ee 5a 34 3d e8 09 3e bc 8f 90 24 bc b4 f2 31 3b
       0.04403203 -0.0115990415 -0.010044231 0.002715272
0001c0 26 7d 3b bc 81 e6 84 3b e9 b5 da bc 48 e7 95 bd
       -0.011443412 0.0040557985 -0.02669807 -0.07319504
0001d0 de de 5d 3c 17 3c 0b bd 34 69 91 bc 4a 21 02 bb
       0.013541905 -0.033992853 -0.01775036 -0.0019856268
0001e0 06 09 4f 3c a7 60 ea bc c7 cc 92 3c 1f b9 97 bd
       0.012636429 -0.02861054 0.017919911 -0.07408356
0001f0 01 4b 4e bc d8 4f 3b bb 99 2a 96 bd 7c 51 07 3a
       -0.0125911245 -0.0028581526 -0.073323436 0.00051619834
000200 34 c1 32 bc ac 2f 52 bb b1 ab 70 bc a1 6d e0 bc
       -0.010910321 -0.0032071872 -0.014689372 -0.027396025
000210 56 74 0f bd 3d fb 86 3c ec 39 e0 bc e9 5a 9e 3c
       -0.035023056 0.016477222 -0.02737137 0.019330459
000220 46 c4 56 3b 3a a7 97 3c c8 aa c8 bd 77 1a 00 bb
       0.0032770797 0.018512357 -0.09798199 -0.0019547024
000230 2c f1 89 3b a0 9b 6f bc 85 3f bb 3c 75 67 e2 bb
       0.004209658 -0.014624506 0.022857437 -0.0069093057
000240 13 71 80 3c 72 ba 2e bd fa cf 95 bc 51 1d 01 bd
       0.015678918 -0.042658277 -0.018287648 -0.0315221
000250 5b 55 12 3d 4e e7 e3 bc 5d f2 69 ba 5f eb 91 3c
       0.035725933 -0.027820256 -0.00089243596 0.017812429
000260 07 82 08 3c 2a 78 a2 3a e1 a0 ac bd 6d 78 8f bc
       0.008331782 0.0012395431 -0.08429123 -0.017513478
000270 e7 43 91 bb 73 5d 87 bd d1 f5 a5 bd cb 13 e4 bc
       -0.0044331434 -0.06609621 -0.081035264 -0.02784147
000280 de 50 43 3d 45 5c ba bc fd e2 44 3c 5e a8 0e 3d
       0.047684543 -0.022749076 0.012017009 0.034828536
000290 2a a6 aa bd fe 50 10 3c d4 98 05 39 47 de 83 3c
       -0.083324745 0.008808373 0.00012740801 0.016097201
0002a0 2c 5b c9 3b ba c7 06 bc 38 c3 2d bd d7 94 ad 3c
       0.0061449017 -0.008226329 -0.042422503 0.021189136
0002b0 55 47 6f bb cd cc 5c 3c 68 9d 7b bd 3c 2f 20 bd
       -0.0036511023 0.013476563 -0.06142941 -0.039107546
0002c0 9e e7 bd bd 00 7c e6 3a af 12 93 3b 48 3e 15 bd
       -0.09272693 0.0017584562 0.0044883112 -0.03643635
0002d0 ca f2 99 bc 74 0b 5d bd 11 35 9a bc 4c a1 c4 3b
       -0.018792529 -0.053966 -0.018824132 0.0060006734
0002e0 9e c3 09 bd 19 aa 8b bd 2f 8c de bd d1 cd 62 bc
       -0.03363382 -0.06819553 -0.10866582 -0.013843016
0002f0 97 13 e2 bc 49 e2 ac bd 37 bf 5a bd 06 eb de 3b
       -0.027597232 -0.08441598 -0.053405013 0.0068029193
000300 16 88 44 3b 33 08 14 bb e8 ae b5 b9 da b8 74 bd
       0.002998834 -0.0022587895 -0.00034653326 -0.0597466
000310 65 b3 76 bd 05 6b e3 bd 4c d6 04 3d ee 43 10 bd
       -0.060229678 -0.11104397 0.032430932 -0.035221033
000320 fc 1c 27 bc 2d 11 df bc 42 f9 f1 bc e4 b2 c2 bc
       -0.0101997815 -0.02722987 -0.0295378 -0.023766942
000330 d7 1e 05 bb 87 01 1e bc 09 17 08 bc 0a 8e e9 3b
       -0.0020312571 -0.009643919 -0.008306273 0.007127528
000340 d4 81 d4 3c 61 32 06 bd a2 e3 0c 3d 80 d3 85 bc
       0.025940813 -0.03276289 0.034396775 -0.016336203
000350 13 d1 82 ba ff 29 fc bc 52 c5 32 3c 74 ea 93 bd
       -0.0009980522 -0.030781744 0.010911303 -0.07222453
000360 9c 69 c4 ba 00 9d e7 bb 4e 94 97 3b 60 74 dc bb
       -0.0014985087 -0.0070682764 0.0046258336 -0.00672774
000370 72 09 60 3c e2 b1 39 bc d5 40 97 bb 03 fa 58 bd
       0.013674127 -0.0113339145 -0.004615883 -0.052972805
000380 f4 09 a6 bb c6 8d 83 3b 41 a6 4a bd 84 f7 81 bc
       -0.0050671045 0.0040147034 -0.04947496 -0.015865095
000390 3d c2 b0 bb f6 b4 04 3d 5f c0 0e 3b b4 98 35 bd
       -0.0053942488 0.03239914 0.0021782143 -0.044335082
0003a0 f1 54 78 bc b0 88 c9 bb 14 d8 8b bc 92 30 0d 3d
       -0.01515697 -0.0061503276 -0.017070808 0.03447015
0003b0 78 ae 20 3c 05 45 ae 3b aa 18 5f bd da b6 83 bb
       0.009807222 0.0053182864 -0.05446688 -0.0040196003
0003c0 3b c2 b3 bc be 53 de 3a 46 ea 26 3d 20 6f bc bc
       -0.021943202 0.0016962213 0.040750764 -0.023002207
0003d0 52 3d 29 3b 7f 91 52 bd 88 0a d7 bc ae 01 fc bc
       0.0025823903 -0.051408287 -0.026250139 -0.03076252
0003e0 c5 8c 15 3d 40 69 b2 bc 94 be 2d bc 0c 59 2c 3c
       0.0365112 -0.021778703 -0.010604519 0.010519277
0003f0 e4 f3 22 3d 81 9a f2 3a a1 57 1e bd 7a 19 ce 3c
       0.039783373 0.001850918 -0.03865779 0.025158633

fc.1.bias f4 [100]
000000 6b eb d3 3a cc d9 16 bb ea b0 08 ba bc d5 01 bb
       0.0016168182 -0.0023018 -0.00052143505 -0.0019811234
000010 3b 74 36 ba bf 3c 08 bb a3 0c e8 ba 9c 9f 95 ba
       -0.0006960069 -0.002078816 -0.0017703961 -0.0011415365
000020 ef 07 34 39 e7 44 55 b9 7f e6 c2 ba 4d fc c3 3a
       0.00017169093 -0.00020338931 -0.0014869719 0.0014952511
000030 7d 23 fb ba 63 4e da ba 3f d3 61 3a 20 1b fc 3a
       -0.0019160357 -0.0016655441 0.0008614547 0.0019234158
000040 8f c0 46 3a ab 78 8a bb f9 7e 08 3b 81 66 b0 b9
       0.0007581794 -0.0042258105 0.0020827635 -0.00033645707
000050 12 38 da b9 9f 2c b0 ba ce d5 fb ba 80 f5 cd ba
       -0.00041621976 -0.0013441032 -0.0019213499 -0.0015713423
000060 9c a6 b9 3a bf 0b 28 bb bc 3d 20 bb 16 f7 03 b8
       0.0014164033 -0.0025641767 -0.002445086 -3.146295e-05
000070 a0 51 10 bb 3c 77 39 bb f6 ca 80 ba ac 50 50 3b
       -0.0022021309 -0.002829983 -0.0009826112 0.0031786365
000080 67 04 04 bb c5 21 30 bb 5a 3c 62 ba 17 15 e9 ba
       -0.0020144226 -0.0026875597 -0.0008630209 -0.0017782775
000090 89 18 05 3b c9 12 22 bb e4 dc ff ba 5d 7f cb ba
       0.0020308814 -0.0024730435 -0.0019520787 -0.0015525628
0000a0 09 6b 2b 3b a1 80 c0 ba 21 b3 0a 3b aa 19 12 3a
       0.0026156327 -0.0014686772 0.0021163898 0.0005573282
0000b0 97 1f 33 bb 9a 3e 94 ba 8e 6f 83 ba 27 76 84 3a
       -0.0027332061 -0.0011310161 -0.0010027753 0.0010106013
0000c0 35 57 ac 3a 83 5a c5 ba 28 31 87 ba 00 12 28 bb
       0.0013148548 -0.0015056882 -0.0010314332 -0.0025645494
0000d0 42 c1 bb ba 31 b9 90 3a 82 f7 01 bb 6d 0e ca 3a
       -0.0014324563 0.001104152 -0.0019831364 0.0015415676
0000e0 ce bf 40 39 e0 f7 e4 3a 1c c0 07 ba 6f 03 7d ba
       0.00018382 0.0017468892 -0.0005178468 -0.0009651696
0000f0 8c 64 69 ba aa a5 3e 3a a9 5a bb ba e0 05 ad ba
       -0.0008903227 0.00072726107 -0.0014293987 -0.0013200603
000100 b9 3d bf ba e5 bd 10 bb a2 72 09 3b 1e 48 8d ba
       -0.0014590538 -0.0022085842 0.0020972867 -0.0010778939
000110 79 2f 8e b9 86 59 b6 ba f5 dd 7d b9 cf 36 6a 3a
       -0.0002711972 -0.0013912178 -0.00024210646 0.0008934559
000120 03 1e 6f ba 30 61 37 3a de 86 15 ba 83 26 83 39
       -0.00091215986 0.0006995378 -0.00057039957 0.0002501496
000130 1b 72 88 39 d1 3c bc ba 39 94 dc ba 4b 57 ef ba
       0.00026024957 -0.0014361386 -0.0016828842 -0.0018260268
000140 b1 6c 3d ba 58 e6 2e bb 56 ed 95 3a c9 21 65 bb
       -0.0007225974 -0.0026687589 0.001143853 -0.0034962764
000150 61 19 c7 ba c7 52 fd 39 39 00 aa ba ea 3f 0d 3a
       -0.0015190059 0.00048317594 -0.0012970037 0.0005388247
000160 bb 3e 32 bb 8d 25 4a bb 19 55 fc ba 05 4a ad ba
       -0.0027198035 -0.0030845136 -0.0019251435 -0.0013220912
000170 21 c6 04 3b 51 8b 16 b9 47 24 4b bb 4d 0f 40 3a
       0.0020259696 -0.00014357014 -0.0030996965 0.0007326499
000180 85 63 1f 3a 46 97 c0 3a 0a 85 0e ba f6 95 8d 3a
       0.0006080198 0.001469352 -0.00054366945 0.0010802138

fc.2.weight f4 [100, 100]
000000 15 d1 c6 3d ee f9 03 bd ae 5f e3 bc 6e 2d a0 bc
       0.09707848 -0.032220773 -0.027755585 -0.019552913
000010 55 e5 7a bc 09 11 02 3d 68 30 c2 bc 64 14 36 bd
       -0.015313466 0.031754527 -0.023704723 -0.04445304
000020 cd 5e 63 3c a9 40 c8 3c 86 ae 18 bd aa b7 65 3c
       0.013877583 0.024444895 -0.037275814 0.01402084
000030 31 59 02 bd f6 7c 36 bd 06 a6 b0 3d 29 76 ba 3d
       -0.03182334 -0.044552766 0.086254165 0.091045685
000040 0a ec 1d 3d 03 70 bf 3d a9 7f 9c 3d ad 9b 8d 3d
       0.038555183 0.093475364 0.07641537 0.069144584
000050 61 80 04 bd 9a 7c 82 bd f0 ea 0b bd 5d d4 83 bd
       -0.032348994 -0.06371422 -0.0341596 -0.064369895
000060 d1 c8 87 3c ad c8 65 bd cb 25 a4 bd af fd 47 bd
       0.016575249 -0.056099582 -0.08015021 -0.048825916
000070 04 27 7a bb 1a f6 01 bd 70 99 aa bc 7c be 84 3d
       -0.0038170228 -0.03172884 -0.020825118 0.064816445
000080 06 fc 27 bd 9e fa 1c bd a7 78 15 3d 49 e1 9f bc
       -0.041011833 -0.038324945 0.036492016 -0.019516604
000090 eb 34 7f 3d f8 86 99 bd 6d ba 08 bd ee 32 9e bd
       0.062306326 -0.07496446 -0.033380914 -0.07724558
0000a0 b6 9a 79 3d fb 71 b2 3d e9 70 ad 3d 94 7c 23 3d
       0.06093856 0.08713146 0.084688015 0.03991373
0000b0 03 be dc bd 4c ab 60 3d 06 ed 13 bd 92 9f 96 3d
       -0.10778429 0.05485086 -0.036114715 0.07354654
0000c0 3e e6 4a 3c 0e dc 03 bd b5 0c de bc 8a ac aa bc
       0.012383996 -0.032192282 -0.027105669 -0.020834226
0000d0 6b eb 99 3c b3 3e 86 3d 22 4c d7 bc df 29 5d 3d
       0.018789014 0.06554928 -0.02628142 0.05399501
0000e0 7b a9 36 3d e1 97 74 3d 8d 1e 1a bd 85 90 28 bd
       0.044595223 0.059715156 -0.03762679 -0.04115345
0000f0 17 fe 50 3d 48 3a 6a 3c 5a 4f b0 3c 58 6b 0c bc
       0.05102357 0.014296122 0.021522213 -0.008570515
000100 0e 17 46 bd 2e 41 52 bd b7 27 1b 3d ef cb e3 bc
       -0.04836183 -0.05133169 0.037879672 -0.027807204
000110 d8 1a 76 3d e6 02 05 bd 0c 61 a3 3d ba dc 37 3d
       0.060084194 -0.032473467 0.079774946 0.044888236
000120 c0 79 b7 bd aa 0e bf 3c a1 0d 23 3c ec ba 43 bc
       -0.08958769 0.023322422 0.00995198 -0.011946421
000130 b5 f1 74 3d de 46 7b 3d 30 9b 8a bd f2 28 88 bd
       0.059800822 0.06134688 -0.06767881 -0.06648435
000140 44 27 16 bc 53 4e 76 bd ab fa 3c 3d dd 62 96 bd
       -0.009164635 -0.06013329 0.046137493 -0.073430754
000150 a7 1e 05 bd 59 c9 76 3d be cd 4d bd c6 6c 84 3d
       -0.032499935 0.060250614 -0.05024504 0.064660594
000160 ca 8a 3e 3d 37 e0 90 bc 67 0f c9 bc 6c 49 5a 3d
       0.04651908 -0.017685039 -0.024543477 0.053292677
000170 99 c2 58 3d 5f c3 e4 3c 15 86 0f bd 6a 78 be 3c
       0.052919958 0.027925191 -0.03503998 0.023250777
000180 3a 29 7a 3c b5 5d 37 3d dd e2 4f 3d 1a 3a 22 3c
       0.015268618 0.0447671 0.050753463 0.009901548
000190 01 67 e1 bd 18 88 7c 3d a9 52 9f bb 91 f4 67 3d
       -0.110059746 0.061653227 -0.004862149 0.05662972
0001a0 eb 4e cf 3c b8 4a 8b bd 0f f5 62 3d 78 8a d5 3c
       0.025306186 -0.06801361 0.055409487 0.026067004
0001b0 90 83 ff bc e7 f9 f0 bc 42 8e 0b 3d 22 c8 45 bd
       -0.031190664 -0.029416038 0.034071214 -0.048286565
0001c0 44 17 56 3d 1f 01 e4 3c ac 6e f1 bd 3e e2 95 bd
       0.05226828 0.027832566 -0.11788687 -0.07318543
0001d0 4b 90 f5 ba 64 27 7d bd 07 b7 54 bd 2a ce 2b bd
       -0.0018735019 -0.061805144 -0.05193236 -0.04194466
0001e0 bd 02 1e bd 3d 41 25 3d cf 2f 49 3d d5 54 7d 3d
       -0.03857683 0.04034542 0.04911786 0.06184848
0001f0 65 5e 45 bd c9 b5 6a bc 90 8c e7 3c 3d b4 a9 3c
       -0.048185725 -0.0143255675 0.028265268 0.020715827
000200 7b e5 6d bc 6f 86 96 3d cd ce 3a 3b 1c ec af bd
       -0.014520044 0.0734986 0.002850461 -0.08589956
000210 79 ac 9b 3c cf 95 2f 3c 28 9e 43 bd 8f 9d de 3c
       0.01900314 0.0107168695 -0.04775825 0.02717474
000220 7e 8e b5 bb 98 b6 6d 3d 12 38 a2 3b 81 e1 75 3d
       -0.005540668 0.058035463 0.0049505318 0.06002951
000230 10 32 00 be d2 cc 53 bd 54 a7 a8 bd e4 5b 2e bd
       -0.12519097 -0.051709004 -0.0823504 -0.042568102
000240 8b 7a a8 3d e8 b8 4b bd cf af 65 3d 7e 84 cc bd
       0.08226498 -0.049736887 0.056075867 -0.099862084
000250 ec ef a7 bc 67 b6 8a 3c 7f d2 eb 3c b4 9a 5c 3d
       -0.020500146 0.01693268 0.028786896 0.053858474
000260 21 45 fc 3a 85 e0 a6 bd 7b e9 9f 3c 77 3e 4d bd
       0.0019246676 -0.081482925 0.019520512 -0.0501084
000270 56 8a 65 bd e8 84 60 bd 3b 91 83 3d 4d 92 06 bc
       -0.05604013 -0.05481425 0.06424185 -0.008213592
000280 f0 6a 96 bd 57 09 92 bd bd 57 c2 3c 5b eb f4 3c
       -0.073446155 -0.07130688 0.023723477 0.029897382
000290 b6 c0 bb 3d e3 00 ba 3c 38 75 9c bd bf 2d 62 3d
       0.09167616 0.022705501 -0.07639545 0.055219408
0002a0 6c c3 55 bd 69 81 5d 3d f0 b0 86 bd 80 4a a9 bd
       -0.052188322 0.054078493 -0.06576717 -0.08266163
0002b0 a1 5c b6 3c c6 3e b4 bc 3e 5a 22 bd da 87 1d bd
       0.022260966 -0.022002589 -0.039636843 -0.038459636
0002c0 61 16 83 bd 80 0b 41 bd 04 9f ce 3c e1 0f 1b 3d
       -0.06400753 -0.047130108 0.025222309 0.03785694
0002d0 d8 af 64 3d e3 c4 06 3d f1 ae 3d bd 01 af cf 3d
       0.05583176 0.03290261 -0.046309415 0.10140801
0002e0 23 d1 18 3d 29 c0 d6 bb 96 a5 38 3d 4a 92 90 bd
       0.037308823 -0.006553669 0.04507979 -0.070591524
0002f0 32 fb 32 bd 31 94 8a 3d 00 6d a0 3d 9f cd 5d bd
       -0.04369659 0.067665465 0.0783329 -0.054151174
000300 40 ac 18 bd 1f 8a 38 bd 52 d3 aa 3c 75 3c 13 bd
       -0.037273645 -0.045053598 0.020852719 -0.03594633
000310 1a ec a0 bc fb 3c a9 bd 23 f9 de bd eb 94 8a bd
       -0.019643832 -0.08263584 -0.10887363 -0.06766685
000320 90 81 b3 bd c9 d3 2c 3d e9 2f fe 3c 7e cc 62 3d
       -0.087649465 0.04219416 0.031028705 0.0553708
000330 98 96 d2 3c c1 d4 2a bc fe 40 70 3d 60 2c 89 3d
       0.025706574 -0.010426701 0.05865573 0.06697917
000340 67 77 0c bc d6 76 e9 3b 25 8d 91 3c b2 f6 5d bd
       -0.00857339 0.007124762 0.017767498 -0.054190345
000350 17 03 e0 3c f2 77 2e 3d 6f 55 bf bd 65 8e 94 bd
       0.027345223 0.042594858 -0.09342467 -0.07253722
000360 59 17 e5 bc fb 81 20 bd 37 f3 b2 bc 29 1a 83 bd
       -0.027965235 -0.03918646 -0.02184449 -0.06401474
000370 b5 e4 b0 bc 86 be de 3c 39 e6 20 3d 81 46 a4 3d
       -0.021593431 0.027190458 0.039282057 0.0802126
000380 76 97 ac bc 62 81 ac 3c e3 16 62 3d 23 ec 07 3d
       -0.021068316 0.021057788 0.055197608 0.033184182
000390 a8 a7 58 3c 10 1f 5d 3d 8c c6 20 3d cd 48 b0 bd
       0.013223566 0.0539847 0.03925185 -0.08607636
0003a0 a0 ba 7e 3b 76 26 20 3c bf 37 13 bd d0 3e 11 3d
       0.0038868561 0.009774795 -0.035941835 0.035460293
0003b0 9a 71 90 bd 18 10 e0 3c b0 73 d1 3c d0 61 2e 3c
       -0.07052918 0.027351424 0.02556786 0.0106434375
0003c0 da be 9d bd 24 16 35 bd 68 d3 95 bd 05 ab 06 bd
       -0.07702418 -0.044210568 -0.07315713 -0.03287794
0003d0 21 29 69 3d 25 0c e9 bd 84 90 b3 3b 8b e1 8b bd
       0.05692399 -0.113792695 0.005479874 -0.06830128
0003e0 4b e7 49 bd f7 fb 1d 3d 7a 69 7e 3b f0 ad 7a 3d
       -0.049292844 0.03857037 0.0038820193 0.061201036
0003f0 6e 88 ec 3a 0b 67 9f bd 97 8a 07 3d c7 08 50 bd
       0.001804603 -0.07783326 0.033091154 -0.05078962

fc.2.bias f4 [100]
000000 9a 67 93 3a 99 fc 06 3a d1 04 1d 3a 9f bd f1 39
       0.0011246086 0.00051493343 0.00059897924 0.0004610838
000010 e4 c7 7d b9 79 da 12 3a 7c 37 65 3a ae 35 10 3a
       -0.00024202425 0.0005602013 0.00087439246 0.0005501163
000020 d4 f5 96 39 df 90 7b 39 62 77 c7 39 f2 ee e8 b7
       0.00028793386 0.00023991194 0.00038045185 -2.7767823e-05
000030 d0 9a a8 39 e9 9a b4 39 e2 cd 17 3a 8b 6e 23 3a
       0.000321588 0.00034447692 0.0005790872 0.0006234429
000040 70 0d 14 3a cc 45 1a ba 67 41 e7 39 7a e4 1b 3a
       0.00056477543 -0.00058850343 0.00044108482 0.00059468264
000050 f8 21 6e 3a af 71 0a 3a 7a b5 4c 3a 68 55 d5 39
       0.0009084041 0.00052812224 0.00078090245 0.00040690158
000060 c7 a6 91 39 d6 cc 8f 36 fb f5 2d 3a 63 8b 99 3a
       0.00027780814 4.285578e-06 0.000663608 0.0011714514
000070 c7 c6 5b 3a 58 41 78 3a 46 fe fa 39 b6 30 b6 39
       0.0008383807 0.0009470186 0.00047873164 0.00034750038
000080 cd c0 c4 3a f8 e0 59 3a c9 75 58 3a 00 ac 68 ba
       0.0015011072 0.0008311416 0.00082572974 -0.00088757277
000090 1e 82 4b 3a 75 bf 16 3a 36 31 96 3a 15 0d 4b 3a
       0.00077632244 0.0005750575 0.0011458758 0.0007745785
0000a0 d4 31 8f 38 28 4e 2d 3a 6f c0 af 3a 80 30 a1 3a
       6.8280526e-05 0.00066110725 0.001340879 0.0012297779
0000b0 36 db 74 3a 78 ba 1d 3a 91 03 66 3a 06 7a 72 3a
       0.00093405263 0.0006016861 0.0008774335 0.00092497503
0000c0 e7 99 98 3a c6 26 e2 39 a5 57 ec 39 8e 1e 96 b7
       0.0011642546 0.00043134968 0.00045078728 -1.7895622e-05
0000d0 bf f2 12 3a 6f 0e 7e 3a 5e 89 0e 37 76 21 02 3a
       0.000560563 0.0009691482 8.495843e-06 0.00049640925
0000e0 dd 55 40 3a ff 68 53 3a cf 14 55 b9 64 37 3e 3a
       0.00073370134 0.0008064657 -0.00020321015 0.00072561787
0000f0 b3 9f e4 b9 ab ab 93 39 84 7e 6c 39 c3 e4 0c 3a
       -0.00043606534 0.00028165928 0.00022553845 0.00053746643
000100 4b 54 7a 3a ea bc 11 3a 72 21 33 39 b0 1c 00 3a
       0.0009549304 0.00055594614 0.0001708323 0.0004887087
000110 5f c2 2b 3a 09 4a b6 b8 6d 75 57 3a ba 05 59 39
       0.0006552096 -8.6922264e-05 0.0008219097 0.00020696866
000120 cb 7a 10 3a fb b1 4f 3a e3 15 f4 39 b7 96 fa b9
       0.00055114616 0.00079229445 0.00046555614 -0.00047796007
000130 27 12 09 3a a8 3c 45 3a f9 b5 6f 3a 3e 55 89 39
       0.000522884 0.0007523992 0.00091442425 0.00026194187
000140 83 17 ab 38 4c 2a cb 39 14 dd 05 38 fa da 4d 3a
       8.158295e-05 0.0003875069 3.1915566e-05 0.00078527594
000150 18 33 ef 39 26 87 00 ba 33 32 a6 b9 8f be f3 39
       0.000456237 -0.0004902951 -0.0003169939 0.0004649055
000160 82 78 5d 39 ce fe 83 39 4e 16 3b 3a cf fb 4a 3a
       0.00021121095 0.0002517611 0.00071368075 0.0007743211
000170 74 f3 27 3a c1 0d 71 38 4d 22 25 3a 36 36 de 39
       0.0006406822 5.7471687e-05 0.00062993617 0.0004238353
000180 ad df 37 3a 28 36 37 3a e5 39 1f 3a 1b 9a 58 3a
       0.0007014226 0.0006988966 0.00060739956 0.00082627096

fc.3.weight f4 [100, 100]
000000 e9 26 23 bd cd 38 90 3d bf 7b 56 3d 02 1d 65 bd
       -0.03983203 0.07042084 0.052364107 -0.055935867
000010 8c 01 2f bd 93 7e e1 bc ce 5b 81 bd cf e6 14 bd
       -0.042726085 -0.027526176 -0.063163385 -0.03635293
000020 3f 72 87 3d 6f 2d 29 bd c3 0b ba bd e5 78 84 bd
       0.066135876 -0.041303094 -0.090842746 -0.06468371
000030 8b 7f 09 bd 75 9f 84 bd 7a 96 93 bd e9 66 82 bd
       -0.0335689 -0.064757265 -0.072064355 -0.06367285
000040 15 c0 93 3d 4d fc 7f bd 4b 78 82 3d ca e8 37 3d
       0.07214371 -0.062496472 0.063706 0.04489974
000050 e4 0f 41 3d db c3 79 3d 79 9c 6e 3d 94 24 97 bd
       0.047134295 0.060977798 0.058254693 -0.073800236
000060 0c dd a2 3d e4 40 6e bd 09 d7 16 3d 0a dc 82 3d
       0.079523176 -0.058167353 0.036826167 0.06389625
000070 03 db 73 3d 4b 4b 8a 3d c4 eb 8d bd 55 93 0c 3d
       0.059535038 0.06752642 -0.06929734 0.034320194
000080 44 1f 22 3d 61 26 62 bd f5 b1 cb bd 94 88 db bc
       0.0395806 -0.055212382 -0.09946052 -0.026798524
000090 d1 0c 00 bd 3b 96 72 3d 1f 58 a7 3d 9a e8 9e 3d
       -0.031262223 0.059225302 0.08171105 0.07759209
0000a0 e1 22 1e bd 4d e4 35 3d 6f 6f 77 3d 9c 29 9b bd
       -0.038607482 0.044407178 0.060409006 -0.07576296
0000b0 d0 6a 9b 3d ef b8 b1 3d 12 36 9a bd 46 d0 77 bd
       0.07588732 0.086778514 -0.07529844 -0.06050136
0000c0 4e 71 8c 3d 56 8d c4 bd f7 a2 44 3d f3 f8 4c bd
       0.06857549 -0.0959727 0.048006978 -0.050042104
0000d0 32 cf 3f 3d e0 45 0d bd 44 39 79 bd dd 2e 4d bd
       0.046828456 -0.034490466 -0.06084563 -0.05009352
0000e0 e7 cc 14 3d 44 9c 39 bd 64 4f 9a bd f9 97 9f 3d
       0.036328223 -0.045315042 -0.07534674 0.07792658
0000f0 78 a7 86 bd ab c6 11 bc e5 8d 3c bc c8 8a 95 3d
       -0.06574911 -0.008897464 -0.01150844 0.07301861
000100 dc 1d 8d 3d c9 5e 0e 3d d2 2d 98 bd 21 cc 35 bd
       0.06890461 0.034758363 -0.074306145 -0.044384126
000110 ca d6 48 3d 71 bd 7f 3d 61 9e 53 3d 57 8d 1d bd
       0.049032964 0.062436525 0.051664714 -0.03846487
000120 f6 52 66 bd 5d 1a ca bd b5 32 37 3d db 64 35 bd
       -0.05623146 -0.0986831 0.044726092 -0.044285636
000130 a6 3d 85 bd e0 59 98 3d f4 51 f8 bc a8 e2 25 3d
       -0.06505899 0.07439017 -0.030312516 0.04049936
000140 8f b9 20 bd 11 45 39 3d 8e a3 73 bd 03 53 98 bd
       -0.039239462 0.045231882 -0.05948215 -0.07437708
000150 37 e5 5f 3d fc d2 86 bd 45 e5 07 3d 76 3f 51 3c
       0.054661956 -0.06583211 0.033177633 0.012771478
000160 9a f5 44 bd ed d2 80 bd c5 dc ee bc 81 cb 22 3d
       -0.048085786 -0.06290231 -0.029158005 0.039744858
000170 d0 a6 8a bd 90 64 51 bd 64 cc 0e 3d cd 36 5a bd
       -0.06770098 -0.051121294 0.03486289 -0.05327492
000180 90 d2 59 bd 1d bb 98 3d ed 56 74 3d ff 82 36 3d
       -0.053179324 0.07457564 0.05965321 0.04455852
000190 aa 08 94 bd 17 24 90 3d 06 b3 ca 3c 1c 18 06 bd
       -0.07228215 0.070381336 0.024743568 -0.032737836
0001a0 3c 8e 87 bd 6d 37 a3 bc 0e ee be bd 03 f0 2a bd
       -0.06618926 -0.01992389 -0.09322749 -0.0417328
0001b0 64 2f 76 3d bd fb 19 bd d7 fb 2d bd 17 01 5b bd
       0.06010379 -0.037593592 -0.0424765 -0.053467836
0001c0 3d 90 51 bd e5 68 57 bd d2 fb a6 bd 0a 47 99 bd
       -0.051162947 -0.05259027 -0.081535 -0.07484253
0001d0 e2 2e 6f 3d bf d3 c9 bd 4c 1b 56 3d e2 30 4b 3d
       0.05839432 -0.098548405 0.052272126 0.049607165
0001e0 52 58 12 3d e4 32 35 3d dd d4 76 3d d7 50 65 bd
       0.03572876 0.044237986 0.060261596 -0.055985298
0001f0 2e 60 a9 3d 4a 80 2c bd 19 96 8e 3d f8 73 60 3d
       0.08270298 -0.042114533 0.069622226 0.054798096
000200 d9 09 53 3d ec 3f 78 3d 84 7c f3 b9 f7 2a 89 3d
       0.051523063 0.060607836 -0.00046441343 0.06697648
000210 82 c7 5b 3d ac ef 52 bd 97 83 a8 bd 77 e7 6a bd
       0.053657062 -0.0514981 -0.08228224 -0.05734965
000220 26 16 38 bd f7 cc d7 3c 49 21 2a 3d 81 b8 53 3d
       -0.044942997 0.026342852 0.04153565 0.05168963
000230 20 d2 68 bd 18 63 23 3d b0 15 50 3d e4 70 72 bd
       -0.056841016 0.039889425 0.050801933 -0.059189692
000240 10 2a 94 3d 8a 08 7d 3d 97 90 78 bd 9c 16 6e bd
       0.07234585 0.06177572 -0.060684767 -0.05812703
000250 1a 85 b3 3c 74 3e 77 bd 43 04 99 3d af 17 9d bd
       0.021914054 -0.060362294 0.07471516 -0.07670533
000260 67 5e 22 3d 42 4f 6a bd df c6 80 bd 71 55 9a bb
       0.03964081 -0.057204492 -0.06287932 -0.0047098924
000270 6f 58 4c 3d 0f ba 70 bd 68 f3 54 bd cb 8c 16 3d
       0.049889024 -0.05877119 -0.051989943 0.036755364
000280 12 bb a8 bd 92 1a 6e bd 4b d5 73 bd 33 61 a7 3d
       -0.08238806 -0.05813081 -0.059529584 0.08172836
000290 a6 af 8f 3d a4 f9 5c 3d 16 ab 41 bd 74 a6 73 bd
       0.07015924 0.053949013 -0.0472823 -0.059484914
0002a0 69 39 11 3d c8 3c 7e 3d 0a 37 16 3d ec 21 88 bd
       0.03545514 0.062069684 0.036673583 -0.06647095
0002b0 7a d8 57 bd 70 c7 bc bd 74 f0 21 3d 37 2e 33 bd
       -0.052696683 -0.09217727 0.039535955 -0.043745246
0002c0 38 da 68 bd 00 e5 c6 3d ba 8f 27 bd 63 11 df 3c
       -0.056848735 0.09711647 -0.040908553 0.02722997
0002d0 23 fb 50 bd 39 80 dd 3c 8b de af bd 26 98 91 bd
       -0.051020753 0.02703868 -0.085873686 -0.07109098
0002e0 79 22 9a 3d 9f 06 8a bd 82 ab 97 3d d2 b7 4e 3d
       0.075261064 -0.06739544 0.074057594 0.050468273
0002f0 fe 87 92 bd bc 5c 84 bd 33 88 92 bd 9d 33 9e 3d
       -0.07154845 -0.06463 -0.07154884 0.07724688
000300 a7 b1 a3 bd fe a7 8d bd b2 8a 7f 3d a8 1c b3 bd
       -0.07992869 -0.069168076 0.06238813 -0.087457
000310 ce d0 84 bd 71 57 80 3d 7d cd a1 3d 82 94 31 3d
       -0.06485139 0.06266678 0.07900522 0.04335452
000320 76 c4 52 3d aa f6 82 bd a2 35 81 bd 4e 09 48 3d
       0.05145689 -0.06394704 -0.06309058 0.048837
000330 c7 46 36 3d 46 7e 49 3d 68 95 8e 3d 8a 2a 5d 3d
       0.044501092 0.04919269 0.06962091 0.053995647
000340 68 48 c8 bc a6 73 a3 3d ac 3a ed 3c 1d c7 4e 3d
       -0.024448588 0.079810426 0.028958641 0.050482858
000350 ad 35 ea 3c 55 63 d3 3d 98 71 b3 3d 1e af 5d 3d
       0.028590048 0.103216805 0.08761901 0.054122083
000360 f2 85 9e bd 2e 6a 3c 3d 9e 20 5b bd ce 97 c0 bc
       -0.07740392 0.0459997 -0.053497903 -0.023509886
000370 3d 79 5f bd 25 40 71 bd 29 c1 5c bd 27 c2 77 3d
       -0.05455898 -0.058899064 -0.05389515 0.060487892
000380 b7 8a 30 bd 87 02 9c 3d 50 7a a6 bd 20 b6 31 bd
       -0.04310104 0.076176696 -0.08128798 -0.04338658
000390 1e 42 61 bd 24 67 a6 bd 91 46 05 3d 29 5a 3a bd
       -0.054994695 -0.08125141 0.032538 -0.04549614
0003a0 7e 17 9c bd ec 76 81 3d ce bf f0 3c 8e 13 90 3d
       -0.07621668 0.06321511 0.029388335 0.0703498
0003b0 ca cb 3b 3d 66 31 96 bd b9 33 4d bd b4 46 60 bd
       0.045848645 -0.07333641 -0.050098155 -0.054754928
0003c0 0c 2f b9 3d 8e c5 68 bd 47 c3 a4 bd f4 75 bf 3c
       0.090421766 -0.056829028 -0.08045059 0.023371674
0003d0 a6 de 9a bd 36 52 51 bd 87 1b ba 3d 6b 5d 83 3d
       -0.07561998 -0.051103793 0.09087282 0.064143024
0003e0 b8 93 2a bd c4 6c a4 3d 4d 59 a3 bd d8 e1 8e 3d
       -0.04164478 0.08028558 -0.07976017 0.0697667
0003f0 a7 61 8a bd f2 80 80 3d b3 d2 82 3d 83 b7 25 3d
       -0.06756907 0.06274594 0.06387844 0.040458214

fc.3.bias f4 [100]
000000 28 b0 84 3b d9 6a 66 3b c2 a7 c9 ba 3f f9 ea b9
       0.00404932 0.00351589 -0.0015385079 -0.0004481766
000010 7a 91 69 3b a5 75 aa b9 c0 dd 88 3b 51 c7 76 3b
       0.003563969 -0.0003251258 0.0041768253 0.0037655423
000020 68 d4 7c ba 8f 76 81 3b d6 c5 8d 3b 7b d1 7d 3b
       -0.0009644688 0.003950901 0.0043265624 0.0038729596
000030 9f 44 aa ba 5e e8 9f 3b 61 88 23 39 9d ac 88 3b
       -0.0012990421 0.0048799952 0.00015595696 0.0041709677
000040 24 11 b7 ba 21 24 6a 3b 7f 8f 7c 3b f5 ae 7e 3b
       -0.00139669 0.00357271 0.0038537679 0.0038861607
000050 6d a1 3f ba 13 50 a0 b9 e9 4c 60 3b 6c c9 62 3b
       -0.0007310126 -0.00030577238 0.003422553 0.003460492
000060 27 7b ae ba 8a 9c 80 3b 88 00 c2 b9 60 ba 94 3b
       -0.0013311849 0.003924911 -0.0003700296 0.004538819
000070 11 39 4e 3b a5 10 dc ba fa 10 8a ba 59 48 16 ba
       0.003146712 -0.0016789628 -0.0010533624 -0.00057328265
000080 90 a7 71 b9 25 41 80 3b 6e 2a 77 3b 55 c2 2b ba
       -0.00023045973 0.003914016 0.00377145 -0.000655209
000090 0c 5e 84 3b e6 8e 94 b9 e1 d5 80 3b 2d 58 7c 3b
       0.0040395316 -0.00028335227 0.0039317464 0.0038504705
0000a0 f7 37 80 3b 97 2b 80 3b d0 d3 83 3b e8 7e 61 ba
       0.0039129215 0.0039114463 0.0040230528 -0.00086019794
0000b0 67 ff 00 ba 6d ba 92 3b 5e e6 59 ba 26 dc f0 b9
       -0.00049208704 0.00447779 -0.00083122205 -0.0004594039
0000c0 30 bf 98 ba f7 d1 c8 b7 48 6e 79 3b 5a b5 1b ba
       -0.0011653658 -2.393963e-05 0.0038060118 -0.0005939804
0000d0 d9 a5 06 ba 8f 1b 7a 3b d2 6e 19 ba f8 a7 f6 b9
       -0.00051364076 0.00381634 -0.00058530003 -0.00047045923
0000e0 1e 9c 3b 39 9d a5 13 ba b3 ee a4 ba 7e e8 75 3b
       0.00017891868 -0.0005632283 -0.0012583345 0.003752261
0000f0 40 ec 33 ba b4 a1 74 3b a7 ca 79 3b 72 3d 72 ba
       -0.0006863512 0.0037327828 0.0038115175 -0.00092407234
000100 6f d8 ab b9 93 b0 55 ba 29 8e 45 3b 28 d3 a2 ba
       -0.00032776917 -0.0008151617 0.0030144549 -0.0012422549
000110 30 e5 3d ba 41 ce 65 3b ac 87 66 3b 06 aa 6e 3b
       -0.00072439294 0.0035065564 0.0035176082 0.003641726
000120 a3 e3 71 3b 0c 76 7a ba 65 8e 8e 3b 5a d4 93 3b
       0.0036909364 -0.00095543335 0.004350471 0.0045113983
000130 1b 32 8f 3b d2 e2 78 3b 85 7a 89 3b 68 55 9b 3b
       0.0043699867 0.0037976992 0.0041955137 0.004740406
000140 56 8e 5e 3b a1 0d a6 ba 52 b9 5f 3b 2d 98 7c 3b
       0.003395935 -0.0012668857 0.003413756 0.0038542852
000150 78 1b 80 3b a8 04 92 3b 5b a6 79 3b 2e 6a f2 b6
       0.0039095245 0.0044561215 0.003809354 -7.224523e-06
000160 f5 20 6c 3b 5b fa 81 3b 7f 29 96 3b 0d e3 84 3b
       0.0036030386 0.0039666123 0.0045825834 0.004055387
000170 db fb 81 3b b1 bb 8c 3b b0 a9 27 b8 50 df 8a 3b
       0.003966791 0.0042948355 -3.9973937e-05 0.0042380467
000180 75 f1 52 3b 49 c0 07 bb 13 d8 75 ba dc 58 b1 ba
       0.0032187377 -0.0020713976 -0.0009378206 -0.001353051

fc.4.weight f4 [100, 100]
000000 4f d3 92 bd 58 2e 9b bd 21 4f b7 3d 18 fb 62 3d
       -0.0716921 -0.07577199 0.089506395 0.055415243
000010 9c 1a 4e bd 7b a0 fb 3d 90 28 86 bd af a2 d2 bd
       -0.050318345 0.122864686 -0.065507054 -0.10284936
000020 40 94 e5 3d ca 9a b4 bd 01 e3 8f bd 63 26 7d bd
       0.11209917 -0.08818586 -0.070257194 -0.061804187
000030 6c 04 67 3d 76 62 63 bd cf 2a bc 3d a5 e2 05 be
       0.0564007 -0.05551382 0.091878526 -0.1307474
000040 16 96 b0 3c 0e 5f 38 bd 17 09 59 bd 27 8a 5b bd
       0.021555942 -0.045012526 -0.052987184 -0.05359855
000050 66 e9 35 3d c2 26 f5 3d 13 cf 8f bd ff 98 d0 bd
       0.04441204 0.11970283 -0.07021918 -0.10185432
000060 10 0c 25 3d 42 51 6d bd 43 b5 b2 3d a6 98 8e bd
       0.040294707 -0.05793882 0.08725979 -0.06962709
000070 e2 0e 8e bd b1 e6 a7 3d 8a 8c 8c 3d 40 1b 5c 3d
       -0.069364324 0.08198298 0.06862743 0.053736925
000080 b3 43 54 3d 6e 65 9b bd 81 15 98 bd 59 66 d5 3d
       0.051822376 -0.075877056 -0.074259765 0.10419912
000090 12 27 6f bd 6c b5 88 3d 77 70 a9 bd 72 f1 da bd
       -0.05838687 0.066752285 -0.08273404 -0.10690583
0000a0 c3 64 9f bd c8 85 8d bd 7d e5 ae bd 1c 42 b8 3c
       -0.07782891 -0.069102824 -0.08539865 0.02249246
0000b0 1f 83 af 3d 9e 90 ac bd ad 86 99 3d ac 6b 55 3d
       0.08569931 -0.08426021 0.074963905 0.052104637
0000c0 74 59 41 3d e3 35 3b 3d 2a 1c b6 bd 73 44 e7 3d
       0.04720445 0.045705687 -0.088920906 0.112923525
0000d0 8a db 4d 3d b6 ed 89 bd 33 aa ab 3d 93 df 86 3d
       0.050258197 -0.06734793 0.08382072 0.06585612
0000e0 a2 e3 83 3d 4a 60 9d 3d ee 15 a2 3d b9 42 97 bd
       0.06439902 0.07684381 0.07914339 -0.07385773
0000f0 e0 22 cb 3d 6d ed 9b bd 05 cf c2 bd 61 fc e5 3d
       0.09918761 -0.07613645 -0.09512142 0.11229778
000100 d6 53 c8 3c 96 c8 cf 3d ed ac 99 bd 45 4c 8f 3d
       0.024454039 0.101456806 -0.07503686 0.06996969
000110 50 50 6f 3d 94 29 91 bd 72 0a 28 bd d5 7c 8a bd
       0.0584262 -0.070880085 -0.041025586 -0.06762091
000120 ab 46 a3 bd f0 03 2c 3d ed 5d b0 bd 3e a7 0b bd
       -0.07972463 0.041995943 -0.08611665 -0.03409504
000130 f9 71 aa bd 14 1b 96 bd 1d 91 94 bd 12 54 06 bd
       -0.0832252 -0.073293835 -0.07254241 -0.03279502
000140 bf 6f 3c bd 4a 71 97 3d 8f bc 9f bd 1e 4d 71 bd
       -0.046005007 0.07394655 -0.077996366 -0.058911435
000150 c7 ad aa bd ff dd 81 bd 16 21 bf bd 88 2c 8a 3d
       -0.08333927 -0.063411705 -0.093324825 0.06746775
000160 e6 b9 a8 bd ed 46 ce bd a3 d2 8f bd 46 d9 9b bd
       -0.08238582 -0.10072122 -0.07022598 -0.07609801
000170 b7 e1 51 bd 08 aa a5 bd 18 57 bb 3d 79 a5 f5 bc
       -0.05124065 -0.080890715 0.09147471 -0.02998613
000180 f0 09 00 be 11 96 8b 3d ec 45 91 3d 0c e2 00 3d
       -0.12503791 0.06815732 0.07093415 0.031465575
000190 7b ef 02 bd d2 7b 63 bd 9c c7 34 3d e1 c9 6b 3d
       -0.031966668 -0.055538006 0.044135675 0.057565574
0001a0 ef e9 33 bd e7 88 d0 3d e3 b0 ed bc b9 53 de bc
       -0.04392427 0.10182362 -0.02901501 -0.027139531
0001b0 f4 6f b3 3d c7 9b 63 bd 61 30 f6 bc 0e c5 fa bc
       0.08761588 -0.055568483 -0.030052366 -0.030611541
0001c0 49 b6 67 3d 37 6f 00 bd ea 10 b7 3d a2 fc b1 bd
       0.056570325 -0.031356063 0.08938773 -0.08690764
0001d0 ab 07 75 3d 65 4d f4 bc 11 d7 8b bd 49 6b 36 bd
       0.059821766 -0.02982206 -0.0682813 -0.04453591
0001e0 fa 01 7e 3d a6 b0 ae 3d bd dd 3d bd ba 5c 26 bd
       0.062013604 0.08529787 -0.046354044 -0.040615775
0001f0 c9 74 bb 3d 72 30 93 bc ef 96 ac 3d 15 d3 16 bd
       0.091531344 -0.017967436 0.08427226 -0.036822397
000200 c0 9d 07 bd 84 a0 84 3d 26 5d a6 3d a2 30 3e 3d
       -0.033109426 0.064759284 0.081232354 0.0464331
000210 b0 34 b9 3b 82 4b 3b bd 29 31 85 bd d0 93 26 3d
       0.005652033 -0.045726307 -0.06503517 0.04066831
000220 17 81 91 bd 67 a5 af 3d 53 b3 94 bd 33 0d a8 bd
       -0.071047 0.0857647 -0.07260766 -0.082056426
000230 fd 09 5f bd ae b7 9b bd 0d a9 b1 bd b5 78 9c 3d
       -0.054452885 -0.076033935 -0.08674822 0.076402105
000240 1b 2b ee 3c e7 12 16 bd 8a e0 9b 3d 3c 84 a4 3d
       0.029073289 -0.03663912 0.07611187 0.08033034
000250 d9 07 c1 3d 12 b9 91 3d ac 34 28 bd 4b bc 08 3d
       0.09425325 0.071153775 -0.041065857 0.033382695
000260 56 18 92 3d e4 fb 9f bd bd 06 3d 3d 28 35 a9 3d
       0.07133548 -0.07811716 0.046149004 0.08262092
000270 53 9d 66 3d 07 6b 18 3d f7 7c 9b 3d 87 b3 65 bd
       0.05630238 0.037211444 0.075921945 -0.056079414
000280 2a 05 2d 3d a0 e0 2a bd 04 54 9a bd 8f c0 ed 3c
       0.042241253 -0.041718125 -0.07535556 0.029022483
000290 98 bb 61 3d 06 69 99 3d 2b 3d 85 bd f2 83 7b 3d
       0.055110544 0.07490735 -0.065058075 0.06140513
0002a0 9d cd b8 3d 87 fa 98 bd 09 06 92 bd ea a8 70 bd
       0.090235926 -0.07469659 -0.07130057 -0.05875484
0002b0 07 e2 9f bd 33 cb 71 3d d9 d8 b6 bd 41 71 b6 bc
       -0.07806783 0.059031677 -0.08928079 -0.0222708
0002c0 d3 51 80 bc 5d 58 8c bd 87 52 6d bd a7 d8 59 bc
       -0.015664017 -0.068527915 -0.057940032 -0.013296283
0002d0 45 ad 1c bd 4f ec 16 3d c9 bc 0a bd f5 4e 07 bd
       -0.03825118 0.036846455 -0.033871446 -0.033034284
0002e0 30 cc 77 bd 61 77 fc bc 03 df 4a bd 4a c2 86 3d
       -0.060497463 -0.030818643 -0.049529087 0.065800264
0002f0 6f 35 32 bd 72 61 85 bd 48 63 28 bd d1 8e 6b bd
       -0.04350799 -0.06512727 -0.041110307 -0.057509247
000300 42 41 33 bd 88 fb f2 bc f7 b7 61 3d 17 e9 fb bc
       -0.043763407 -0.029660955 0.055107083 -0.030750794
000310 21 ce 8d bd 15 b1 c0 3d c3 04 5b 3d a1 2c a1 3d
       -0.069240816 0.09408776 0.053471338 0.078698404
000320 2e 2f c9 ba db c5 c4 3c 39 6e c2 3b 26 ae 84 bc
       -0.0015349144 0.024020126 0.0059335497 -0.016196322
000330 50 83 12 3d 9a 2c ca bb 2d 49 08 3d 56 72 51 3d
       0.03576976 -0.0061698677 0.03327291 0.05113443
000340 19 3b 62 bd 86 96 26 3d 63 ce 2b 3c af 45 1a 3c
       -0.05523214 0.040670894 0.010486218 0.009416028
000350 fa dd 29 bd 0e 71 7f 3b 5c f1 26 bd 04 5c 25 3c
       -0.04147146 0.0038977298 -0.040757522 0.010092739
000360 1b 0c 0c bd 0a a1 e8 3c 0f 11 ba 3c ed af 33 3c
       -0.034191232 0.028397102 0.022713212 0.010967237
000370 0e d6 15 bd 0e f6 05 3c 42 43 1f 3d 8b e7 78 3d
       -0.03658109 0.00817634 0.0388825 0.06076769
000380 7a f8 fb bc 2b fd a1 3c 9d 98 08 bd 38 b5 d6 3c
       -0.030758131 0.01977404 -0.03334867 0.026209459
000390 05 4f 16 3d 55 2b d2 bc 12 cd 02 bc 63 cf c4 bc
       0.036696453 -0.025655428 -0.007983463 -0.024024671
0003a0 6e 43 59 bd 62 5b 3e 3c c5 6b 76 3d d7 db 6f bd
       -0.05304282 0.011618467 0.06016137 -0.058559265
0003b0 30 b7 86 3d 5d 71 0e bd 28 f9 fd bb 83 91 8e 3c
       0.06577909 -0.03477608 -0.007750649 0.01740337
0003c0 38 0c 45 3c 4c 94 85 3b e2 47 2a 3d a5 99 4e bd
       0.012026839 0.0040765163 0.04157246 -0.050439496
0003d0 ca 65 f6 bc f8 29 44 3c 1c ee 06 bd 9b 95 07 bc
       -0.030077834 0.011972897 -0.032941923 -0.008275415
0003e0 4f 54 9f bb d6 84 6d bc 2d 13 14 3d 2c 34 d9 bb
       -0.0048623453 -0.014497003 0.0361511 -0.006628534
0003f0 87 93 93 bd a5 e8 62 3b 45 77 35 bd 39 31 0b bd
       -0.07205873 0.003462353 -0.044303197 -0.03398249

fc.4.bias f4 [100]
000000 53 9c 3d ba a7 9f e9 bb 61 a1 05 3c 8e 7c b6 bb
       -0.0007233072 -0.0071296277 0.0081561515 -0.0055690473
000010 c6 20 96 bb af 08 87 bb aa 5d 0f 3c a4 c8 d2 ba
       -0.0045815436 -0.004120908 0.008750359 -0.0016081524
000020 38 81 14 3c ac 75 ab ba ca 7e 0c 3c 5d f6 3a bb
       0.009064011 -0.0013081334 0.008575151 -0.0028528192
000030 b9 35 0a 3c fb ca 10 3c b9 b4 7d bb f8 78 0b 3c
       0.00843566 0.008837457 -0.0038712455 0.008512728
000040 54 4d 9e bb 5c 3a 08 3c bb 99 21 3c 6b 03 0e 3c
       -0.0048309956 0.008314695 0.009863312 0.008667807
000050 1d 6d 96 bb fe 4a a6 bb 53 19 57 bb 7a e3 0d 3c
       -0.004590644 -0.0050748577 -0.003282149 0.008660192
000060 ac 0f 77 bb be 12 15 3c ea 02 08 3c cc 46 1e 38
       -0.003769855 0.009098707 0.008301476 3.773607e-05
000070 ae 84 07 3b 8d 5d c7 38 ac ec fa 3b ff 6e 04 3c
       0.0020678448 9.506485e-05 0.007657608 0.008083104
000080 b7 c9 0c 3c 1a 04 06 3c 03 d7 ce ba 0c 4b ad bb
       0.008593014 0.008179689 -0.0015780631 -0.0052884873
000090 26 f7 0a 3c b4 7a bb bb 85 08 93 bb ed 80 80 39
       0.008481776 -0.0057214145 -0.0044870996 0.0002451012
0000a0 9e 99 fd 3b 15 05 0a 3c 9f e7 12 3c be 55 82 3a
       0.00773926 0.008424063 0.008966356 0.0009943766
0000b0 e9 10 00 3c f4 4c bb bb 02 55 0d bb ce 61 8d bb
       0.007816532 -0.0057159606 -0.0021565561 -0.0043146377
0000c0 76 82 06 3c cf 08 0e ba 75 55 5e bb 50 7c 1b 3c
       0.008209815 -0.00054181827 -0.0033925448 0.009490088
0000d0 69 1b a7 bb eb e7 f3 3b 7d 6e fd 3b 99 f2 93 ba
       -0.005099703 0.0074434183 0.0077341185 -0.001128751
0000e0 55 98 18 3c de a3 81 bb 45 e1 f4 3b 07 fa 15 3c
       0.009313663 -0.003956302 0.0074731433 0.009153849
0000f0 3d 9a 4e bb 11 da e6 ba fc d0 e4 3b 9d 14 08 bb
       -0.0031525039 -0.0017612596 0.0069829207 -0.002076424
000100 d8 9a e0 3b 96 08 1b 3c e4 48 06 3c 5b 7f 37 bb
       0.0068543963 0.009462496 0.008196089 -0.0027999494
000110 c9 1f 87 3a 8a 2f 06 3c 49 95 21 3c 7c 7d d7 bb
       0.0010309155 0.008190045 0.0098622525 -0.006576238
000120 55 b7 fc 3b 8a 25 e9 3b e2 59 de bb 93 2d 89 bb
       0.0077122846 0.0071150707 -0.006785617 -0.004186341
000130 99 98 14 3b 57 13 03 3c a4 ff 1f 3c 9d 3c fa 3b
       0.0022673963 0.008000216 0.009765539 0.00763662
000140 67 ca 8e b9 79 72 20 3c ff 02 04 3c 11 74 de bb
       -0.00027235152 0.009792917 0.008057355 -0.0067887385
000150 89 d8 05 3c 64 05 09 3c b7 d0 b2 ba 55 8d 1c 3b
       0.008169302 0.008363102 -0.0013642524 0.0023887951
000160 b2 d2 37 b9 09 ba 3c bb 07 8a b0 bb 64 db 94 bb
       -0.0001753073 -0.002879741 -0.005387548 -0.004542755
000170 a1 e3 ef bb 20 16 81 bb e4 98 f8 3b 3f ca aa bb
       -0.0073208367 -0.003939405 0.0075865854 -0.005212098
000180 60 fb c8 3b 30 58 cb bb 8f 1e 03 3c 00 4e b2 bb
       0.006133482 -0.006205581 0.008002891 -0.005441427
