results/Smoothed_InfoNCE_dim6_reg1_alpha0.001.pt (torch, 302381 bytes, 13 tensors)

fc.0.weight f4 [100, 12]
00000000: 3a8b 383d a53f 37bb f7fc 023d 97a2 98bd
00000010: d072 b63d 9593 b63d 5fd1 98bd 009b 1b3d
00000020: d8c2 4dbd ae25 8b3d 1fde 09bd 0960 97bd
00000030: f23e 1cbb 8d4d a0bc ccc5 3cbd 0e38 b83d
00000040: 0a90 83bd d7ac fa3d aa5e f33b 302f 67bc
00000050: 16d3 1e3d f21c d7bd c047 803d 9c1b d7bd
00000060: 1006 6e3d 75fd 083e ad54 89bc 2436 9e3d
00000070: 0b5a d5bd c3f1 04bc 4e45 95bd fa5b e8bd
00000080: 7b6c 263d 0484 7abd 009a a33d 0245 863c
00000090: 5438 9c3d 6ed4 adbd bd60 d7bc 2762 7c3d
000000a0: 1e75 aebd 45d9 61bd aa7d 9cbd 572e aa3d
000000b0: 6224 3f3c 2f4e 9cbd da6e d73d d720 293d
000000c0: b35a bebd 698e abbc 09fc 8dbb ff31 56bc
000000d0: 1859 033e 5b0e 80bd cca5 c43d f63f a43c
000000e0: 9547 e63c 8002 a23c 4927 0dbe f35e 493d
000000f0: e9fc c33c 1638 7e3d 19e9 8bbd bd19 d5bd
00000100: 4e29 553d 5c06 c43d 31c2 82bd e081 24bd
00000110: 6867 7b3d bc18 f53d ae71 7dbd 91cd 7fbd
00000120: fd22 d43d 34d8 e7bc aa6c 5b3d 7cf6 9abd
00000130: 2537 92bd aecd ab3c 7037 dfbd 9e34 553d
00000140: 2fd1 80bd 44f5 853d 774a ad3d 5af2 8cbc
00000150: 68d8 c8bc 66bb e0bc 9b07 40bd 8a75 29bd
00000160: 9d7a a2bd 30ca ec3d 2ff6 50bc a657 0c3c
00000170: 1cae 8fbc d0a7 01bd c362 51bd f596 f43d
00000180: ec03 953d cced 20bd 5866 103d 1266 43bd
00000190: d8c0 9ebd b629 5b3c 984e 903c a9c2 8bbc
000001a0: 646e d23c 34c5 8ebd 5ff7 b4bd 295e b3bc
000001b0: 5543 f5bc 081e 2b3d 49fb 093e 8b93 26bd
000001c0: 68a6 2c3d 40dc 283d eee6 023d 8036 1cbc
000001d0: 9c21 fabd 0548 4b3d 2d6e d8bc d0bc 86bd
000001e0: 0448 18bd ca20 083d 555b 96bd 1373 c63c
000001f0: 15e9 0c3e 62a8 a53c 96b3 d03c 9b19 b7bc
00000200: f051 333d 977b 7abc 076e efbd 7400 9bbc
00000210: 9cec 5cbd 8214 b0bc cfef a8bc 6a14 583b
00000220: 6521 0e3d c0aa 79bd d390 01bc bb0c 0e3c
00000230: fa32 73b6 a4c4 8f3b 8295 e33c a275 c0bc
00000240: e6e4 d9bb 55df 7f3d 513b 873d 58dc 08bd
00000250: ff94 2a3d 4cb2 3ebd e803 013c 0cb9 073c
00000260: 11df a13d 744c b7bb 62b6 853d c378 2a3b
00000270: e78e 6f3d 54eb 0dbe 92e9 20bd d123 88bd
00000280: 76ea 843d 98b9 76bd c006 c1bc 95bc 083e
00000290: 90de 39bb 3f11 2d3d 6758 9fbd 6fe5 933d
000002a0: 4cd4 a1bd 0a5b 273c aca4 1dbd 85b5 ba3d
000002b0: eec9 1b3d a3dd 35bd a68a b83d 6247 bebc
000002c0: a848 683d 567f c9bd c13a 87bd c524 1f3d
000002d0: eebe b93c 3b40 0ebd 5f17 96bd 8c0a d93d
000002e0: 6978 c7bc 32d8 703d 1d53 7fbc 448d bd3c
000002f0: 1822 7b3d 654c e1bd 3f48 163d 9059 41bd
00000300: 522a be3d 9d2f e0bc 7341 fc3b 10b4 f53d
00000310: 6f26 ab3c 3310 9fbc e3c5 933d b924 8ebc
00000320: 126b 103c 8c3a 953d 6a96 ee3a 9a34 b5bc
00000330: 2932 ad3d f344 873c bf21 1e3d a364 103d
00000340: f8cc cabc c34b b8bd 7dea 9bbd fc0c 0abd
00000350: a06e 6abd f892 68bc 6086 563c ec89 c93d
00000360: 474f d83c 79eb de3d e8e3 62bd 63e8 d93c
00000370: 538c 853d 6a83 733d ec2a 07bd d1e1 00be
00000380: 85d0 c73c 805d 86bd 594b a6bd c7b0 04bd
00000390: d149 b9bc ef41 5abd 5ee0 ddbb 7752 93bd
000003a0: d762 70bd ef71 50bd d051 53bc 533b 4abd
000003b0: 10c2 8ebd e1ce 1bbd 0ebe 1bbd 0e8a 59bd
000003c0: adc8 073d 2839 ef3d b1c2 c2bc ea78 573d
000003d0: 4a35 203d ef34 b13b b97b 34bd 94a6 10be
000003e0: 93e2 653d 4121 8bbd 86fc 79bd 70c5 d43b
000003f0: 642b 8d3d 02f6 19bd 8466 10bd 111a a3bd
0.04505465 -0.002796152 0.031979527 -0.074528866 0.089086175 0.08914868 -0.07461809 0.037989616
-0.050234646 0.06794296 -0.033659097 -0.07391364 -0.002384123 -0.01956823 -0.04608707 0.089950666
-0.06423958 0.12239998 0.0074270563 -0.0141103715 0.038775526 -0.10503568 0.06263685 -0.10503313
0.05811125 0.13377936 -0.01676401 0.0772517 -0.10417565 -0.008114281 -0.072886094 -0.11345668
0.0406308 -0.061161056 0.079883575 0.016390327 0.07627931 -0.08487783 -0.026291246 0.061617043
-0.08518432 -0.055138845 -0.07641156 0.0830962 0.011666389 -0.076321 0.1051919 0.041291084
-0.09294643 -0.02094193 -0.0043330234 -0.013073443 0.12826955 -0.06252738 0.09601936 0.02005003
0.028110305 0.019776583 -0.13784517 0.049162816 0.023924308 0.062065206 -0.06831569 -0.104053
0.052041344 0.095715255 -0.06384695 -0.04016292 0.061377913 0.11967608 -0.06187599 -0.062451903
0.10358236 -0.028301336 0.053570427 -0.075665444 -0.07139424 0.0209721 -0.10899246 0.052052133
-0.062898986 0.06540921 0.08461469 -0.017205406 -0.024517253 -0.027433109 -0.046882253 -0.04137186
-0.07933543 0.11562002 -0.012754007 0.008565819 -0.017539077 -0.03165418 -0.051119577 0.11942855
0.07276139 -0.03928928 0.035253853 -0.047704764 -0.07751626 0.013376644 0.017615601 -0.017060595
0.025687404 -0.06971207 -0.08836245 -0.021895485 -0.029939333 0.041776687 0.13474764 -0.04066805
0.042150885 0.04122567 0.031958513 -0.009534478 -0.12213442 0.04962923 -0.026419723 -0.06578982
-0.037178054 0.033234395 -0.07341639 0.024224794 0.13760789 0.020221893 0.025476258 -0.022351077
0.043779314 -0.015288255 -0.11690908 -0.018921115 -0.053936586 -0.021494154 -0.020622162 0.0032971152
0.034699816 -0.060953856 -0.007908064 0.008670027 -3.6239494e-06 0.004387455 0.027781252 -0.023493592
-0.0066496013 0.062468845 0.066031106 -0.03341326 0.041646 -0.046556756 0.0078744665 0.008283865
0.07903875 -0.0055938307 0.065289274 0.002601192 0.05848589 -0.13859302 -0.03928525 -0.066474564
0.064900324 -0.06023559 -0.023562789 0.13353188 -0.0028361417 0.042252775 -0.07780533 0.07221495
-0.079018205 0.0102145765 -0.03848712 0.09116653 0.038034372 -0.044400822 0.0901082 -0.023227397
0.056709915 -0.098387405 -0.06603003 0.038853426 0.02267405 -0.034729224 -0.073286764 0.10597715
-0.024349408 0.05879993 -0.015583781 0.02313865 0.06131181 -0.11000899 0.036689993 -0.047204554
0.09285416 -0.027366454 0.007698232 0.11997235 0.02089235 -0.019416904 0.07215478 -0.017351495
0.00881459 0.072865576 0.0018202786 -0.022119809 0.08456833 0.01651237 0.0386064 0.035252225
-0.02475594 -0.089988254 -0.076130845 -0.03370379 -0.057234406 -0.014195196 0.013093561 0.0984076
0.02640499 0.108847566 -0.05539313 0.026600068 0.06520905 0.059451498 -0.032999918 -0.12586142
0.024391422 -0.065608025 -0.0811984 -0.03239515 -0.022618206 -0.053285535 -0.0067711314 -0.07193463
-0.05868801 -0.050889906 -0.012897924 -0.049372982 -0.06970608 -0.038039092 -0.038023047 -0.053110175
0.033150364 0.116808236 -0.023774477 0.052605547 0.03911332 0.0054079215 -0.044063304 -0.14126045
0.05612428 -0.06793452 -0.06103184 0.006493263 0.06893042 -0.037588127 -0.035254017 -0.07963956

fc.0.bias f4 [100]
00000000: 6fae 3dbb fa01 68bc 3b75 9cbb 74d0 b5bc
00000010: 7e0e 0f3b 62da 96bc cbde 58bc d1e3 cbbc
00000020: 2be3 e9bc b7d9 35bc 2cc7 20bb 320d 2bbc
00000030: c134 56bc 5153 a1bc 23c8 4eb8 fa6c 24bc
00000040: 77ca 08bd 684a 16bc bece 7abc c5d6 93bc
00000050: 691f e1ba 6350 0abc 4e5c b8bc 41a6 bdbc
00000060: 146d ecbb 6d1b ebbc b181 52bb 2c6a 7bbc
00000070: be6a 82bc b9c0 e8ba 98f3 9abc 6356 39bc
00000080: 7e4b 85bc 3df3 42bc 8578 a2bb 51e7 93b9
00000090: 6d39 99bb f504 e7bc edd2 d7bc 2002 90bc
000000a0: a1cc 0fbc 35f6 56b9 26ce b6bc d8de 8cbc
000000b0: e67a 28bc dc6f 24bb ae48 bcbc 8a0c 80bc
000000c0: 0bdf 6cbb 9fdd d0b8 6781 a7bc 6fbc 79bc
000000d0: a917 57bb 6c80 bbbc 7ce8 d5bc c707 7fbc
000000e0: 5cea 7bbc 76bd fbbb b4c7 95bc d222 a6bb
000000f0: 31c4 5cbc 10f7 a1bc 68a5 ecba fda7 33bb
00000100: 71e1 a2bc ba4d 673b 29b8 9fbb 1175 7bba
00000110: e981 0abc 6730 96bb fc84 3bbb dfaa 0cbd
00000120: c026 0fba 749d 8bbc 9cb0 00bc c4d4 6dbc
00000130: df78 b4bc 5e75 c3bc 0c76 2c3c 0f0c bdbb
00000140: d10b 9ebc c2a7 93bc 7492 0cbb a0f8 5b3b
00000150: 2b41 cdba 9167 f0bc 469f a4bc 479b 8cbc
00000160: 3627 5ebb 475f c5bc f3da d3bc 2b0d 67bc
00000170: 7e7b 74bc e6d1 9fbc 74fc 91bc 74e2 97bc
00000180: 8034 9dbc 2abc 81bc 3251 8dbb 4d58 53ba
-0.0028943082 -0.0141606275 -0.004774717 -0.022194125 0.0021828706 -0.01841468 -0.013236712 -0.024888905
-0.028550705 -0.011099271 -0.0024532778 -0.010440158 -0.013074101 -0.019693049 -4.930062e-05 -0.010035748
-0.03339621 -0.009173013 -0.01530808 -0.018046746 -0.0017175499 -0.008442017 -0.022504952 -0.023150565
-0.0072151516 -0.028699601 -0.003212076 -0.015345138 -0.01592004 -0.0017757631 -0.018914983 -0.0113121
-0.016271349 -0.011898813 -0.0049582147 -0.0002821037 -0.004676035 -0.028200606 -0.026345694 -0.017579138
-0.008776815 -0.0002050035 -0.022315096 -0.017196104 -0.0102832075 -0.0025091087 -0.022983875 -0.01563098
-0.0036143686 -9.959493e-05 -0.020447446 -0.01524268 -0.00328205 -0.022888385 -0.026111834 -0.015565819
-0.0153757 -0.0076824976 -0.018283702 -0.005070069 -0.01347451 -0.019771129 -0.0018054666 -0.0027413361
-0.01988289 0.0035294131 -0.0048742485 -0.00095923344 -0.008453825 -0.0045834067 -0.00286132 -0.034342643
-0.0005460791 -0.017042853 -0.007854607 -0.014516059 -0.022030292 -0.023859676 0.010526191 -0.0057692598
-0.019292744 -0.01802433 -0.0021449598 0.003356494 -0.001565968 -0.02934626 -0.020095479 -0.017163886
-0.0033897883 -0.024093283 -0.025861239 -0.014102261 -0.014922021 -0.019509267 -0.017820574 -0.018540598
-0.019190073 -0.015836794 -0.0043126578 -0.0008062169

fc.1.weight f4 [100, 100]
00000000: 60d3 e23c d9af b63b 1d43 bbbb 2db3 093b
00000010: 496c 303d 6955 e53d 1866 87bc e274 7cbd
00000020: 57f4 09bc 61b8 5d3d 5efe 0d3d 351c 673c
00000030: 5b7f d1bb 3569 b73d 52c2 cebc 1eec e9bc
00000040: 3aef 13bd 5cab 343d bcbd 553d 0cd1 13bd
00000050: e74e 163d 677b a3ba e00c 31bc 4b7e b83d
00000060: a91e 6a3d ad62 1dbd d6ec fe3c be47 59bc
00000070: 09c9 d83d 2d3c 0abc 274e f63d f003 5c3d
00000080: 7c85 283d 85d0 683a 00ea a2bc 3f42 653d
00000090: dcb5 25bd c2ef febc 6904 033e 1540 7c3d
000000a0: 1847 3c3d 5255 69bc f071 1ebd 5b71 fdbc
000000b0: a7ad bb3d df35 5b3d 91af a9bc 5640 07bd
000000c0: 5811 063d 4a97 5cbb 12a2 993c 189a 98bc
000000d0: f112 c83d b866 84bc 03a4 0bbd 343e 7c3d
000000e0: d054 6c3c 8fa5 b9bc e383 493d 55f0 44bd
000000f0: d5e8 e33d 95c7 083d 863a c63c b028 073d
00000100: 01a3 ccbc df8b 473c f2d0 363d ec01 fe3c
00000110: 67ad d8bc a488 ae3c 1bcf d9bc 272f c9bc
00000120: 90ba 033d 3561 eb3d 5b24 c5b9 0d91 4f3d
00000130: b80a 573d d47e 67bc 185b cdbc dbb3 0b3d
00000140: f688 1f3e 1078 e13c 8d28 1a3d db1d 173d
00000150: 533a 41bb 5379 3fbd 789f ca3d 4cec e33d
00000160: 7863 1b3b 8b6c ab3d 32f9 72bc a3d9 d83a
00000170: 05f7 1cbb cbb9 1ebd 0440 3f3c 8891 b63d
00000180: 5d7f 9d3c 3a36 0ebc f267 393c 9c85 9ebb
00000190: 608c c4bc 4599 35bd e9b4 03bb bf92 f0bc
000001a0: e337 b939 9534 c5bd cc3b 51bd a621 da3c
000001b0: 34b4 363d c371 04bd 3ec0 9fbc 1f99 d43b
000001c0: 3e37 293b 2993 62bd 5edc f3bc abac cbbc
000001d0: a369 2a3d e914 33bd 3327 53bd c254 1a3c
000001e0: 7269 e03c 9c72 21bd dc49 193d 354b 53bd
000001f0: ef65 11bd 73ed a23c c302 93bc 5b2a fa3c
00000200: aff4 41bd e823 94bc cf95 a8bd f0c4 053c
00000210: 221a aebd 0f6e 303d 42af 1a3c 045a 2a3c
00000220: 685c 893c e420 013d 0119 03be 51eb a3bd
00000230: 9d41 513c d8ae 5cbc 0b34 f43c 29a7 023c
00000240: a331 06bd fd3d 0d3b 5ece da3c 6189 75bc
00000250: 2b1e 0e3d 485f ecbc 4f0e 8cbc d9bb 233d
00000260: ca6d 99bc 9d30 9a3c e339 4c3c f315 a7bd
00000270: be69 23bd c883 ae3b ad37 82bd 8d37 85bb
00000280: 3222 b0bc cdce 93bd 0075 1b3c c840 113d
00000290: 2a95 28bd 869a 783b 29a0 43bd 0c33 b43c
000002a0: 2d85 453c c618 e53a d733 18bd 9c63 263d
000002b0: 8335 16bd 108d 0fbd 13b2 10bc f294 17bd
000002c0: 07e3 9abd 9a4d 223c c94d c93c e90e e5bc
000002d0: d22c 2ebd 6649 553c 6679 a7bc cf38 26bb
000002e0: 6149 f9bc 8808 f63a 81f3 87bd 8f35 b5bb
000002f0: a758 25bd de7e 8abd c2c1 90bb 9ecb 403d
00000300: 8daf 573b 5f4e 1ebc d554 1fbd 7b8a 9cbd
00000310: 8f36 79bd 3ff5 3bbd f1ea f63b e25a 16bd
00000320: 7553 623d 77b7 443d 85c3 95bb c725 cf3c
00000330: 7c3d 04bd 7357 f33d ab5d 2b3d ee9b ccbc
00000340: b60e f8ba 78a6 cabc c95a b33d b9f1 34bc
00000350: ff76 a3bc c041 8c3c cc97 4b3b 7a5b f43c
00000360: e9f0 5fbd 544b 6d3b 4d23 093e 23de b0bc
00000370: 9553 a13d 9560 2d3d c128 bdbc 0adb f13d
00000380: d72b bc3d c74f 33bd 28f4 35bd 2abe b9bb
00000390: 9593 063e 4294 873c 4bc8 e53d dde0 703d
000003a0: dc3c 033d dd26 233c 838e 92bd b64b 243d
000003b0: 02cd 803d 9b30 75ba b324 c03d 7c52 173e
000003c0: 754f 96bc 44fb 6dbb 485e 3a3b d3df 0bbd
000003d0: 3489 1a3d 571b 13bd a757 bfbc 0923 e5bc
000003e0: 55b7 133d c9bc e5bb 7129 efbb 713c 4c3c
000003f0: 1ef8 db3d 600b bebc f50d cfbb 77df a13d
0.027688682 0.005575162 -0.0057147876 0.0021011338 0.04307202 0.11197931 -0.016528174 -0.061634906
-0.008420072 0.054130916 0.03466641 0.014105846 -0.006393356 0.089556135 -0.025239144 -0.028554972
-0.036116816 0.044108734 0.052182898 -0.036088035 0.03669634 -0.001247269 -0.010806292 0.090084635
0.057158146 -0.038424183 0.031118792 -0.013261734 0.105852194 -0.008437199 0.12026625 0.053714693
0.041142926 0.00088811695 -0.01988697 0.05597138 -0.040456638 -0.031120185 0.12794651 0.06158455
0.045966238 -0.014241533 -0.038682878 -0.030937841 0.09163981 0.053518172 -0.0207136 -0.03302034
0.032731384 -0.0033659511 0.018754039 -0.018628165 0.09769238 -0.016162261 -0.03409196 0.06158276
0.014424518 -0.022661952 0.049198043 -0.04808076 0.111283936 0.03339346 0.024197828 0.032997787
-0.02498007 0.012179344 0.04463286 0.031006776 -0.026449872 0.02130539 -0.026588013 -0.024558617
0.03216034 0.1149315 -0.00037601855 0.05067544 0.052500457 -0.014129359 -0.025067851 0.03410707
0.1557959 0.02752307 0.03763633 0.036893707 -0.0029484227 -0.046746563 0.098936975 0.111290544
0.002371041 0.08370312 -0.014829921 0.0016544353 -0.0023950946 -0.038751405 0.011672977 0.08914477
0.01922577 -0.008679921 0.011316286 -0.004837705 -0.023992717 -0.044335622 -0.0020096845 -0.029366849
0.0003532759 -0.0962917 -0.051082417 0.026627373 0.04460545 -0.032335054 -0.019500848 0.00648798
0.002582028 -0.055316124 -0.029768165 -0.024862608 0.04160465 -0.043721113 -0.051551055 0.009419622
0.02739403 -0.03941594 0.037423953 -0.051585395 -0.035497602 0.019888615 -0.017945653 0.030537775
-0.04735249 -0.018083528 -0.08231699 0.008164629 -0.08501078 0.04307371 0.009441199 0.010397438
0.016767696 0.031525508 -0.12802507 -0.080038674 0.012771991 -0.01346942 0.029809972 0.007974424
-0.03276218 0.002155184 0.026709732 -0.014986367 0.03469674 -0.028854027 -0.017096667 0.039974067
-0.01872911 0.018822009 0.012464973 -0.08158483 -0.039895765 0.005325768 -0.063582756 -0.00406546
-0.02150068 -0.072171785 0.009488344 0.03546217 -0.04115788 0.00379339 -0.047760163 0.021996997
0.012055677 0.0017478697 -0.037158813 0.04062234 -0.036672127 -0.035046637 -0.008831519 -0.03700728
-0.07562833 0.009906197 0.024573224 -0.027961211 -0.042523213 0.013017988 -0.02044363 -0.002536345
-0.030430498 0.0018770853 -0.066382416 -0.0055300663 -0.04036775 -0.06762479 -0.004417629 0.047069184
0.0032911033 -0.00966224 -0.03889926 -0.076436006 -0.060843047 -0.04588818 0.0075353314 -0.036707766
0.055255372 0.04802653 -0.004570427 0.025286568 -0.0322852 0.11881914 0.041837376 -0.024976697
-0.0018925283 -0.024737582 0.0875755 -0.011043959 -0.019954203 0.017121196 0.003106582 0.029828776
-0.05467311 0.003620823 0.13392372 -0.021590298 0.0787727 0.042328436 -0.023090722 0.118093565
0.09188049 -0.043777253 -0.0444223 -0.0056684213 0.13142236 0.016550187 0.112198435 0.058808196
0.032040462 0.009957996 -0.07156088 0.040111266 0.06289102 -0.0009353251 0.09382 0.14777559
-0.018348435 -0.0036313096 0.0028437544 -0.034149002 0.037728503 -0.035914745 -0.023357226 -0.027970808
0.03606351 -0.0070110303 -0.0072986414 0.012465582 0.10740684 -0.023198783 -0.0063188025 0.07903951

fc.1.bias f4 [100]
00000000: 8bd0 4b3c 7be1 b7bc 0d8e 7c3c edb6 8f3c
00000010: 1117 853c 5513 bbbc 8b91 233c 5bc7 9bbc
00000020: 70f1 253c 4620 473b 93f6 a63c 9235 1b3c
00000030: 985f c7bc ee24 90bc e8b5 8abc 35c5 b8bc
00000040: 9a75 a3bc 6cca 473b 5b7b 94b9 c0c1 1c3c
00000050: 684a cdbc f40a 7b3c 6441 9dbc cb86 273c
00000060: 166b afbc ba86 a1bc f4f1 c0bc 0901 923c
00000070: d211 afbc a193 a13c 4fdd 91bc 4e35 b8bc
00000080: 7694 98bc 9b6e aabc 9205 383c eeb8 a3bc
00000090: e96b 083c d7f0 b2bc d2f2 abbc 69b4 97bc
000000a0: 504c b6bc fcec 6aba 90a0 843b 6c01 bcbc
000000b0: f84c a9bc de45 a3bc 49c6 5c3c 6772 f53b
000000c0: 27e9 b33c 37f9 8c3c 275e 82bc c0a1 813c
000000d0: ff51 b1bc d7f0 5c3c e81d a0bc ede1 bbbc
000000e0: fea2 833b 7816 763c a889 adbc 9d8d c4bc
000000f0: c26f 323c 01b1 bc38 8593 b2bc 2081 93bc
00000100: af57 8abc b0f1 653c 5bfc 98bc d701 1f3c
00000110: 1999 7b3b bd4c b7bc d5f1 8dbc f5d2 8c3c
00000120: cac1 913c b607 a4bc e464 fdba e67d 9c3c
00000130: 35c1 f33b fde2 683a 4c05 903c f1de 95bc
00000140: a244 713c d0e7 8a3c e31c 4a3c 4661 443b
00000150: 3ae6 cdbc 8807 8ebc aff5 a6bc 81b7 2f3c
00000160: f3ed adbc ca27 623c 4d6d 283c 4475 2e3b
00000170: 2852 9cbc 15a1 9abc 7a1f c7bc 62fb 3e3c
00000180: e78e 903c 8a71 a9bc 72aa b5bc d416 753a
0.012439857 -0.022446385 0.015414727 0.01754328 0.01624635 -0.022836367 0.009983431 -0.019015959
0.010128364 0.0030384227 0.020381248 0.009473221 -0.024337575 -0.017595734 -0.016932443 -0.022554973
-0.019953538 0.0030485643 -0.00028320667 0.009567678 -0.025059894 0.015322436 -0.01919622 0.010225008
-0.021413367 -0.019717563 -0.023552872 0.01782276 -0.021370802 0.019723715 -0.017805723 -0.022486355
-0.01862548 -0.020804694 0.011231797 -0.019985642 0.008326509 -0.021843357 -0.02098981 -0.018518643
-0.022253186 -0.0008961705 0.004047461 -0.022949897 -0.020666584 -0.019930776 0.013475009 0.0074904445
0.021961762 0.017208679 -0.015914036 0.015824199 -0.021645544 0.013485155 -0.01954551 -0.022934878
0.004017233 0.015020005 -0.021183804 -0.023993308 0.010890903 8.997508e-05 -0.021798858 -0.018005908
-0.016887514 0.014034674 -0.01867502 0.0097050285 0.0038390814 -0.022375459 -0.017327229 0.017190436
0.017792601 -0.020023208 -0.0019332436 0.019103002 0.0074388036 0.00088839215 0.01758065 -0.018294783
0.014725836 0.01695624 0.012335989 0.0029965206 -0.025134195 -0.017337576 -0.020380823 0.010724903
-0.021231627 0.013803432 0.010279966 0.0026620189 -0.019082144 -0.018875638 -0.024307001 0.011656614
0.017646266 -0.020684022 -0.022176001 0.000934941

fc.2.weight f4 [100, 100]
00000000: 196f aa3d 2636 3b3c e63c 773d 5f92 923c
00000010: 1db6 d33d afa1 c2bb 08fa a33d 40b8 8dbc
00000020: 7a5e 4b3b 5116 653d b625 b4bb 0053 a73c
00000030: 6c7a 93bc eb19 99bc 92ae a73b 69c5 1a3d
00000040: e553 88ba 3892 983d 51e2 d43d 261f 663d
00000050: 4589 c6bd 037a 053d b78c 803c 3c83 323d
00000060: f7dd 4bbc f915 bbbc a99f 1dbd 732c c93c
00000070: 824b 88bb 19f9 503c a24f 4fbc ee0b babc
00000080: e49a 9ebc b555 4dbb 1ca9 3a3d b96a d43c
00000090: 8806 493d 753d bd38 3153 16bb 01b0 4cbd
000000a0: ec6f 94bd 2f91 143e eb66 a13d 2e14 69bc
000000b0: a055 10bd 1efa 84bc 7cb5 683d 07c0 8d3d
000000c0: da92 c3bc fa93 bc3c 7f13 87bc 633f 803d
000000d0: 98c4 df3a b28e d23c 5de7 523c 6a56 33bc
000000e0: b1d3 543d 2b08 463d f41f a6bb 2a7d 3dbd
000000f0: 8ac8 903d b6e1 c33c 0246 3f3d 10a3 043b
00000100: 53a4 80bc 6c9e cd3b 3b54 07bd 377d 773d
00000110: 18b2 8a3d 423d a5bc 8fba 1a3d 0402 a43d
00000120: bd3b adbc 8d22 aabc 096c 053d efff 57bd
00000130: 78e3 8f3d ebb8 6c3d c695 463c 1f50 a5bc
00000140: 2a72 ee3d 07e9 303d fca6 4d3d eb25 093d
00000150: dea3 80bc 51be b93c 41ed 0bbd 1858 463d
00000160: 3461 0c3c 80db 913d 8019 9c3d 9255 973d
00000170: ce27 c4bb 9666 873c fd23 1abd a239 223a
00000180: 1047 0b3c f544 c4bc 2089 57bc fb49 043d
00000190: e76b a8bd 6bae a33c d760 cabd fe47 2a3c
000001a0: 6c32 93bd 142e 0bbd 5192 cabc da19 ccbb
000001b0: 78e0 dfbc 013e 8bbd 1e9d 19bc 15f4 49bd
000001c0: 82ff 213d b777 b33b d5ca 2dbd 4b04 91bc
000001d0: 6319 c43c 2081 58bd 89e4 a3bd 1808 d3bc
000001e0: a914 263c 70e6 4dbd 90a1 fc3a dcc9 47bd
000001f0: 957e 73bb fe5d 49bd 136b ddbc b2ea 6bbd
00000200: 552c 08bd 4246 993c 8c38 35bc 667b 0ebc
00000210: 10d1 e7bb a662 85bc 5f7f edbc b138 23bc
00000220: 089f 5b3c 4633 4e3b 91d0 eebc f938 f83c
00000230: b940 87bc 7956 a7bd 12e0 9cbd 33e3 d63b
00000240: a982 173c af8b be3c b418 9fbc 1275 a0bd
00000250: 0371 9d3c dbbc 27bd 8c2a 203b db35 4ebc
00000260: 0170 b23c f1c9 61bd b3e1 91bc 9a4a 233c
00000270: da44 74bd 593e 08bd d4c2 013d eaf5 25bc
00000280: 91b2 c7bd 11ee c4bd ebc2 d3ba f9b9 7a3b
00000290: 3330 643d 2e72 63bd e5bb 56bc 1ce2 08bd
000002a0: c973 8fbd 4084 e63c 2160 74bc 5ca0 b6bd
000002b0: 1c2b 45bd a902 cf3c 64e8 94bd 12e0 77bc
000002c0: 8a9c 5bbd 363c 4fbd 6f8d 88bd 8826 31bc
000002d0: d497 66bd 94f6 a9bd 1bf5 81bd 4672 cbbc
000002e0: 8a15 f83c 184e 303d 1f05 7a3c 34ed 81bd
000002f0: 95ec 36bb e806 863b b075 ebbc b056 afbd
00000300: 6ba7 a93c 6226 e1bc c83a 953c fe98 3ebb
00000310: eee0 1dbc afc1 0bbd 529b 10bd 88f0 d6bd
00000320: d581 7ebd 23bd b03b d6f3 8bbd df87 a93b
00000330: 69e5 98bd 41a4 e33c adc4 dbbc 2b14 f53c
00000340: 51d3 96bb 5a57 04bd 21fd e4bc 8a53 5dbd
00000350: a22c 343c fa41 8f3c e5a2 88bc 9e2b 84bc
00000360: 9cce 8eba 716b ecbc e236 5abd e617 4cbd
00000370: 1645 bb3c bab9 8bbd d829 27bc b601 13bd
00000380: b606 fb3c ab18 8cbc d114 6dbb 8802 42bd
00000390: dc1e 18bc e903 e3bb f36d b63c 5e1e 17bc
000003a0: 0e74 b9bc 65d6 abbc d7f2 8bbc d60a 50bb
000003b0: be65 4ebd 31f3 fabc 9754 6abc b60a a3bc
000003c0: 50ff 003d d3f8 9bbd 287f 93bd 39f1 a13c
000003d0: 0083 81bc da45 39bd c68b 95bd eea3 44bd
000003e0: 590d 27bc 380a b1bc 3bd8 dbbc d497 0abc
000003f0: 2000 b33c e521 53bd 0fbd 11bb 85ba 5b3c
0.083219714 0.011426484 0.06036081 0.01789206 0.1033747 -0.0059396843 0.08006674 -0.017299771
0.0031031654 0.055929486 -0.0054976596 0.02042532 -0.018002711 -0.018689116 0.005117246 0.03778592
-0.0010400979 0.07449764 0.10394729 0.05618205 -0.09694151 0.032587063 0.015692098 0.043582186
-0.012443057 -0.022837626 -0.038482342 0.024557328 -0.004159392 0.012754702 -0.012653263 -0.022710767
-0.019360967 -0.0031331603 0.04557143 0.025929796 0.049078494 9.0236696e-05 -0.002293777 -0.049972538
-0.0724791 0.14508508 0.07880958 -0.014226003 -0.03523791 -0.016232546 0.056813702 0.06921392
-0.023873735 0.02301978 -0.016488789 0.0626209 0.0017072139 0.025702808 0.012872544 -0.010945896
0.051959697 0.048347633 -0.005069727 -0.046261944 0.070695 0.023911338 0.046697624 0.0020238794
-0.015703356 0.006274989 -0.033039313 0.06042215 0.0677225 -0.020170812 0.037775572 0.08008197
-0.02114665 -0.020768428 0.032573733 -0.05273431 0.07025808 0.05779354 0.01212067 -0.020179806
0.11642869 0.043190982 0.050208077 0.033483427 -0.015703138 0.022673758 -0.03416181 0.048423856
0.008568097 0.071219444 0.07622051 0.07389368 -0.0059861904 0.016528409 -0.037631977 0.00061883975
0.008500829 -0.023958663 -0.013155252 0.032297116 -0.08223706 0.01998063 -0.09881752 0.010393141
-0.071873516 -0.03397949 -0.024727972 -0.0062286677 -0.027328715 -0.06798936 -0.009375839 -0.04930504
0.039550312 0.0054769176 -0.042429764 -0.017702242 0.023937887 -0.05285752 -0.08002574 -0.025760695
0.010136762 -0.05026859 0.0019274224 -0.048776492 -0.0037154306 -0.049161904 -0.027028596 -0.05759687
-0.033245403 0.01871026 -0.011060845 -0.008696413 -0.0070744827 -0.01628239 -0.0289914 -0.009962247
0.013404615 0.0031463667 -0.029152187 0.030300604 -0.016510354 -0.0817079 -0.076599255 0.006557846
0.00924746 0.023259966 -0.019420959 -0.078348294 0.019218927 -0.04095159 0.0024439422 -0.012586082
0.021781923 -0.055124227 -0.017807817 0.009966517 -0.059635974 -0.033262584 0.031679943 -0.010129431
-0.09750856 -0.0961572 -0.0016156113 0.003825782 0.05571003 -0.055528812 -0.013106321 -0.03341876
-0.07004506 0.028139234 -0.014915497 -0.08917305 -0.048136815 0.025269823 -0.072708875 -0.015129106
-0.053616084 -0.05059453 -0.06667601 -0.010812409 -0.05629714 -0.08298984 -0.06345578 -0.024834763
0.030283708 0.043043226 0.01526001 -0.06344071 -0.002791201 0.0040901788 -0.028742641 -0.08561456
0.020709714 -0.027484123 0.018216506 -0.002908289 -0.009636147 -0.034120258 -0.035304375 -0.104950964
-0.062135536 0.0053936406 -0.068336174 0.005173668 -0.074656315 0.027788283 -0.02682718 0.029916843
-0.0046028276 -0.032309867 -0.027952733 -0.054034747 0.010996969 0.017487515 -0.016679237 -0.01613408
-0.0010895315 -0.028859826 -0.053274997 -0.04982748 0.022860091 -0.06822534 -0.010202847 -0.035890304
0.030642848 -0.017101606 -0.0036175738 -0.047365695 -0.009284701 -0.0069279564 0.022269225 -0.009223549
-0.022638347 -0.020976255 -0.017083568 -0.003174474 -0.050389998 -0.03063354 -0.014302394 -0.019902568
0.031493485 -0.07615819 -0.072019875 0.019768344 -0.015809536 -0.04523263 -0.0730205 -0.048007898
-0.010196053 -0.021611318 -0.026836505 -0.00845905 0.021850646 -0.051545996 -0.0022237932 0.013411169

fc.2.bias f4 [100]
00000000: 62ea 5f3c dc24 8ebc a144 80bc acdc 843c
00000010: 2c67 86bc cbbe 9a3c 5a36 613c 7ff9 5e3c
00000020: a82a 6abc 1307 64bc af04 863c 15ce 80bc
00000030: 3a2a 793c 7706 743c 7c99 853c a910 7f3c
00000040: 8302 4ebc f94b 51bc 2258 85bc f398 843c
00000050: 50d4 6cbc dca4 60bc eb11 873c f28c 563c
00000060: 8d98 72bc 2d7f 893c c25d 813c a65d 913c
00000070: 0033 70bc 8b4c 6bbc df07 8e3c 3a9e 8abc
00000080: d85d 6cbc 9625 60bc c56f 6d3c 796d 713c
00000090: 48ea 823c 233d 923c 755c 79bc eac8 653c
000000a0: 82a0 7ebc b4ee 58bc 558b 5c3c 422b 89bc
000000b0: 3f95 84bc a36e 813c 0939 5c3c 1681 513c
000000c0: fb6a 42bc cf0c 91bc a8c4 863c 8484 603c
000000d0: 65f3 4cbc 77cb 68bc a97d 613c f521 6c3c
000000e0: 0d77 7bbc c8e6 643c 72ab 58bc f557 8a3c
000000f0: f5b7 3e3c 042e 763c 6c75 833c d92b 833c
00000100: 9896 6fbc bf5e 803c f581 623c 4efc 60bc
00000110: 8def 49bc dd07 8cbc 8b92 7dbc 55d6 613c
00000120: 2ce4 663c f282 59bc 3963 52bc 5404 72bc
00000130: 5e90 803c cd3f 6f3c e2e5 733c f153 43bc
00000140: 2e29 613c 7750 683c 8b69 763c b8f9 88bc
00000150: 4af3 41bc ff16 8a3c 26f9 3cbc 7d73 5ebc
00000160: 3995 79bc e12e 71bc 05b0 853c 19f8 6bbc
00000170: 0e08 953c 799c 5ebc 8a47 543c 8c4c 883c
00000180: d326 883c 33c3 80bc 59c4 8dbc 98b2 81bc
0.013666721 -0.01735156 -0.015657725 0.016218506 -0.016406618 0.018889805 0.013745869 0.013609289
-0.014292397 -0.013917702 0.016359655 -0.015723268 0.0152078215 0.014894119 0.016308539 0.015567937
-0.012573841 -0.012774461 -0.016277377 0.016186213 -0.014454916 -0.013711181 0.016488036 0.013095127
-0.014806879 0.016784275 0.015791778 0.01774485 -0.014660597 -0.014361511 0.017337738 -0.016921151
-0.014426671 -0.013680836 0.01449198 0.014735573 0.015980855 0.017851418 -0.015219797 0.014024952
-0.015541198 -0.013240505 0.013460954 -0.01674426 -0.016184447 0.015799826 0.013441333 0.012787124
-0.011866326 -0.017706303 0.016451195 0.013703469 -0.012509202 -0.014208666 0.01376287 0.014412393
-0.015348208 0.013971038 -0.0132244695 0.016887644 0.011640538 0.015025619 0.016047202 0.01601212
-0.014623307 0.015670178 0.0138249295 -0.013732029 -0.01232518 -0.017093593 -0.015476833 0.013784011
0.014092486 -0.013275849 -0.012841039 -0.01477154 0.01569384 0.014602614 0.014886351 -0.011921869
0.013742728 0.014179341 0.015039812 -0.016720638 -0.01183779 0.016856669 -0.011534011 -0.013577339
-0.015233331 -0.014720649 0.016319284 -0.014402413 0.018192317 -0.013587111 0.012956509 0.016638063
0.016620075 -0.015718078 -0.01730554 -0.01583223

fc.3.weight f4 [100, 100]
00000000: a942 cebc 7f83 903d 3389 693d 2dcc 4cbd
00000010: 29c8 893d 72a5 34bd 38d7 6abd 74aa 1dbd
00000020: a8e3 6c3d e408 5d3d 7549 bdbd 1099 173d
00000030: f76f febc 5810 52bd 6ad4 97bd 3875 90bd
00000040: da71 713d 9923 2a3d 08c8 553d cdf6 4dbd
00000050: ca4a 533d 5f2b 613d 1e3a 87bd 7008 8ebd
00000060: 2f54 9a3d 15ae 66bd fcc8 a2bd 49bf 2dbd
00000070: 1b1f 313d bc4e 8b3d edcd d1bd 883c 553c
00000080: d474 5d3c 8e98 413d 36f1 c0bd b01e d4bc
00000090: a16e f6bc c610 66bd ffc7 b33d 245c babc
000000a0: db44 5a3d 5351 313d d196 1fbd 9ac2 843c
000000b0: 08ee 953d d461 16bc f0ee 97bd a528 58bd
000000c0: 883e 753d de4d 42bc c806 5cbd 59d3 69bd
000000d0: 2787 383d 2aed 8d3d 1c30 5ebd e245 36bd
000000e0: 717c ef3c 88eb 00bd 0a5a bc3c 65c8 17bd
000000f0: 850f 87bd ba5a 643a 4dc9 d7bc d2c4 16bd
00000100: cc76 8b3d 1690 94bd eea1 a3bd 9a72 2f3d
00000110: 2c3e 253d 1378 893d 41a9 323d 4d6b e4bc
00000120: 6b2b 72bd b7a5 23bb e590 0a3d 155d 703d
00000130: 63fb 8bbd e276 05bd 449d 52bc a330 c13c
00000140: fc9d 14bd cbbf 63bd 5c39 40bd f87d 3a3d
00000150: 5a2d 483d 46fb aabd b24f 8f3c 18fb 553c
00000160: 6383 893d 2c7d 093d d96b 00bd 24dc 083d
00000170: 80a4 aebd 3d1a 453d 08fb 56bd 76d0 82bd
00000180: e9dd 23bd 9fe8 8e3d 959a 683d 1b1d 703d
00000190: 851d 66bd 0a18 8c3d d19a e93c b7e4 c7bc
000001a0: df07 393d a496 17bd 5e21 b0bd 4f40 30bd
000001b0: 236f 4d3d 595b 703d 76ca 30bd 1483 4a3d
000001c0: 4d6d 44bd 86e9 1abd 8659 a9bd b430 a4bd
000001d0: 9231 323d 1afd 983b 21d3 1e3d 6514 45bd
000001e0: 73a5 203d 08ef 133d af3c 89bd b618 4fbd
000001f0: 2cc7 9b3d a711 1fbd ca41 4abd 8c3f 5ebd
00000200: 36dd 073d 2d1f 753d 0bf0 04bd fbab 403d
00000210: 9d1d d93c 5bf3 553d 6a4a 9abd d1aa 5fbd
00000220: 7e72 2cbd cb19 b9bd 593c 3c3d bfa2 4ebd
00000230: 7fb3 143d adeb 143d 905e 4bbd bd2e 0c3d
00000240: ebab 8b3d 335b 12bd 2a40 6dbd 86c8 44bd
00000250: 13d3 303c 3018 d03c 9d8e edbc 8af6 a7bd
00000260: 4086 103d 45ff 453d efe3 5ebd 48bc 473b
00000270: 2758 273d c4c4 33bd 0e1c 433d 6e0f a1bd
00000280: 3178 a4bd 4d5b 4abd 9f89 97bd a10e eabc
00000290: dd5d 893d 9530 64bd 3ef6 4fbd b852 e73c
000002a0: 5958 d03c 0e6b 843d 0577 df3c 931e 5dbd
000002b0: d939 5abd f705 c53b 8232 d73c ab4f 783d
000002c0: bcfa 76bd b339 44bc 7c74 b6bc 6e88 0d3c
000002d0: a230 40bd cd91 99bd 0eb2 91bd 77f6 533d
000002e0: 718c 8a3d 22ae abbd bf71 663d 7d21 463d
000002f0: bee2 3a3d 746a 073d 6fcb 97bd dc83 8b3d
00000300: bf13 c6bd 8a82 fe3c 0496 d3bc 5a9d c6bd
00000310: f63d 4cbd 1ca9 643d d767 983d f207 643d
00000320: 590a 55bd b880 4a3d 1da7 5e3d 4f21 80bd
00000330: 1269 373d 00aa a4bd c1ea 33bd 3c4f 7abd
00000340: da29 a63d d0f2 843d 7238 bdbd bb93 253d
00000350: ae11 a8bd 79ad 93ba a243 03bd 16f3 82bd
00000360: e2ef ab3c 7519 3e3d 1a19 463d 7723 9cbb
00000370: 5bf1 6f3d abfe 453d 250b 90bd 738c 35bd
00000380: b872 8e3d 20f7 06bd 052d b9bd 80cd 3fbd
00000390: 9862 1a3d 703b c93c 9b1b eabd abe6 223d
000003a0: 5c6f 1bb9 44e5 393d 24a3 a9bd 8f66 25bd
000003b0: b507 88bd d80f a5bd 6cb5 833d 223e 41bd
000003c0: 9399 853d c6b9 613d 1fdf 95bd d4de c1ba
000003d0: c455 0d3d 71e3 00bd e5e5 c0bc 4203 4abd
000003e0: 9739 6f3d 4f19 463d 8fdf 93bd c560 69bd
000003f0: 92f8 133d ca84 563d 48a2 5abd b5cd 8dbd
-0.02517827 0.07056331 0.05701561 -0.049999405 0.06727631 -0.044103093 -0.057334155 -0.038492635
0.057834297 0.053963557 -0.092425264 0.037011206 -0.031059248 -0.051285118 -0.07413562 -0.07053608
0.058946468 0.041537855 0.052192718 -0.050284196 0.051584996 0.054973003 -0.06602882 -0.06935203
0.07535588 -0.05631836 -0.07948491 -0.042418752 0.043242555 0.06802127 -0.10244355 0.01301492
0.0135166235 0.047264628 -0.09421007 -0.02589354 -0.030082049 -0.05616834 0.087783806 -0.022749014
0.053288322 0.043290447 -0.03896219 0.016206075 0.073207915 -0.0091785975 -0.074186206 -0.052773137
0.059874088 -0.011859385 -0.053717405 -0.057086322 0.045050766 0.06930001 -0.0542451 -0.04450024
0.029234143 -0.03147462 0.022992153 -0.037056345 -0.06594757 0.0008711029 -0.026341105 -0.036808796
0.06809768 -0.07254045 -0.0798987 0.042833902 0.040342495 0.067123555 0.043618444 -0.027883196
-0.059123438 -0.00249706 0.03382959 0.05868252 -0.068350576 -0.03258408 -0.012854878 0.023582762
-0.03628348 -0.05560283 -0.046929702 0.04553029 0.048871376 -0.08348708 0.017494056 0.013060354
0.06714513 0.03356664 -0.03135285 0.033413067 -0.0852747 0.048120726 -0.052485496 -0.06387417
-0.040006552 0.06977963 0.056788046 0.058621507 -0.056180496 0.068405226 0.028516205 -0.024401052
0.045173522 -0.037008896 -0.08600114 -0.04303008 0.050154816 0.058680866 -0.04316183 0.049441412
-0.0479558 -0.03782036 -0.08269028 -0.08017102 0.043504305 0.004668844 0.038775567 -0.048115153
0.039220285 0.03611663 -0.067010276 -0.050560676 0.076063484 -0.038835194 -0.049379148 -0.05425982
0.033169948 0.059844185 -0.032455485 0.047039013 0.026503379 0.052234035 -0.075337246 -0.054606263
-0.042101376 -0.09038123 0.04595599 -0.050448176 0.036303993 0.03635757 -0.04965073 0.03422426
0.068199 -0.035731506 -0.05792252 -0.048042797 0.0107925115 0.025402158 -0.028998667 -0.082013205
0.03528428 0.048339147 -0.054416593 0.0030477215 0.040855553 -0.043888822 0.047634177 -0.07864271
-0.08030737 -0.049403477 -0.07399296 -0.028571429 0.06707356 -0.055710394 -0.050771944 0.028237686
0.025432752 0.064657316 0.027278433 -0.053984236 -0.053277824 0.006012674 0.026269201 0.060622852
-0.060297713 -0.011976647 -0.022272341 0.008638484 -0.04692138 -0.074985124 -0.07114039 0.05174872
0.06765068 -0.083828226 0.05626082 0.04837178 0.045626394 0.033060506 -0.07411849 0.068122596
-0.09671735 0.031068105 -0.025828369 -0.09697981 -0.049863778 0.055825338 0.07441681 0.05567164
-0.05201182 0.049439162 0.05435859 -0.06256353 0.044777937 -0.080402374 -0.04392505 -0.06111072
0.08113451 0.06491625 -0.09239282 0.04042409 -0.08206497 -0.0011266909 -0.03204692 -0.06394021
0.020988408 0.046410996 0.048363782 -0.00476497 0.058579784 0.048338573 -0.07033376 -0.044323396
0.069554746 -0.03295052 -0.0904179 -0.04682684 0.037691683 0.024564475 -0.114310466 0.039770763
-0.00014823437 0.04538466 -0.0828307 -0.04038101 -0.06642095 -0.080596626 0.06431088 -0.047178395
0.065234326 0.055108808 -0.073179476 -0.0014791139 0.03450562 -0.031466905 -0.023547122 -0.049319513
0.05840453 0.04836398 -0.07220375 -0.056977052 0.036125727 0.05237273 -0.05337742 -0.06924001

fc.3.bias f4 [100]
00000000: 9d6d d3bb ada2 12bc 25c7 c5bb 817b 2a3c
00000010: 0e3d 1e3c 63f4 283c 09fe 233c 44ff c5bb
00000020: 4ced 253c b662 03bc 02a5 323c c0ce 173c
00000030: e2b1 0abc ce38 debb 05e0 2b3c ffd3 d1bb
00000040: 1972 04bc 4148 2c3c c76b 00bc 35a3 b0bb
00000050: 3bff c2bb 987d 323c 509c cebb afbf 173c
00000060: a367 07bc 405a 95bb ed82 3c3c d8cf babb
00000070: 62aa 03bc df84 353c fadf 153c 4e3b 2d3c
00000080: ea3a 1f3c e80b ebbb 3e5c d6bb 7450 3b3c
00000090: 78cd b1bb adbc 173c 77c6 233c e0d0 1e3c
000000a0: 7c7f 0cbc 27e8 1d3c 223a d9bb 586a 353c
000000b0: c5e5 fabb 1d28 ecbb 747e f4bb 2394 3c3c
000000c0: a38e c8bb 4242 3b3c 4518 2e3c 3e4e f1bb
000000d0: c227 153c 7fb3 f0bb dfb9 1e3c 8a29 263c
000000e0: 8859 4b3c be8d 223c 4e24 1d3c 8ebc 9ebb
000000f0: 6f78 293c 964b 243c a7a2 10bc 387c 2f3c
00000100: 7b63 243c 31c6 373c 92a5 0cbc 3707 223c
00000110: 5734 d0bb b230 303c 3de8 ebbb 7712 edbb
00000120: 49d3 d4bb 475c d6bb 3412 ecbb 3cb9 1e3c
00000130: 2fac c0bb a6e7 a7bb 2560 a3bb c0ad 363c
00000140: 2efc 03bc b6e0 323c f7ef 9fbb d1c8 253c
00000150: 7daf bbbb 0fd9 cdbb ad37 c9bb 1569 393c
00000160: 2098 96bb 37e4 f1bb 5218 d0bb 4424 aabb
00000170: fe4b fbbb 804b 3b3c 6f34 323c 0ab8 c5bb
00000180: d980 22bc f721 fabb 5df8 353c b7ea febb
-0.006452276 -0.008949918 -0.006035703 0.010405422 0.009658111 0.010312173 0.010009297 -0.006042393
0.010127377 -0.00801914 0.010903599 0.009265602 -0.008465262 -0.006781674 0.010490422 -0.0064034457
-0.008083844 0.010515274 -0.007838196 -0.0053905495 -0.005950836 0.010894202 -0.006305255 0.0092620095
-0.008264455 -0.004557878 0.0115058245 -0.0057010464 -0.008036228 0.011079042 0.009147638 0.010573221
0.009718636 -0.00717305 -0.006541758 0.011432756 -0.005426105 0.009261292 0.009996048 0.009693354
-0.0085753165 0.009637869 -0.0066292444 0.011072718 -0.007656785 -0.0072069303 -0.0074613634 0.011509928
-0.0061205192 0.011429371 0.0106259035 -0.0073640635 0.009103717 -0.0073456164 0.00968787 0.01014174
0.012411483 0.009921489 0.009591175 -0.004844255 0.010343655 0.010027787 -0.008827842 0.010710768
0.010033484 0.011216686 -0.008584397 0.009889415 -0.0063538956 0.010753797 -0.007199316 -0.007234867
-0.0064949137 -0.006541762 -0.0072043184 0.009687718 -0.005879901 -0.00512405 -0.0049858266 0.011149824
-0.00805573 0.010917833 -0.004880901 0.010118679 -0.005727707 -0.006281979 -0.0061406703 0.011316557
-0.0045957714 -0.0073819417 -0.0063505555 -0.0051923115 -0.007668971 0.011431575 0.010876759 -0.006033902
-0.009918415 -0.0076334435 0.011106578 -0.007779445

fc.4.weight f4 [100, 100]
00000000: 96ec 68bd e9ab 6cbd e9e9 25bd 430e 2c3d
00000010: 5401 a43d 5726 e13d 0274 843d daf4 b6bd
00000020: b378 c13d 1468 9bbd 3df5 743d 91ae 8a3d
00000030: f078 99bd e07e 2bbd 18e9 9f3d 7cc5 f0bd
00000040: 6bc9 ddbd faff ad3d 76b1 1fbd 64fa 28bd
00000050: c8f9 b2bd 1237 d33d 35c8 6bbd 3a39 e43c
00000060: 8cc1 b6bd 294e 33bd 504f 993d c591 65bd
00000070: 2cce 62bd 379c 8d3d a6db 5e3d eb4e 243d
00000080: da57 1d3d 2f5b 81bd 2e96 7fbd 7a9d b13d
00000090: 9905 38bd 67c6 553d 42fc 443d e903 b63c
000000a0: 35b0 83bd 405c 783d 54e5 95bd bc49 fb3b
000000b0: be60 3bbd 4eaa 91bd 3637 67bd cd73 183d
000000c0: f3b2 abbd 3253 033d 82f1 263d 77cf 98bc
000000d0: 965e 163d 2120 5bbd 13a8 8d3d 0879 4b3d
000000e0: 2756 553d ba2b 803d 7aea 823d a2ec 78bd
000000f0: b488 ac3d 7766 613d c196 a9bd 6603 c73d
00000100: cdd0 523c 5973 ab3d 3e2a 7fbd 8063 5c3d
00000110: 2522 94bd 8b74 723d 50d9 cdbc e932 5ebd
00000120: e859 87bd 22a1 b7bd 73ae 8fbd cd97 c23d
00000130: 5c89 87bd 1a77 77bd 46a1 75bd 5f7d c73d
00000140: 46e1 f9bc 67df 5a3d 46d9 82bd 3e1e 8f3d
00000150: 6014 8cbd 6e38 4fbd 2e47 a4bd 3593 583d
00000160: fbe1 8bbd b952 b7bd ddb1 6ebd df33 7fbd
00000170: c691 18bd 85dd 4a3d 4bbd a03d 8937 8bbc
00000180: d47d dbbd ef1b 72bd 2161 5f3d f041 c9bd
00000190: 0e36 02bd 927b 53bd 609c 83bd e659 743d
000001a0: faf1 833d 304c d53d e430 a33d 9826 e9bc
000001b0: 302a ad3d 0914 6dbd a8c5 a03d 02da 9e3d
000001c0: 3622 58bd 631a 03bd 25f0 b93d d7be b4bd
000001d0: 2368 44bd 4a43 9f3d 4fec 8cbd b037 3fbd
000001e0: 6eaf 42bd 6d10 ab3d e590 45bd f631 8a3d
000001f0: 38e2 80bc be67 98bc 13d4 b13d be6c 19bd
00000200: 9422 0cbd 8d92 883d 5e8b a83d cfc8 443d
00000210: b27b f73b 3b93 41bd 5cd5 8abd 492b 1c3d
00000220: b4d1 93bd 4cd6 b03d 361a 163d 3545 cf3c
00000230: 0912 63bd 5569 023d 4caa b6bd 7d06 9d3d
00000240: 8458 a4bd 7484 19bd ee17 06bd bb9e a43d
00000250: 80e3 6fbc 1e36 953d 4543 893d d608 9cbd
00000260: 46b2 953d f130 a2bd 3bf4 403d 4e7b a73d
00000270: d884 723d 8bb2 1b3d eaab 9b3d 62c9 6cbd
00000280: 66ff 2c3d 60b4 8a3d 4149 9ebd cf96 eb3c
00000290: 2a5b 703d ee0d 933d 7a0e 89bd 5068 763d
000002a0: a935 99bc 37db 083d 6a89 8fbd fda1 75bd
000002b0: 1ac5 a2bd 823b 50bd 33f5 b2bd f8ea ae3d
000002c0: 1020 52bc 6193 90bd 20ef 76bd 3454 c33d
000002d0: 2504 18bd fa6f f83c 57c4 0dbd a9b0 973d
000002e0: ef84 77bd a551 05bd 8469 50bd 2d8b 873d
000002f0: 6dca 35bd 917b 8bbd 7bad 32bd 9dbb 6ebd
00000300: cba2 34bd 96d6 a13d fe7e 6a3d 4fb8 03bd
00000310: 452e 86bd 8644 34bc a2d0 553d 3aee edbc
00000320: 9e5a b43b 0b62 e23c 43ec 8c3d 7c7f dcbc
00000330: 5f8a f3bc 3b9f 8cbc 647a 03bd 30c7 723d
00000340: a711 80bd 2f38 4b3d 973e 66bd 8839 61bd
00000350: eed3 a93c 2c27 343c 97e7 52bd cf58 983c
00000360: 6e9b e23c 8636 12bd a86f f73c 223e a93c
00000370: 0bd4 e73c 1586 0238 3b4b 453d 6741 7abb
00000380: 15da fe3c 13f8 e43c 45fa 38bd 99ca 0c3d
00000390: bdce 353d e360 12bd 3d4e 95bc fc4d 0abd
000003a0: e173 83bd e269 a73c 37a5 8e3d e82f 85bd
000003b0: cc73 983d 62ae 39bd b579 95bd 1aab 3ebd
000003c0: a852 9f3c 6ed3 79bd b55c 503d e7f8 72bd
000003d0: 009d 043d cdbd 9f3c 5077 fa3c e90b 92bc
000003e0: a446 713d 9de4 cabc 59fc e6bc ee8e 683d
000003f0: 9e59 a8bd c919 323c f518 5ebd a1c8 2dbd
-0.05686625 -0.057781134 -0.040506277 0.04200579 0.08008066 0.10993641 0.06467439 -0.089334205
0.0944685 -0.07588211 0.05980419 0.06771577 -0.0749377 -0.041869044 0.07808131 -0.11756417
-0.10829433 0.08496089 -0.0389876 -0.041254416 -0.08739048 0.10313238 -0.05756398 0.027859319
-0.08923635 -0.04377571 0.07485831 -0.05604722 -0.055372402 0.06914561 0.05440869 0.040114325
0.03841386 -0.0631622 -0.062399082 0.086726144 -0.044927213 0.052191164 0.048092134 0.022218661
-0.06430093 0.06063485 -0.073191315 0.007668702 -0.045746557 -0.07112561 -0.056449138 0.03721981
-0.08383741 0.032061763 0.040757664 -0.018653614 0.036711298 -0.053497437 0.06916823 0.04967597
0.052084114 0.0625834 0.06392379 -0.060772546 0.084245116 0.05502936 -0.08280707 0.09717445
0.012867165 0.0837161 -0.062296145 0.053805828 -0.07233075 0.059193175 -0.025128037 -0.05424777
-0.06608945 -0.089662805 -0.070156954 0.0950161 -0.06617996 -0.06041632 -0.059968255 0.097407095
-0.030502927 0.05343571 -0.06389098 0.0698819 -0.06839824 -0.050590925 -0.08021389 0.052874763
-0.06830212 -0.08951325 -0.058275092 -0.062305328 -0.037248395 0.049527664 0.07848605 -0.016994255
-0.10717359 -0.05910867 0.05453599 -0.0982703 -0.03178983 -0.051631518 -0.064263105 0.059656046
0.06442638 0.10414922 0.079683095 -0.028460786 0.08455312 -0.057880435 0.078502 0.077564254
-0.052767 -0.032007586 0.09079007 -0.08825462 -0.047950875 0.07776506 -0.0688101 -0.046683967
-0.047530584 0.08352742 -0.048233885 0.067478105 -0.01573287 -0.018604156 0.08683028 -0.03745722
-0.034212664 0.06668577 0.08229707 0.04804307 0.0075525874 -0.04725955 -0.06778976 0.038127217
-0.07217732 0.08634624 0.03664609 0.025301555 -0.05543712 0.031838734 -0.089192 0.07667253
-0.080246955 -0.037479833 -0.032737665 0.08038088 -0.014641643 0.07285713 0.06702284 -0.07618873
0.073093936 -0.07919491 0.047107916 0.081778154 0.05920872 0.03801207 0.076011494 -0.05780924
0.042235754 0.06772685 -0.07728816 0.028758435 0.05868069 0.07180391 -0.06692214 0.060158074
-0.018702345 0.033412185 -0.070086315 -0.059968937 -0.079477504 -0.050838 -0.08738174 0.085409105
-0.012825027 -0.0705936 -0.06028664 0.09537545 -0.037113328 0.030326832 -0.034611072 0.07406742
-0.06042951 -0.032548565 -0.050881878 0.066183425 -0.0443825 -0.06810678 -0.043622475 -0.05828439
-0.044100564 0.07902257 0.057250015 -0.032158192 -0.06551794 -0.011002665 0.05220092 -0.02904426
0.0055039665 0.027634641 0.06881001 -0.026916258 -0.029729066 -0.01716577 -0.032099143 0.05927199
-0.06253367 0.049614128 -0.056212034 -0.054986507 0.020730939 0.010995667 -0.051490393 0.018597035
0.027662005 -0.03569653 0.030204609 0.02065951 0.028299352 3.111929e-05 0.04816745 -0.0038185955
0.031109849 0.027950322 -0.04516055 0.0343729 0.044386614 -0.03573693 -0.018225783 -0.033765778
-0.064185865 0.020436231 0.06965106 -0.06503278 0.074439615 -0.04533232 -0.072986044 -0.046549894
0.019448593 -0.06099265 0.050869662 -0.059319403 0.03237629 0.019499684 0.03057447 -0.017827945
0.05890526 -0.024767214 -0.0281965 0.056776933 -0.08220218 0.0108704055 -0.05422302 -0.042427663

fc.4.bias f4 [100]
00000000: 9203 8c3b 27f4 913b 9bb4 593b a194 403b
00000010: 20da 8c3b 05ec 363b 3ad6 a63b 0f30 163b
00000020: 5592 b53b 498f 5d3b 3cda 613b a3fc 633b
00000030: cb29 853b b5ca 893b 7aad 823b 8c3e 4a3b
00000040: 9bd1 4d3b 6c4d 713b 92f5 913b cc37 913b
00000050: dc65 713b 1b6d 5e3b f338 723b 9110 ae3b
00000060: 2688 7d3b bad2 963b 184b 7c3b 5853 5f3b
00000070: c936 373b 47af 993b 9edf 8e3b 5f39 9b3b
00000080: d867 4a3b c717 793b 09a9 443b c16e 8b3b
00000090: bd5e 793b 2734 563b 239d 8e3b eba5 283b
000000a0: 1ae0 a23b 05ae 323b b5e4 9b3b b698 563b
000000b0: 6243 2e3b a58c 353b de6a 3c3b 6123 883b
000000c0: 24a8 7d3b b6eb 0d3b 5909 8b3b 0206 443b
000000d0: 42ef 463b 96e8 8b3b dbd1 a23b 0f71 853b
000000e0: 3256 703b 00a6 8c3b 4258 893b 87e5 9b3b
000000f0: 2ea9 4b3b 6d99 913b d057 9a3b e136 4a3b
00000100: 50e1 c13b cf78 903b ed6c 683b 5495 4b3b
00000110: 813f 743b d6ae 9c3b 393c 733b 08c8 a73b
00000120: 8b4b 8e3b ab7c 823b 9d4a 4c3b 44f1 3e3b
00000130: a68b 813b e052 573b f577 883b e4b2 c23b
00000140: dfe9 693b 77f6 673b 958e 363b de6b 7b3b
00000150: 642c 853b 8beb 5b3b 2020 623b 7251 7e3b
00000160: f593 7d3b 81d1 983b 69a0 603b d58d 8c3b
00000170: ad77 843b 716d 843b dcb8 963b 4842 503b
00000180: a184 763b 433c 783b b611 8f3b c778 483b
0.0042728866 0.004454154 0.0033219222 0.0029385465 0.0042984635 0.0027911675 0.0050914558 0.0022916829
0.005541126 0.0033807328 0.0034462353 0.0034788034 0.00406382 0.0042050728 0.003987965 0.0030860035
0.0031405452 0.0036819829 0.004454323 0.0044317003 0.0036834395 0.0033939544 0.0036960214 0.0053120335
0.0038685887 0.0046027573 0.0038496908 0.0034076776 0.0027956238 0.004690084 0.0043601533 0.004737064
0.003088465 0.0038008557 0.003000798 0.0042551463 0.0038050853 0.0032684894 0.0043522283 0.002573366
0.0049705626 0.0027264368 0.0047574886 0.0032744831 0.0026590456 0.002770224 0.0028750221 0.004154608
0.0038704956 0.0021655387 0.0042430577 0.0029910807 0.003035501 0.0042696698 0.0049688644 0.0040723155
0.003667247 0.0042922497 0.0041914294 0.0047575864 0.003107618 0.0044433386 0.004710175 0.0030855464
0.005916752 0.0044089328 0.0035465315 0.0031064348 0.0037269297 0.0047815843 0.0037114753 0.005120281
0.0043425015 0.0039821467 0.0031172403 0.0029135505 0.003953415 0.0032855794 0.0041646906 0.0059417356
0.0035692377 0.0035394707 0.0027855982 0.0038363854 0.0040641297 0.0033557143 0.0034504011 0.003880587
0.0038692926 0.0046636467 0.00342753 0.0042893686 0.004042587 0.0040413667 0.0045996737 0.0031777788
0.0037615674 0.0037877716 0.004366125 0.0030589567
