results/Smoothed_InfoNCE_dim6_reg1_alpha0.0.pt (torch, 301691 bytes, 13 tensors)

fc.0.weight f4 [100, 12]
000000 18 8b 90 3d 06 b1 0d bd b7 d1 2c 3d bc 31 9d bd
       0.0705778 -0.03459265 0.042192187 -0.07675502
000010 d1 6c 8d 3d 3f b4 b6 3d c1 8b 7c bd d7 44 64 3c
       0.06905521 0.08921098 -0.061656717 0.013932428
000020 c6 9c 44 bd f8 21 71 3d a4 fb 49 bd 05 a4 8b bd
       -0.048001073 0.058870286 -0.04931225 -0.068183936
000030 62 a5 3f 3b 2b 1a 3c 3c 2e e0 20 bd da 14 b4 3d
       0.0029242863 0.011480848 -0.039276294 0.087930396
000040 52 c9 77 bd a6 76 fe 3d 63 2f f7 3b ed 46 4a bc
       -0.06049473 0.12424974 0.0075434907 -0.012346012
000050 e8 33 37 3d a7 5c ac bd fb 01 7f 3d dc d3 d6 bd
       0.044727236 -0.084161095 0.062257748 -0.10489628
000060 70 22 d5 bc b7 57 5f 3d 16 e6 96 bb 66 49 41 3d
       -0.026017398 0.05452701 -0.004605065 0.04718914
000070 02 dc 0d bc eb db b0 ba b4 b1 f7 3c a7 e2 42 bd
       -0.008658411 -0.0013493275 0.030236103 -0.047579434
000080 01 cf e0 3b 0c 31 f3 bc fe de 23 3c c5 1f a7 3a
       0.0068606143 -0.029686473 0.010001896 0.0012750557
000090 7a a6 b7 3d f5 f5 e1 bd c3 b8 c5 bc 75 68 b6 3d
       0.089673 -0.11033241 -0.024135953 0.08906642
0000a0 c0 69 d0 bd 3d 82 70 bd 9c 1d ab bd d2 f0 9a 3d
       -0.1017642 -0.058717955 -0.08355257 0.07565464
0000b0 d2 10 85 3c 20 3f 9f bd dd fb b6 3d 52 88 7a 3d
       0.016243372 -0.07775712 0.08934758 0.06116516
0000c0 fe 37 c2 3a 33 b9 0c bc f8 2d 76 ba 57 3b e8 bb
       0.0014817712 -0.008589077 -0.0009391005 -0.007087152
0000d0 ed 54 76 3c a6 34 b0 bb 29 f3 bc 39 e4 ed 20 3c
       0.015034896 -0.00537737 0.00036039323 0.009822343
0000e0 cc 9a 56 3b f6 2c ec 3a 97 e6 84 bc c1 88 70 3a
       0.0032746075 0.001801877 -0.016223235 0.00091756514
0000f0 42 5a 6d 3d ec 96 2f 3d 9f 77 52 bd f7 f4 cc bd
       0.057947405 0.04286854 -0.05138361 -0.10007661
000100 89 f5 6e 3d 6e 4b 5d 3d d5 ca 55 bd c0 eb 12 bd
       0.05833963 0.054027013 -0.05219539 -0.03586936
000110 8f 37 59 3d c4 fd d9 3d ba 65 84 bd 69 e8 5d bd
       0.0530315 0.10644105 -0.06464715 -0.05417672
000120 54 98 15 bd bf 23 30 3d 8c 6a 80 3c 5d 1f 82 3a
       -0.036522225 0.04300284 0.015675806 0.000992756
000130 8d 7e c3 bc b8 29 b5 bc 7f 16 f7 3c a8 21 2a bd
       -0.023864055 -0.02211462 0.030162094 -0.041536003
000140 c5 c2 8a bc a1 0b 4c bb f0 e7 ef 3c 0b 53 a3 3c
       -0.016938576 -0.003113486 0.029285401 0.019937059
000150 4f ce 92 bc 4a f0 71 bc c0 b2 48 bd e4 04 09 bd
       -0.017920641 -0.014766762 -0.048998594 -0.03345193
000160 85 bd 2f bd 10 97 db 3d f1 a0 25 bc dc d4 2c bc
       -0.04290535 0.10722172 -0.010109172 -0.0105487965
000170 8c 03 f9 bc a0 8b 92 bc 97 04 1b bd 98 06 b0 3d
       -0.0303972 -0.017888844 -0.037846174 0.08595008
000180 e1 f0 83 3d cb 88 55 bd d0 ad 34 3d 83 96 81 bd
       0.064424284 -0.05213241 0.044111073 -0.06327536
000190 32 ff a8 bd b1 0f b3 bb 56 41 4d 3d c6 2f 2a bd
       -0.082518 -0.005464517 0.050111137 -0.041549467
0001a0 a6 97 19 3d b2 7a 71 bd 25 fe ad bd 60 22 17 bc
       0.03749814 -0.058954902 -0.0849574 -0.009224504
0001b0 32 17 3e bd f6 05 b2 3c ca bc 05 3e 10 05 40 bd
       -0.04640884 0.021731358 0.13060299 -0.046879828
0001c0 5a 95 f5 3c 44 bb 63 3d 31 1d 1e 3d ff 73 15 3a
       0.029978443 0.055598512 0.038602058 0.00057011837
0001d0 16 62 f5 bd 98 5b 45 3d ba ad 33 bd 50 91 50 bd
       -0.11981599 0.048183054 -0.04386685 -0.05091983
0001e0 7e 52 2c bd ee 3b 11 bd dd c6 13 bd 2e 52 8a 3d
       -0.04207086 -0.035457544 -0.036078323 0.06753956
0001f0 00 90 1b 3e cb a1 d7 3c f7 70 54 3d a5 b8 f9 3c
       0.1519165 0.026322266 0.051865544 0.030483553
000200 74 13 39 3d ec 5d 60 bd a5 2d 26 be 89 d4 19 bd
       0.045184568 -0.05477707 -0.1622835 -0.037556205
000210 f3 6a a2 bd 0c 60 05 3c bf b7 11 bd 93 f7 90 3c
       -0.07930555 0.008140575 -0.035575625 0.017696178
000220 b1 c3 42 3d 59 e2 95 bd f5 7b 62 bd e8 85 05 3c
       0.047549907 -0.07318563 -0.055293996 0.0081496015
000230 63 cc 92 bc a5 1b fc 3b 3e 1a fa 3c 11 0e 5f bd
       -0.017919725 0.007693725 0.030530091 -0.054456774
000240 78 f8 39 bd 50 f2 71 3d 14 04 65 3c 66 b4 74 3c
       -0.045402974 0.059068978 0.013978023 0.014935588
000250 03 50 af bc 30 00 a6 bc 4b 94 1e 3d 00 52 55 bd
       -0.021400457 -0.020263761 0.038715642 -0.052080154
000260 30 7d 50 bc 05 c5 47 bc 9b 5c d8 3c 9f 46 86 3c
       -0.0127251595 -0.012192969 0.026411345 0.016391097
000270 97 ce fa 3c 3d 3c 07 be 75 d3 9a 3b ee a6 a5 bd
       0.030616088 -0.13206573 0.0047249147 -0.0808848
000280 cc ce 8c 3d 65 1b 85 bd 29 c4 2c bd ca 8d fd 3d
       0.06875381 -0.06499366 -0.04217926 0.1238056
000290 97 86 bd 3b ea 83 8f 3d 03 a3 9e bd e8 6a 5a 3d
       0.0057838666 0.070075825 -0.07745936 0.05332461
0002a0 a4 fc a9 bc 16 f5 57 bd 66 e1 06 3d 87 2d ef bc
       -0.020750351 -0.052723967 0.0329298 -0.029196514
0002b0 1e ef 69 bb 2c b8 73 bd b7 1e 03 3c 07 ae 39 bd
       -0.0035695503 -0.05950181 0.008002928 -0.04533198
0002c0 1f 19 e9 3c 0c b7 32 bd 8f a5 7c 38 f7 95 1c bd
       0.028454361 -0.0436316 6.023567e-05 -0.038228955
0002d0 22 81 12 3d 62 51 f0 bc 99 be 88 bd 05 24 e4 3d
       0.035767682 -0.029335681 -0.066769786 0.11139683
0002e0 1b 15 97 bc 36 1b 81 3d 1d 89 a9 bc fd 9b c7 3c
       -0.018442681 0.06304018 -0.020695264 0.024366373
0002f0 34 e5 83 3d 06 8a c6 bd 07 ee 58 3c e6 01 74 bd
       0.064402014 -0.09694295 0.013240344 -0.059572123
000300 1b 77 90 3d 5b 1f 93 bd c0 d9 89 3d 78 e6 9c 3d
       0.070539676 -0.07183715 0.06730986 0.07661146
000310 98 8c 63 3d 59 e3 38 bd 77 14 5b 3d 0c ef 36 bd
       0.055554003 -0.04513869 0.053486314 -0.044661567
000320 e6 5f 2d 3d cd 75 36 3d f3 3c fd 3c 68 b0 2a bd
       0.042327784 0.044545937 0.030912852 -0.04167214
000330 b8 04 9f 3d 25 58 d0 3c 81 32 8c 3d b8 95 56 3c
       0.07764572 0.025432656 0.0684557 0.013097219
000340 e8 ca ff bc 2a 67 b6 bd c3 7c b3 bd 1f 7c f2 bc
       -0.031224683 -0.08906396 -0.08764031 -0.029600201
000350 ae 81 4a bd 86 b0 7b bc 1d 20 de 3c 5c e0 b6 3d
       -0.04944008 -0.015361911 0.027114922 0.08929512
000360 0c 0f 07 3d 51 f9 e7 3d 9b c7 36 bd 9a 8f 42 3d
       0.032973334 0.1132685 -0.044623952 0.04750023
000370 9b 18 91 3d 0e 08 17 3d b4 ba d3 bc 18 96 f4 bd
       0.07084771 0.036872916 -0.025845863 -0.119426906
000380 2f a3 36 3d 9a e2 49 bd 98 5c 99 bd 16 78 e6 bc
       0.044589218 -0.04928837 -0.07488364 -0.028133433
000390 ff a8 ea bc 88 64 7e bd 39 44 59 3c f0 64 31 bd
       -0.028645037 -0.062107593 0.013260894 -0.043309152
0003a0 ec 4c 5c bd e6 21 6a bd 5b e3 0d bc 4e 83 66 bd
       -0.053784296 -0.057161234 -0.008660163 -0.056277566
0003b0 b4 02 f3 3b 49 4c 2b bd aa 84 0b bd 08 e9 4a bd
       0.0074160937 -0.041820798 -0.034062065 -0.049538642
0003c0 5e 9c 22 3c 2d 4f 35 3d 49 89 0b bd 02 8d 8d 39
       0.009924976 0.04426496 -0.034066472 0.00026998675
0003d0 06 b4 4c bc 90 27 20 3c be d8 9f bb 97 72 27 bd
       -0.012494093 0.009775057 -0.0048781326 -0.040880766
0003e0 ed cf 12 3d b4 85 39 ba 69 e4 15 3c ba 6c 47 bc
       0.035842825 -0.0007077113 0.0091486955 -0.0121719185
0003f0 f5 8b a0 3d 5a f9 b4 bc 04 a7 4e bd aa 8d a1 bd
       0.07839195 -0.022091556 -0.050452247 -0.078883484

fc.0.bias f4 [100]
000000 e3 8d 38 bb 13 61 5e bc 35 36 33 bb 68 d9 bf bc
       -0.0028160743 -0.013572949 -0.0027345542 -0.023419097
000010 d0 d8 a9 b9 f6 73 96 bc ad ce a8 ba d8 72 2c bd
       -0.0003239573 -0.018365841 -0.0012878977 -0.04210171
000020 43 79 38 bd 84 0a cf bb f4 70 3b bb e7 8e 29 bd
       -0.04503752 -0.006318392 -0.002860126 -0.041396048
000030 f6 a4 03 bb d6 79 51 bc c4 bd cc bc d1 0a 18 bc
       -0.0020087338 -0.012785396 -0.024992831 -0.009279923
000040 62 f2 4d bd 33 b1 21 bc ab 5d 98 bc b0 22 0c bd
       -0.050279982 -0.009868908 -0.018599352 -0.034212768
000050 45 0e d4 ba d4 07 9c bb ef b8 07 bd c6 0f bc bc
       -0.0016178569 -0.0047616754 -0.03313535 -0.02295674
000060 19 ad fb bb 90 9b 3d bd 89 3b d2 bc 27 ca 29 bd
       -0.007680547 -0.046290934 -0.025663154 -0.041452553
000070 95 93 70 bc f7 80 87 ba 2e 4a 8d bc 0f 94 46 bc
       -0.014683624 -0.0010338117 -0.017247286 -0.012120261
000080 13 cd 25 bc 56 06 01 bd f3 58 94 3b da 14 8e bb
       -0.010119694 -0.031500183 0.004527205 -0.004335982
000090 47 ab 86 ba e9 3e 2d bd 68 fe d1 bc 69 ad b0 bc
       -0.0010274433 -0.042296324 -0.025634006 -0.021567063
0000a0 14 50 09 bb 4b 2b dc bc 53 9f 31 bd 4c cc 20 bd
       -0.0020952271 -0.026876112 -0.043364834 -0.039257333
0000b0 b8 11 22 bc ff df fa 3a df f6 35 bd cf e0 25 bd
       -0.00989192 0.0019140242 -0.044424888 -0.040497597
0000c0 3c af 07 bb 47 a3 fd b9 ac 1c 34 bd 30 98 53 bb
       -0.0020703813 -0.00048377572 -0.043972656 -0.0032286756
0000d0 33 07 d3 bb 4c dc e3 ba 19 ca 37 bd c9 92 45 bc
       -0.006440067 -0.0017384379 -0.04487047 -0.012058922
0000e0 3f 8a 4d bc 02 31 10 bb 7a c8 14 bc ef 2b db 3a
       -0.0125451675 -0.0022001867 -0.009081 0.0016721467
0000f0 c0 d0 59 bc 38 e1 c4 bc ef 00 55 ba 73 b4 23 bb
       -0.013294399 -0.024033174 -0.00081254443 -0.0024979382
000100 f5 53 50 bc 37 f1 4a 3a 91 de a6 3a 5a 0e 6b ba
       -0.012715329 0.0007741632 0.0012731125 -0.0008966677
000110 c5 11 02 bd 20 99 93 bb be d2 12 bd 55 a7 39 bd
       -0.031755228 -0.004504338 -0.03584551 -0.045325596
000120 dd 01 b4 3b e1 58 80 bc d6 a6 fa bb 59 7f 7b bc
       0.005493386 -0.01566738 -0.007649283 -0.015350186
000130 80 b1 d0 bc 5d 93 1c bd 7f 97 2e 39 6d e5 b0 bb
       -0.025475264 -0.038226474 0.0001665037 -0.0053984434
000140 2c 2d 97 bc ec c4 26 bd 40 2d da bc ba b6 87 b9
       -0.018454157 -0.040715143 -0.026632905 -0.00025885348
000150 c6 7e 2a 3a 61 0c 3b bd bc 45 7f bc 11 1b 7e bc
       0.0006503876 -0.045666102 -0.015580591 -0.015509383
000160 41 70 ca 39 94 39 a1 bc c3 e7 3e bd 24 10 24 bd
       0.00038612078 -0.019680776 -0.046607744 -0.040054455
000170 38 2e 2d bd 5d f8 c3 bc 0a bc ae bc b9 36 d2 bc
       -0.042280406 -0.02392214 -0.021329898 -0.02566086
000180 74 72 94 bc 11 b7 75 bc b9 fc d6 bb fe bb 4e ba
       -0.018120982 -0.01499726 -0.0065608886 -0.00078862894

fc.1.weight f4 [100, 100]
000000 8f d7 24 3d ca 15 3a 3c 85 75 1d bb 90 dc 61 3d
       0.040244635 0.011357734 -0.0024026346 0.055141985
000010 4f e7 2d 3b 7f 7e e3 3d 36 85 03 bd 26 92 f0 bc
       0.0026535576 0.111081116 -0.03210946 -0.029366564
000020 e0 fb 58 bc dc b0 45 3d 6e eb 67 bc ce 84 88 bb
       -0.013243645 0.04826437 -0.014155252 -0.004166222
000030 2f 03 b7 ba 4a df ec 3d 93 93 5d bd aa f1 c9 bc
       -0.0013962741 0.115660265 -0.054095816 -0.024651367
000040 16 60 1e bd a7 27 6a 3d ac 4d e2 3c 19 df f5 bc
       -0.038665853 0.05716672 0.027624927 -0.030013608
000050 fd b6 3d 3c 34 d1 34 3d 9e c3 7b ba 64 72 80 3d
       0.011579272 0.044144824 -0.00096040394 0.06271818
000060 60 1d 02 3d 35 2a da bc e6 8b 0d bb ad 25 3f bc
       0.031766295 -0.026631454 -0.0021598279 -0.011666697
000070 12 f9 56 3d 5d 16 4e bc 13 b3 03 3e d2 2d 4f 3d
       0.052483626 -0.012578574 0.1286128 0.050580807
000080 fe 26 7d 3d fe e8 82 ba 94 11 62 3c 41 bf 5d 3d
       0.061804764 -0.000998765 0.013798136 0.054137472
000090 29 ff bf bc fe 4f fd bc 19 ab f5 3d 7b 7f 4f 3d
       -0.0234371 -0.030921932 0.11995525 0.050658684
0000a0 1c b5 b6 3d f3 a9 a7 bc 7d 56 3a bd cf d8 9b bc
       0.089212626 -0.02046678 -0.045492638 -0.01902428
0000b0 fe bc dd 3d 4f 4b 09 3d 16 71 03 bd 7f de b8 bc
       0.10827063 0.033519085 -0.03209027 -0.022567032
0000c0 fb f2 ee 3c e3 b8 70 bb b4 b7 9c 3b d5 bf 5a 3c
       0.029168596 -0.0036731295 0.0047826413 0.0133514
0000d0 39 b2 66 3d 1c 16 42 3c 87 be 74 bc c6 bb 1d 3d
       0.05632231 0.011846092 -0.014938003 0.038509153
0000e0 2f f9 3d bc 52 c2 77 bb d6 23 8a 3d ec fa e3 bb
       -0.0115950545 -0.0037805033 0.067451164 -0.0069574025
0000f0 0b 45 a9 3d 0d de ae 3d 24 d2 ab 3c 84 9d 68 3c
       0.08265122 0.085384466 0.020974226 0.014197711
000100 10 b8 a6 3c dc 76 86 3c d6 3d 37 3d b4 e1 cd bb
       0.02035144 0.016414098 0.044736706 -0.0062830094
000110 d7 bf a8 bc 1f df 03 3c ae 0b b0 bc b3 b6 ad bc
       -0.020599289 0.008048802 -0.021489944 -0.021205282
000120 ab e7 99 3c 6b 95 e1 3d 45 9d 59 bb 14 1e a4 3d
       0.018787226 0.11014827 -0.0033205312 0.080135494
000130 10 20 47 3d a5 54 af bc 4a 4a 96 bc 6f 34 49 bc
       0.04861456 -0.021402666 -0.01834597 -0.012280568
000140 46 20 cd 3d 6f b0 6f 3c 62 b4 cc 3c f0 68 18 3d
       0.10015921 0.014629467 0.024988357 0.03720945
000150 3c 0c a1 bb 4a 70 e7 bc df 75 ec 3d 27 47 c8 3d
       -0.0049147885 -0.028251786 0.115459196 0.09779196
000160 fb 27 94 3b a8 cc 9a 3d 98 05 e5 bc 90 50 ca bc
       0.0045213676 0.07558566 -0.027956769 -0.024696618
000170 2f 94 dc bc 4b 25 f8 bc d8 3e 39 3d 2d 47 a2 3d
       -0.026926128 -0.03029122 0.045225948 0.07923732
000180 19 fe 75 3d 99 1f 8c 3b f9 fc 80 3c 51 05 8f bc
       0.06005678 0.0042762277 0.015745627 -0.01745859
000190 5b 54 f2 bc 67 c9 2d bd 0b 88 ae bb 6b 3c 64 bd
       -0.02958124 -0.0424284 -0.005326276 -0.05572168
0001a0 32 c0 80 3b f4 0d b9 bd 65 28 e5 3b a3 1e 5f 3c
       0.0039291615 -0.090358645 0.006993341 0.013618144
0001b0 6d b7 5e 3d 56 c7 34 bd 5c 3f a6 bc 38 cf 86 3c
       0.054374147 -0.044135414 -0.020293884 0.016456231
0001c0 03 e3 58 bc 00 c3 63 bd df 9d 8f bc 9b 25 d8 bc
       -0.013237718 -0.05560589 -0.017531333 -0.02638512
0001d0 e5 34 11 3d e8 e7 67 bd 5f 89 71 bd e1 88 e2 3b
       0.035450835 -0.056617647 -0.058968898 0.00691329
0001e0 c8 e0 d9 3c a7 3c ea bc 05 53 b8 3c 2f 38 82 bd
       0.026596442 -0.028593374 0.022500524 -0.063583724
0001f0 32 a3 e3 bc f9 36 01 3c e1 86 03 3b 85 16 03 3d
       -0.027787779 0.007886642 0.0020069408 0.0320039
000200 c6 d3 38 bd 99 e0 95 bc 74 18 97 bd 78 f8 15 bc
       -0.045123838 -0.018295573 -0.07377711 -0.009153478
000210 97 1e ab bd eb e0 3c 3d ce e7 73 3c af 9f c9 3b
       -0.08355444 0.046112936 0.0148868095 0.006153069
000220 2d f9 05 3c 1b bb 00 3d de 61 00 be cb e4 84 bd
       0.008177084 0.031428438 -0.12537333 -0.06488951
000230 f9 d8 88 3c 22 f7 67 bc c4 5c 00 3d 31 e4 97 bb
       0.016705023 -0.014158042 0.03133847 -0.004635357
000240 ad 4b 0b bd 6a 0c 64 bb 75 cf 10 3d 03 4c 87 bc
       -0.034007717 -0.0034797438 0.035354096 -0.016515737
000250 b6 ee 0b 3d 7b cb dc bc 80 03 08 3b 8c a9 a4 3c
       0.0341632 -0.026952496 0.002075404 0.020100378
000260 20 9d e7 bb 76 f8 2e bc c5 37 90 3b 83 8d a1 bd
       -0.0070682913 -0.010679355 0.0044011795 -0.07888319
000270 5f 67 09 bd 2b b9 00 3b eb 54 7c bd 1f da 18 bc
       -0.033545848 0.0019641619 -0.06160442 -0.009329348
000280 d2 f2 9b bc 5b 4c c0 bd 50 a4 e3 3b 70 b3 03 3d
       -0.019036684 -0.09389564 0.006947078 0.032153547
000290 5b cc 49 bd 00 23 32 3c 2d 7c e1 bc c3 f2 a8 3c
       -0.049267154 0.010872602 -0.027525032 0.02062357
0002a0 8c 02 81 3c 2e 97 9f 3b 7c 48 fe bc 5d 29 e6 3c
       0.015748285 0.004870317 -0.031040423 0.028095895
0002b0 ff 43 97 bc b1 c9 3d bd e5 6b 5c bc e9 67 15 bd
       -0.01846504 -0.046334926 -0.013453458 -0.03647605
0002c0 c3 ce b1 bd e8 08 8a 3c 38 d7 d4 3b a3 54 2b bc
       -0.08682015 0.01684995 0.0064953826 -0.010457191
0002d0 78 44 11 bd 72 eb de 3c 33 a4 9d bc f0 15 84 3b
       -0.035465688 0.027211878 -0.019243335 0.0040309355
0002e0 ed 1f 90 ba f7 22 8e bc 70 12 85 bd b8 15 59 bc
       -0.0010995843 -0.017350657 -0.06497657 -0.013249807
0002f0 7f 90 b0 bc 3b f1 9e bd b7 3e 03 3c 94 e6 8c 3d
       -0.021553276 -0.07760855 0.008010558 0.06879917
000300 34 59 ea 3c fc 02 3b bc 79 86 6b bd 3a 5d 96 bd
       0.028606988 -0.011414286 -0.05750129 -0.07342
000310 07 e5 85 bd ff 5a 79 bd 8f 57 f7 3b 2e 2c 0e bd
       -0.06537824 -0.060877796 0.0075482796 -0.0347101
000320 7e b5 19 3c 76 d6 46 3d 56 d4 3a bc 5a 0f 2f 3d
       0.00938165 0.04854437 -0.011403164 0.04273925
000330 05 e7 c4 bb 09 c7 f2 3d 5d d9 5b bb c5 d4 bb bc
       -0.006008985 0.11854369 -0.0033546307 -0.022928605
000340 a5 8b 5d bc e4 eb 01 bd e0 8e 82 3d a1 5c 53 bc
       -0.013522063 -0.031719103 0.063749075 -0.012900502
000350 d7 80 80 3c 14 e8 b0 bb be 57 08 3c 0e 96 10 3d
       0.015686436 -0.0053987596 0.008321701 0.035299353
000360 c4 82 e5 bc be 8d 4f 3c ad 3f 23 3e 63 48 83 bc
       -0.028016455 0.012668071 0.15942259 -0.016025728
000370 34 bd 92 3d f4 c0 06 3d a7 04 8c bc ae ab 24 3e
       0.07164994 0.03289886 -0.017092062 0.16081116
000380 de e5 8b 3d ab 0d d3 bc 87 c9 99 bc 9d 00 57 bc
       0.06830953 -0.025763353 -0.018772854 -0.013122705
000390 db c1 04 3e 35 b4 21 3d 76 fa cb 3d 63 e1 f3 3d
       0.12964575 0.0394785 0.09959881 0.119082235
0003a0 a8 a0 f4 3b a4 b6 72 ba ca 45 90 bd b1 44 38 3c
       0.007465441 -0.0009258783 -0.07044561 0.011246846
0003b0 06 26 06 3d a1 83 0d bc 81 97 fe 3d 2f c6 14 3e
       0.032751106 -0.00863734 0.12431241 0.14528726
0003c0 44 91 4e bd 76 68 0e 3b f9 55 47 3c b0 ea 10 bc
       -0.050431505 0.0021729744 0.012166494 -0.008845016
0003d0 2d e5 43 3d be 70 93 bd 77 86 08 bd 47 13 00 bd
       0.04782598 -0.07199238 -0.03333136 -0.031268384
0003e0 fb 55 32 3d e2 cc 71 bc 88 f4 3e bd 22 85 3e 3d
       0.04353903 -0.0147583205 -0.046619922 0.046513684
0003f0 af 31 f4 3d 6d 93 36 3c 54 be 69 3b 6b de 41 3d
       0.11923539 0.0111435475 0.0035666423 0.047331255

fc.1.bias f4 [100]
000000 cb 84 01 3d 1d 5e 1c bd 65 e2 b4 3c d0 04 0f 3d
       0.031620782 -0.03817569 0.02208061 0.0349167
000010 57 42 04 3d 69 ab 2a bd 77 8b bc 3c e1 98 0a bd
       0.03228983 -0.041667376 0.02301572 -0.033837203
000020 21 e9 91 3c 0c b6 55 3c 9b 7f 13 3d f9 4c a4 3c
       0.01781136 0.013043892 0.036010366 0.020056235
000030 8a 46 36 bd 04 ea f8 bc b0 77 f5 bc 57 ef 28 bd
       -0.044500865 -0.030385025 -0.029964298 -0.041243877
000040 a0 80 05 bd 2f e3 1b 3c 6f c4 50 3c f6 c3 b5 3c
       -0.03259337 0.009514614 0.012742146 0.022188168
000050 ef 1a 37 bd 3b de d1 3c c2 8b 04 bd 57 8f 5d 3c
       -0.04470342 0.025618663 -0.032359846 0.013522944
000060 ab cd 30 bd 74 52 02 bd 3b b8 25 bd 74 20 17 3d
       -0.04316489 -0.031816915 -0.0404589 0.036896184
000070 b8 94 1f bd 7a 27 15 3d 11 aa 0d bd 7a 1d 2b bd
       -0.03896019 0.0364146 -0.034586016 -0.041776158
000080 b7 50 f9 bc 62 0c 23 bd 8f 85 bf 3c bb 2a 06 bd
       -0.030433996 -0.03980673 0.023379115 -0.032755595
000090 9d 64 82 3c e3 16 22 3d f4 ee 29 bd bd 53 ea bc
       0.015917117 0.039572608 -0.04148765 -0.028604383
0000a0 c5 55 2f bd 30 77 2f 3c 70 96 82 3c ab 47 2a bd
       -0.042806406 0.010709569 0.015940875 -0.041572254
0000b0 a9 e1 f1 bc 7e 14 19 bd 23 d1 f7 3c 34 ce 86 3c
       -0.029526548 -0.03737306 0.030251091 0.016455747
0000c0 e4 7b 24 bd c3 ec 09 3d 41 10 f4 bc 04 5e 15 3d
       -0.040157214 0.03367306 -0.029792907 0.036466613
0000d0 ef 7f d1 3c c6 40 c2 3c 32 6b 03 bd b9 31 32 bd
       0.025573699 0.023712527 -0.03208465 -0.04350445
0000e0 ff fa 5c 3c 6a aa ee 3c 7d de 14 3d 2c 08 39 bd
       0.0134875765 0.029133994 0.036344994 -0.04517381
0000f0 31 2b df 3c 59 13 2f 3c af c4 22 bd 82 ad 03 bd
       0.027242275 0.010685765 -0.039738353 -0.03214789
000100 c5 89 eb bc 9f cc e4 3c b6 90 1f bd 90 34 c4 3c
       -0.028752217 0.027929602 -0.038956366 0.023950845
000110 11 30 81 3c 2e 02 2a bd 38 e6 e1 bc fe db 0e 3d
       0.01576999 -0.041505985 -0.027575597 0.03487777
000120 59 29 08 3d 52 dd 10 bd 9c ad f7 3b de 99 fe 3c
       0.033242557 -0.035367317 0.0075585376 0.031079229
000130 7b 39 d2 3c 61 df 0b 3c 6d 4e 08 3d bd 01 dc bc
       0.025662174 0.008537144 0.033277918 -0.026856298
000140 6a 4a ed 3c 21 0f 14 3d 32 73 ce 3c af e3 16 bd
       0.028966147 0.03614724 0.025201414 -0.03683823
000150 79 92 39 bd a6 cd 94 3c bc 07 1e bd d6 a6 d2 3c
       -0.045305703 0.018164467 -0.038581595 0.02571432
000160 f8 f7 9c 3c 49 f3 c9 3c ca 3c c6 3c ed cb 7f 3c
       0.01916121 0.02465214 0.024198908 0.015612585
000170 5a c6 02 bd 89 b1 06 bd a7 42 41 bd f4 7f bd 3c
       -0.031927444 -0.032884154 -0.047182705 0.023132302
000180 cb 68 b7 3c be 9e 1f bd c4 b2 27 bd b1 f4 98 3c
       0.022388836 -0.038969748 -0.04094197 0.018671365

fc.2.weight f4 [100, 100]
000000 cb 81 ba 3d a8 f8 fd bc 38 22 a2 3d f6 27 54 3d
       0.09106787 -0.031002358 0.07916683 0.051795922
000010 8a 09 dc 3d b8 f3 6f bd e1 7d b4 3d e7 56 f4 bc
       0.10744007 -0.058582038 0.08813072 -0.029826595
000020 86 71 f6 3c 30 f6 4f 3d 42 8e 1c 3d ef df 42 3d
       0.030083429 0.050771892 0.038221605 0.04757684
000030 76 5e 6d bd b4 4e 39 bd 90 29 8e bc cb e8 89 bc
       -0.057951413 -0.045241073 -0.017353803 -0.016834637
000040 c5 14 e0 bc 22 14 e7 3d f4 a5 f5 3d df d0 7b 3d
       -0.027353654 0.11283137 0.11994544 0.061478492
000050 8b 8f 08 be 87 02 84 3d 0c f4 89 bc 4d a9 95 3d
       -0.13336007 0.064457946 -0.016840003 0.07307682
000060 34 18 b0 bd 93 67 77 bd c5 4b b4 bd c6 1b 36 3d
       -0.085983664 -0.06040151 -0.088035144 0.04446008
000070 ad 3f c1 bc 86 a9 bf 3d 16 86 cc bc 24 5e 61 bd
       -0.023589933 0.09358506 -0.02496628 -0.05502142
000080 d9 35 2b bd 93 54 7a bd 8d 74 09 3d 15 31 c2 bc
       -0.0417994 -0.061115813 0.033558417 -0.023705045
000090 1a e0 8b 3d d8 4a 15 3d 64 e8 e8 bd 04 1a 97 bd
       0.06829853 0.03644833 -0.1137245 -0.07378009
0000a0 cb cc 95 bd dc 25 07 3e 15 62 f5 3d fb e0 98 bd
       -0.07314452 0.13198036 0.11981598 -0.074647866
0000b0 bd d6 47 bd 58 43 1c bd 74 9c ae 3d 82 40 d0 3d
       -0.048788775 -0.03815016 0.08525935 0.10168554
0000c0 37 8e 9f bd 67 d1 49 3d 90 14 a4 bc 12 df 9c 3d
       -0.07790797 0.049271967 -0.020029336 0.07659735
0000d0 72 66 f9 3c 0c 33 46 3d 8c 80 a5 bc e7 eb 59 bd
       0.030444358 0.048388526 -0.020202897 -0.05320349
0000e0 8b 97 be 3d 15 77 8f 3d ad 8b 5a 3d ee ad 8e bd
       0.09306248 0.07005135 0.05335586 -0.06966768
0000f0 1c 79 7b 3d 0e 2a a9 3d b6 50 57 bc 97 8b c3 bb
       0.061394796 0.082599744 -0.013141802 -0.005967568
000100 ca d4 f9 bc 87 94 4f 3d 06 2b a5 bd 91 ee aa 3d
       -0.030496974 0.050678756 -0.08064847 0.08346284
000110 1e c1 bd 3d 30 f6 54 bd 36 64 ca 3c 0c d6 ba 3d
       0.0926535 -0.051992595 0.024705987 0.091228575
000120 4b 45 dd b9 5f fc 69 bd a0 db 8b 3d 98 59 1f bc
       -0.00042204032 -0.057125445 0.068289995 -0.009725951
000130 61 c3 8c 3d 85 fb b8 3d 40 51 49 3d a2 5e 25 bd
       0.06873203 0.090323485 0.04914975 -0.040373452
000140 ef fa 06 3e af 2b 4e 3d f3 43 9c 3d 61 ac 46 bd
       0.13181661 0.05033463 0.07630148 -0.048504237
000150 dd 29 03 bd 9c 67 c3 3d bb 11 84 bd 14 63 36 3d
       -0.032022346 0.09541246 -0.06448694 0.044528082
000160 27 9c 62 3d cc de b8 3d d8 c7 ca 3d f8 50 cc 3d
       0.0553247 0.0902687 0.099013984 0.09976381
000170 d3 76 d3 bc 57 df 81 bc 50 d4 7c bd 9f a6 d6 3c
       -0.025813496 -0.015853567 -0.061725914 0.026202498
000180 4b 2e c3 3b e1 37 12 bd f3 b4 9a bd 36 df 19 3d
       0.0059564463 -0.03569782 -0.075540446 0.037566386
000190 46 38 dd bd d3 7a 7c 3d 9b 0f f0 bd d2 df c2 bc
       -0.10801749 0.06164057 -0.117217265 -0.023788366
0001a0 a9 09 bb bd 35 d2 ae 3c 52 e6 4e bd 5b 08 a0 3c
       -0.09132702 0.021340469 -0.05051262 0.019535234
0001b0 5d 5f 51 bd 3b 36 2e bd b5 4f 4c bd 18 39 cb bd
       -0.051116336 -0.042532187 -0.049880702 -0.09922999
0001c0 27 69 a5 3d 21 ec 21 3d 52 be fe ba 19 32 e3 3c
       0.08076697 0.03953183 -0.0019435382 0.02773385
0001d0 ae 2f 8f 3d d8 b6 9d bd ef 59 c2 bd f0 a9 1a bd
       0.06991516 -0.0770089 -0.0948981 -0.03775972
0001e0 0a 1f 8a 3d c8 d6 98 bd aa 32 50 3d ee 37 83 bd
       0.067442015 -0.07462841 0.050829567 -0.06407152
0001f0 bd 1c 6b 3d b8 45 56 bc f0 33 26 3d 52 50 a4 bd
       0.057400454 -0.013078146 0.040576875 -0.080231324
000200 ca e3 b8 3b f0 9d 50 bd 7a 6d 2d 3c 17 d7 14 3d
       0.005642389 -0.05093187 0.010585183 0.03633794
000210 9b 9d d2 3c 7a 6c 42 3d f2 7a 1a bd ff 26 0a 3d
       0.025709918 0.047466733 -0.037714906 0.033728596
000220 ab c8 7b bc 6c eb 75 bd f6 ff d9 3d 7c 8c 71 3d
       -0.015367667 -0.06003897 0.10644524 0.058971867
000230 e4 cb 22 3c f3 39 c0 bd ce a1 e5 bd 2d 57 87 3d
       0.009936307 -0.09386053 -0.112125024 0.06608424
000240 f5 05 ee 3c d2 21 4f 3d c4 05 9c bd 97 46 01 be
       0.029055575 0.050569363 -0.07618287 -0.12624584
000250 78 05 93 3d a3 69 a8 bd cc 87 8a 3c ed 08 30 bd
       0.071787775 -0.082232736 0.016910456 -0.042977262
000260 4c 29 59 bc 1d 98 85 bd 99 0d a4 3c 59 b1 58 3d
       -0.013254475 -0.06523154 0.020026015 0.052903507
000270 e6 8c c7 bd ba 73 8c bd cb 64 03 bd 0e cd 09 3d
       -0.09743671 -0.068580106 -0.032078546 0.03364282
000280 fa 47 b8 bd 96 c6 0c be 05 3c 72 3d 49 0f 1d 3d
       -0.089981034 -0.1374763 0.05913927 0.038344655
000290 c1 8b 94 3d 0b 11 ad bd a9 fa 27 3d ec 2d 3d bd
       0.072532184 -0.08450516 0.041010533 -0.046186373
0002a0 6f 78 af bd 0c f4 b5 3d ac 2a 0a bb 53 f5 09 be
       -0.08567893 0.08884439 -0.0021082563 -0.1347249
0002b0 a0 9c 75 bd 36 92 71 3d a1 bc b9 bd d3 0e 48 bd
       -0.059963822 0.05897733 -0.09069181 -0.048842262
0002c0 f6 f5 82 bd 2c 1e b6 bd ad 5b d0 bd 5f d9 91 3c
       -0.063945696 -0.088924736 -0.10173736 0.017803846
0002d0 44 3f a2 bd 00 af a8 bd 6d 17 b6 bd b6 85 a6 3d
       -0.07922223 -0.082365036 -0.08891187 0.08130972
0002e0 82 0a 44 3d ab aa 1d bd d4 34 6a 3d 20 bd 8e bd
       0.047861584 -0.03849284 0.057179287 -0.069696665
0002f0 1a 4d 72 bd 4d 11 0b bd 43 b5 59 bd f4 61 c7 bd
       -0.05915556 -0.033952046 -0.05315138 -0.0973548
000300 99 76 21 3d 8b fa 0f 3c b0 7e 44 3d 8b 7b 13 bd
       0.039419744 0.008787761 0.04797238 -0.03600649
000310 48 38 a1 bc 67 d1 b4 bb 32 9a 91 3c 69 15 ee bd
       -0.019680157 -0.0055181268 0.017773721 -0.116251774
000320 7d f2 af bd 72 d6 30 3d 93 b9 c3 bd 19 7d dd bc
       -0.08591173 0.04317326 -0.0955688 -0.02703719
000330 0e 69 c4 bd 27 42 a6 3d 2b 0a 5e bd 6d 87 6d 3d
       -0.0959035 0.08118086 -0.054208916 0.05799048
000340 88 c4 10 bd ba 80 55 bc 31 ef 8a bd ae 98 c6 bd
       -0.035343677 -0.013031179 -0.067839034 -0.0969709
000350 6d ad 5c 3d b8 6c 55 3d 7f 80 bc 3c 12 24 f3 3c
       0.05387633 0.052105635 0.02301049 0.029680286
000360 1d 18 2b 3d 14 ed 87 bd 42 2c a4 bd c2 27 4e bd
       0.041771043 -0.06637016 -0.08016254 -0.050330885
000370 71 75 ab 3d 5b 26 bc bd c8 63 13 3d 7e ae 80 bd
       0.083720095 -0.09187003 0.03598383 -0.06283282
000380 d6 5f af 3d 5b 12 b6 3c ff eb 87 3d c4 8f 7b bd
       0.08563201 0.02222555 0.066368096 -0.061416402
000390 76 76 06 3d ff e2 9d bd 2d 5a 3a 3d 91 cc 1b 3d
       0.032827817 -0.07709312 0.045496155 0.038036887
0003a0 c7 d9 38 3c 1c 77 31 3d 15 34 d9 bc 8a 0b 2d 3d
       0.011282391 0.043326482 -0.026514092 0.042247333
0003b0 3a c5 97 bd ba b7 b2 bd c9 d9 f9 3d a2 1f 39 3c
       -0.07410665 -0.08726449 0.12199742 0.011299046
0003c0 fb 47 79 3d 8a 58 ba bd fe 4f d9 bd a5 10 9f 3d
       0.06085966 -0.09098919 -0.106109604 0.077668466
0003d0 0b d4 4d 3b 5b d8 84 bc 00 85 f2 bd 94 45 b5 bd
       0.0031406905 -0.016216448 -0.11841774 -0.088511616
0003e0 9f 2f 33 3d 62 72 5b bd 9b 0a 0f bc b9 9b 0b bd
       0.043746587 -0.05357588 -0.008730556 -0.034084056
0003f0 23 b4 74 bb cb 3d 99 bd 7d 53 08 3d 38 e0 62 3d
       -0.0037338815 -0.07482489 0.033282746 0.055389613

fc.2.bias f4 [100]
000000 6b 6e 0e 3d 11 35 2f bd cc 69 24 bd ca ac 17 bd
       0.03477327 -0.042775217 -0.04013996 -0.03703002
000010 03 27 1a bd 33 ba 2f 3d 6b 4c 06 3d e7 8c 13 3d
       -0.03763486 0.042902183 0.03278772 0.036023047
000020 ba 69 0a bd b3 3d 0f bd 48 a6 35 3d 46 07 1f 3d
       -0.033792235 -0.03497095 0.04434803 0.038825296
000030 2d 05 2b 3d 67 ec 23 3d 8a 08 2e 3d d6 54 21 3d
       0.041752983 0.040020373 0.042488612 0.039387546
000040 08 2f 02 bd e6 d5 0e bd 81 97 1f bd 29 e0 30 3d
       -0.031783134 -0.03487196 -0.038962845 0.043182526
000050 0e 4b 1c bd 8b de 0b bd ad d8 29 3d f6 5f 0e 3d
       -0.038157515 -0.03414778 0.041466404 0.034759484
000060 16 19 19 bd 32 98 2b 3d 15 8d 2c 3d 46 f2 27 3d
       -0.03737744 0.04189319 0.042126734 0.041002534
000070 4e c6 12 bd f8 e8 0e bd 58 1e 27 3d 61 d2 22 bd
       -0.03583365 -0.034890145 0.040800422 -0.039751414
000080 43 0f 15 bd 35 fa 1b bd 57 5c 10 3d 29 46 1a 3d
       -0.036391508 -0.038080413 0.035244312 0.037664566
000090 b3 74 1d 3d a5 e0 31 3d fa d8 1b bd f1 a2 12 3d
       0.03844137 0.04342713 -0.03804872 0.035799924
0000a0 a4 71 19 bd d6 67 01 bd 7f a7 15 3d 7f 0b 28 bd
       -0.03746189 -0.031593166 0.03653669 -0.04102659
0000b0 ed c4 23 bd 51 37 2b 3d 15 32 1d 3d d1 89 21 3d
       -0.039982725 0.0418008 0.03837784 0.039438073
0000c0 a3 25 f6 bc 0f 28 2c 3d 46 2b 26 3d d5 2b 19 3d
       -0.030047243 0.04203039 0.040568613 0.037395317
0000d0 eb f6 f7 bc ea ae 25 3d 40 1a 0d 3d cb 6e 1d 3d
       -0.030269107 0.040450014 0.034448862 0.03843574
0000e0 6a 3f 0f bd b8 4c 16 3d a6 26 05 bd 2d ca 2d 3d
       -0.034972586 0.03669426 -0.03250756 0.042429138
0000f0 0d cc ed 3c 42 ef 27 bd 1c 31 2c 3d 9a b4 1e 3d
       0.029027963 -0.04099966 0.04203902 0.038746454
000100 8f 6a 16 bd 79 1d 28 3d a6 c9 0f 3d 6f 67 1c bd
       -0.036722716 0.041043732 0.035104416 -0.03818458
000110 61 2f 08 bd 43 66 26 bd 37 b6 1b bd 15 ea 2b 3d
       -0.03324831 -0.040624868 -0.03801557 0.041971285
000120 2b 74 08 3d 2e 71 0c bd ba cd 0a bd 0a cc 0a bd
       0.03331391 -0.034287624 -0.033887602 -0.033885993
000130 34 85 15 3d 11 f0 1d 3d a5 2a 15 3d 8d 92 07 bd
       0.036503986 0.038559023 0.036417622 -0.033098746
000140 c5 6b 24 bd 1a 22 19 3d 78 fd 2b 3d 84 e4 1f bd
       -0.04014184 0.037386037 0.041989774 -0.03903629
000150 4a 95 03 bd 79 26 39 3d 40 bb 05 bd f9 37 08 bd
       -0.032124795 0.045202706 -0.03264928 -0.033256505
000160 88 fc 19 bd 19 2e 13 3d 22 ea 1d bd 29 12 11 bd
       -0.03759435 0.035932634 -0.038553365 -0.03541771
000170 49 3a 26 3d d7 34 30 3d 62 49 1c 3d 64 2d 21 3d
       0.04058293 0.043019142 0.03815592 0.03934993
000180 c7 d0 21 3d a4 b5 12 bd d8 c3 23 bd b6 9d 19 bd
       0.039505746 -0.035817757 -0.039981693 -0.03750392

fc.3.weight f4 [100, 100]
000000 d1 fc 18 be 03 dc 62 3e 14 2d 84 3e 98 16 44 3e
       -0.14940192 0.2215424 0.25815642 0.19149244
000010 79 eb 5a 3e 1b 7c 6d be 9e b7 23 be 1c 26 24 be
       0.21378888 -0.23191874 -0.15988013 -0.16030163
000020 92 8c 2d 3e 81 d2 3f 3e c8 7a 92 be 25 56 5c be
       0.16948155 0.18732645 -0.286093 -0.21517237
000030 fe 7d 58 be 14 ee 55 be e9 4c 83 be c2 90 5d be
       -0.21141812 -0.20891601 -0.25644615 -0.21637252
000040 c4 0e 14 3e f8 5f 06 3e d2 5a 55 3e 05 37 85 be
       0.14458758 0.13122547 0.20835426 -0.2601854
000050 fb 0a 5e 3e a9 c7 2a 3e a8 a6 88 be 6d 24 3c be
       0.21683876 0.16677727 -0.2668965 -0.1837327
000060 07 c2 49 3e c1 bc 68 be f2 39 92 be f4 40 6e be
       0.19702922 -0.22728254 -0.28559834 -0.23266965
000070 12 3b 22 3e dd e6 32 3e 9b ab 82 be 6e 84 66 3e
       0.15842846 0.1747088 -0.2552155 0.22511455
000080 89 31 33 3e 08 20 39 3e d1 d6 51 be 2b 97 21 be
       0.17499365 0.18078625 -0.20492102 -0.15780322
000090 33 21 15 be 90 24 78 be 65 b6 56 3e bd 04 19 be
       -0.14563446 -0.24232697 0.20968015 -0.14943214
0000a0 0b 16 4a 3e b5 a5 ed 3d b9 9e 17 be 62 6a 35 3e
       0.19734971 0.11603872 -0.14806642 0.17716363
0000b0 46 e4 7a 3e 4f 4b 56 be 60 6c 50 be 97 cd 37 be
       0.24501142 -0.20927165 -0.20353842 -0.1794952
0000c0 aa 9f 0c 3e 39 c1 81 be 1c af 66 be 1b 95 48 be
       0.13732782 -0.2534273 -0.22527736 -0.19588129
0000d0 a3 17 fb 3d a6 8b 50 be d2 d8 1d be 80 23 28 be
       0.12260368 -0.20365772 -0.15414742 -0.16419792
0000e0 3f 39 19 3e fc f7 3d be 14 b7 06 3e 21 d7 7f be
       0.14963244 -0.1855163 0.13155776 -0.24984409
0000f0 a6 52 f8 bd 7d 13 81 3e c5 d9 53 be 6d fd 35 be
       -0.12125139 0.2521018 -0.20688541 -0.17772456
000100 50 96 39 3e 62 4b 8b be 98 8d 48 be 26 f8 50 3e
       0.18123746 -0.2720595 -0.19585264 0.20407161
000110 7a f6 17 3e 2c 27 6d 3e 35 5d 48 3e 56 13 5a be
       0.14840117 0.23159474 0.19566806 -0.21296439
000120 e4 60 0d be 2b d4 fa 3d 2e 70 0b 3e a7 64 15 3e
       -0.13806492 0.12247499 0.13617012 0.14589177
000130 58 5d 55 be 99 0b 5e be c5 fb 07 be 03 b7 10 3e
       -0.20836389 -0.21684112 -0.13279636 0.14132313
000140 f0 d6 6a 3e 1f 4a 4f be 5e fc 62 be b8 8d 6d 3e
       0.22933555 -0.20243119 -0.22166583 0.23198593
000150 8c 71 11 3e 8e 42 9e be 4a 0b 00 3e bd 57 fa 3d
       0.14203471 -0.30910152 0.12504306 0.12223766
000160 f1 3e 4d 3e 1f 89 3f be bd a2 5d 3e 1d b5 0b 3e
       0.20043541 -0.18704651 0.21644111 0.13643308
000170 9c 38 71 be 9a 71 82 be ab ec 49 be a4 17 57 be
       -0.23556751 -0.25477296 -0.19719188 -0.21005112
000180 be f6 3a be 7b 17 3c 3e f3 f8 5d 3e 44 7a 30 3e
       -0.18258187 0.18368332 0.21676998 0.1723414
000190 b3 6d 2d be ff 02 56 3e b4 7a 5b 3e d1 89 51 3e
       -0.16936378 0.2089958 0.21433526 0.20462729
0001a0 52 9a 37 3e 49 08 55 be 60 23 37 be 56 10 1d be
       0.17929962 -0.20803942 -0.17884588 -0.15338263
0001b0 16 de 1b 3e af ea 39 3e 73 5d 64 be 7e 27 43 be
       0.15221438 0.18155931 -0.22301273 -0.19058034
0001c0 5d 78 5b be 46 71 3c be 36 7d 80 be a8 f3 5b be
       -0.21432634 -0.18402585 -0.25095528 -0.21479666
0001d0 cb 16 f7 3d a2 79 b1 3d 01 41 3c 3e f8 90 76 be
       0.12064894 0.08665778 0.18384172 -0.24078739
0001e0 89 e5 44 3e 8d e0 0d 3e 4b d0 80 be 4b af 1d be
       0.19228186 0.1385519 -0.25158915 -0.153989
0001f0 00 f0 40 3e ec 2f 4a be 12 01 75 be 92 f1 68 be
       0.18841553 -0.19744843 -0.2392619 -0.22748402
000200 4f 67 0e 3e 63 69 20 3e 0f 6f 2f be 42 53 79 3e
       0.13906597 0.15665202 -0.17132209 0.24348167
000210 61 47 34 3e 86 31 33 3e f0 5e 34 be 62 7a 33 be
       0.17605354 0.1749936 -0.17614341 -0.17527154
000220 14 a2 16 be e3 b0 86 be 16 80 21 3e cc 8c 29 be
       -0.14710265 -0.2630683 0.15771517 -0.16557616
000230 7e b9 2d 3e eb 66 cf 3d 55 70 18 be 8f 49 3c 3e
       0.16965291 0.10127052 -0.14886601 0.18387435
000240 86 81 68 3e 80 a6 63 be 1b e0 34 be 12 bc 29 be
       0.2270566 -0.22231483 -0.17663614 -0.1657565
000250 d6 aa a4 3d ec b4 52 be 22 a3 3f be 54 7b 56 be
       0.08040397 -0.20576829 -0.18714574 -0.20945483
000260 c6 02 d7 3d 5a 37 58 be 8f f3 13 be 0c 9c da bd
       0.10498576 -0.21114865 -0.14448379 -0.10674295
000270 89 ea 1a 3e 50 c6 3d be 34 49 16 3e 07 7f 8c be
       0.1512853 -0.18532681 0.14676362 -0.27440664
000280 c5 82 03 be a7 b1 44 3e 21 8b 75 be fb 9c 22 be
       -0.12842853 0.19208394 -0.23978855 -0.15880196
000290 b8 08 2f 3e cd d3 76 be bc cf 1f be 21 a2 37 3e
       0.1709317 -0.24104233 -0.15606588 0.17932941
0002a0 cc 6a fe 3d 3d 7c 5e 3e 5f f6 2b 3e b7 c0 67 be
       0.12422714 0.2172708 0.16793202 -0.22632109
0002b0 3b 22 fd bd 84 44 f7 3d 72 a5 f5 3d 4f da 0e 3e
       -0.123600446 0.12073615 0.11994447 0.13950466
0002c0 c6 3a 3f be f6 e6 38 be cc 03 08 be f2 1b ef 3d
       -0.18674764 -0.18056855 -0.13282698 0.11675252
0002d0 43 ec 52 3e 0c 41 57 be 17 80 6f be ca fc 64 3e
       0.20597939 -0.21020907 -0.23388706 0.22362056
0002e0 73 c2 1b 3e e1 82 95 be 83 a0 1e 3e 7e de 17 3e
       0.15210895 -0.29201415 0.15490918 0.14830968
0002f0 23 04 2c 3e ac a8 33 be 56 66 28 3e 4a 47 26 3e
       0.16798453 -0.17544812 0.16445288 0.16238132
000300 59 94 6f be 8e 37 83 be 14 7f 23 be 20 eb 6b be
       -0.23396434 -0.25628322 -0.15966445 -0.23038912
000310 2a 84 39 be 20 da 23 3e 0d 5d 64 3e 57 37 23 3e
       -0.18116823 0.16001177 0.22301121 0.15939079
000320 72 43 15 be 52 27 2d 3e bb 83 60 3e bc 46 17 3e
       -0.1457651 0.16909531 0.21925251 0.14773077
000330 62 c8 21 3e a5 9d 69 be e2 bd f1 bd dd 4b 1a be
       0.15799096 -0.22814043 -0.118037954 -0.15068002
000340 3e 01 28 3e 86 1a 2d 3e 54 7e 80 be 30 bb 37 be
       0.16406724 0.16904649 -0.2509638 -0.179425
000350 95 11 69 be e1 bd 02 be db 9b 37 be 82 4e 36 be
       -0.22760613 -0.12767746 -0.17930548 -0.17803386
000360 6f 2a a3 3d 9b 15 e2 3d db 94 31 3e 63 2c 32 be
       0.07967078 0.11039277 0.1734194 -0.17399745
000370 5b d9 44 3e 8e 11 07 3e 9b 0f 6e be 4d a5 03 be
       0.1922354 0.1319029 -0.2324814 -0.12856026
000380 76 3e 27 3e 03 c4 2d be 83 c3 83 be d5 ef 4a be
       0.1633242 -0.16969304 -0.257351 -0.19818051
000390 92 ea ff 3d 43 93 d1 3d 58 ac 6c be 39 97 5d 3e
       0.124959126 0.10233166 -0.23112619 0.21639718
0003a0 83 fa 03 3e 64 ea 17 3e fa c3 27 be 5a e7 0e be
       0.12888531 0.14835507 -0.16383353 -0.13955441
0003b0 7a 9f 1b be 3d 7b 6c be f0 2e 20 3e 2f e4 11 be
       -0.15197554 -0.23093887 0.15642905 -0.14247201
0003c0 dd 7b 36 3e 83 f6 cf 3d cd 86 1c be 8c 7e 03 3e
       0.17820688 0.1015444 -0.15285797 0.12841243
0003d0 f2 32 31 3e 0a 0e 49 be 19 a5 fc bd 7f c2 18 be
       0.1730459 -0.19634262 -0.123361774 -0.14917944
0003e0 f0 26 e0 3d 60 7d 28 be da 35 56 be 10 2d 29 be
       0.10944927 -0.16454077 -0.2091898 -0.16521096
0003f0 fa dd b1 3d c2 14 3e be dd 0d ff bd 16 83 24 be
       0.08684917 -0.18562606 -0.12453816 -0.1606563

fc.3.bias f4 [100]
000000 c5 12 75 be d1 ff 67 be 13 b8 5a be 97 f6 3f 3c
       -0.23932941 -0.2265618 -0.21359281 0.011716506
000010 1a 96 f4 3b a6 d4 e6 3b 53 02 a3 3c c1 f5 58 be
       0.0074641826 0.0070443926 0.01989857 -0.21187498
000020 8c f4 94 3c 92 6c 60 be 6e 54 ac 3b b6 d2 3a 3c
       0.018183015 -0.21916416 0.0052590882 0.011402776
000030 7b b3 86 be 5c a5 7c be 6e d8 25 3c 26 0a 59 be
       -0.26308808 -0.24672455 0.010122402 -0.21195278
000040 fe f6 85 be e6 dd fc 3c 89 f0 7c be ce aa 50 be
       -0.26165003 0.030867528 -0.24701132 -0.20377657
000050 4e 79 4e be 63 08 fe 3b 99 3f 85 be 21 78 d7 3c
       -0.20163462 0.0077524646 -0.26025084 0.0263024
000060 09 69 8c 3d da 64 7e be 09 23 9b 3b 6e c1 57 be
       0.06855971 -0.2484316 0.004734401 -0.21069881
000070 05 6f 57 be d6 74 bf 3c d5 63 07 3c 77 15 a7 3c
       -0.21038444 0.023371141 0.008263548 0.020395977
000080 6c bd 93 b9 5d 22 4d be f2 fe 21 bd 94 ad 07 3d
       -0.00028179155 -0.2003264 -0.039549775 0.03312452
000090 78 ba 67 be 50 ec ab bb 5d 27 2d 3c 37 d4 1c 3d
       -0.22629726 -0.0052466765 0.010568467 0.03828832
0000a0 b3 49 73 be 0c 8a 43 3c 41 a6 7b be 74 a5 2b 3d
       -0.23758583 0.011934768 -0.2457514 0.041905835
0000b0 95 2e 6b be bc f9 6b be cf 0d 6f be 0c 9a d0 3c
       -0.22966988 -0.23044485 -0.23345111 0.02546408
0000c0 9a a9 60 be a8 9d 84 3c 2e af a2 3c b3 5d 82 be
       -0.21939698 0.016188458 0.019858923 -0.25462112
0000d0 cd 0d 77 3b db dd 82 be 87 c4 0a ba bf 53 55 3c
       0.0037697435 -0.25559887 -0.0005293567 0.013020455
0000e0 74 e0 e5 3c 1d 34 f4 3a 08 54 89 3c 77 5f 8f be
       0.02806113 0.0018631254 0.016763702 -0.2800252
0000f0 45 50 a9 3c cb fc 09 3d b3 10 66 be af 6a fc 3c
       0.020668158 0.033688348 -0.22467308 0.03081259
000100 93 2c 84 3c 7d d6 96 be b9 cd 6c be ef 7a 0d 3d
       0.016134536 -0.29460517 -0.23125352 0.034541067
000110 9f 39 7b be f7 d3 79 3c 25 48 5c be 4f c6 77 be
       -0.245337 0.01524829 -0.21511896 -0.24196742
000120 d7 73 5a be 0d 53 8c be 52 4c 98 be 27 45 d1 b9
       -0.21333252 -0.27407113 -0.29745728 -0.0003991511
000130 50 e3 46 3d 04 d2 6e be b3 e7 64 be a8 14 b3 3c
       0.048556626 -0.23322302 -0.22354011 0.021860436
000140 a8 4f 63 3d d0 b3 b7 3c 0d be 94 be b8 25 2b 3d
       0.055495888 0.022424608 -0.29051247 0.04178402
000150 88 f9 65 be a9 40 89 be 8c b8 60 be d2 1d 95 3c
       -0.2245847 -0.26807144 -0.21945399 0.018202696
000160 d3 a1 94 be 82 60 62 be e6 72 56 be d5 e6 69 be
       -0.29029712 -0.22107127 -0.20942268 -0.22841962
000170 a4 0b 63 be a8 a3 f3 3c f3 5b 13 3a ef 1b 55 be
       -0.2217241 0.029741123 0.00056213065 -0.20811437
000180 34 1c 80 be dd d1 5b be e3 81 c7 3c 92 70 11 3d
       -0.25021517 -0.21466775 0.024353927 0.035507746

fc.4.weight f4 [100, 100]
000000 9e bd 9d 3b 50 d7 82 3b b2 68 9c 3c b9 cb 1a 3c
       0.004813864 0.0039929524 0.019092891 0.009447985
000010 db 5b 52 3d 93 0d 9e 3d 8c 31 f3 3c 7d 19 f2 bc
       0.05135713 0.07717433 0.029686712 -0.02955317
000020 64 7e 81 3d ca ca 83 bc 56 53 f4 3c 92 f2 16 3d
       0.06322935 -0.016087908 0.029824894 0.036852427
000030 04 e3 c4 bb a4 77 ae 3c 77 f8 3f 3d 71 a6 71 bd
       -0.0060085077 0.021297283 0.046867814 -0.05899662
000040 e5 58 32 bd bb 10 53 3d 70 86 91 3c 5f d6 86 3c
       -0.043541808 0.051529627 0.0177643 0.016459642
000050 47 fa ef bc ab f6 91 3d 66 b4 ea b9 a6 ed 36 bb
       -0.029294146 0.07127126 -0.00044766365 -0.0027912646
000060 72 f8 84 bc b7 96 2b 3c 26 31 27 3d ea 7d 19 3b
       -0.01623175 0.010472945 0.040818356 0.0023420998
000070 87 cd 5c 3b 82 c5 04 3d 82 b2 c9 3c 77 75 b0 3b
       0.003369184 0.03241492 0.024621252 0.0053850967
000080 94 3c ec 3b 55 51 c8 bb 70 1f 0e bc 3e 10 56 3d
       0.00720937 -0.006113211 -0.0086744875 0.052261584
000090 62 d0 7c 3c 6a 47 ca 3c d9 ae 8a 3c 27 cb 1f bc
       0.015430542 0.024692256 0.016929077 -0.009753025
0000a0 a4 95 58 ba 10 e3 f2 3c 99 db 6e bc 1e 50 e3 bc
       -0.0008262044 0.029649287 -0.014578723 -0.027748164
0000b0 9d df a2 3c be f0 08 bc 6f 82 c3 3b e3 b5 34 3b
       0.019882018 -0.008358179 0.0059664766 0.0027574233
0000c0 5b 6f b4 bc 32 f3 0b bb 25 d6 07 3c ff 4b 49 3d
       -0.022025755 -0.0021354672 0.008290802 0.04914474
0000d0 03 2c b0 3b aa fc 5b 3c a0 89 19 3d 47 37 93 3c
       0.0053763404 0.013426939 0.037484765 0.017970694
0000e0 50 20 45 3c 25 c7 07 3d 99 b9 06 3d 26 70 6b bc
       0.01203163 0.033148903 0.032891843 -0.01437
0000f0 1a 02 5b 3d 8a 51 a7 3c 54 9a a6 bc 47 94 7f 3d
       0.0534688 0.020424623 -0.020337261 0.062397268
000100 46 83 b6 bc c9 c8 20 3d 72 ad 67 bb 6d 98 99 3c
       -0.022279393 0.039253984 -0.0035351184 0.01874944
000110 d1 26 f4 bb f7 c8 e0 3c 7f 2d 03 3d 25 34 3c 3b
       -0.0074509163 0.027439578 0.03202581 0.0028717604
000120 1a 91 4b bb 0e c0 b6 bc 63 a1 d3 ba 45 55 89 3d
       -0.003106183 -0.022308376 -0.001614612 0.06705717
000130 e8 20 b2 3b 05 dd 22 3a 20 d7 ec ba ba e1 78 3d
       0.0054360516 0.0006212744 -0.0018069483 0.060762145
000140 a6 61 3a 3d 8c bb c1 3c 17 0c b0 bc eb 0d 0e 3d
       0.04550328 0.023649 -0.02149014 0.034681242
000150 08 16 36 bc e6 52 77 3c 5e f0 96 bc 77 e6 97 3c
       -0.011113651 0.015095448 -0.018425163 0.018542511
000160 e5 f7 83 bc 2f a2 d8 bc 1c f3 f0 3a b0 58 37 bb
       -0.016109416 -0.026444523 0.0018382999 -0.0027976446
000170 c9 a3 cf 3c 25 16 54 3c 21 2c 37 3d d8 b9 2a 3d
       0.025346654 0.012944733 0.04471982 0.04168114
000180 d2 69 53 bd bb a1 9e ba f1 aa b6 3c 89 c4 9e bc
       -0.05161459 -0.0012102643 0.022298308 -0.019380825
000190 de 10 07 3d b8 3b 52 3c f7 a6 cb ba 48 64 ee 3c
       0.03297507 0.012831621 -0.001553743 0.029100552
0001a0 70 24 1b 3d 4b 0d 96 3d 62 9c 3f 3d db bc 0d 3d
       0.037876546 0.07326754 0.046779998 0.034603935
0001b0 10 bd 63 3d a5 57 a0 3b 54 c2 4f 3d db 8c 47 3d
       0.055600226 0.0048932605 0.050722435 0.048718315
0001c0 98 fe 9f 3c 96 d7 0b 3d ed 4f 7c 3d 5e 9e da bc
       0.01953058 0.034141146 0.06159966 -0.026686843
0001d0 d1 07 a3 3c 67 82 40 3d 78 55 19 bc 12 98 66 3c
       0.019901188 0.04699936 -0.009358756 0.014074342
0001e0 a0 86 5e 3c 58 43 5e 3d 6c b6 44 3c 55 74 1e 3d
       0.013581902 0.054263443 0.012006383 0.03868516
0001f0 ff da 53 3d 30 92 1f 3d 23 83 61 3d 01 aa c1 3c
       0.051722523 0.038957775 0.055056702 0.023640634
000200 3a ce e2 3c 24 77 04 3d 52 5c 5e 3d 3a d0 7e 3c
       0.027686227 0.032340184 0.054287262 0.015552575
000210 2c e2 b0 bc e3 75 4c 3c 1f f8 3a bc 07 0b c2 3b
       -0.021592222 0.012479278 -0.011411696 0.0059217247
000220 27 40 0f bc 78 87 79 3d 89 23 f4 3b 5a 4a 90 bb
       -0.008743322 0.06092021 0.007450525 -0.0044033946
000230 19 60 34 3c fb cd 44 3b 2b 8f e2 bc 18 a7 32 3d
       0.01100924 0.003003 -0.027656158 0.043616384
000240 ed 14 3e bc 58 ae e5 3c 8f ac 04 3d 80 65 46 3d
       -0.011601669 0.028037235 0.032391127 0.04843664
000250 f6 62 4e 3d 06 92 28 3d 65 59 16 3d 6d b5 a0 bb
       0.050387345 0.041154884 0.036706347 -0.00490444
000260 63 9c 32 3d c2 c7 10 bc 62 a5 8d 3c a0 21 55 3d
       0.043606173 -0.0088366885 0.017290775 0.05203402
000270 d4 c4 b1 3c 2f a6 2e 3c 7a 4b 40 3d 65 1a f6 3a
       0.0217003 0.010659738 0.04694698 0.0018776177
000280 5e 38 62 3c 65 8b 10 3d 2c c2 43 bc e4 93 6c bb
       0.013807384 0.035289187 -0.01194815 -0.0036098892
000290 c2 dd d2 3c 9a 42 1c 3d 49 de af bb 9c 46 de 3c
       0.025740508 0.038149454 -0.0053670746 0.027133279
0002a0 50 53 4b 3d 5c a6 81 3b e4 ed 26 bc 4d 1d 19 38
       0.04964 0.003956599 -0.0101885535 3.650533e-05
0002b0 37 0b 57 bc e0 8b a3 3c b2 13 7d bc b7 21 73 3d
       -0.013125232 0.019964159 -0.01544659 0.059358325
0002c0 79 cd 5b 3d ce 29 cb bb 8d a9 a6 3a f5 db 7a 3d
       0.05366275 -0.006200052 0.0012715325 0.061244924
0002d0 2f a2 08 3d 78 43 66 3b a1 e4 ca 3c ff 6a 28 3d
       0.033357795 0.003513543 0.024767222 0.041117664
0002e0 0a 87 f8 38 ad e1 15 3d f6 cc 67 3c ad aa 0c 3d
       0.000118507145 0.036592174 0.014147988 0.034342457
0002f0 25 b2 5b 3c ee 60 0b bb 4d 65 a0 3c d5 2a 8d 3b
       0.013409172 -0.0021267491 0.019579554 0.0043080845
000300 fa d7 ad 3c 02 95 37 3d 96 3d d4 3c fc 2c f1 3c
       0.02122115 0.04481984 0.025908273 0.029440396
000310 a6 a3 f4 bb 58 f2 4b 3d 34 fc b3 3c cd dc 37 3d
       -0.0074657975 0.049791664 0.021970846 0.044888306
000320 20 19 30 3d 40 17 98 3d d1 de df 3d 0d 80 37 3b
       0.04299271 0.074263096 0.10931171 0.0027999908
000330 24 74 1d 3c 77 36 ac 3c 7a 36 93 bc 6f 7a d1 3d
       0.00961021 0.021022065 -0.017970312 0.102284305
000340 25 a8 3e bd a1 45 cd 3d ae 83 6f bc e1 45 cd bc
       -0.046547074 0.10023046 -0.014618797 -0.025057735
000350 13 c0 9e 3d 5a 75 58 3d 63 aa 6d bc 19 d2 83 3d
       0.07751479 0.05284629 -0.014505955 0.06436557
000360 59 1b a3 3d c1 ef 38 bd 2f da 0e 3e 01 e1 7c 3d
       0.079642005 -0.045150522 0.13950418 0.061738018
000370 64 f7 89 3d b3 dd 01 3d 6c 96 78 3e 25 47 b1 3a
       0.06736639 0.03170557 0.24276131 0.0013525231
000380 7c 68 14 be 9e 72 20 3e a8 de a8 bb 87 50 87 3d
       -0.14492983 0.15668723 -0.005153496 0.06607156
000390 eb fb d4 3d c5 5e fe bc c2 86 9c 3c 90 72 b5 bc
       0.10399612 -0.031051049 0.019107226 -0.022149354
0003a0 a0 3f 70 bc f1 5d 88 3d a4 3f ae 3d 24 15 9e bd
       -0.014663607 0.06658543 0.08508232 -0.07718876
0003b0 f7 5a d8 3d d0 28 6c 3c 83 3b 36 bd 4e 08 82 bd
       0.10564225 0.014414027 -0.04449035 -0.0634924
0003c0 91 6a 76 3d 78 5c 05 bd f2 fd 03 3e fd bb b6 bd
       0.060160223 -0.03255889 0.12889841 -0.08922575
0003d0 7a 5c a0 3d 53 a6 88 3d 09 5b 93 3d 51 51 5c bc
       0.078301385 0.06672349 0.07195098 -0.013447122
0003e0 f9 b5 bc 3d 17 1a 9b bb 43 2e 5f bc fc 59 e4 3d
       0.09214396 -0.0047333348 -0.0136218695 0.11149976
0003f0 ea be 1e bd ec 19 6d 3d 80 3d 0d bc a8 24 98 bc
       -0.03875629 0.05788605 -0.00862062 -0.018572167

fc.4.bias f4 [100]
000000 4a 53 cb bd cf 1f f0 bd 57 1c 0c bf ae fc dd bd
       -0.099279955 -0.11724817 -0.54730743 -0.108392105
000010 bc 7f f2 bd c1 19 dd bd 44 eb 0c bf e1 0d d6 bd
       -0.1184077 -0.10795928 -0.55046487 -0.10451866
000020 50 ee 06 bf bf ad e1 bd fd f7 08 bf ae 1c 0b bf
       -0.52707386 -0.110194676 -0.535034 -0.54340637
000030 2f 48 0c bf 04 25 07 bf 0d 11 0d bf 52 fc 0b bf
       -0.54797643 -0.52790856 -0.5510414 -0.54681885
000040 19 88 cd bd b1 82 cd bd 52 bd 07 bf bc f0 09 bf
       -0.10035724 -0.10034693 -0.53023255 -0.53882957
000050 aa 0d e6 bd 6d d3 eb bd 35 10 e8 bd 7a 25 e5 bd
       -0.11233075 -0.11514936 -0.11331216 -0.11188789
000060 87 0a 11 bf f4 e9 08 bf bf d3 0e bf 44 17 10 bf
       -0.5665669 -0.53481984 -0.5579185 -0.562855
000070 27 eb d2 bd f8 c3 df bd 92 d3 0a bf d7 50 0d bf
       -0.10298758 -0.1092605 -0.5422908 -0.55201477
000080 9f e7 11 bf d3 91 e9 bd c9 02 0a bf 44 cd ce bd
       -0.5699405 -0.11404767 -0.539105 -0.10097745
000090 cd 6f d2 bd d9 3a e1 bd 18 9d e1 bd 51 7b e6 bd
       -0.102752306 -0.109975524 -0.110162914 -0.112539895
0000a0 55 13 e7 bd e8 85 0d bf 88 1b ef bd 31 bf ed bd
       -0.11282984 -0.5528245 -0.11675173 -0.116087325
0000b0 10 ea 0d bf 50 b8 e8 bd 68 f0 db bd 13 a7 e1 bd
       -0.55435276 -0.1136328 -0.10739213 -0.11018195
0000c0 15 af 0c bf 2c fd 0f bf fa e0 0f bf de 0a b9 bd
       -0.54954654 -0.56245685 -0.5620266 -0.09035276
0000d0 5d f4 e2 bd 92 2a e4 bd c6 f8 e3 bd 40 5d d2 bd
       -0.11081765 -0.11140932 -0.11131434 -0.10271692
0000e0 62 49 06 bf a2 02 e1 bd ac 4e 0e bf 68 dc 06 bf
       -0.52455723 -0.1098683 -0.55588794 -0.52680063
0000f0 ba df e1 bd c4 e1 dd bd ce 49 0b bf 66 c0 ce bd
       -0.110290006 -0.10834077 -0.5440949 -0.10095291
000100 ea e5 0f bf 48 d6 09 bf d3 6a cd bd dc 59 e6 bd
       -0.56210196 -0.5384259 -0.10030141 -0.11247608
000110 4b 3e e0 bd 4c d5 0c bf 14 95 08 bf 15 39 11 bf
       -0.109493814 -0.55012965 -0.53352475 -0.56727725
000120 45 00 0d bf 93 7c 0a bf 5d dd ec bd 8b 3e f9 bd
       -0.55078536 -0.54096335 -0.11565659 -0.12170132
000130 bf 9b 0b bf 56 59 d6 bd 52 5c 04 bf 0f 3c f2 bd
       -0.54534525 -0.10466258 -0.5170337 -0.118278615
000140 3c 10 0a bf ba b6 0a bf 52 a1 0a bf 8f 81 f4 bd
       -0.5393102 -0.5418507 -0.54152405 -0.11938774
000150 8f 12 16 bf 3e f5 05 bf 31 0b ce bd 1e 71 ed bd
       -0.5862207 -0.52327335 -0.10060728 -0.11593841
000160 a2 56 09 bf c4 fb e7 bd e1 d9 e2 bd 8e 57 0f bf
       -0.53647816 -0.11327317 -0.11076713 -0.5599297
000170 6d 66 e8 bd fb 1d 12 bf e3 cc e6 bd 03 2e e6 bd
       -0.11347661 -0.57076997 -0.11269548 -0.11239245
000180 20 64 e9 bd 9b a1 f1 bd 03 4c 0c bf fc 5b df bd
       -0.113960505 -0.11798402 -0.54803485 -0.109062165
