results/Smoothed_InfoNCE_dim20_reg1_alpha1e-05.pt (torch, 402875 bytes, 13 tensors)

fc.0.weight f4 [100, 40]
0.06465099 -0.03368237 0.08569501 -0.08756697 0.08783112 0.025301622 0.0048329784 0.08707199
-0.03798933 0.063046284 -0.03810616 0.02899237 0.05359089 0.009056333 0.0077693225 0.10020315
-0.0019800141 0.026883129 0.043209128 0.08246553 0.07037599 -0.066882364 0.07157077 -0.067108884
0.07407381 0.023821393 0.02821731 0.063391596 -0.025649186 0.04431599 -0.031883135 0.014488614
0.07056092 0.020168168 0.018763302 0.065230064 0.024906164 0.0019711049 0.023116076 0.055597536
-0.081424095 -0.08432889 -0.036627393 0.065621935 0.041020185 -0.02153957 0.12888293 0.10310611
-0.07721769 -0.06431547 0.0634639 0.07688986 -0.0067488477 -0.051778894 -0.019846532 0.05421672
0.15490752 -0.12801784 0.03569105 -0.07868435 0.05023214 0.07363543 0.003759052 -0.07511933
-0.02527259 0.005648542 -0.09675654 -0.060433302 0.04616178 0.07877934 -0.074142225 -0.0642837
0.016503423 0.045391146 0.008055955 -0.06950194 -0.10861279 0.13406953 -0.03734401 0.06892704
-0.052340772 0.08892024 0.02942705 0.041669603 0.050251998 -0.060461733 -0.06426046 -0.09536773
-0.02669252 0.12440092 0.06452616 -0.008501858 -0.0072515877 -0.02353199 0.034454074 0.085484244
0.010372275 -0.008156467 -0.011681774 -0.009366038 -0.045216892 0.076519854 0.050528184 0.021130227
0.041435987 -0.06795989 -0.066352256 -0.09484818 -0.035995618 0.11207707 0.084722914 -0.05201406
0.0055179517 -0.015532258 0.027704192 0.058629055 0.008362845 -0.005586149 -0.045368582 -0.021856444
0.034485366 -0.05161015 -0.0008717984 0.1220118 0.16639495 -0.03636316 -0.032918327 0.005507782
-0.01114011 0.04110819 -0.022461217 0.025634412 -0.093301944 0.031587657 -0.08091133 -0.12628955
-0.0002521069 -0.0069704806 -0.05899002 0.07726387 -0.029979557 0.022786433 0.0055638454 -0.12372481
-0.15643579 0.063704565 0.040579088 -0.010614196 0.029694512 -0.0640733 0.03394132 -0.021379502
0.09584988 -0.07218188 0.07618465 0.08495439 0.0061191088 -0.01106866 0.0668028 -0.066279
-0.0011132832 0.024702804 -0.048615713 0.08147617 -0.013542549 0.052799385 -0.041608706 0.07358152
0.061044957 -0.10385839 -0.03182348 -0.07608647 0.059317794 -0.078677095 0.06997109 0.101990305
0.023300422 -0.08001444 0.035320945 0.014483545 0.012076696 0.009389137 -0.018834366 0.089229636
-0.006370136 0.054285247 -0.02621564 0.08556215 0.02573129 -0.07425905 -0.019345434 -0.07128916
0.094584666 -0.043482028 0.06594297 0.080500074 0.03059709 -0.0733034 0.027644197 0.00739917
-0.019795446 0.010958776 0.043548454 0.084918685 -0.04033297 0.028095422 0.039366316 0.054895144
0.060444657 -0.044174608 -0.13177069 -0.008703033 0.029601216 0.11067518 -0.07704222 0.09858069
-0.067166 0.08457237 0.08482259 0.061489724 0.0143244555 -0.018871818 -0.053728838 -0.09880716
0.0443437 -0.058568966 -0.04760552 -0.02899633 -0.06836211 0.019134328 0.12520596 0.010898703
-0.03228091 -0.12860182 0.09093006 -0.085943766 0.06254535 -0.082583494 -0.059776947 -0.046684798
-0.020416873 -0.03891105 -0.08405557 0.064884305 -0.012113047 0.10706745 -0.07284131 -0.0036521386
-0.118536815 -0.06646676 0.03805642 0.12028585 -0.007083525 0.14239118 -0.049275964 -0.039806068
00000000: bd67 843d 86f6 09bd de80 af3d 5056 b3bd
00000010: cde0 b33d 5945 cf3c f65d 9e3b cd52 b23d
00000020: b39a 1bbd 691e 813d 3415 1cbd 6881 ed3c
00000030: 1f82 5b3d 0461 143c cd95 fe3b 4f37 cd3d
00000040: 20c3 01bb 023a dc3c 0efc 303d b0e3 a83d
00000050: 4921 903d 9ff9 88bd b293 923d 6270 89bd
00000060: 02b4 973d 1525 c33c fd27 e73c 74d3 813d
00000070: 3e1e d2bc af84 353d e497 02bd a761 6d3c
00000080: 3e82 903d b737 a53c 7fb5 993c 5797 853d
00000090: 0308 cc3c a72d 013b ed5d bd3c 3eba 633d
000000a0: adc1 a6bd a0b4 acbd 9b06 16bd cb64 863d
000000b0: c804 283d c173 b0bc e3f9 033e 4c29 d33d
000000c0: 4f24 9ebd d4b7 83bd 5cf9 813d 6e78 9d3d
000000d0: 7025 ddbb 1b16 54bd 3295 a2bc 5a12 5e3d
000000e0: 14a0 1e3e 1c17 03be c730 123d 4325 a1bd
000000f0: 37c0 4d3d 2cce 963d 6d5a 763b 2ad8 99bd
00000100: 7608 cfbc 6817 b93b 4b28 c6bd e988 77bd
00000110: 2214 3d3d 1057 a13d e1d7 97bd 2ca7 83bd
00000120: 3032 873c 11ec 393d 20fd 033c 0857 8ebd
00000130: 6270 debd 8649 093e 08f6 18bd 9f29 8d3d
00000140: 4763 56bd d11b b63d ff10 f13c bfad 2a3d
00000150: 0ad5 4d3d b9a6 77bd fd9a 83bd 2850 c3bd
00000160: 46aa dabc e9c5 fe3d 4b26 843d 614b 0bbc
00000170: ba9e edbb 29c6 c0bc b71f 0d3d 5d12 af3d
00000180: 79f0 293c b4a2 05bc e964 3fbc 0374 19bc
00000190: 5935 39bd 71b6 9c3d a4f6 4e3d 4c19 ad3c
000001a0: c8b8 293d 8e2e 8bbd b1e3 87bd c33f c2bd
000001b0: 2470 13bd aa88 e53d 3583 ad3d b20c 55bd
000001c0: efcf b43b 037b 7ebc e7f3 e23c 0525 703d
000001d0: 5004 093c 040c b7bb 68d4 39bd 490c b3bc
000001e0: 8740 0d3d 2a65 53bd 6689 64ba 53e1 f93d
000001f0: 7063 2a3e 89f1 14bd 5ed5 06bd a07a b43b
00000200: 0285 36bc 1061 283d 9600 b8bc 42ff d13c
00000210: 1715 bfbd 0f62 013d d7b4 a5bd 0c52 01be
00000220: 372d 84b9 a168 e4bb 859f 71bd 853c 9e3d
00000230: b097 f5bc 9daa ba3c eb50 b63b 6f63 fdbd
00000240: b430 20be 8a77 823d 4236 263d 2ae7 2dbc
00000250: e841 f33c dd38 83bd 0e06 0b3d 1124 afbc
00000260: f14c c43d 18d4 93bd b306 9c3d 91fc ad3d
00000270: ce82 c83b 5359 35bc e8cf 883d 49bd 87bd
00000280: 96eb 91ba 895d ca3c 4521 47bd fadc a63d
00000290: 91e1 5dbc 2b44 583d e46d 2abd e8b1 963d
000002a0: 470a 7a3d b5b3 d4bd 5659 02bd 39d3 9bbd
000002b0: 37f7 723d 7521 a1bd 014d 8f3d 4be0 d03d
000002c0: 87e0 be3c 9cde a3bd b2ac 103d 644c 6d3c
000002d0: 56dd 453c e5d4 193c 874a 9abc 07be b63d
000002e0: 93bc d0bb 355a 5e3d 2fc2 d6bc 353b af3d
000002f0: 6dca d23c 2115 98bd 517a 9ebc 0d00 92bd
00000300: 9bb5 c13d 361a 32bd 1c0d 873d 39dd a43d
00000310: c0a6 fa3c 1820 96bd 1576 e23c bd74 f23b
00000320: 0f2a a2bc 708c 333c dd5f 323d d9e9 ad3d
00000330: 2f34 25bd 5f28 e63c 933e 213d bbd9 603d
00000340: d194 773d 6ff0 34bd e5ee 06be 2b97 0ebc
00000350: 407e f23c aba9 e23d 50c8 9dbd ace4 c93d
00000360: 548e 89bd 4734 ad3d 77b7 ad3d a6dc 7b3d
00000370: 1fb1 6a3c 1299 9abc c512 5cbd 695b cabd
00000380: bda1 353d 03e6 6fbd 01fe 42bd b689 edbc
00000390: 6f01 8cbd 98bf 9c3c fe35 003e 7990 323c
000003a0: fd38 04bd 32b0 03be 8a39 ba3d 4903 b0bd
000003b0: c717 803d 8921 a9bd acd8 74bd 8f38 3fbd
000003c0: 4941 a7bc 3161 1fbd 5425 acbd 10e2 843d
000003d0: cd75 46bc 2e46 db3d d32d 95bd b858 6fbb
000003e0: 6ec3 f2bd ba1f 88bd 0ce1 1b3d 6d58 f63d
000003f0: ea1c e8bb fece 113e 98d5 49bd b00b 23bd

fc.0.bias f4 [100]
-0.048509385 -0.02571899 -0.066008374 -0.025758145 -0.056922305 -0.019345766 -0.030405631 -0.053000297
0.0041450523 -0.0028364554 -0.06023305 -0.024362449 -0.032336272 -0.003943895 -0.050786085 -0.05121106
-0.02848459 -0.00693059 -0.054946274 -0.017024785 -0.05173521 -0.0549709 -0.033314146 -0.052613966
-0.053288396 -0.029485656 -0.003147907 -0.031083155 -0.028982412 -0.021234382 -0.019524682 -0.028602336
-0.031617433 -0.029868927 -0.058648728 -0.046966277 -0.01323702 -0.038656782 -0.02314458 0.0016192542
-0.021240886 -0.0319627 -0.0036503475 -0.027029091 -0.035407495 -0.000427479 -0.00077750743 0.0036165048
-0.0055259117 -0.023381619 -0.04888911 -0.02664216 -0.028536404 -0.05366572 -0.019201433 -0.02495591
-0.03196313 -0.017307281 -0.03181407 0.0016324627 -0.04706116 -0.00964808 -0.021411294 -0.033622745
-0.029934473 -0.050951883 -0.029752297 -0.03452165 -0.060671832 -0.018608762 -0.057083823 -0.054977942
-0.04659481 -0.008803686 -0.006622465 -0.050407954 -0.030553166 -0.034172427 -0.027768727 -0.028469196
-0.026266197 -0.032465465 -0.03971518 -0.037255112 -0.029599592 -0.042048275 -0.054454964 -0.06463414
-0.032474685 -0.024688555 -0.05876789 -0.020121356 -0.028091691 -0.057266954 -0.03273781 -0.022725102
-0.00598123 -0.034438707 -0.029986447 -0.029507084
00000000: c7b1 46bd a2b0 d2bc 662f 87bd bf02 d3bc
00000010: 5d27 69bd 037b 9ebc 3b15 f9bc d716 59bd
00000020: 38d3 873b d3e3 39bb eeb6 76bd c293 c7bc
00000030: 0a73 04bd ca3b 81bb 1205 50bd b0c2 51bd
00000040: 8458 e9bc 011a e3bb 580f 61bd 9077 8bbc
00000050: 4de8 53bd 2b29 61bd 6a74 08bd be81 57bd
00000060: ef44 5abd e78b f1bc 1e4d 4ebb 1aa2 febc
00000070: 866c edbc baf3 adbc 3af2 9fbc 724f eabc
00000080: 4881 01bd aeaf f4bc a639 70bd b65f 40bd
00000090: 16e0 58bc 9356 1ebd b499 bdbc 283d d43a
000000a0: 5e01 aebc 52eb 02bd ab3a 6fbb 1d6c ddbc
000000b0: 7307 11bd 431f e0b9 a4d1 4bba e202 6d3b
000000c0: b512 b5bb cf8a bfbc f33f 48bd a940 dabc
000000d0: 2dc5 e9bc 96d0 5bbd 534c 9dbc 5670 ccbc
000000e0: c5eb 02bd 00c8 8dbc 784f 02bd 5cf8 d53a
000000f0: 34c3 40bd fb12 1ebc bd66 afbc 01b8 09bd
00000100: 2439 f5bc ecb2 50bd 17bb f3bc 9366 0dbd
00000110: 0783 78bd 6771 98bc bad0 69bd 8d30 61bd
00000120: 33da 3ebd 563d 10bc 4301 d9bb 9278 4ebd
00000130: a24a fabc 63f8 0bbd 3e7b e3bc 3b38 e9bc
00000140: 352c d7bc 82fa 04bd 62ac 22bd d198 18bd
00000150: d87a f2bc d03a 2cbd 2b0c 5fbd e75e 84bd
00000160: 2d04 05bd a73f cabc 99b6 70bd 8bd5 a4bc
00000170: 8c20 e6bc c190 6abd 1518 06bd fe29 babc
00000180: 32fe c3bb 9a0f 0dbd 23a6 f5bc d7b8 f1bc

fc.1.weight f4 [100, 100]
-0.026596466 0.12056912 0.0086107785 0.0053457124 -0.019488014 0.08176595 0.021709098 -0.03406133
0.018100575 -0.012515134 -0.037844885 0.035238296 0.12751853 0.013108185 -0.05902652 0.0043925433
0.026407978 0.013713592 -0.017364684 -0.020751685 0.004535882 0.013218976 0.10878593 -0.0100096
-0.009072157 0.04642808 -0.010370832 0.025686577 0.109588355 0.08474661 0.13462748 0.096019804
0.08315967 0.06506312 0.007871591 0.00090602617 -0.0024301815 -0.0034210812 0.077486 0.0063325847
0.12487532 0.080597505 -0.029585985 -0.0035402144 0.10990475 0.0001228638 -0.0028541377 0.0053407378
0.05881338 0.033034906 0.01949561 0.08121927 0.032988872 0.012427924 0.059019715 -0.00177311
0.0058309566 -0.011058249 0.08124083 0.0017231278 0.0050122077 0.065004066 0.011919828 0.009162793
-0.005673377 0.0155434795 0.07391943 0.05124495 -0.030960862 -0.014873549 -0.027588516 -0.017790515
0.010709712 0.07044047 -0.008580404 7.404642e-05 0.038526885 0.06257071 -0.04215404 0.09444419
0.12679641 0.084327176 0.15291865 0.09702481 0.009431843 0.08215952 -0.017766241 -0.0011976812
0.0824631 0.057974212 -0.0257019 0.057488404 0.10306815 -0.041042864 0.09598876 0.06994158
-0.0027529967 0.06886301 0.10020117 0.05738963 0.017952684 -0.050347496 -0.012160091 -0.013065259
0.023049742 -0.08951296 -0.0703659 0.018282196 0.04354549 -0.003173545 0.0011869106 -0.07011143
-0.08652852 -0.011644628 0.0022220416 -0.04085987 -0.037148796 -0.036634564 0.023337692 -0.022848446
0.025069872 0.0062522064 -0.054207716 -0.006579077 0.019773504 -0.09020434 -0.016369138 -0.034403298
-0.08014358 -0.0504323 -0.029463092 -0.01985309 -0.12146625 -0.048814137 0.029524919 0.009592766
0.0046304134 0.01603875 -0.05529632 0.0034884522 -0.006809957 -0.14574288 0.025785243 -0.072370514
-0.052813847 0.01097584 -0.014217018 -0.04871251 0.03408694 -0.12938434 -0.0009575002 -0.067917876
-0.019763956 -0.0011788865 -0.045621462 -0.04527464 -0.08364046 -0.05508782 -0.08036833 -0.009094669
0.05498835 -0.022188451 0.009061095 0.023924274 -0.08536545 0.014477289 -0.07825098 -0.048975147
0.010172236 -0.014355639 -0.010452128 0.020303763 -0.00081382506 0.01745234 0.0006269827 0.03529884
-0.058093295 -0.07022449 -0.010128625 -0.06042299 -0.02628753 -0.07630605 -0.08747005 -0.06326023
-0.052747726 -0.13907434 0.01324662 0.021639721 -0.062072452 -0.04760023 -0.013184401 -0.0073098945
-0.07225299 -0.016419036 -0.04082701 -0.0064050523 -0.015688641 -0.09145207 -0.07084886 -0.06981068
-0.0035035498 -0.06964491 -0.021954317 -0.033269294 -0.010633123 -0.062069323 -0.05047983 -0.030184433
0.052501243 -0.06327579 0.022518003 -0.05165771 -0.045900825 -0.032576494 0.016039273 -0.023923181
-0.06312714 -0.039440535 0.05581971 0.011580952 -0.008928824 0.031760495 -0.058963776 0.018466301
0.009688982 -0.030034842 -0.008244039 -0.010824384 -0.06385687 -0.022825422 -0.04531864 -0.049136706
-0.08720261 -0.0975768 0.052690595 0.016967965 -0.018741269 3.6159476e-05 -0.047933616 0.010445087
-0.07375752 -0.13612802 0.030308643 -0.029538348 -0.055563744 -0.005542146 0.018275516 -0.012418246
0.050702076 -0.08586868 -0.0071356655 -0.020203164 0.0118630845 -0.040049985 -0.026089206 -0.038433127
00000000: d5e0 d9bc f1ec f63d 3914 0d3c 162b af3b
00000010: 54a5 9fbc e874 a73d 47d7 b13c e583 0bbd
00000020: a847 943c 470c 4dbc 3d03 1bbd 0856 103d
00000030: 3894 023e b6c3 563c cbc5 71bd 53ef 8f3b
00000040: 8b55 d83c f9ae 603c 6240 8ebc 70ff a9bc
00000050: bca1 943b 6794 583c 28cb de3d 4eff 23bc
00000060: 62a3 14bc 5f2b 3e3d 6cea 29bc a86c d23c
00000070: dc6f e03d a18f ad3d c9db 093e 08a6 c43d
00000080: 9e4f aa3d d03f 853d d8f7 003c 6382 6d3a
00000090: ae43 1fbb 3834 60bb fbb0 9e3d 9281 cf3b
000000a0: a2be ff3d 4e10 a53d 4f5e f2bc f102 68bb
000000b0: be15 e13d 00d5 0039 7c0c 3bbb 5b01 af3b
000000c0: 4ce6 703d 9c4f 073d 42b5 9f3c 4a56 a63d
000000d0: 571f 073d 7e9e 4b3c a8be 713d b367 e8ba
000000e0: 9c11 bf3b a82d 35bc 9861 a63d 93da e13a
000000f0: 723d a43b da20 853d 624b 433c 8a1f 163c
00000100: bce7 b9bb 14aa 7e3c 1263 973d 3ae6 513d
00000110: a2a1 fdbc 30b0 73bc 5001 e2bc 6abd 91bc
00000120: ca77 2f3c 1843 903d d394 0cbc 5e49 9b38
00000130: 5ece 1d3d 1325 803d b7a9 2cbd f56b c13d
00000140: ebd6 013e bab3 ac3d b596 1c3e f2b4 c63d
00000150: 0488 1a3c 4043 a83d 828a 91bc 83fb 9cba
00000160: 6ae2 a83d 5e76 6d3d ca8c d2bc f678 6b3d
00000170: 6515 d33d 901c 28bd c195 c43d 883d 8f3d
00000180: 9f6b 34bb 0d08 8d3d 4536 cd3d 6311 6b3d
00000190: 8211 933c 2d39 4ebd 1e3b 47bc ab0f 56bc
000001a0: d0d2 bc3c 9252 b7bd ff1b 90bd 8bc4 953c
000001b0: c15c 323d 40fb 4fbb 1c92 9b3a 9596 8fbd
000001c0: dd35 b1bd 1cc9 3ebc ac9f 113b ae5c 27bd
000001d0: 5629 18bd 200e 16bd b02e bf3c aa2c bbbc
000001e0: 555f cd3c 4fdf cc3b e908 5ebd 4c95 d7bb
000001f0: 0bfc a13c 0ebd b8bd 9218 86bc 79ea 0cbd
00000200: 5122 a4bd 1992 4ebd 955c f1bc f3a2 a2bc
00000210: 4cc3 f8bd 55f1 47bd 3ede f13c fa2a 1d3c
00000220: b9ba 973b b263 833c 657e 62bd 849e 643b
00000230: 0f26 dfbb 9f3d 15be 933b d33c fe36 94bd
00000240: 5553 58bd 02d4 333c 7fee 68bc c586 47bd
00000250: bf9e 0b3d 547d 04be c000 7bba 8718 8bbd
00000260: 05e8 a1bc de84 9aba 92dd 3abd e771 39bd
00000270: b14b abbd c4a3 61bd 2798 a4bd ce01 15bc
00000280: 773b 613d 8ec4 b5bc fd74 143c d7fc c33c
00000290: 15d4 aebd 2732 6d3c 0d42 a0bd 2a9a 48bd
000002a0: 73a9 263c ea33 6bbc 673f 2bbc 1454 a63c
000002b0: e056 55ba 36f8 8e3c 195c 243a 8495 103d
000002c0: 3cf3 6dbd dbd1 8fbd 88f2 25bc 197e 77bd
000002d0: f258 d7bc 5946 9cbd 7f23 b3bd 948e 81bd
000002e0: 000e 58bd 8169 0ebe 5a08 593c c945 b13c
000002f0: af3f 7ebd 75f8 42bd 6303 58bc d787 efbb
00000300: 60f9 93bd 3781 86bc 393a 27bd 79e1 d1bb
00000310: 7785 80bc 394b bbbd 3519 91bd e7f8 8ebd
00000320: d09b 65bb fea1 8ebd 8ad9 b3bc 6245 08bd
00000330: 8d36 2ebc 673c 7ebd f0c3 4ebd 5845 f7bc
00000340: 8b0b 573d bd96 81bd ad77 b83c 0997 53bd
00000350: 8102 3cbd ee6e 05bd cb64 833c 8cfa c3bc
00000360: cd48 81bd 668c 21bd 35a3 643d 09be 3d3c
00000370: 344a 12bc 4b17 023d 0084 71bd a446 973c
00000380: 89be 1e3c a10b f6bc 0112 07bc c258 31bc
00000390: 64c7 82bd 61fc babc 0aa0 39bd 9243 49bd
000003a0: 4897 b2bd 58d6 c7bd 18d2 573d 6700 8b3c
000003b0: 4a87 99bc f1a9 1738 0a56 44bd df21 2b3c
000003c0: 2f0e 97bd 2565 0bbe d549 f83c 68fa f1bc
000003d0: cf96 63bd e49a b5bb 89b6 953c e675 4bbc
000003e0: fbac 4f3d ebdb afbd 4dd2 e9bb 1b81 a5bc
000003f0: 625d 423c 740b 24bd 08b9 d5bc 0e6c 1dbd

fc.1.bias f4 [100]
0.03339342 -0.055330385 -0.049619842 -0.04643856 0.02851613 0.02018474 0.020056268 0.024085108
0.040516302 -0.048960812 -0.040050853 0.03349037 -0.053003553 -0.04689256 0.02299752 -0.048899893
0.020935083 -0.04861056 0.029468557 0.02326666 -0.047007527 -0.05358766 0.031729028 -0.051345266
0.02980272 -0.049073245 -0.044754766 0.016582256 0.02406639 0.021339467 -0.04738707 -0.0501565
-0.044434514 -0.047016352 0.051117722 0.033610974 -0.055211805 0.03487131 -0.047777157 -0.052151088
-0.04364597 0.03380185 0.015833292 0.03559984 -0.0479158 0.016108103 0.042756848 -0.04863623
-0.05106043 -0.049606293 -0.039796785 -0.049136925 0.044791527 -0.04555743 -0.04785605 -0.04201288
-0.05027824 0.024462357 -0.053261213 -0.029491587 0.033684727 -0.051303077 0.02012053 0.040753942
0.027590746 -0.050488148 0.032427628 0.029763049 0.02979189 -0.047404382 0.024429737 -0.052476715
-0.049698997 0.014321944 0.030572942 0.014544699 -0.052366305 0.026580496 -0.05423689 0.023011558
0.03398661 0.029030466 0.036376614 0.044818603 0.022862485 -0.052088354 0.01597489 0.029867077
0.021886175 -0.05017777 -0.047285523 0.029383214 0.028195908 0.022141295 -0.04197221 -0.04941478
0.03897126 0.031225862 -0.050146624 -0.052680835
00000000: 8ac7 083d 1da2 62bd 2d3e 4bbd 5c36 3ebd
00000010: a99a e93c 785a a53c 0b4d a43c 224e c53c
00000020: 6cf4 253d 228b 48bd 5d0c 24bd 332d 093d
00000030: 411a 59bd 6a12 40bd 4c65 bc3c 414b 48bd
00000040: 0d80 ab3c de1b 47bd 0b68 f13c b999 be3c
00000050: f78a 40bd bc7e 5bbd 4cf6 013d 6a4f 52bd
00000060: d524 f43c 0701 49bd c650 37bd 83d7 873c
00000070: e126 c53c 1bd0 ae3c f218 42bd e770 4dbd
00000080: f700 36bd 3894 40bd d160 513d a9ab 093d
00000090: c625 62bd 38d5 0e3d fbb1 43bd 619c 55bd
000000a0: 1ec6 32bd cf73 0a3d d2b4 813c 23d1 113d
000000b0: 5c43 44bd 24f5 833c ce21 2f3d c936 47bd
000000c0: be24 51bd f82f 4bbd f401 23bd cd43 49bd
000000d0: 5277 373d 6d9a 3abd b504 44bd b315 2cbd
000000e0: 8ef0 4dbd 4865 c83c 6e28 5abd 5798 f1bc
000000f0: fff8 093d 2d23 52bd cfd3 a43c 9bed 263d
00000100: fd05 e23c a9cc 4ebd d5d2 043d a3d1 f33c
00000110: 1f0e f43c 192b 42bd df20 c83c d3f1 56bd
00000120: 2d91 4bbd 96a6 6a3c 1b74 fa3c e44c 6e3c
00000130: 0d7e 56bd 57bf d93c 8027 5ebd bc82 bc3c
00000140: 8b35 0b3d 4dd1 ed3c a5ff 143d b693 373d
00000150: 1b4a bb3c 995a 55bd c6dd 823c cdab f43c
00000160: a34a b33c 3587 4dbd 77ae 41bd 11b5 f03c
00000170: 1bfb e63c a961 b53c 0deb 2bbd 2767 4abd
00000180: 54a0 1f3d 61cd ff3c 8c66 4dbd dcc7 57bd

fc.2.weight f4 [100, 100]
0.04891374 0.03159827 0.014747126 0.03711656 0.067408375 0.07431238 0.10788783 0.064585336
-0.032141786 0.0054152384 -0.0008710186 0.014555874 0.014510326 -0.0013145354 0.10447416 0.047276605
0.0671204 0.017949414 0.098785594 0.09770881 -0.036996882 -0.017382685 0.048254322 -0.0068109087
0.021200223 -0.009496335 -0.017018428 0.07922246 0.09690547 0.075196065 0.017196596 0.011720494
0.0022787743 0.009029774 0.0057792733 0.106405854 0.026205808 0.019645028 0.017916804 -0.025712268
-0.013494638 0.10229498 0.09078829 0.016247867 -0.015588007 0.06485737 -0.001624121 0.009969654
-0.015986284 0.015145897 0.0006687501 0.024222312 -0.024303049 0.025001837 0.027162287 -0.0014530339
0.016675249 0.057237085 0.02038651 -0.014648956 0.07474141 -0.01192206 0.1353246 0.08099521
0.06474613 0.009387712 0.034143377 0.036110245 0.035247758 0.019555345 0.11572348 0.0069297156
-0.03634099 0.06512941 -0.043536536 0.0042155674 0.029163448 0.05538828 -0.0022576633 0.045700494
0.099060655 0.015451443 0.048495773 -0.009741879 0.0765 0.039846044 0.092336096 0.05685172
0.082263 0.044731 0.03278845 0.09205943 0.044490818 0.07231743 0.018844804 0.011482236
0.010402451 0.0074701575 0.008238642 -0.015084119 -0.09449957 0.03449716 -0.012599855 0.0433651
-0.065103486 -0.12296982 -0.05975231 -0.116280824 -0.030610913 0.023434605 0.009476194 -0.071797386
0.042690646 0.030357603 -0.11925396 0.0019349924 -0.048016008 0.00062533544 -0.1015416 -0.07967237
0.021787548 0.0252709 -0.03321759 0.032870073 -0.059668384 -0.03654888 -0.009889587 -0.10410196
-0.10139381 -0.02850155 0.023770452 0.008032017 0.024245381 0.0015048563 -0.05167226 -0.08917208
0.05405435 -0.056326304 -0.0055649965 0.06472788 -0.029158363 -0.079309575 -0.11799983 -0.0051505063
0.02387165 -0.06988223 -0.014646392 0.012129742 0.03601972 0.019365594 0.028380407 0.049848758
0.0051870355 -0.0051636514 0.0053242664 -0.0027025556 0.019014478 -0.09785949 0.057162743 -0.038072396
-0.11556741 -0.020435898 -0.07236594 -0.073157355 -0.055378623 0.001994993 -0.09667535 -0.0317605
-0.058762096 0.021246726 -0.11103887 0.019848535 0.0015042734 -0.082103826 -0.022321306 -0.09162148
0.01164403 -0.084275804 0.023947451 -0.0735447 -0.03397684 -0.08077545 -0.11294142 -0.0026681377
-0.08828567 0.061594255 -0.084993266 -0.08426006 -0.07089007 0.040325034 0.060211565 -0.10389099
-0.06944672 -0.08245587 0.00041062245 0.026339112 -0.04429583 -0.099922806 -0.012066477 -0.0062422943
-0.071920946 0.012709696 0.024614496 0.039612025 -0.063724145 -0.06675118 -0.055478573 -0.07644469
-0.0028191046 0.0629137 -0.0068219425 -0.07586923 0.01623004 0.0434162 -0.09169093 0.005206376
-0.07006257 0.030481571 -0.068668224 -0.10414122 0.037920024 0.010486005 -0.043360844 0.050227746
-0.031189559 -5.187652e-05 0.016463138 -0.09384339 -0.07404301 -0.04656513 0.059289936 0.007947288
0.00888259 -0.0019230205 -0.036273327 -0.08297551 -0.009943141 -0.086050764 0.013975456 0.014738599
0.023450607 -0.069154575 -0.108799346 0.0035786014 -0.003384169 -0.13201846 -0.06561656 0.046980802
0.011981128 0.04015866 0.0026911332 0.0553425 0.003174069 0.000582527 0.017403396 0.0010139806
00000000: c659 483d 306d 013d ee9d 713c 8907 183d
00000010: 670d 8a3d 1731 983d 4bf4 dc3d 5145 843d
00000020: 1ba7 03bd 5072 b13b 1255 64ba c37b 6e3c
00000030: b8bc 6d3c 7d4c acba 8cf6 d53d 1da5 413d
00000040: 6c76 893d a60a 933c 1a50 ca3d 8e1b c83d
00000050: 0b8a 17bd 2266 8ebc 53a6 453d 0b2e dfbb
00000060: 17ac ad3c 8496 1bbc 3b6a 8bbc 633f a23d
00000070: 6076 c63d 6500 9a3d e0df 8c3c 5107 403c
00000080: 7d57 153b 9ef1 133c 0f60 bd3b 50eb d93d
00000090: 90ad d63c 9cee a03c 43c6 923c 89a2 d2bc
000000a0: 9d18 5dbc 0880 d13d 36ef b93d 3f1a 853c
000000b0: d764 7fbc f1d3 843d 75e0 d4ba c257 233c
000000c0: abf5 82bc 7f26 783c 0f4f 2f3a df6d c63c
000000d0: 3017 c7bc a7d0 cc3c 7283 de3c ba73 beba
000000e0: 889a 883c 6f71 6a3d 9c01 a73c 2d02 70bc
000000f0: 0612 993d be54 43bc 8892 0a3e d1e0 a53d
00000100: 9e99 843d ebce 193c edd9 0b3d 56e8 133d
00000110: f45f 103d 8832 a03c 6f00 ed3d ab12 e33b
00000120: 4ada 14bd 9162 853d 5e53 32bd be22 8a3b
00000130: 2fe8 ee3c d2de 623d 4ef5 13bb 7130 3b3d
00000140: 50e0 ca3d 0d28 7d3c 81a3 463d 679c 1fbc
00000150: 08ac 9c3d 9b35 233d b51a bd3d 59dd 683d
00000160: 8179 a83d da37 373d 2f4d 063d a889 bc3d
00000170: 013c 363d 291b 943d 6b60 9a3c fd1f 3c3c
00000180: 0b6f 2a3c 39c8 f43b 5efb 063c 6123 77bc
00000190: fe88 c1bd e54c 0d3d 9f6f 4ebc 9a9f 313d
000001a0: fa54 85bd 9ad7 fbbd d7be 74bd a424 eebd
000001b0: bdc3 fabc eef9 bf3c 0a42 1b3c 820a 93bd
000001c0: 63dc 2e3d 82b0 f83c 6c3b f4bd 929f fd3a
000001d0: 6fac 44bd 8ded 233a 0bf5 cfbd 442b a3bd
000001e0: cd7b b23c eb04 cf3c 2b0f 08bd c5a2 063d
000001f0: d666 74bd 47b4 15bd ef07 22bc 6933 d5bd
00000200: 8fa7 cfbd 157c e9bc 40ba c23c b998 033c
00000210: 409e c63c 993e c53a 4ba6 53bd da9f b6bd
00000220: 1868 5d3d 69b6 66bd 935a b6bb 0d90 843d
00000230: 85dd eebc 0f6d a2bd e5a9 f1bd 94c5 a8bb
00000240: 7b8e c33c 6a1e 8fbd 6cf7 6fbc d3bb 463c
00000250: 6a89 133d 98a4 9e3c 077e e83c 362e 4c3d
00000260: 02f8 a93b d933 a9bb 2f77 ae3b 5c1d 31bb
00000270: 40c4 9b3c 8e6a c8bd 7b23 6a3d cdf1 1bbd
00000280: 9bae ecbd 2f69 a7bc 9834 94bd 86d3 95bd
00000290: b2d4 62bd 6ebe 023b bafd c5bd 4c17 02bd
000002a0: 86b0 70bd 9d0d ae3c 5968 e3bd 6599 a23c
000002b0: 0a2b c53a 0d26 a8bd 2cdb b6bc 0ba4 bbbd
000002c0: 9ac6 3e3c cb98 acbd 722d c43c 9b9e 96bd
000002d0: 4d2b 0bbd 996d a5bd d54d e7bd ecdb 2ebb
000002e0: 1ecf b4bd 424a 7c3d f310 aebd 8a90 acbd
000002f0: d02e 91bd dd2b 253d 67a0 763d cdc4 d4bd
00000300: 153a 8ebd a0de a8bd d048 d739 1fc5 d73c
00000310: 8b6f 35bd 54a4 ccbd 79b2 45bc 298c ccbb
00000320: 4a4b 93bd 543c 503c 57a4 c93c 3840 223d
00000330: ce81 82bd d8b4 88bd 803d 63bd 098f 9cbd
00000340: bac0 38bb e6d8 803d 9a8a dfbb 5461 9bbd
00000350: dcf4 843c 2fd5 313d 74c8 bbbd 3f9a aa3b
00000360: f77c 8fbd 7db4 f93c eda1 8cbd fe47 d5bd
00000370: 0752 1b3d 7ecd 2b3c 249b 31bd 9cbb 4d3d
00000380: 3f81 ffbc fd95 59b8 b4dd 863c f730 c0bd
00000390: dda3 97bd 14bb 3ebd 01da 723d 5835 023c
000003a0: 4888 113c dc0d fcba 5793 14bd 10ef a9bd
000003b0: 8ee8 22bc 623b b0bd 50f9 643c 2a7a 713c
000003c0: 7d1b c03c eaa0 8dbd 31d2 debd f886 6a3b
000003d0: efc8 5dbb d92f 07be fa61 86bd f16e 403d
000003e0: 7e4c 443c 687d 243d b95d 303b d1ae 623d
000003f0: 0b04 503b bab4 183a 9191 8e3c 8be7 843a

fc.2.bias f4 [100]
0.03536696 -0.029911093 -0.029376894 0.03533634 -0.029296614 0.03929119 0.034788582 0.038886517
0.032532133 0.035402544 0.03713686 0.03828081 -0.03486706 -0.027697045 0.035539314 0.034120917
-0.027360475 0.02920591 -0.028435921 -0.03329214 -0.03381761 -0.030390717 0.03708099 0.03340741
0.033632006 0.033275113 -0.029184256 0.039706733 -0.030334534 0.036083255 0.03412024 -0.03221529
0.036488 0.037411105 0.034014463 0.037931416 0.036698017 -0.03448664 -0.03349495 0.039245658
0.03236882 0.034130763 -0.0355058 0.039683893 -0.034330584 -0.033071388 0.036611814 0.031390578
-0.031252682 -0.031944446 -0.030917447 -0.02810484 -0.036298975 -0.028920518 0.038694818 0.03297724
-0.030251916 0.036086213 0.030013517 -0.03296282 0.03455488 0.036831103 0.03163159 -0.029324282
-0.030048769 0.034699637 0.03975157 0.039042246 0.029502247 -0.029470064 -0.03148349 0.03194573
0.035866037 0.03383442 -0.028691744 0.032486465 0.032679886 0.038270317 0.032197673 -0.03416342
0.039117232 0.03845005 -0.03337431 0.033427626 -0.030855995 0.0378003 -0.029499412 -0.031142086
0.03829672 0.037821397 0.038835753 -0.03326954 -0.033632588 0.0366967 -0.02654508 0.033797473
-0.032704793 0.034113012 -0.031707052 -0.03294212
00000000: f2dc 103d 1c08 f5bc d0a7 f0bc d7bc 103d
00000010: 74ff efbc cdef 203d 797e 0e3d 7847 1f3d
00000020: 6a40 053d 4202 113d d21c 183d 57cc 1c3d
00000030: c3d0 0ebd eae4 e2bc ac91 113d 60c2 0b3d
00000040: 1323 e0bc 3c41 ef3c 73f2 e8bc 575d 08bd
00000050: 5684 0abd f4f5 f8bc 3ce2 173d 35d6 083d
00000060: b7c1 093d 7c4b 083d d213 efbc 87a3 223d
00000070: 2180 f8bc 09cc 133d aac1 0b3d 2ef4 03bd
00000080: 7174 153d 633c 193d c052 0b3d f95d 1b3d
00000090: a950 163d dd41 0dbd 0032 09bd 0ec0 203d
000000a0: 2b95 043d b3cc 0b3d 886e 11bd 948b 223d
000000b0: 3a9e 0cbd dd75 07bd 45f6 153d 6893 003d
000000c0: d002 00bd 2ed8 02bd 9646 fdbc 1f3c e6bc
000000d0: 3cae 14bd b9ea ecbc 757e 1e3d 2413 073d
000000e0: ded2 f7bc 23cf 133d e8de f53c 0604 07bd
000000f0: 6b89 0d3d 36dc 163d 2090 013d 7a39 f0bc
00000100: d628 f6bc 3521 0e3d 8bd2 223d c3ea 1f3d
00000110: b2ae f13c 346b f1bc d5f4 00bd 87d9 023d
00000120: 44e8 123d f695 0a3d f30a ebbc 8710 053d
00000130: 58db 053d 56c1 1c3d b5e1 033d f1ee 0bbd
00000140: 6439 203d cd7d 1d3d 80b3 08bd 68eb 083d
00000150: b6c5 fcbc 7dd4 1a3d c0a8 f1bc b01d ffbc
00000160: 05dd 1c3d 9cea 1a3d 3d12 1f3d a445 08bd
00000170: 53c2 09bd 474f 163d 1175 d9bc 386f 0a3d
00000180: 76f5 05bd 16ba 0b3d 41df 01bd 51ee 06bd

fc.3.weight f4 [100, 100]
0.075085066 -0.017729733 -0.030609109 0.05789703 -0.014775167 0.09709144 0.0492236 0.09633904
0.061502293 0.06871655 0.026367212 0.05882726 -0.01949467 -0.03258378 0.035516173 0.050798986
-0.004164516 0.05577603 -0.014428001 -0.04741203 -0.04787554 -0.025881844 0.07212884 0.030331196
0.09586269 0.04664119 -0.044256747 0.09049401 -0.021593537 0.08269278 0.047583982 -0.052426644
0.0601792 0.0678882 0.007764344 0.09749947 0.09099063 -0.03979355 -0.015274423 0.10150958
0.06402206 0.05406484 -0.033513017 0.060706746 -0.0128052365 -0.0062102317 0.045498423 0.038601726
-0.01942094 -0.07449178 -0.037967417 -0.018580183 -0.05329231 -0.013431736 0.066427134 0.054419503
-0.048241775 0.06403855 0.03462012 -0.01501696 0.04230414 0.12250033 0.09538794 -0.00926212
-0.01003352 0.030334797 0.056733783 0.08283259 0.061376534 -0.015201162 -0.03457638 0.0745829
0.058475528 0.01578755 -0.028299399 0.056427393 0.0473001 0.10786147 0.09059706 -0.05915238
0.0893386 0.06580723 -0.042913202 0.045025438 -0.025812494 0.06057411 -0.0546511 -0.064947635
0.0749682 0.068667926 0.10357544 -0.055160005 -0.04711159 0.06395809 -0.048586413 0.07037821
-0.037974477 0.07541849 -0.023829283 -0.04361827 -0.072226204 0.07936865 0.03145021 -0.031344946
0.053260475 -0.024369385 -0.09115549 -0.048011422 -0.043262333 -0.03629491 -0.04437444 -0.06547239
0.07472794 0.066224545 -0.0886164 -0.08406966 0.06602204 -0.10047292 0.06039587 0.068950385
0.054167747 0.05433689 -0.05143902 -0.06022793 -0.029504161 -0.036736898 0.083625965 -0.054211352
0.062833 -0.04765858 -0.001080085 0.085706584 -0.061070323 -0.05007499 -0.08796455 -0.06846386
-0.049260277 0.046901405 0.059870403 -0.056900643 -0.05460041 -0.06183668 0.07055085 -0.063703254
0.0905873 0.07408696 -0.058858506 -0.058403257 0.03489577 0.06380343 0.087796435 0.038776968
0.059384473 0.060852114 -0.06518851 -0.0052109947 0.055716544 -0.05453113 -0.046371274 0.05599811
-0.07628599 -0.060619254 -0.06246592 0.08590311 0.08646616 -0.053629488 -0.05484922 -0.075140126
-0.06975145 0.07060345 0.04565245 -0.05080866 -0.05259228 -0.09135014 0.044800308 -0.039607007
-0.053349815 -0.017959816 -0.036144674 0.0426514 -0.05944104 -0.08352444 0.039917767 -0.06769903
0.085452564 -0.080284685 0.08070348 0.05491976 -0.07684278 -0.06572954 -0.07460576 0.09653419
0.042221956 -0.074972 0.06895849 -0.078186385 0.06305474 -0.042831734 0.09350792 0.059459377
-0.06714402 0.057989564 0.05615033 -0.06725141 0.05179397 -0.068512045 -0.048266776 -0.06568868
-0.011659716 -0.02939008 -0.093504205 -0.07483611 0.039422613 0.102723144 -0.037598725 -0.06647559
0.041733716 -0.059409562 0.06861165 0.11059767 0.0731698 0.064711995 -0.054949783 -0.05358478
-0.035458937 -0.030657172 0.04101606 -0.046681236 0.06490172 -0.08185048 -0.0822227 0.078526944
-0.087536454 -0.056354035 -0.09340164 -0.053186204 -0.072641656 0.055794373 0.0764785 -0.052937455
-0.025590578 -0.04278384 0.04718787 -0.098800175 0.056671124 0.07802278 -0.024591671 -0.05750963
0.08089241 0.08555959 0.04317227 0.062871136 0.058054227 0.064097546 -0.06409228 -0.07573496
00000000: 33c6 993d f23d 91bc f4bf fabc 7025 6d3d
00000010: 8b13 72bc e0d7 c63d b09e 493d 674d c53d
00000020: d4e9 7b3d 43bb 8c3d 0d00 d83c daf4 703d
00000030: 49b3 9fbc 9276 05bd 6879 113d 9912 503d
00000040: 7e76 88bb 6875 643d 6c63 6cbc 1e33 42bd
00000050: 2419 44bd 2906 d4bc 49b8 933d 2179 f83c
00000060: a853 c43d d50a 3f3d 9046 35bd ec54 b93d
00000070: eee4 b0bc d55a a93d 6ce7 423d 52bd 56bd
00000080: 777e 763d f808 8b3d 0a6c fe3b cdad c73d
00000090: 4c59 ba3d 90fe 22bd 9341 7abc 41e4 cf3d
000000a0: ff1d 833d 1873 5d3d f244 09bd a3a7 783d
000000b0: 0ecd 51bc 337f cbbb 8e5c 3a3d d81c 1e3d
000000c0: aa18 9fbc 258f 98bd b983 1bbd 7835 98bc
000000d0: 0a49 5abd c910 5cbc f30a 883d fce6 5e3d
000000e0: 2b99 45bd a526 833d d4cd 0d3d b209 76bc
000000f0: 1b47 2d3d 74e1 fa3d c15a c33d 26c0 17bc
00000100: a263 24bc ae80 f83c af61 683d 22a4 a93d
00000110: f665 7b3d 4b0e 79bc f69f 0dbd ebbe 983d
00000120: 0984 6f3d e454 813c 24d4 e7bc 6920 673d
00000130: c0bd 413d 79e6 dc3d f48a b93d c449 72bd
00000140: 28f7 b63d f1c5 863d c1c5 2fbd 986c 383d
00000150: b974 d3bc 8f1c 783d d5d9 5fbd 4403 85bd
00000160: ed88 993d c5a1 8c3d 5c1f d43d 75ef 61bd
00000170: 15f8 40bd 76fc 823d 8c02 47bd 7322 903d
00000180: 208b 1bbd 0275 9a3d a135 c3bc 12a9 32bd
00000190: 55eb 93bd 088c a23d efd1 003d 8f63 00bd
000001a0: a827 5a3d 4ea2 c7bc bbaf babd a0a7 44bd
000001b0: d833 31bd f9a9 14bd f9c1 35bd 6316 86bd
000001c0: f60a 993d bca0 873d 847c b5bd b72c acbd
000001d0: 9036 873d bfc4 cdbd a961 773d dc35 8d3d
000001e0: 00df 5d3d 5c90 5e3d b9b1 52bd 90b1 76bd
000001f0: b6b2 f1bc 6e79 16bd 1744 ab3d b90c 5ebd
00000200: 97ae 803d a535 43bd a491 8dba ef86 af3d
00000210: e024 7abd 6f1b 4dbd c226 b4bd c836 8cbd
00000220: 25c5 49bd b01b 403d ab3a 753d a610 69bd
00000230: aea4 5fbd 7548 7dbd f77c 903d da76 82bd
00000240: d685 b93d e7ba 973d 9e15 71bd 4138 6fbd
00000250: deee 0e3d 5fab 823d 9ece b33d 99d4 1e3d
00000260: 223d 733d 1140 793d 8e81 85bd fec0 aabb
00000270: 0837 643d 095c 5fbd ceef 3dbd 465e 653d
00000280: d43b 9cbd e54b 78bd 44dc 7fbd f8ed af3d
00000290: 2c15 b13d 98aa 5bbd 93a9 60bd 11e3 99bd
000002a0: d9d9 8ebd 8b98 903d 10fe 3a3d be1c 50bd
000002b0: 016b 57bd c815 bbbd 8780 373d f53a 22bd
000002c0: 5685 5abd 7720 93bc 700c 14bd 3cb3 2e3d
000002d0: 7378 73bd dd0e abbd d080 233d caa5 8abd
000002e0: c101 af3d 4c6c a4bd de47 a53d 8bf3 603d
000002f0: bf5f 9dbd 369d 86bd e8ca 98bd b8b3 c53d
00000300: eef0 2c3d ec8a 99bd 1c3a 8d3d 2f20 a0bd
00000310: d822 813d 5470 2fbd 1581 bf3d ad8b 733d
00000320: ce82 89bd 7786 6d3d e3fd 653d 1bbb 89bd
00000330: ea25 543d 0b50 8cbd 62b3 45bd c987 86bd
00000340: 6508 3fbc 77c3 f0bc 227f bfbd ad43 99bd
00000350: 9b79 213d 8360 d23d 1f01 1abd 5b24 88bd
00000360: f9f0 2a3d 7157 73bd 4484 8c3d 0881 e23d
00000370: 0cda 953d b987 843d 0613 61bd b77b 5bbd
00000380: 643d 11bd c024 fbbc 7500 283d d334 3fbd
00000390: 31eb 843d 39a1 a7bd 6064 a8bd bcd2 a03d
000003a0: 5046 b3bd 7dd3 66bd 5c49 bfbd c7d9 59bd
000003b0: 26c5 94bd a488 643d c3a0 9c3d f2d4 58bd
000003c0: 55a3 d1bc 1c3e 2fbd 1148 413d bf57 cabd
000003d0: fb1f 683d 68ca 9f3d 7974 c9bc 388f 6bbd
000003e0: ebaa a53d de39 af3d 68d5 303d 95c2 803d
000003f0: 45ca 6d3d 9345 833d d042 83bd ee1a 9bbd

fc.3.bias f4 [100]
0.06414233 -0.0153458165 -0.014019525 0.05433843 0.03913325 0.068250805 0.047371883 -0.015266181
0.06060402 0.0441255 0.039759986 0.038991652 0.034495953 -0.013186186 0.043860782 -0.016529346
0.035176653 -0.014472562 -0.020936623 -0.012989047 0.054455005 0.045009285 -0.019003022 0.03525468
0.02572361 -0.010272399 0.04599556 0.059746947 -0.017600512 -0.017165393 0.03071527 0.046963066
0.036194686 -0.01674183 -0.01848262 0.037624992 -0.010392457 0.037900716 -0.01819908 -0.01598273
0.04538381 -0.013658385 0.047237236 0.05021373 0.041411728 -0.013534581 0.049148805 0.035194553
-0.01067652 0.034563854 -0.014879709 -0.014801079 0.038021788 -0.0129627865 0.052650347 0.040703986
0.059265647 0.031836536 0.044080965 -0.014097829 0.02581563 -0.019193592 0.042882815 0.048338737
0.036112852 0.05595161 0.0406546 0.04431622 0.046781026 -0.017604943 0.036135413 -0.020449575
-0.020232564 0.061377715 -0.010904842 -0.017098434 -0.013382839 -0.009090858 -0.013843094 0.05629319
-0.01832629 0.061079603 -0.01217419 -0.016619269 -0.015364974 -0.013430176 -0.011697397 0.05215264
-0.013165509 0.04931305 0.040189084 -0.010921088 -0.016244099 -0.011908386 0.032275844 -0.011797861
-0.020938728 0.032949425 0.04675095 0.037461568
00000000: 0e5d 833d 056d 7bbc 26b2 65bc f991 5e3d
00000010: 304a 203d 14c7 8b3d 0509 423d 011f 7abc
00000020: ec3b 783d f1bc 343d 5edb 223d b6b5 1f3d
00000030: a14b 0d3d df0a 58bc 5da7 333d 8d68 87bc
00000040: 6515 103d 531e 6dbc 4883 abbc 03d0 54bc
00000050: 360c 5f3d a85b 383d 3aac 9bbc 3667 103d
00000060: 52ba d23c 904d 28bc d765 3c3d 37b9 743d
00000070: f32e 90bc 709e 8cbc 979e fb3c 585c 403d
00000080: e140 143d 2a26 89bc dd68 97bc aa1c 1a3d
00000090: 2045 2abc c83d 1b3d 3d16 95bc 37ee 82bc
000000a0: 60e4 393d 6bc7 5fbc d57b 413d eaac 4d3d
000000b0: 589f 293d 26c0 5dbc 4250 493d 2a28 103d
000000c0: 92ec 2ebc d492 0d3d 06ca 73bc 3a80 72bc
000000d0: bcbc 1b3d de61 54bc e4a7 573d 39b9 263d
000000e0: 89c0 723d 0767 023d 3e8e 343d 95fa 66bc
000000f0: 4d7b d33c e13b 9dbc e4a5 2f3d d7fe 453d
00000100: 12eb 133d 842d 653d 7085 263d ed84 353d
00000110: 769d 3f3d 3e38 90bc ba02 143d de85 a7bc
00000120: c3be a5bc 3367 7b3d 39aa 32bc 0412 8cbc
00000130: b243 5bbc d2f1 14bc 25ce 62bc b093 663d
00000140: 0421 96bc 9b2e 7a3d 4176 47bc 2225 88bc
00000150: 5fbd 7bbc 3e0a 5cbc 70a6 3fbc 029e 553d
00000160: 26b4 57bc 7bfc 493d 4f9d 243d 5dee 32bc
00000170: 5812 85bc 641b 43bc ad33 043d d14b 41bc
00000180: b287 abbc faf5 063d ed7d 3f3d 4d71 193d

fc.4.weight f4 [100, 100]
0.14030617 -0.11590229 -0.091777824 0.12380699 0.15993547 0.19040412 0.14444172 -0.14064458
0.17774545 0.1202351 0.14206669 0.14755657 0.1205851 -0.09292827 0.1586356 -0.16962117
0.087824225 -0.0755487 -0.09309157 -0.0887709 0.11250244 0.18399607 -0.10882494 0.10839877
0.10503442 -0.09119468 0.15278046 0.14085796 -0.10606231 -0.102041535 0.13616781 0.12156209
0.1191071 -0.11408834 -0.11480129 0.17135327 -0.09494906 0.13198127 -0.12607935 -0.14272672
0.13302961 -0.10710916 0.1253667 0.087716624 0.15195607 -0.122535795 0.14289257 0.116136774
-0.12684722 0.10913276 -0.12833779 -0.07266812 0.1179398 -0.103438176 0.15227735 0.13052973
0.12861077 0.13961092 0.14240257 -0.10679111 0.1616073 -0.11975831 0.1131812 0.18014711
0.09177523 0.1678568 0.13512123 0.13130528 0.12138428 -0.111049026 0.16718887 -0.108257845
-0.123418644 0.109973 -0.1249186 -0.07529809 -0.12049051 -0.105534166 -0.10997787 0.17965327
-0.08292716 0.13894589 -0.11007683 -0.10189801 -0.123619914 -0.10331841 -0.12817313 0.1306958
-0.1168197 0.10647943 0.1392968 -0.11378241 -0.09293644 -0.11796713 0.15804088 -0.064235
-0.16385862 0.1332028 0.134364 0.09709385 0.14771003 -0.11897286 -0.12421523 0.13099568
0.13566673 0.1736433 0.14991882 -0.08887701 0.1586135 0.12251909 0.15113573 0.14850901
0.12717111 -0.093102396 0.16157186 -0.1486735 0.13234371 -0.08686613 -0.1298989 -0.10495412
0.13497475 0.15635829 -0.10756248 0.13911144 0.16389532 -0.07801209 0.15611973 0.14256835
-0.093627736 -0.10511927 0.15450168 0.11946642 0.07883239 -0.106934436 -0.12744713 0.113654554
-0.13277084 0.1567489 -0.13630266 -0.14250451 0.124862425 -0.13799477 0.09277524 0.14740948
0.1004648 -0.09862656 0.14933503 0.1515365 -0.07093094 0.14213455 -0.10358156 -0.13822414
0.14437562 -0.13892806 0.11934001 0.15339185 0.12628849 0.1068125 0.14501405 -0.11487108
0.112292334 -0.10584772 0.102447964 0.10182367 0.12833278 0.14652264 0.11458576 0.12902996
0.15925016 -0.13694012 0.10694175 -0.1203594 -0.14165081 0.13144605 -0.15149596 -0.08529217
-0.07572766 -0.12810102 -0.119929865 0.1670142 -0.09867515 0.106011294 -0.09268228 -0.097864516
-0.12383735 -0.09337037 -0.10991785 0.13496737 -0.103148885 0.111675516 0.13772911 -0.11956875
-0.10642033 -0.091693096 0.127558 -0.09075992 -0.13025637 0.1655675 0.1230108 0.15009971
-0.009356912 0.03204143 0.06899293 0.028194979 0.018482877 0.04303949 0.020813202 0.059080433
-0.00884346 0.025904873 -0.005066499 -0.006210912 -0.0030601588 0.011494542 0.00021396244 0.018526161
0.0042079673 0.038144853 0.029760584 0.019864758 0.007370516 0.05018012 0.047630597 0.04243515
0.0051279976 0.028980868 0.009837657 0.016962193 0.04583572 0.03775519 0.029759837 0.01842353
-0.013126997 0.019668303 0.06849675 -0.018715464 0.07342773 0.005338208 -0.0017474828 0.026040614
-0.0016453644 0.010875665 0.028022263 -0.0064005735 0.009522696 0.019866483 0.010076388 0.031387802
0.06056606 0.024474764 0.044743784 0.05689535 -0.032783385 0.011161849 0.00039972248 0.0067549096
00000000: 6cac 0f3e 2e5e edbd 03f6 bbbd 858e fd3d
00000010: 20c6 233e 4cf9 423e 88e8 133e 2205 10be
00000020: e702 363e d23d f63d ee79 113e 1219 173e
00000030: 52f5 f63d 2d51 bebd 5f71 223e 2cb1 2dbe
00000040: 30dd b33d 47b9 9abd cba6 bebd 85cd b5bd
00000050: ae67 e63d 7769 3c3e 9cdf debd 2d00 de3d
00000060: 491c d73d 47c4 babd 7b72 1c3e 123d 103e
00000070: 3237 d9bd 27fb d0bd 936f 0b3e 8cf5 f83d
00000080: 6cee f33d 26a7 e9bd f01c ebbd 3b77 2f3e
00000090: a774 c2bd 1926 073e f21a 01be f426 12be
000000a0: ea38 083e 0c5c dbbd 2160 003e c6a4 b33d
000000b0: 5f9a 1b3e 0cf4 fabd 6e52 123e 1ed9 ed3d
000000c0: 3de4 01be ff80 df3d fb6a 03be 06d3 94bd
000000d0: 6c8a f13d 65d7 d3bd 98ee 1b3e 96a9 053e
000000e0: 8bb2 033e 2af6 0e3e fbd1 113e 4cb5 dabd
000000f0: 627c 253e d843 f5bd 8ccb e73d 7c78 383e
00000100: a7f4 bb3d a7e2 2b3e 385d 0a3e e474 063e
00000110: 5298 f83d ac6d e3bd 8f33 2b3e 4ab6 ddbd
00000120: eac2 fcbd 8639 e13d 53d5 ffbd e335 9abd
00000130: bac3 f6bd 4c22 d8bd 143c e1bd 07f7 373e
00000140: b7d5 a9bd d547 0e3e f66f e1bd e7af d0bd
00000150: 702c fdbd 9a98 d3bd d13f 03be 1fd5 053e
00000160: 2b3f efbd e311 da3d d2a3 0e3e c106 e9bd
00000170: 7655 bebd c098 f1bd 78d5 213e a48d 83bd
00000180: 8eca 27be 5166 083e b796 093e 24d9 c63d
00000190: 4c41 173e 0ba8 f3bd 8e64 febd bb23 063e
000001a0: 38ec 0a3e 8dcf 313e 5284 193e 2605 b6bd
000001b0: 946b 223e 4aeb fa3d 53c3 1a3e bf12 183e
000001c0: 2539 023e 78ac bebd 1873 253e de3d 18be
000001d0: 1c85 073e dfe6 b1bd 3804 05be 30f2 d6bd
000001e0: d236 0a3e 631c 203e b849 dcbd 3b73 0e3e
000001f0: 2dd4 273e cdc4 9fbd dadd 1f3e 70fd 113e
00000200: e6bf bfbd c648 d7bd b035 1e3e cfaa f43d
00000210: e072 a13d 7100 dbbd 8081 02be b8c3 e83d
00000220: 14f5 07be c982 203e ed92 0bbe b4ec 11be
00000230: dfb7 ff3d 804e 0dbe f200 be3d 83f2 163e
00000240: 7dc0 cd3d b9fc c9bd 48eb 183e 622c 1b3e
00000250: 3e44 91bd b88b 113e 9222 d4bd a18a 0dbe
00000260: 34d7 133e 2843 0ebe 8968 f43d c112 1d3e
00000270: c551 013e 83c0 da3d 907e 143e 8741 ebbd
00000280: 86f9 e53d b0c6 d8bd 3dd0 d13d ee88 d03d
00000290: ab69 033e 080a 163e f0ab ea3d 6e20 043e
000002a0: 7912 233e 083a 0cbe 4704 db3d fd7e f6bd
000002b0: e90c 11be cb99 063e c221 1bbe a9ad aebd
000002c0: 1a17 9bbd ea2c 03be ca9d f5bd c505 2b3e
000002d0: 3216 cabd 731c d93d 35d0 bdbd 316d c8bd
000002e0: 709e fdbd f738 bfbd 9c1c e1bd e334 0a3e
000002f0: b93f d3bd 22b6 e43d dc08 0d3e 76e0 f4bd
00000300: e7f2 d9bd 97c9 bbbd 909e 023e 56e0 b9bd
00000310: ed61 05be 878a 293e 16ed fb3d bdb3 193e
00000320: bc4d 19bc e03d 033d 2a4c 8d3d 28f9 e63c
00000330: 6769 973c 2d4a 303d 7380 aa3c 53fe 713d
00000340: 29e4 10bc 7536 d43c e004 a6bb e884 cbbb
00000350: f28c 48bb 9a53 3c3c 1b5b 6039 2dc4 973c
00000360: fde2 893b c73d 1c3d 78cc f33c 6bbb a23c
00000370: 5f84 f13b ab89 4d3d 4d18 433d 7bd0 2d3d
00000380: c308 a83b 4969 ed3c 202e 213c 4cf4 8a3c
00000390: 3cbe 3b3d 30a5 1a3d e7ca f33c f1ec 963c
000003a0: 9e12 57bc 6c1f a13c 0648 8c3d 2c51 99bc
000003b0: 4761 963d 22ec ae3b cb0b e5ba 2053 d53c
000003c0: 45a9 d7ba d82f 323c f28e e53c e7bb d1bb
000003d0: 1505 1c3c 09bf a23c 6f17 253c 7f90 003d
000003e0: 1e14 783d 4d7f c83c 4245 373d 190b 693d
000003f0: df47 06bd 30e0 363c d891 d139 4a58 dd3b

fc.4.bias f4 [100]
0.030571869 -0.010345035 0.035025384 0.03385949 0.028214397 0.013325899 0.028411726 0.03486043
0.03763668 0.053170826 0.03590358 0.049546015 0.036922943 0.040109765 0.023975108 0.05180579
0.052529797 0.08120662 0.03959601 0.034785286 0.019689323 0.034850266 0.030777032 0.0089849755
0.0490554 0.032511048 0.0402793 0.027734246 0.07581326 0.03811976 0.030578665 0.03620112
0.037783507 0.036885332 0.042653576 0.023558103 0.05047235 0.012781954 0.019340958 0.05214697
-0.015574089 0.04105125 0.012411186 0.05309396 0.027732233 0.018116375 0.07184617 0.021800997
0.05173759 0.053782392 -0.0023039228 0.08853005 0.010809728 0.045654546 0.010990703 0.04900797
0.050348185 -0.0022020217 0.037406918 0.039999347 0.01226214 0.029889222 0.029998805 0.03407123
0.02647116 0.0320497 0.03270653 0.014518559 0.06430564 0.03011368 0.036686014 -0.049700372
0.028682813 0.042232554 0.011599268 0.03294652 0.027894968 0.032136094 0.04958537 0.03954691
0.056128588 0.048708938 0.035900243 -0.0003782015 0.03685258 0.05074565 0.039793856 0.048739612
0.04389107 0.004491141 0.005374351 0.0012900701 0.031831335 -0.010069703 0.0301933 0.028090661
0.039639045 0.011362423 0.015118068 0.010058305
00000000: db71 fa3c 397e 29bc c776 0f3d 40b0 0a3d
00000010: e121 e73c df54 5a3c b5bf e83c cfc9 0e3d
00000020: eb28 1a3d a7c9 593d a20f 133d c3f0 4a3d
00000030: 833c 173d 234a 243d 7267 c43c 4f32 543d
00000040: 7c29 573d a84f a63d 6d2f 223d 047b 0e3d
00000050: 814b a13c 27bf 0e3d 1d20 fc3c b835 133c
00000060: 51ee 483d 4e2a 053d e8fb 243d ee32 e33c
00000070: fc43 9b3d 7723 1c3d 1c80 fa3c a047 143d
00000080: e1c2 1a3d 1315 173d 84b5 2e3d ecfc c03c
00000090: 18bc 4e3d 676b 513c ee70 9e3c 1098 553d
000000a0: 772a 7fbc 5b25 283d 4958 4b3c 0d79 593d
000000b0: b52e e33c cb68 943c 1624 933d 0198 b23c
000000c0: ccea 533d ed4a 5c3d 69fd 16bb 3e4f b53d
000000d0: 491b 313c 4300 3b3d 5912 343c 95bc 483d
000000e0: e639 4e3d cb4f 10bb ff37 193d 5bd6 233d
000000f0: 25e7 483c 3eda f43c 0ec0 f53c 468e 0b3d
00000100: 0cda d83c 8c46 033d 48f7 053d 40df 6d3c
00000110: adb2 833d f7b0 f63c 1344 163d 9e92 4bbd
00000120: 38f8 ea3c 0bfc 2c3d db0a 3e3c eef2 063d
00000130: fd83 e43c 23a1 033d 071a 4b3d f1fb 213d
00000140: 17e7 653d 0683 473d 220c 133d 5949 c6b9
00000150: bbf2 163d acda 4f3d e2fe 223d 30a3 473d
00000160: 1fc7 333d 6c2a 933b 531b b03b 9217 a93a
00000170: 9361 023d 65fb 24bc f157 f73c 631e e63c
00000180: 8d5c 223d 7529 3a3c c6b1 773c 97cb 243c
