results/Smoothed_InfoNCE_GT_dim20_sample1000.pt (torch, 167589 bytes, 5 tensors)

fc.0.weight f4 [100, 40]
0	0xbdb9d8a6	-0.090745255
1	0x3e311ed6	0.17296919
2	0xbd3199fa	-0.043359734
3	0x3bae908a	0.005327289
4	0xbe3dae67	-0.1852356
5	0x3e095aa9	0.1341349
6	0x3d810f13	0.06301703
7	0xbe1a6954	-0.15079242
8	0xbda96cee	-0.0827273
9	0xbaf963b2	-0.0019026904
10	0x3d84c8e7	0.064836316
11	0xbd364d17	-0.044507112
12	0x3e4bb060	0.198915
13	0x3d8ccee8	0.06875402
14	0xbd7abcaf	-0.0612151
15	0x3d8b00f0	0.06787288
16	0xbe005116	-0.12530932
17	0x3dc97c8c	0.098382086
18	0xbe14299c	-0.14468998
19	0xbe94acfc	-0.29038227
20	0xbcaaefaf	-0.020866243
21	0x3e218c8a	0.15776268
22	0xbcbac975	-0.02280114
23	0x3d545d04	0.05184652
24	0xbe32bfd3	-0.17455988
25	0x3e30c5e5	0.17262991
26	0x3d433b84	0.04766418
27	0xbe7f9de2	-0.24962571
28	0xbd5be2f1	-0.053683225
29	0xbc88c9ea	-0.016697843
30	0x3db0ac88	0.08626658
31	0xbe22d9b5	-0.15903361
32	0x3e59f98e	0.21286604
33	0x3cfd20be	0.030899402
34	0xbd83d75c	-0.06437561
35	0x3d93f9a7	0.07225352
36	0xbda62852	-0.08113159
37	0x3dc7da84	0.097584754
38	0xbe0f07a9	-0.13967766
39	0xbe729d27	-0.23692761
40	0x3e0cd2ee	0.13752338
41	0xbe764da2	-0.24053052
42	0x3e3c8d9e	0.18413398
43	0xbdef7d59	-0.1169383
44	0x3e257e8f	0.1616156
45	0xbe3bb67f	-0.18331335
46	0xbe6869eb	-0.22696654
47	0x3d4a929a	0.049456216
48	0x3e14b8ef	0.14523672
49	0xbdf98365	-0.12183265
50	0xbcfa8093	-0.030578887
51	0xbe0dbf4a	-0.13842502
52	0xbea88f20	-0.32921696
53	0x3e69b38d	0.228224
54	0xbd9a1d60	-0.07525134
55	0xbe8451c9	-0.25843647
56	0xbd0acc35	-0.033886153
57	0x3e426ea7	0.18987523
58	0xbe4d9b42	-0.20078757
59	0xbe39c384	-0.1814099
60	0xbe28ccef	-0.16484426
61	0x3e5c68fe	0.21524426
62	0xbdfbc5a5	-0.12293557
63	0x3e14e876	0.14541802
64	0xbe5a1009	-0.2129518
65	0x3e054a8a	0.13016716
66	0x3e573e72	0.21019915
67	0xbd9f2408	-0.07770544
68	0xbdd09b0f	-0.10185825
69	0x3e3c8a37	0.184121
70	0x3d14d1f8	0.036333054
71	0x3e04fadc	0.1298632
72	0x3e7d892a	0.24759355
73	0xbe33384b	-0.17501943
74	0x3d2f5ab1	0.0428111
75	0x3e523382	0.20527461
76	0xbca0b34e	-0.01961675
77	0xbe1a960f	-0.15096305
78	0x3e82a057	0.25512955
79	0x3e2bde1c	0.16783947
80	0xbded802f	-0.11596715
81	0xbdf3bf04	-0.11901668
82	0x3cccdc8f	0.025007514
83	0xbda05541	-0.07828761
84	0xbd97c880	-0.07411289
85	0xbe78a0d9	-0.24280109
86	0xbda53611	-0.08066953
87	0x3c90deb5	0.01768432
88	0xbe23baf7	-0.1598929
89	0xbdc9b5c0	-0.09849119
90	0x3e1a5cef	0.15074514
91	0x3d971692	0.07377352
92	0x3e6acc3b	0.2292947
93	0xbd93f10d	-0.07223711
94	0x3dade786	0.08491425
95	0xbe0e6297	-0.13904797
96	0x3e41b6b4	0.18917352
97	0x3e24e1a1	0.16101696
98	0x3d9574a2	0.072976366
99	0xbe20ae78	-0.15691555
100	0xbdc7fbed	-0.09764848
101	0xbd905c45	-0.07048849
102	0x3dc85c85	0.09783272
103	0xbcf874ce	-0.030329134
104	0xbb1cad84	-0.0023907134
105	0xbe64ce1c	-0.2234425
106	0x3c9af364	0.018914886
107	0x3c076f63	0.008266303
108	0xbe3870b4	-0.18011743
109	0xbd8dd9d4	-0.06926313
110	0x3e254f49	0.16143526
111	0x3d09e41b	0.033664804
112	0x3e561bcd	0.20909043
113	0xbddb7305	-0.107152976
114	0x3d90ae51	0.07064498
115	0xbe17f90d	-0.14841099
116	0x3e084129	0.13306107
117	0x3e3c52ff	0.18391035
118	0x3d595dc0	0.053067923
119	0xbe25b2fc	-0.16181558
120	0x3d5ac571	0.05341095
121	0x3e258c64	0.16166836
122	0xbdbd6f10	-0.09249699
123	0x3e264a5f	0.16239308
124	0xbe355f87	-0.17712222
125	0x3e1a08d3	0.15042429
126	0x3dc087c7	0.094008975
127	0xbda77573	-0.081766985
128	0x3d8de82a	0.069290474
129	0xbd25b841	-0.04045892
130	0xbd8e83d6	-0.069587395
131	0x3e6b33ca	0.22968975
132	0xbdbc7dc3	-0.09203675
133	0x3dcfbe26	0.1014369
134	0xbe93960d	-0.28825417
135	0xbd7292a0	-0.059221864
136	0x3e24200a	0.16027847
137	0xbe2f3516	-0.17110094
138	0x3d63c96b	0.05561201
139	0x3c22a885	0.0099278735
140	0x3d632f16	0.055464827
141	0x3e29c13c	0.1657762
142	0xbd716a02	-0.058938988
143	0x3e2ae818	0.16690099
144	0xbe39792e	-0.18112633
145	0x3dd95a79	0.106129594
146	0x3e02cee2	0.12774232
147	0xbddf7ec9	-0.10912854
148	0x3d9a8b8d	0.075461484
149	0xbd132a02	-0.035928734
150	0xbdacbbe7	-0.08434277
151	0x3e5ff9d9	0.21872653
152	0xbda8cbe3	-0.08242013
153	0x3dcec72a	0.10096581
154	0xbe64f278	-0.2235812
155	0xbdcb7def	-0.09936129
156	0x3e5da712	0.21645764
157	0xbe65bb8b	-0.22434823
158	0x3dadabf6	0.084800646
159	0x3d70d917	0.058800783
160	0x3d802ddb	0.06258746
161	0x3de195b8	0.11014885
162	0x3da7ea48	0.081989825
163	0x3d4cb2dc	0.04997526
164	0xbcf72866	-0.03017063
165	0xbe025e6e	-0.12731335
166	0x3e8cea28	0.27522397
167	0xbe2d785e	-0.16940448
168	0xbdc58892	-0.09645189
169	0x3e3a5335	0.18195803
170	0xbe049380	-0.12946892
171	0x3d5d6fe0	0.05406177
172	0x3d2b1499	0.04176769
173	0xbdb08fe4	-0.08621195
174	0xbe2d6269	-0.16932072
175	0xbdb468cc	-0.08809051
176	0x3dd70ae9	0.10500128
177	0x3e69696a	0.22794119
178	0xbe38bb8e	-0.18040296
179	0x3d416272	0.047213025
180	0x3d162637	0.03665754
181	0x3e0bcb08	0.13651669
182	0x3dc041be	0.09387539
183	0x3dd49cf1	0.10381497
184	0x3d1d25cd	0.038366128
185	0xbe1d4270	-0.15357375
186	0x3ea2b870	0.3178134
187	0xbe20dcd2	-0.15709236
188	0xbdb99866	-0.09062271
189	0x3e4d4d1b	0.20048945
190	0xbdc3444d	-0.09534512
191	0x3d5c4642	0.05377794
192	0x3bde4bd1	0.0067839404
193	0xbdd66858	-0.10469121
194	0xbe3ad013	-0.18243437
195	0xbe325f7c	-0.17419237
196	0x3dd5b76d	0.10435376
197	0x3e6fe3b7	0.2342671
198	0xbe10bb0d	-0.14133854
199	0xbc09fe0f	-0.008422389
200	0x3b41c280	0.0029565394
201	0x3e4b53e0	0.19856215
202	0xbd3bf006	-0.0458832
203	0x3e1164fd	0.1419868
204	0xbd412d8e	-0.047162585
205	0xbe2bb130	-0.1676681
206	0xbdd21e2a	-0.102596596
207	0x3e226eff	0.15862654
208	0x3e76607f	0.24060248
209	0xbe098ec6	-0.1343337
210	0xbe11157c	-0.14168352
211	0xbe2a1af4	-0.16611844
212	0xbdab8db5	-0.08376638
213	0xbe177e7f	-0.14794348
214	0xbd7f2d13	-0.062298845
215	0xbdec02e3	-0.11523988
216	0xbe34ac6d	-0.176439
217	0xbe442213	-0.19153623
218	0x3d902210	0.07037747
219	0xbe0a54c2	-0.13508895
220	0xbc940e4f	-0.01807323
221	0x3e30b128	0.1725508
222	0xbcbe8ca2	-0.023260418
223	0x3db8ad1d	0.09017394
224	0xbd4bc8d9	-0.04975209
225	0xbe5e4327	-0.21705304
226	0xbdea3fe3	-0.11437967
227	0x3e258c3d	0.16166778
228	0x3e5c9762	0.21542123
229	0xbdfb2466	-0.12262802
230	0xbe39f6c8	-0.18160546
231	0xbe681112	-0.22662762
232	0xbdf70643	-0.12061741
233	0xbe1ed9db	-0.15512793
234	0xbd9eb2a0	-0.07748914
235	0xbe0d8baf	-0.13822816
236	0xbe39dcf9	-0.181507
237	0xbe2ea807	-0.17056285
238	0x3d8c22ac	0.06842551
239	0xbd9ac4d8	-0.07557076
240	0x3dbf77f6	0.093490526
241	0x3e1272fb	0.14301674
242	0x3e3b254a	0.18275943
243	0xbdd0d929	-0.1019767
244	0x3e3549ae	0.17703888
245	0xbdaa9bd3	-0.08330502
246	0xbe17eca5	-0.14836366
247	0xbda0b4a1	-0.07846952
248	0xbe2ddc75	-0.16978629
249	0xbe0cdba2	-0.13755658
250	0x3e938d43	0.28818712
251	0x3e8174b9	0.25284365
252	0x3da9c582	0.08289625
253	0xbd2b7af4	-0.041865304
254	0xbe720847	-0.2363597
255	0x3e13b764	0.14425427

fc.0.bias f4 [100]
0	0xbe2160b2	-0.15759543
1	0xbd25c235	-0.040468413
2	0xbe2b8177	-0.16748606
3	0xbe2388f5	-0.15970214
4	0xbe3aea96	-0.1825355
5	0xbe2e3a02	-0.17014316
6	0xbe29967f	-0.16561316
7	0xbd24006d	-0.04003947
8	0xbe3495fe	-0.17635342
9	0xbd2c8db5	-0.04212733
10	0xbe39e69c	-0.18154377
11	0xbe38bcab	-0.18040721
12	0xbd29c993	-0.041452
13	0xbe220c1a	-0.15824929
14	0xbd549aa9	-0.051905308
15	0xbe151c0e	-0.14561483
16	0xbe364572	-0.17799929
17	0xbd365bc1	-0.044521097
18	0xbe1bf307	-0.15229426
19	0xbd18c7ce	-0.037299924
20	0xbd2aa3b1	-0.041660015
21	0xbe35df91	-0.17761065
22	0xbe1a20a4	-0.15051514
23	0xbce67f58	-0.028136894
24	0xbd337703	-0.04381467
25	0xbd371336	-0.044696055
26	0xbd299237	-0.041399207
27	0xbcfcc09b	-0.03085356
28	0xbd1e31e3	-0.038621794
29	0xbe28507a	-0.1643695
30	0xbe2f5717	-0.17123066
31	0xbe13b461	-0.14424278
32	0xbe2154fe	-0.15755078
33	0xbe16131b	-0.14655726
34	0xbe13a175	-0.1441706
35	0xbe245043	-0.16046242
36	0xbd227f06	-0.03967192
37	0xbd5e2420	-0.05423367
38	0xbd55fb26	-0.052241467
39	0xbd3bd306	-0.045855545
40	0xbe2c4b46	-0.1682559
41	0xbd447aaa	-0.047968544
42	0xbd2ef749	-0.0427163
43	0xbe19146f	-0.14949201
44	0xbd28afd6	-0.041183315
45	0xbe3ccc3f	-0.18437289
46	0xbd370c58	-0.044689506
47	0xbd6f7170	-0.05845779
48	0xbe1c5c60	-0.15269613
49	0xbd12ab94	-0.03580816
50	0xbd3f45a1	-0.046697263
51	0xbd33fe7f	-0.04394388
52	0xbe2b8a59	-0.16751994
53	0xbd540a70	-0.051767766
54	0xbd27b599	-0.04094467
55	0xbe1d3a4f	-0.15354274
56	0xbd4a36b1	-0.049368564
57	0xbd175868	-0.036949545
58	0xbe1c9b03	-0.15293507
59	0xbcaf20cf	-0.021377949
60	0xbd2439a2	-0.040094025
61	0xbe0f57a6	-0.13998279
62	0xbe310679	-0.17287625
63	0xbe1d0881	-0.15335275
64	0xbd440f88	-0.047866374
65	0xbe2b7a61	-0.16745903
66	0xbe1e4b0d	-0.15458317
67	0xbe164ed7	-0.14678513
68	0xbc91cc55	-0.017797628
69	0xbd0ab904	-0.03386785
70	0xbe1b5a75	-0.15171225
71	0xbd417758	-0.047232956
72	0xbe32180f	-0.1739199
73	0xbd3d86d8	-0.046271175
74	0xbe0186bf	-0.12649058
75	0xbd33a61c	-0.043859586
76	0xbe1ecb5f	-0.15507267
77	0xbe317ec7	-0.17333518
78	0xbd073fce	-0.033019833
79	0xbd117e34	-0.035520747
80	0xbd3d361d	-0.046194185
81	0xbe45409d	-0.1926293
82	0xbe34b531	-0.17647244
83	0xbe0dc63c	-0.13845152
84	0xbe24782e	-0.1606147
85	0xbd6fabdc	-0.058513507
86	0xbe30d9e1	-0.17270614
87	0xbd6b982a	-0.05751816
88	0xbe25f889	-0.1620809
89	0xbd1bae78	-0.038008183
90	0xbd42a111	-0.047516886
91	0xbe3b21e5	-0.18274648
92	0xbe1b5e48	-0.15172684
93	0xbcab0bfb	-0.020879736
94	0xbe1e0193	-0.15430288
95	0xbd498080	-0.049194813
96	0xbe0f94da	-0.14021626
97	0xbd36a52f	-0.044591125
98	0xbd43ce8d	-0.047804404
99	0xbd4578f4	-0.048211053

fc.1.weight f4 [100, 100]
0	0xbe0d1a87	-0.1377965
1	0x3e7cd6ad	0.24691267
2	0xbe793faa	-0.24340692
3	0xbe2dd12e	-0.16974327
4	0xbeafdd26	-0.3434841
5	0xbdb62a7c	-0.08894822
6	0xbe0b36ba	-0.13595095
7	0x3edded06	0.43344897
8	0xbea0f8dc	-0.31439865
9	0x3e399891	0.18124606
10	0xbe944b08	-0.28963494
11	0xbe4e28e0	-0.2013278
12	0x3eac3462	0.33633715
13	0xbeabfcc9	-0.33591297
14	0x3e35d544	0.17757136
15	0xbe027059	-0.1273817
16	0xbe73d8ce	-0.23813173
17	0x3ecf6702	0.40508276
18	0xbe3a9f73	-0.18224888
19	0x3f0cea93	0.5504543
20	0x3ea494e3	0.32144842
21	0xbea4d4a6	-0.32193488
22	0xbdbc48d4	-0.09193578
23	0x3ed39d59	0.41330984
24	0x3e872c1e	0.26400846
25	0x3efa4b53	0.48885593
26	0x3ec42b93	0.38314494
27	0x3f345c65	0.7045348
28	0x3cd330a6	0.025780033
29	0xbe990c3b	-0.29892144
30	0xbdb38c57	-0.08767002
31	0xbdc6ebcc	-0.097129434
32	0xbe2c4aab	-0.16825359
33	0xbdcfe5c9	-0.1015125
34	0xbc031517	-0.008000634
35	0xbe8b59ea	-0.27217036
36	0x3e8ff585	0.28117004
37	0x3e70dfd2	0.2352288
38	0x3d1d9c31	0.038479034
39	0x3e203608	0.15645611
40	0xbea12735	-0.31475225
41	0x3e536572	0.20644167
42	0xbe45f986	-0.19333467
43	0xbc3384d7	-0.010956964
44	0x3e634427	0.22193967
45	0xbe9e27fc	-0.3088988
46	0x3ed838cb	0.4223083
47	0x3ee3f6ea	0.44524318
48	0x3d4a1885	0.04933979
49	0x3e916a62	0.28401476
50	0x3ea49ff8	0.32153296
51	0x3d98b2ef	0.07456004
52	0xbe70197f	-0.23447226
53	0xbc222c66	-0.009898281
54	0x3f188425	0.59576637
55	0xbe3e81e0	-0.18604231
56	0xbc00ecca	-0.007868955
57	0x3ec5e61d	0.38652125
58	0xbde165f6	-0.11005776
59	0x3da69df9	0.081356
60	0x3d4781a8	0.048707634
61	0x3d309bbc	0.04311727
62	0xbeca00bc	-0.39453685
63	0xbdc67c77	-0.096917085
64	0x3e2ee2b6	0.17078671
65	0xbe1356ce	-0.14388582
66	0xbd7e607b	-0.06210373
67	0xbe870f5f	-0.26378915
68	0x3f25eb6a	0.6481234
69	0x3ee4516a	0.44593364
70	0xbbfb61e6	-0.0076715825
71	0x3e901fde	0.28149313
72	0xbe5b8f37	-0.21441351
73	0x3ebec452	0.37259156
74	0xbcb73d9f	-0.02236825
75	0x3da7ea6b	0.081990086
76	0xbd90bc71	-0.07067192
77	0xbe2d92ce	-0.16950533
78	0x3f1212b2	0.57059777
79	0x3f00243b	0.50055283
80	0x3dfe18a4	0.124070436
81	0xbe39b456	-0.18135199
82	0xbee20da6	-0.44151038
83	0xbba071af	-0.0048963646
84	0xbe32520b	-0.1741411
85	0x3e5eecc5	0.21770008
86	0xbe816fab	-0.25280508
87	0x3e33c29c	0.17554706
88	0xbdf54089	-0.119752
89	0x3e9b23d4	0.30300772
90	0x3dcc9aca	0.09990461
91	0xbeb0410a	-0.3442462
92	0xbe16e9e8	-0.14737666
93	0x3f060e9e	0.52366054
94	0xbe610884	-0.21975905
95	0x3e03053c	0.12794966
96	0xbde65acd	-0.112477876
97	0x3ce9fa5a	0.02856176
98	0xbc1bce9b	-0.009509708
99	0x3edade58	0.4274776
100	0x3ec0d150	0.37659693
101	0xbf0ce68e	-0.550393
102	0x3ef69b8d	0.4816555
103	0x3ef4530d	0.47719613
104	0x3f09e671	0.5386725
105	0x3f0497bf	0.51794046
106	0x3ef0236d	0.46902028
107	0xbf05f9eb	-0.5233447
108	0x3eadf710	0.33977556
109	0xbf2fe280	-0.68704987
110	0x3ee3c678	0.44487357
111	0x3ee61ce2	0.4494391
112	0xbf1f65ad	-0.6226452
113	0x3ed91883	0.42401513
114	0xbf221064	-0.6330626
115	0x3ee02783	0.43780145
116	0x3ecadc12	0.39621025
117	0xbf07fadd	-0.5311716
118	0x3ec3afbb	0.3822001
119	0xbef9ce13	-0.48790035
120	0xbf178b94	-0.59197354
121	0x3edb456f	0.4282641
122	0x3ef55f08	0.47924066
123	0xbf044d1a	-0.5168015
124	0xbf3afed0	-0.73045063
125	0xbf33a56f	-0.70174307
126	0xbf1e7508	-0.61897326
127	0xbef95446	-0.48697108
128	0xbf5dd647	-0.86655086
129	0x3ed7a385	0.42116943
130	0x3f07f76d	0.53111917
131	0x3ecd5b5a	0.40108758
132	0x3efdd56b	0.49576887
133	0x3ee56e60	0.44810772
134	0x3edf19d3	0.4357439
135	0x3ee2238d	0.44167748
136	0xbf19e10b	-0.60109013
137	0xbf44cade	-0.7687205
138	0xbf418928	-0.7559991
139	0xbf4a3a31	-0.78995043
140	0x3edb25f1	0.42802384
141	0xbf3ef94d	-0.7459915
142	0xbf526bf9	-0.82196003
143	0x3ee87420	0.45401096
144	0xbf4eacbe	-0.80732334
145	0x3ed84e5c	0.42247283
146	0xbf16b84e	-0.58874977
147	0xbf27cb4f	-0.655446
148	0x3eecd1b1	0.46253732
149	0xbf1f8afd	-0.62321454
150	0xbf34f318	-0.7068343
151	0xbf536c15	-0.82586795
152	0x3ef4ead5	0.47835413
153	0xbf5ab1bd	-0.8542746
154	0xbf18b616	-0.5965284
155	0x3eda9a71	0.42695954
156	0xbf479ea5	-0.7797645
157	0xbef60586	-0.4805109
158	0x3efb014e	0.49024433
159	0xbf3d4330	-0.73930645
160	0xbf61e4ab	-0.88239545
161	0x3ef646bd	0.48100844
162	0x3f0230ae	0.5085553
163	0x3f06e3d8	0.5269141
164	0xbf36f7d3	-0.714719
165	0x3ee297f9	0.4425657
166	0x3f059417	0.5217909
167	0x3ef26069	0.4733918
168	0xbef2def1	-0.47435716
169	0xbf09ae3d	-0.5378149
170	0x3ef45c8d	0.4772686
171	0xbf23f680	-0.64048004
172	0x3ee79311	0.4522939
173	0xbf33376c	-0.7000644
174	0x3ebea277	0.37233326
175	0xbf3a93b3	-0.7288162
176	0x3f07d392	0.53057206
177	0x3f17af71	0.5925208
178	0xbf030924	-0.5118582
179	0xbf0b937b	-0.5452191
180	0xbf26674c	-0.6500137
181	0x3eca6f54	0.39538062
182	0x3ebee5f7	0.37284824
183	0x3ecd1275	0.40053144
184	0x3ed7f093	0.4217573
185	0xbf4fa353	-0.8110859
186	0x3ef9e840	0.48810005
187	0xbf48f96d	-0.78505594
188	0x3ef6e0e5	0.48218456
189	0xbf2a0f38	-0.6642947
190	0xbf1f3df4	-0.6220391
191	0x3ee1db72	0.44112736
192	0x3ef900d9	0.4863346
193	0xbf0e9a94	-0.5570462
194	0x3ecbbd2b	0.3979276
195	0xbf2a2816	-0.66467416
196	0x3eca96cd	0.39568177
197	0xbf4848d6	-0.7823614
198	0xbf3d8a79	-0.7403942
199	0xbf2c68af	-0.67347234
200	0xbde2fcf7	-0.110834055
201	0x3e28165a	0.16414776
202	0xbe303f07	-0.17211543
203	0xbe349ab2	-0.17637137
204	0xbe94ce53	-0.29063663
205	0xbdd4c024	-0.103882104
206	0xbdd733cb	-0.105079256
207	0x3ee08d7c	0.43857944
208	0xbe838474	-0.2568699
209	0x3e6a4993	0.22879629
210	0xbe44d3cd	-0.1922142
211	0xbe2b7a65	-0.16745909
212	0x3e9c5c9d	0.30539408
213	0xbe6b0f1c	-0.22954983
214	0x3e71852a	0.23585954
215	0xbdc08f38	-0.09402317
216	0xbe397b25	-0.18113382
217	0x3ec82d9d	0.390973
218	0xbe1cb972	-0.15305117
219	0x3eff3d43	0.49851426
220	0x3ec50453	0.38479862
221	0xbe732685	-0.23745163
222	0xbda89a4c	-0.08232555
223	0x3ebf830a	0.37404662
224	0x3e3e76a4	0.18599945
225	0x3ed2520c	0.41078222
226	0x3edd4454	0.43216193
227	0x3f0adbd3	0.54241675
228	0x3e3213c4	0.17390352
229	0xbe7a3cc7	-0.24437247
230	0xbdadfb72	-0.08495225
231	0xbdca2af3	-0.09871473
232	0xbe6f77d9	-0.23385562
233	0xbe067141	-0.1312914
234	0xbc8a8cfe	-0.016912933
235	0xbe6b6dc4	-0.22991091
236	0x3ea939a8	0.330518
237	0x3dfe2d2b	0.12410959
238	0x3e4edc11	0.20201136
239	0x3e17d6f7	0.14828096
240	0xbe8738ac	-0.26410425
241	0x3e7b886d	0.24563761
242	0x3e0d448c	0.1379568
243	0x3c452d4f	0.012034728
244	0x3ea8a10e	0.32935375
245	0xbe8b8a20	-0.2725382
246	0x3edb526a	0.42836314
247	0x3ed87bd8	0.42281985
248	0x3cac3726	0.02102239
249	0x3e7bf12c	0.24603719
250	0x3e8d9cc6	0.2765867
251	0x3d7be73c	0.06149982
252	0xbe7880e1	-0.24267913
253	0x3e3fb75a	0.18722287
254	0x3ef44043	0.47705278
255	0xbe1ea80a	-0.1549379

fc.1.bias f4 [100]
0	0x3e86cd11	0.26328328
1	0x3d783039	0.060592864
2	0x3e8f151d	0.27945796
3	0x3e986450	0.29764032
4	0x3d880f07	0.06643491
5	0x3e9155f0	0.28385878
6	0x3d83f5ea	0.06443389
7	0x3da18bca	0.07887991
8	0x3e900466	0.28128356
9	0x3d7b4905	0.061348934
10	0x3e895718	0.2682426
11	0x3d84ef00	0.06490898
12	0x3d8ccbb5	0.068747915
13	0x3d80d327	0.06290274
14	0x3e8fa4c5	0.28055397
15	0x3d744a81	0.059641365
16	0x3e959feb	0.2922357
17	0x3d6dff13	0.058104586
18	0x3e920c82	0.28525168
19	0x3e8eb0e0	0.2786932
20	0x3e83c620	0.25737095
21	0x3e8b12cd	0.2716278
22	0x3e94c569	0.29056862
23	0x3d8eb49c	0.06968042
24	0x3d8b23cf	0.06793939
25	0x3e8a7fb4	0.27050555
26	0x3e8760a7	0.26440927
27	0x3e92a942	0.28644758
28	0x3d6fa619	0.058508012
29	0x3e879d75	0.26487318
30	0x3e932944	0.2874242
31	0x3d899a3b	0.0671887
32	0x3d76db3f	0.060267683
33	0x3d7c53b9	0.06160328
34	0x3e95637f	0.29177472
35	0x3d81274d	0.06306324
36	0x3e851cf8	0.25998664
37	0x3e958da3	0.29209623
38	0x3d8f236d	0.06989179
39	0x3e8f41df	0.27979943
40	0x3d6e943a	0.05824683
41	0x3d90cc6a	0.07070239
42	0x3d8f4500	0.069955826
43	0x3d788dd4	0.060682133
44	0x3e86715b	0.26258358
45	0x3d852450	0.06501067
46	0x3d909681	0.07059956
47	0x3d8454bb	0.064614736
48	0x3d972a2b	0.0738109
49	0x3d8a8729	0.06764061
50	0x3d6bd0cd	0.057572175
51	0x3d933504	0.07187846
52	0x3d880635	0.06641809
53	0x3d924d23	0.07143619
54	0x3e90b803	0.2826539
55	0x3e9826bb	0.2971705
56	0x3e97df92	0.29662758
57	0x3d8650ba	0.06558366
58	0x3e91bdef	0.2846522
59	0x3d841da4	0.06450966
60	0x3d74ba71	0.059748117
61	0x3d75f942	0.060052164
62	0x3e95991c	0.29218376
63	0x3d98e491	0.074654706
64	0x3d85ae87	0.06527429
65	0x3e903206	0.28163165
66	0x3d7606b3	0.060064983
67	0x3d9afbdc	0.075675696
68	0x3e925f71	0.2858844
69	0x3e902ac8	0.2815764
70	0x3d92ec0c	0.071739286
71	0x3d8863fd	0.06659696
72	0x3d7b7781	0.061393265
73	0x3e908602	0.2822724
74	0x3e845c3c	0.2585162
75	0x3e84c5ad	0.25932065
76	0x3d7751a0	0.060380578
77	0x3d862e27	0.065517716
78	0x3d80d098	0.06289786
79	0x3e8e49e0	0.27790737
80	0x3e99505d	0.29944125
81	0x3d8702a2	0.06592299
82	0x3e8c5417	0.27407905
83	0x3d89616c	0.06708035
84	0x3e8463c4	0.25857365
85	0x3d9401d0	0.07226908
86	0x3d87b81b	0.06626912
87	0x3e8f5cb7	0.28000423
88	0x3e94e3ce	0.2908005
89	0x3e8db6eb	0.27678618
90	0x3e8c9a10	0.2746129
91	0x3e854148	0.26026368
92	0x3e889931	0.26679376
93	0x3e902ac8	0.2815764
94	0x3e9034f4	0.281654
95	0x3e948fd0	0.2901597
96	0x3d8f2a73	0.069905184
97	0x3e9cc2b9	0.30617312
98	0x3d8c78fe	0.06859015
99	0x3e85d4fd	0.2613906

fc.2.weight f4 [1, 100]
0	0xbfbf1120	-1.4927101
1	0x3fedddd0	1.8583317
2	0xbf9a8c21	-1.2074014
3	0xbf95d609	-1.1705943
4	0x3fed53c6	1.8541191
5	0xbfa0b7bc	-1.2556071
6	0x3fec4e99	1.8461486
7	0x3fdfdb76	1.7488849
8	0xbf97aee3	-1.1850246
9	0x3fee468a	1.8615277
10	0xbf9fea51	-1.2493383
11	0x3fe84529	1.8146106
12	0x3fe94905	1.8225409
13	0x3feb20f4	1.8369431
14	0xbfa50415	-1.2891871
15	0x3ff38f57	1.9028119
16	0xbf979fd4	-1.1845651
17	0x3ff1fe10	1.8905659
18	0xbf9d063d	-1.2267529
19	0xbfacab6b	-1.3489813
20	0xbfbd4753	-1.4787391
21	0xbfa4b971	-1.2869092
22	0xbfa4a1de	-1.2861898
23	0x3fec3fce	1.8456972
24	0x3fe9757e	1.8238981
25	0xbf9d1a28	-1.2273607
26	0xbfa89668	-1.31709
27	0xbf9a34c0	-1.2047348
28	0x3ff5a194	1.9189935
29	0xbfbd9ee2	-1.4814112
30	0xbf9d87d8	-1.2307081
31	0x3ff083c3	1.879021
32	0x3fefafe7	1.8725556
33	0x3ff02afd	1.8763119
34	0xbf9ea1f1	-1.239317
35	0x3feb4d56	1.8382976
36	0xbfb534d5	-1.4156748
37	0xbf9f6ca4	-1.245503
38	0x3fe6b0e5	1.8022734
39	0xbfabe01b	-1.3427767
40	0x3ff31c60	1.8993034
41	0x3fe7f7f3	1.8122543
42	0x3fe72a3e	1.8059766
43	0x3ff09551	1.8795568
44	0xbfbac8f2	-1.4592574
45	0x3feb11c0	1.8364792
46	0x3fe9f603	1.8278202
47	0x3fee9764	1.8639951
48	0x3fe58fa5	1.7934462
49	0x3feaf7ed	1.8356911
50	0x3ff60b33	1.9222168
51	0x3fe57575	1.792647
52	0x3fe7e88a	1.811784
53	0x3fec697c	1.8469691
54	0xbf9f96bc	-1.2467875
55	0xbf921a4c	-1.1414275
56	0xbf984d9f	-1.1898688
57	0x3feb2075	1.836928
58	0xbf9bea84	-1.2180943
59	0x3fe67f46	1.8007591
60	0x3ff244a9	1.8927203
61	0x3fedc5b3	1.8575958
62	0xbf986e2d	-1.1908623
63	0x3fe88c9b	1.8167909
64	0x3fef5438	1.8697577
65	0xbfa37b2d	-1.2771965
66	0x3fec27bf	1.844963
67	0x3feb59ac	1.8386741
68	0xbfabf189	-1.3433086
69	0xbfa25db1	-1.2684842
70	0x3fe481c2	1.7852099
71	0x3feffa57	1.8748273
72	0x3fef835d	1.8711964
73	0xbfaa74f7	-1.3316945
74	0xbfb09cdb	-1.3797868
75	0xbfb747a0	-1.4318733
76	0x3febbd0f	1.8417071
77	0x3fef9dd4	1.872004
78	0x3fe8f3b5	1.8199373
79	0xbfa3864a	-1.2775357
80	0xbf9317a1	-1.1491586
81	0x3fe798d6	1.8093517
82	0xbfad961a	-1.3561432
83	0x3feb2dd5	1.8373362
84	0xbfb35a21	-1.401188
85	0x3fe68489	1.8009197
86	0x3fe3cf30	1.7797604
87	0xbf9aba35	-1.2088076
88	0xbf96b8f1	-1.177519
89	0xbfa9ed32	-1.3275511
90	0xbfadac73	-1.3568252
91	0xbfad52a0	-1.354084
92	0xbfb88a81	-1.4417268
93	0xbf961e9c	-1.1728091
94	0xbf9bba6a	-1.2166264
95	0xbf96a012	-1.17676
96	0x3fea57f3	1.830809
97	0xbf92ca67	-1.1468018
98	0x3fec3133	1.8452514
99	0xbfc1d442	-1.5142901
