results/Smoothed_InfoNCE_dim25_reg1_alpha0.01.pt (torch, 406907 bytes, 13 tensors)

fc.0.weight f4 [100, 50]
00000000: 6876 ae3c 3563 1cbd f1eb a1bd 6391 8dbb
00000010: 27e9 0b3d 2895 e53d 6822 c9bd 6390 63bd
00000020: 97b2 74bd f100 79bc 136a 2abd d0ec 1fbd
00000030: fb2a ef3d 2356 153b e34e 70bd 48f6 ac3d
00000040: 6c50 4e3d a776 823d 421d 813d c728 dabc
00000050: 140e b63d f811 12be af0a 193d 7644 3ebc
00000060: 8ec7 043c f444 d6bc b1c2 f93c 8a0b 603d
00000070: 2b76 b7bc c22a 16bd 313e a9bd 2be6 a33d
00000080: 9977 cf3c 9738 613d c950 d53a b871 373d
00000090: cc5e 053d c611 ecbd 5c0d edbc b939 463d
000000a0: 675b 6bbd 7dc9 b9bd 6c83 c1bd b3ec 4ebc
000000b0: 3dcc 7f3c 03a2 b2bd 59ef 173e 7e92 acbc
000000c0: 179c d83c 7290 9abc b388 333d a5c2 653d
000000d0: 5553 15bd 7c28 613b ed22 86bd c777 9f3d
000000e0: 9eaa cb3d df69 cfbd 8f01 d9bd 22d7 c1bd
000000f0: e4ad bb3b 18e4 25bc 0b1a ed3c b02d 93bc
00000100: 1d31 92bd b1c1 09bc ba9d 9b3d 1493 d6bc
00000110: c90e 2bbd 8d16 cd3d 47cc 04be 3e2b 12be
00000120: 7dbd 9f3d 21c0 5fba b7b2 9dbb b69f cebc
00000130: 0aa2 84bd 4eef 333d 22e4 8d3b ec02 993d
00000140: 0d53 a0bd 9fa7 a3bd 1568 913d 027e d13d
00000150: d609 663d 5385 e13b 6787 71bb ea73 55bd
00000160: 2b13 8e3c 37c5 883d 120d 153d a4a0 83bd
00000170: 2d7a e63c 4866 123d b7cf b7bd 39b9 f33d
00000180: c5a6 093e 683a 68bd b96c a4bc d078 89bc
00000190: f5a9 b9bd 2a22 163d 057b 9b3d b450 c3bc
000001a0: 1501 513d 3c07 aabc 34e8 adbd d203 a33c
000001b0: 15ec e93c 304a a03d 2fa4 fa3d 633c 08be
000001c0: a1fc ae3c 84d1 953d a760 323d 842b b13d
000001d0: 7877 96bd 4aad 333b 4dff 0bbc e488 8fbc
000001e0: 35d6 61bd ff10 32bd 734c 54bc 5aea 0f3b
000001f0: bdba 3c3e b28e 8e3d ea5d b6bc 6025 79bd
00000200: 0cc1 8f3c 3867 edbc 9f19 b43c d780 8a3d
00000210: 6621 6ebc 6f65 e5bb cf7a 8bbd f6d7 c1bd
00000220: 883d 0f3e 2bfe f0bb 347e 9abd c792 3ebd
00000230: ce46 b2bd 19d5 543d 6167 acbb 618b ca3b
00000240: 7d96 543b b2c3 6c3d 7689 9fbb 3547 a33c
00000250: 922c c7bb 9788 3dbe 558f 063d 9dcb 94bb
00000260: 506b 49bd 2dfd 3abd f9b5 283d 3ca8 db3c
00000270: 380f 6c3d 547a 2fbc d1eb 933c bcb7 d5bd
00000280: 85ca 20bd adda c0bc 0c57 a03d aec9 7d3d
00000290: f9ea 06bd bcaa c83d 7c7d 03bd 7351 913d
000002a0: 7fb1 72bd 6ddb 94bc 3f74 803d 8867 eebb
000002b0: c22b b1bc e033 c3bc c5a2 b2bc f493 713d
000002c0: f7be fc3b 51eb 41bd ffc6 3cbd ab85 933c
000002d0: 9a2c 993c 20f7 923d ed50 823b 2036 0e3d
000002e0: 7d90 adbd 720d 05bd bc5b 9bbc 8d9f 5c3d
000002f0: 6242 953d ab09 45bd a8bc 4b3d caae 0ebd
00000300: e82e af3d e406 c5bd 6a7a 2abc 86e1 8e3d
00000310: 016d a93c 457e 2dbc fc28 61bc 4b82 50bc
00000320: 7fcd 9bba 30cc 833c 61c3 2f3d eb75 4cbd
00000330: d996 b13a 7a03 9d3c d094 463c 6947 4c3d
00000340: 885f 95bd b1ee 0cbd 197b 3ebd af53 b3bd
00000350: c56d 213d 5bdc 6b3c 8f05 70bd 54e6 ee3d
00000360: 86a6 393d 693c ea3c e0c8 033d b3da bdbc
00000370: b37b 8a3d 4d58 7fbd 1995 63bd c9a3 c6bd
00000380: 5206 87bb 4999 0e3c 58cc 723b 993f d33c
00000390: 3e36 b0bd d28b dcbb a7d0 313c 7ee3 103d
000003a0: 9b37 f83c f13c 87bd c654 a5bc 1565 35bd
000003b0: a512 93bd 0506 913c 3253 b63b 0bb5 5fbd
000003c0: 92de a73d ed9e 1b3d ce96 7d3c 92af 7bbb
000003d0: 6467 15bd 6415 903d b90d fbbc 8019 2cbd
000003e0: f04c 98bd 9ecc 133c ec5c 653d 70ea 0d3c
000003f0: 0b29 853d 8d34 453b e3b0 863b 9920 513c
0.021296695 -0.03818055 -0.079063304 -0.00432031 0.0341579 0.1121009 -0.098210156 -0.05555762
-0.05974063 -0.015197978 -0.041605067 -0.0390442 0.1167812 0.0022786937 -0.058668982 0.08445412
0.050369665 0.063702874 0.063044086 -0.026630772 0.08889404 -0.14264667 0.037363704 -0.011613002
0.008104218 -0.026155926 0.030488344 0.054698505 -0.022395214 -0.03666187 -0.08263815 0.080028854
0.025325583 0.05498561 0.0016274686 0.044786185 0.03256111 -0.115268275 -0.028937034 0.048394892
-0.057460215 -0.09071634 -0.09448895 -0.012629676 0.015612659 -0.087223075 0.14837398 -0.021065947
0.026441617 -0.018867705 0.04383154 0.05609383 -0.036456425 0.0034356406 -0.0654963 0.077865176
0.09944652 -0.10127615 -0.105960004 -0.094648615 0.0057275165 -0.010125183 0.028943082 -0.017966121
-0.07138274 -0.008407996 0.07598443 -0.02619318 -0.041762147 0.10014067 -0.1296855 -0.14274308
0.07799814 -0.00085354043 -0.0048125642 -0.02522264 -0.06476219 0.04392939 0.004330174 0.074712604
-0.07828341 -0.079909556 0.0709993 0.10229112 0.056161724 0.0068823486 -0.0036854388 -0.052112497
0.017343124 0.06678241 0.036389418 -0.06427124 0.02813443 0.035742074 -0.08975165 0.11900563
0.13442524 -0.056696326 -0.020071374 -0.01678124 -0.0906562 0.036653675 0.075918235 -0.023842193
0.051026423 -0.020755403 -0.08491555 0.019899283 0.028554955 0.0782665 0.12238347 -0.13304286
0.021360697 0.073153526 0.043549206 0.08650878 -0.073470056 0.002741652 -0.008544755 -0.01752133
-0.055135924 -0.04347324 -0.01295768 0.0021959753 0.1843061 0.06960811 -0.022261579 -0.06082666
0.017548107 -0.028979883 0.021984873 0.067628555 -0.01453433 -0.007000617 -0.06810533 -0.094650194
0.13988316 -0.007354518 -0.075436026 -0.046526697 -0.08704911 0.05196104 -0.005261347 0.006181166
0.003243833 0.057803817 -0.0048686815 0.019931415 -0.0060783112 -0.18509136 0.032851536 -0.004540874
-0.049174607 -0.045651603 0.041189168 0.026813619 0.0576317 -0.010710318 0.018056782 -0.10435435
-0.039255638 -0.023541773 0.07829103 0.061959915 -0.03293893 0.0979819 -0.032102093 0.07095613
-0.059251305 -0.018171037 0.06272172 -0.0072755255 -0.02162731 -0.023828447 -0.02180613 0.05897899
0.0077131945 -0.047343556 -0.046088215 0.018008074 0.018698025 0.071760416 0.0039769323 0.034719586
-0.084748246 -0.032483526 -0.01896464 0.053863097 0.07288052 -0.048104923 0.049740463 -0.03483466
0.085538685 -0.09620455 -0.010405162 0.06976609 0.02068186 -0.010589187 -0.013742682 -0.012726377
-0.0011886804 0.016088575 0.042910937 -0.049917143 0.0013548984 0.019166697 0.012120441 0.04987279
-0.07293612 -0.03440732 -0.046504114 -0.08756196 0.039411325 0.014395799 -0.05859905 0.11665025
0.045324825 0.028593259 0.03217399 -0.023175573 0.06761875 -0.06234007 -0.055562112 -0.09699208
-0.0041206265 0.008703538 0.0037048068 0.025787162 -0.08604096 -0.006730535 0.010852969 0.035373203
0.030299952 -0.066034205 -0.020182025 -0.044285852 -0.071812905 0.017703066 0.005564117 -0.054616015
0.08196749 0.03799336 0.015477849 -0.0038404209 -0.036475554 0.0703533 -0.030646192 -0.042016506
-0.0743655 0.0090209525 0.05599682 0.008661851 0.06501969 0.0030091137 0.004110442 0.01276412

fc.0.bias f4 [100]
00000000: 3144 82bc cc3b f6bc 7578 0fbd d6e1 34bd
00000010: e29a 2cbd f509 c9bc 7d1c 2bbd 1df3 10bd
00000020: 8ff8 01bd 26cc b2ba e170 05bd 3d94 50bd
00000030: f7ad 03bd c164 2dbd 68f6 c6bc 64b2 34bc
00000040: 864b 74bd c26e 29bd 704d d2bc 6824 183c
00000050: 35c0 efbc c364 47bd ad61 27bd 10ce fcbc
00000060: 8ac3 45bd 2fc9 3fbd 5904 1dbd e948 f2bc
00000070: aad5 f7bc 0d38 d1bc 274c 32bd 9fc4 efbc
00000080: decb dabc c5e0 14bd bd7b e4bc d91b 68bd
00000090: a9ee edbc 4801 45bd 116e 43bd 7483 aabc
000000a0: 0168 1abd 4f9e 2cbc 1be7 f2ba a81a bdbc
000000b0: e09c 14bd ab25 00bd fcd6 40bd 22a1 d0bc
000000c0: 13a9 04bd f75e 8cbc 530f d6bc b662 7ebd
000000d0: d50f d2bc 25c8 f5bc 2574 0dbd 0577 28bd
000000e0: 97fa 6ebd 2703 48bd 26c4 9d3c 0637 e7bc
000000f0: 972a 89bc 6f5c 15bd 1237 63bd 5bf8 d3bc
00000100: 3344 d3bc da41 19bd 60ad 1fbd 16b0 38bd
00000110: c2c2 e1bc 42cc 0dbd 74ed 4c3c 2d17 03bd
00000120: 53d0 fabc d596 0bbd 3a68 3dbd 3520 0cbd
00000130: 826f 863a 7fca 05bd 6d5c 18bd d65d fabc
00000140: cabd 44bd 0ac8 e0bc 1b65 49bd 8bf1 b7bc
00000150: def8 3cbd 6144 91bc 1cd0 febc 275f c1bc
00000160: 5648 38bd b4ba c9bc 306f 10bd 60c1 10bd
00000170: bf06 b3bc 797a 82bd 15dc 53bd 1075 33bc
00000180: ca9d 10bd 77dd c3bc 1927 d1bc b9a0 30bd
-0.015901657 -0.03005781 -0.035026986 -0.044160686 -0.042139895 -0.02454088 -0.041775215 -0.0353881
-0.031731185 -0.0013641163 -0.032578353 -0.05092262 -0.032148328 -0.042332415 -0.024287418 -0.01102886
-0.059642337 -0.041365393 -0.02567169 0.009286024 -0.029266456 -0.04868008 -0.040864635 -0.030859977
-0.048282184 -0.046822723 -0.038334224 -0.029575782 -0.03025325 -0.025539422 -0.043529656 -0.02926856
-0.02670854 -0.03634717 -0.027891034 -0.056667183 -0.029044466 -0.048096925 -0.04771239 -0.020814635
-0.037696842 -0.010535791 -0.001853201 -0.023084 -0.03628242 -0.031285923 -0.047080025 -0.02546746
-0.032387804 -0.017135127 -0.026130354 -0.062105857 -0.025642315 -0.030002663 -0.034534592 -0.04112913
-0.05834445 -0.04883113 0.01925857 -0.02822448 -0.016743941 -0.036465105 -0.05547244 -0.025875261
-0.025789356 -0.037416317 -0.038983703 -0.045089804 -0.027558688 -0.034618624 0.012507785 -0.032004524
-0.030616915 -0.03407939 -0.046241976 -0.034210403 0.0010256621 -0.03266382 -0.03719752 -0.030562323
-0.04803256 -0.027439136 -0.049168687 -0.022454044 -0.046135776 -0.0177328 -0.031105094 -0.023604942
-0.04499086 -0.02462516 -0.035262287 -0.035340667 -0.021853803 -0.06371016 -0.05172356 -0.010953203
-0.03530673 -0.023909314 -0.025531339 -0.043122027

fc.1.weight f4 [100, 100]
00000000: 1e83 6fbd ab47 e53d 1591 1f3e 4829 b0bc
00000010: ea1c b5bb de48 3f3c b691 4abd 1f70 4abd
00000020: 1791 143e 7b07 603a 3183 0cbc ef6e 24bc
00000030: 92f7 d83d 5fa1 14bb 372a 0fbe f15a 213d
00000040: 7a6d 45bd cca4 ec3b c92a cabc 7366 0fbd
00000050: d6f7 f93c 3c8d ea3b 49d9 1a3e e49b 6fbc
00000060: 6994 bcba ea01 8fbc 3308 083e 9d25 4c3d
00000070: 6d66 d73c e80f 81bd cd94 c83c ca70 743c
00000080: 6871 fbbc 9b57 0e3e 7dd3 3f3e c738 9539
00000090: 3f9c dc3c 92d7 adbc 67a7 d53a c89a e1b9
000000a0: 821f 423e def1 fabb 6a2e 9abd 4b03 b6bc
000000b0: 27e9 df3d b192 3e3d a63e c3bc b39c 783d
000000c0: b3cd 0e3e c86d 8abb aa68 1c3e 57df d23b
000000d0: ae1d 523e 5a28 123e 4d75 1dbc 6385 d8bc
000000e0: 1625 a8bc c643 fabc 53ed 8f3c 4b06 583d
000000f0: a507 8f3d f46e c43d c5fe 15bb 4b81 983d
00000100: 3756 bcbd 58e0 033c 64ac 44bc 9d15 c53b
00000110: 2b42 b6bc 5119 1a3d 600a 2bbd e3d8 0f3d
00000120: 67fe 323e 6a73 f53d 4714 2bbd e81f 583e
00000130: 2958 85bb affb c43d c239 0cbd 104d c83d
00000140: 5b36 283c 3178 c33d 2525 8b3c 05e8 813c
00000150: dc89 04bd 1ddd d3bc ffd4 b83d 4250 843d
00000160: ac1e 21bc 7849 ba3d 9f7e 5c3d 9cfc 743d
00000170: 0ea1 713d 62bd 54bd 9c45 ecbc 4e50 4c3c
00000180: eadc 223c cf44 51bd b988 323d 846b 11bd
00000190: e688 df3c e605 303d d424 dfbb 8e89 08bb
000001a0: 79bb 8dbb e374 ddbc df81 b2bc f454 c6bc
000001b0: 9c74 bf3d f2a6 5abc bd1b 693d 41ba 60bc
000001c0: efaa c53a bd66 0c3b 5eab 49bc 0403 abbb
000001d0: 452e c3bb 6828 28bd abda 00bc 5174 9bbc
000001e0: a02e d03d 07cf 0cbd de2a de3d 4510 c73b
000001f0: 052b 8ebc fd89 ccbc 8921 c73d a0ce 2b3d
00000200: 4c46 5f3d 4d67 323d 023a e03b 071f 863d
00000210: 323e 81bc 7a56 303e 149a e23d 4f26 5dbb
00000220: 1c6a b53c 8054 073b 8933 47bd 7ff9 a53b
00000230: b209 bf3d c062 dabc b077 8c3c 1f8a a0bb
00000240: 3400 033e 14d2 773d 22b3 fd3b aa29 f23b
00000250: 65f7 023e 046d 9fbd 997a 203c 0a4a d53b
00000260: fc4d aa3d 7ede a63d f9ca edbc dfd7 1fbd
00000270: 2653 a43a 9058 00bc 7fa1 62bd 5e2d 593d
00000280: 2411 e33d 7c03 6a3d 8f88 9ebc 868d b03d
00000290: 0ff6 5d3c f537 85bb fdb1 9abc b72a 993c
000002a0: 42aa 193c 6eb1 963d 0eac b8bd 9e94 e43d
000002b0: 758e 103d 8b7e a33d c6f7 a8bc 3905 f83d
000002c0: 9839 d2bc 30a7 743d 797a d03b a204 973d
000002d0: b923 8d3c bf85 03bc 7b4c b7bc 78c1 853d
000002e0: 4648 a1bc 281d 67bd 440e f03c 1aa4 053e
000002f0: 1921 72bc a1f8 aa3c ff5d 5c3d ab04 423e
00000300: a2ee 5f3d 6737 f7bc a8e0 fdbb 840c e93c
00000310: 56f0 d5bb 5629 d6bc 61ea 253d 8370 85bd
00000320: e53d bbbd d712 813b fab4 0dbe 3080 fabc
00000330: bdf3 05bd a58a bdbc 8135 c9bc 5876 1abd
00000340: 4164 b73d a3cb 8fbd 9894 2a3e 801f dcbc
00000350: eace e53d 7bf4 f0bc 1e1b cb3d d913 35bd
00000360: 173d 05bd 7a65 b8bc a6a5 0d3d a4e0 12bd
00000370: 7e3e fd3d bb3f 52bb 140c b33c 800f c23c
00000380: 5a86 28bc 21dc a4bc 2cf4 dc3d 1266 313c
00000390: 0fd8 0e3e 32de ac3d bce2 1ebc 6cec ad3d
000003a0: c498 33bc 0bc1 f23d b186 5abc e501 ea3b
000003b0: 3d4d 283d f69e 5bbc 9f1d 90bb e6df 5d3b
000003c0: 1d78 cabb b9b7 1bbd 0bd0 ae3d 684d b03b
000003d0: 6694 e13d 7c3b f03d c276 cdbc de7b 963c
000003e0: c040 3f3e 8728 0c3c 7daf 5fbd fbbd a3bb
000003f0: b7eb 2d3e 7d75 0e3e 2846 e1bb 26b2 593b
-0.058474652 0.1119531 0.15582688 -0.02150406 -0.0055271285 0.011675088 -0.049455367 -0.049423333
0.14508472 0.00085460366 -0.0085762 -0.010036214 0.10594095 -0.0022679192 -0.13980947 0.03939337
-0.048200108 0.0072217938 -0.024678605 -0.035009813 0.030513685 0.0071579497 0.1512195 -0.01462457
-0.0014387491 -0.017456967 0.13284378 0.04984056 0.026293958 -0.06301862 0.024485016 0.014919469
-0.030693725 0.13900606 0.1873302 0.00028461797 0.026929973 -0.021220956 0.00163005 -0.00043030665
0.18957332 -0.0076582273 -0.07528384 -0.022218367 0.10933142 0.046526615 -0.023833584 0.060696315
0.13945656 -0.0042245127 0.15274301 0.0064353156 0.20519134 0.14273205 -0.009610486 -0.026430791
-0.020525496 -0.030549895 0.01756922 0.052740376 0.0698388 0.09591475 -0.002288745 0.07446536
-0.09196132 0.008049093 -0.012003992 0.0060145394 -0.022248348 0.0376218 -0.04175794 0.03511895
0.1747986 0.11984904 -0.041767385 0.21105921 -0.0040693474 0.09618317 -0.03423477 0.097803235
0.010266866 0.09544409 0.016985485 0.015857706 -0.032358035 -0.025862271 0.09025001 0.064606205
-0.009833973 0.09096044 0.053831693 0.05981122 0.058991484 -0.051938422 -0.028841786 0.012470318
0.009940365 -0.05109101 0.04358742 -0.035502926 0.027286958 0.042974375 -0.00680981 -0.0020833942
-0.004325327 -0.027033275 -0.021790443 -0.02421043 0.09348413 -0.013345467 0.05691122 -0.013716281
0.0015080849 0.0021423541 -0.0123089235 -0.0052188653 -0.0059564435 -0.04105416 -0.0078646345 -0.018976362
0.10165143 -0.034377124 0.1084802 0.0060749375 -0.017354498 -0.024968142 0.09723193 0.0419451
0.0545104 0.043555547 0.0068428526 0.06548887 -0.015776727 0.17220488 0.11064544 -0.0033744758
0.022145323 0.002064973 -0.048633132 0.0050651426 0.09328021 -0.026658416 0.017146915 -0.004899278
0.12793046 0.06050308 0.0077423016 0.0073902206 0.12789686 -0.07784465 0.009794855 0.0065090703
0.083156556 0.08147906 -0.029027449 -0.03902423 0.0012536987 -0.007833615 -0.055329796 0.05302178
0.11087254 0.05713223 -0.019352226 0.086207435 0.0135474345 -0.0040655085 -0.0188837 0.018697126
0.0093789715 0.07358061 -0.09017192 0.11161159 0.035292108 0.079831205 -0.02062596 0.12110371
-0.025662228 0.059729755 0.006362256 0.073739305 0.017228948 -0.008027493 -0.022375336 0.06531042
-0.019687783 -0.05642429 0.029303677 0.13050881 -0.014778399 0.020870509 0.05380058 0.18947093
0.054670937 -0.030177785 -0.0077477284 0.02844835 -0.0065288944 -0.026142757 0.040506724 -0.065156005
-0.09142665 0.0039390135 -0.13838568 -0.030578703 -0.03270315 -0.0231374 -0.024561645 -0.037710518
0.08954669 -0.070212625 0.16658247 -0.02687049 0.11221106 -0.029413452 0.099172816 -0.04420838
-0.032528963 -0.022509325 0.034581803 -0.035858765 0.12365435 -0.0032081443 0.021856345 0.023689032
-0.010285938 -0.020124497 0.107887596 0.010827558 0.13949607 0.08440818 -0.009697612 0.084923595
-0.010961715 0.11853226 -0.013337777 0.007141339 0.041089285 -0.013404598 -0.0043980624 0.0033855378
-0.0061788694 -0.03801701 0.08535775 0.0053803213 0.11014633 0.11730096 -0.025081042 0.018369611
0.18677044 0.008554584 -0.054610718 -0.0049970127 0.1698445 0.13912006 -0.0068748184 0.0033217757

fc.1.bias f4 [100]
00000000: 36e4 643c fb77 c33c d36d 023c 5dd5 863c
00000010: 83a5 84bd c9ce c63c d99c 14bd 6cc1 2dbd
00000020: 08e6 673c 664d 1ebd b361 29bd d096 383c
00000030: 3239 dd3c bbf4 8a3c 6710 c83c 0d31 94bd
00000040: 9f94 a53c 53c4 a13c df92 7e3c 1f81 083d
00000050: 006c fc3c 1a70 bc3c 8550 1cbd c6db 12bd
00000060: 2b36 a73c 92cc 87bd faca ea3c 0a1c 05bd
00000070: 2fa6 4fbd 075e 11bd 5260 13bd 7976 783c
00000080: 00e7 be3c 9e17 16bd d33c f83c fae6 653c
00000090: f421 d63c e396 513c efd5 28bd 9e86 53bd
000000a0: 6c94 dc3c 8d33 903c 4ab8 bd3c 2f31 953c
000000b0: bc0f 36bd de76 48bd f1cc 873c d8f3 843b
000000c0: 4875 32bd 9315 25bd 5cd3 68bd a7dd 1dbd
000000d0: c71b 873c 8beb 71bd 1369 593c 3cba 1fbd
000000e0: db2e 1abd e670 5c3c 8fa4 7bbd 24db 35bd
000000f0: 14f8 743c 4a90 4abd 3ba1 29bd 33eb 70bd
00000100: c50d 7a3c 07e3 65bd dc42 22bd c46a 62bd
00000110: 4dee 47bd 2113 18bd 8b4e 69bd 92cb 35bd
00000120: cb54 0ebd fbac 18bd 5be7 f03c f952 693c
00000130: 1590 73bd c006 d53c 4b41 ef3c 77f6 b43c
00000140: 3641 72bd 1521 4ebd d341 e73c 8730 1b3d
00000150: fb64 28bd b75f 30bd 90ef 06bd 3f36 80bd
00000160: 0e5b b73c 33ab c93c f0ee 703c ee9b 90bd
00000170: fe68 8e3c 4cfb 0cbd f6b2 813c ca33 ec3c
00000180: 871c d23c 4373 053d fe33 ee3c 9b89 21bd
0.013970425 0.023860922 0.007960754 0.016459161 -0.06476881 0.024268525 -0.036282394 -0.04242079
0.014153965 -0.03864803 -0.04135294 0.011266425 0.027004812 0.0169624 0.024421884 -0.07235918
0.02021247 0.019746935 0.0155379465 0.033326264 0.030813217 0.023002673 -0.038162727 -0.035854124
0.020411571 -0.066308156 0.02866124 -0.032497443 -0.050695594 -0.035490062 -0.03598053 0.015164965
0.023303509 -0.036643617 0.03030244 0.01403212 0.026139237 0.012792322 -0.041219648 -0.051642053
0.026926242 0.017602706 0.023159165 0.01821193 -0.0444486 -0.048941486 0.016577216 0.0040573888
-0.04356888 -0.040303778 -0.056842193 -0.038541462 0.016492737 -0.059062522 0.013269681 -0.038995966
-0.03764234 0.013454651 -0.061436232 -0.044398442 0.014951725 -0.04945401 -0.041413527 -0.058818053
0.015262072 -0.056124713 -0.039614543 -0.0552776 -0.048811246 -0.037127618 -0.05695967 -0.044383593
-0.034748834 -0.037274342 0.029407194 0.014240974 -0.05946358 0.026004195 0.029205939 0.02209018
-0.05914422 -0.05032452 0.02822963 0.037888076 -0.041111927 -0.04306003 -0.03294331 -0.062603466
0.022382285 0.024617767 0.014705405 -0.07060991 0.017384049 -0.034419343 0.015832406 0.028833289
0.025648369 0.032580625 0.029077526 -0.03943787

fc.2.weight f4 [100, 100]
00000000: 963b db3d 84a7 353d 3309 fa3d 53fe 743d
00000010: aa0a 383d b37d ae3d e664 223d 04e5 023a
00000020: 595e 5f3d 64b6 40bc 20a5 033c 995a 773d
00000030: 4c32 413d 18a9 183d e33b bf3d 1bc0 8c3d
00000040: c655 a93d a465 ef3d 5afb bb3d 9db3 1c3d
00000050: bd6c 8cbd 1cc8 4d3d a676 003d bf3a 34bc
00000060: 6349 4d3d a987 e03b a3b0 08bd 4297 89bc
00000070: dc20 fe3c b037 193d 5f51 6c3c 44ec 8f3d
00000080: 927b 943b 026a 203c ae60 383c 5021 033e
00000090: dd67 a53c f8ea 593d a275 9a3c 1d73 85bc
000000a0: 7574 613d 33f5 e63d 3ac1 a53d 4451 843d
000000b0: 86b3 07bc 2aa8 213c 0002 8a3d 34e5 f53d
000000c0: 4bb0 29bc cccb 1c3c f4cd 923c 1b06 463c
000000d0: e142 2f3c 5e1a 023d 2f89 c33d 46c8 753c
000000e0: a0d8 efbb 8e10 f23d b114 df3c ab5a b4bb
000000f0: d4c8 963d a7c2 8abb 0408 853d 7474 273d
00000100: 464e 5e3d 72c0 833c 6e07 87bc ddc2 cf3c
00000110: 275f c33c 2ac3 d53c 84f2 893d 1d90 323b
00000120: 2592 41bd 09dc 72bc 930a 4aba 92f8 97ba
00000130: 06ce 193d 775b 103d 202e b93c f610 083d
00000140: 4456 883d 4d5a 1b3c d739 7b3d 48cb abbc
00000150: 1b6b b83c 76c4 203d 0091 b6bc e122 ae3c
00000160: 4e16 013d e0ed d53d 5254 c83d 38e2 463d
00000170: ed22 733d ed40 023c 4adc 523d 491f 9e3c
00000180: dbe1 873d db67 133d 0cc8 a93c fcc6 4cbd
00000190: bc51 dabd 936b 48bb aa09 1cbe 276f 51bd
000001a0: 98a3 ac3c 4f66 18be 06bd 8f3c e80e 13bb
000001b0: 5acc 87bd e880 373d 7d3c 493c 6ea4 bdbd
000001c0: 6ce1 8cbc 1b70 6bbd 2ff3 00be 08de 813c
000001d0: f8ac 88bd a83c 90bd 08b0 a7bd 55ae bebc
000001e0: 89d1 4dbd 7b7f c5bd 8eab 6c3c c96f e43c
000001f0: 6e56 b9bd 88df 81bc 5c3c f8bc 0755 313c
00000200: 25c0 00bc 69ae 3a3d d6c8 123b 9d00 b3bd
00000210: 3e3d 11bd b5c2 8d3b e1fc 64bd 9baf dbbd
00000220: 635d 813c fc97 aebd c4b4 52bc b214 693d
00000230: 9bbb f3bd 7b73 9bbd d3aa c8bd 3202 93bd
00000240: 0763 f23c 5e14 183d 67ca 7ebd 7114 19be
00000250: ff1c bd3c 0573 113c f826 183d 91f8 333d
00000260: 1549 2ebd 9e6e 4aba 10d6 c3bd d380 9c3c
00000270: 5294 343c d0c4 fbbd b3de 5d3d 8e83 90bc
00000280: be9d edbd 5a85 b5bc e154 463c cdb9 e73c
00000290: 3a0b d5bc c69a 6b3c cdff 8fbb 2088 3e3d
000002a0: a632 8e3c 989f 243d 6215 fb3a c7f8 1fbc
000002b0: 216e aa3c 75c4 043d 39c9 90bd 1cbc 91bd
000002c0: 042f 913a 73a6 2fbd e30d afbd a8cc 89bd
000002d0: 37f9 f13c 971d 333c b33d debd 70de a13c
000002e0: a77e 833c 4ca5 5d3d e698 003d 3268 b43c
000002f0: d445 4cbd c678 83bd 7575 38bd c31d 923c
00000300: 783d 77bd 4a7c b2bb 30f4 bbbd 3168 69bd
00000310: 8e78 a6bd a8ac cbbd 34ed fbbd 6d62 153c
00000320: 6db0 b93d e62b aa3c 075b ed3d 3855 443d
00000330: a260 d63c 39ab e83d 8f9f df3c f708 3c3d
00000340: b44b c83d 9b18 603c efa4 1f3c 0795 343d
00000350: b3da 1b3d ec9b ce3d 1bcc 813d a563 b33c
00000360: 3e38 a13d 3adf ed3d 0e11 cf3d 9dde 943c
00000370: 4c01 80bb e834 9f3d f55b 113c fec6 503d
00000380: b92f e63d ae65 6f3c 0c9f 49bc 87f5 03bc
00000390: e2e4 af3c 7fee 033d 8f8f 3d3d 7c44 5e3d
000003a0: 3519 be3b dfba f1bb eacc 73bc e151 aa3d
000003b0: 3907 4abc 8f1f 073d 7050 473c b345 603c
000003c0: 2302 b43d cbb5 683d c6fb 493d 5428 d73d
000003d0: d6c9 4e3c f027 9abc 797c 863b cfd2 213e
000003e0: 07bf 093c 7024 1e3d 8965 b83b c97a 423d
000003f0: 7529 373d 4d54 de3b 969a a93d f499 0a3d
0.107047245 0.04434921 0.12208786 0.059812855 0.044932045 0.08520069 0.039647005 0.00049932324
0.054533336 -0.011762235 0.008034974 0.060389135 0.047167107 0.037270635 0.09337594 0.06872579
0.08268313 0.11689308 0.09178801 0.03825723 -0.06856678 0.050239667 0.031363152 -0.011000334
0.050118815 0.0068521095 -0.03337158 -0.016795758 0.031021528 0.037406623 0.014423697 0.07027486
0.0045313323 0.009790899 0.011253519 0.12805676 0.020191127 0.0532026 0.01885492 -0.016290242
0.055042703 0.11277237 0.08093496 0.06460813 -0.008282548 0.009866754 0.06738663 0.12006608
-0.010356973 0.009570073 0.017920472 0.012086417 0.0106970975 0.031763427 0.0954765 0.015001362
-0.007319525 0.11819564 0.027231546 -0.0055039725 0.07362524 -0.00423463 0.064956695 0.040882543
0.054273866 0.016082976 -0.016483035 0.025361473 0.023849083 0.026094038 0.06735709 0.0027246543
-0.047258515 -0.014822968 -0.0007707264 -0.0011594465 0.037549995 0.035243478 0.022605002 0.0332193
0.06657079 0.009481979 0.061334457 -0.020970955 0.02251201 0.03924986 -0.022285938 0.021256866
0.031515412 0.10445762 0.09781708 0.048555583 0.05935948 0.00795005 0.051479615 0.019302027
0.066348754 0.035987716 0.020725273 -0.049994454 -0.10660121 -0.0030581697 -0.15238062 -0.051131394
0.021074101 -0.14882778 0.017546188 -0.0022439305 -0.06630774 0.04480067 0.012282488 -0.09259878
-0.017197333 -0.05747996 -0.12592767 0.015852943 -0.06673616 -0.07042819 -0.08187872 -0.023276487
-0.050248656 -0.096434556 0.014445199 0.027885335 -0.09049688 -0.015853658 -0.03030222 0.010823495
-0.007858311 0.045576487 0.002239754 -0.08740351 -0.035458796 0.0043261894 -0.055905227 -0.107268535
0.0157916 -0.085250825 -0.012860481 0.056904502 -0.11901017 -0.075903855 -0.09798207 -0.07178153
0.029588236 0.0371288 -0.062204745 -0.14949204 0.023085115 0.00887752 0.03714654 0.043938223
-0.042550165 -0.0007722172 -0.095623136 0.019104397 0.01102169 -0.122933984 0.05416746 -0.017640855
-0.116023526 -0.022158314 0.012105198 0.028286839 -0.02600633 0.014380163 -0.0043945075 0.046516538
0.017358135 0.040191263 0.0019156153 -0.009763903 0.020804467 0.03241392 -0.0706963 -0.07115957
0.0011076634 -0.042883348 -0.085475706 -0.06728488 0.02953778 0.010932348 -0.10851612 0.019759387
0.016051603 0.054112718 0.031395815 0.02202234 -0.04987128 -0.0641952 -0.04503389 0.017836457
-0.060361356 -0.0054469453 -0.091774344 -0.05698413 -0.08128463 -0.09945041 -0.12301102 0.009117705
0.09066854 0.020772886 0.11589628 0.047932833 0.026169125 0.11360783 0.027297763 0.045906987
0.09780064 0.013677741 0.009743913 0.044087436 0.038050365 0.100883335 0.06337758 0.0218981
0.078720555 0.11614843 0.10110675 0.018172557 -0.0039064046 0.07773763 0.008872022 0.050971024
0.11239571 0.014611645 -0.012305986 -0.008054144 0.021471445 0.03220987 0.046279486 0.05426453
0.0058013448 -0.007377013 -0.014880398 0.083163984 -0.012330824 0.03298908 0.012165174 0.013688493
0.0878947 0.056813996 0.049312375 0.10505739 0.012621364 -0.018817872 0.0041041938 0.15803073
0.008407361 0.03860897 0.0056273383 0.04748038 0.04471727 0.006784952 0.08281438 0.033838227

fc.2.bias f4 [100]
00000000: 8a09 d63c e0f1 e6bc 1b3c ec3c 351f e83c
00000010: 615b e13c 42bd e33c 39ef ce3c ce38 dbbc
00000020: 1684 d0bc 4735 de3c 938d f13c b10a da3c
00000030: 6d7b f1bc e237 c13c 8d42 ec3c ff44 c63c
00000040: c89e e1bc 5888 d03c f1dd d1bc 8185 f73c
00000050: 4f83 f73c f51c ea3c 4b69 f3bc f118 ea3c
00000060: 13f3 ddbc ff97 de3c 93d3 e4bc 7d29 f6bc
00000070: 6e27 db3c 93ae e6bc cb2d e5bc b2a0 e0bc
00000080: 3e43 f2bc 7f7f d73c 4606 e3bc c88c ddbc
00000090: 0b70 ed3c 2624 e3bc 7cd0 e9bc d57e e2bc
000000a0: a316 f4bc 8d01 debc f26d cf3c 292a d63c
000000b0: 2866 ebbc 6372 efbc 1188 d83c 061f c73c
000000c0: 1c14 edbc 9254 c23c eb81 f8bc db10 d6bc
000000d0: 804f edbc 39a8 e53c 3efc ea3c 728b e93c
000000e0: ecdf eb3c 9967 ea3c ea46 ea3c 9495 df3c
000000f0: fc61 f63c 730d efbc ff1f d9bc 88f8 e9bc
00000100: 6f79 e7bc 1601 ecbc 4717 e33c dce7 f53c
00000110: e442 d8bc 690a efbc 13a4 f6bc c4ee ea3c
00000120: 181f f03c 4f3e da3c 82d1 e6bc a5db f23c
00000130: 5766 e7bc 9128 e2bc 58ff df3c 614a d7bc
00000140: 45c0 ddbc c41d e73c 75e6 c33c 7f58 ed3c
00000150: 1255 e5bc d830 f23c b272 b6bc 1ac2 fabc
00000160: e368 e93c 03cb cf3c 6de8 dcbc 99cd f8bc
00000170: 2ea8 ec3c a656 d73c 5f47 debc 7bc5 dfbc
00000180: a37b f33c 5400 dfbc b180 e9bc 3129 cebc
0.026127595 -0.028191507 0.028837254 0.028335193 0.027509393 0.027800206 0.025260555 -0.026760485
-0.025453608 0.027125014 0.029486453 0.026616426 -0.0294778 0.023586217 0.028840328 0.024202822
-0.027541533 0.025455639 -0.025618525 0.030215027 0.03021398 0.02857826 -0.029713294 0.028576346
-0.027093446 0.027172087 -0.027932918 -0.03004908 0.0267522 -0.028159415 -0.027975937 -0.027420375
-0.02957308 0.026305912 -0.027712952 -0.027044669 0.02898409 -0.027727198 -0.028541796 -0.027648369
-0.02979595 -0.027100349 0.02532098 0.02614315 -0.028735235 -0.029229349 0.026432069 0.024306785
-0.028940253 0.023721967 -0.030335387 -0.026131084 -0.028968573 0.028034316 0.028684732 0.028508876
0.028793298 0.028613852 0.028598268 0.027293004 0.03007602 -0.029181218 -0.026504515 -0.028560892
-0.028256146 -0.028809112 0.02772106 0.030017786 -0.026399083 -0.029179769 -0.030107534 0.028678305
0.029311702 0.02664104 -0.028176073 0.02964575 -0.028247042 -0.027607234 0.027343437 -0.026280584
-0.02706922 0.028212436 0.023913601 0.028972862 -0.027994666 0.029564306 -0.022271488 -0.030610133
0.028492397 0.025365358 -0.026966298 -0.030371474 0.028888788 0.026286434 -0.027133642 -0.027315846
0.02972204 -0.027221836 -0.028503748 -0.025166126

fc.3.weight f4 [100, 100]
00000000: 1e35 35bd 66c3 b23d 20a7 80bd b073 8abd
00000010: ed38 4dbd 70a7 41bd d59e 96bd 557b a53d
00000020: e701 a33d cf75 33bd 11f0 c0bd 7f11 89bd
00000030: 98f2 ab3d 0e1e 9abd d383 adbd 38d4 98bd
00000040: 50fe b33d aa8c a1bd 1098 8f3d c6e3 97bd
00000050: 4aa6 88bd d9c2 66bd 93ca 8b3d 4676 b5bd
00000060: a655 b23d 2945 8cbd abb8 5c3d 1f52 a23d
00000070: e1ae 68bd 0796 a73d 9c15 643d 8d5a 423d
00000080: 0f89 663d 255d 84bd c343 c93c 1449 b93d
00000090: 2dcb 13bd b914 9f3d 648e c83d 2491 bb3d
000000a0: 2af4 a73d 3717 6d3d fdd3 4fbd 54c8 b1bd
000000b0: aa4e b43d d51a d03d b67d a4bd b79c 8abd
000000c0: 166c ae3d 7247 d9bd f424 793d c58c 913d
000000d0: be4e 8b3d 2bf6 46bd 5bf0 93bd 6280 65bd
000000e0: 3202 a6bd 822b 4fbd 883d aabd 6745 23bd
000000f0: 7460 a7bd bdeb e43d 4602 d73d be65 ad3d
00000100: c3c7 b03d 3667 3d3d d2ef acbd b205 61bd
00000110: b882 703d 4261 9b3d 7858 823d 31f1 2abd
00000120: 33f0 84bd 735b dbbd ae9e 753d 97a3 59bd
00000130: dafb 6f3d 9eb6 b33d 40ce 21bd f78a 5e3d
00000140: cd59 9e3d 465b 95bd fee4 87bd af50 a8bd
00000150: a3c4 833d 55cf 96bd 1d6d 2c3d 5927 c23c
00000160: ed52 76bd f9b3 8ebd 1d14 b13d e318 653d
00000170: b58d a0bd 6d74 7ebd 0da9 2f3d ce3f 883d
00000180: 421a 68bd 06f4 b63d d2b8 863d 75a6 6f3d
00000190: f5db 9fbd 2e19 b53d fa3d c3bd b2ce 3ebd
000001a0: 3c65 9bbd 241a 28bd 7f26 d9bd e44b a13d
000001b0: fa4f 993d cf58 2cbd 268e 41bd 4503 6abd
000001c0: b021 8f3d a6c6 86bd 67d4 c3bd 001f b4bd
000001d0: 5e97 9a3d e9e8 f1bd e137 743d ef02 97bd
000001e0: 0d0e a9bd 11c6 9ebd 0512 913d dee6 94bd
000001f0: 9aae b93d 6198 5ebd a22e b33d 5a87 913d
00000200: 3e80 8ebd 0500 9b3d 839d 033e 3761 a53d
00000210: b221 913d d032 81bd 6590 393d f65b 823d
00000220: e95d 50bd 0a85 3b3d 5b0c 703d 82be 883d
00000230: 19d9 8a3d 7b40 5e3d 6775 85bd 6435 94bd
00000240: fb2c ad3d f624 9e3d c096 89bd bb2c 8bbd
00000250: 8663 213d c5ad 94bd faa8 b43d 7e8a 453d
00000260: bdbf 7b3d fbeb 95bd 4764 9bbd f7f4 44bc
00000270: 78bd 93bd 1e21 86bd 6630 7cbd 1f0d aebd
00000280: 2a58 cdbd cc12 863d 1ed3 793d 6f6e c03d
00000290: a187 b43d 811b 873d 31a1 6fbd 0435 92bd
000002a0: 97bb 3d3d 18b7 9b3d 0933 4a3d b3a4 91bd
000002b0: fe2c 80bd f54f d1bd 6725 613d f568 5abd
000002c0: ac61 903d b2a5 e43d cece 57bd 5ab5 2b3d
000002d0: 56cb 8c3d 3764 c3bd 4577 c2bd 67c8 a4bd
000002e0: b349 af3d 9315 9cbd 07a9 ac3d 8c30 7c3d
000002f0: 1920 afbd d69b 96bd f1de 443d 4837 c03d
00000300: 151c bcbd 21c0 a6bd 2e2e 923d e1f8 143d
00000310: af33 8fbd 2ff4 9f3d 513b b03d d274 6e3d
00000320: 9854 34bb 5ad1 8cba a78d c63a 3ea8 093c
00000330: abb9 85bb bfcd 0b3c a918 ed3c ceda 4a3c
00000340: aec4 213d 8428 053d ff23 ddbc b521 dfbb
00000350: 5000 8ebc 0319 783d b533 2e3d d6cc 843c
00000360: 3711 50bc 6707 803c 91d0 893c 3c28 473d
00000370: fb94 583c a621 513c cde5 ad3c 57f9 a13c
00000380: 9f92 0d3d 9be0 f43c 11cb 8cbc d01d ba3c
00000390: 9306 c33c c6ad 56bc 726b 9ebc 5ff2 cd3c
000003a0: 7aaf 8bbb 3bd7 913c 2a50 99bc b0b1 d63c
000003b0: 3bb9 55bc 29a3 0abc 867d 983c 9a43 4c3c
000003c0: 525e 1e3d 0865 353c c538 7abc 7e6f a4bc
000003d0: fa5d 0cbb 52d2 9f3c fdcf f53c 00b4 593c
000003e0: 1b8c b63c 7cdf f33c 1970 f7bb 06d2 af3c
000003f0: 42ea 50ba 5931 cc3c e65f 903c 808e 7cbc
-0.04424011 0.087286755 -0.062818766 -0.06760347 -0.050103117 -0.04727882 -0.073545136 0.08080164
0.07959347 -0.043813523 -0.09420789 -0.0669279 0.083958805 -0.07525264 -0.08472409 -0.074623525
0.08788741 -0.07888158 0.070114255 -0.07416491 -0.06672342 -0.056338165 0.06825747 -0.088604495
0.087077424 -0.06849129 0.05388705 0.079258196 -0.056807403 0.08182912 0.05568467 0.047449637
0.056283053 -0.064630784 0.024568444 0.09047142 -0.036082435 0.077676244 0.09792784 0.09158543
0.082008675 0.057883468 -0.050739277 -0.08680788 0.088040665 0.10161368 -0.0803179 -0.06768172
0.085167095 -0.1060933 0.060826257 0.07106928 0.06802128 -0.048574608 -0.072235785 -0.05603064
-0.081058875 -0.0505786 -0.083125174 -0.03986111 -0.08172694 0.11177776 0.104984805 0.084666714
0.086318515 0.046241008 -0.084441796 -0.054937072 0.058718413 0.0758691 0.0636453 -0.041733924
-0.06491127 -0.10710802 0.059965782 -0.053134527 0.058589794 0.08775066 -0.039503336 0.054331746
0.07731972 -0.072928 -0.06635474 -0.08218514 0.0643399 -0.07363764 0.042096246 0.023700403
-0.060137678 -0.06967921 0.086464144 0.055931937 -0.078395285 -0.06212275 0.04288583 0.06652795
-0.056665666 0.089332625 0.065782204 0.058508355 -0.07805625 0.08842693 -0.095333055 -0.04658384
-0.07587668 -0.041040555 -0.10603046 0.07875803 0.074859574 -0.042076882 -0.047254704 -0.057132024
0.06988847 -0.06580858 -0.09561997 -0.08794975 0.07548402 -0.11812002 0.059623603 -0.073736064
-0.08254633 -0.07752622 0.07083515 -0.07270597 0.09066506 -0.05434454 0.08749129 0.071058944
-0.06958054 0.07568363 0.12853055 0.08075183 0.07086505 -0.0630852 0.04530372 0.063651964
-0.05087081 0.045781173 0.058605533 0.066769615 0.06779689 0.054260712 -0.06516533 -0.07236746
0.08455845 0.077218935 -0.067182064 -0.06795641 0.039401554 -0.072597064 0.08821292 0.04822778
0.061462153 -0.073204 -0.07587486 -0.012021295 -0.07213873 -0.06549285 -0.061569594 -0.084985964
-0.100265816 0.06546554 0.060992353 0.093960635 0.08814932 0.06597043 -0.058503333 -0.07139018
0.046321478 0.07603282 0.049365077 -0.07111492 -0.062585816 -0.10220329 0.05496731 -0.05332275
0.070498794 0.111644164 -0.05268746 0.041920997 0.06874721 -0.09540599 -0.09495405 -0.08046036
0.08558979 -0.076213025 0.08430677 0.061569735 -0.08551044 -0.07353942 0.048064176 0.09385544
-0.09185044 -0.081421144 0.07137714 0.036370162 -0.0699228 0.07810246 0.08605064 0.058216877
-0.0027516242 -0.0010743544 0.0015148417 0.0084019285 -0.0040809712 0.00853294 0.028942423 0.012381269
0.03949421 0.03250934 -0.026994703 -0.006809438 -0.017334133 0.060570728 0.04252978 0.016210955
-0.012699417 0.01562853 0.016823085 0.048622355 0.013219113 0.01276437 0.021227742 0.019772215
0.034563657 0.029892256 -0.017186673 0.022719294 0.023806846 -0.013102954 -0.019338343 0.025139986
-0.004262862 0.017802825 -0.018714983 0.026207775 -0.013044651 -0.008461752 0.018614542 0.012467289
0.03866417 0.011071451 -0.015272324 -0.020072695 -0.002141832 0.019509468 0.030006403 0.013287544
0.022283604 0.029769652 -0.007551205 0.021462452 -0.00079694774 0.024925875 0.017623853 -0.015414834

fc.3.bias f4 [100]
00000000: df78 b5bc c65c 94bc ae85 1abd 9545 45bd
00000010: f984 86bc 60ce 46bd fed8 acbc d8bc a7bc
00000020: 2414 2abd 1603 93bc f141 20bd fac0 2bbd
00000030: 7eff f3bc 3d12 b0bc 77e3 27bd fc23 3abd
00000040: 6529 11bd f5fc 8dbc 4205 8dbc 0e53 57bd
00000050: 87c6 2cbd 81bb 23bd 0899 9ebc 3eac 82bc
00000060: 2ae7 23bd e8f8 abbc f038 11bd 4079 ffbc
00000070: 738d 7ebc 5701 3dbd cb7a 36bd 165f 37bd
00000080: 80cd 21bd 2fd5 a0bc 0cea 0dbd 0c6f 33bd
00000090: ccc5 c0bc 5c88 0fbd 7ee2 0ebd 1e27 22bd
000000a0: 9644 98bc e5b9 9bbc e823 29bd 4421 43bd
000000b0: 0a41 46bd 089b c0bc b8e1 0fbd 9dca 09bd
000000c0: ac39 1bbd d23c adbc f8d2 a9bc dcd2 16bd
000000d0: ce58 40bd 4957 18bd 86ed abbc f190 a2bc
000000e0: dff1 22bd 9657 32bd 1632 0dbd c836 abbc
000000f0: 3ab9 17bd 84d5 9bbc 90e5 93bc acd8 04bd
00000100: 9d9e 29bd e5c3 1fbd 9cdb 8ebc 5722 9cbc
00000110: 5b8c 2abd dbbf 98bc 9205 8ebc d3be 9cbc
00000120: 18a9 a7bc c9c8 14bd 1a0f c3bc 8790 25bd
00000130: 8e5a b8bc 6955 a9bc 7e6d 9abc 0946 23bd
00000140: aeb9 94bc 88ce 35bd fa76 b4bc 4ef6 aebc
00000150: 2348 a3bc 4532 fbbc ecca aebc ddcc 16bd
00000160: 7688 a5bc cfbe 9ebc 7052 01bd fd3b c3bc
00000170: 0eac a2bc 7834 20bd e532 26bd 5740 0dbd
00000180: a332 84bc 8413 87bc f0b7 13bd 9804 97bc
-0.022152362 -0.018110644 -0.037725143 -0.04816206 -0.016420828 -0.04853666 -0.021099564 -0.02047579
-0.041523114 -0.017945807 -0.039125387 -0.041932084 -0.029784914 -0.021493072 -0.04098841 -0.045444474
-0.035439868 -0.017332533 -0.017214421 -0.05256944 -0.042181518 -0.03997374 -0.01936008 -0.015951272
-0.040015377 -0.020992711 -0.03545469 -0.031185746 -0.015536654 -0.046143856 -0.0445507 -0.044768415
-0.03950262 -0.019632904 -0.034647033 -0.043807074 -0.023531817 -0.03504215 -0.03488397 -0.039588086
-0.018587392 -0.01900954 -0.04129401 -0.047639146 -0.04840187 -0.023511425 -0.03512737 -0.033640493
-0.037896797 -0.021147165 -0.02073048 -0.036822185 -0.04695969 -0.037192617 -0.020987283 -0.019844504
-0.039781447 -0.04354056 -0.034471594 -0.020900145 -0.03704188 -0.01902271 -0.0180538 -0.032433197
-0.04141103 -0.03900518 -0.017438702 -0.019059343 -0.04163776 -0.018646171 -0.01733664 -0.01913396
-0.020466372 -0.036324296 -0.023810912 -0.040421035 -0.022504117 -0.02067061 -0.018851038 -0.039861713
-0.018154945 -0.044386417 -0.022029389 -0.021357682 -0.019931858 -0.030663619 -0.021336995 -0.036816467
-0.020206671 -0.019378094 -0.03157276 -0.023832316 -0.019857433 -0.039112538 -0.04057588 -0.034485187
-0.016137427 -0.016488798 -0.03606409 -0.018434808

fc.4.weight f4 [100, 100]
00000000: 20c4 20be a09f 27be 7c6f c83d 84e3 953d
00000010: 3c50 08be ad44 053e 7a6a 19be b2a6 40be
00000020: 611c e93d 9d08 30be 64ad ab3d 6022 b63d
00000030: 02e0 793d 6367 09be e40c c83d 38fc 943c
00000040: 1a23 eb3c 3c73 06be 8baa 0abe 50be ca3d
00000050: 48c3 543d 439e 043e 9b4e 1ebe b3f2 3bbe
00000060: 2392 4b3d 86f8 16be c52c c53d 705c af3d
00000070: b97d 1ebe ebdc b03d 1ccc 933d 7ea9 793d
00000080: 3340 6b3d 3b62 1ebe ab7d 8a3d afea dd3d
00000090: 163b 15be 1e12 9e3d 2952 903d 962f 163d
000000a0: b8fc 27be c325 1abe ac48 833d e162 cf3c
000000b0: a17b a93d 79bd 26be 976e af3d 0062 6b3d
000000c0: d68a 5e3d 88cb 3cbe 79b8 31be 9f42 f13d
000000d0: 8a33 763d 100a ae3d 3cc6 13be 5deb 25be
000000e0: be38 943d e423 933d 680a a63d b121 1fbe
000000f0: 2ca0 ce3d 37b3 20be 906d 33be 4227 f23d
00000100: 1098 ed3c 0530 e43d ed43 23be 94fd 1ebe
00000110: b248 7e3d f545 22be fa1d febd 6a8e 16be
00000120: b27b 20be 6a97 563d d61c 2dbe dc5d f53d
00000130: 57f7 29be f2ef 1dbe e063 21be 4175 f63d
00000140: ece8 02be cf2e 9b3d 0116 2ebe b9f1 0bbe
00000150: b8c8 2cbe 17d0 ad3d 8d37 37be 97b8 963d
00000160: 33fb 2abe 879a 2abe 7b50 a33d 670a 22be
00000170: 6ce9 ffbd be19 8d3d 30aa c23d 0bb4 f63d
00000180: 1e5c 55be b645 27be 5e4c a03d 2027 41be
00000190: 0841 cbbd e03c 00be 2dbe 623d ec17 a83d
000001a0: 2bf4 e0bd d110 ea3d 7307 c3bd 74f9 c1bd
000001b0: 8763 bc3d fa6e f9bd 3519 bc3d c040 af3d
000001c0: 1fbb 833d 58e2 bfbd 3f10 c93d fc09 de3c
000001d0: 5fb6 903d f641 c9bd 9aeb 08be f1e7 963d
000001e0: 3172 973d 3771 cc3d e011 e8bd 6604 d8bd
000001f0: 201b d43d 1040 b5bd 2876 ce3d bd29 b83d
00000200: 24f9 cebd 7c98 953d e443 b53d d0f3 6d3d
00000210: a414 7c3c ff30 dcbd 9ea6 263d 607f 453d
00000220: f553 0fbe 8252 cc3d cab0 433d 4de9 d33c
00000230: c5e5 fabd 5542 10be bb5b eb3c a8f1 aa3d
00000240: c652 e03c 8007 cabd 3e65 ba3d 5bf1 b53d
00000250: 975c db3d 6d81 d4bd fd1b ddbd ad45 293d
00000260: 8f2c af3d fe98 243d 8866 02be 337a babd
00000270: 79f1 8a3d cb2d 0b3d 10c8 a83d 2606 f7bd
00000280: f16d 3a3d 140f d8bd b4d8 0dbe ab54 1b3d
00000290: 0919 7b3d 693f b83d 5849 07be 5a2f e2bd
000002a0: 6bb5 c63d 557e 13be a3d6 0cbe 7206 f9bd
000002b0: 908a 0ebe cf45 9a3d 47a0 1ebe 0655 ca3d
000002c0: ebf3 a5bd 96e8 07be 549a 00be d0f2 df3d
000002d0: 264a d2bd a351 233d b40e d8bd 4b51 c1bd
000002e0: 626f 03be 8a32 c43d 309e efbd 2220 9b3d
000002f0: 7dda e2bd b202 efbd eff1 993d b667 fabd
00000300: 5fe4 d0bd dcb2 b33d 7917 7c3d 8e7a b53d
00000310: e37f 0abe f274 a9bd bcf9 843d d3b0 b5bd
00000320: 3db1 a93c d834 413d 78c2 f83c 5f51 b2ba
00000330: 1f15 6a3d c222 583c 3ff6 633d c620 963d
00000340: bb31 06bd 5034 803d 2a2c bbbc 4dd3 afbc
00000350: 2d69 87bc cfcb c73c c9e7 b3bc 3c0d cabc
00000360: 1cfa 28bc d529 4e3d 12f9 353d df9a d7bc
00000370: 4ade 5abc 294d fc3c ad5e 7a3d 23d1 a63d
00000380: 4602 d8bb 6e7e 2e3d 18dc a3bc a5a4 a0bc
00000390: 4606 723d 8e8b babb 047d 713c 696d 97bb
000003a0: 2fac e8bc 4cd7 023d b492 043d 3048 0abd
000003b0: 250b b63d bf6a 01bc 3a46 26bd 4d97 5fbc
000003c0: 7dc7 0a3d da0a d13c 3fc0 ee3b 9007 f8bc
000003d0: c0f4 debb 649d 093d 671a 15bc af8f 8a3c
000003e0: fc36 673c 510d 823d e76a 6f3d 975c 9c3c
000003f0: d142 51bd ee15 eebc de49 063d d61a 343d
-0.15699816 -0.16369486 0.09786889 0.07318786 -0.13311857 0.13014479 -0.14982024 -0.18813589
0.11382366 -0.17190786 0.08382681 0.08893275 0.061004646 -0.13418345 0.09768084 0.018186674
0.028703261 -0.13129896 -0.1354162 0.098995805 0.051944047 0.12950997 -0.15459673 -0.18354301
0.049699914 -0.14743242 0.0962768 0.08562553 -0.15477647 0.08635887 0.07216665 0.060952656
0.057434272 -0.1546716 0.067622505 0.10835778 -0.14573321 0.07718299 0.07046921 0.036666475
-0.16404998 -0.15053467 0.064103454 0.025315704 0.082755335 -0.16283216 0.08566015 0.057466507
0.054331623 -0.18437016 -0.17355527 0.11780285 0.060107745 0.08498013 -0.14431089 -0.16203065
0.07237385 0.0718458 0.081074536 -0.15540196 0.10089144 -0.15693365 -0.17522264 0.11823894
0.029003173 0.111419715 -0.1594388 -0.1552642 0.062081046 -0.15846999 -0.12408061 -0.14702764
-0.15672186 0.052390493 -0.16905531 0.11980793 -0.16598259 -0.15423563 -0.15760756 0.12034083
-0.12784165 0.075772874 -0.17000581 -0.13666429 -0.16873443 0.084869556 -0.17892285 0.073594265
-0.16697387 -0.1666051 0.07974335 -0.1582428 -0.124956936 0.068896756 0.09505117 0.12046059
-0.20835921 -0.16335186 0.07827066 -0.18862581 -0.09924513 -0.12523222 0.055357147 0.08207688
-0.10984071 0.11428989 -0.09522905 -0.094714075 0.09198671 -0.1217937 0.09184495 0.08557272
0.06432175 -0.093693435 0.09817552 0.02710437 0.070660345 -0.09827034 -0.13371125 0.07368458
0.07394827 0.099825315 -0.113315344 -0.10547714 0.10356736 -0.088501096 0.1008113 0.08992336
-0.101061136 0.07304475 0.0885084 0.058093846 0.0153857805 -0.10751533 0.040686242 0.048217177
-0.13996871 0.099766746 0.04777602 0.025868082 -0.12250856 -0.14087804 0.028730264 0.083468735
0.02738322 -0.09864712 0.09101342 0.088839255 0.107110195 -0.103762485 -0.10796354 0.041326214
0.08553421 0.040184967 -0.12734425 -0.09105339 0.067843385 0.03397922 0.08241284 -0.120617196
0.045515005 -0.10549751 -0.13852197 0.037922543 0.061303172 0.089964695 -0.13211572 -0.11044188
0.097025715 -0.1440366 -0.13753752 -0.121594325 -0.13920045 0.07532846 -0.15490828 0.09879498
-0.08103164 -0.13272318 -0.12558872 0.10934985 -0.10268049 0.039872777 -0.105496794 -0.094393335
-0.12835458 0.09579952 -0.11700094 0.07574488 -0.110768296 -0.11670436 0.07516848 -0.122268125
-0.10199808 0.08774349 0.061545823 0.08861266 -0.13525347 -0.08274259 0.064929456 -0.08871617
0.020714397 0.047169536 0.030366167 -0.0013604573 0.05714905 0.013191881 0.05565476 0.0733047
-0.03276227 0.06259978 -0.022848208 -0.02146306 -0.016529644 0.024389176 -0.02196111 -0.024664514
-0.010313537 0.050332863 0.044426985 -0.026318965 -0.013358662 0.030798512 0.061125446 0.081453584
-0.006592068 0.04260104 -0.02000241 -0.019609759 0.059088014 -0.0056929057 0.014739279 -0.004621197
-0.028402416 0.031943604 0.03236647 -0.03376025 0.088888444 -0.007898985 -0.040594317 -0.013646913
0.033881653 0.02551787 0.007286101 -0.030277044 -0.006804079 0.033597365 -0.009100533 0.016914217
0.01411223 0.06350196 0.05845156 0.019087119 -0.05108911 -0.029063191 0.03278529 0.043970905

fc.4.bias f4 [100]
00000000: bf41 08be 3670 10be f13e 7dbd 7668 eebd
00000010: 8dbe 04be c048 00be 0273 f3bc 3321 18be
00000020: 782f 14bd d76c 1bbe 0099 7fbd 68be 1cbe
00000030: f98d 10bd 9b4c 55bd 2f12 0abe 65d0 33be
00000040: ab1c 89bd bf49 3dbe caee 42bd ba20 1fbd
00000050: 5956 0bbe b1a9 2bbd 4da8 60bd a8b8 29bd
00000060: ea74 24be c3c0 4fbd 86fa 56bd f09b 65bd
00000070: 39de 37be 6dd2 1fbe b299 3abd 1407 3fbd
00000080: 5284 39bd 8bc6 14bd b0d3 1dbe 43aa 0ebe
00000090: d1a2 26be 69ff b5bd 725f f5bd 327d 1cbe
000000a0: ba92 19be 0ca8 10be d608 2ebd 74bf 40be
000000b0: 7c0f 32bd 233c 01be 8030 44be a1f5 cbbd
000000c0: a6f8 2cbe 8f4a 26be 7161 10be 63d2 9dbd
000000d0: 9c05 19be 2fda 1abe 4ec6 1abd c610 20be
000000e0: 145d 50bd 9128 09be 5441 17be ef3d 2abd
000000f0: a92a 12be 707b 15be f755 3bbd 67b9 00be
00000100: dfa0 0abd 89c4 66bd 8bd9 4fbd 0b01 14be
00000110: 6e60 0cbe d530 21be 84bf 52bd 7fbb 04be
00000120: 6aca 43bd c084 6cbd fbe2 70bd 039d eabd
00000130: ad66 72bd 6862 42be fcdb 50bd 2740 0cbd
00000140: f19e 37be b911 4ebe 101f 8dbd 421a 01be
00000150: 38f8 2dbd 9f29 35be 5fdb 28be 1483 1fbe
00000160: b892 24be e6aa 0cbe 7154 25be c704 0fbe
00000170: 59da 05be adb1 10be d00d 1dbd ff4b d9bd
00000180: 01ea 63bd 7ff2 efbd 9a2b 32bd 2a62 12be
-0.1330633 -0.14105305 -0.061827604 -0.11641018 -0.12963314 -0.12527752 -0.029717926 -0.14856414
-0.036178082 -0.15178238 -0.06240177 -0.15307009 -0.035291646 -0.05207501 -0.13483499 -0.17559965
-0.06694921 -0.18485163 -0.04759101 -0.03884957 -0.13607158 -0.041909877 -0.054848004 -0.041435868
-0.16060224 -0.05072094 -0.05248501 -0.056056917 -0.17955865 -0.15607615 -0.04555673 -0.04663761
-0.045292206 -0.036322158 -0.15412784 -0.13932137 -0.16273047 -0.08886606 -0.119810954 -0.15282133
-0.14997378 -0.14126605 -0.042488895 -0.18823034 -0.0434718 -0.12620597 -0.19159126 -0.09958959
-0.16891727 -0.1623938 -0.14099671 -0.07706144 -0.14943546 -0.15122293 -0.037786774 -0.15631399
-0.050870016 -0.13394381 -0.14771014 -0.04156297 -0.14274086 -0.14597869 -0.04573628 -0.12570725
-0.033844825 -0.056339774 -0.050744575 -0.14453523 -0.1370866 -0.15741284 -0.051452175 -0.12962149
-0.04780046 -0.057743788 -0.058810215 -0.11455729 -0.05917995 -0.18982852 -0.050991043 -0.034240868
-0.17931725 -0.20123948 -0.0689069 -0.12607673 -0.042473048 -0.17691658 -0.16489933 -0.15577346
-0.16071594 -0.13737068 -0.16145493 -0.13966666 -0.13071574 -0.14130278 -0.03834325 -0.10610198
-0.055643085 -0.11716174 -0.043498613 -0.14295259
