results/Smoothed_InfoNCE_dim20_reg1_alpha0.1.pt (torch, 312891 bytes, 13 tensors)

fc.0.weight f4 [100, 40]
0	0x3b98f2af	0.004667602
1	0x3b96f618	0.0046069734
2	0xbba9d8f6	-0.0051833345
3	0xbc889531	-0.016672703
4	0x3cd858dd	0.02640956
5	0x3c25d952	0.010122614
6	0x3c205593	0.0097860275
7	0xbc62f2b5	-0.013851811
8	0xbbdb7e70	-0.006698422
9	0x3d282986	0.041055225
10	0x3a688050	0.00088692177
11	0xbcc3f992	-0.023922715
12	0xbbec2e30	-0.0072076544
13	0xbc29540b	-0.010334979
14	0x3c95f431	0.018304916
15	0x3d319236	0.04335233
16	0x3b33b953	0.0027423694
17	0x3d21b7a9	0.039481793
18	0xbcf35fff	-0.02970886
19	0xbc29e556	-0.010369619
20	0xbaab01ba	-0.0013046779
21	0xbc9dca26	-0.019261431
22	0x398e64cf	0.0002715946
23	0x3b942aaf	0.00452169
24	0xbce45d69	-0.027876573
25	0xbbbba0b1	-0.005725943
26	0xba60e91c	-0.0008579658
27	0x3c05e2ee	0.00817178
28	0x3c014528	0.007890023
29	0xbcc5e104	-0.024155147
30	0xbc01b596	-0.007916829
31	0x3c9d76c4	0.01922167
32	0x3bf78d5d	0.0075546936
33	0x3cc5a85e	0.024128135
34	0xbc6d5aff	-0.014487027
35	0xbcc2f0bb	-0.02379643
36	0x3b834f30	0.0040072426
37	0xbd6fd0b3	-0.05854864
38	0x3cd36d64	0.025808997
39	0x3cdec35d	0.027192766
40	0xbcaaf36e	-0.02086803
41	0x3c0e6ec6	0.008693403
42	0xbc10032c	-0.008789819
43	0xbc7a7555	-0.015286763
44	0x3bcdad3d	0.006276755
45	0xbce02437	-0.027361019
46	0x3d1dd8fe	0.038537018
47	0x3c2bdbbe	0.010489402
48	0xbb304f90	-0.0026902892
49	0xbbc84cc7	-0.006112668
50	0x3c30087e	0.010744212
51	0x3c819f29	0.015822964
52	0x3b6629bb	0.0035120088
53	0xbd041b44	-0.032252565
54	0x3ad73533	0.0016419053
55	0xbc858d71	-0.016302796
56	0x3bce13db	0.006288988
57	0xbd00d771	-0.03145546
58	0xbbff1b5e	-0.007785245
59	0xbc23d91c	-0.010000493
60	0x3c65e686	0.014032012
61	0xbb9b8f8b	-0.0047473363
62	0xbb661698	-0.0035108682
63	0x3bac8c80	0.0052657723
64	0x3beb9c79	0.007190284
65	0x3b404656	0.0029338798
66	0xbb95be0b	-0.004569774
67	0xbbe3ed12	-0.006955751
68	0x3c8131dd	0.015770847
69	0x3c1c24cb	0.0095302565
70	0xbd0bb0bc	-0.034104094
71	0xbc9df725	-0.019282887
72	0x3b8f9597	0.004381846
73	0x3c607fee	0.013702376
74	0xbb820154	-0.0039674435
75	0xb9eb22f9	-0.0004484875
76	0xbcb1cb27	-0.021703316
77	0x3cb8f53d	0.022577876
78	0xbca8a61c	-0.02058702
79	0xbb0a6a86	-0.0021120622
80	0xbd3d74a3	-0.04625381
81	0x3d00174e	0.031272225
82	0x3be67064	0.007032441
83	0x3ca8e93c	0.020619027
84	0x3c59086d	0.013246638
85	0x3aaecab9	0.0013335563
86	0xbda992ad	-0.08279929
87	0xbcdc1eab	-0.026870092
88	0x3c0f2ece	0.008739186
89	0x3dd43896	0.103623554
90	0x3cfe2040	0.031021237
91	0xbd849512	-0.064737454
92	0xbd3d692b	-0.046242874
93	0x3b901ce5	0.0043979757
94	0xbc36d1cb	-0.011158417
95	0x3dcd43b0	0.10022676
96	0x3b5d4ebf	0.003376886
97	0x3d2ba9b4	0.04190989
98	0xbb88dc27	-0.004176635
99	0xbd790bcb	-0.060802262
100	0xbd6b1a2d	-0.05739801
101	0x3d203fa8	0.039123207
102	0x3c5777f1	0.013151155
103	0x3d10e780	0.035377026
104	0x3d209717	0.03920659
105	0xbc8dacbe	-0.017294284
106	0xbd9fe101	-0.07806588
107	0xbcc3bbc4	-0.023893245
108	0x3c7e724e	0.015530182
109	0x3dcb75de	0.09934591
110	0x3d272537	0.040806975
111	0xbd882745	-0.06648115
112	0xbd43d2df	-0.047808524
113	0x3ca98929	0.020695286
114	0x3c5c2a84	0.013437871
115	0x3dadd439	0.08487744
116	0xbbc12e38	-0.0058954023
117	0x3bd3e0f4	0.0064660255
118	0xbc666601	-0.014062406
119	0xbd122547	-0.03568008
120	0x3b3b3179	0.0028563424
121	0xbba6ea23	-0.0050938292
122	0xbd078faa	-0.033095993
123	0x3db0dfbf	0.08636426
124	0x3e0839e5	0.13303335
125	0xbd01777f	-0.0316081
126	0xbc864880	-0.016391993
127	0x3c7fadb7	0.015605382
128	0xbc162cf8	-0.009165995
129	0x3d360ced	0.04444592
130	0xbcf6baee	-0.030118432
131	0x3d2b9c38	0.04189703
132	0xbda729cd	-0.0816227
133	0x3d088339	0.03332827
134	0xbd0f9cc4	-0.035061613
135	0xbd28905f	-0.041153308
136	0x3c5833c2	0.013195934
137	0xba11c8c5	-0.0005561228
138	0xbd7afbc0	-0.061275244
139	0x3d4d9ed1	0.050200287
140	0xbcbfa634	-0.023394682
141	0x3cbf523d	0.023354644
142	0x3d1ff084	0.039047733
143	0xbdbd485d	-0.09242318
144	0xbde5b73e	-0.11216591
145	0x3d0d1988	0.034448177
146	0x3c801646	0.01563562
147	0xbc5a77ea	-0.013334254
148	0x3cb82c57	0.02248208
149	0xbd60d8c0	-0.05489421
150	0x3d0a01fa	0.03369329
151	0xbcfc6d20	-0.030813754
152	0x3da72e1d	0.08163092
153	0xbcb259d1	-0.021771343
154	0x3d5c7f86	0.053832553
155	0x3d470eb4	0.048598006
156	0xbc07948f	-0.008275165
157	0x3bb3d16d	0.005487612
158	0x3d7ff06e	0.06248515
159	0xbd94d83e	-0.072678074
160	0xbc2a1904	-0.010381941
161	0xbc65bb81	-0.014021755
162	0xbd4a7e38	-0.049436778
163	0x3de4c1f9	0.1116981
164	0xbb6e752f	-0.0036385765
165	0x3c661098	0.014042042
166	0xbbde4886	-0.006783548
167	0x3d98229c	0.07428476
168	0x3bc44ac0	0.005990356
169	0xbdb66845	-0.089066066
170	0x3b730575	0.003708211
171	0xbcff3279	-0.031151997
172	0x3cd793a4	0.026315518
173	0xbce937d2	-0.028469
174	0x3d205965	0.039147753
175	0x3cef114a	0.029183049
176	0x3d77e09f	0.06051695
177	0x3b94b91c	0.0045386683
178	0xbce8625e	-0.028367218
179	0xbc370f69	-0.011173108
180	0x3bb80c54	0.005616704
181	0xbc870e7a	-0.016486395
182	0xbd4ba233	-0.049715232
183	0x3de3c8b0	0.111222625
184	0xbc23729a	-0.009976054
185	0x3c3a4778	0.011369579
186	0xbb1092cb	-0.0022060152
187	0x3d3c8f8c	0.046035334
188	0x3cab9aeb	0.020947894
189	0xbd9881ed	-0.074466564
190	0xbca13fd4	-0.019683756
191	0xbcc9e6e6	-0.024646234
192	0x3d54a1f0	0.051912248
193	0xbcde535f	-0.027139364
194	0x3d2e44b8	0.042546004
195	0x3d69823b	0.057008963
196	0x3d467d8a	0.048459567
197	0xbc70452f	-0.014664932
198	0xbd1933ef	-0.037403043
199	0x3c6fb6a2	0.014630945
200	0xbd6983ab	-0.057010334
201	0xbcb959dd	-0.022625858
202	0x3c39df4e	0.011344744
203	0x3d73ec8e	0.059551768
204	0xbbc7c592	-0.0060965503
205	0x3d0cf737	0.03441545
206	0x3d3c0514	0.04590328
207	0x3d12fdb7	0.035886493
208	0x3c29bc01	0.010359765
209	0xbccee0f7	-0.025253756
210	0xbd9e7338	-0.0773682
211	0xbc3e6cb0	-0.011622593
212	0x3d1acc46	0.037792467
213	0x3da63d22	0.08117129
214	0xbd4a6136	-0.049409114
215	0x3d922997	0.07136839
216	0xbd030f1d	-0.031996835
217	0x3d550d5e	0.0520147
218	0x3d24e06f	0.0402531
219	0x3d21eaa7	0.039530423
220	0x3d30e679	0.043188546
221	0x3c9bc9b0	0.01901707
222	0xbc852224	-0.016251631
223	0xbd74925d	-0.059709895
224	0x3c4d6450	0.012536123
225	0xbd321433	-0.043476295
226	0xbd42a90f	-0.047524508
227	0xbcc0db52	-0.02354208
228	0xbd0bd3f6	-0.03413769
229	0x3cd6aaeb	0.026204547
230	0x3dbee4e1	0.09320999
231	0x3b132b48	0.0022456218
232	0xbcd5cd43	-0.026098853
233	0xbdba04fc	-0.09082982
234	0x3d664b09	0.056223903
235	0xbd969487	-0.07352548
236	0x3c80a7c6	0.015705
237	0xbd9e9563	-0.07743337
238	0xbcd183a7	-0.025575472
239	0xbd9e133b	-0.07718512
240	0xbd501984	-0.050805584
241	0xbd2f7f40	-0.042845964
242	0xbd8c2c92	-0.068444386
243	0x3d649af1	0.055811826
244	0xbb5e8075	-0.0033951078
245	0x3dba47cc	0.090957254
246	0xbd22930c	-0.039691016
247	0xbbd3a55f	-0.0064589228
248	0xbdd05ebb	-0.101743184
249	0xbcf7d892	-0.030254636
250	0x3ce37b05	0.027768621
251	0x3daf7000	0.08566284
252	0x3c30654a	0.010766337
253	0x3dcfd41e	0.1014788
254	0xbc50febf	-0.012756049
255	0x3b0c2df5	0.0021389697

fc.0.bias f4 [100]
0	0xbbde3998	-0.006781768
1	0xbc251bf7	-0.010077468
2	0xbd4889d4	-0.04895957
3	0xbccdaf43	-0.025107985
4	0xbd3143da	-0.0432776
5	0xbc88afb6	-0.016685348
6	0xbcda629a	-0.026658345
7	0xbd2ab48e	-0.041676097
8	0x3b2f780a	0.002677443
9	0xbd0f4574	-0.034978345
10	0xbd3b8c77	-0.045788255
11	0xbce80811	-0.028324159
12	0xbc9e6502	-0.019335274
13	0xbcb08af9	-0.021550642
14	0xbd074947	-0.033028867
15	0xbd14caef	-0.036326345
16	0xbcc45bba	-0.02396952
17	0xbbe09fa1	-0.0068549667
18	0xbd3bbab4	-0.04583235
19	0xbc9acd0b	-0.0188966
20	0xbd044cba	-0.032299735
21	0xbd12bc13	-0.035823893
22	0xbcc1abbb	-0.023641458
23	0xbcc28874	-0.023746707
24	0xbced85cc	-0.028994463
25	0xbc9350ac	-0.017982803
26	0xbc236367	-0.00997243
27	0xbca72fa7	-0.020408465
28	0xbce42158	-0.02784793
29	0xbc76b7d2	-0.015058475
30	0xbca88dff	-0.020575522
31	0xbcdb6867	-0.026783181
32	0xbcd4a9e7	-0.025959922
33	0xbd068005	-0.032836933
34	0xbd2077ab	-0.039176624
35	0xbd34f54e	-0.044179253
36	0xbd1704e8	-0.036869913
37	0xbd07bcf0	-0.03313917
38	0xbc4d2ee0	-0.012523383
39	0xbcc1dfab	-0.023666224
40	0xbcdb5d7d	-0.026777977
41	0xbcc8531b	-0.02445369
42	0xbd1a291f	-0.037636872
43	0xbd0ff627	-0.03514686
44	0xbcf25cbf	-0.02958524
45	0xbc771cec	-0.015082579
46	0xbd2ee151	-0.042695347
47	0xbca38943	-0.019962912
48	0xbcea8a3f	-0.028630374
49	0x3c299ac8	0.010351844
50	0xbd2fb891	-0.042900626
51	0xbcd6a1f9	-0.026200281
52	0xbd1435a7	-0.03618398
53	0xbd05f7f1	-0.03270716
54	0xbca23bb5	-0.019803861
55	0xbce03368	-0.027368262
56	0xbccf4b48	-0.025304452
57	0xbd01a45c	-0.031650886
58	0xbd04d5ed	-0.032430578
59	0xbad962ff	-0.0016585289
60	0xbd232166	-0.039826773
61	0xbd1d277a	-0.038367726
62	0xbce0b494	-0.027429856
63	0xbd0176dd	-0.031607497
64	0xbceb5849	-0.028728621
65	0xbd268240	-0.04065156
66	0xbcc73107	-0.02431537
67	0xbcd12e36	-0.02553473
68	0xbb88d2d6	-0.004175524
69	0xbcfb8087	-0.030700935
70	0xbc91dd5b	-0.017805746
71	0xbd388f9b	-0.045058828
72	0xbd13c8be	-0.036080115
73	0xbb55dfee	-0.0032634693
74	0xbd1ef94c	-0.038811967
75	0xbd313667	-0.043264773
76	0xbc20a8e5	-0.009805893
77	0xbcbac922	-0.022800986
78	0xbc8d50e1	-0.01725048
79	0xbccd1343	-0.025033599
80	0xbccd308f	-0.025047569
81	0xbcf212d1	-0.029549988
82	0xbcf9f1ea	-0.030510861
83	0xbceb1709	-0.028697507
84	0xbc9c697b	-0.019093266
85	0xbcfa1647	-0.0305282
86	0xbd170ac6	-0.03687551
87	0xbd1fc976	-0.039010487
88	0xbcd53e07	-0.026030554
89	0xbc716b1d	-0.01473501
90	0xbd0e2aa8	-0.03470865
91	0xbcc67f94	-0.024230756
92	0xbc9cb2b8	-0.019128188
93	0xbd216309	-0.039401088
94	0xbcb0f5ac	-0.02160152
95	0xbca6f056	-0.020378273
96	0xbc314b76	-0.010821214
97	0xbcc449b1	-0.02396092
98	0xbc981375	-0.018563965
99	0xbcc257f3	-0.023723578

fc.1.weight f4 [100, 100]
0	0xbd187909	-0.037224803
1	0x3cb2b240	0.021813512
2	0xbc5deca5	-0.01354519
3	0xbc12db79	-0.008963459
4	0xbcb06cfc	-0.021536343
5	0x3d3a3309	0.045458827
6	0x3a806267	0.0009794951
7	0xbc96463b	-0.018344035
8	0x3cd79733	0.026317215
9	0xbc5a51e8	-0.013325192
10	0xbd5a666c	-0.053320333
11	0x3d5dc293	0.05414064
12	0x3db141c4	0.08655122
13	0x3c6e9ab4	0.014563251
14	0xbd3d76c0	-0.046255827
15	0xbcaff093	-0.02147702
16	0x3c91a6ef	0.017779795
17	0x3ca364e0	0.019945562
18	0xbcc785bf	-0.024355767
19	0x3b91e12a	0.0044518905
20	0x3caaaf05	0.020835409
21	0x3c5a7013	0.013332385
22	0x3da8ac56	0.082359955
23	0x3dae5cbb	0.08513781
24	0x3c57a92e	0.013162894
25	0x3ca5abbe	0.020223495
26	0xbbe6252c	-0.007023474
27	0x3c17af2c	0.009258073
28	0x3dc3834c	0.09546527
29	0x3d8dfea2	0.06933333
30	0x3e0ae95c	0.13565582
31	0x3da39c58	0.079888046
32	0x3d234a64	0.039865866
33	0x3d8b8312	0.06812109
34	0x3cbcd0e5	0.023048827
35	0xbc0f5717	-0.008748791
36	0xbca1e6f9	-0.019763457
37	0xbcc1dfc0	-0.023666263
38	0x3d55c8f4	0.052193597
39	0xbbdb54df	-0.006693467
40	0x3d45952b	0.04823796
41	0x3d5e6975	0.05429979
42	0xbcdd0b10	-0.026982814
43	0xbcc54460	-0.024080455
44	0x3dc4dd4c	0.096125215
45	0x3d962280	0.07330799
46	0xbcf270ca	-0.029594798
47	0x3b7e0376	0.0038759387
48	0x3cb22481	0.021745922
49	0x3c737407	0.014859206
50	0xbad1d5ea	-0.0016009186
51	0x3daf03f6	0.08545677
52	0x3cec483e	0.028843042
53	0x3c79986d	0.015234095
54	0x3d8a14bd	0.06742237
55	0x3ce93cdc	0.028471403
56	0x3c891253	0.01673237
57	0xbd0a12e2	-0.033709414
58	0x3d707097	0.058701124
59	0x3b75a350	0.0037481375
60	0x3c9186e9	0.017764525
61	0x3bae5d37	0.0053211707
62	0x3c39db25	0.011343752
63	0x3c11f870	0.00890933
64	0x3c298be1	0.010348291
65	0x3c78cb86	0.0151852425
66	0x3dc7df22	0.09759356
67	0x3ccd57db	0.025066307
68	0x3c1b1a44	0.009466711
69	0xbc0fb334	-0.008770753
70	0x3cd82676	0.026385527
71	0xbc82bd0f	-0.01595929
72	0x3b35b526	0.002772638
73	0x3db5ec3b	0.08882948
74	0xbca0dfe8	-0.019638017
75	0xba73db26	-0.000930237
76	0xbd13446c	-0.035953924
77	0x3c3295d7	0.010899982
78	0xbd777de3	-0.06042279
79	0x3dda8788	0.10670382
80	0x3dbe71a4	0.09299019
81	0x3def19ad	0.11674819
82	0x3e1fc935	0.15604098
83	0x3db38587	0.08765703
84	0x3cf19526	0.029490065
85	0x3d8cd0f6	0.06875794
86	0x39d4b3c1	0.00040569718
87	0x3b9b5f07	0.0047415528
88	0x3d8d103e	0.068878636
89	0x3d03b8c7	0.03215864
90	0xbce21728	-0.027598932
91	0x3d1f0506	0.03882315
92	0x3dba8f20	0.0910933
93	0xbd31599a	-0.04329834
94	0x3daadfa9	0.08343441
95	0x3d90a034	0.07061806
96	0x3d573e8a	0.052549876
97	0x3d6b5053	0.05744965
98	0x3d9ccf63	0.076567434
99	0x3c17b4af	0.009259387
100	0x3c841a43	0.016125804
101	0xbc624f41	-0.013812841
102	0x3c941de3	0.018080657
103	0xbd03d674	-0.03218694
104	0x3cb25534	0.021769144
105	0xbd60381c	-0.05474101
106	0xbd94d01f	-0.072662584
107	0x3c6b8fc6	0.01437754
108	0x3cffb6fd	0.031215185
109	0x3cce56df	0.025187908
110	0x3c27499b	0.01021042
111	0xbd96c2b6	-0.07361357
112	0xbd8ca72d	-0.06867824
113	0x3c751f50	0.014961079
114	0xbcdb2b87	-0.026754154
115	0xbb002b1c	-0.0019556945
116	0xbd335985	-0.043786544
117	0xbcf3a784	-0.029742964
118	0x3b5457ec	0.0032401038
119	0xbd60b2d7	-0.054858055
120	0x3cefd97b	0.029278507
121	0xbbf83461	-0.0075746034
122	0xbd115354	-0.03547986
123	0xbd184486	-0.037174724
124	0x3aec41f6	0.0018025029
125	0xbd5bf83e	-0.05370354
126	0xbc7b4f65	-0.015338753
127	0xbca5a782	-0.020221476
128	0xbd9de088	-0.077088416
129	0xbcba67b2	-0.022754524
130	0xbd69ef66	-0.057113074
131	0xbd2e3326	-0.042529248
132	0xbdab8e8d	-0.08376799
133	0xbd35968b	-0.044333022
134	0x3c799f68	0.015235759
135	0x3ce9a9a9	0.028523283
136	0x3c9e0d34	0.019293405
137	0x3cda457e	0.026644465
138	0xbd45d87a	-0.04830215
139	0x3c16031a	0.009156013
140	0x3d02456f	0.0318045
141	0xbdbaab66	-0.09114723
142	0x3c71f646	0.014768189
143	0xbc7c24eb	-0.015389661
144	0xbd515e4e	-0.051115327
145	0xbc415bd0	-0.011801675
146	0x3ce694a1	0.028147044
147	0xbd94806c	-0.07251057
148	0x3d30008a	0.042969264
149	0xbd137614	-0.03600128
150	0x3bafb2b0	0.0053618774
151	0xbd4ba420	-0.04971707
152	0xbb3364ac	-0.0027373238
153	0x3b812fbc	0.003942458
154	0xbd397bc5	-0.04528405
155	0xbd8f24da	-0.06989451
156	0xbd8dd431	-0.06925238
157	0x3cec1138	0.028816804
158	0xbdb4d0cf	-0.088288896
159	0x3ae22524	0.00172535
160	0x3d5b3c6f	0.05352443
161	0xbad6978c	-0.0016372069
162	0x3c416b40	0.011805356
163	0x3d2460ba	0.04013131
164	0xbd78214c	-0.06057863
165	0x3ce84c14	0.02835659
166	0xbda6b7e4	-0.08140543
167	0xbcc064fa	-0.02348565
168	0x3bec5e09	0.0072133583
169	0x394d6d63	0.00019591073
170	0xbd3487dd	-0.04407488
171	0x3cc021a4	0.023453541
172	0x3c172674	0.0092254765
173	0x3bd796f4	0.0065792743
174	0x3aa7ea87	0.0012810983
175	0x3cd12841	0.02553189
176	0xbd199117	-0.037491884
177	0xbd26d6cf	-0.0407322
178	0xbbbc48e9	-0.0057459963
179	0xbd99a820	-0.075027704
180	0xbc99ae33	-0.018759822
181	0xbd3d8173	-0.04626603
182	0xbdb5423a	-0.08850522
183	0xbd912580	-0.07087231
184	0xbd5cb0ae	-0.053879432
185	0xbde7a04e	-0.113098726
186	0x3bd7d82e	0.00658705
187	0x3d30071c	0.04297553
188	0xbda693ae	-0.081336364
189	0xbca0636d	-0.01957866
190	0xba7edeaa	-0.00097225106
191	0xbcbc6b5d	-0.023000414
192	0xbd7fcd77	-0.062451806
193	0x3b9cc834	0.0047846083
194	0xbd72ea73	-0.05930562
195	0xbcb99a6a	-0.022656638
196	0xbd62132c	-0.055194065
197	0xbda5e20d	-0.080997564
198	0xbce73636	-0.028224092
199	0xbd8eb587	-0.06968217
200	0xb7b205d0	-2.122196e-05
201	0xbcef2c6e	-0.02919599
202	0xbbfee8bf	-0.0077792103
203	0xbd5d81d4	-0.054078892
204	0x3bf02197	0.007328223
205	0xbd04f4fc	-0.032460198
206	0xbd9f0ca2	-0.077660814
207	0x3b499e96	0.003076469
208	0x3c8acf77	0.01694463
209	0x3ac87b80	0.0015295595
210	0x3d68951d	0.05678283
211	0xbd9e444e	-0.07727872
212	0xbd0d18e3	-0.034447562
213	0xbc9ec21d	-0.01937967
214	0x3c846aed	0.016164267
215	0x3c47254a	0.0121548865
216	0xbd1ea2c6	-0.03872945
217	0xbb6cfd92	-0.0036161882
218	0x3d074879	0.0330281
219	0xbd892460	-0.06696391
220	0x3cd747e3	0.026279395
221	0x3c6e17e3	0.014532062
222	0xbd6e989e	-0.058251016
223	0xbca70c81	-0.020391705
224	0x3bced534	0.006312037
225	0xbd39d1eb	-0.04536621
226	0x3b2c3cd8	0.0026281383
227	0xbcdfce8b	-0.027320167
228	0xbd88ecfb	-0.066858254
229	0xbc81ac15	-0.015829125
230	0xbd57507c	-0.05256699
231	0xbd4b7cb2	-0.049679466
232	0xbd945b22	-0.07243945
233	0xbd9071cf	-0.07052957
234	0x3c88b0e5	0.016685912
235	0x3d2614c3	0.040547144
236	0x3cce026d	0.025147641
237	0x3c6a2179	0.014290207
238	0xbc843100	-0.016136646
239	0x3c707656	0.014676651
240	0xbbe46828	-0.006970424
241	0xbd9a32e1	-0.07529236
242	0x3d004b25	0.031321663
243	0xbc75283e	-0.014963208
244	0xbd8b0634	-0.067882925
245	0xbcf1f417	-0.029535336
246	0x3c7f92e8	0.01559899
247	0xbd79c307	-0.06097701
248	0x3d2b7bf9	0.041866276
249	0xbca4079a	-0.020023156
250	0xba95bb23	-0.0011423569
251	0xbd577370	-0.052600324
252	0x3ce41cb1	0.027845712
253	0x3b74d1e6	0.0037356555
254	0xbc9b6402	-0.018968586
255	0xbd1751c0	-0.036943197

fc.1.bias f4 [100]
0	0x3c8585ce	0.016299155
1	0xbcc51f89	-0.024062889
2	0xbc923b75	-0.017850617
3	0xbccaccf7	-0.024755938
4	0x3c89f290	0.016839296
5	0x3c830122	0.015991751
6	0x3c3cc7ab	0.011522214
7	0x3c9648a4	0.018345185
8	0x3caccb61	0.021093072
9	0xbcd9c149	-0.026581423
10	0xbc91cc7d	-0.017797703
11	0x3c94c8cc	0.018162154
12	0xbcb3a16d	-0.02192756
13	0xbcbc0da1	-0.022955718
14	0x3c487ffd	0.012237546
15	0x3c9b5f4b	0.018966338
16	0xbcc7a725	-0.024371693
17	0xbcd12896	-0.025532048
18	0x3ca3dd88	0.020003095
19	0x3c562c92	0.01307215
20	0xbcdfc4a6	-0.027315449
21	0xbcbf7701	-0.023372175
22	0x3c989ce7	0.018629504
23	0x3c603fd9	0.0136870975
24	0x3ca00c54	0.019537129
25	0x3c783560	0.015149444
26	0xbcc13b20	-0.023587763
27	0x3c1bfbfa	0.009520525
28	0x3c7ee719	0.015558028
29	0x3c889331	0.016671749
30	0x3c968e29	0.018378334
31	0x3c5daef0	0.013530478
32	0xbcc966ce	-0.024585154
33	0xbcbdfdc4	-0.023192294
34	0x3ca8ad2f	0.020590393
35	0x3c8a08f8	0.01684998
36	0xbcbfd17a	-0.023415316
37	0x3cae2193	0.021256244
38	0xbcd091eb	-0.025460204
39	0xbcc2a16d	-0.023758614
40	0xbcc15a08	-0.0236025
41	0x3c96fb35	0.018430332
42	0x3c416219	0.011803173
43	0x3c9809cd	0.01855936
44	0xbcbf9abd	-0.023389215
45	0x3c23b8db	0.009992803
46	0x3c8afc64	0.016966052
47	0xbcb34478	-0.021883234
48	0x3c8925cb	0.016741654
49	0xbcc5bd7d	-0.024138207
50	0xbc842d99	-0.016135024
51	0xbccbc23e	-0.024872895
52	0x3c88b031	0.016685577
53	0xbcce0876	-0.025150519
54	0xbcebf0bb	-0.028801313
55	0xbcbe8804	-0.023258217
56	0x3ca48d65	0.020086953
57	0xbcd28eae	-0.0257028
58	0x3c936fe6	0.017997693
59	0xbcc4c94a	-0.024021763
60	0x3c5ce9b4	0.013483454
61	0xbcf39725	-0.029735157
62	0x3c07f2f4	0.008297671
63	0x3cc21ecf	0.023696331
64	0x3c88d22d	0.016701782
65	0xbcc72f29	-0.02431448
66	0x3c954c18	0.01822476
67	0xbcd150a1	-0.025551142
68	0x3c6c274d	0.014413667
69	0xbcb4fcc3	-0.022093182
70	0x3c5e61a3	0.013573083
71	0xbcabcba4	-0.020971127
72	0xbcd47343	-0.025933867
73	0x3c66ef56	0.014095148
74	0xbcc4d2ac	-0.024026237
75	0x3bffdac3	0.007808061
76	0xbcda793c	-0.026669137
77	0x3c89a774	0.01680348
78	0xbcbf610b	-0.023361703
79	0xbcb83a6b	-0.022488793
80	0x3ca74f9c	0.020423703
81	0x3c8e3631	0.017359825
82	0x3caf3e28	0.021391943
83	0xbce22b83	-0.027608639
84	0x3c85655d	0.016283685
85	0xbcd85d0f	-0.026411561
86	0x3c317a60	0.010832399
87	0x3c746acc	0.0149180405
88	0x3c797b18	0.015227102
89	0xbcd9620f	-0.026536016
90	0xbcddb89e	-0.027065571
91	0x3c81ec13	0.01585964
92	0x3c969b1d	0.01838451
93	0x3c72890d	0.014803183
94	0xbcc201e7	-0.023682548
95	0xbcbdd2eb	-0.023171863
96	0x3caade7c	0.020858042
97	0x3ca09714	0.01960329
98	0xbccf30e6	-0.025291871
99	0x3c5276c8	0.0128457025

fc.2.weight f4 [100, 100]
0	0x3d9810e6	0.07425098
1	0x3b6469ef	0.003485318
2	0x3b3993ef	0.0028316935
3	0xbb7b5bc7	-0.0038354264
4	0x3d9a441d	0.07532523
5	0x3da7546a	0.081703976
6	0x3dc67dc4	0.09691957
7	0x3d913198	0.070895374
8	0x3d4bb032	0.04972858
9	0xbd38531f	-0.045001145
10	0xbc9e43db	-0.019319465
11	0x3d5bfe66	0.05370941
12	0xbc223ccf	-0.009902193
13	0xbcb1d60c	-0.02170851
14	0x3dde27ff	0.108474724
15	0x3ddbc3a9	0.107306786
16	0x3c5f8e6d	0.013644797
17	0xbadaaaaf	-0.0016682948
18	0x3db78a52	0.089619294
19	0x3ddab830	0.10679662
20	0xbdbf9d85	-0.09356216
21	0xbd740207	-0.059572246
22	0x3cecd25f	0.028908907
23	0x3d3dcd5f	0.046338435
24	0x3d1cc239	0.038271163
25	0x3cbf4abc	0.023351066
26	0xbd0789c4	-0.033090368
27	0x3dc4ceb4	0.09609738
28	0x3d973508	0.07383162
29	0x3d54c399	0.05194435
30	0x3db52ec4	0.088468105
31	0x3db372b1	0.0876211
32	0xbd48b8c6	-0.04900434
33	0xbd3dbcf2	-0.04632277
34	0x3d157b3b	0.036494475
35	0x3dcc989d	0.09990046
36	0xbb386a40	-0.0028139502
37	0x3cbfbee9	0.023406463
38	0xbbcf917a	-0.006334481
39	0xbd8a66c6	-0.06757884
40	0xbd4579a1	-0.048211697
41	0x3dbe7dbb	0.09301325
42	0x3dd18e17	0.102321796
43	0x3d262545	0.040562887
44	0xbda63ae4	-0.08116701
45	0x3d4048be	0.046944372
46	0x3db09160	0.08621478
47	0xbd25000f	-0.04028326
48	0xbc2dcd51	-0.010608033
49	0xbd29d1a9	-0.041459713
50	0x3a0d3ba5	0.0005387611
51	0xbcac8474	-0.021059252
52	0xbbb0e227	-0.005398053
53	0x3afaa8a8	0.001912375
54	0xbcf528f7	-0.02992676
55	0xbc8725d8	-0.016497537
56	0x3d3487fd	0.044075
57	0xbc0e13ed	-0.008671743
58	0x3d21ac85	0.039471168
59	0xbd2cf933	-0.042229842
60	0x3db3db8d	0.0878211
61	0xbd743b7f	-0.059627052
62	0x3e0557f5	0.13021834
63	0x3d79e12d	0.06100576
64	0x3dbe3d1d	0.09289
65	0xbc3c128b	-0.01147903
66	0x3d3893b4	0.045062736
67	0xbc9086a9	-0.017642336
68	0x3dc181b4	0.09448567
69	0xbb92a14c	-0.0044747945
70	0x3e0c16e3	0.13680606
71	0x3c15dbf3	0.009146678
72	0xbda0880a	-0.078384474
73	0x3d04447d	0.032291878
74	0xbd45507e	-0.048172466
75	0x3b612850	0.0034356304
76	0xbc3d6e43	-0.011561933
77	0x3d80d1aa	0.0628999
78	0xbce19d15	-0.027540723
79	0xbd006e43	-0.031355154
80	0x3d9c4e2a	0.07632096
81	0x3cb4ea7c	0.022084467
82	0x3dacebee	0.084434375
83	0xbd0ab469	-0.03386346
84	0x3d3030e4	0.043015376
85	0xbbeb0e98	-0.0071733706
86	0x3d3c3eac	0.045958206
87	0x3dd6f7ab	0.10496458
88	0x3d816b7a	0.06319328
89	0x3caf03c0	0.021364093
90	0xbc7fed65	-0.015620564
91	0x3dace0a7	0.084412865
92	0x3d67aa97	0.05655917
93	0x3d150f28	0.036391407
94	0xbd245463	-0.04011954
95	0xbccdcf99	-0.025123404
96	0x3d9910a0	0.07473874
97	0x3d69e72d	0.057105232
98	0xbd089be7	-0.033351805
99	0x3d087da3	0.03332294
100	0xbd9c5524	-0.07633427
101	0x3ccbb591	0.024866851
102	0xbce1fde3	-0.027586883
103	0x3d51007f	0.051025864
104	0xbd5234d0	-0.051319897
105	0xbdc45082	-0.09585668
106	0xbda7787d	-0.08177278
107	0xbdcde660	-0.10053706
108	0xbd42cd68	-0.047559172
109	0x3d400c9b	0.04688702
110	0xbc27d286	-0.010243064
111	0xbda20703	-0.07911494
112	0x3d26dda8	0.04073873
113	0x3c497e50	0.012298182
114	0xbdf82128	-0.12115699
115	0xbdaeb77a	-0.08531089
116	0x3d456a5b	0.04819713
117	0x3d490162	0.049073584
118	0xbd845ce3	-0.06463029
119	0xbd8cdac0	-0.06877661
120	0x3cfa90ea	0.030586679
121	0x3d26e5a6	0.040746354
122	0xbd05a5f1	-0.032628957
123	0xbd284272	-0.041078992
124	0xbda06a7e	-0.07832812
125	0xbdec9778	-0.11552328
126	0x3bedea8a	0.0072606253
127	0xbdd00208	-0.101566374
128	0xbdb73874	-0.089463145
129	0xbade3d53	-0.0016955532
130	0xbdb3a9ae	-0.08772598
131	0xbda69c3e	-0.081352696
132	0x3d14403d	0.036194075
133	0x3b092159	0.0020924418
134	0xbd5b5113	-0.053544115
135	0xbda5320a	-0.08066185
136	0x3d977b4c	0.07396564
137	0xbd3840ec	-0.04498379
138	0x3c567eca	0.013091752
139	0x3d81f676	0.06345837
140	0xbd01dfbe	-0.031707518
141	0xbd801ba2	-0.062552705
142	0xbdb87d2f	-0.09008252
143	0xbd0bbe1c	-0.03411685
144	0x3d860a55	0.065449394
145	0xbd6c9435	-0.05775853
146	0xbd477986	-0.04869988
147	0x3c1ff19d	0.009762195
148	0xbd6f481a	-0.05841837
149	0x3d429121	0.047501687
150	0x3cb539ec	0.022122346
151	0x3d70674a	0.058692254
152	0x3c146e4c	0.0090595
153	0xbb4b2427	-0.003099689
154	0x3c71ed7f	0.014766096
155	0x3d094829	0.033516083
156	0xbd6aa495	-0.057285864
157	0x3b53cba1	0.0032317417
158	0xbc0249f6	-0.007952204
159	0xbb792b94	-0.003802036
160	0xbdd6f34e	-0.104956254
161	0x3d014f40	0.03156972
162	0xbd845c66	-0.06462936
163	0xbd1311d7	-0.035905685
164	0xbcec20c2	-0.028824214
165	0x3bb51aa5	0.005526858
166	0xbd94551c	-0.07242796
167	0x3d8be364	0.06830481
168	0xbe058752	-0.13039902
169	0x3d394360	0.04523027
170	0xbdb247e1	-0.08705116
171	0x3b9cc734	0.004784489
172	0x3ca6fe99	0.020385073
173	0xbd89be64	-0.06725767
174	0x3d1190c0	0.035538435
175	0xbdd95899	-0.10612602
176	0x3c882ddf	0.016623436
177	0xbd7bda98	-0.061487764
178	0x3cd6b688	0.026210085
179	0x3c8c3e72	0.01711962
180	0xbd0d1533	-0.034444045
181	0xbd89b732	-0.06724395
182	0xbdf0b53f	-0.1175332
183	0x3d92f220	0.07175088
184	0xbdbb2504	-0.091379195
185	0x3da4df82	0.08050443
186	0xbdaeafe7	-0.085296445
187	0xbdb2e688	-0.087353766
188	0xbd68a7d4	-0.05680068
189	0x3d6a4547	0.057194974
190	0x3d96715d	0.07345841
191	0xbdcbfe04	-0.09960559
192	0xbd6e2257	-0.058138218
193	0xbdc614c9	-0.09671933
194	0x3cc79cd7	0.02436678
195	0x3cd89293	0.02643708
196	0xbd7afaa4	-0.061274186
197	0xbe02e0c0	-0.12781048
198	0xba2a2e21	-0.0006491859
199	0xbdec4af7	-0.11537736
200	0xbd5c1d8f	-0.053739127
201	0x3b9e60c4	0.0048333127
202	0x3c0d26ef	0.0086152395
203	0x3d4465eb	0.04794876
204	0xbd51ae93	-0.051191878
205	0xbd26ad7f	-0.040692803
206	0xbda25f7e	-0.0792837
207	0xbd78b6c5	-0.060721178
208	0xbcb6fdc1	-0.022337796
209	0x3db2b97a	0.08726783
210	0xbcd5f344	-0.026116975
211	0xbdb11b34	-0.08647767
212	0x3c700ef2	0.014652001
213	0x3ce042ca	0.027375598
214	0xbdc10aa0	-0.09425855
215	0xbdab2ed9	-0.08358545
216	0x3cbda1d6	0.023148458
217	0x3d9c359f	0.07627415
218	0xbd09aced	-0.03361218
219	0xbdc13ddd	-0.094356276
220	0x3d434e6d	0.047682215
221	0x3ce0056f	0.027346341
222	0xbd2f24a3	-0.04275955
223	0xbcb3ac63	-0.021932786
224	0xbd4f19de	-0.05056178
225	0xbda575d6	-0.08079116
226	0x3d079514	0.033101156
227	0xbdbc608c	-0.09198102
228	0xbd801df6	-0.062557146
229	0xbcb89782	-0.022533182
230	0xbd606ccf	-0.054791268
231	0xbda3908b	-0.07986554
232	0x3c9d14c2	0.019174937
233	0x3ab73641	0.0013977961
234	0xbd1cfcf7	-0.038327184
235	0xbd9b49a0	-0.07582402
236	0x3c13c5ea	0.009019354
237	0xbd99e312	-0.07514013
238	0x3d04c3f9	0.032413457
239	0x3c638a91	0.013888017
240	0x3cae80cf	0.021301655
241	0xbd5393bf	-0.051654574
242	0xbda7eda0	-0.0819962
243	0xbcd6e1dd	-0.026230747
244	0x3d1b51c8	0.03791979
245	0xbdf620fe	-0.120180115
246	0xbdcbe535	-0.09955827
247	0x3d34b970	0.04412216
248	0xbda1ec63	-0.07906415
249	0x3d8a4110	0.06750691
250	0xbb273ce6	-0.0025518476
251	0x3d85f2fb	0.065404855
252	0x3be7056d	0.0070502074
253	0x3b46cec5	0.0030335647
254	0x3ce50d45	0.027960429
255	0x3d15d977	0.036584344

fc.2.bias f4 [100]
0	0x3cad9921	0.021191182
1	0xbcac6b3a	-0.021047223
2	0xbcb2cb0a	-0.021825332
3	0x3cc4662c	0.0239745
4	0xbcab7478	-0.02092956
5	0x3cc48062	0.023986999
6	0x3cb76211	0.022385629
7	0x3cc150b8	0.02359806
8	0xbcb3eea6	-0.021964382
9	0xbcb3ab76	-0.021932345
10	0x3cc4d5a7	0.024027659
11	0x3cc1b610	0.023646384
12	0x3cb8dd31	0.02256641
13	0xbca4dd7a	-0.02012514
14	0x3cbb3f7b	0.022857418
15	0x3cb71476	0.022348624
16	0xbca5b85e	-0.020229515
17	0x3cb9c294	0.02267579
18	0x3cc32c26	0.023824763
19	0xbcaebde7	-0.021330787
20	0xbcaf5a2a	-0.021405298
21	0xbcaeba9e	-0.02132922
22	0x3cc40735	0.023929218
23	0x3cadf565	0.021235177
24	0x3cc7f8d5	0.024410645
25	0x3cb4c556	0.022066753
26	0xbcafd344	-0.021463044
27	0x3cd01088	0.025398508
28	0xbca9a4ba	-0.02070843
29	0x3cc96246	0.024582993
30	0x3cbe7060	0.023246944
31	0xbcabbbd5	-0.020963589
32	0x3cc24e82	0.023719076
33	0x3cbe0b5f	0.023198782
34	0x3cbbf642	0.022944573
35	0x3cc2f95a	0.02380054
36	0x3cc26957	0.02373187
37	0xbcbb5bd0	-0.022870928
38	0xbcb0f4cf	-0.021601109
39	0x3ccd8b6e	0.0250909
40	0x3ca9cf73	0.020728802
41	0x3cc2b618	0.02376847
42	0x3cc04abf	0.023473142
43	0xbcb6ea87	-0.022328628
44	0xbcb436ba	-0.021998752
45	0xbcb21d4c	-0.021742485
46	0x3cbdf90c	0.023190044
47	0x3cbdc81d	0.02316671
48	0xbcb0dd41	-0.021589877
49	0xbcb4b364	-0.022058196
50	0xbcafe87c	-0.021473162
51	0xbcac37a9	-0.021022635
52	0x3cc05b5c	0.023481064
53	0xbcb0a779	-0.021564232
54	0xbcb66b5e	-0.022267994
55	0x3cbef2ab	0.023309072
56	0xbcb106fa	-0.021609772
57	0x3cbe6411	0.023241075
58	0xbcb12ccc	-0.021627806
59	0xbcaf25a5	-0.021380255
60	0x3cc4a7a1	0.024005713
61	0x3cbf2b7c	0.023336165
62	0x3cb818f5	0.022472838
63	0xbcaad355	-0.020852724
64	0xbcabed70	-0.020987242
65	0x3cc52c66	0.024069022
66	0x3cc5fc57	0.024168177
67	0x3ccad8ee	0.024761643
68	0xbcb20075	-0.021728734
69	0x3cc95a9b	0.024579337
70	0xbcaa62bd	-0.020799035
71	0xbcba360b	-0.022730848
72	0x3cc21d01	0.02369547
73	0x3cc26784	0.023731
74	0xbcac70b2	-0.021049831
75	0x3cb83540	0.02248633
76	0x3cb63de3	0.022246307
77	0x3cc75514	0.02433256
78	0x3cb82c11	0.02248195
79	0x3cc2113c	0.023689859
80	0x3cc05cab	0.023481688
81	0x3cc1bc7a	0.023649443
82	0xbcb56e8f	-0.022147445
83	0x3cbef1b5	0.023308614
84	0xbcafb196	-0.021446984
85	0x3cc28c19	0.023748444
86	0xbcae8de6	-0.021307897
87	0xbcb0e127	-0.021591736
88	0x3ccdd0da	0.025124002
89	0x3cc4ae9a	0.024009038
90	0x3cc2625e	0.023728546
91	0xbcb171d6	-0.021660727
92	0xbcb7f922	-0.022457663
93	0x3cc24b45	0.023717532
94	0xbca95dee	-0.020674672
95	0x3cbf4762	0.023349468
96	0xbcafeb1e	-0.021474417
97	0x3cc3d419	0.023904847
98	0xbcaf0b55	-0.021367708
99	0xbcae5ffc	-0.021286003

fc.3.weight f4 [100, 100]
0	0x3d3dda72	0.046350904
1	0xb92fd945	-0.0001677024
2	0xbc118371	-0.008881436
3	0x3cb81b24	0.02247388
4	0xbb435b80	-0.0029809177
5	0x3d1527d1	0.036414925
6	0x3ca96678	0.020678744
7	0x3d27ad28	0.04093662
8	0xbb98a29c	-0.0046580564
9	0x3a3117bc	0.0006755551
10	0xbc6dc203	-0.014511588
11	0x3ca78424	0.020448752
12	0x3d4a3f55	0.049376804
13	0xbc05ada4	-0.008159075
14	0x3c905df8	0.017622933
15	0x3c9730bc	0.018455856
16	0x3ba4eee6	0.0050333617
17	0x3b98de55	0.004665176
18	0x3d5c14c8	0.053730756
19	0xbc93c376	-0.018037539
20	0xbc656f08	-0.014003523
21	0xbc5e13af	-0.013554498
22	0x3d0f0ee6	0.034926318
23	0x3c5a376d	0.013318879
24	0x3d202b11	0.03910357
25	0x3c6ab6f0	0.014325842
26	0xbcc85d93	-0.024458682
27	0x3d016126	0.03158679
28	0x39b09158	0.00033677625
29	0x3cf86726	0.030322623
30	0xbbb9c074	-0.005668694
31	0xbcdf72df	-0.027276454
32	0x3d196d48	0.037457734
33	0x3d0f5956	0.034997307
34	0xbd153b04	-0.036433235
35	0x3d801d3b	0.06255575
36	0x3d28dc40	0.04122567
37	0xbc15f8e8	-0.009153582
38	0x3c8dcc38	0.017309293
39	0x3d36e645	0.044653196
40	0x3d72d491	0.05928475
41	0xbbc622ab	-0.006046613
42	0x3d340523	0.04395021
43	0xbd049332	-0.03236694
44	0x3bdd93ad	0.006761989
45	0x3c879d66	0.016554546
46	0x3c19c276	0.009384742
47	0x3c530a69	0.0128809
48	0xba3ea2b9	-0.00072721724
49	0xbd6399a8	-0.05556646
50	0xbc787f80	-0.015167117
51	0x3abdc166	0.0014477193
52	0x3cf07666	0.029353332
53	0x3c1df8c7	0.009641833
54	0xbc0a2884	-0.008432511
55	0x3ca54db5	0.020178655
56	0xbcb8a250	-0.022538334
57	0x3d193a43	0.03740908
58	0xbd39ac25	-0.045330185
59	0x3c7f4c10	0.0155821
60	0xbc8e78b0	-0.017391533
61	0x3da02f95	0.078215756
62	0x3d90bf05	0.07067684
63	0x3c10849a	0.008820677
64	0x3b49a9a5	0.0030771282
65	0xbc84c96c	-0.016209327
66	0xbc5f8661	-0.013642878
67	0x3cca0dea	0.024664838
68	0xbc6d8df5	-0.014499177
69	0x3cd6ddbd	0.02622878
70	0xbc5e4b72	-0.013567792
71	0x3a1bd4e2	0.0005944503
72	0x3cfe41ed	0.031037295
73	0xbc3726f0	-0.011178717
74	0xbc33e8aa	-0.010980764
75	0x3c031c82	0.008002402
76	0x3cf38e5a	0.029730964
77	0x3d7f367b	0.062307816
78	0x3d66a96e	0.056313924
79	0x3c0416d6	0.008062085
80	0x3d5c43af	0.053775486
81	0x3c483cc5	0.01222152
82	0xbc7650a9	-0.015033879
83	0x3c85a191	0.016312392
84	0xbc6705fb	-0.014100547
85	0x3cac948f	0.021066932
86	0xbd23dada	-0.040003635
87	0xbd58307d	-0.052780617
88	0x3c95ff03	0.018310076
89	0x3c02c068	0.007980444
90	0x3d418983	0.047250282
91	0xbc9c7630	-0.019099325
92	0xbcd85201	-0.02640629
93	0x3cb18f35	0.021674732
94	0xbcf721bd	-0.030167455
95	0x3cebe7f4	0.028797127
96	0xbc13f2cd	-0.009030056
97	0x3d53e159	0.05172858
98	0x3b12c9ab	0.0022398036
99	0xbc8f817b	-0.017517796
100	0xbdb438b1	-0.087998755
101	0x3dc8f57a	0.09812446
102	0x3d580c69	0.05274621
103	0xbd68b514	-0.056813315
104	0x3d8e7e56	0.069576904
105	0xbd30280d	-0.043006945
106	0xbde70081	-0.11279393
107	0xbd814d33	-0.06313553
108	0x3daf492d	0.08558879
109	0x3dcc2a2e	0.09968983
110	0xbd7f7976	-0.062371694
111	0xbda48479	-0.0803308
112	0xbd8f754d	-0.07004795
113	0x3dad409e	0.084595904
114	0xbdd46790	-0.103713155
115	0xbdcfe199	-0.10150451
116	0x3da638cc	0.08116302
117	0xbdf6440e	-0.12024699
118	0xbdb08967	-0.086199574
119	0x3da75d69	0.081721134
120	0x3d878e47	0.06618934
121	0x3d8dc14e	0.069216356
122	0xbd9467ea	-0.072463825
123	0xbd9dc991	-0.07704461
124	0xbd68299f	-0.056680318
125	0xbd751add	-0.059840072
126	0x3dd65afb	0.10466572
127	0xbda670e7	-0.08127003
128	0x3d98ee2d	0.074673034
129	0xbd9960ef	-0.07489192
130	0xbcb22bb1	-0.02174935
131	0x3dccb30f	0.0999509
132	0xbda2bc76	-0.07946102
133	0xbd92a01c	-0.07159445
134	0xbdd553d0	-0.104163766
135	0xbdae40a9	-0.08508427
136	0xbd844d7b	-0.06460091
137	0x3d838204	0.06421283
138	0x3d994356	0.074835464
139	0xbda85421	-0.08219171
140	0xbd94a056	-0.07257144
141	0xbdb85b57	-0.09001797
142	0xbda57903	-0.08079722
143	0x3da2490b	0.07924088
144	0x3dc88cf7	0.09792512
145	0x3db9c1da	0.090701774
146	0xbda3f8f7	-0.08006471
147	0xbda00058	-0.078125656
148	0x3d41d3eb	0.04732124
149	0x3da79e0d	0.08184443
150	0x3dd3d751	0.10343803
151	0x3d767b47	0.06017616
152	0xbdb8fd79	-0.09032721
153	0x3da7f5d9	0.082011886
154	0x3da4ff01	0.08056451
155	0xbcdf01df	-0.027222572
156	0x3da5ce73	0.08096018
157	0xbd9b7db9	-0.07592339
158	0x3db12f9b	0.08651658
159	0x3d8a2597	0.06745451
160	0xbde297dd	-0.11064122
161	0xbda28195	-0.07934872
162	0xbda7fc13	-0.08202376
163	0x3dd763dc	0.105170935
164	0x3dca677d	0.0988302
165	0xbda445e3	-0.08021142
166	0xbd967131	-0.07345808
167	0xbdb094e0	-0.08622146
168	0x3d7ef73e	0.062247507
169	0xbd9e4fd8	-0.07730073
170	0x3d843b51	0.06456626
171	0x3d9a1286	0.07523064
172	0xbd9d9bd1	-0.07695735
173	0xbde8af9e	-0.11361621
174	0x3d7f6eee	0.06236165
175	0xbd86a7c4	-0.065749675
176	0xbd98c22e	-0.07458912
177	0xbd127879	-0.035759423
178	0xbd793475	-0.060841043
179	0xbdd855a6	-0.10563211
180	0xbd9f5e2c	-0.07781634
181	0xbddc3f17	-0.10754221
182	0x3d639134	0.0555584
183	0xbdb83565	-0.08994559
184	0x3dce0b94	0.10060802
185	0xbdbfb97f	-0.093615524
186	0x3dce24ba	0.10065599
187	0x3d9a73fe	0.07541655
188	0xbdcdc27b	-0.1004686
189	0xbdac4b07	-0.08412748
190	0xbdbd76b1	-0.09251154
191	0x3ddc3e42	0.10754062
192	0x3d70f1e7	0.058824446
193	0xbdbe01a3	-0.09277656
194	0x3db8b3d1	0.09018672
195	0xbdda89c9	-0.10670812
196	0x3d992a7c	0.074788064
197	0xbd90f909	-0.0707875
198	0x3de23049	0.11044366
199	0x3d8cf62d	0.06882892
200	0xbdb07a6c	-0.086171
201	0x3da0ca61	0.07851101
202	0x3da44fdd	0.08023045
203	0xbdc3b251	-0.095554955
204	0x3d8fc8a3	0.0702069
205	0xbdb84d0e	-0.08999072
206	0xbd96317c	-0.07333657
207	0xbdabc603	-0.08387377
208	0x3df2b30c	0.11850557
209	0x3ddd019a	0.10791321
210	0xbde910d4	-0.11380163
211	0xbdbc3ae5	-0.09190921
212	0xbdd831d9	-0.10556383
213	0x3dfc98c7	0.123338275
214	0xbd614d88	-0.05500558
215	0xbdb323e5	-0.08747081
216	0x3d73959d	0.059468854
217	0xbda817fc	-0.082077
218	0xbda1265a	-0.07868643
219	0x3e010227	0.12598477
220	0x3db3732b	0.08762201
221	0x3da8468d	0.082165815
222	0xbda28615	-0.0793573
223	0xbd952cad	-0.07283912
224	0xbd866555	-0.06562296
225	0xbd6659ce	-0.05623799
226	0x3d85ce2b	0.06533464
227	0xbd9dfa22	-0.07713725
228	0x3da22863	0.079178594
229	0xbde6d29b	-0.112706386
230	0xbdd8235e	-0.10553621
231	0x3dc38e07	0.09548574
232	0xbddea655	-0.10871569
233	0xbda49c3e	-0.08037613
234	0xbde74be6	-0.11293773
235	0xbd934d33	-0.07192459
236	0xbdb8e37b	-0.090277635
237	0x3d9ba339	0.075994916
238	0x3dc0260e	0.09382258
239	0xbda5f861	-0.08104015
240	0xbd388a59	-0.045053814
241	0xbd98bb44	-0.07457593
242	0xbdd8216f	-0.10553252
243	0x3d399c53	0.045315098
244	0x3d88572a	0.0665725
245	0x3dc6e133	0.09710922
246	0xbd46c2fb	-0.04852579
247	0xbda4053f	-0.08008813
248	0x3dc57d31	0.09643019
249	0x3dd90796	0.1059715
250	0x3d7b2a31	0.061319534
251	0x3db2e423	0.0873492
252	0xbdbc3992	-0.09190668
253	0x3db1d197	0.08682554
254	0x3dab6a81	0.083699234
255	0xbdccf834	-0.100082785

fc.3.bias f4 [100]
0	0x3c893929	0.016750889
1	0xbc8dafcf	-0.017295746
2	0xbca181d6	-0.01971523
3	0x3c9a5665	0.018840024
4	0x3cb39ad2	0.02192441
5	0x3c7f093b	0.015566166
6	0x3ca66c33	0.020315265
7	0xbc9a8959	-0.01886432
8	0x3c9fc88b	0.019504806
9	0xbc995e72	-0.018721793
10	0x3c9a93b1	0.018869253
11	0x3cb28633	0.021792507
12	0x3ca9299b	0.020649722
13	0xbcabc16b	-0.020966252
14	0x3c9cd5df	0.01914495
15	0xbc946945	-0.018116603
16	0x3c9d1e50	0.019179493
17	0xbc791b87	-0.015204317
18	0xbc906e89	-0.017630832
19	0xbcb33ea8	-0.021880463
20	0x3c873116	0.016502898
21	0x3c69090c	0.014223348
22	0xbc99c9d5	-0.018772999
23	0x3cc4ad7a	0.024008501
24	0x3cb0a28a	0.02156188
25	0xbc9dea2d	-0.019276703
26	0x3c5e7569	0.013577797
27	0x3c8c3e09	0.017119424
28	0xbc816ad1	-0.015798004
29	0xbc9dc882	-0.019260649
30	0x3ca247b0	0.019809574
31	0x3c99b244	0.018761761
32	0x3c911f3e	0.017715093
33	0xbc9bf984	-0.019039877
34	0xbc843ce4	-0.016142316
35	0x3c9193c6	0.01777066
36	0xbcb53da3	-0.022124117
37	0x3c950f0b	0.01819565
38	0xbc9fa3ad	-0.019487226
39	0xbc7a57ae	-0.0152796935
40	0x3cae46be	0.021273967
41	0xbc9257e9	-0.017864184
42	0x3cb37a7a	0.021908987
43	0xbcb2e8a4	-0.021839447
44	0x3c9cd16b	0.019142827
45	0xbcb02e49	-0.021506445
46	0x3c8df0cb	0.017326733
47	0x3ca4c4be	0.020113345
48	0xbca2c388	-0.019868627
49	0x3c8a137e	0.016854998
50	0xbc95bdb9	-0.018278943
51	0xbcaeee0e	-0.021353748
52	0x3c9c2109	0.019058721
53	0xbc944e4b	-0.01810374
54	0x3c75f014	0.015010852
55	0x3c962370	0.018327445
56	0x3c7e7bcd	0.015532446
57	0x3ca46aa7	0.020070387
58	0x3ca9cef2	0.020728562
59	0xbc9f5cda	-0.019453455
60	0x3ca203e3	0.019777244
61	0x3cb128d4	0.021625914
62	0xbca2f5a4	-0.019892521
63	0x3c92bd4b	0.017912528
64	0x3c957ce4	0.018248029
65	0xbcb706a8	-0.022342041
66	0x3cb8517c	0.022499792
67	0x3c9c0c76	0.01904891
68	0x3c8db990	0.017300397
69	0xbc96613b	-0.01835691
70	0xbc986a37	-0.018605335
71	0xbc959270	-0.018258303
72	0xbc9dbfec	-0.019256555
73	0xbcbe3786	-0.023219835
74	0x3c662538	0.01404696
75	0x3ca49ba7	0.020093752
76	0xbcafbe3c	-0.021453016
77	0xbc98075e	-0.0185582
78	0xbca49b13	-0.020093476
79	0x3c80c82f	0.015720455
80	0xbc8794f0	-0.016550511
81	0xbca232b3	-0.019799566
82	0xbc98e0dc	-0.018661909
83	0xbca14778	-0.0196874
84	0xbc993ba3	-0.018705195
85	0xbcb1e55f	-0.021715818
86	0xbca12825	-0.019672463
87	0xbca402a9	-0.0200208
88	0xbc98f225	-0.018670151
89	0xbca7a1a3	-0.020462817
90	0xbca139ac	-0.01968082
91	0xbcbd0455	-0.023073355
92	0xbc96ccc8	-0.018408194
93	0xbc9aa6a4	-0.018878289
94	0x3c96c434	0.018404104
95	0xbca491db	-0.02008908
96	0xbc79bde7	-0.01524303
97	0x3cb989e9	0.022648768
98	0xbca52a09	-0.020161645
99	0x3ca58418	0.020204589

fc.4.weight f4 [100, 100]
0	0x3db0888e	0.08619796
1	0xbe138381	-0.14405634
2	0xbe01f7e9	-0.12692226
3	0x3d88e8e8	0.06685048
4	0x3e055b6c	0.13023156
5	0x3e068812	0.13137844
6	0x3daa0acf	0.08302843
7	0xbe2f5785	-0.1712323
8	0x3e187c64	0.14891201
9	0xbe1feac1	-0.15616895
10	0x3d6beced	0.057598997
11	0x3dbe3601	0.09287644
12	0x3da2deb2	0.07952632
13	0xbe00ed76	-0.12590584
14	0x3de8b82d	0.11363254
15	0xbe4d719e	-0.20062873
16	0x3d21b114	0.039475515
17	0xbdee92d3	-0.11649098
18	0xbdf8dfa4	-0.12152031
19	0xbdf9bd91	-0.1219436
20	0x3d646aca	0.055765904
21	0x3e0b9c3c	0.13633817
22	0xbe0d6777	-0.13809
23	0x3d407675	0.04698797
24	0x3d6fbbed	0.05852883
25	0xbe04c624	-0.1296621
26	0x3e004ff6	0.12530503
27	0x3db48a94	0.08815494
28	0xbe0bec67	-0.13664399
29	0xbe06f989	-0.13181128
30	0x3dbd1c63	0.0923393
31	0x3daa36aa	0.083112076
32	0x3daaa68f	0.0833255
33	0xbe19ecbf	-0.15031718
34	0xbe16dddd	-0.14733072
35	0x3df6af9c	0.120452136
36	0xbe002b8d	-0.12516613
37	0x3d3d29ad	0.046182323
38	0xbe1c8f68	-0.1528908
39	0xbe36b303	-0.17841725
40	0x3dcc108f	0.09964096
41	0xbe105f31	-0.14098813
42	0x3dc9ea70	0.098591685
43	0xbe43a026	-0.1910406
44	0x3e02c88e	0.12771818
45	0xbe1f4705	-0.15554436
46	0x3db04e03	0.086086296
47	0x3d948575	0.072520174
48	0xbe2aa86f	-0.16665815
49	0x3da23daf	0.079219215
50	0xbe235bc5	-0.15952976
51	0xbdd2590b	-0.1027089
52	0x3d8f8906	0.07008557
53	0xbe102cd8	-0.14079607
54	0x3dc2f0dc	0.095185965
55	0x3d922568	0.07136041
56	0x3da8bcb1	0.08239115
57	0x3dd9cb4c	0.10634479
58	0x3dd8de07	0.10589223
59	0xbe15ea67	-0.14640199
60	0x3dff7627	0.12473708
61	0x3db5667e	0.088574395
62	0xbe2c117e	-0.16803548
63	0x3e18438a	0.14869514
64	0x3d54e096	0.051971994
65	0xbdeb06a4	-0.11475876
66	0x3da8acd6	0.08236091
67	0x3db8c0d0	0.09021151
68	0x3dc97c63	0.09838178
69	0xbe10809e	-0.14111564
70	0xbdd68925	-0.10475377
71	0xbe0b0e2e	-0.13579628
72	0xbe173a6d	-0.14768381
73	0xbe2f3586	-0.17110261
74	0x3dc4c948	0.09608704
75	0x3deefd6f	0.11669432
76	0xbe1ab26f	-0.1510713
77	0xbe123228	-0.14276946
78	0xbe12455e	-0.14284274
79	0x3e0bfefa	0.13671485
80	0xbdf3d03e	-0.119049534
81	0xbe11bef6	-0.14233002
82	0xbe19ea31	-0.15030743
83	0xbe03d68f	-0.12874816
84	0xbe1fe019	-0.1561283
85	0xbe0812ed	-0.1328847
86	0xbe27cbf8	-0.16386402
87	0xbe162a08	-0.14664471
88	0xbe1c760b	-0.15279405
89	0xbe2cd554	-0.16878253
90	0xbe0e9e23	-0.13927512
91	0xbe14fe3a	-0.14550105
92	0xbdf2fbbe	-0.11864422
93	0xbe1cd720	-0.15316439
94	0x3dc1cb43	0.09462597
95	0xbdd27ee4	-0.10278109
96	0xbe4aa7e2	-0.19790605
97	0x3dae3b9f	0.085074656
98	0xbe119d6c	-0.14220208
99	0x3d3f55ec	0.0467128
100	0x3e12a1e5	0.1431957
101	0xbe09ba7b	-0.13450043
102	0xbe14ccac	-0.14531201
103	0x3dfab2f4	0.12241164
104	0x3df07f9f	0.11743092
105	0x3e2b472f	0.16726373
106	0x3e175dfa	0.14781943
107	0xbdd81bfe	-0.10552214
108	0x3e0ba4c5	0.13637073
109	0xbe099727	-0.13436566
110	0x3e207361	0.15669014
111	0x3e107cd3	0.14110117
112	0x3de64d18	0.11245173
113	0xbde0470b	-0.1095105
114	0x3e19c707	0.15017329
115	0xbe2b5ad4	-0.16733867
116	0x3df5e64e	0.12006818
117	0xbde3db86	-0.11125855
118	0xbe13d67b	-0.14437287
119	0xbdf74b19	-0.120748706
120	0x3e03248a	0.12806907
121	0x3e18ddce	0.14928362
122	0xbdfb3c6b	-0.12267383
123	0x3e0e8970	0.13919616
124	0x3e1ebfbb	0.15502827
125	0xbdcc48b2	-0.09974803
126	0x3e0dc36c	0.13844079
127	0x3e0ddd59	0.13853969
128	0xbde2ab21	-0.110677965
129	0xbdfdc542	-0.123911396
130	0x3e0d4423	0.13795523
131	0x3dd31c84	0.10308173
132	0x3d82fa36	0.0639538
133	0xbe00ad11	-0.1256602
134	0xbe1892ea	-0.14899793
135	0x3dd7ebee	0.10543047
136	0xbe164cec	-0.14677781
137	0x3e28ba4f	0.16477321
138	0xbe1a6ff8	-0.15081775
139	0xbe275be5	-0.16343649
140	0x3ddae4ad	0.10688148
141	0xbe22208a	-0.15832725
142	0x3d8ffff3	0.0703124
143	0xbdde17fc	-0.108444184
144	0x3d9cfba4	0.07665184
145	0xbdebf0b4	-0.1152052
146	0x3e123689	0.14278616
147	0x3e0ec952	0.13943985
148	0xbdbf35fd	-0.09336469
149	0x3e014822	0.12625173
150	0xbdfaf15d	-0.12253068
151	0xbe1d07be	-0.15334985
152	0x3e086334	0.13319093
153	0xbe22f946	-0.15915403
154	0x3de917fe	0.11381529
155	0x3e18ae01	0.14910127
156	0x3df6b6a2	0.12046553
157	0x3dc3332f	0.09531247
158	0x3e079903	0.13241963
159	0xbe0dcc89	-0.13847555
160	0x3dd1f10c	0.10251054
161	0x3dffe573	0.12494936
162	0xbe1c6e98	-0.15276563
163	0x3da9825b	0.082768165
164	0x3dea1a51	0.11430801
165	0xbde453ba	-0.11148782
166	0x3ddda9fd	0.10823438
167	0x3de949e8	0.113910496
168	0x3e0bf443	0.13667397
169	0xbe1d3069	-0.15350498
170	0xbe140bd3	-0.14457636
171	0xbe0bb1e7	-0.13642083
172	0xbe22c262	-0.15894464
173	0xbe009215	-0.12555726
174	0x3d9549df	0.072894804
175	0x3e1a4d7f	0.15068625
176	0xbdbce916	-0.09224145
177	0xbe194ded	-0.14971133
178	0xbe0a468c	-0.13503474
179	0x3e1d3884	0.1535359
180	0xbdf36c4c	-0.1188589
181	0xbe1c01ac	-0.15235013
182	0xbde9a43e	-0.1140828
183	0xbde7c255	-0.11316363
184	0xbe11a51f	-0.14223145
185	0xbdde30dd	-0.10849164
186	0xbe042017	-0.12902866
187	0xbdf78dae	-0.1208757
188	0xbdffd95e	-0.124926314
189	0xbe128a29	-0.14310516
190	0xbdf9bb10	-0.121938825
191	0xbe0b0d91	-0.13579394
192	0xbdf632cf	-0.1202141
193	0xbde2eacf	-0.110799424
194	0x3dfe9487	0.12430673
195	0xbde66a62	-0.1125076
196	0xbe1a97bf	-0.15096949
197	0x3e22c44b	0.15895192
198	0xbe067af4	-0.1313284
199	0x3e115938	0.1419419
200	0xbd93ee32	-0.072231665
201	0x3d8ee64f	0.06977522
202	0x3ddb4940	0.10707331
203	0xbd012102	-0.03152562
204	0xbd0e1d6b	-0.034696024
205	0xbca8eca9	-0.02062066
206	0xbd136880	-0.03598833
207	0x3dc615af	0.096721046
208	0xbd8c92dd	-0.068639494
209	0x3db0b0cd	0.08627472
210	0xbd792139	-0.0608227
211	0xbd739229	-0.05946556
212	0xbd62ae37	-0.055341925
213	0x3d48b6e7	0.049002554
214	0xbd5e6705	-0.054297466
215	0x3d6609ed	0.05616181
216	0xbd419edd	-0.047270644
217	0x3d96e81d	0.07368491
218	0x3d88a7d9	0.066726394
219	0x3d65dab5	0.05611678
220	0xbd51b084	-0.05119373
221	0xbbaf1a6c	-0.005343726
222	0x3dab826c	0.083744854
223	0xbc03d58e	-0.008046521
224	0xbd3696e2	-0.044577487
225	0x3d8649ed	0.06557069
226	0xbd449374	-0.047992185
227	0xbd303660	-0.043020606
228	0x3da8c585	0.08240799
229	0x3d9c3a9c	0.07628366
230	0xbcbc5971	-0.022991868
231	0xbd1b836f	-0.03796714
232	0xbd88709b	-0.06662103
233	0x3d69e15c	0.057099685
234	0x3dd9178c	0.10600194
235	0xbd94d536	-0.07267229
236	0x3de2d76e	0.11076246
237	0xbd454906	-0.048165344
238	0x3d197186	0.03746178
239	0x3d80a42f	0.062813155
240	0xbd71bda8	-0.05901876
241	0x3d4743b1	0.04864854
242	0xbce769f1	-0.028248759
243	0x3d4e73ba	0.050403334
244	0xbd35d2e7	-0.044390585
245	0x3d6cd689	0.057821784
246	0xbd3d7fc3	-0.04626442
247	0xbcaff402	-0.021478657
248	0x3dc78898	0.0974285
249	0xbce81ecb	-0.028334996
250	0x3da8a77f	0.08235072
251	0x3dc3c440	0.09558916
252	0xbdb04002	-0.086059585
253	0x3d45919c	0.048234567
254	0xbd6ccb9c	-0.057811365
255	0xbd41cc17	-0.047313776

fc.4.bias f4 [100]
0	0xbe03fcc8	-0.12889397
1	0xbe1454aa	-0.14485422
2	0xbd7b5ae1	-0.061365966
3	0xbe186321	-0.14881565
4	0xbe0c17dd	-0.13680978
5	0xbe0fe34d	-0.14051552
6	0xbd1338c3	-0.035942804
7	0xbe03da15	-0.1287616
8	0xbd10cce6	-0.035351656
9	0xbde7fd8e	-0.113276586
10	0xbd767bec	-0.060176775
11	0xbe0bd011	-0.1365359
12	0xbd02c116	-0.031922422
13	0xbd4da8b0	-0.0502097
14	0xbd84cb8b	-0.06484135
15	0xbd6c2d19	-0.057660196
16	0xbe1dc67a	-0.15407744
17	0xbe06c142	-0.1315966
18	0xbd82b77c	-0.06382653
19	0xbd23c35a	-0.039981224
20	0xbe0b7c3c	-0.1362161
21	0xbd64897f	-0.05579519
22	0xbe0174d4	-0.12642223
23	0xbe0028d8	-0.1251558
24	0xbd8c0103	-0.068361305
25	0xbd2c8233	-0.042116355
26	0xbd7015e5	-0.05861463
27	0xbde83354	-0.11337915
28	0xbdc455af	-0.09586655
29	0xbdd366f9	-0.10322375
30	0xbd42486b	-0.047432344
31	0xbd3fe6fc	-0.046851143
32	0xbd4b690a	-0.04966072
33	0xbd2789f6	-0.040903054
34	0xbdab8c3f	-0.08376359
35	0xbe1844da	-0.14870015
36	0xbdf86e7e	-0.1213045
37	0xbe0c8d30	-0.13725734
38	0xbe3d86b4	-0.18508416
39	0xbe08063d	-0.1328363
40	0xbe1ff45e	-0.15620562
41	0xbe07d55d	-0.13264985
42	0xbd6df07a	-0.058090664
43	0xbdec63a3	-0.11542442
44	0xbd986c81	-0.074425705
45	0xbe1eb28e	-0.154978
46	0xbde120a0	-0.10992551
47	0xbdfd6cc1	-0.12374259
48	0xbd64bc33	-0.055843543
49	0xbdbdae30	-0.09261739
50	0xbdf5277f	-0.11970424
51	0xbdfaa631	-0.1223873
52	0xbe203eac	-0.15648907
53	0xbd66fd6d	-0.05639403
54	0xbd72bb50	-0.059260666
55	0xbe02f682	-0.12789348
56	0xbd7a4e4a	-0.06110982
57	0xbe1707a0	-0.14749002
58	0xbd2d203c	-0.04226707
59	0xbd4bdcab	-0.049770992
60	0xbd82836d	-0.06372724
61	0xbe11874f	-0.14211772
62	0xbd457c68	-0.048214346
63	0xbe0ac0b3	-0.13550071
64	0xbd0562bf	-0.032564875
65	0xbd889180	-0.06668377
66	0xbd6608f0	-0.056160867
67	0xbe20daa7	-0.15708409
68	0xbdf30fa5	-0.11868218
69	0xbd49fe18	-0.04931459
70	0xbd6cded9	-0.05782971
71	0xbe0cb323	-0.1374021
72	0xbde185e5	-0.110118665
73	0xbd567fb0	-0.052367866
74	0xbe2e6f20	-0.17034578
75	0xbe000c5e	-0.12504718
76	0xbd9f2341	-0.07770396
77	0xbe167dd1	-0.14696433
78	0xbdb3518d	-0.08755789
79	0xbddeee82	-0.108853355
80	0xbe18c5f6	-0.14919266
81	0xbde86b4d	-0.11348591
82	0xbd81eef1	-0.063444026
83	0xbe1c241a	-0.15248147
84	0xbd3a51fc	-0.045488343
85	0xbd67e615	-0.056615908
86	0xbda5b4a1	-0.08091093
87	0xbe0a1be7	-0.13487206
88	0xbd77845e	-0.06042897
89	0xbdec8c90	-0.11550248
90	0xbe1e094d	-0.15433235
91	0xbe23100a	-0.15924087
92	0xbdbe2201	-0.092838295
93	0xbe11e94e	-0.14249155
94	0xbd31febe	-0.04345583
95	0xbe0aa96d	-0.13541193
96	0xbd43644d	-0.047703076
97	0xbe171d72	-0.14757326
98	0xbe2299ab	-0.15878932
99	0xbe22a471	-0.15883042
