results/Smoothed_InfoNCE_dim6_reg1_alpha0.02.pt (torch, 408485 bytes, 5 tensors)

fc.0.weight f4 [100, 12]
00000000: f880 55be 5c31 fc3e 05b9 8dbe 62ba f63e
00000010: f4d5 6fbd 9dbc 1b3e ece6 73be 4d28 093e
00000020: 8ab0 2abe ef4d 8a3d f94a 9dbd c4e3 dc3d
00000030: 5afa 953e ba61 afbe 213d 9abe b003 263e
00000040: 0691 4dbf d06d f43d e19c 963e 1ac4 5fbf
00000050: af53 68bc 1732 8f3e 2a17 03bf 7768 fc3e
00000060: c29e 1cbf 59b2 1f3f 5808 c53e 9692 973d
00000070: 5d89 c0bd d03f 0bbe 00b9 cd3d 6275 b13e
00000080: 8fc0 f43e 3ff7 39be 34e5 973e 76ea 073e
00000090: d36c d8be e4f1 323e 7672 dbbe 870d d23b
000000a0: 6cdc 6e3e 3b7f 853e 8ca4 c93e 27cd 253e
000000b0: 41ff 913f d36b 3cbe 997d bfbe 57c7 e3be
000000c0: 9e2b 4b3e b052 2ebf 3205 193f 31c7 c33e
000000d0: cde2 26bf 4ce8 793e 7e65 88be b5b3 c93e
000000e0: 406e 18bf 6e3e 24bd 8aaa b73e 416c 0fbe
000000f0: 4305 a7be a19b 9d3e 4953 73be c193 37bf
00000100: cd81 ce3e 8b82 9a3e 4d6e 473e 9faa 3cbf
00000110: 0bf2 1d3d 1601 de3e 1174 04bf f88a debd
00000120: f6f8 1a3f 18a8 733e ecc5 8abe bf0a 373d
00000130: fac7 8b3d 1fea 8d3e 1e18 8b3e 926f 0e3f
00000140: 2bc0 debd 41f8 bd3c 6c39 ffbc 36ef 52bd
00000150: 3353 8d3e 7813 1dbf cfeb 8ebe 2269 c23d
00000160: 6654 e0bd 8ebf c5be c1d6 a8bf 2788 bc3e
00000170: 92b6 c73e 5107 54be 1f74 933d 9550 913e
00000180: 81ab e23e e756 08bf b960 eebe fd91 b9be
00000190: 118f 983e 3e25 8cbe 2b36 f13e 0d0a f13e
000001a0: f442 2fbe d9f7 abbd 5a5d eb3d 1f7f a2be
000001b0: 16e4 a6be 427d e7bd 9355 acbe 7044 18be
000001c0: 34b6 c23e 5183 40bb 43aa d33e fed7 183e
000001d0: f21d 153d 0234 c33e de42 6ebe 8178 8bbd
000001e0: 6374 c8be 027d cc3e e88c f53e f1e2 4f3e
000001f0: 8b05 04be add5 9bbe b6ff 753e 8bca 9cbe
00000200: d0b8 fdbe 1995 00bf bcd3 6b3d 2f42 833e
00000210: 91db b9bc 74eb fe3e 471c a9be b1a4 693f
00000220: d51d c13e 75f0 15bf 7581 b1bd 9516 adbe
00000230: 02da cc3c 02be 8ebe bdc9 59be 0b6e c53e
00000240: c803 a1be 763a b7be cb3b bd3e a3c6 05bd
00000250: acea 043f 2fcf 66bd 89ee c73e c98c 873e
00000260: 441e 59be 932f 0e3e a743 9abe 378a e53d
00000270: 5e61 3e3f eed4 2dbf c60d adbe c0d1 58be
00000280: d205 00bf d149 aa3e f5d3 19bf 9bd5 463e
00000290: 3a21 8bbe 9548 9ebd 5eeb 633f c166 01bf
000002a0: 5cc5 0a3e 94f3 823e 9f4a 36be 7aeb 3ebf
000002b0: 716d 31be c733 52bf 3f61 483e c496 093e
000002c0: 869f aebd 2367 833f a58b d2be 85ee 503e
000002d0: 9dc9 b2be 6ff0 4a3e 84ed a63e 2480 6d3e
000002e0: 9a6a c23e 64ba a3bd 853e 803e 6119 82be
000002f0: 3b99 05be 9533 bbbe 246c 71be 355b f83c
00000300: 5a20 b63e dddc f5bd 4469 83be c6bc f6be
00000310: 6de0 223f 8203 b43e 8308 25bf a876 88be
00000320: 3f1c a0be fe29 e33e d7a3 7abf 8a9c 9dbe
00000330: fce7 ce3e e8a2 d4bb a6b0 21be 0e50 a3be
00000340: ce27 113f 6932 9a3e 784f dcbe c72d 613e
00000350: cdaf cabc 2256 493e 5608 f2be 98d4 9dbe
00000360: 6a39 61be 06b8 603e ac82 5ebf 9575 aa3e
00000370: 5976 f8bd 52f4 b63e 2777 9bbd 0b13 6dbe
00000380: c888 97bd 3992 b4be 8e6a 163f 75df ae3e
00000390: 2729 433e c988 e2bd 7313 b73e 8910 c1be
000003a0: 3207 1ebe a577 96be b8b4 82be 6e08 593e
000003b0: 4d3d 77bd ff66 8e3e f655 533e 3a0c 123f
000003c0: ef29 c63e 450f da3d a417 603f c4bf f3bc
000003d0: 41a5 eebe 64d0 06bf ca5a 3dbe 5a21 71bc
000003e0: e1a2 50be 059b 283e 3f7f 4a3e 9aa1 673e
000003f0: cd33 f1bd 98be b23c e500 3abd 63be 523e
-0.20849979 0.49256408 -0.2768022 0.48189074 -0.05855365 0.15208669 -0.23818558 0.1339428
-0.16668907 0.06753146 -0.076803155 0.1078563 0.29292566 -0.34254247 -0.30124763 0.16212344
-0.80299413 0.119350076 0.29416564 -0.874086 -0.014180108 0.27967903 -0.5120722 0.4929845
-0.61179745 0.6238151 0.38482928 0.07401006 -0.094012 -0.13598561 0.100450516 0.34659868
0.4780316 -0.18160723 0.29667056 0.13273033 -0.42270526 0.17475086 -0.42860764 0.006410304
0.23326272 0.26073632 0.39383352 0.1619154 1.1406022 -0.18400507 -0.3740051 -0.44488022
0.19840857 -0.6809492 0.5977355 0.38237908 -0.6518982 0.2440502 -0.26639932 0.39394918
-0.5954323 -0.0400986 0.35872298 -0.1400614 -0.32621202 0.30782798 -0.2376224 -0.7170983
0.40333405 0.3017772 0.1947567 -0.7369785 0.03856091 0.43360204 -0.51739603 -0.1086635
0.60536134 0.23794591 -0.27104127 0.044687983 0.06825252 0.27717683 0.27166837 0.5563899
-0.10876497 0.023189666 -0.03115531 -0.05149766 0.27602538 -0.6135783 -0.27914283 0.09492709
-0.10953598 -0.38622707 -1.3190538 0.36822626 0.39006478 -0.20705916 0.07199883 0.28381792
0.44271472 -0.532576 -0.4655817 -0.36244193 0.2979665 -0.27372164 0.4711164 0.4707798
-0.17115384 -0.083968826 0.11492415 -0.3173761 -0.3259589 -0.11303188 -0.33659038 -0.14869857
0.38029635 -0.0029375146 0.41340837 0.14926144 0.03640551 0.38125616 -0.23267695 -0.06810094
-0.39151296 0.39939123 0.47959065 0.20301415 -0.1289274 -0.3043646 0.24023327 -0.30623278
-0.49555063 -0.50227505 0.057574973 0.25636432 -0.022687705 0.4978901 -0.33029386 0.91266924
0.37718073 -0.58570033 -0.0866727 -0.3380629 0.025006298 -0.2787934 -0.21268363 0.3856052
-0.31448197 -0.3578679 0.3695968 -0.032660138 0.5192058 -0.05634993 0.39049175 0.26474598
-0.21202952 0.13885336 -0.3012974 0.11208003 0.7436732 -0.6790303 -0.3379957 -0.21173763
-0.5000888 0.33259442 -0.60089046 0.19417422 -0.27173787 -0.07728688 0.89031017 -0.50547415
0.13551849 0.2557646 -0.17801903 -0.7457806 -0.17326905 -0.82110256 0.19568346 0.13436419
-0.085265204 1.026585 -0.41122165 0.20403488 -0.34919444 0.1981828 0.32603085 0.23193413
0.37971956 -0.079945356 0.250477 -0.25409988 -0.13046734 -0.3656279 -0.23576409 0.030316928
0.35571557 -0.12005017 -0.2566625 -0.48190898 0.63623697 0.35158926 -0.6446611 -0.26653028
-0.3127155 0.44367975 -0.9790625 -0.30783492 0.40411365 -0.0064891465 -0.15790042 -0.31897014
0.5670136 0.30116585 -0.4302938 0.21990119 -0.024742031 0.19661763 -0.47271985 -0.3082626
-0.21994558 0.219452 -0.8691814 0.33292833 -0.12131948 0.35733277 -0.07591086 -0.23151796
-0.07399136 -0.3526781 0.5875634 0.3415486 0.19058667 -0.11061246 0.35757026 -0.37707928
-0.15432432 -0.29388157 -0.25528502 0.21194622 -0.060361195 0.27812955 0.2063826 0.57049906
0.38703868 0.10647444 0.8753607 -0.029754527 -0.46610454 -0.5266173 -0.18491665 -0.014717424
-0.20374633 0.16465385 0.19775103 0.2262024 -0.11777458 0.021819398 -0.04541101 0.2058044

fc.0.bias f4 [100]
00000000: b5ba 283d 671a a5be 0483 b8bd 7c0b ec3c
00000010: 94a3 f03d 2f70 473d bfc5 13bd b82f 9bbd
00000020: d449 d2be da64 07be e4cd 1b3c 77f3 103d
00000030: 8b36 16bd 7991 ab3d 3c4f 81be 4c17 ccbd
00000040: 0dfa 943d 2be9 10be 32a6 99be 0f7e 01be
00000050: b076 8cbd aac7 9c3d f3d2 433e 31cd 153e
00000060: 9eb2 913d 5707 febc 5053 4ebe 637f cdbd
00000070: e229 21be b035 a63c 486f 10be 3327 32bd
00000080: 32bf e63d ff7b d33d f7e4 f73c 694d 62be
00000090: 4d3c 75be 5c11 673d fbfd 29be 1f05 2abc
000000a0: f094 18be 34df 66be b1b7 0ebd 2e44 ffbd
000000b0: e1e5 adbd 9fe1 40be 7cde 00be 2859 a0bb
000000c0: aa5f 713d 2c68 4fbe c672 cc3c 757c a43d
000000d0: 9229 08bd becc 80be 4d3e bfbd 0f63 30be
000000e0: d9e7 65be c8ae 393c ce5f 4abe a67b 273d
000000f0: dd08 53bd 1f93 333d 8335 3d3d 9c38 c13d
00000100: da05 2bbe 0cfe cbbb db4b a1bd 5c57 2fbe
00000110: 6d2f 8e3d 9b14 b43d bc87 09bd 24e3 adbc
00000120: db9a 8a3d 7220 fa3c 5a91 99bc b30b 24bd
00000130: 7397 9fbe 05dd 683d 63bc 42be 0ee3 23be
00000140: 4028 cdbd f5a2 093d 7806 68be e87c b9bd
00000150: 037f b7bc f858 54be a083 53bd c34e b93c
00000160: 6b25 5ebc ae1f 023c c242 86bd 84b1 983d
00000170: 75d6 323d 657f a1be dd2b 603d b345 fd3c
00000180: 83c6 93bd 40af 4cbd e620 653d 42d4 3e3d
0.041193683 -0.32246706 -0.09009364 0.02881407 0.1174995 0.04869097 -0.036077257 -0.07577461
-0.4107195 -0.13222066 0.009509537 0.035388436 -0.03667311 0.08377356 -0.25255764 -0.09965381
0.07274256 -0.14151447 -0.3000961 -0.12645744 -0.06858575 0.076552704 0.1912344 0.14629056
0.07114147 -0.03100936 -0.20148969 -0.10034063 -0.15738633 0.020289272 -0.1410495 -0.043494415
0.11266936 0.10326385 0.030260546 -0.22099842 -0.23948784 0.05641304 -0.16600792 -0.0103771975
-0.14900565 -0.22546083 -0.03484315 -0.12464176 -0.084911115 -0.18836068 -0.12584871 -0.0048934408
0.058929123 -0.20254582 0.024957072 0.08031551 -0.03324277 -0.25156206 -0.09338055 -0.17225288
-0.22451724 0.011333175 -0.19763109 0.040889405 -0.051522125 0.043841477 0.04619361 0.094346255
-0.16701451 -0.006225353 -0.078757964 -0.17123169 0.069426395 0.08792993 -0.033576712 -0.021226473
0.067678176 0.03053305 -0.018746067 -0.04005022 -0.31170234 0.056851406 -0.19017176 -0.16004583
-0.10017443 0.033602674 -0.22658718 -0.09057027 -0.022399431 -0.20737064 -0.0516392 0.022620564
-0.013558726 0.007942123 -0.06555702 0.074557334 0.043661553 -0.31542507 0.05472933 0.030917024
-0.072155975 -0.04997182 0.055939578 0.046589144

fc.1.weight f4 [100, 100]
00000000: 35da afbd c8b9 ddbe 1e74 11be 9128 bf3b
00000010: 6d1f 51bf 28a6 983e f6e3 d33d 4b85 d3be
00000020: 41ab 723d 1bb2 db3e 26a8 043e aab4 563e
00000030: ba50 45be e3d9 0abf 8c73 5dbe ee53 34bc
00000040: f280 01be 8922 a3be b63f 11be 6ee2 1cbe
00000050: 7f9c 41bf c17b 01be 695f 253d c8d3 523e
00000060: cb35 d93d 76b1 b9be 49a6 65bd dd5a 8e3e
00000070: 9dca ccbe 5f7b f3bd 2e58 cebe 5c93 9e3d
00000080: 1187 093e 3666 c83d 5b9f 98bc a1e2 0dbf
00000090: e229 9dbc 96d3 15be db87 15bc 2727 77bd
000000a0: d4b3 5d3d 6505 d1bd 6a40 d7be 1699 503e
000000b0: 9a1a 673b c574 84be d5cb ccbe 426e 4b3e
000000c0: ef41 c4bd e36e 3c3d 99c5 343d 0fe1 1bbe
000000d0: 96d5 c73d fd8f ec3a 5729 f2bd 4b50 1dbf
000000e0: b178 523e 3eb2 303f bf93 d7bc b41c 01be
000000f0: 1f7c 05be 8e29 4fbf efe9 c5bb fd32 5b3e
00000100: 5f3f 51be 9a9f a53e a265 12bf 2051 643e
00000110: bf1d 01be 762a 20bf 70df 11bf bc01 c0bd
00000120: 6a16 b73e a8c5 a33e 3157 19be b115 b73e
00000130: f79e 7e3e 2201 40be f0c6 b6bd edc8 f3bd
00000140: 6cb4 03bf 3f21 9fbe b8d7 093d b3fa 04bd
00000150: 84a6 1fbd e958 f23b 0d8d 99be e4d9 873e
00000160: 2c2f a23e 6ca0 ee3c b5c4 143f 5113 babc
00000170: 3e1b 353e 12eb 23bc 6bcf 513e 6dbe 0bbf
00000180: 3dc0 fc3e 5a2a 09bf dac0 2dbf 3cae 503d
00000190: 0371 3bbe 5b9f d2be 497b e7bc 2b79 28be
000001a0: 5bd2 a4bd dce1 3a3d 6ea1 8c3c 3a0c 2f3e
000001b0: 189c 6fbd 0547 073e 530e 0a3e 6479 553e
000001c0: b843 983e 1300 57bd b7d5 a63d a32e a23e
000001d0: e5ff 063e ac86 353e 3d88 86be 76ef 0fbd
000001e0: 7095 e3bc 6f55 e33d 7def 6e3d decc de3d
000001f0: 324b 11be 81cd c2be 9201 7f3d 60d8 e53d
00000200: fb0c 483e 4e0a 92be a68d 3b3e bbfe c73d
00000210: 5ad5 95bd 33cc f23d 4505 04be cc90 58be
00000220: 6b1c 75be 4445 d53d 654c c73d 51df bd3d
00000230: 2c4f 61bc d5a9 123e 7fa4 103e 9bd9 15bc
00000240: f459 a03c 95f1 97bd 4197 cc3d cdb5 e8bc
00000250: cea5 613d 1eeb 0bbe b3c0 90be 5a56 9e3c
00000260: 60a6 7b3e fd9a 3fbe 7843 3cbe a09e 0b3d
00000270: e9ad 1cbd 1ef8 3e3e 713e 98be 398f 04be
00000280: 90a0 27be bbe4 a33d 60af 3ebf 5aaf 71bd
00000290: 0cf3 39ba 7173 f0bd 4ffe 24be fffc 5b3d
000002a0: 7d8e 95be c11f 543e 7450 dd3c 1642 0ebe
000002b0: 9743 34be 8d1f e73d de6d 9dbe 689d e43d
000002c0: 4a7e 3cbe 7891 59bd 130a 493e 422f 593c
000002d0: c3aa acbd 5054 8d3d 8986 2bbc 68b7 af3d
000002e0: 8673 79be e8c4 b2be aed0 1e3e 669b 883e
000002f0: f5e6 333e 4555 023e cad0 52bd 34e0 2d3e
00000300: db50 ebbc 11d0 d43c dcac a03d d6a1 97bd
00000310: 6387 663e 1413 28be 54d5 633c 0a44 0c3d
00000320: 3b1e 103e 05f0 443a be83 093e b392 f73d
00000330: e53b 49bf 72fd df3d 9a73 0abd 4dce 1fbf
00000340: 44f6 4abe 07d8 e03e 7e70 1e3e a990 9fbd
00000350: 6b27 08be a268 04bf 473b 043e 7e3b e33d
00000360: 9531 473e fdee a33e 5654 f2bd 8938 15be
00000370: cc4c 823d 3bb6 68be 65ce 01be efce 0abf
00000380: ec34 e7be b3fe df3d 5fe7 273e 9604 3f3c
00000390: d428 98be 981e b9be d001 ffbb 74de aabd
000003a0: 6af1 fabe a688 febd e645 263e d4a8 8bbe
000003b0: 1eae 433e 0876 a5bc 6370 0c3e 61f7 e53e
000003c0: 5337 34bd d307 223e 359f 80bc e79f 533d
000003d0: 2c10 a0be 92c6 983e abc9 01be 0134 a9be
000003e0: fec0 4c3d 6267 013f dd8b f33c c094 ecbe
000003f0: b3a1 893e e3ff 223d 1d0c 26be df77 283e
-0.085865416 -0.43305802 -0.14204451 0.0058336933 -0.81688577 0.29814267 0.103462145 -0.41312632
0.05924535 0.4290932 0.12954769 0.20967355 -0.19269076 -0.5423872 -0.21626109 -0.0110063385
-0.12646845 -0.31862286 -0.1418446 -0.15320751 -0.7562942 -0.12644865 0.040374193 0.205886
0.10605963 -0.36268204 -0.056066785 0.27803698 -0.39998332 -0.118887655 -0.4030165 0.0774295
0.1343043 0.0978512 -0.018630674 -0.55423933 -0.01918501 -0.14631495 -0.009126629 -0.060340073
0.054126576 -0.10206107 -0.42041332 0.20370898 0.0035263659 -0.25870338 -0.39999261 0.19866279
-0.09582888 0.046004187 0.044133756 -0.15222572 0.09757535 0.0018048283 -0.11824291 -0.6145064
0.20553853 0.69021976 -0.026315568 -0.12608606 -0.1303563 -0.8092278 -0.00603985 0.21406169
-0.2043433 0.3234833 -0.5718633 0.22296572 -0.12609003 -0.6256479 -0.56981564 -0.09375331
0.35759288 0.31986737 -0.14974667 0.35758737 0.24865328 -0.18750432 -0.08924663 -0.11903558
-0.51447177 -0.31080052 0.03365299 -0.032465648 -0.03897716 0.007395853 -0.29990426 0.26533425
0.31676614 0.02912923 0.5811265 -0.022714289 0.17686173 -0.010004776 0.2048928 -0.5458744
0.49365416 -0.5358025 -0.67872393 0.050947413 -0.1830483 -0.41137204 -0.02825703 -0.16452472
-0.080479346 0.045625553 0.01716682 0.17094508 -0.058498472 0.13210686 0.13482027 0.20847088
0.29739165 -0.052490305 0.081462316 0.31676206 0.13183554 0.17727154 -0.26275817 -0.035140477
-0.027781218 0.111002795 0.058333863 0.10878919 -0.14188841 -0.38047412 0.062257357 0.11222911
0.19536202 -0.28523487 0.18315753 0.09765383 -0.07316084 0.11855354 -0.12892635 -0.21148986
-0.23936622 0.10413602 0.09731368 0.0927111 -0.013751786 0.14322598 0.1412525 -0.0091461195
0.019574143 -0.07419125 0.09989787 -0.028407002 0.055089764 -0.13663909 -0.28272018 0.019328285
0.24575186 -0.18711467 -0.18385112 0.034086823 -0.03825179 0.18649337 -0.2973514 -0.1294526
-0.16369843 0.08002611 -0.7448635 -0.05900512 -0.0007093407 -0.11740769 -0.16112636 0.053708073
-0.29210272 0.20715238 0.027015902 -0.13892397 -0.17603908 0.11285315 -0.30747885 0.11162835
-0.1840755 -0.053117245 0.1963275 0.013255896 -0.08431008 0.06900847 -0.010469087 0.08579904
-0.24360475 -0.34915853 0.15509292 0.2668106 0.17568572 0.1272784 -0.051468648 0.16980058
-0.028725078 0.02597812 0.0784547 -0.07403915 0.22512583 -0.16413528 0.013905842 0.034244575
0.14074032 0.00075125723 0.13429162 0.120885275 -0.78607017 0.10937013 -0.033801652 -0.62424165
-0.19820505 0.43914816 0.154726 -0.077912636 -0.13296287 -0.51722157 0.12913238 0.110953316
0.19452508 0.3201827 -0.11832492 -0.14572348 0.06362304 -0.22725765 -0.1267639 -0.54222006
-0.45157564 0.10937252 0.16396855 0.011658808 -0.2971865 -0.36156154 -0.0077821985 -0.08343211
-0.4901231 -0.12428407 0.16237602 -0.27277243 0.19109389 -0.020197883 0.13714747 0.44915298
-0.043998074 0.15823297 -0.015700916 0.051666167 -0.31262338 0.29838997 -0.12674586 -0.33047488
0.04998874 0.50548375 0.029729778 -0.46207237 0.2688118 0.039794814 -0.16215558 0.16451977

fc.1.bias f4 [100]
00000000: 5880 3ebd d1cf ed3d fa8b c6be 1a20 46be
00000010: df35 433e a5b6 75be 1752 473e 4d00 2c3e
00000020: f1f9 64be 7295 4e3e 936e bcbe aff5 fd3d
00000030: 740c 52be 6e41 3b3d 410a bfbe b017 553e
00000040: cc24 83be 05da f33d 565e ccbd 4a85 ddbd
00000050: 549a 6fbe 0162 86be 2f88 a3be 8e53 143e
00000060: 5f3f 313e 6a12 0fbe 8487 39be 2e45 8ebe
00000070: 99e2 063e 90e2 46be e589 383e 7530 373e
00000080: 83fe 113e ebef 763e 8df3 a0be 331f 39be
00000090: 9380 a5bd 3922 113e 5166 ba3d 4337 cebe
000000a0: 3f3f 563e 36a6 473e d3dc 323e 8035 683e
000000b0: 27de 94be 188a 323e d547 2c3e c15b 6c3e
000000c0: 2eb6 0f3e 69a3 423e 8ba7 563e 5c3a 9e3d
000000d0: 2591 263e 91b0 443e 7c36 04be 1bd1 93be
000000e0: 919c e6bd d7d2 c53d e7dc 15be 9940 db3d
000000f0: dc5d 123e e533 a73d d6e3 b8bb 7b6b 353e
00000100: 6b51 4d3e 8e04 74be e176 f33d 898e 543e
00000110: fde9 2bbe 5dc9 b6be 8360 0d3e 59b2 3c3e
00000120: 8b9a 9b3d 4d55 b0be dc20 07be 3205 4ebe
00000130: 56c6 a63d 9bd4 fb3d 5d23 8c3d 37cf 2dbe
00000140: cd5b 9cbe c57e 193e 1243 92be b427 3c3e
00000150: b9a1 a2be 09a5 4c3e 5390 2b3e 34c9 88bd
00000160: 5e0b 3bbe 9838 55be f7a1 26be 5240 7cbe
00000170: b936 b2be bbda 3dbe 40af 83be 68fe 56be
00000180: 7705 4b3e 96c1 76be 2a68 0f3e 3b5f 69be
-0.046509117 0.116119035 -0.3877867 -0.19348183 0.19063519 -0.23995455 0.19464909 0.1679699
-0.2236097 0.20174196 -0.3680311 0.12400376 -0.20512563 0.045716695 -0.3731251 0.20809817
-0.2561401 0.11906818 -0.09978931 -0.108164385 -0.23398715 -0.26246646 -0.31939837 0.14484999
0.1730933 -0.13971868 -0.18118101 -0.27787155 0.13172378 -0.19422364 0.18021353 0.17889579
0.14257245 0.24114959 -0.31435814 -0.18078308 -0.08081164 0.14173211 0.091015466 -0.40276536
0.20922564 0.19496998 0.1746705 0.22676659 -0.2907574 0.17435491 0.16824277 0.23081876
0.1403434 0.19007649 0.2096235 0.07725975 0.16266306 0.1920798 -0.12911409 -0.28870472
-0.112603314 0.09659355 -0.14635049 0.107056804 0.14293617 0.08164195 -0.0056423945 0.17716782
0.2005059 -0.23829862 0.11887909 0.20757498 -0.16788478 -0.35700503 0.13806348 0.18427409
0.07597836 -0.3444008 -0.13196129 -0.2011917 0.08143298 0.12296411 0.068426825 -0.16973577
-0.30538788 0.14989765 -0.28566796 0.1837452 -0.3176401 0.19984831 0.16754274 -0.066790015
-0.18266055 -0.2082237 -0.16272722 -0.24633911 -0.34807375 -0.1854047 -0.25719643 -0.20995486
0.19826303 -0.24097285 0.14004579 -0.22790234

fc.2.weight f4 [1, 100]
00000000: 3087 12bf fd0f 993d 3253 a1be 6762 90be
00000010: 9f99 783e 2a83 03bf 1b51 933e 1995 093e
00000020: 0b02 f7be db2d 553e e6cf a3be 9e9b 423d
00000030: 639b cabe 66f6 3d3c 127a 90be 9125 373e
00000040: 16d8 ddbe f380 9a3d 1ce1 c4be b36f ccbe
00000050: 1f3d 83be 34fe 0abf 4793 c6be d4a7 fe3d
00000060: 7d25 a73d fabe f0be d54f bcbe 20a7 8abe
00000070: f874 043e bf3d 9fbe c9e3 133e d3cf 1b3e
00000080: 2e41 973e 0a13 443e 7714 d2be 3b9a b2be
00000090: 3f5a 65be c7a0 9d3d 9279 273d 129b c9be
000000a0: 7825 693e 275e 273e 4044 c93d d874 4b3e
000000b0: 089b 0bbf 041c 053e 4efa a63d 2109 763e
000000c0: 4445 063e 885c 113e aac5 8a3e 8db7 3d3d
000000d0: 50c0 f93d d695 1a3e 6bd4 f2be 6caa fcbe
000000e0: 3cf1 b2be aed4 6d3e d15e f0be 530c ad3d
000000f0: ab37 263e 9ef2 cc3d 53fb 9cbe b15b de3d
00000100: 4953 413e 8fda e3be afa9 d53d 43b1 353e
00000110: 3182 80be 587d f7be 0aad db3d ff51 7f3e
00000120: 1834 083e 2252 13bf a965 d9be d9e3 0dbf
00000130: 5d4e fe3d 9efd 903d 4d56 063e 2da0 4fbe
00000140: 87a7 95be 475b 4b3e 09e1 83be a29b 3a3e
00000150: f182 98be 88cb 4a3e 4fdc 173e e1e0 94bd
00000160: b935 b4be b4cd ebbe 4307 2abf 9817 f0be
00000170: 9a11 dabe 644a 01bf 2543 06bf fed9 b9be
00000180: 1fe0 263e bb84 93be 6f13 8c3e b243 b4be
-0.5723753 0.07473753 -0.31508785 -0.28200075 0.24277352 -0.51372015 0.28772816 0.13435782
-0.48243746 0.20818274 -0.3199455 0.04751169 -0.39571676 0.0115943905 -0.28218132 0.17885424
-0.43328923 0.07544126 -0.38452995 -0.3992897 -0.2563257 -0.54294133 -0.3878424 0.124343544
0.08161447 -0.47020704 -0.36779657 -0.2708063 0.12935245 -0.31101796 0.14442362 0.15215997
0.29541916 0.19147888 -0.41031238 -0.34883294 -0.22397707 0.076966815 0.040887423 -0.39376122
0.227682 0.1634451 0.09827471 0.19868791 -0.54533434 0.12998968 0.081532106 0.2402692
0.1311236 0.14195454 0.2710393 0.046317626 0.12194884 0.1509622 -0.47427687 -0.49348772
-0.34949672 0.23225662 -0.4694734 0.08449616 0.16232173 0.10007213 -0.30660495 0.108573325
0.18879427 -0.44502684 0.10432755 0.17743401 -0.25099328 -0.48337817 0.10726364 0.24933623
0.13301122 -0.575472 -0.42460373 -0.5542579 0.1241729 0.07079624 0.13118859 -0.20275946
-0.29229376 0.19859038 -0.25757626 0.18223432 -0.297874 0.19804204 0.14830135 -0.07269455
-0.35197237 -0.46055377 -0.6641733 -0.46893 -0.42591554 -0.50504136 -0.52446204 -0.36299127
0.16296433 -0.28812203 0.27358577 -0.35207897
