results/Smoothed_InfoNCE_dim10_reg1_alpha1e-05.pt (torch, 394875 bytes, 13 tensors)

fc.0.weight f4 [100, 20]
0	0x3d233c0e	0.039852194
1	0xbd2b25e0	-0.041784167
2	0x3d7ff528	0.06248966
3	0xbc3ba16b	-0.011452059
4	0x3d50b61c	0.050954923
5	0x3e0afe62	0.13573602
6	0xbdc07599	-0.0939743
7	0x3d064474	0.032780126
8	0xbbabe431	-0.0052457084
9	0xbcb93263	-0.022607034
10	0x3d6318b4	0.05544348
11	0x3b26cd8e	0.002545211
12	0x3d7b0100	0.06128025
13	0xbcac33b7	-0.021020753
14	0x3d19dc5c	0.037563667
15	0x3dfdd291	0.12393678
16	0xbd696e38	-0.05698988
17	0x3d3cedb4	0.04612513
18	0xbc6c1a22	-0.014410527
19	0xbcf5b634	-0.029994108
20	0x3d9e9892	0.07743944
21	0xbe07fdd3	-0.1328042
22	0x3d596401	0.053073887
23	0xbd1aa478	-0.037754506
24	0x3d368596	0.04456099
25	0xbd544ac8	-0.05182913
26	0x3d435e3a	0.047697283
27	0x3e2167b0	0.1576221
28	0xbd328e2f	-0.043592628
29	0xbda4ec07	-0.08052831
30	0xbdc5628a	-0.096379355
31	0x3ddf417e	0.109011635
32	0xbd9456ac	-0.07243094
33	0x3d0eaee6	0.034834765
34	0xbc607f46	-0.013702219
35	0x3da14e6b	0.07876285
36	0x3c81e183	0.015854603
37	0xbe24d299	-0.16095962
38	0x3ca315d8	0.019907877
39	0x3d8fdc7b	0.07024475
40	0x3dff29a8	0.12459117
41	0xbe2b40f3	-0.16723995
42	0xbd9ecf53	-0.07754388
43	0x3c6cf4fd	0.014462707
44	0xbdc51f1c	-0.09625074
45	0x3c8e1582	0.01734424
46	0x3dae3d01	0.08507729
47	0x3e0df767	0.13863908
48	0x3dd1fb2d	0.10252986
49	0xbdf35298	-0.11880988
50	0xbdf5eeb4	-0.1200842
51	0x3e1d4aa2	0.15360501
52	0x3d98e0bc	0.0746474
53	0x3be33c38	0.006934669
54	0x3dec70d4	0.11544958
55	0xbcdf8046	-0.027282845
56	0xbdc8f898	-0.098130405
57	0xbe09f6a4	-0.13472992
58	0xbde48b2f	-0.1115936
59	0x3dc4ad15	0.09603325
60	0x3da88b0e	0.082296476
61	0x3d959971	0.07304657
62	0xbd927965	-0.071520604
63	0xbd42e90c	-0.047585532
64	0x3da16521	0.07880617
65	0x3d17012d	0.036866356
66	0x3d9e37d2	0.07725491
67	0xbe0713eb	-0.13191192
68	0x3dafd86f	0.08586203
69	0x3c95290e	0.018208053
70	0xbda07db6	-0.078364775
71	0xbdde25fe	-0.1084709
72	0x3da757ab	0.08171018
73	0x3d8c41a3	0.06848457
74	0xbd3dd074	-0.046341375
75	0xbbb7e245	-0.00561169
76	0xbd865e44	-0.065609485
77	0x3e09cfca	0.13458171
78	0xbd9543f6	-0.07288353
79	0xbcef2776	-0.029193621
80	0xbd88da66	-0.06682281
81	0xbdd4e5f7	-0.10395425
82	0x3c21355b	0.009839381
83	0x3cdf88b1	0.02728686
84	0xbcc19ec7	-0.023635281
85	0x3de30dd4	0.11086622
86	0x3d12d2a7	0.035845425
87	0xbdb65790	-0.0890342
88	0x3d2f1363	0.042743098
89	0x3d120a75	0.035654504
90	0x3a72852e	0.00092514127
91	0xbd8ff7bb	-0.07029673
92	0x3d6cdfa9	0.057830486
93	0x3d50ff6d	0.051024843
94	0xbccd8af2	-0.025090668
95	0x3dc04e94	0.093899876
96	0x3d87cf93	0.066313885
97	0xbdc11b71	-0.09429062
98	0x3d0d3c8b	0.034481566
99	0x3cc9cbc4	0.024633296
100	0xbe2e8de0	-0.17046309
101	0x3de9440f	0.11389934
102	0x3d35fadd	0.044428695
103	0xbd1d6afe	-0.038432114
104	0x3c9fa090	0.019485742
105	0xbe054201	-0.1301346
106	0xbcd3de99	-0.025862979
107	0xbda9826b	-0.082768284
108	0x3d66c36f	0.056338724
109	0x3ddc3cc4	0.107537776
110	0x3e00fd94	0.12596732
111	0xbdc9457d	-0.09827707
112	0xbd99f2c7	-0.07517009
113	0xbb515778	-0.0031943005
114	0xbc5c4988	-0.013445266
115	0x3dfa28a4	0.12214783
116	0x3cefb15a	0.029259373
117	0x3dae59f1	0.08513249
118	0xbd1865df	-0.037206527
119	0xbdc168d0	-0.094438195
120	0xbd5261a0	-0.051362634
121	0x3c7a03ee	0.015259726
122	0xbddeabca	-0.1087261
123	0xbccb65b9	-0.024828779
124	0x3dc51cbb	0.096246205
125	0x3b823766	0.003973889
126	0x3dbd9aee	0.09258066
127	0xbd26c99c	-0.040719613
128	0xbd546ffe	-0.051864617
129	0xbb9fb983	-0.0048744096
130	0xbd9223d8	-0.07135743
131	0xbce97f0c	-0.028502963
132	0xbe02b8fc	-0.12765878
133	0x3cff25e7	0.031146003
134	0x3d61e4f8	0.055150002
135	0x3ca9fff1	0.020751925
136	0x3db3e1f0	0.087833285
137	0xbd44dd18	-0.048062414
138	0xbda349b1	-0.0797304
139	0xbd2e2b5d	-0.042521823
140	0xbd1141c2	-0.035463102
141	0x3c8609c5	0.01636208
142	0xbb856c78	-0.0040717684
143	0xbd65d905	-0.05611517
144	0x3b2db9c2	0.0026508425
145	0x3db8b3c8	0.090186656
146	0x3db95ef3	0.09051313
147	0xbd3250d9	-0.043534134
148	0x3d828423	0.06372859
149	0xbdddf952	-0.1083857
150	0xbc4663d0	-0.012108758
151	0x3cab2b1b	0.020894578
152	0x3d14011b	0.036133867
153	0xbd0481c4	-0.032350317
154	0xbca0c50b	-0.019625207
155	0x3ddb43fa	0.10706325
156	0x3d352510	0.0442248
157	0xbd590016	-0.052978598
158	0x3bc3aa49	0.0059712273
159	0xbdde7b61	-0.108633764
160	0xbd58dc4d	-0.05294447
161	0xbd96f337	-0.07370608
162	0xbc79ac74	-0.01523887
163	0x3e2c14ac	0.1680476
164	0x3d24fdb9	0.04028103
165	0x3cdf4b1c	0.027257495
166	0xbdcd4528	-0.10022956
167	0x3dfbf760	0.123030424
168	0x3c00561c	0.00783303
169	0xbd89534c	-0.06705341
170	0x3d7eff93	0.062255453
171	0x3d2216be	0.03957247
172	0x3cb78cba	0.02240597
173	0xbde4694b	-0.111528955
174	0xbd54cf41	-0.051955465
175	0xbda325ca	-0.07966192
176	0x3dbc4c5e	0.091942534
177	0xbdf0b780	-0.1175375
178	0x3d4444e7	0.047917273
179	0x3b9f94a6	0.004870015
180	0x3cad39e2	0.021145765
181	0x3d2d4b01	0.042307857
182	0xbe1eb577	-0.15498911
183	0x3de24ad1	0.11049426
184	0xbdddc968	-0.10829431
185	0xbe1aaeae	-0.15105698
186	0x39ebf59a	0.0004500568
187	0x3dae5db3	0.085139655
188	0xbd533fb9	-0.051574443
189	0xbd16f5cd	-0.036855508
190	0xbd0b1051	-0.033951107
191	0xbdd0ed5d	-0.102015235
192	0x3e107670	0.1410768
193	0xbdc4fe17	-0.09618776
194	0x3dfb0599	0.12256927
195	0x3e2d5e15	0.1693042
196	0x3cee595d	0.029095346
197	0xbd50051f	-0.050786134
198	0x3d414e8d	0.047194052
199	0x3d1734d8	0.03691563
200	0x3d714bb9	0.058910105
201	0x3e03425c	0.12818283
202	0xbd24e615	-0.040258486
203	0xbd8b1fd0	-0.06793177
204	0x3d4e821b	0.050417047
205	0xbdd91b88	-0.10600954
206	0x3d62c8e0	0.05536735
207	0xbcba4602	-0.02273846
208	0xbdb119de	-0.08647512
209	0xbd77729a	-0.060412027
210	0xbd84dc51	-0.064873345
211	0xbdfb6b37	-0.12276309
212	0x3d3125ae	0.043248825
213	0x3db33ff5	0.08752433
214	0xbd172474	-0.0369
215	0x3deb6b3c	0.11495063
216	0xbdcea7d5	-0.10090605
217	0x3d20473f	0.039130446
218	0x3dd35a26	0.10319929
219	0x3d40a7f4	0.047035173
220	0x3d4230d2	0.04740984
221	0x3a389215	0.0007040811
222	0xbc9db120	-0.019249499
223	0xbe152aca	-0.14567104
224	0x3d9e89e2	0.07741143
225	0xbd80c392	-0.06287302
226	0xbbdd0ef6	-0.0067461682
227	0xbbe20fa8	-0.006898839
228	0xbdbde532	-0.09272231
229	0xbd97d235	-0.07413141
230	0x3d8b6730	0.06806791
231	0xbd017ffd	-0.0316162
232	0xbc93e535	-0.01805363
233	0xbe002d4f	-0.12517284
234	0x3d6f5c1c	0.05843745
235	0xbce16ae7	-0.027516795
236	0x3ca991b6	0.020699363
237	0xbae55016	-0.0017495181
238	0xbcd5882c	-0.026065908
239	0xbdcd24bd	-0.10016773
240	0xbd30c3a3	-0.043155324
241	0xbb1c7bbc	-0.0023877462
242	0xbe1a0ef9	-0.15044774
243	0xbe14045a	-0.14454785
244	0xbd841321	-0.06448961
245	0x3de20a1c	0.110370845
246	0x3da82991	0.08211053
247	0xbe2e00c3	-0.16992478
248	0xbe47135b	-0.19440977
249	0xbe6734ac	-0.22578686
250	0x3d0e172b	0.034690063
251	0xbc2d3b59	-0.010573232
252	0x3d53dfe4	0.05172719
253	0x3deaf060	0.11471629
254	0x3da62fda	0.08114596
255	0xbdbbc0e3	-0.091676496

fc.0.bias f4 [100]
0	0xbd282325	-0.04104914
1	0xbcfb491c	-0.03067451
2	0x3cb0c98b	0.021580478
3	0xbcdefd2e	-0.027220335
4	0xbcf85efe	-0.030318733
5	0xbd05f387	-0.03270295
6	0xbd1d546a	-0.03841058
7	0xbd2eef77	-0.04270884
8	0xbce22efd	-0.027610296
9	0xbd18107f	-0.037125107
10	0xbd1a8cd0	-0.037731946
11	0xbd2b758f	-0.04186016
12	0x3c33c1ec	0.010971528
13	0xbcb23417	-0.021753354
14	0xbd429111	-0.047501627
15	0xbce73074	-0.028221346
16	0xbd0731da	-0.033006527
17	0xbc8e29e4	-0.01735396
18	0xbcc893f2	-0.024484608
19	0xbd08211f	-0.03323471
20	0xbd23b411	-0.039966647
21	0xbbdef65a	-0.0068042697
22	0x3b4600cf	0.0030212884
23	0xbc8b5403	-0.017007833
24	0xba9458c4	-0.0011317958
25	0xba96aa39	-0.0011494822
26	0xbced7217	-0.028985066
27	0xbb7dbd45	-0.003871755
28	0xbcfc4dbc	-0.030798785
29	0xbbdef494	-0.0068040583
30	0xbd067710	-0.03282839
31	0xbccdd1f6	-0.025124531
32	0xbced9de5	-0.029005954
33	0xbca6c73b	-0.020358672
34	0xbc40868c	-0.0117508285
35	0xbc818de9	-0.015814738
36	0xbcf7e1c3	-0.030259019
37	0xbd450ff4	-0.048110917
38	0xbcc8bf56	-0.024505299
39	0xbd0fdfb2	-0.03512544
40	0xba3c2c5a	-0.000717824
41	0x3b895e26	0.0041921316
42	0xbcea2a52	-0.028584633
43	0xbc385912	-0.011251705
44	0xbca233da	-0.019800115
45	0xbca01248	-0.019539967
46	0x3bd5e305	0.006527307
47	0xbc3c686f	-0.011499508
48	0xbd2ba5aa	-0.041906036
49	0x3bed9bae	0.0072512245
50	0xbcefa300	-0.02925253
51	0xbbf3ed10	-0.0074440315
52	0xbbbf147c	-0.0058312993
53	0xbd1462d0	-0.036227047
54	0xbcdbc485	-0.026827106
55	0xbb8f9de7	-0.004382837
56	0xbc880354	-0.01660315
57	0xbd02e0fd	-0.031952847
58	0xbd1d342b	-0.03837983
59	0xbbaa1c9a	-0.005191398
60	0xbb96dbe4	-0.0046038497
61	0xbce293f9	-0.02765845
62	0xbd08e8b0	-0.033425033
63	0xbb1c8a4b	-0.002388614
64	0xbd17150a	-0.0368853
65	0xbce9484d	-0.028476859
66	0xbd1b4b34	-0.037913516
67	0x3aa0f2ac	0.0012279353
68	0xbbf76c62	-0.007550762
69	0xbd0266b3	-0.031836223
70	0xbcfe348b	-0.031030914
71	0xbc3bd5d6	-0.011464557
72	0xbceeed5d	-0.029165918
73	0xbd296a11	-0.04136092
74	0xbb87507c	-0.0041294675
75	0xbd1d8be9	-0.038463507
76	0xbd067f2d	-0.032836128
77	0xbca4fd2c	-0.020140253
78	0xbcb45bf0	-0.022016495
79	0xbc42ef47	-0.0118978685
80	0xbc39bad6	-0.011336049
81	0xbd0a1884	-0.033714786
82	0xbb198615	-0.0023425866
83	0xbd01e265	-0.031710047
84	0xbd0f46bd	-0.03497957
85	0xbd222663	-0.03958739
86	0xbc2c59fe	-0.010519503
87	0x3c0dc36b	0.008652548
88	0xbc598f8c	-0.013278853
89	0xbcfc5d8c	-0.030806325
90	0xbd585ff7	-0.052825894
91	0xbbb8496d	-0.0056239874
92	0xbc7b9829	-0.015356102
93	0xbd2ad5a4	-0.04170765
94	0xbcbcf9d9	-0.023068355
95	0xbcab0d5a	-0.02088039
96	0xbc94a83a	-0.018146623
97	0xbcce0a50	-0.025151402
98	0xbc4e7dc7	-0.01260323
99	0x3c5995bb	0.013280327

fc.1.weight f4 [100, 100]
0	0xbd319cdc	-0.043362483
1	0x3db07a74	0.08617106
2	0x3d50b8c9	0.050957475
3	0x3cb4035d	0.02197426
4	0xbcef199a	-0.029187012
5	0x3df35416	0.118812725
6	0xbd489546	-0.048970483
7	0xbd475286	-0.048662685
8	0x3c6ed483	0.014577034
9	0x3e2eb6fe	0.17061993
10	0x3d10d4c1	0.035359148
11	0xbc6f29e0	-0.014597386
12	0x3d95c0a8	0.07312137
13	0xbbc23041	-0.0059261625
14	0xbd9eae00	-0.077480316
15	0x3d0696e0	0.03285873
16	0xbd3ab95b	-0.045586925
17	0x3e27e760	0.16396856
18	0xbc39234c	-0.011299919
19	0xbd3d62dd	-0.04623686
20	0x3ad45a17	0.0016201165
21	0x3d6335ee	0.055471353
22	0x3da00841	0.07814074
23	0x3c443139	0.011974626
24	0x3de964a1	0.113961466
25	0xbd4fcd5d	-0.05073296
26	0x3e042a29	0.12906708
27	0xbcb3659e	-0.02189904
28	0xbbd0f50a	-0.006376867
29	0xbc4c2479	-0.012459868
30	0x3e16de57	0.14733253
31	0xba963f70	-0.0011462998
32	0x3e00a6c7	0.1256362
33	0xbd6a8a30	-0.057260692
34	0x3c8aaebb	0.016929021
35	0x3d139c04	0.03603746
36	0x3ce17dce	0.027525809
37	0xbca69d7c	-0.020338766
38	0x3dc05d9f	0.09392857
39	0x3cec0303	0.02881003
40	0x3d6a6a29	0.05723015
41	0xbd8df343	-0.06931164
42	0xbb51e442	-0.0032026921
43	0xbcfeb0c4	-0.031090148
44	0x3d63a4a9	0.055576954
45	0x3dc5d5de	0.096599326
46	0xbbbc811a	-0.005752695
47	0xbcef30f9	-0.029198157
48	0x3c7fe28d	0.015617979
49	0x3d19b78c	0.03752856
50	0x3bf64458	0.0075154714
51	0xbb362957	-0.0027795637
52	0x3cf47ca7	0.029844595
53	0xbc8e1041	-0.017341735
54	0x3dc8d1a0	0.09805608
55	0xbbd8fa73	-0.0066216527
56	0xbc8fd09f	-0.017555533
57	0xbd2e0295	-0.04248293
58	0xbc5fc39c	-0.013657477
59	0xbd14e01b	-0.036346536
60	0x3daff6be	0.08591984
61	0x3db2cb86	0.08730225
62	0xbc144d0a	-0.009051571
63	0x3ce9940f	0.028512983
64	0xbcac3fad	-0.021026457
65	0x3c9b66da	0.018969942
66	0x3e2c8c5c	0.16850418
67	0x3c878094	0.016540803
68	0xbcd8ea7c	-0.026478998
69	0xbc7e56fe	-0.01552367
70	0xbd92fa3e	-0.07176636
71	0xb930f041	-0.0001687417
72	0x3c53ba93	0.012922901
73	0xbcbc8db1	-0.023016782
74	0x3b7331ba	0.0037108497
75	0xbc0ab4e8	-0.008465983
76	0xbd86102f	-0.065460555
77	0xbc5c4d9f	-0.013446241
78	0xbce743aa	-0.028230507
79	0xbc08895f	-0.008333533
80	0x3c80383d	0.015651817
81	0x3d8546eb	0.06507667
82	0x3c4feec0	0.0126912
83	0x3c848084	0.016174562
84	0xbcfc820b	-0.030823728
85	0xbccc720b	-0.024956724
86	0x3dc7a87e	0.09748934
87	0x3d015e50	0.031584084
88	0x3daeaeec	0.085294574
89	0x3db72c08	0.08943945
90	0xbd7b2ef5	-0.06132408
91	0xba295c2e	-0.0006460574
92	0x3b9ea76f	0.004841737
93	0xbd1a7c92	-0.037716456
94	0xb983ca67	-0.0002513707
95	0x3dbb0748	0.09132248
96	0x3df6ad0b	0.12044724
97	0x3c59c5c9	0.013291785
98	0x3da268be	0.07930134
99	0xbd71cebc	-0.059035048
100	0x3cda3875	0.026638249
101	0xbdd3ce23	-0.10342052
102	0xbcab8294	-0.020936288
103	0xbc2a3144	-0.010387722
104	0x3c6fd99e	0.014639286
105	0xbdc49fc5	-0.09600786
106	0x3cd74432	0.026277635
107	0x3c1507a5	0.009096061
108	0xbce1fc45	-0.027586112
109	0xbde323d9	-0.11090822
110	0xbdb9c766	-0.09071235
111	0x3cc8e4db	0.02452319
112	0xbc8ca03b	-0.017166248
113	0x3d1cce75	0.03828283
114	0x3bc0a780	0.0058793426
115	0xbda66ddd	-0.081264235
116	0x3d3a8361	0.04553545
117	0xbdcf2d58	-0.101160705
118	0xbd57f08d	-0.05271964
119	0x3c8bd914	0.017071284
120	0x3d3a63fe	0.045505516
121	0xbb876ffc	-0.0041332226
122	0x3bdf918c	0.0068227705
123	0x3b5b9bc9	0.0033509603
124	0xbd06292f	-0.03275412
125	0x3c0a0818	0.008424781
126	0xbdad52ea	-0.0846308
127	0x3cbb4550	0.0228602
128	0x3c7b4990	0.015337363
129	0xbc1f3004	-0.009716038
130	0xbdb8d595	-0.090251125
131	0x3c95f06c	0.018303119
132	0xbdad9080	-0.08474827
133	0x3b0d5371	0.0021564628
134	0x3b440a87	0.0029913501
135	0xbc589f2d	-0.013221544
136	0xbd12bd32	-0.035824962
137	0x3cfae248	0.030625477
138	0xbdc8a431	-0.09796942
139	0xbdaeea18	-0.085407436
140	0x3d1df637	0.038564887
141	0xbcd5cf94	-0.026099958
142	0xbc58610a	-0.01320673
143	0xbd84534f	-0.06461202
144	0xbd16dcd2	-0.036831684
145	0xbc9810be	-0.01856267
146	0x3ba1e2ef	0.0049403827
147	0xbd45e589	-0.048314605
148	0x3d7bfd6b	0.061520975
149	0xbcdb8535	-0.026796916
150	0x3bb620f7	0.005558129
151	0x3c0be428	0.008538283
152	0xbcaaba84	-0.02084089
153	0x3ba79c52	0.0051150704
154	0xbdac7735	-0.084211744
155	0xbc4e871e	-0.012605457
156	0xbd70f7ee	-0.058830194
157	0x3c9c2a6f	0.019063203
158	0x3bd640a3	0.006538467
159	0x3b6c7584	0.0036080787
160	0x3d1744b5	0.03693076
161	0xbd8e37f4	-0.06944266
162	0x3caac809	0.020847337
163	0x3caac46d	0.020845616
164	0x3b6466a5	0.003485122
165	0x3d05a372	0.032626577
166	0xbdd86eb7	-0.10567992
167	0x3c9d4e5c	0.019202404
168	0x3c4d7611	0.012540356
169	0xbd6aaafa	-0.057291962
170	0x3b22b677	0.0024827996
171	0x3c203114	0.009777326
172	0xbbcde187	-0.0062829885
173	0x3d0f08c8	0.034920484
174	0xbc325655	-0.010884841
175	0x3c7020bf	0.014656245
176	0xbd8758b2	-0.06608714
177	0xbcdd6b26	-0.027028631
178	0x3cfc14cd	0.030771637
179	0x3ca7bfaa	0.020477135
180	0x3d3019ba	0.042993285
181	0xbd385fcd	-0.045013238
182	0xbd0ed983	-0.034875404
183	0xbd9f766c	-0.07786259
184	0x3c43fb84	0.0119618215
185	0xbc672e12	-0.014110105
186	0xbd285082	-0.041092403
187	0x3cc6d7a4	0.024272747
188	0xbd4674d6	-0.048451267
189	0xbdc21756	-0.09477107
190	0x3ca1fef6	0.019774895
191	0x3d318872	0.043343015
192	0x3c029343	0.00796968
193	0x3bd8b088	0.006612841
194	0x3cdffb8d	0.027341628
195	0xbd0e551e	-0.034749143
196	0xbd86623c	-0.065617055
197	0xbd8e6e84	-0.06954673
198	0xbc11e1ce	-0.008903934
199	0xbd514fac	-0.05110137
200	0xbcc5e871	-0.024158688
201	0xbc95d9f0	-0.018292397
202	0xbdf90ff4	-0.12161246
203	0x3b53d160	0.0032320842
204	0xbd0085ad	-0.031377483
205	0x3e4d573c	0.20052809
206	0xbd613d22	-0.05498994
207	0xbd1bb82d	-0.03801744
208	0x3d012c76	0.031536542
209	0x3db23aad	0.08702598
210	0x3e11eeff	0.14251326
211	0xbd2a9e90	-0.041655123
212	0x3d102812	0.035194464
213	0xbd07c448	-0.033146173
214	0xbc27e41e	-0.0102472585
215	0xbca94c4e	-0.020666268
216	0xbd4f70f0	-0.050644815
217	0x3d1dca76	0.03852316
218	0x3e2150c0	0.1575346
219	0xbbdcddae	-0.0067402935
220	0xbd017906	-0.031609558
221	0x3d26e5a6	0.040746354
222	0xbe1b2502	-0.15150836
223	0x3dd0fc6b	0.10204395
224	0xbe04328c	-0.12909907
225	0x3c8575b0	0.01629147
226	0xbc6c54e2	-0.0144245345
227	0x3d49f891	0.049309317
228	0xbd0806ba	-0.03320954
229	0x3d03c5c3	0.032171022
230	0x3e0ffe93	0.14061956
231	0xbce3b0c3	-0.027794247
232	0xbb72201f	-0.0036945415
233	0x3d8ee9be	0.069781765
234	0x3d9bc1dd	0.07605336
235	0x3da7500b	0.08169564
236	0x3e0562f9	0.13026036
237	0xbc265d7d	-0.010154125
238	0x3dfb6393	0.12274852
239	0x3e4260ad	0.18982191
240	0xbd646a6f	-0.055765565
241	0xbd4318b0	-0.047630966
242	0x3e107e01	0.14110567
243	0xbce72a32	-0.028218362
244	0x3cd42708	0.025897518
245	0x3d23f12d	0.040024925
246	0xbd8a2248	-0.0674482
247	0x3d609f37	0.05483934
248	0x3cbad64c	0.022807263
249	0xbd10426f	-0.035219606
250	0xbd9198ae	-0.071091995
251	0xbbc793e8	-0.00609063
252	0x3d00e05e	0.031463973
253	0xbcea3761	-0.02859086
254	0xbb2fc4c7	-0.002682017
255	0x3cf3c20d	0.029755617

fc.1.bias f4 [100]
0	0x3ce3bc53	0.02779976
1	0xbd107598	-0.035268396
2	0x3c7c46e1	0.015397758
3	0xbd0ecf03	-0.03486539
4	0xbd0e2a06	-0.034708045
5	0x3c27ad7b	0.010234232
6	0xbd0551c0	-0.032548666
7	0x3d028795	0.031867582
8	0x3c569cb2	0.0130988825
9	0x3bfb4a35	0.0076687583
10	0xbcf30016	-0.029663127
11	0x3c531c21	0.012885124
12	0xbd150253	-0.03637917
13	0x3c94e511	0.018175634
14	0xbcab9eb6	-0.020949703
15	0xbd0528b3	-0.032509517
16	0x3cd47276	0.025933485
17	0x3b9b9c14	0.0047488306
18	0x3c55e722	0.013055595
19	0xbd10d5e9	-0.03536025
20	0xbd1359b0	-0.035974205
21	0x3c5fd4b1	0.013661549
22	0xbd1c0416	-0.038089834
23	0x3cad4771	0.02115223
24	0x3cde66de	0.02714866
25	0xbcd00945	-0.025395045
26	0xbcdd6f54	-0.027030624
27	0xbd13edfb	-0.036115628
28	0x3c946f12	0.018119369
29	0xbd1aa62c	-0.03775613
30	0xbc818d33	-0.0158144
31	0x3cab0e3c	0.02088081
32	0xbcf92f6f	-0.030418126
33	0xbd02676f	-0.031836923
34	0xbd00e40a	-0.031467475
35	0xbcdaccde	-0.026709016
36	0x3cc8fb7a	0.024533976
37	0x3d15a4fe	0.036534302
38	0xbd02a893	-0.031899046
39	0xbcbffb8c	-0.023435377
40	0x3c102aa6	0.008799231
41	0xbd05a7fa	-0.032630898
42	0x3c72007e	0.014770625
43	0x3c85858e	0.016299035
44	0xbcf02893	-0.029316222
45	0xbd025877	-0.031822648
46	0xbd1879e6	-0.037225626
47	0x3ceff635	0.029292205
48	0xbcd3ee9a	-0.02587061
49	0x3ca32b43	0.01991809
50	0xbceed88b	-0.02915599
51	0xbd0a6297	-0.03378543
52	0x3c6fe3b2	0.014641689
53	0xbcf216d7	-0.029551907
54	0xbd03b3c9	-0.03215388
55	0xbd1222ea	-0.035677828
56	0xbd1f5cff	-0.038907047
57	0x3ca2e0eb	0.01988264
58	0x3cdd063f	0.026980517
59	0xbd037e0e	-0.032102637
60	0x3c8eb191	0.017418655
61	0x3cf62c4b	0.030050417
62	0xbd155a86	-0.036463283
63	0x3cf7dcb6	0.03025661
64	0xbd0cb72a	-0.034354366
65	0x3c893f4c	0.016753815
66	0x3c41f965	0.011839245
67	0xbce85c8c	-0.028364442
68	0x3c7ee44b	0.015557359
69	0xbd20af55	-0.03922971
70	0xbd189816	-0.037254415
71	0x3bfdc2f4	0.0077441875
72	0xbd0d3c66	-0.03448143
73	0xbcfa5c13	-0.030561483
74	0x3c878453	0.01654259
75	0x3c1f69e2	0.009729834
76	0x3cb747f0	0.02237317
77	0x3c898161	0.016785325
78	0xbd07f9ce	-0.033197217
79	0xbd05e47e	-0.03268861
80	0xbcec30c2	-0.028831843
81	0x3cd77e93	0.026305472
82	0xbcdb390c	-0.0267606
83	0x3cb92f7f	0.022605656
84	0xbd2d4ffb	-0.042312603
85	0x3be96a2c	0.0071232524
86	0xbcdcf588	-0.026972547
87	0x3ceae086	0.028671514
88	0x3c02db51	0.007986859
89	0xbd22f8a6	-0.03978791
90	0x3ccdd914	0.025127925
91	0x3ca986e2	0.0206942
92	0xbd005e5c	-0.031339988
93	0x3c9594e8	0.01825948
94	0x3cafe47c	0.021471255
95	0x3c64d856	0.013967594
96	0x3ca1bffb	0.019744864
97	0x3c7485b2	0.014924454
98	0x3ad0ef10	0.0015940387
99	0xbd28764a	-0.041128434

fc.2.weight f4 [100, 100]
0	0x3dc82885	0.097733535
1	0x3c8fd6d7	0.017558498
2	0x3d68531b	0.05671988
3	0x3c507839	0.012723976
4	0x3c0ac8d0	0.008470729
5	0x3d6a68a0	0.057228684
6	0x3cc2f6ee	0.023799386
7	0xbc7eb08d	-0.015545023
8	0x3d839e81	0.064267166
9	0x3d2b9236	0.041887484
10	0xbc2a9723	-0.01041201
11	0x3d81ca94	0.06337467
12	0xba96d461	-0.0011507386
13	0x3d96ad42	0.07357265
14	0xb8c29989	-9.279239e-05
15	0x3ce2cd83	0.027685886
16	0x3cabf1cd	0.020989323
17	0x3de73290	0.11288941
18	0x3dcf1137	0.10110705
19	0x3bdafd67	0.00668304
20	0xbd766c66	-0.06016197
21	0x3d14e137	0.036347594
22	0x3c1a8b02	0.009432556
23	0xbc413c55	-0.011794169
24	0x3cef1df7	0.029189093
25	0xbcdc78b7	-0.02691303
26	0xbd04af88	-0.032393962
27	0xbcb919f2	-0.02259538
28	0x3d84c09d	0.064820506
29	0x3c1fa1c4	0.009743158
30	0xbcafaebe	-0.021445628
31	0x3d339789	0.043845687
32	0xbc41bac7	-0.011824316
33	0xbbaf5eb2	-0.0053518647
34	0x3c7339d7	0.014845333
35	0x3c112fb1	0.008861468
36	0x3dd34419	0.10315723
37	0xbc3e9eba	-0.011634523
38	0xbaa63a24	-0.0012682122
39	0xbd378152	-0.044801064
40	0x3d8aaea4	0.06771591
41	0x3d18ec8b	0.03733496
42	0x3e1b9156	0.1519216
43	0x3cc35f95	0.023849288
44	0xbcfd1c04	-0.030897148
45	0xbc10a45e	-0.008828251
46	0x3be1c720	0.0068901926
47	0x3dd87905	0.10569958
48	0xbcbc8e3a	-0.023017038
49	0x3df920b7	0.12164443
50	0xbc901ae3	-0.017590946
51	0x3c1a77cd	0.009427977
52	0x3d57dbcb	0.052699845
53	0x3bb629f5	0.005559201
54	0x3c3471c2	0.01101345
55	0xbb46cb73	-0.0030333668
56	0xbbf55110	-0.00748647
57	0x3de671db	0.11252185
58	0x3b8bbbce	0.0042643314
59	0xbc9849a7	-0.018589808
60	0x3e045744	0.12923914
61	0x3c64ee47	0.013972825
62	0x3d251ea9	0.040312443
63	0x3d154cfe	0.03645038
64	0xbcd255eb	-0.025675735
65	0x3d577681	0.05260325
66	0x3d9836f3	0.07432356
67	0x3ad4cbd6	0.0016235064
68	0x3d07a80e	0.033119254
69	0x3c3f222c	0.011665862
70	0x3d104c5f	0.035229083
71	0x3da9aeeb	0.08285316
72	0xbd462ef1	-0.04838461
73	0xbc8ef4b4	-0.017450668
74	0xba890b0f	-0.0010455566
75	0x3d7b0929	0.061288033
76	0x3cf4c7de	0.02988046
77	0x3d3f8495	0.0467573
78	0xbcdfdbb2	-0.027326439
79	0xbcb9cfd0	-0.0226821
80	0x3d372a6b	0.044718187
81	0x3d61b916	0.055108152
82	0x3bd3e19e	0.0064661046
83	0x3c287f2b	0.010284225
84	0x3b231495	0.0024884094
85	0x3de98d97	0.11403959
86	0xbd03c342	-0.032168634
87	0x3b956970	0.0045596883
88	0x3defaf0c	0.117033094
89	0x3cc06683	0.023486381
90	0x3d305027	0.04304519
91	0x3dda4d8a	0.10659321
92	0xbc3097a6	-0.010778343
93	0x3d3d6daf	0.04624718
94	0x3d8567f4	0.06513968
95	0x3d15bdcd	0.03655796
96	0x3ce6ad98	0.028158948
97	0x3e069f7d	0.13146777
98	0x3d962f89	0.07333285
99	0xbd22bb3b	-0.03972934
100	0xbdcccef5	-0.100004114
101	0x3c1532bd	0.009106335
102	0xbdc38d62	-0.09548451
103	0x3cb2b423	0.021814412
104	0xbb8f0589	-0.0043646735
105	0xbda947f0	-0.08265674
106	0x3bf6fae1	0.0075372313
107	0xbb5e7a34	-0.003394735
108	0xbdc2054e	-0.09473668
109	0xbd754701	-0.059882168
110	0x3a743c79	0.00093168725
111	0xbdc0d801	-0.094161995
112	0x3caa6ce1	0.02080387
113	0xbdc4ee9e	-0.09615825
114	0xbd2f6d4d	-0.042828847
115	0xbca724b8	-0.020403251
116	0x3c882b14	0.016622104
117	0xbd93f22c	-0.07223925
118	0xbdadce0c	-0.08486566
119	0x3c309072	0.010776626
120	0xbc408a45	-0.011751716
121	0xbd812a2e	-0.06306873
122	0x3bc89855	0.006121675
123	0x3c6c82e8	0.014435507
124	0xbda22490	-0.0791713
125	0xbd5245bd	-0.05133604
126	0xbccbdfb8	-0.02488695
127	0xbc4f4884	-0.012651566
128	0xbdb06872	-0.08613671
129	0x3d0f2698	0.034948915
130	0xbc8ca776	-0.017169695
131	0xbd7b0321	-0.06128228
132	0xbb756d39	-0.0037449135
133	0xbcaecb1c	-0.021337084
134	0xbcdf66b9	-0.027270662
135	0xbc0ddbec	-0.0086583905
136	0xbd1f008b	-0.038818877
137	0xbc0eeb10	-0.008723035
138	0xbce2f6f7	-0.027705653
139	0x3cebe4be	0.028795596
140	0xbe128476	-0.14308342
141	0xba8437d1	-0.0010087435
142	0xbe105493	-0.14094763
143	0xbd0a4f8d	-0.03376727
144	0x3c3e5ee1	0.011619301
145	0x3c4d1481	0.012517096
146	0x3c732efd	0.014842746
147	0xbdf86afd	-0.121297814
148	0x3c29dfe0	0.010368317
149	0xbdff1a24	-0.12456158
150	0x3c011004	0.007877354
151	0x3cfba4ca	0.030718226
152	0xbd0076dd	-0.031363357
153	0xbcf971dc	-0.0304498
154	0xbc974398	-0.018464848
155	0x3bee6ba4	0.0072760154
156	0xbae302c6	-0.0017319552
157	0xbddf944a	-0.10916956
158	0x3cacec86	0.021108877
159	0xbd13789d	-0.036003698
160	0xbe2102e4	-0.15723759
161	0xbd8e3efc	-0.06945607
162	0xba19a09c	-0.00058604195
163	0xbbcf6819	-0.006329548
164	0x3d77c0a4	0.06048645
165	0xbda0d9a6	-0.07854013
166	0xbe04173d	-0.1289949
167	0x3cdecf61	0.027198495
168	0xbd25ac14	-0.04044731
169	0x3c281c30	0.010260627
170	0xbc77e4e5	-0.015130256
171	0xbdf71bed	-0.12065873
172	0xbc5684e2	-0.013093205
173	0x3cab4ef4	0.020911671
174	0xbd18f4ed	-0.037342954
175	0xbddd0179	-0.107912965
176	0xbccc6150	-0.024948746
177	0xbcd90081	-0.026489498
178	0xbc85a7e1	-0.016315402
179	0xbbb54c6e	-0.005532793
180	0x3bb5fd28	0.00555386
181	0xbdad2051	-0.084534295
182	0xbcaa92fa	-0.020822037
183	0x3cefd7dd	0.029277736
184	0x3bad5062	0.0052891234
185	0xbd5ab7dc	-0.053398
186	0x3ca27ef4	0.019835927
187	0xbce0973a	-0.02741586
188	0xbde2d3ad	-0.1107553
189	0x3cd17255	0.025567213
190	0x3d08eda8	0.03342977
191	0xbdbd0848	-0.09230095
192	0x3cbaa79d	0.022785002
193	0xbd8f7744	-0.0700517
194	0xbdb04a23	-0.086078905
195	0xbd0e9864	-0.0348133
196	0xbd1b28bf	-0.037880655
197	0xbe1d287e	-0.15347478
198	0xbe0cb1db	-0.13739721
199	0xbd0363a8	-0.03207746
200	0x3da56a21	0.08076883
201	0xbb404463	-0.0029337637
202	0x3d933726	0.07188253
203	0x3c970af4	0.01843784
204	0x3aec2031	0.0018014965
205	0x3dab3a14	0.08360687
206	0x3c7b7dbc	0.015349802
207	0x3cdd6b65	0.027028749
208	0x3e0c2a9f	0.13688134
209	0x3dd7fac5	0.10545877
210	0xbc5beced	-0.013423187
211	0x3d871c7a	0.06597228
212	0x3a65fe9a	0.00087735953
213	0x3e0390c3	0.12848191
214	0xbc3ddf3b	-0.011588867
215	0xbc662eb9	-0.0140492255
216	0x3c344d6b	0.011004786
217	0x3e11b2ea	0.14228407
218	0x3de91b33	0.11382141
219	0xbc05e8bf	-0.008173167
220	0x3a2709ed	0.00063720235
221	0x3d4ecfd0	0.050491154
222	0xbc34fd8d	-0.011046779
223	0x3d17b1ce	0.037034802
224	0x3dd2ddd8	0.102962196
225	0xbc1fca34	-0.009752799
226	0x3c93919b	0.018013766
227	0xbc1a9f34	-0.009437371
228	0x3d72662d	0.059179474
229	0x3c347934	0.011015225
230	0x3cde18d9	0.027111458
231	0x3d27e2c8	0.04098776
232	0xbc67d1c0	-0.014149129
233	0xbca5d001	-0.020240786
234	0xbbcbad52	-0.0062157298
235	0xbb57b505	-0.0032914293
236	0x3d3d1575	0.04616304
237	0xbca4dea0	-0.020125687
238	0xbb51d6e9	-0.0032018966
239	0xbc83aa26	-0.016072344
240	0x3deb838a	0.114996985
241	0x3c01a34f	0.007912471
242	0x3dd32709	0.1031018
243	0x3d838d7d	0.06423471
244	0xbbe4977b	-0.0069760657
245	0xbd350a81	-0.04419947
246	0xbd2ddc26	-0.042446278
247	0x3dd649df	0.104633085
248	0xbb4e18d7	-0.0031447911
249	0x3e0cb14e	0.13739511
250	0xbc81b496	-0.01583318
251	0x3d24a37e	0.04019498
252	0x3d8a44d0	0.06751406
253	0xbca2dcbe	-0.019880649
254	0xbaecaa2c	-0.0018056086
255	0x3c48f966	0.0122664925

fc.2.bias f4 [100]
0	0x3cebabd7	0.028768463
1	0xbce86e40	-0.028372884
2	0x3cd9ecca	0.026602168
3	0x3cdbfdd7	0.026854439
4	0xbcd5fdf0	-0.026122063
5	0x3cde33ff	0.027124403
6	0x3cd88808	0.026432052
7	0x3ce9808c	0.028503679
8	0xbcda76c0	-0.026667953
9	0xbce098a8	-0.027416542
10	0x3cde93d5	0.027170101
11	0xbcdac4d0	-0.026705176
12	0xbcd842cc	-0.026399039
13	0xbce4a193	-0.027909076
14	0x3cd32bd7	0.02577774
15	0x3cbeffd2	0.023315344
16	0xbccfcfff	-0.025367735
17	0xbcc91c6a	-0.024549682
18	0xbcc1f2ca	-0.023675341
19	0x3cf44989	0.02982022
20	0xbcd8e467	-0.026476098
21	0x3ce82f26	0.028342795
22	0x3cec2771	0.0288274
23	0x3cf7e289	0.030259388
24	0xbce9c12a	-0.02853449
25	0x3cad86f2	0.021182511
26	0xbcdccc65	-0.026952932
27	0xbcd47e3f	-0.025939105
28	0x3cd72ea0	0.02626735
29	0xbcdb154e	-0.026743557
30	0x3ceef35f	0.029168783
31	0xbcdf5c3f	-0.027265666
32	0x3cdfa599	0.027300643
33	0xbcd09409	-0.025461214
34	0x3ce332a6	0.027734112
35	0xbccc8013	-0.024963414
36	0x3cd81ce8	0.026380971
37	0xbcd4a8ab	-0.025959333
38	0x3ce54b08	0.02798988
39	0x3cf7feb1	0.030272814
40	0x3ce22bcf	0.02760878
41	0xbcc9d9e0	-0.024640024
42	0xbcdac600	-0.026705742
43	0x3cf8f5c4	0.030390628
44	0xbcc751fa	-0.024331082
45	0xbcdee693	-0.027209556
46	0x3ce95c99	0.028486537
47	0x3cde741f	0.02715498
48	0xbce00406	-0.027345669
49	0x3cd43d92	0.025908265
50	0xbceeaf25	-0.02913625
51	0xbcd05197	-0.02542953
52	0xbcd41aff	-0.025891779
53	0x3ce2c7ae	0.027683105
54	0x3cd7b884	0.026333101
55	0x3cee31ca	0.029076476
56	0x3cda90d2	0.026680384
57	0x3cdf4101	0.027252676
58	0x3cef55f9	0.0292158
59	0x3cc9bc74	0.024625994
60	0x3ced44d8	0.028963491
61	0xbcdaab48	-0.026693001
62	0x3cc2d4c4	0.023783095
63	0xbcd042f5	-0.025422553
64	0xbce59287	-0.028023971
65	0xbcd530ee	-0.026024308
66	0x3cf6920c	0.030098937
67	0xbcd245be	-0.025668021
68	0x3ce21f03	0.027602678
69	0xbcc7e175	-0.024399498
70	0x3cf25887	0.029583229
71	0x3cf0dfbd	0.029403562
72	0x3cd8940f	0.026437787
73	0x3cf1d486	0.029520284
74	0xbcc4a69e	-0.02400523
75	0xbcc9bcd0	-0.024626166
76	0xbcc8fdec	-0.024535142
77	0xbccda99b	-0.025105288
78	0x3ccb2344	0.02479709
79	0xbcbb6fcd	-0.02288046
80	0x3cd66067	0.026169015
81	0x3cdb033a	0.026734937
82	0xbcd0cc5a	-0.025488067
83	0xbcd9f719	-0.026607083
84	0x3cd96382	0.026536707
85	0x3ce96495	0.028490344
86	0x3ce1cf17	0.027564568
87	0xbcdf8b67	-0.027288152
88	0xbcd1f956	-0.025631588
89	0x3cf185c6	0.029482733
90	0x3d00ea78	0.031473607
91	0xbcd69585	-0.026194343
92	0x3cd6863d	0.026187057
93	0x3cea93f9	0.028635012
94	0xbce0127d	-0.027352566
95	0x3ce7cf45	0.028297076
96	0x3ce88dbf	0.028387902
97	0xbce0457e	-0.027376886
98	0xbce370bc	-0.027763717
99	0xbce3f788	-0.027827993

fc.3.weight f4 [100, 100]
0	0xbdbacf33	-0.09121551
1	0x3e217e59	0.15770854
2	0xbdfcf827	-0.12352019
3	0xbe012f15	-0.12615617
4	0x3daf689c	0.085648745
5	0xbdd07de5	-0.101802625
6	0xbe08f298	-0.13373792
7	0xbdb61307	-0.08890348
8	0x3de72025	0.11285428
9	0x3dddb870	0.10826194
10	0xbe0eba9d	-0.13938375
11	0x3d8192ea	0.0632685
12	0x3e16fb2f	0.14744256
13	0x3dd636a8	0.104596436
14	0xbdde7c5c	-0.108635634
15	0xbe082ee0	-0.13299131
16	0x3e0ce065	0.13757475
17	0x3d91cf8f	0.07119667
18	0x3dbc45c7	0.091929965
19	0xbe0abf43	-0.13549523
20	0x3dbd54ce	0.09244691
21	0xbdd6c1a1	-0.104861505
22	0xbdc2e2f6	-0.095159456
23	0xbe19bc47	-0.15013228
24	0x3e01d38a	0.12678352
25	0xbdc12208	-0.09430319
26	0x3db23513	0.08701529
27	0x3ded1a75	0.11577312
28	0xbde6e4e1	-0.11274124
29	0x3dd70b42	0.10500194
30	0xbde36f95	-0.11105267
31	0x3dd55b23	0.104177736
32	0xbdf3f04f	-0.119110696
33	0x3dca6234	0.09882012
34	0xbe1a1938	-0.15048683
35	0x3dd2da4a	0.102955416
36	0xbd9aa43e	-0.07550858
37	0x3dfadb0d	0.12248812
38	0xbd8f4154	-0.06994882
39	0xbdcc8041	-0.099854
40	0xbd807bc1	-0.06273604
41	0x3db248f4	0.08705321
42	0x3dacd34e	0.08438741
43	0xbe145aab	-0.14487712
44	0x3de5b68a	0.11216457
45	0x3e0e7fdd	0.13915963
46	0xbe07115a	-0.13190213
47	0xbdd6e930	-0.10493696
48	0x3e0afca8	0.13572943
49	0xbe10f898	-0.14157331
50	0x3e013ace	0.12620088
51	0x3db9d3b5	0.09073583
52	0x3dade3ce	0.08490716
53	0xbdcc1c5f	-0.09966349
54	0xbddedbe6	-0.10881786
55	0xbdd91893	-0.1060039
56	0xbdee61d4	-0.11639753
57	0xbdb7c612	-0.08973326
58	0xbe08b144	-0.13348871
59	0xbd7fc21d	-0.06244098
60	0xbe0658be	-0.1311979
61	0x3e115b2b	0.14194934
62	0xbd53b4d2	-0.051686116
63	0x3ddeec9e	0.10884975
64	0x3dd727e8	0.105056584
65	0x3d993971	0.07481659
66	0xbe19e740	-0.15029621
67	0x3de2ffe0	0.110839605
68	0xbdfd8324	-0.12378529
69	0x3dda3f4d	0.10656605
70	0xbdf7d97d	-0.121020295
71	0xbdb818e3	-0.08989122
72	0xbde42ae6	-0.11140995
73	0xbe1d0194	-0.15332633
74	0x3dbbdb56	0.091726944
75	0x3da92970	0.08259857
76	0x3dcacba5	0.09902123
77	0x3e0d1df0	0.13780951
78	0xbdc611db	-0.096713744
79	0x3da5390f	0.08067524
80	0xbdc0b56b	-0.09409603
81	0xbe04c220	-0.12964678
82	0x3da206b4	0.07911435
83	0x3dab6b10	0.0837003
84	0xbdda62d8	-0.10663384
85	0xbe031217	-0.1279987
86	0xbdfe2ebb	-0.12411257
87	0x3d448471	0.04797787
88	0x3dd6f5c3	0.10496094
89	0xbe0bcfc3	-0.13653474
90	0xbde96fa8	-0.1139825
91	0x3d7a9a25	0.06118216
92	0xbde27ab4	-0.1105856
93	0xbde518ef	-0.11186396
94	0x3db79f8a	0.089659765
95	0xbdc4f53b	-0.096170865
96	0xbde2759a	-0.11057587
97	0x3e015d53	0.12633257
98	0x3dbde3ea	0.09271987
99	0x3df10872	0.11769189
100	0xbe0f905c	-0.14019912
101	0x3e260129	0.1621138
102	0xbe1eedf0	-0.15520453
103	0xbdd1c461	-0.102425344
104	0x3d98fa5e	0.07469629
105	0xbdd24464	-0.10266951
106	0xbe29380d	-0.16525288
107	0xbdcc6bf2	-0.099815264
108	0x3de66eab	0.11251577
109	0x3e05222c	0.13001317
110	0xbdd28d2b	-0.10280832
111	0x3dac7aef	0.08421885
112	0x3e0d7a1e	0.13816115
113	0x3e052a42	0.13004401
114	0xbdfbed60	-0.12301135
115	0xbe1259ee	-0.14292118
116	0x3dff4d46	0.124659106
117	0x3d0f64fe	0.035008423
118	0x3daa6d31	0.08321608
119	0xbe1a7fb7	-0.15087782
120	0x3dbb16dc	0.091352195
121	0xbe136454	-0.14393741
122	0xbddc7ace	-0.10765611
123	0xbe1993a3	-0.14997725
124	0x3e112354	0.14173633
125	0xbd9e8d2d	-0.07741771
126	0x3e039e50	0.1285336
127	0x3deaa35c	0.114569396
128	0xbe0c9644	-0.13729197
129	0x3dda5ad8	0.10661858
130	0xbd5328c9	-0.051552568
131	0x3e195e14	0.14977294
132	0xbdf357b7	-0.11881965
133	0x3de58510	0.1120702
134	0xbe10723e	-0.1410608
135	0x3da0f7b9	0.07859749
136	0xbdc3371a	-0.09531994
137	0x3dc7e934	0.09761277
138	0xbe0566f4	-0.13027555
139	0xbe0b62be	-0.13611886
140	0xbdc21e10	-0.0947839
141	0x3d9fa53a	0.07795186
142	0x3db7616a	0.08954127
143	0xbe103ccf	-0.14085697
144	0x3de6741a	0.11252613
145	0x3dfc2e95	0.12313572
146	0xbe027f0f	-0.12743782
147	0xbde07e57	-0.109615974
148	0x3dc39680	0.0955019
149	0xbde0baae	-0.10973106
150	0x3e30293f	0.17203234
151	0x3d9dddce	0.077083215
152	0x3da91c12	0.08257307
153	0xbe022174	-0.12708074
154	0xbddf6e35	-0.10909692
155	0xbda3c129	-0.07995827
156	0xbdf68ad1	-0.12038196
157	0xbded4981	-0.115862854
158	0xbe00d0b7	-0.12579618
159	0xbdde0cc8	-0.108422816
160	0xbe1e5ed6	-0.15465865
161	0x3dd82060	0.1055305
162	0xbdd317ad	-0.1030725
163	0x3e026ccd	0.12736817
164	0x3df77dc1	0.120845325
165	0x3dcf1fad	0.101134636
166	0xbe0c1c95	-0.13682778
167	0x3dd14287	0.10217767
168	0xbe1d7789	-0.1537763
169	0x3ddb1fa7	0.106993966
170	0xbe1d48f5	-0.15359862
171	0xbe14ae10	-0.14519525
172	0xbde7c4de	-0.11316846
173	0xbe24fc73	-0.16111927
174	0x3db65961	0.089037664
175	0x3db68513	0.08912101
176	0x3de025d6	0.10944717
177	0x3e251973	0.1612299
178	0xbdee8c38	-0.11647838
179	0x3d98b164	0.074557096
180	0xbde4b7e0	-0.11167884
181	0xbe1baaf5	-0.15201934
182	0x3d67e964	0.056619063
183	0x3dc6a425	0.09699277
184	0xbdb8483d	-0.08998153
185	0xbe0efd5e	-0.1396384
186	0xbdd0c8b1	-0.10194529
187	0x3dcbe353	0.09955468
188	0x3dbc2195	0.09186093
189	0xbe178100	-0.14795303
190	0xbe31fd0f	-0.1738169
191	0x3dd339d0	0.10313761
192	0xbdfd6657	-0.123730354
193	0xbe07a1ec	-0.13245362
194	0x3e04b09f	0.12958
195	0xbe176f4d	-0.14788552
196	0xbe00638c	-0.12537974
197	0x3df8f5df	0.12156271
198	0x3dfc9214	0.1233255
199	0x3df9e186	0.12201218
200	0xbe071294	-0.1319068
201	0x3e1064ae	0.14100906
202	0xbe03e47a	-0.12880126
203	0xbe0f0525	-0.13966806
204	0x3d9699a5	0.07353524
205	0xbe14e4dc	-0.14540428
206	0xbdfa81a7	-0.122317605
207	0xbdf03b2e	-0.11730038
208	0x3e12925d	0.14313646
209	0x3e089d52	0.13341263
210	0xbe18266a	-0.14858404
211	0x3d97ac9a	0.07405968
212	0x3dd3a37c	0.103339165
213	0x3e2b2285	0.16712387
214	0xbd911b2e	-0.07085262
215	0xbe017819	-0.1264347
216	0x3dcf1889	0.101121016
217	0x3d9d37e0	0.07676673
218	0x3dbc0fd2	0.09182705
219	0xbdd4ca91	-0.10390199
220	0x3de01beb	0.10942825
221	0xbe026c14	-0.12736541
222	0xbde01526	-0.10941534
223	0xbe10250c	-0.14076632
224	0x3e084d1b	0.13310663
225	0xbd8f67fd	-0.07002256
226	0x3daf0329	0.085455246
227	0x3df5e261	0.12006069
228	0xbe05da4c	-0.13071555
229	0x3d916005	0.070983924
230	0xbe06f0ad	-0.13177748
231	0x3e10d79d	0.1414475
232	0xbe14004a	-0.14453235
233	0x3dd5304d	0.10409603
234	0xbe15f45e	-0.14644
235	0x3dc0f101	0.09420968
236	0xbdf31aac	-0.11870322
237	0x3dd95dc9	0.10613591
238	0xbdde78e9	-0.108629055
239	0xbe073928	-0.13205397
240	0xbd80e637	-0.0629391
241	0x3dc922bb	0.098210774
242	0x3d85f448	0.065407336
243	0xbe3276f7	-0.17428194
244	0x3da14d4e	0.07876073
245	0x3e02035b	0.12696593
246	0xbdb740b4	-0.08947888
247	0xbddcf854	-0.10789552
248	0x3e12ee38	0.14348686
249	0xbdadc161	-0.0848415
250	0x3e008cc9	0.12553705
251	0x3dce9e1b	0.1008875
252	0x3da9b6ae	0.082867965
253	0xbdfa8311	-0.1223203
254	0xbddb70ec	-0.107148975
255	0xbe1640e6	-0.14673194

fc.3.bias f4 [100]
0	0xbb9de28a	-0.0048182653
1	0xbceb74e7	-0.028742267
2	0xbcba7a16	-0.022763293
3	0x3ca046d5	0.019565025
4	0xbd182d16	-0.037152372
5	0xbca42d88	-0.020041242
6	0xbcb34082	-0.021881346
7	0xbcb8210b	-0.022476694
8	0x3c606618	0.013696216
9	0xbcc4855f	-0.023989378
10	0x3be99d94	0.0071293805
11	0x3c504d87	0.012713796
12	0x3c2a51fb	0.010395522
13	0xbc7cd57f	-0.015431761
14	0x3bdc6470	0.0067258403
15	0xbcfea3ae	-0.031083908
16	0x3c3eba96	0.011641165
17	0xbcd25c4d	-0.025678778
18	0xbd1044af	-0.03522175
19	0xbc60fc89	-0.013732084
20	0xbd0437e1	-0.032279853
21	0x3c8b99ec	0.01704117
22	0xbc1be85a	-0.009515846
23	0xbd1cefb9	-0.038314555
24	0x3bde14c9	0.00677738
25	0xbc51160f	-0.012761607
26	0x3d2c9b5b	0.042140346
27	0xbb41056e	-0.00294527
28	0xbcbcb86a	-0.023037154
29	0x3c52f003	0.012874606
30	0xbd0cd8a7	-0.034386303
31	0xbcb46f52	-0.022025738
32	0x3be02256	0.0068400307
33	0xbce9282b	-0.028461536
34	0xbd1413ef	-0.036151823
35	0x3c699a0c	0.014257919
36	0xbc966ae3	-0.018361514
37	0x3c0c12de	0.00854942
38	0x3bf64ce5	0.0075164908
39	0x3c03ffe6	0.008056616
40	0xbcb92052	-0.02259842
41	0xbcc70e4c	-0.02429881
42	0xbce62bef	-0.028097121
43	0x3c9280a9	0.017883616
44	0xbca1807a	-0.019714583
45	0xbc520fe1	-0.012821169
46	0x3c124379	0.00892722
47	0x3c1063ae	0.008812828
48	0xbc30f41f	-0.0108003905
49	0x3c516bf7	0.0127820885
50	0xbcbd5cdd	-0.02311557
51	0xbcfc5c14	-0.030805625
52	0xbcec0162	-0.028809253
53	0x3c3dbdba	0.011580879
54	0xbc98feb3	-0.018676138
55	0x3c959ebb	0.018264165
56	0x3c230cd5	0.00995179
57	0x3b377c99	0.002799785
58	0x3bec6791	0.0072144945
59	0xbc9bfd03	-0.019041544
60	0x3b897688	0.004195038
61	0xbd34817e	-0.044068806
62	0xbcc3f828	-0.023922041
63	0x3c4348c4	0.011919204
64	0x3c58bcf2	0.013228642
65	0xbc8b2b0a	-0.016988296
66	0xbcf39b20	-0.029737055
67	0x3c28e477	0.0103083765
68	0x3c737476	0.014859309
69	0xbd0f189f	-0.03493559
70	0xbd214d53	-0.039380383
71	0xbcf2636a	-0.02958842
72	0xbcc76afc	-0.024343006
73	0x3cc504fa	0.024050225
74	0xbae0688b	-0.0017121
75	0xbcd648d6	-0.026157778
76	0xbc8a31a3	-0.016869372
77	0xbc8b3e91	-0.016997607
78	0xbc98706d	-0.018608296
79	0x3ca84ccc	0.020544432
80	0xbccb5cd6	-0.024824541
81	0x3c7bd09c	0.015369561
82	0xbcb23ba4	-0.021756954
83	0xbcca687a	-0.024708021
84	0xbcac27e5	-0.021015117
85	0x3ce6a77c	0.028156035
86	0xbcb15972	-0.021649096
87	0x3c48d2b3	0.012257266
88	0xbca5dede	-0.020247873
89	0xbc68f47b	-0.014218445
90	0x3c574def	0.013141139
91	0xbc455474	-0.012044061
92	0xbcf0a883	-0.029377228
93	0x3c9a3732	0.018825147
94	0x3c1731d7	0.009228191
95	0xbc8ff4cb	-0.017572781
96	0xbcfe8964	-0.031071372
97	0xbd09794a	-0.033562936
98	0x3c084e46	0.008319443
99	0x3b84d618	0.0040538423

fc.4.weight f4 [100, 100]
0	0xbe2988de	-0.16556117
1	0xbe39ff07	-0.18163691
2	0xbe1ecfe6	-0.15508994
3	0x3e12efab	0.14349239
4	0xbe1f1234	-0.15534288
5	0xbdf306de	-0.11866544
6	0xbe2a7322	-0.16645482
7	0xbe4fbdd1	-0.20287253
8	0x3e42b185	0.19013031
9	0xbe414094	-0.18872291
10	0x3e208873	0.15677051
11	0x3e2b5fc8	0.16735756
12	0x3e0d5772	0.13802889
13	0xbe1aa0a3	-0.1510034
14	0x3e31ac44	0.1735087
15	0xbe7089e7	-0.23490106
16	0x3dd544b9	0.104134984
17	0xbe16012b	-0.14648883
18	0xbe21c750	-0.15798688
19	0xbe17d0ec	-0.14825791
20	0xbe4ebc17	-0.20188938
21	0x3e524f71	0.20538117
22	0xbe29d0ae	-0.16583511
23	0xbe55e8c3	-0.20889573
24	0x3e013491	0.12617709
25	0xbe1fc5ce	-0.156028
26	0x3e354c51	0.17704894
27	0xbe25d9e7	-0.16196404
28	0xbe2f4710	-0.17116952
29	0x3e26cf4b	0.16290013
30	0xbe38fccf	-0.18065189
31	0xbe4318c3	-0.19052415
32	0x3e0a8f56	0.13531241
33	0xbe339b94	-0.17539817
34	0xbe398cf0	-0.1812017
35	0x3e415b80	0.1888256
36	0xbe22e7fe	-0.1590881
37	0x3e181d52	0.14854935
38	0x3e153156	0.14569601
39	0x3df40954	0.11915842
40	0xbe35eaf7	-0.17765413
41	0xbe2fe895	-0.17178567
42	0xbe41dcc1	-0.18931867
43	0x3ddca9f6	0.10774605
44	0xbe214d4e	-0.15752146
45	0xbe39d95c	-0.18149322
46	0x3e233992	0.1593993
47	0x3e06c6e5	0.1316181
48	0xbe44be43	-0.19213204
49	0x3e01f0f0	0.12689567
50	0xbe3f4d5b	-0.18681853
51	0xbe091200	-0.13385773
52	0xbe47cdfc	-0.1951217
53	0x3e233243	0.15937142
54	0xbe2388fc	-0.15970224
55	0x3e144cac	0.14482373
56	0x3e142f8e	0.14471266
57	0x3e1f1057	0.15533577
58	0x3e264460	0.1623702
59	0xbe2fae29	-0.1715628
60	0x3e3a8cf8	0.18217838
61	0xbe3bfebe	-0.18358895
62	0xbe480f9f	-0.19537209
63	0x3e478f64	0.19488293
64	0x3ddf04d0	0.1088959
65	0xbe0e96e3	-0.13924746
66	0xbe3748f3	-0.17898922
67	0x3e1ab900	0.15109634
68	0x3e12cf89	0.14336981
69	0xbe3404e1	-0.17579986
70	0xbe189c49	-0.14903368
71	0xbe2e0fe5	-0.16998251
72	0xbe3972fe	-0.18110272
73	0x3e0689af	0.1313846
74	0xbe35c516	-0.17750964
75	0xbe0975bf	-0.13423823
76	0xbe3a070b	-0.18166749
77	0xbe2f1932	-0.17099455
78	0xbe311bca	-0.17295757
79	0x3e48baf6	0.1960257
80	0xbe15ae0a	-0.14617172
81	0x3e22e1a0	0.15906382
82	0xbe362904	-0.17789084
83	0xbe23a960	-0.1598258
84	0xbe3ca236	-0.18421254
85	0x3e2c0247	0.16797744
86	0xbe44375d	-0.19161744
87	0x3e1cd1ed	0.15314455
88	0xbe3974f5	-0.18111022
89	0xbe4780ef	-0.19482778
90	0x3e1f568c	0.15560359
91	0xbe2d9e37	-0.16954885
92	0xbe1c4246	-0.15259656
93	0x3e1647d8	0.14675844
94	0x3e314eb6	0.17315182
95	0xbe02d3a0	-0.12776041
96	0xbe6b231a	-0.22962609
97	0xbe3908fc	-0.18069834
98	0x3e1c45d6	0.15261015
99	0x3de96d87	0.11397844
100	0xbe0fc39e	-0.14039466
101	0xbe2e7f1e	-0.17040679
102	0xbe32babc	-0.17454046
103	0x3e30b834	0.17257768
104	0xbe203c2f	-0.15647958
105	0xbdea5c91	-0.11443437
106	0xbe100213	-0.14063291
107	0xbe0d3463	-0.13789515
108	0x3e45f7fb	0.19332878
109	0xbe2acbce	-0.16679308
110	0x3e41c13c	0.1892137
111	0x3e41dd53	0.18932085
112	0x3e2a9d7b	0.16661637
113	0xbe0ef973	-0.13962345
114	0x3e4cdf03	0.20006947
115	0xbe4c519b	-0.19953005
116	0x3e2e5bb9	0.17027177
117	0xbe10da6f	-0.14145826
118	0xbe392c15	-0.18083222
119	0xbe1be300	-0.15223312
120	0xbe20463d	-0.15651794
121	0x3e4ab926	0.19797191
122	0xbe1f8498	-0.15577924
123	0xbe1e41a4	-0.15454727
124	0x3e5263b8	0.20545852
125	0xbe03ea38	-0.12882316
126	0x3e4806c6	0.19533834
127	0xbe137b69	-0.14402546
128	0xbe1518b1	-0.145602
129	0x3e31ff17	0.17382465
130	0xbe0ea667	-0.13930665
131	0xbe3002ba	-0.1718854
132	0x3df17777	0.11790364
133	0xbe1e48ac	-0.1545741
134	0xbe379d4c	-0.17931098
135	0x3e1bd6b3	0.1521862
136	0xbe3bb3fe	-0.1833038
137	0x3e48d8b8	0.19613922
138	0x3e174acd	0.14774628
139	0x3e0a8757	0.1352819
140	0xbe2951f6	-0.16535172
141	0xbe417d85	-0.18895538
142	0xbe4cc82c	-0.19998235
143	0x3e412d37	0.18864904
144	0xbe41ebe3	-0.1893764
145	0xbe160131	-0.14648892
146	0x3e415049	0.18878283
147	0x3e40f8c5	0.18844898
148	0xbdf9a676	-0.12189953
149	0x3e38c90d	0.18045445
150	0xbe18e75e	-0.1493201
151	0xbe3dcf53	-0.18536119
152	0xbe162efe	-0.14666364
153	0x3e0f7d48	0.14012635
154	0xbe30766d	-0.17232676
155	0x3e414337	0.18873297
156	0x3e294647	0.16530715
157	0x3e14ce56	0.14531836
158	0x3e401236	0.18756947
159	0xbe2990a1	-0.16559078
160	0x3e1d6a5c	0.15372604
161	0xbe1df41a	-0.15425149
162	0xbe3e9f6e	-0.18615505
163	0x3e0e1412	0.13874844
164	0x3e2b4914	0.16727096
165	0xbe10c08b	-0.1413595
166	0xbe3698eb	-0.17831771
167	0x3e2ea2cb	0.17054288
168	0x3e4ecec1	0.20196058
169	0xbe3f2e7b	-0.18670075
170	0xbe3dcd54	-0.18535358
171	0xbe2ee51b	-0.17079584
172	0xbe4236be	-0.18966195
173	0x3e320fca	0.17388836
174	0xbe486498	-0.19569623
175	0xbe07d6c1	-0.13265516
176	0xbe00f5d9	-0.12593783
177	0xbe36b392	-0.17841938
178	0xbe2deaf0	-0.16984153
179	0x3e52867d	0.20559116
180	0xbe187b5d	-0.1489081
181	0x3e188dc5	0.14897831
182	0xbe143f39	-0.14477243
183	0xbe1400ce	-0.14453432
184	0xbe30bd91	-0.17259814
185	0x3e41e2ba	0.18934146
186	0xbe2273ca	-0.15864483
187	0x3e37155e	0.17879245
188	0xbe1d8efe	-0.15386578
189	0xbe303c5c	-0.17210525
190	0x3e341079	0.17584409
191	0xbe286fec	-0.16448945
192	0xbe1db061	-0.15399314
193	0x3e414cbe	0.18876931
194	0x3e2920da	0.16516438
195	0xbe0ff900	-0.1405983
196	0xbe3aebc4	-0.18254
197	0xbe0173cb	-0.12641828
198	0x3e27bfc7	0.16381751
199	0x3e422677	0.18959986
200	0xbcc57304	-0.024102695
201	0xbbeac5b5	-0.007164682
202	0x3d0289d2	0.031869717
203	0x3bc7bb8d	0.006095356
204	0x3ac2f84e	0.0014875026
205	0x3ca7ebec	0.020498239
206	0x3bb07a91	0.005385705
207	0x3cb168d0	0.021656424
208	0xbd02edba	-0.031964995
209	0x3c489bc7	0.012244171
210	0xbce97246	-0.028496873
211	0xbcc50bee	-0.02405354
212	0xbcbcad5a	-0.02303188
213	0xbcb61ee8	-0.022231534
214	0xbcc36484	-0.02385164
215	0xbcb419bc	-0.021984927
216	0xbc643371	-0.01392828
217	0xbae57258	-0.001750539
218	0xbc345995	-0.011007686
219	0xbc798506	-0.015229469
220	0xbc61c5ad	-0.01378004
221	0x3cf918a2	0.030407254
222	0x3c891802	0.01673508
223	0x3cd7a0c4	0.026321776
224	0xbc479bba	-0.012183124
225	0xbbba9405	-0.005693915
226	0xba4b8895	-0.0007764188
227	0x3b9321ed	0.0044901283
228	0x3c0e20ad	0.008674783
229	0xbb97c5b8	-0.004631724
230	0x3c7237c7	0.014783806
231	0x3b26e49e	0.0025465856
232	0xbd13ba38	-0.036066264
233	0xbca61c57	-0.020277185
234	0x3cdd5fdb	0.027023247
235	0xbd1344a9	-0.03595415
236	0x3d1ff5b4	0.03905268
237	0xbc75be1f	-0.014998942
238	0xbd3ad0cf	-0.04560929
239	0xbc8ea268	-0.017411426
240	0xbc8862e1	-0.016648712
241	0xbcd18b20	-0.025579035
242	0x3c228d0a	0.009921322
243	0xbce081f8	-0.027405724
244	0xbab4b882	-0.0013787898
245	0xbc4a621f	-0.012352495
246	0xbc68800c	-0.014190685
247	0x3c435403	0.011921885
248	0x3cdff576	0.027338725
249	0x3be40e8b	0.0069597415
250	0x3be028d9	0.006840807
251	0x3c85aa3c	0.016316526
252	0xbd454c56	-0.048168503
253	0xbd072f07	-0.033003833
254	0xbc7851b2	-0.015156196
255	0xbbeb0188	-0.0071718134

fc.4.bias f4 [100]
0	0x3cd45916	0.025921386
1	0xbad8f19b	-0.0016551496
2	0x3e463e59	0.19359721
3	0x3d01949c	0.031635866
4	0x3ca8032d	0.020509327
5	0x3cdcf41b	0.026971867
6	0x3e2ca7d1	0.16860892
7	0x3e7f5891	0.24936129
8	0x3e2c862e	0.1684806
9	0x3e4b90e0	0.19879484
10	0x3e46d0eb	0.19415633
11	0x3cdf63b4	0.027269222
12	0x3e2bcb51	0.16776778
13	0x3e3b516a	0.18292776
14	0x3ceea41d	0.02913099
15	0x3e7397b1	0.23788334
16	0x3d012b40	0.031535387
17	0x3d85b63f	0.06528901
18	0x3e349640	0.17635441
19	0x3e2b890b	0.16751496
20	0x3c4f1177	0.012638441
21	0x3e2fd013	0.17169218
22	0x3ccf0bc7	0.02527417
23	0x3e2ce67c	0.16884798
24	0x3c4ee7c4	0.012628499
25	0x3e30de11	0.17272212
26	0x3e2fea2d	0.17179175
27	0x3cad6f76	0.021171313
28	0x3d80beae	0.06286369
29	0x3d0c96c6	0.034323476
30	0x3e3c9d29	0.18419327
31	0x3e36c72e	0.17849419
32	0x3e44cd39	0.19218911
33	0x3e31a9bb	0.17349903
34	0x3e6c0a87	0.23050891
35	0x3d0b31b2	0.03398294
36	0x3d1ffba6	0.03905835
37	0x3c0ae182	0.008476617
38	0x3ce2bbb8	0.027677402
39	0x3d4eab48	0.050456315
40	0x3caafd48	0.020872727
41	0x3d012e51	0.03153831
42	0x3d12d349	0.03584603
43	0x3d34c3f7	0.0441322
44	0x3e3ec88c	0.1863119
45	0x3cd0e882	0.025501493
46	0x3d9ea47f	0.07746219
47	0x3cc6af9a	0.024253655
48	0x3e4c0676	0.1992434
49	0x3d0f78ee	0.035027437
50	0x3b1b53e6	0.002370113
51	0x3e528d9f	0.20561837
52	0x3cafcf51	0.02146116
53	0x3e40366e	0.18770763
54	0x3c096490	0.008385792
55	0x3d6f24be	0.05838465
56	0x3e3f2231	0.18665387
57	0x3c089121	0.008335383
58	0x3c44f3d1	0.012021021
59	0x3e337905	0.17526634
60	0x3e50b46e	0.20381328
61	0x3d0990bc	0.033585295
62	0x3e2e1abd	0.17002387
63	0x3d0e4eca	0.034743108
64	0x3e29edd3	0.16594629
65	0x3e3a56db	0.18197195
66	0x3e3333ef	0.1750028
67	0x3e3ad2a6	0.18244419
68	0x3d0d4038	0.034485072
69	0x3e38a285	0.18030746
70	0x3e36d5dd	0.1785502
71	0x3e3799f7	0.17929827
72	0x3e3bdc64	0.18345791
73	0x3e44a2ef	0.19202779
74	0x3ca604ad	0.020265901
75	0x3d177da9	0.036985073
76	0x3e39bcc1	0.1813841
77	0x3e4f4245	0.20240124
78	0x3e363d03	0.17796712
79	0x3e2b66e7	0.16738473
80	0x3d6b1ae7	0.057398703
81	0x3d3b5437	0.04573461
82	0x3e4f15e3	0.20223193
83	0x3b620764	0.0034489268
84	0x3e327288	0.17426503
85	0x3d5c7518	0.053822607
86	0x3d39d5c2	0.04536987
87	0x3d449a20	0.047998548
88	0x3e62a787	0.22134219
89	0x3c83e946	0.016102444
90	0x3ccb6cd4	0.024832167
91	0x3c881680	0.016612291
92	0x3b83fa0b	0.00402761
93	0x3ca5f4ad	0.020258272
94	0x3e2d04e1	0.16896392
95	0x3cc6253e	0.02418768
96	0x3c9686c7	0.018374814
97	0x3ca18501	0.019716742
98	0x3e336542	0.17519096
99	0x3c633ac5	0.013868992
