results/Smoothed_InfoNCE_dim25_reg1_alpha1e-05.pt (torch, 406907 bytes, 13 tensors)

fc.0.weight f4 [100, 50]
0	0x3da6c3e8	0.08142835
1	0xbc94f4b8	-0.018183097
2	0xbd013325	-0.031542916
3	0xbbcd8618	-0.0062720887
4	0x3bcfaaf7	0.0063375193
5	0x3c429584	0.011876468
6	0xbe1a592c	-0.15073079
7	0xbd3ef260	-0.046617866
8	0x3b03f94b	0.0020137604
9	0x3d0512e9	0.032488737
10	0xbd09fba8	-0.033687264
11	0x3bebdb9d	0.007197811
12	0x3d761e01	0.060087208
13	0x3d195207	0.037431743
14	0xbda27b9d	-0.079337336
15	0xbcbc0a11	-0.022954019
16	0xbc41d4bd	-0.011830506
17	0x3c648ebd	0.013950047
18	0x3d4c89ba	0.049936034
19	0x3bfc2a10	0.007695444
20	0xbc13f4a2	-0.009030493
21	0xbce6fc23	-0.0281964
22	0x3dbcfba8	0.09227687
23	0xbd4b2c93	-0.049603056
24	0xbcb1f08b	-0.021721145
25	0xbd927d4f	-0.07152807
26	0x3cc1ca1b	0.023655942
27	0x3d12d7ab	0.03585021
28	0xbb97d49d	-0.0046335
29	0xbc4f570d	-0.012655032
30	0x3b6999f9	0.0035644753
31	0x3e033ac0	0.1281538
32	0x3dabb9af	0.08385026
33	0x3b7720a3	0.0037708662
34	0xbd41f6e0	-0.04735458
35	0x3d502834	0.05081959
36	0xbc637174	-0.01388203
37	0xbd32b930	-0.04363364
38	0xbd18f6c8	-0.037344724
39	0x3d2f582d	0.0428087
40	0x3c9d2eed	0.019187415
41	0x3c1613ec	0.009160023
42	0x3ce058a7	0.027386023
43	0xbd2ede1b	-0.042692285
44	0xbc28008a	-0.010254035
45	0xbb8f05a8	-0.004364688
46	0x3cafdbc2	0.021467093
47	0xbda6c13b	-0.081423245
48	0x3d3e7d77	0.04650637
49	0x3d1763e9	0.036960516
50	0xbb4812c3	-0.003052876
51	0x3d167f08	0.03674224
52	0xbcfcb090	-0.03084591
53	0x3c5b385d	0.013380137
54	0xbd9749c4	-0.073871166
55	0x3d9664a0	0.073434114
56	0x3dd918bd	0.106004216
57	0xbdc7d256	-0.09756915
58	0xbe0ea17c	-0.13928789
59	0xbd9e64dd	-0.07734082
60	0x3c5b4930	0.0133841485
61	0xbb8a8822	-0.004227654
62	0x3d881a75	0.06645671
63	0xbce21990	-0.02760008
64	0xbd9495bb	-0.07255121
65	0xbd961032	-0.07327308
66	0x3d85361e	0.06504463
67	0xbc4d40ac	-0.012527626
68	0xbd093ad9	-0.033503387
69	0x3dd51b42	0.1040559
70	0xbe1f6fb6	-0.15569958
71	0xbe11a332	-0.1422241
72	0x3d5362b6	0.05160781
73	0x3bfcc41d	0.007713808
74	0x3bf52a27	0.0074818316
75	0xbc4c03a1	-0.012452037
76	0xbd1b0076	-0.037842236
77	0x3c8cda46	0.017193925
78	0xbcac58fa	-0.021038521
79	0x3d71a2b1	0.058993045
80	0xbd84e2fd	-0.06488607
81	0xbdaed5a3	-0.08536842
82	0x3d857a75	0.065174975
83	0x3dc1aea1	0.09457136
84	0x3d63a29b	0.055574995
85	0xbc63d3fc	-0.0139055215
86	0x3c154017	0.0091095185
87	0xbd8286a9	-0.06373341
88	0x3d0fd0f5	0.035111386
89	0x3dbaa572	0.091135874
90	0x3d762e95	0.060103018
91	0xbd3c0eb5	-0.045912463
92	0xbb0e9c42	-0.0021760617
93	0x3c85ce29	0.016333656
94	0xbdcc0808	-0.09962469
95	0x3e14a003	0.14514165
96	0x3debec1c	0.11519644
97	0xbd063a09	-0.03277019
98	0x3b381a2f	0.0028091779
99	0x3b658dde	0.0035027186
100	0xbe11c69a	-0.14235917
101	0x3c94c162	0.018158618
102	0x3d94e1b7	0.07269614
103	0x3ce950b1	0.02848086
104	0x3d146edf	0.036238547
105	0xbd0d2ea6	-0.034468316
106	0xbddd5327	-0.10806876
107	0x3bb7a981	0.0056049232
108	0x3c4f4f60	0.012653202
109	0x3e096cb4	0.13420373
110	0x3dd936aa	0.106061295
111	0xbde70883	-0.1128092
112	0xbb505007	-0.0031785981
113	0x3dc2d1d7	0.0951268
114	0x3d57174e	0.05251246
115	0x3e033e1a	0.12816659
116	0xbd601066	-0.05470314
117	0x3d5cdb64	0.053920165
118	0x3c951e87	0.018203033
119	0x3cb4fcfc	0.022093289
120	0xbd610879	-0.05493972
121	0xbd15ce36	-0.03657361
122	0x3ba4e436	0.0050320877
123	0x3bcfee0b	0.0063455156
124	0x3e35cad4	0.17753154
125	0x3df9d271	0.12198342
126	0xbc8ef35d	-0.017450029
127	0xbd6a545b	-0.057209354
128	0xbd0111e0	-0.031511188
129	0xbd61b562	-0.05510462
130	0x3cc6c9c6	0.024266135
131	0x3d9e1061	0.07717968
132	0xbbfd305d	-0.0077267126
133	0xbc3f1553	-0.011662799
134	0xbd92d637	-0.071697645
135	0xbdec255e	-0.11530565
136	0x3dbb2394	0.09137645
137	0x3c1a9d17	0.009436867
138	0xbd98a0c6	-0.0745254
139	0xbd7376aa	-0.05943934
140	0xbdc1ea90	-0.09468567
141	0x3d8ca8ac	0.06868109
142	0xbd42d232	-0.04756374
143	0xbcc28ad5	-0.02374784
144	0xbc10b062	-0.008831115
145	0x3d166d6b	0.036725443
146	0x3ca7c44a	0.02047934
147	0xbc957a9a	-0.018246938
148	0xbac8e2d8	-0.0015326394
149	0xbe13bac3	-0.14426713
150	0x3d147359	0.036242817
151	0xbd336729	-0.043799553
152	0xbb03cac5	-0.0020109874
153	0xbce6e629	-0.02818592
154	0x3d44d9d7	0.04805931
155	0x3c4ce756	0.012506327
156	0xbd202d6c	-0.039105818
157	0xbd9487dc	-0.072524756
158	0xbba4a1fb	-0.0050241924
159	0xbd013d06	-0.031552337
160	0x3bae102e	0.0053119874
161	0xbc377f99	-0.011199855
162	0x3d214b91	0.039378706
163	0x3cf689af	0.03009495
164	0xbcbd97f6	-0.02314375
165	0x3d729ebe	0.05923342
166	0xbcc6e801	-0.02428055
167	0x3b3e6551	0.0029052089
168	0x3ce96d03	0.028494364
169	0xbc5de9d0	-0.013544515
170	0x3c47991f	0.012182503
171	0x3c7bdb9e	0.015372185
172	0x3b962ac6	0.0045827357
173	0xbd0c29c8	-0.034219533
174	0xbcbd30b9	-0.023094522
175	0x3c5869a4	0.01320878
176	0x3b8c2f62	0.0042781094
177	0xbc5e76bf	-0.013578116
178	0x3cc538de	0.024074968
179	0xbce56990	-0.028004438
180	0x3c30f7be	0.010801254
181	0x3d4d85bc	0.050176367
182	0x3d1e06e9	0.03858081
183	0x3ca4f395	0.02013568
184	0x3c7da24f	0.015480592
185	0xbc269d7d	-0.010169384
186	0xbb896602	-0.0041930685
187	0xbcc85953	-0.024456656
188	0xbd020589	-0.03174356
189	0x3c4b569e	0.012410788
190	0xbcef8b2f	-0.029241173
191	0x3cba1d72	0.022719119
192	0x3c29e7dd	0.010370222
193	0xbce05bb4	-0.027387477
194	0xbb654c2e	-0.0034988034
195	0xbb040cc7	-0.0020149217
196	0x3c81c730	0.01584205
197	0xbc3ef757	-0.01165565
198	0x3d32d743	0.04366232
199	0xbae0ff2a	-0.0017165889
200	0xbc758c8c	-0.014987122
201	0xbb8f2131	-0.0043679704
202	0xbd260c5a	-0.040539123
203	0xbdf7b66b	-0.1209534
204	0x3cb3f5aa	0.021967728
205	0x3c0fd1d0	0.008778051
206	0x3ca7475f	0.020419775
207	0x3cfd1e2b	0.030898174
208	0xbde4a23d	-0.11163757
209	0xbc1002a7	-0.008789695
210	0xbdc0b6e5	-0.09409884
211	0xbd94783d	-0.07249496
212	0xbcf5e40b	-0.030015966
213	0x3d4c0567	0.04980984
214	0xbdbe8450	-0.0930258
215	0x3c8273d2	0.015924368
216	0xbd1600f0	-0.036621988
217	0x3c0f868c	0.008760106
218	0x3ced4b16	0.028966468
219	0x3ca16d6d	0.019705499
220	0x3d8deb1b	0.069296084
221	0xbd926dd8	-0.07149857
222	0xbc2ec3ad	-0.01066677
223	0xbdc8146e	-0.09769522
224	0xbba62cf1	-0.0050712754
225	0x38aa2730	8.113531e-05
226	0xbce9dae6	-0.028546762
227	0xbcd32c8e	-0.025778081
228	0xbdf21126	-0.11819677
229	0x3c13e198	0.009025954
230	0x3c81b01e	0.01583105
231	0x3d05e612	0.032690115
232	0x3b473065	0.0030393836
233	0xbdcf99dd	-0.10136769
234	0xbc047060	-0.008083433
235	0xbd867f03	-0.06567194
236	0xbd76c3bd	-0.060245264
237	0xbce48833	-0.027896976
238	0x3d56fbf5	0.05248638
239	0xbd948cc1	-0.07253409
240	0x3b14a15e	0.002267919
241	0xbcad02e3	-0.02111954
242	0x3cb68ea3	0.022284811
243	0x3d1012a8	0.035174042
244	0xbb80f03f	-0.0039348896
245	0x3db1295d	0.086504675
246	0xbd959c6b	-0.07305225
247	0xbd2be8fd	-0.04197024
248	0xbdb10e97	-0.08645361
249	0x3c3e8e1f	0.011630564
250	0x3d37556c	0.0447592
251	0x39e561e4	0.00043751218
252	0xbddc74f4	-0.107644945
253	0x3cbdca4e	0.023167755
254	0xbd84793b	-0.064684354
255	0xbc791fe3	-0.015205356

fc.0.bias f4 [100]
0	0x3b874763	0.004128383
1	0xbd0d6cb0	-0.03452748
2	0xbd1c603f	-0.038177725
3	0xbb7f828e	-0.0038987729
4	0xbd643b51	-0.05572063
5	0xbd014d66	-0.031567954
6	0xbd771b53	-0.060328793
7	0xbd5eaba6	-0.054362915
8	0xbd1efaf0	-0.03881353
9	0xbcb5fe73	-0.022216057
10	0xbd1834cb	-0.037159722
11	0xbc699b4b	-0.014258216
12	0xbcefe25a	-0.029282738
13	0xbd43a135	-0.04776116
14	0xbd085b60	-0.033290267
15	0xbd7cf112	-0.06175334
16	0xbd8814bc	-0.0664458
17	0xbd798e0a	-0.060926475
18	0xbc0c23e9	-0.0085534835
19	0xbb6325ed	-0.0034660057
20	0xbc62944d	-0.013829303
21	0xbd57124b	-0.05250768
22	0xbd2266e6	-0.039648913
23	0xbb53659b	-0.0032256607
24	0xbd63c65e	-0.0556091
25	0xbcc21231	-0.023690315
26	0xbd10b8dc	-0.035332546
27	0xbcfb3de7	-0.030669166
28	0xbceb850c	-0.028749965
29	0xbd02d88a	-0.03194479
30	0xbc9ecbce	-0.019384291
31	0xbcd81722	-0.026378218
32	0xbcdc16a6	-0.026866268
33	0xbd1826c8	-0.03714636
34	0xbcc687ab	-0.024234613
35	0xbd7931ca	-0.0608385
36	0xbd05be3b	-0.03265212
37	0xbcf93a89	-0.03042342
38	0xbd44206a	-0.047882475
39	0xbcefd4d4	-0.029276289
40	0xbd2166e0	-0.03940475
41	0xbd4f8e67	-0.050672915
42	0xbc8db8a5	-0.01729996
43	0xbca8374b	-0.020534178
44	0xbd03197e	-0.032006733
45	0xbd1c3e22	-0.038145192
46	0xbd526f22	-0.051375516
47	0xbcffa461	-0.031206312
48	0xbc0dc218	-0.008652233
49	0xbc74b879	-0.01493656
50	0xbd031b92	-0.032008715
51	0x3b8a6ae3	0.0042241677
52	0xbd0da1ec	-0.03457825
53	0xbceb0f02	-0.02869368
54	0xbbf76cbd	-0.0075508044
55	0xbd4b4398	-0.04962501
56	0xbd65e4bf	-0.056126352
57	0xbd789103	-0.06068517
58	0x3baa4c45	0.0051970803
59	0xbcfa0198	-0.030518338
60	0x3a836125	0.0010023458
61	0xbd2c6e6c	-0.042097494
62	0xbd535cc4	-0.05160214
63	0xbcee95f1	-0.029124232
64	0xbcd745e4	-0.026278444
65	0xbcd49f83	-0.025954967
66	0xbd5005ca	-0.05078677
67	0xbd798de8	-0.060926348
68	0xbd307eac	-0.043089554
69	0xbd321288	-0.043474704
70	0xbb637a98	-0.0034710523
71	0xbd0993ef	-0.033588346
72	0xbcd63616	-0.026148837
73	0xbcfa732f	-0.030572502
74	0x3ba5d5c5	0.0050608837
75	0xbd04a478	-0.032383412
76	0xbcab5403	-0.020914083
77	0xbd1941bd	-0.03741621
78	0xbd51a643	-0.05118395
79	0xbd19bae1	-0.037531737
80	0xbd688097	-0.056763258
81	0xbd058c92	-0.03260476
82	0xbd664727	-0.0562202
83	0xbceb9d54	-0.028761543
84	0xbd75c19c	-0.059999093
85	0xbcf67fa5	-0.030090163
86	0xbd0260d3	-0.03183062
87	0xbd82b963	-0.06383016
88	0xbd78a3b9	-0.060703013
89	0xbd6942fa	-0.05694864
90	0xbd233482	-0.039844997
91	0xbd2dcba5	-0.04243054
92	0xbd03fbb3	-0.03222246
93	0xbc31acd1	-0.010844425
94	0xbc7ebee2	-0.01554844
95	0x3a0d63f6	0.00053936185
96	0xbd568aa3	-0.052378308
97	0xbd13ed24	-0.036114827
98	0xbce429b6	-0.02785192
99	0xbd7583ea	-0.059940256

fc.1.weight f4 [100, 100]
0	0x3c6baa1d	0.01438382
1	0x3de410de	0.1113603
2	0x3e035865	0.12826689
3	0x3c0998e1	0.008398266
4	0xbc8d39cf	-0.01723948
5	0x3de94150	0.113894105
6	0xbd0650fb	-0.032792073
7	0xbcd758d3	-0.026287472
8	0x3dc13cca	0.09435423
9	0x3c680c77	0.014163128
10	0xbca47e78	-0.020079836
11	0x3cd2ab11	0.025716336
12	0x3cfbd6e9	0.030742126
13	0x3b3e6aad	0.0029055283
14	0xbd956931	-0.07295454
15	0xbc5a1ee8	-0.013313033
16	0xbc372251	-0.011177615
17	0x3c31a41d	0.01084235
18	0x3c6bb480	0.014386296
19	0xbd83d3f5	-0.06436912
20	0xbc54d2a6	-0.012989676
21	0xbb98a5c4	-0.0046584327
22	0x3d983ed8	0.074338615
23	0x3bb8913a	0.0056325467
24	0xbc30c5d8	-0.010789357
25	0x3d5c847a	0.053837277
26	0x3d94ad2f	0.07259595
27	0x3ddf97f3	0.10917654
28	0x3d69e0ce	0.057099156
29	0xba8c1c67	-0.0010689617
30	0x3d0a3100	0.033738136
31	0x3cfe3f31	0.031035991
32	0xbd1e288c	-0.038612887
33	0x3db28c61	0.087181814
34	0x3db19ed5	0.08672873
35	0xbb426185	-0.0029660177
36	0x3ce04e5b	0.027381113
37	0x3c4b0450	0.012391165
38	0x3ba44bec	0.0050139334
39	0x3d57d688	0.052694827
40	0x3e37e55f	0.17958592
41	0xbcae6084	-0.021286257
42	0xbd998db1	-0.074977286
43	0xbd04689b	-0.032326322
44	0x3df31faa	0.11871274
45	0x3da5fce6	0.08104877
46	0xbc4609a8	-0.012087263
47	0x3da68b5d	0.0813205
48	0x3d9c010a	0.07617386
49	0xbd4383de	-0.04773318
50	0x3db01076	0.0859689
51	0x3cc5a5d2	0.02412692
52	0x3e3a63ea	0.18202177
53	0x3e14fac4	0.14548784
54	0x3cb1ab87	0.021688236
55	0xbca3ae3d	-0.019980544
56	0xbcb8cf43	-0.022559768
57	0xbd05ce97	-0.032667723
58	0xbbce57e3	-0.006297098
59	0x3d837d38	0.06420368
60	0x3da56d51	0.08077491
61	0x3e02873c	0.127469
62	0x3c5236b7	0.012830428
63	0x3d4beedc	0.04978834
64	0xbd6896a3	-0.056784283
65	0x3dbbe209	0.09173972
66	0x39abadc8	0.0003274514
67	0x3c7c42ca	0.015396783
68	0xbd00c762	-0.031440146
69	0x3d8729c2	0.065997615
70	0xbd1adee3	-0.037810218
71	0x3d9ac7c8	0.075576365
72	0x3dd20724	0.10255268
73	0x3dc606fe	0.096693024
74	0xb98bc776	-0.00026660756
75	0x3e139230	0.14411235
76	0x3c82c89c	0.015964799
77	0x3d9ae279	0.075627275
78	0xbd1c7039	-0.03819296
79	0x3e03d30b	0.12873475
80	0xbc4b356f	-0.012402876
81	0x3dcadba1	0.09905172
82	0x3c27ad35	0.010234167
83	0xbb2994be	-0.002587601
84	0xbcaf1c29	-0.021375732
85	0x3d28cba9	0.04120985
86	0x3db9defc	0.09075734
87	0x3b8465f2	0.004040473
88	0xbcb04c13	-0.02152065
89	0x3b89e694	0.0042083953
90	0x3d72cf47	0.059279706
91	0x3dd26dd1	0.10274852
92	0xbb1f8759	-0.0024342148
93	0xbceb8eac	-0.028754555
94	0x3c55bbbf	0.01304525
95	0x3cfca2cd	0.030839348
96	0xba6a0bc2	-0.00089281437
97	0xbcaae85b	-0.020862749
98	0x3da0a38c	0.07843694
99	0xbbfd8d62	-0.0077378014
100	0x3b940a8f	0.0045178602
101	0xbd982edb	-0.07430812
102	0xbd9cb249	-0.07651193
103	0x3c6f6640	0.014611781
104	0x3c9edceb	0.019392451
105	0xbdb9f890	-0.09080613
106	0x3be485ed	0.006973973
107	0x3ba24bf4	0.004952902
108	0xbd1f6fae	-0.038924865
109	0xbc25a59c	-0.010110285
110	0xbdd7f007	-0.105438285
111	0x3b6e1b85	0.003633232
112	0xbd3d9aff	-0.046290394
113	0x3b440264	0.0029908651
114	0xbd663431	-0.056202117
115	0xbbc61922	-0.0060454765
116	0x3c8872b8	0.016656265
117	0xbbaa0f68	-0.005189825
118	0xbd3c01aa	-0.045900024
119	0xbb82a1c8	-0.003986571
120	0xbc5bd74b	-0.013418029
121	0xbc77fa15	-0.015135308
122	0xbd9e25fe	-0.0772209
123	0x3be7ca32	0.007073664
124	0x3c76692f	0.015039726
125	0xbd86e961	-0.06587482
126	0xbdcd8e1b	-0.1003687
127	0xbcebfc78	-0.02880691
128	0xbdafb338	-0.08579105
129	0xbd87fd8d	-0.06640158
130	0x3ae31296	0.0017324265
131	0xbd21c803	-0.039497387
132	0xbd2f3681	-0.04277659
133	0xbd6689cc	-0.056283757
134	0xbcdef1eb	-0.027214965
135	0x3c8456f8	0.016154751
136	0xbd25033a	-0.04028628
137	0x3b9407bf	0.004517525
138	0xbd27f8a7	-0.041008618
139	0xbc6262b0	-0.013817474
140	0xbda492bf	-0.08035802
141	0x3abe0e05	0.0014500028
142	0xbb9674f2	-0.0045915777
143	0xbd1bb5b8	-0.038015097
144	0xbd6b1cbb	-0.057400446
145	0xbd98d004	-0.07461551
146	0xbc0a65d3	-0.008447128
147	0xbdaee805	-0.08540348
148	0x3d1c077e	0.038093083
149	0xbd497fbe	-0.04919409
150	0xbd4fec96	-0.050762735
151	0x3ccbe177	0.024887783
152	0xbd9d2f19	-0.07674999
153	0xbd13ef08	-0.03611663
154	0xbc3e100b	-0.011600505
155	0xbc68ec40	-0.014216483
156	0xbc961f64	-0.018325515
157	0x3ca23859	0.01980226
158	0xbacfe6c7	-0.0015861624
159	0xbd5709bd	-0.05249952
160	0x3cf76439	0.030199157
161	0xbdaabca4	-0.083367616
162	0xbb8007c4	-0.0039071757
163	0xbcb4780a	-0.022029895
164	0xbc97a3b9	-0.018510686
165	0xbca02b23	-0.01955182
166	0xbc2f0e6a	-0.010684589
167	0x3d0c6df1	0.034284536
168	0xbb9392d4	-0.0045035873
169	0xbd85e1d6	-0.065372154
170	0xbd42f2c3	-0.047594797
171	0xbd89d3d4	-0.06729856
172	0xbd0c24aa	-0.034214653
173	0xbd361534	-0.044453815
174	0xbc905682	-0.017619375
175	0xbd8174b0	-0.063210845
176	0xbd2a0b48	-0.041514665
177	0xbd923d7a	-0.07140632
178	0x3cc6673b	0.024219146
179	0xbdd8ab6a	-0.1057957
180	0x3d1e0900	0.0385828
181	0xbc9b1692	-0.01893166
182	0xbc7457d7	-0.014913521
183	0xbd050a22	-0.032480367
184	0x3bf40b38	0.0074476264
185	0xbda27821	-0.07933069
186	0xbce395a6	-0.027781319
187	0x3cc779a5	0.024349997
188	0x3bd2abfc	0.0064291935
189	0x3c31eda2	0.010859879
190	0xbdc9f2bb	-0.0986075
191	0xbc93ce83	-0.018042808
192	0xbd7b7030	-0.061386287
193	0xbcba429b	-0.022736838
194	0xbc807107	-0.015678896
195	0xbc04cfd4	-0.008106191
196	0xbc036e6b	-0.008021931
197	0xbd33612b	-0.04379384
198	0xbd0029e5	-0.031289954
199	0xbcd56bc1	-0.026052358
200	0xba6d1a6d	-0.000904477
201	0x3d12bdeb	0.03582565
202	0xbd478085	-0.04870655
203	0xbce1f1a2	-0.02758104
204	0xbc5c4ea8	-0.0134464875
205	0x3d9bab2e	0.07601009
206	0xbcd3ae46	-0.025839936
207	0xbcc47f1a	-0.023986388
208	0x3de45f0f	0.111509435
209	0xbbbdcc87	-0.005792204
210	0x3e204256	0.15650305
211	0xbcc6d669	-0.02427216
212	0x3da237ea	0.07920821
213	0xbcb69a12	-0.022290263
214	0x3d9cedf6	0.07662575
215	0xbd2e1326	-0.04249873
216	0xbb44f569	-0.0030053502
217	0xbc343931	-0.010999964
218	0x3cb679fd	0.022274965
219	0xbcf560fa	-0.029953469
220	0x3db7698e	0.0895568
221	0xbca44f92	-0.020057473
222	0x3d5d3e20	0.054014325
223	0x3d03c08f	0.03216606
224	0xbca8e19f	-0.020615397
225	0xbd639798	-0.055564493
226	0x3d9258bf	0.07145833
227	0xbc41f557	-0.011838279
228	0x3de8374e	0.113386735
229	0x3d9c710a	0.07638748
230	0x3bd8f34a	0.006620799
231	0x3de5ad3e	0.11214684
232	0x3cf6c93e	0.030125257
233	0x3da7a3ad	0.081855156
234	0xbca393ed	-0.019967997
235	0x3c0ceb45	0.0086010145
236	0x3d7f3a27	0.062311318
237	0x3ad134d2	0.0015961176
238	0xbb9dc77e	-0.004815041
239	0x3c758b81	0.014986874
240	0x3d4b3ee0	0.04962051
241	0xbcb7dbcf	-0.02244368
242	0x3de45c47	0.11150413
243	0xbba34952	-0.0049831057
244	0x3d8b4986	0.06801133
245	0x3df4443a	0.11927076
246	0xbcba9ac8	-0.022778884
247	0x3c5ebd46	0.013594931
248	0x3d3cdec0	0.04611087
249	0x3b03716c	0.0020056618
250	0x3c434d81	0.011920334
251	0x3c52e3dc	0.012871709
252	0x3def64f3	0.116891764
253	0x3dcdc06b	0.100464664
254	0xbb789646	-0.0037931367
255	0x3c2d54b2	0.010579275

fc.1.bias f4 [100]
0	0x3c8b3de8	0.016997293
1	0xbd6610bc	-0.056168303
2	0x3c81d0eb	0.01584669
3	0xbd5c4acf	-0.05378228
4	0xbd41dbd3	-0.04732878
5	0x3d04b470	0.03239864
6	0xbd3ab11e	-0.04557907
7	0xbd623eb9	-0.0552356
8	0x3cd3d2e8	0.025857404
9	0xbd339c8b	-0.043850463
10	0xbd5b4db7	-0.05354091
11	0x3c95e354	0.018296875
12	0xbd67555f	-0.0564779
13	0x3cab6a54	0.020924725
14	0x3cf6a814	0.030109443
15	0x3ccff119	0.025383519
16	0x3cbd2caf	0.023092596
17	0x3cdb97cb	0.026805779
18	0x3c9133c7	0.017724885
19	0xbd6dc142	-0.058045633
20	0x3d17960e	0.037008338
21	0x3ce9cb5a	0.028539348
22	0xbd5b0355	-0.053469975
23	0xbd5209e8	-0.05127898
24	0x3d040902	0.032235153
25	0x3cf17ad5	0.029477516
26	0x3cf09942	0.029369954
27	0xbd110140	-0.035401583
28	0xbd433fc2	-0.047668226
29	0xbd66bff6	-0.056335412
30	0xbd455c5d	-0.048183788
31	0x3c2c6ddc	0.010524239
32	0x3cf30761	0.029666604
33	0xbd4ce3f6	-0.050022088
34	0x3d036505	0.03207876
35	0x3c9c7244	0.019097455
36	0x3cdd80df	0.02703899
37	0x3c993c80	0.018705606
38	0xbd64e55c	-0.055882797
39	0xbd390239	-0.045168135
40	0x3d0dc5b0	0.034612358
41	0x3ca9e437	0.020738704
42	0xbd566b6f	-0.05234855
43	0x3ce96f69	0.028495507
44	0xbd4d37f9	-0.050102208
45	0xbd4b2c71	-0.04960293
46	0x3ce3f473	0.027826523
47	0x3c48d566	0.012257909
48	0xbd580581	-0.052739624
49	0xbd492fb9	-0.049117777
50	0xbd27d087	-0.04097035
51	0xbd628308	-0.055300742
52	0x3d1dab64	0.03849353
53	0x3cccd6e5	0.025004813
54	0x3ca3e7c8	0.020007983
55	0xbd63a322	-0.055575497
56	0xbd55c103	-0.052186023
57	0x3cc74b51	0.024327906
58	0x3cfd82e7	0.030946208
59	0x3ce69222	0.028145853
60	0x3c879c54	0.016554035
61	0x3cffc4ea	0.031221826
62	0xbd2fffe0	-0.04296863
63	0xbd59e791	-0.053199355
64	0x3c9f4896	0.019443791
65	0xbd50f5d1	-0.05101568
66	0xbd2c8fca	-0.042129315
67	0xbd4d60c8	-0.050141126
68	0xbd6dc2a2	-0.058046944
69	0xbd48f04d	-0.049057294
70	0xbd6553f3	-0.055988263
71	0xbd4763a0	-0.048678994
72	0xbd2c0a14	-0.0420018
73	0xbd5a72fd	-0.053332318
74	0x3d437c7c	0.04772614
75	0x3ca76201	0.020432474
76	0xbd550e20	-0.052015424
77	0x3cddd90f	0.02708104
78	0x3d06d074	0.03291364
79	0x3ccedc77	0.02525161
80	0xbd761403	-0.06007768
81	0xbd62bf7c	-0.055358395
82	0x3d02a2f1	0.031893674
83	0x3d444729	0.047919426
84	0xbd591039	-0.052993987
85	0x3cd4714d	0.025932932
86	0xbca607d2	-0.0202674
87	0x3d00e952	0.03147251
88	0x3d001be0	0.031276584
89	0x3ce175e1	0.02752203
90	0xbd5384e6	-0.051640414
91	0xbd63d5c9	-0.055623803
92	0x3c888f80	0.016669989
93	0xbd3d1dbb	-0.04617093
94	0x3c2fba6c	0.010725599
95	0x3d049d20	0.03237641
96	0x3d0da6af	0.03458279
97	0x3d091ec0	0.03347659
98	0x3cfd67c4	0.030933268
99	0xbd43fff5	-0.04785152

fc.2.weight f4 [100, 100]
0	0xbd84e04b	-0.06488093
1	0x3d2d1524	0.04225649
2	0xbdc5b896	-0.096543476
3	0x3d0b7e2d	0.034055877
4	0x3cd9c80a	0.026584644
5	0xbd5846f9	-0.05280206
6	0x3d0b2980	0.033975124
7	0x3ca0b060	0.019615352
8	0xbd552dda	-0.05204568
9	0x3d56e863	0.052467715
10	0x3b90d9f7	0.0044205147
11	0xbd998af6	-0.07497208
12	0x3c8034de	0.015650209
13	0xbde73d7f	-0.11291026
14	0xbda8cd36	-0.08242266
15	0xbd0bbbea	-0.034114756
16	0xbd8a3e19	-0.067501254
17	0xbd5b5fba	-0.05355809
18	0xbd760fd3	-0.060073685
19	0x3cec2d82	0.028830294
20	0xbdaf7e22	-0.0856898
21	0xbde58c89	-0.112084456
22	0x3d0067b5	0.031348903
23	0xbbf2cae0	-0.0074094385
24	0xbd98395f	-0.07432818
25	0xbd97f88d	-0.07420454
26	0xbd8cbc5a	-0.06871863
27	0x3cd25cda	0.02567904
28	0x3d041bcb	0.032253068
29	0x3d0d1da2	0.03445209
30	0x3ba95e9b	0.0051687486
31	0xbdd9961a	-0.10624333
32	0xbd922396	-0.07135694
33	0x3c1beb93	0.0095166145
34	0xbcf3ba86	-0.029752027
35	0xbd877b77	-0.06615346
36	0xbd0c7e9b	-0.034300428
37	0xbdbb62cb	-0.09149703
38	0x3cc7ee1d	0.024405533
39	0xbd277e4c	-0.04089193
40	0xbdbbd23e	-0.0917096
41	0xbd38a778	-0.045081586
42	0x3d28a860	0.0411762
43	0xbd878583	-0.06617262
44	0xbcaa294b	-0.020771643
45	0x3bfc3ffd	0.0076980577
46	0xbd084aed	-0.03327458
47	0xbe00939f	-0.12556313
48	0xbc3d370a	-0.011548767
49	0x3b67940b	0.0035336043
50	0x3a098de8	0.0005247281
51	0x3d125449	0.03572491
52	0xbc61fb29	-0.013792791
53	0xbd89e8b3	-0.06733837
54	0xbd5e7d14	-0.054318503
55	0x3c4e3eed	0.012588245
56	0x3a8eee58	0.0010904772
57	0xbd53d882	-0.05172015
58	0xbd207bee	-0.03918069
59	0xbd9d7780	-0.076888084
60	0xbda48da7	-0.080348305
61	0xbd87e3da	-0.06635256
62	0x3d5e398e	0.054254107
63	0x3d2ab62d	0.041677643
64	0xbdc110aa	-0.094270065
65	0x3c6a153a	0.014287287
66	0xbd12437b	-0.035708886
67	0x3cb51659	0.022105383
68	0x3cfc9458	0.030832455
69	0x3d06cb5c	0.032908782
70	0x3d536289	0.051607642
71	0xbcc4f395	-0.02404193
72	0xbd18806a	-0.03723184
73	0x38c0a88c	9.186668e-05
74	0xbd69079d	-0.056892026
75	0xbde3efde	-0.111297354
76	0x3cd932a7	0.02651341
77	0xbd82f76a	-0.06394847
78	0xbde8bef5	-0.11364547
79	0xbdafbf7c	-0.085814446
80	0x3d84ef51	0.064909585
81	0xbbd74437	-0.006569411
82	0xbd5a7854	-0.05333741
83	0xbaa3661b	-0.0012466343
84	0x3d05db79	0.03268001
85	0xbccbb2f4	-0.024865605
86	0xbcd1dc52	-0.025617752
87	0xbd832993	-0.06404414
88	0xbcf970fa	-0.03044938
89	0xbd23a20c	-0.03994946
90	0x3d41e70f	0.047339495
91	0x3d0cae54	0.03434594
92	0xbdc69ec9	-0.096982546
93	0x3cbc51ae	0.022988167
94	0xbde58f64	-0.1120899
95	0xbd55ab5b	-0.05216537
96	0xbc427d73	-0.01187073
97	0xbd7c1199	-0.06154022
98	0xbdb0d6d8	-0.08634728
99	0xbcaf0ca9	-0.021368342
100	0xbdd66d14	-0.10470024
101	0x3cfc22fa	0.030778397
102	0xbe0126d6	-0.12612471
103	0x3d1d6fb6	0.038436614
104	0x3c39c492	0.01133837
105	0xbda69cef	-0.081354015
106	0x3cc23c7f	0.023710487
107	0x3c647a42	0.013945164
108	0xbd29e05b	-0.041473728
109	0x3d16aba5	0.036784787
110	0x3c924334	0.01785431
111	0xbda6c543	-0.081430934
112	0x3d23095d	0.03980385
113	0xbda30627	-0.07960158
114	0xbe01c529	-0.12672867
115	0xbdaa19d3	-0.08305707
116	0xbd434606	-0.0476742
117	0xbd82a9d6	-0.0638005
118	0xbdbfce4a	-0.093655184
119	0x3d091297	0.033464994
120	0xbd429ba7	-0.047511723
121	0xbda94787	-0.08265596
122	0x3cafcc62	0.021459762
123	0x3d10522f	0.035234626
124	0xbd65313b	-0.055955153
125	0xbdc30466	-0.09522323
126	0xbd72b486	-0.05925419
127	0x3cc427d7	0.023944778
128	0xbbb48df6	-0.005510087
129	0x3d4a87db	0.049445968
130	0x3b88979a	0.004168463
131	0xbdf9c4fd	-0.12195776
132	0xbd640ab1	-0.05567426
133	0xbb6f9e3c	-0.003656282
134	0xbd8e8894	-0.06959644
135	0xbdc147c3	-0.094375156
136	0xbb7d68c3	-0.003866718
137	0xbdac0936	-0.08400194
138	0xbc1bd00b	-0.0095100505
139	0x3d2b5773	0.041831445
140	0xbdd8b35c	-0.10581085
141	0xbda075ed	-0.078349926
142	0xbbba75a7	-0.005690295
143	0xbd4711b5	-0.04860087
144	0x3cf07ff5	0.02935789
145	0x3d2a09df	0.04151332
146	0xbd1e2b8d	-0.038615752
147	0xbe0eb0da	-0.13934651
148	0x3cec44d1	0.028841408
149	0x3c3dd2c6	0.011585897
150	0x3cc12cb0	0.023580879
151	0x3d74c987	0.059762504
152	0x3c03cb4c	0.008044075
153	0xbdd325a0	-0.10309911
154	0xbdadf717	-0.08494394
155	0x3cfb9b57	0.03071372
156	0x3b91a003	0.0044441237
157	0xbdb288a0	-0.087174654
158	0xbbd4918f	-0.0064870785
159	0xbdc37f5f	-0.095457785
160	0xbdee9686	-0.11649804
161	0xbd9ca603	-0.07648852
162	0x3c53a4e4	0.012917731
163	0x3d0d1148	0.03444031
164	0xbcbbee13	-0.022940671
165	0x3c2b547a	0.0104571525
166	0xbc50ec0a	-0.012751589
167	0x3d51a4a0	0.05118239
168	0x3cb177a9	0.021663504
169	0x3ce60628	0.028079107
170	0xbb6c4437	-0.0036051401
171	0xbc9f405b	-0.019439867
172	0x3befda8b	0.0073197535
173	0x3d332e44	0.043745294
174	0xbc8c91bc	-0.017159335
175	0xbdb191df	-0.08670401
176	0xba3b0837	-0.0007134708
177	0xbd42d1cc	-0.04756336
178	0xbdd21984	-0.10258773
179	0xbd97fb92	-0.0742103
180	0x3ce9981a	0.02851491
181	0x3b847c35	0.004043127
182	0xbda743fc	-0.08167264
183	0x3c91e01c	0.017807059
184	0x3cf1df68	0.029525474
185	0x3a556eb7	0.0008141803
186	0x3cee6d12	0.029104743
187	0xbd77b35f	-0.060473796
188	0xbd453c0e	-0.048152976
189	0xbd48cf97	-0.049026098
190	0x3d5b297a	0.053506352
191	0x3bb9ae2b	0.0056665144
192	0xbd94b9f6	-0.07262032
193	0xbc761d54	-0.015021641
194	0xbdfb234f	-0.12262594
195	0xbd32ee88	-0.043684512
196	0xbd10a244	-0.035311
197	0xbda8dab7	-0.082448415
198	0xbde8c55b	-0.113657676
199	0xbcb5be1d	-0.02218538
200	0xbda6ee1f	-0.08150887
201	0x3c24f661	0.010068507
202	0xbdb2335d	-0.08701203
203	0x3d0fef71	0.03514046
204	0x3c15997d	0.009130833
205	0xbcb85a93	-0.022504127
206	0x3cc0de31	0.02354345
207	0x3d6d185e	0.057884566
208	0xbc7246c2	-0.014787378
209	0x3d9b3c21	0.07579828
210	0xba853fee	-0.0010166147
211	0xbda55840	-0.08073473
212	0x3c3c3cca	0.011489103
213	0xbd8a304a	-0.06747492
214	0xbdc6db96	-0.097098514
215	0xbda23911	-0.07921041
216	0xbd93d3e8	-0.07218152
217	0xbd08b72c	-0.03337781
218	0xbd7aee95	-0.061262686
219	0x3c1ad43f	0.0094500175
220	0xbcd3de1d	-0.025862748
221	0xbdbc320b	-0.091892324
222	0x3c0b0236	0.008484414
223	0x3d4daee9	0.050215635
224	0xbcdf3cb8	-0.027250633
225	0xbd701f54	-0.058623627
226	0xbcf8c56f	-0.030367581
227	0x3d079df1	0.03310961
228	0x3cabf9dc	0.020993166
229	0x3ce990cf	0.028511433
230	0x3d1f5a7e	0.03890466
231	0xbdf25837	-0.11833232
232	0xbd92d96b	-0.071703754
233	0xbba911cd	-0.0051595927
234	0xbd58d7b8	-0.0529401
235	0xbdad17f1	-0.08451832
236	0xbd8994da	-0.06717844
237	0xbde54e6c	-0.111965984
238	0x3c52d8eb	0.0128691
239	0xbc3d7fd0	-0.011566117
240	0xbd5a39b6	-0.053277694
241	0xbd85aa90	-0.06526673
242	0x3b1b2e13	0.0023678585
243	0xbd1a1ac4	-0.037623182
244	0x38ba98b5	8.897615e-05
245	0xbcc61120	-0.024178088
246	0xbdaeeaec	-0.085409015
247	0xbdda0d0f	-0.10647022
248	0x3b6678d6	0.0035167239
249	0x3cf751f7	0.030190451
250	0xbbca2299	-0.006168675
251	0x3d88d642	0.066814914
252	0x3c3e626c	0.011620145
253	0xbdc2a459	-0.09504003
254	0xbd93ab92	-0.07210459
255	0x3d0398b4	0.03212805

fc.2.bias f4 [100]
0	0xbce1b8a1	-0.027553858
1	0xbcf45aa5	-0.029828379
2	0xbcf0ab6b	-0.029378613
3	0x3d08292b	0.033242386
4	0x3cebf116	0.028801482
5	0x3d051166	0.032487296
6	0x3d000926	0.031258725
7	0xbcce40b4	-0.025177337
8	0xbcec1071	-0.028816434
9	0x3cfd4b6f	0.030919759
10	0xbcebd2a7	-0.02878697
11	0xbce0d554	-0.027445473
12	0xbcf52f73	-0.029929852
13	0x3cf533aa	0.029931862
14	0x3d02ed21	0.031964425
15	0x3cdf37ac	0.027248226
16	0xbcf6dbc7	-0.030134095
17	0xbce30b29	-0.027715283
18	0xbcd3d1fc	-0.025856964
19	0x3d0abad4	0.03386958
20	0x3cf903b5	0.030397275
21	0x3d010972	0.03150315
22	0x3cfc2957	0.030781431
23	0x3d057925	0.032586236
24	0xbcd67e69	-0.026183324
25	0x3cfd5558	0.030924484
26	0xbce96232	-0.028489206
27	0xbcf28091	-0.02960232
28	0x3d0125fb	0.03153036
29	0xbcf52ea6	-0.02992947
30	0xbcdf334a	-0.027246136
31	0xbce49917	-0.02790503
32	0xbce4f676	-0.027949553
33	0x3d0818f9	0.03322694
34	0xbcf7236e	-0.030168261
35	0xbceca4a0	-0.028887093
36	0x3ce398b5	0.027782777
37	0xbcdc24c2	-0.026872996
38	0xbceca405	-0.028886804
39	0xbceaccef	-0.028662173
40	0xbcf938ce	-0.030422594
41	0xbce60a91	-0.02808121
42	0x3cf28b4d	0.02960744
43	0x3d0795e5	0.033101935
44	0xbcf2cc5c	-0.029638462
45	0xbcf335ac	-0.029688679
46	0xbcf4716e	-0.029839244
47	0xbcf5b549	-0.02999367
48	0xbce77b45	-0.028257022
49	0x3ce177c5	0.02752293
50	0xbcfecbf7	-0.031103117
51	0xbcd55adc	-0.026044302
52	0xbcf9133a	-0.030404676
53	0x3d0c9939	0.034325812
54	0x3d04e695	0.032446463
55	0x3ce0ba98	0.027432725
56	0x3cfe0453	0.031007921
57	0x3d06faaa	0.032953896
58	0x3cf4d5c8	0.029887095
59	0x3cfe56af	0.031047193
60	0x3d092470	0.033482015
61	0xbceb5c78	-0.028730616
62	0xbce31744	-0.027721055
63	0xbceb2126	-0.02870233
64	0xbcddff4a	-0.02709927
65	0xbcf41d59	-0.02979915
66	0x3d02e562	0.031957038
67	0x3d059273	0.032610368
68	0xbce8532b	-0.02835997
69	0xbcfca0a0	-0.03083831
70	0x3d070969	0.03296796
71	0x3cf25778	0.029582724
72	0x3cf93a12	0.030423198
73	0x3d046df4	0.032331422
74	0xbcea5c1f	-0.02860838
75	0x3d033d4f	0.03204089
76	0xbcecf187	-0.028923763
77	0xbcd779aa	-0.026303131
78	0x3d0c5f2f	0.03427046
79	0xbcea5d12	-0.028608833
80	0xbcc9ccad	-0.02463373
81	0x3cf53411	0.029932054
82	0x3cf277f3	0.029598212
83	0x3cfd24e7	0.030901385
84	0x3cfe3567	0.031031324
85	0x3d09bc9d	0.03362714
86	0xbcda4941	-0.026646258
87	0x3d0082da	0.03137479
88	0x3d0b7195	0.034043867
89	0x3d04e962	0.032449134
90	0xbcdae6f0	-0.026721448
91	0xbcf6f300	-0.030145168
92	0x3cf666a1	0.030078234
93	0x3d01de2d	0.031706024
94	0xbce4a313	-0.027909791
95	0xbce4ec90	-0.027944833
96	0x3d00c875	0.03144117
97	0xbce64040	-0.028106809
98	0xbce39a48	-0.027783528
99	0xbcca416a	-0.024689395

fc.3.weight f4 [100, 100]
0	0x3d897e38	0.067135274
1	0x3d9f027c	0.07764146
2	0x3d4c0db1	0.049817745
3	0xbd43b517	-0.047780123
4	0xbcfa3449	-0.03054251
5	0xbce45434	-0.027872182
6	0xbd5011f3	-0.050798368
7	0x3d851d09	0.06499679
8	0x3d86a1c5	0.06573824
9	0xbcc1bd42	-0.023649815
10	0x3c745396	0.014912507
11	0x3d1d2eb7	0.03837463
12	0x3d88d04c	0.066803545
13	0xbd525273	-0.05134816
14	0xbd793038	-0.060837
15	0xbd539232	-0.051653095
16	0x3d90d666	0.07072143
17	0x3d13049a	0.03589306
18	0x3d6197c1	0.055076364
19	0xbd57393f	-0.05254483
20	0xbd22b781	-0.039725784
21	0xbd0090d1	-0.031388108
22	0xbcfb21d4	-0.030655779
23	0xbd8db45c	-0.069191664
24	0x3d9859cf	0.07439005
25	0xbd2b1ae7	-0.041773703
26	0x3d1dc86f	0.038521226
27	0x3d8cbc99	0.0687191
28	0xbd1ec364	-0.038760558
29	0x3d908281	0.07056142
30	0x3d138b3d	0.03602146
31	0x3cfc32e9	0.030785995
32	0x3d24384b	0.040092748
33	0xbd32185c	-0.043480262
34	0x3c36ad7a	0.0111497585
35	0x3d9ef3be	0.07761334
36	0xbc3eb687	-0.011640198
37	0x3d71dbe0	0.05904758
38	0x3daa5298	0.08316535
39	0x3d9ffc01	0.07811738
40	0x3d868f9b	0.06570359
41	0x3d4187dd	0.04724871
42	0xbcf42b4c	-0.029805802
43	0xbd8e88fa	-0.0695972
44	0x3d9ae52f	0.075632446
45	0x3dafbcf1	0.085809596
46	0x3cfa189c	0.030529313
47	0x3d330473	0.043705415
48	0x3d8f01dc	0.069827765
49	0xbdad0502	-0.08448221
50	0x3d3bc0b5	0.045838077
51	0x3d650d8a	0.055921115
52	0x3d49254c	0.049107835
53	0xbcdbf9a5	-0.026852438
54	0xbd45426e	-0.048159055
55	0xbd13a53e	-0.03604626
56	0xbd79c035	-0.06097432
57	0xbcc1f91e	-0.023678359
58	0xbd804e83	-0.06264975
59	0xbc1a4685	-0.009416227
60	0xbd61cfa6	-0.05512967
61	0x3dc4802b	0.095947586
62	0x3db4c769	0.08827097
63	0x3d8d5901	0.06901742
64	0x3d92ee8f	0.07174408
65	0x3d0d25e6	0.03445997
66	0xbd7598ac	-0.059960052
67	0xbd10908c	-0.0352941
68	0x3d355471	0.044269983
69	0x3d7f87bd	0.06238531
70	0xbd3854c7	-0.045002725
71	0xbcc38dc6	-0.023871314
72	0xbd247b03	-0.040156376
73	0xbdb61f54	-0.08892694
74	0x3d4174c5	0.0472305
75	0xbd083782	-0.03325606
76	0x3d3c3dca	0.045957364
77	0x3d96c9a1	0.073626764
78	0xbc717a18	-0.014738582
79	0x3d181d94	0.037137583
80	0x3d81b9cc	0.06334266
81	0xbd4c46b4	-0.049872115
82	0xbd44612f	-0.047944244
83	0xbd871f97	-0.06597822
84	0xbd2d3f50	-0.042296708
85	0xbd5c6616	-0.053808294
86	0x3ce31423	0.027719563
87	0xbdacd4e3	-0.084390424
88	0xbd19d96f	-0.037560876
89	0xbd3fe941	-0.046853308
90	0x3d990ccd	0.07473145
91	0x3d1b0207	0.03784373
92	0xbd5afe2e	-0.05346506
93	0xbd17f7ca	-0.037101544
94	0x3cf9fa13	0.030514752
95	0x3d582117	0.052765932
96	0xbd0b3d25	-0.03399386
97	0x3d94d607	0.07267385
98	0x3d439174	0.047746137
99	0x3d42a4c9	0.047520433
100	0x3d15355e	0.036427848
101	0x3d9cbda1	0.07653356
102	0x3ca758b6	0.020428043
103	0xbcc31d1c	-0.023817591
104	0xbd5c78fa	-0.05382631
105	0xbca3f6d0	-0.02001515
106	0xbda5cd17	-0.080957584
107	0x3d7840e2	0.060608752
108	0x3d70fbb4	0.058833793
109	0xbc9fb67e	-0.019496199
110	0x3d85da1e	0.06535743
111	0x3d53a234	0.05166836
112	0x3d4f674b	0.050635617
113	0xbd219569	-0.03944913
114	0xbd8e972b	-0.06962427
115	0xbd7ba489	-0.06143621
116	0x3d675d5c	0.05648552
117	0x3a649743	0.00087200495
118	0x3d2d636f	0.042331155
119	0xbd4b3726	-0.04961314
120	0xbd5d348b	-0.054005187
121	0xbd4c354d	-0.04985552
122	0xbcfb162d	-0.030650223
123	0xbd530d84	-0.05152656
124	0x3d9ad2e3	0.07559755
125	0xbccbbc14	-0.024869956
126	0x3d8e43b4	0.06946507
127	0x3d6e309a	0.05815182
128	0xbd4d6d3a	-0.050152995
129	0x3d816be4	0.06319407
130	0x3dda9649	0.10673196
131	0x3d7da466	0.06192436
132	0x3d59aa50	0.05314094
133	0xbd2338ad	-0.039848972
134	0x3cf5607d	0.029953236
135	0x3d4791e8	0.04872313
136	0xbcc2c6b9	-0.023776399
137	0x3cd00092	0.025390897
138	0x3d2b9a65	0.04189529
139	0x3d5257c6	0.05135324
140	0x3d4b3483	0.049610626
141	0x3d28ff3f	0.041259047
142	0xbd2b711c	-0.041855916
143	0xbd5c20b6	-0.053742133
144	0x3d8ee05c	0.06976387
145	0x3d747f25	0.059691567
146	0x3d422d13	0.047406267
147	0x3d41cce7	0.04731455
148	0x3cb442d1	0.022004517
149	0xbd486478	-0.04892394
150	0x3d932b5a	0.07186003
151	0x3cfb2f96	0.03066234
152	0x3d2a8794	0.041633204
153	0xbd487b15	-0.048945505
154	0xbd4c6975	-0.04990526
155	0x3c32f75a	0.010923231
156	0xbd4da1ac	-0.05020301
157	0xbd10186d	-0.035179544
158	0xbd1da806	-0.038490318
159	0xbd59df16	-0.053191267
160	0xbd9392bb	-0.07205721
161	0x3d44c404	0.048038498
162	0x3d2bfca6	0.04198899
163	0x3d9cc15f	0.0765407
164	0x3d92d55f	0.071696036
165	0x3d562d77	0.052289452
166	0xbd01f945	-0.031731863
167	0xbd4b74ca	-0.049671926
168	0x3cf27e29	0.029601173
169	0x3d786ef4	0.06065269
170	0xbd80f004	-0.06295779
171	0xbd516e84	-0.051130787
172	0xbd13e9d4	-0.036111668
173	0xbda784a6	-0.081795976
174	0x3d26f0ff	0.040757176
175	0xbcfb7da3	-0.030699557
176	0x3d6532e7	0.055956747
177	0x3dc32879	0.09529204
178	0xbccc90d7	-0.024971409
179	0x3cba260f	0.022723226
180	0x3d574978	0.0525603
181	0xbd8f069d	-0.06983683
182	0xbd96a38e	-0.07355414
183	0xbd7e07d2	-0.062019177
184	0xbcc44253	-0.023957407
185	0xbd5b197b	-0.053491097
186	0x3d89739e	0.06711505
187	0xbd4cec72	-0.05003018
188	0xbd7aa6b4	-0.061194137
189	0xbd4487bd	-0.047981013
190	0x3d0b25ce	0.0339716
191	0x3d97c97c	0.07411477
192	0xbd877de4	-0.066158086
193	0xbd5cc9ae	-0.053903274
194	0x3d686bcf	0.05674344
195	0x3ca7c282	0.02047849
196	0xbd368114	-0.044556692
197	0x3d72b215	0.059251864
198	0x3d867d87	0.06566911
199	0x3d3361b9	0.043794367
200	0xbb95496f	-0.004555873
201	0xbc5232dd	-0.01282951
202	0x392bc025	0.0001637941
203	0x3c8c86f4	0.017154194
204	0x3c347ffa	0.01101684
205	0x3cb96c8c	0.022634767
206	0x3d31fc51	0.04345352
207	0x3be805e7	0.0070807817
208	0x3cfe604e	0.031051781
209	0x3d3033e2	0.04301823
210	0xbd156652	-0.036474533
211	0xbbfa4043	-0.007637055
212	0xbccf16ef	-0.02527949
213	0x3d9bc0f0	0.07605159
214	0x3d55ab10	0.05216509
215	0x3b80d9f7	0.0039322334
216	0xbccb7926	-0.024838042
217	0xbc022d09	-0.0079453075
218	0x3c3e5808	0.011617668
219	0x3d876b66	0.066122815
220	0x3d07919c	0.03309785
221	0x3cbd081e	0.02307516
222	0x3cb423df	0.02198976
223	0x3d213692	0.039358683
224	0x3cbe8269	0.023255544
225	0x3d2b3921	0.04180253
226	0xbca0ebce	-0.01964369
227	0x3c2698ef	0.010168298
228	0x3d2de856	0.0424579
229	0xbd04bb6c	-0.032405302
230	0xbcc49f64	-0.024001785
231	0x3c84918e	0.016182687
232	0xbcacaa36	-0.021077257
233	0x3d0093ee	0.031391077
234	0xbd10c0af	-0.035340007
235	0x3c262334	0.010140229
236	0xbbc13276	-0.005895908
237	0xbc9eb9b6	-0.019375663
238	0x3b72e730	0.0037064068
239	0xb9c215f4	-0.0003701892
240	0x3cd33836	0.02578364
241	0x3a0d24fb	0.00053842337
242	0xbb93921a	-0.0045035006
243	0x3badb237	0.005300786
244	0xbc5b4bdf	-0.013384788
245	0x3c0cefb1	0.008602069
246	0x3ccfa509	0.02534725
247	0x3b8a568b	0.0042217425
248	0x3c931a5b	0.017956903
249	0x3d5607c6	0.052253507
250	0xbce686c3	-0.028140431
251	0x3c6d219f	0.014473348
252	0xbca13d6b	-0.019682607
253	0x3d1e083a	0.038582064
254	0x3d0ec0f2	0.034851976
255	0xbc6b6aee	-0.014368756

fc.3.bias f4 [100]
0	0xbbf34df0	-0.0074250624
1	0xbc5414d6	-0.012944421
2	0x3ccbb178	0.024864897
3	0x3d19a4fd	0.03751086
4	0xbc712d20	-0.014720231
5	0x3cfeeedc	0.031119756
6	0xbc2671a9	-0.010158935
7	0xbc37113a	-0.011173541
8	0x3cee6b56	0.029103916
9	0xbc6bae7b	-0.014384861
10	0xbc4b894b	-0.01242287
11	0x3ce58e97	0.028022094
12	0x3cb1247e	0.021623846
13	0xbc20f1c5	-0.009823267
14	0x3cd7d4b9	0.026346551
15	0x3cf353c8	0.029703036
16	0x3ccecb8c	0.025243543
17	0xbc7a1576	-0.015263906
18	0xbc73baa8	-0.014876045
19	0x3d2107ad	0.03931396
20	0x3cd8b53e	0.02645361
21	0x3cf94421	0.030427994
22	0xbc33bcb2	-0.010970281
23	0xbc8b89de	-0.017033514
24	0x3ca4dc78	0.020124659
25	0xbbe72414	-0.0070538614
26	0xbc19fe38	-0.009398989
27	0x3d29e812	0.041481085
28	0xbc51c871	-0.012804137
29	0xbc81bc46	-0.015836846
30	0xbc80919d	-0.015694434
31	0xbc57883d	-0.01315504
32	0x3cd14691	0.025546344
33	0xbc75e3ae	-0.015007896
34	0x3c9af373	0.018914914
35	0x3ccdbfa8	0.025115803
36	0xbc01831d	-0.007904795
37	0x3cc3b04b	0.023887774
38	0x3ceb021b	0.028687527
39	0x3cbd2ce7	0.0230927
40	0xbc1ac0bf	-0.009445368
41	0xbc4da92d	-0.012552542
42	0x3cd4e5b4	0.025988437
43	0xbc6083b8	-0.013703279
44	0x3cd9b72e	0.026576605
45	0xbc20e168	-0.009819366
46	0x3cc07497	0.023493094
47	0x3cdb97d9	0.026805805
48	0xbc3db2b7	-0.0115782535
49	0xbc34e6e0	-0.011041373
50	0xbc2222b1	-0.009895966
51	0x3cd8c88d	0.026462818
52	0x3cf2f29e	0.029656705
53	0x3cedfe5e	0.029051956
54	0xbc1969fc	-0.009363648
55	0xbc4ef2d9	-0.012631142
56	0x3d068330	0.032839954
57	0x3ce0e771	0.02745411
58	0x3cc1328c	0.023583673
59	0xbc5798ca	-0.013158986
60	0x3cad1ad7	0.021130962
61	0xbc7f0204	-0.015564445
62	0xbc58593b	-0.013204868
63	0x3cc145c3	0.023592835
64	0x3cb28d08	0.021795765
65	0x3d13af52	0.03605587
66	0xbc48d980	-0.012258887
67	0xbc7923e4	-0.015206311
68	0x3cca788d	0.024715686
69	0xbc3d14c4	-0.011540595
70	0xbc5548c2	-0.013017835
71	0xbc68d879	-0.014211767
72	0x3cf2d3be	0.029641982
73	0x3d05d593	0.032674383
74	0xbbafa4a7	-0.0053602043
75	0xbc4de833	-0.012567568
76	0xbc2e4343	-0.010636154
77	0xbc29573b	-0.010335739
78	0xbc33f16e	-0.010982854
79	0xbc31ea20	-0.010859042
80	0xbc68ac9b	-0.014201309
81	0x3ce840d2	0.028351221
82	0xbc305806	-0.010763174
83	0xbc4606dc	-0.012086596
84	0xbc162ae6	-0.009165501
85	0x3d4c25c1	0.049840692
86	0xbc25f0e5	-0.0101282345
87	0x3cf06ef9	0.02934979
88	0xbbfb466e	-0.007668308
89	0x3d2d9022	0.042373784
90	0x3cb5b684	0.022181757
91	0xbc0ce937	-0.008600525
92	0xbc58c2af	-0.01323001
93	0xbc40420f	-0.0117345
94	0x3cdc772b	0.026912292
95	0x3d12b958	0.03582129
96	0xbc867216	-0.016411822
97	0xbc88c3c6	-0.016694915
98	0x3ce87eff	0.028380869
99	0x3cc041eb	0.023468932

fc.4.weight f4 [100, 100]
0	0xbdb6c0df	-0.08923506
1	0xbdc935d0	-0.09824717
2	0x3e19ed98	0.15032041
3	0x3dee1af5	0.116262354
4	0xbd990822	-0.07472254
5	0x3e3bac96	0.18327555
6	0xbdab42e0	-0.08362365
7	0xbe0094a7	-0.12556706
8	0x3e308126	0.17236766
9	0xbde6b854	-0.112656265
10	0xbdbf36a4	-0.09336594
11	0x3e0ea28b	0.13929193
12	0x3de8c0b9	0.11364884
13	0xbda0fcd4	-0.07860723
14	0x3e1b9623	0.15193991
15	0x3d96be34	0.07360497
16	0x3da89031	0.08230627
17	0xbd8817a2	-0.066451326
18	0xbd9c1032	-0.076202765
19	0x3e1c6c8a	0.1527578
20	0x3dd8ac01	0.10579682
21	0x3e38d69f	0.18050621
22	0xbdbc65c2	-0.09199096
23	0xbe00f5af	-0.12593721
24	0x3dc70869	0.09718401
25	0xbd98916c	-0.07449612
26	0xbda5883b	-0.080826245
27	0x3e0b853d	0.13625045
28	0xbdb44a12	-0.0880319
29	0xbdbb2b22	-0.09139086
30	0xbdd2a418	-0.10285205
31	0xbdee12fb	-0.11624714
32	0x3dde29a7	0.10847788
33	0xbdd2f00b	-0.10299691
34	0x3dfab1c5	0.12240938
35	0x3e277a89	0.16355337
36	0xbda6c87e	-0.081437096
37	0x3dff9f87	0.12481599
38	0x3dfc2d20	0.123132944
39	0x3dc3bfe9	0.09558088
40	0xbdbfd09c	-0.09365961
41	0xbdc14287	-0.09436517
42	0x3df1ed8c	0.118128866
43	0xbe1d1407	-0.15339671
44	0x3e154d20	0.14580202
45	0xbde06e19	-0.109584995
46	0x3e089533	0.13338165
47	0x3de74634	0.11292687
48	0xbdfb59fc	-0.122730225
49	0xbdfed147	-0.1244226
50	0xbde0d598	-0.1097824
51	0x3e30217c	0.17200273
52	0x3de307c1	0.11085463
53	0x3e0f10d6	0.13971266
54	0xbda1ed00	-0.07906532
55	0xbdcdabd5	-0.1004254
56	0x3dffaceb	0.12484153
57	0x3e06030d	0.13087101
58	0x3e0e7419	0.13911475
59	0xbdcf11f1	-0.10110844
60	0x3e207b84	0.15672117
61	0xbdd5ce32	-0.10439719
62	0xbdeea38f	-0.1165229
63	0x3e2f4fdf	0.17120312
64	0x3da2c3bf	0.07947492
65	0x3e2799fc	0.16367334
66	0xbdc0806a	-0.09399493
67	0xbddd49be	-0.10805081
68	0x3df0a6b5	0.11750547
69	0xbdbc1330	-0.09183347
70	0xbd889629	-0.06669266
71	0xbdbeaf30	-0.09310758
72	0x3e003377	0.12519632
73	0x3dd31fe8	0.1030882
74	0xbdd87692	-0.105694905
75	0xbd6c37c5	-0.057670373
76	0xbdd4b6a1	-0.10386396
77	0xbdc2adf2	-0.09505834
78	0xbdc0a79d	-0.0940697
79	0xbd7e09bf	-0.062021013
80	0xbd88ac76	-0.06673519
81	0x3e0adc6d	0.13560648
82	0xbdc22474	-0.09479609
83	0xbdade4bd	-0.08490894
84	0xbdd33ed3	-0.10314717
85	0x3e11cc28	0.14238036
86	0xbdf14452	-0.11780609
87	0x3e019fee	0.12658665
88	0xbdcf7a15	-0.10130707
89	0x3dd75802	0.10514833
90	0x3e05893d	0.13040633
91	0xbdc99f00	-0.0984478
92	0xbd973b44	-0.07384351
93	0xbdd86f42	-0.10568096
94	0x3e1a9419	0.15095557
95	0x3e352e75	0.17693503
96	0xbe1666dd	-0.14687677
97	0xbdce86ee	-0.100843295
98	0x3e05c87a	0.13064757
99	0x3db88408	0.09009558
100	0xbdbe3442	-0.09287311
101	0xbdf1e6b8	-0.11811584
102	0x3dcc7258	0.09982747
103	0x3de940ec	0.11389336
104	0xbdda34d9	-0.10654611
105	0x3e205141	0.15655996
106	0xbdb7ec58	-0.08980626
107	0xbdb80e41	-0.08987094
108	0x3e127a4f	0.1430447
109	0xbdf25e20	-0.11834359
110	0xbdbda32b	-0.092596374
111	0x3e04280a	0.12905899
112	0x3de21027	0.11038237
113	0xbdc136de	-0.09434293
114	0x3e14092e	0.14456627
115	0x3d9c0474	0.07618037
116	0x3dec7c11	0.11547101
117	0xbdbba844	-0.091629535
118	0xbe05e135	-0.13074191
119	0x3df3d5f3	0.11906042
120	0x3df0dc37	0.11760753
121	0x3e10d093	0.14142065
122	0xbddeb1a9	-0.1087373
123	0xbdd378c1	-0.10325766
124	0x3e1460de	0.14490077
125	0xbda05a6f	-0.07829749
126	0xbdb16244	-0.08661321
127	0x3e026329	0.12733139
128	0xbdbfb919	-0.093614765
129	0xbdda0909	-0.106462546
130	0xbdb8fe36	-0.09032862
131	0xbdfe75d9	-0.124248214
132	0x3d6c79ad	0.057733227
133	0xbdde73b9	-0.10861916
134	0x3dbe63d9	0.09296388
135	0x3dc34f26	0.09536581
136	0xbe09f123	-0.13470893
137	0x3e0f558b	0.13997476
138	0x3dbbeebc	0.09176394
139	0x3da13e24	0.078731805
140	0xbde8e4c6	-0.1137176
141	0xbe0e6e0a	-0.13909164
142	0x3d9b07fd	0.07569883
143	0xbdc7d0b6	-0.09756605
144	0x3dab5748	0.08366257
145	0xbdcef416	-0.101051494
146	0x3e0565b2	0.13027075
147	0x3e0a59f4	0.13510877
148	0xbd9c2d55	-0.07625834
149	0xbdcdb353	-0.10043969
150	0xbdd35064	-0.10318068
151	0x3db3cc36	0.087791845
152	0x3e0228e6	0.12710914
153	0x3db166c9	0.08662183
154	0xbdfaf56e	-0.12253843
155	0xbdb2eed4	-0.08736959
156	0x3de4d1b3	0.111728095
157	0x3db133da	0.08652468
158	0x3e065f2a	0.1312224
159	0xbdf6279b	-0.12019273
160	0x3dc2d4d0	0.09513247
161	0xbdd8e6fe	-0.10590933
162	0xbe0c97b1	-0.1372974
163	0x3dab20bb	0.08355852
164	0x3ddafe67	0.10693055
165	0x3e068967	0.13138352
166	0xbe00ac9d	-0.12565847
167	0xbde67263	-0.11252286
168	0x3e144584	0.14479643
169	0xbe0bbc52	-0.13646057
170	0xbe09faeb	-0.13474624
171	0xbdf86042	-0.12127735
172	0x3db073a2	0.08615805
173	0x3dec7e35	0.115475096
174	0xbe1b2e62	-0.15154412
175	0xbdae112c	-0.08499369
176	0xbd9e88d3	-0.07740941
177	0xbe056cdc	-0.13029808
178	0xbdf6857a	-0.120371774
179	0xbda0fff1	-0.07861317
180	0xbdc9f69a	-0.09861489
181	0x3dbd2a40	0.09236574
182	0xbdbfc38f	-0.09363472
183	0xbdc5bc0d	-0.096550085
184	0xbdfa3835	-0.12217752
185	0x3e07dbfc	0.13267511
186	0xbde745fe	-0.11292647
187	0x3df77a13	0.12083831
188	0xbdd6a87d	-0.10481355
189	0x3dc9f6a2	0.098614946
190	0x3df559f7	0.1198005
191	0xbdf70f35	-0.120634474
192	0xbdd76c2c	-0.10518679
193	0xbdbcf06e	-0.09225546
194	0x3ddeb907	0.10875135
195	0x3e08e255	0.13367589
196	0xbe05fb69	-0.13084187
197	0xbd9d9083	-0.07693579
198	0x3dde3778	0.108504236
199	0x3e077927	0.1322981
200	0xb858f377	-5.1725157e-05
201	0x3cd0413d	0.025421733
202	0x3d1a0f7d	0.037612427
203	0x3c82a363	0.01594705
204	0x3d124a42	0.03571535
205	0x3cda3cef	0.026640384
206	0x3d11ca3f	0.035593268
207	0x3d52cc63	0.05146445
208	0xbcc10b70	-0.023565024
209	0x3d284664	0.041082755
210	0x3c2620f8	0.010139696
211	0xbc57a9a7	-0.013163007
212	0xbbf9cdc2	-0.007623405
213	0x3b80c747	0.0039300057
214	0xbc096a27	-0.008387125
215	0xbc65de3c	-0.014030036
216	0xbb104b67	-0.00220176
217	0x3cf36d8a	0.029715318
218	0x3cc22610	0.02369979
219	0xbc404317	-0.011734745
220	0xbb2022ee	-0.0024434882
221	0x3d1e5ac3	0.038660776
222	0x3d23432b	0.03985898
223	0x3d7c8ce2	0.061657794
224	0x3b89f8c3	0.004210563
225	0x3cb07544	0.021540292
226	0x3caf2deb	0.0213842
227	0x3b1c0cc5	0.0023811322
228	0x3d1d0347	0.038333204
229	0x3cdf14e9	0.02723165
230	0x3d42a6cc	0.04752235
231	0x3cf96c99	0.030447291
232	0xbc9ff978	-0.019528136
233	0x3c1eee14	0.009700317
234	0x3d33ccbd	0.043896426
235	0xbccd5c79	-0.025068508
236	0x3d88b35d	0.06674836
237	0xba3ea539	-0.0007272545
238	0xbd05e4d3	-0.032688927
239	0xbb666514	-0.0035155462
240	0x3c5c064e	0.0134292375
241	0x3b60ce4c	0.003430265
242	0x3c8f8603	0.017519956
243	0x3b8c6508	0.004284505
244	0x3b4fa6ef	0.0031685194
245	0x3c537e4d	0.01290853
246	0x3aff3abe	0.0019472463
247	0x3cc58809	0.024112718
248	0x3d439f5b	0.047759395
249	0x3d29b5f5	0.041433293
250	0x3d1a30ca	0.037644185
251	0x3cdd9c43	0.02705205
252	0xbd26e2e4	-0.040743724
253	0xbcadee7b	-0.02123188
254	0x3c4b00d4	0.012390334
255	0x3cc00461	0.023439588

fc.4.bias f4 [100]
0	0x3cb9c70a	0.022677917
1	0xbd1d7cb7	-0.038449015
2	0x3cad7c99	0.021177577
3	0x3c9d709f	0.019218741
4	0x3b7b9537	0.00383885
5	0x3c95d862	0.018291656
6	0x3cad2194	0.021134175
7	0x3cc93ada	0.024564195
8	0x3cddc631	0.027072044
9	0x3ca4bfb9	0.020110952
10	0x3cb173d3	0.021661675
11	0x3c886eff	0.01665449
12	0x3cbe84c6	0.02325667
13	0x3cc5003f	0.024047969
14	0x3cd758c7	0.02628745
15	0x3d622759	0.055213306
16	0x3cf72045	0.030166754
17	0x3cda3cf9	0.026640402
18	0x3cb8f821	0.022579255
19	0x3cabc119	0.0209661
20	0x3c89d500	0.0168252
21	0x3cade82b	0.02122887
22	0x3ccbd0d7	0.024879856
23	0x3c9d9e51	0.01924053
24	0x3c5aaef8	0.01334738
25	0x3ccbba17	0.024869008
26	0x3cafc002	0.021453861
27	0x3d7f881c	0.062385663
28	0x3d0f065e	0.03491818
29	0x3c7e64a1	0.0155269215
30	0x3cd02095	0.025406161
31	0x3cc2cf7f	0.023780582
32	0x3cb1ad5b	0.021689108
33	0x3cb9f4fb	0.022699824
34	0x3c9e8b16	0.01935343
35	0x3c546c6c	0.012965303
36	0x3cc49c7b	0.024000397
37	0x39156d71	0.00014250517
38	0x3b994a09	0.004678015
39	0x3d0c22fc	0.03421305
40	0x3bbba3c4	0.0057263095
41	0x3c61ad9f	0.013774305
42	0x3cae9888	0.021312967
43	0x3c7d6d2b	0.015467922
44	0x3cd423dc	0.025896005
45	0x3c1c221e	0.009529619
46	0x3d378c44	0.044811502
47	0x3ca04f3c	0.019569032
48	0x3d021a93	0.031763624
49	0x3d01893c	0.031625018
50	0x3b0159ce	0.0019737366
51	0x3d126a94	0.035746172
52	0x3bbee838	0.0058260225
53	0x3bad00ba	0.0052796276
54	0x3cbcb553	0.02303568
55	0x3d0c65f1	0.034276906
56	0x3d063ffc	0.032775864
57	0x3be8c539	0.007103589
58	0x3a87aed7	0.0010351789
59	0x3cbc655f	0.022997556
60	0x3cb2eebe	0.021842357
61	0x3c975d2e	0.018477049
62	0x3cb9bb9a	0.022672463
63	0x3c7bbb70	0.015364513
64	0x3ca5724b	0.0201961
65	0x3cbd3773	0.02309773
66	0x3cb04d18	0.021521136
67	0x3ae9832a	0.0017815579
68	0x3cfee8e8	0.031116918
69	0xbb3e8499	-0.0029070734
70	0x3cbad471	0.022806378
71	0xbcd5f5d9	-0.026118206
72	0x3cacb131	0.021080585
73	0x3c9e81da	0.019349027
74	0x3d96ca8f	0.07362854
75	0x3c40ac10	0.011759773
76	0x3cd202bf	0.025636075
77	0x3cfe97b9	0.031078206
78	0x3cc1d321	0.023660244
79	0x3c9c2128	0.019058779
80	0x3d16fdce	0.03686314
81	0x3d170527	0.036870148
82	0x3cb74828	0.022373274
83	0xbc7bea0e	-0.015375627
84	0x3cb3a588	0.021929517
85	0x3d32eb84	0.043681636
86	0x3ceaf7bc	0.028682582
87	0x3c9504ca	0.01819076
88	0x3cc28fb3	0.023750162
89	0xbb5aae22	-0.0033367951
90	0x3d1f916c	0.038957044
91	0x3c0e03d9	0.00866791
92	0xbc4bab29	-0.0124309445
93	0xbb1e35fb	-0.0024141062
94	0x3cb8f32a	0.022576887
95	0x3bf9b53d	0.0076204822
96	0x3cd035e5	0.025416324
97	0x3b98159f	0.0046412493
98	0x3cc4fa60	0.02404517
99	0xbbdb8d54	-0.0067001972
