results/Smoothed_InfoNCE_dim20_reg1_alpha1e-06.pt (torch, 239653 bytes, 5 tensors)

fc.0.weight f4 [100, 40]
000000 3b 0d cd bd 8a 90 7f 3d 45 34 be bd b6 c7 1c 3e
       -0.10012289 0.062393703 -0.09287313 0.15310559
000010 d3 31 e1 bd 47 3b 36 3d 62 b3 a6 3c 9a fc 71 bd
       -0.10995831 0.044490125 0.020349208 -0.05907879
000020 a7 e5 3e bc d2 4c 14 3c 51 78 c6 bb 90 72 cf bd
       -0.011651433 0.0090515185 -0.0060568233 -0.10129273
000030 5f 5a 1d 3e 7e b6 f6 3c cb c8 93 3a 31 cb fb 3c
       0.15366505 0.030116316 0.0011275051 0.030736538
000040 0a d4 0b bd dc 71 b5 3d 5e 69 69 bc 93 fe cc bd
       -0.034137763 0.088596076 -0.014246313 -0.10009494
000050 52 3c 8d bd ce 1a 0a 3d c9 c7 b4 bd 35 71 4d 3d
       -0.06896271 0.03371697 -0.088271685 0.05015679
000060 3b ec ea bd 42 28 81 3c be be e3 3c 3f ac 2b bd
       -0.11470839 0.015766267 0.027800914 -0.041912314
000070 92 de 22 bc 2e 52 6c 3c 6b 07 b7 bb 96 b2 c0 bd
       -0.00994076 0.01442389 -0.005585601 -0.094090626
000080 8d cd 12 3e 59 19 57 3d 31 fc 5c bd 53 b9 e6 3c
       0.14336224 0.052514408 -0.053951446 0.028164541
000090 66 e4 2f bc e3 58 44 3d 64 11 5e 3a d2 f4 56 bd
       -0.010735607 0.04793633 0.00084712193 -0.052479573
0000a0 ec 92 00 3e 99 be 0c be be 5c 8a 3d 4e f7 18 bc
       0.12556046 -0.13744582 0.067559704 -0.009336306
0000b0 c3 2a 35 3e 77 b5 96 bd cc 14 a9 bd 01 98 61 3b
       0.17692094 -0.073588304 -0.0825592 0.0034422877
0000c0 ae af 83 ba a7 3f 20 be 8c dc 9e 3d 05 c2 37 bc
       -0.0010046863 -0.15649281 0.0775691 -0.011215691
0000d0 01 98 5c be 36 4b f6 3c f4 1a ae bc 0a 4d 80 be
       -0.2154236 0.03006516 -0.021253087 -0.25058776
0000e0 15 4f 68 bd 26 d6 51 3d 7a 75 23 be 19 65 15 3c
       -0.056716044 0.05122962 -0.15962783 0.009118342
0000f0 4a 55 a7 bd 77 6b 16 3e 27 da 89 bd 7b 41 b8 bc
       -0.081705645 0.14689432 -0.067310624 -0.022492161
000100 a0 0a 0a be 7e 07 86 3d 32 91 e9 3d 66 ad 53 bd
       -0.13480616 0.06544398 0.11404647 -0.051679038
000110 92 32 1e 3b 07 de 13 3e 6f c8 fc bd 1b a2 96 3d
       0.002413903 0.14440165 -0.12342917 0.07355138
000120 18 5d 4e 3e 02 31 b4 bc c6 74 fe bb ad e6 63 3e
       0.201527 -0.021996025 -0.0077653853 0.22255965
000130 42 98 a5 3c 05 d6 e1 bb 04 5d 26 3e eb 2b 8e bc
       0.020214204 -0.006891968 0.1624642 -0.017354926
000140 27 45 4e bd 89 31 8b bb 05 cc 90 3b 12 45 38 3d
       -0.050358918 -0.0042478484 0.0044188523 0.044987746
000150 92 64 83 3d cf e2 15 be dd 31 48 bd 23 35 05 bb
       0.06415667 -0.14637302 -0.04887568 -0.0020325861
000160 52 b2 c1 bd fe c7 8c bd b0 8c 00 bd fb 05 89 3c
       -0.0945784 -0.06874083 -0.03138417 0.016726485
000170 1e a0 c5 3d 19 77 3f 3d ce dc d8 3d d7 44 07 bd
       0.096496806 0.04674444 0.1058899 -0.033024635
000180 48 d2 62 3d c5 dd 3c 3d 70 d8 33 bc e2 fa 43 bd
       0.05537632 0.046109933 -0.010976896 -0.047846682
000190 27 e4 f8 bc b1 7e 5e bc 2d 3b bf bb c0 a1 ad 3b
       -0.030382229 -0.01358001 -0.0058359117 0.005298823
0001a0 ad 62 cf 3c 54 f8 16 be a3 dc 55 bd 19 34 af 3c
       0.025315607 -0.14743167 -0.05221237 0.021387147
0001b0 da 21 89 bd 8e 32 6c bd 45 f8 18 bd fb fe 5c b9
       -0.0669591 -0.0576654 -0.037346143 -0.00021075823
0001c0 2a 93 98 3d e5 ed 34 3d a1 93 52 3d 24 8c b8 bc
       0.07449944 0.044172186 0.05141032 -0.022527762
0001d0 87 c4 84 3d 9b 6c ed 3c 28 41 2b bc 8e 0d 06 bd
       0.06482797 0.028982451 -0.010452546 -0.03272777
0001e0 b2 ea a7 bb 2c 6a 86 3d 37 ba 25 3d 42 a9 a9 3d
       -0.0051244134 0.065632194 0.04046079 0.082842365
0001f0 b0 8c f0 bc b2 07 80 3d 63 60 ae 3d 4e b0 2c bd
       -0.02936396 0.06251468 0.08514478 -0.042160325
000200 06 17 c9 3c dd 47 d6 bd 7a 5b 37 3b fb ab 19 3e
       0.024547111 -0.104629256 0.0027978108 0.15007012
000210 2c 64 9a bd cf 3b 8b 3d 47 04 9c bd b3 d1 95 3b
       -0.075386375 0.06798517 -0.07618003 0.0045721172
000220 00 98 77 3d 05 e4 0f 3c 21 fa 9d bc f6 5e d6 3c
       0.060447693 0.008782391 -0.01928431 0.026168328
000230 f5 25 c1 3b 1c fd 88 3d 8b ed e0 3b 53 04 43 3d
       0.0058944174 0.06688902 0.006864255 0.047611546
000240 7d f0 cb bc 6b 5f 8d 3c 05 77 a3 3d b2 c3 97 bc
       -0.024894947 0.017257413 0.079816855 -0.018525932
000250 1f ce 86 3d f5 7b 90 bd 89 0d c1 bb c3 ab b9 3d
       0.06582283 -0.07054893 -0.005891506 0.09065964
000260 ba cb 93 bd 06 65 2e 3d 0c 49 d9 bd 15 57 97 3a
       -0.07216592 0.042576812 -0.10609636 0.0011546338
000270 df 02 9f 3d 85 5e 11 bd a7 4c a6 bc fd ed 48 3d
       0.077642195 -0.03549053 -0.020300223 0.04905509
000280 e7 ba 3e be 1a 27 d1 bc ab dd 0b bd 09 d7 91 bd
       -0.18625985 -0.02553134 -0.034146946 -0.07121093
000290 9f 09 8f be be 1a d4 bc 94 b7 ac bc b7 4d 98 bd
       -0.27937028 -0.025891658 -0.02108363 -0.07436698
0002a0 bb 17 05 3e f8 5f cc bd e7 2c 91 3d b1 6f 8d 3d
       0.12997334 -0.09979242 0.070886426 0.06906069
0002b0 1b 58 3e be 72 52 56 be ca e5 81 bd 77 06 5a 3e
       -0.18588297 -0.20929888 -0.06342657 0.21291529
0002c0 34 9b ff bd 34 83 ad bd 02 a2 7a bc 52 71 3a be
       -0.124807745 -0.08472291 -0.015297415 -0.18207291
0002d0 fc 5a 13 3e 17 ce f0 3b ae 74 d0 bc 40 f3 b1 3d
       0.14390177 0.0073487866 -0.025446262 0.086889744
0002e0 da 18 87 3e 87 23 1d bd 0d e1 97 3d be 6b a2 3d
       0.26386148 -0.03836396 0.07415972 0.079307064
0002f0 32 5a 14 be aa f6 8f 3d 80 05 ed bd b4 7a 9b bd
       -0.14487532 0.07029469 -0.11573315 -0.07591763
000300 e6 bd ff 3d 03 33 33 3e 46 79 a8 3d 6e c9 79 be
       0.12487392 0.17499928 0.08226256 -0.24393246
000310 ec 0f 20 3e 9b a6 6c 3d c2 ed fe bc 03 df 21 3e
       0.15631074 0.057776075 -0.031119231 0.15807728
000320 7c 5c 98 ba 93 65 f0 3d 91 fd 37 bd 27 e2 de 3d
       -0.0011624242 0.11738124 -0.044919554 0.10882979
000330 ea 18 32 3c df 06 81 bd 18 88 8f 3c 24 6b c1 bb
       0.010870198 -0.06300139 0.01752095 -0.0059026647
000340 15 d6 e1 3d e8 79 48 bd f8 b3 23 bd d7 d0 01 be
       0.11027161 -0.048944384 -0.039966553 -0.12677322
000350 6c 75 07 bd 0f 7e 15 bd c6 3e ff bc e2 2c a8 bd
       -0.033070967 -0.036497172 -0.031157862 -0.08211686
000360 0d 0b 91 bb 07 42 4a 3d ef b3 91 3c cf 97 83 bd
       -0.004426366 0.049379375 0.017785994 -0.064254396
000370 d1 3f 80 bc 45 1f f7 3d fd b6 43 bd 9e fa 82 3d
       -0.01565543 0.12066511 -0.047781933 0.06395458
000380 0a b3 e4 bc c4 63 97 bd ae 9c f2 bb fd b5 04 3d
       -0.027917404 -0.07392076 -0.0074039316 0.03240012
000390 a2 16 f4 3d f7 b9 29 bd 07 19 7d bd bc ef e0 bd
       0.11918379 -0.041437116 -0.061791446 -0.10983226
0003a0 2a a2 36 bd 9e e0 c0 bc a4 54 5f bd ed 1f 66 bd
       -0.044588245 -0.023544606 -0.05452408 -0.05618279
0003b0 4f d3 8b bc a4 30 00 3d b6 34 d8 bb 66 f0 b4 bb
       -0.017068533 0.031296387 -0.0065980805 -0.005521822
0003c0 50 fe 8e bc da e5 8f 3d 4e 99 aa 3d a9 54 c1 bc
       -0.01745525 0.070262626 0.08330022 -0.02359994
0003d0 8f f9 0c 3d 4a de 12 bc eb b0 07 bd 37 81 80 bd
       0.034417685 -0.008964131 -0.033127706 -0.06274646
0003e0 9d d2 99 bd a1 58 d1 bd 64 9d 49 3d 7f c3 c1 3d
       -0.075108744 -0.10221983 0.049222365 0.09461116
0003f0 bd 9a f0 3c e0 ec 2d bd 6a b8 d3 bd 67 f8 87 3d
       0.02937066 -0.04246223 -0.103379086 0.06639176

fc.0.bias f4 [100]
000000 1d 44 07 bd f1 02 1c bd 0c 7b bd bc a4 5d da b9
       -0.033023942 -0.038088743 -0.023129962 -0.00041649968
000010 83 a6 47 bd 86 3f 02 bd be 08 98 bc 80 26 51 bd
       -0.048742782 -0.031798862 -0.018558856 -0.051062107
000020 49 0e a8 3c f3 2a 2f bd c1 8a 28 bd 76 d1 14 bd
       0.020514624 -0.04276557 -0.04114795 -0.03633257
000030 ba 80 0e bd 18 e4 82 bc c0 1b 8a 3c d7 4a be bc
       -0.034790732 -0.015977904 0.016858935 -0.023229046
000040 96 4c 1f bd ca 17 44 bd 43 22 89 bc 52 8b 21 bd
       -0.038891397 -0.04787425 -0.01673997 -0.039439507
000050 98 ac 20 bd 5c 62 f1 bc 08 25 00 bd 71 f3 88 bc
       -0.0392271 -0.029465847 -0.031285316 -0.016717644
000060 61 38 08 bd ea 7c 3d bc b4 47 65 3e 78 18 f8 3c
       -0.033256892 -0.011565426 0.22390634 0.030285105
000070 a3 6f 2d bd 0e f1 35 bd c4 41 23 bd 72 32 34 bc
       -0.042342793 -0.04441934 -0.03985764 -0.010998355
000080 7d aa 0f bd e5 c3 02 bd 59 f0 ee 3c 50 8a e1 bc
       -0.0350747 -0.0319251 0.029167341 -0.027531773
000090 74 bd 4c bd ea 6a 4d bd cd c3 4b bd 28 a7 79 bd
       -0.049985364 -0.05015079 -0.049747277 -0.06095043
0000a0 47 ed 9f bc 45 9c 51 bd 67 40 89 3b 76 ac a0 bc
       -0.019522322 -0.05117442 0.0041885856 -0.019613486
0000b0 37 57 03 bd f0 d9 66 bd 99 c4 3c bd 87 0e cd bc
       -0.032065596 -0.056360185 -0.046085928 -0.025031341
0000c0 6c 24 1d bd 84 8c 42 bd 4a ec 30 bd a7 2d 30 bd
       -0.038364813 -0.047497287 -0.043194093 -0.043012287
0000d0 72 ee 98 bc 10 94 4a 3c 8f 23 47 bd 78 31 fb bc
       -0.018668387 0.012364402 -0.048617896 -0.030663237
0000e0 17 36 2d bd 1f 29 1f bd 46 82 b6 bc 6e d3 ce bc
       -0.042287912 -0.038857576 -0.022278916 -0.025247302
0000f0 d2 18 c7 3d 9d ff ba bc 3e eb 08 bd 0e c5 a0 bc
       0.09721531 -0.022826964 -0.03342747 -0.019625213
000100 55 d5 04 bc 93 71 5c bd 1f 3d 40 bd ca 7e 08 bd
       -0.008107503 -0.05381925 -0.04693329 -0.03332404
000110 ca f0 b4 bc 4e 1b d2 bc b0 ee 08 bd f5 cb 24 bd
       -0.022087473 -0.025647786 -0.033430755 -0.04023357
000120 d8 f3 21 bd 5b 71 f8 3c 5d 66 22 bd ff f6 4e bd
       -0.03953919 0.03032749 -0.039648402 -0.050528523
000130 37 8b d4 bb 96 fe 3f bd e1 c2 d4 bc 12 32 0e bd
       -0.0064863223 -0.04687365 -0.025971832 -0.03471572
000140 5c 11 87 bc 20 5d 36 bc 32 03 ca bc 28 6d 0b bd
       -0.01648777 -0.011130601 -0.024659727 -0.034039646
000150 ea 44 19 bd fa 23 46 bd 51 a4 25 bc 5f 95 5b bd
       -0.037419237 -0.048374154 -0.010109977 -0.05360925
000160 4b ac 0f bd 1b 34 fe bc 69 36 26 bd 39 64 d1 bc
       -0.03507642 -0.031030705 -0.040579233 -0.025560485
000170 af 14 40 bc 94 67 c7 bc 20 e4 7e bd 76 ba ae 3c
       -0.011723681 -0.024341382 -0.062229276 0.021329146
000180 0c c8 b6 bb 42 b1 32 bd 78 a2 4c bd c3 a5 44 bd
       -0.0055780467 -0.043626077 -0.04995963 -0.048009645

fc.1.weight f4 [100, 100]
000000 b8 f9 3b bd 3f 96 95 3e dc 34 b1 bc cf 10 9c bc
       -0.045892447 0.2921619 -0.02163165 -0.019050984
000010 bb ab 94 3e c3 b9 f9 bc b9 96 4b 3c 73 ac 83 3e
       0.2903727 -0.030484086 0.012426072 0.25717506
000020 1e 39 1b 3c 45 17 9d 3e db 21 9a 3e 5e 03 9e bd
       0.009474067 0.30681816 0.30103955 -0.07715486
000030 91 f3 a6 3e 71 eb d2 bd 7e 8e 5d 3a fe 69 60 3e
       0.326077 -0.10298813 0.0008451714 0.21915433
000040 e4 2e 66 bd 7f 1b 9f 3e c5 1e 82 bc ee 24 4d 3e
       -0.056197062 0.31075665 -0.015883813 0.20033619
000050 c8 3a 62 3e c0 11 70 bd 1c 7b f2 bc 52 29 60 3e
       0.22092736 -0.058610678 -0.029599719 0.21890762
000060 d8 5e 85 bd ea 2b 9c bc 6d 70 ba 3d 02 f2 69 3d
       -0.06512231 -0.019063909 0.09103475 0.057115562
000070 46 be 89 3e 71 53 09 bd 04 3d 89 bd 4f cc 66 bc
       0.2690298 -0.03352684 -0.06701091 -0.014086797
000080 ec 2c 4e bd f2 6f d9 bc 17 04 84 3c be b3 8a bd
       -0.05033581 -0.026542637 0.016115231 -0.06772564
000090 61 64 7a 3e 2a 24 9e 3e 2e 85 77 3e b1 d8 bd 3e
       0.24452354 0.30886966 0.24171898 0.37079385
0000a0 96 73 0c bd 12 22 9f 3e 17 d5 a1 bc 30 7f 22 3c
       -0.03428992 0.3108068 -0.01975493 0.009918019
0000b0 4c 5a 9a 3e 6f 8d ff bd 5e 6a ad 3e d7 1c 5a bd
       0.30147016 -0.12478148 0.33870214 -0.05325016
0000c0 d7 6d 76 bc 97 0a af 3e cb 80 92 3e 0a 18 91 3e
       -0.015040836 0.34187767 0.28613886 0.28338653
0000d0 db 9b a4 3b 3d 7b 08 bc 51 ac af 3e 6a cd 26 bd
       0.005023462 -0.008330164 0.34311154 -0.040723242
0000e0 32 97 b8 3e 1b 36 6b 3e 86 77 f5 bc 04 64 7e bb
       0.36052853 0.22969858 -0.02996422 -0.0038816938
0000f0 7c e4 46 3d 2a f9 b8 bd b5 af 71 3e 41 39 16 bd
       0.048557743 -0.09031899 0.23602183 -0.036675695
000100 91 e1 47 bd 97 40 18 bd 80 09 9b 3e 48 90 87 bd
       -0.0487991 -0.037170973 0.30280685 -0.06619316
000110 c8 90 ba 3e 1c 01 8c 3e e4 f2 69 3e 64 27 88 3e
       0.36438584 0.27344596 0.22846562 0.26592553
000120 1e b4 93 3e e8 29 ce 3c e4 7f 85 bd 84 ab 9b 3e
       0.28848356 0.025166467 -0.06518534 0.30404294
000130 77 2a 55 bc 7a f4 00 be ba dd 70 3e f9 1f 87 3e
       -0.013010613 -0.1259326 0.23522082 0.2639158
000140 5f ab 44 bd e9 fb d5 bb 76 1e a7 bc 85 e5 a1 3e
       -0.048014995 -0.006530274 -0.020400267 0.31620422
000150 8b 6b 95 3e 1a 76 82 bd c9 07 46 bd f8 df b6 3e
       0.2918361 -0.06370182 -0.04834727 0.3571775
000160 ca 49 e1 bd a6 97 b2 bd 47 0d 9c 3e 78 47 b5 bd
       -0.11000402 -0.08720331 0.3047888 -0.08851522
000170 19 8b 68 bb b5 fa 0e bd 98 db 9f 3e 6a 5e a4 3b
       -0.00354833 -0.03490706 0.31222224 0.005016138
000180 4d 37 ba 3e bb e9 9a 3e cc 59 84 3e 7c c3 93 3e
       0.36370316 0.30256447 0.2584976 0.2886008
000190 f8 4b be 3d c0 63 a1 be d1 63 e0 3d 11 b2 03 3e
       0.09291834 -0.31521416 0.109565385 0.12860896
0001a0 f6 d2 af be aa 4c 98 3d 2b e8 be 3d 13 bf a0 be
       -0.34340638 0.074364975 0.09321626 -0.31395778
0001b0 b9 e2 59 3d 1a 5c ab be a1 0d aa be f6 c0 f2 3d
       0.053194735 -0.33468705 -0.33213523 0.11853211
0001c0 4e b5 a2 be 4c 07 ff 3d eb 0b b6 3d 9c 4d 76 be
       -0.3177895 0.12452564 0.08888992 -0.24053043
0001d0 f6 fb e9 3d 3a 6c ab be bd 98 d1 3d 34 38 a5 be
       0.11425011 -0.33481008 0.10234211 -0.32269442
0001e0 8a 3e 92 be b3 35 f5 3d 77 14 a8 3d ef 4d 70 be
       -0.2856334 0.11973133 0.08207028 -0.2346723
0001f0 73 b7 f9 3d ff a0 a0 3d 77 e7 9f 3d 31 9f fc 3d
       0.12193193 0.078432076 0.0780782 0.12335051
000200 1c fe a9 be ea ce 0c 3e aa 4d 40 3e 9f 8a f6 3d
       -0.33201683 0.13750806 0.18779626 0.120381586
000210 33 60 ff 3d 55 af 20 3e 3d d8 1d 3d 38 d7 0b 3e
       0.124695204 0.15691884 0.0385363 0.13656318
000220 49 09 88 be dd b6 b3 be 7a f4 ac be b6 0f b3 be
       -0.26569584 -0.3510045 -0.3378027 -0.34972924
000230 76 d1 40 3d 18 3a aa be 92 17 99 3d c9 36 df 3d
       0.047074758 -0.33247447 0.07475199 0.10899121
000240 8b 2f 9f be a7 77 11 3e 3b 7a af be 5e 43 7a 3d
       -0.3109096 0.142058 -0.34272942 0.061099403
000250 33 e5 bf 3d 02 c7 a2 be 0a 19 c9 be 52 57 b4 be
       0.09369888 -0.31792456 -0.39276916 -0.3522287
000260 14 f8 ac 3d 45 4e ac 3c 67 37 b8 be 92 79 e4 3d
       0.08445755 0.021033416 -0.3597977 0.11156
000270 ce 3a a2 be b1 61 98 be b9 3d 98 3d 00 44 c0 3d
       -0.3168549 -0.29762033 0.07433648 0.0938797
000280 17 62 75 3d 55 06 df 3d da 6a 87 be 4b a3 01 3e
       0.059908 0.108898796 -0.2644871 0.12659948
000290 b7 4c e1 3d da ce e0 3d ce 76 9d be 83 c9 e5 3d
       0.1100096 0.10976954 -0.30754703 0.11220076
0002a0 af f9 94 be 2d cd 8b be 30 e2 81 be d8 e9 ac be
       -0.29096743 -0.27304974 -0.2536788 -0.3377216
0002b0 a4 c4 9c be 96 86 8d 3d a1 c4 07 3e b9 f0 aa be
       -0.30618775 0.06910436 0.13258602 -0.33386782
0002c0 de 91 d0 3d 8e 2a e1 3d 51 f6 7c be 29 27 89 be
       0.10184072 0.10994445 -0.24703337 -0.2678769
0002d0 25 e9 ee 3d b2 82 dd 3d 76 76 e5 3d 8f 74 92 be
       0.116655625 0.10815944 0.11204235 -0.28604552
0002e0 9d 99 94 be d9 24 87 3d e9 94 f2 3d e5 55 b3 be
       -0.29023448 0.06598825 0.118448086 -0.3502647
0002f0 da 19 df 3d 5c 27 bf 3d d5 40 a3 be fa 11 f1 3d
       0.10893603 0.09333679 -0.318854 0.11771007
000300 75 2e 83 3d c2 48 9c 3d f2 54 c2 be eb a0 bf 3d
       0.06405345 0.07631065 -0.37955433 0.093568645
000310 50 bc a2 be 34 11 b6 be dd 3d ad be 54 06 9a be
       -0.31784296 -0.3556 -0.3383626 -0.30082953
000320 46 56 1c bd 1f 9b 74 3e 26 69 07 bc b5 93 37 bd
       -0.038168214 0.23887299 -0.008264815 -0.0448186
000330 52 a4 a9 3e 1d 51 9c bc 94 e2 22 3c 92 cf 93 3e
       0.3313318 -0.019081647 0.009941716 0.288693
000340 81 9c b8 3c c8 48 b8 3e 2e 3b be 3e 97 b7 b5 bd
       0.022535564 0.35993028 0.37154526 -0.088729076
000350 48 3d a1 3e 21 01 8d bd 60 67 17 3d d3 a8 a8 3e
       0.31492066 -0.06884981 0.03696382 0.32941303
000360 b5 52 95 bd a4 e7 99 3e 2c eb b5 bc e5 a1 80 3e
       -0.07291166 0.3005954 -0.022206865 0.25123516
000370 bf 48 7b 3e c1 fc 2f bd e4 7b 20 bd 17 05 6b 3e
       0.24539469 -0.042965654 -0.03918065 0.2295116
000380 46 eb 33 bd 4a 0e c5 bc 65 d1 a7 3d 87 f3 0d 3d
       -0.043925546 -0.024054665 0.08194236 0.034656074
000390 9b 1c a0 3e 9c 1c 4f bd cf 53 44 bd fb e5 81 bc
       0.31271824 -0.050564393 -0.04793149 -0.015856734
0003a0 7b c3 cf bd 1e 1c bd bc 36 a9 06 3d c5 24 03 bd
       -0.10144707 -0.023084696 0.032876216 -0.032017488
0003b0 2b 83 92 3e ec b8 75 3e 02 4a 97 3e 84 06 98 3e
       0.28615698 0.23996323 0.2954865 0.2969247
0003c0 19 46 45 bd be c9 95 3e 60 c9 9c 3b d8 50 25 bc
       -0.048162553 0.2925548 0.004784748 -0.010090075
0003d0 2d 39 bc 3e e5 23 0a be c6 df 8f 3e 7f a8 93 bd
       0.36762372 -0.13490255 0.28100413 -0.072098725
0003e0 97 72 fe bc 40 c7 ac 3e cd 51 a0 3e 7a 69 6d 3e
       -0.0310605 0.33745766 0.3131241 0.23184767
0003f0 a2 d5 41 bd d8 ee 24 3d f3 e4 a7 3e 2a 05 87 bd
       -0.047322877 0.04026684 0.32791862 -0.06592782

fc.1.bias f4 [100]
000000 47 18 a5 3d b0 9c 01 3d d4 58 ad 3d 86 8c b4 3d
       0.08061271 0.03164357 0.08464208 0.08815865
000010 b0 e9 e3 3c 2c 8d ae 3d 0d 49 f4 3c 69 80 f5 3c
       0.027821392 0.0852302 0.02981999 0.029968457
000020 d1 0f a8 3d 52 87 d0 3c 2b 5a 9b 3d 92 b7 06 3d
       0.08206142 0.02545515 0.075855576 0.03288991
000030 50 85 c5 3d c0 7a ef 3c 42 a3 b7 3d db 70 d3 3c
       0.09644568 0.029233336 0.08966686 0.02581065
000040 f5 29 aa 3d 34 6f e6 3c bd b4 be 3d c4 37 af 3d
       0.08308784 0.028129198 0.09311817 0.08555558
000050 0d e4 9a 3d d5 52 a5 3d 80 21 bd 3d 3b 1b ef 3c
       0.075630285 0.080724396 0.09234905 0.02918779
000060 07 b4 02 3d 18 e4 92 3d a6 50 a6 3d 50 32 b2 3d
       0.03190997 0.07172412 0.08120851 0.087010026
000070 d3 cd dc 3c ef f0 a1 3d 58 59 11 3d bb a7 d9 3c
       0.026953613 0.079072826 0.035485595 0.026569238
000080 dd 49 dd 3c 38 b4 d8 3c f7 62 ba 3d 9d 10 b1 3d
       0.02701276 0.026453122 0.09100907 0.08645747
000090 22 c6 91 3d b1 e9 06 3d e5 c5 fb 3c 8e b6 a2 3d
       0.07117869 0.03293771 0.030734012 0.07944976
0000a0 e8 d4 de 3c ac 37 de 3c 14 ec ec 3c f8 e1 ed 3c
       0.027201131 0.027126156 0.028921165 0.029038414
0000b0 6d d7 93 3d 17 20 e9 3c c5 e2 04 3d ed 5b e4 3c
       0.072188236 0.028457684 0.032442827 0.027875865
0000c0 d0 78 f7 3c 60 77 02 3d 3a e0 d8 3c ca 07 fe 3c
       0.030208975 0.031852126 0.026474107 0.031009573
0000d0 81 71 0a 3d 62 8d f6 3c 52 f3 a8 3d 6c 5a c2 3d
       0.033799652 0.030096713 0.08249535 0.09489903
0000e0 63 67 b4 3d 2b b0 f5 3c 87 72 b7 3d fc c1 04 3d
       0.08808782 0.02999123 0.08957391 0.03241156
0000f0 cb 3c e6 3c b5 b0 f7 3c 2f be 96 3d c2 c7 dc 3c
       0.02810516 0.030235628 0.073604934 0.02695072
000100 a8 d5 ea 3c 28 e4 ac 3d 58 3d e1 3c b5 eb dd 3c
       0.028666332 0.08441955 0.027495071 0.027089933
000110 af f3 aa 3d 4f 2a 9d 3d 59 0c 02 3d 96 67 d5 3c
       0.0834726 0.07674085 0.031750057 0.02605037
000120 4c 8a e6 3c c1 7c b1 3d a5 a4 a1 3d 6b 66 9e 3d
       0.028142117 0.08666373 0.078927316 0.077343784
000130 a8 9b e9 3c e8 b9 e4 3c 3c de e8 3c ff ff 9e 3d
       0.028516605 0.027920678 0.028426282 0.07763671
000140 cd 72 b3 3d 01 72 f7 3c f5 a0 9c 3d 75 2d e0 3c
       0.08762131 0.030205728 0.076478876 0.027365426
000150 d6 99 92 3d 85 70 f1 3c 89 e6 03 3d 03 ef 9e 3d
       0.07158248 0.029472599 0.032202277 0.077604316
000160 f5 a3 1c 3d 1a c1 ac 3d f5 4b b5 3d 98 04 96 3d
       0.0382423 0.08435269 0.08852378 0.07325095
000170 c5 57 91 3d d8 32 a9 3d 1e 80 b6 3d e7 c1 9e 3d
       0.07096819 0.08261651 0.08911155 0.07751828
000180 2d a2 df 3c 10 2c be 3d b7 41 d9 3c 74 7c 81 3d
       0.027299011 0.09285748 0.026520593 0.06322566

fc.2.weight f4 [1, 100]
000000 32 56 e5 be c2 4b a7 3e 4e 1a e5 be 7d d3 de be
       -0.44792324 0.32674986 -0.4474663 -0.43520728
000010 31 c5 b2 3e c6 a1 e7 be e7 b2 a9 3e e9 b8 a4 3e
       0.3491607 -0.4524061 0.33144304 0.32172325
000020 b0 39 e5 be 28 71 be 3e a3 0e eb be 75 36 a4 3e
       -0.44770575 0.37195706 -0.45909604 0.32072797
000030 fb 5c dc be fc 80 a7 3e cc 28 e4 be c2 9e bc 3e
       -0.43039688 0.32715595 -0.44562376 0.36839873
000040 40 6e e2 be 80 80 ae 3e 1e bf e0 be 94 35 dd be
       -0.4422474 0.34082413 -0.4389581 -0.4320494
000050 c6 1c eb be 1a 1b e6 be 65 0d e2 be 65 d1 a9 3e
       -0.4592039 -0.44942552 -0.44150844 0.33167568
000060 6f 03 a7 3e 8a b8 e5 be 63 b2 e3 be 0a 9e e2 be
       0.32619807 -0.44867355 -0.44472036 -0.442612
000070 b2 71 b4 3e 1c 22 e1 be 82 fa 9f 3e d2 f5 b7 3e
       0.35242993 -0.43971336 0.3124581 0.35929734
000080 ad 46 b9 3e f1 02 bf 3e d5 85 e3 be 93 d1 d5 be
       0.36186734 0.37306932 -0.44438043 -0.41761455
000090 04 74 ea be 92 90 a4 3e 60 a5 aa 3e dd 9e dd be
       -0.45791638 0.32141548 0.33329296 -0.43285266
0000a0 e0 2d b8 3e e9 4e b3 3e d1 73 a9 3e 6c 0f af 3e
       0.359725 0.3502114 0.33096173 0.34191453
0000b0 73 72 e5 be a4 25 ad 3e ec e6 a5 3e 4b a3 b2 3e
       -0.4481388 0.3381778 0.32402742 0.34890208
0000c0 3a e1 a9 3e 1a 8b a9 3e a5 ac be 3e 49 ad a2 3e
       0.33179647 0.3311394 0.37241092 0.3177283
0000d0 d1 38 a4 3e 23 b6 aa 3e 6c a4 da be a7 7d e2 be
       0.32074597 0.33342084 -0.4270357 -0.4423649
0000e0 e4 67 df be b2 a2 aa 3e 4c 67 e0 be bf 7c a0 3e
       -0.4363395 0.33327252 -0.4382881 0.31345174
0000f0 25 e4 af 3e ad 63 a9 3e aa be cf be aa 8d bb 3e
       0.34353748 0.3308386 -0.40575153 0.3663152
000100 17 8a b0 3e 9c 22 e2 be b3 58 ac 3e f4 67 b7 3e
       0.34480354 -0.4416703 0.33661422 0.35821497
000110 80 c2 dc be c8 18 e0 be 94 24 a3 3e bc b3 b9 3e
       -0.43117142 -0.43768907 0.31863844 0.3626994
000120 d8 04 af 3e 76 1f e0 be c5 5f df be 5f 69 de be
       0.34183383 -0.43774003 -0.43627754 -0.43439767
000130 46 cf ae 3e 32 3e b4 3e af b4 aa 3e 87 26 eb be
       0.34142512 0.352037 0.33340976 -0.45927832
000140 73 cd e3 be 52 09 ac 3e 13 e9 e4 be a7 71 ad 3e
       -0.44492683 0.3360086 -0.44709072 0.33875772
000150 49 c7 f3 be b5 d7 a9 3e 47 40 a7 3e 88 ca e4 be
       -0.4761298 0.33172384 0.32666227 -0.4468577
000160 dc 00 a3 3e c3 03 d7 be c7 a3 e1 be a1 bb da be
       0.31836593 -0.41995057 -0.44070265 -0.42721274
000170 9e a5 e9 be 59 91 e4 be 77 7d dd be 16 6e d8 be
       -0.45634168 -0.4464214 -0.43259785 -0.4227149
000180 69 ab b2 3e 8c d1 dd be 3e 6c b5 3e 21 76 f2 be
       0.348964 -0.43323934 0.35434145 -0.4735575
