results/Smoothed_MINE_dim20_reg1_alpha0.1.pt (torch, 240891 bytes, 13 tensors)

fc.0.weight f4 [100, 40]
00000000: f92f b63c 75d8 f43a b8b1 2c3d 7e00 1fbd
00000010: 3259 613d 7fe2 093d 6d8b 55bc e41d ed3c
00000020: 9156 163b a5ea f43c 9790 87bc 20db 68bc
00000030: 2b7a 233d 5ac6 a13b f069 94ba c79a 193d
00000040: a346 8e3c 2bad 253c 9aa5 f33c b665 a9bb
00000050: ae1e d03c 65eb 3bbc 2761 523d c876 18bd
00000060: 4948 fd3c 2671 583c 883d 443c cd9c 4b3d
00000070: 3355 45bc a9b1 f13c 2533 65bc ddb0 b73b
00000080: c9e3 e63c dbe1 843a ac3b 8e3c 4904 e63c
00000090: 7882 5f3c 140c 93bc f4b1 053c b6f1 ec3b
000000a0: 5483 a5bc 1c6d 13bc 3d39 4dbc 1b91 6a3c
000000b0: 0b29 3f3c 6345 12bd 3bdf 493d ef88 d8bb
000000c0: e9c7 3d3a 779e 2d3b 2a72 a7bc 157e 48bd
000000d0: 8444 9a3c 634a 16bd 39b1 5ebb 6e33 6cbc
000000e0: 882c bc3c a50b b5bc 3e66 09bd 2dd4 b1bc
000000f0: 7e5b f93a 2049 a1bc acdc 83bc cca8 513c
00000100: d695 8b3c ca4a f2bc 6cdb 013d a508 68bc
00000110: bab3 41bc 2735 a63c 1ff4 e1bc 7f0a 63bd
00000120: c897 053d bd52 edbc 65e2 b5bb 7f4f fcbc
00000130: a403 43bc 0f41 f83b bde3 46bd 9dca bcbb
00000140: 8f91 1cbd a25b 9f3c 38dd ff3b cb05 0b3d
00000150: f684 ee3c 32b2 88bb f98a 15bd bdf3 f4bc
00000160: 6ca7 1e3c 7e56 573d e44f 663c f19f f9bc
00000170: b13b 103c 3228 413c af7d cf3c a6d2 ac3d
00000180: ff2f 3dbc c22c fb3b d5ef a0bb dd83 f1b9
00000190: 3056 bebc 2d19 df3c 791c 953c 396f a53c
000001a0: 6197 0c3d 7593 d3bc dbe8 31bd 28be cdbc
000001b0: ed5a 8d3b dba1 883d c908 2c3d c81c 0fbd
000001c0: c30a b13c 7d2f 5b3c f8b6 4b3d a9cc 833d
000001d0: e253 f8bc fd1a 4c3c 96c6 c4bc 3341 29bc
000001e0: 6b4b 2c3c d3f3 c4bc c2bd 4abd e99a 5c3d
000001f0: 225e d63d 0564 89bc a5ba edbc 7fbb 18bb
00000200: 6f82 b8bc 3a19 663c f1e7 f3bb b66e 243d
00000210: 2edf 8abd 2452 ce3c 2cb1 b2bc 6f38 28bd
00000220: 035c e23c e07a 96bb abb7 42bd 0b8f 393d
00000230: 61a5 62bc 4f83 123d decd ee3c 82f8 9fbd
00000240: 21a3 a1bd d58e bb3c 92b9 d13c bcfd 8c3c
00000250: 6346 f03c 458d 0abd 19e4 193c 9d73 eabc
00000260: e9f2 903d 6b44 66bd 24b8 0d3d 86fc 693d
00000270: 8ef7 0bbc 727d 0dbc be40 fd3c a588 69bd
00000280: 6d8a 5b3c 17fe 3abb ded9 9fbc 41d5 7c3d
00000290: 90cc 87bc aade 63bc 32a5 f2bc a7fd 033d
000002a0: 295f b13b 6798 47bd 953d a63c 35a9 82bc
000002b0: 89f5 563b 3273 4dbd de24 ab3c 8f4f 3d3d
000002c0: 7be7 ab3c 0038 06bd 751c 1dbc 078e febc
000002d0: ab74 e63c 8ba9 d1bb c839 c2bc 0795 423d
000002e0: c2c0 abbc 3ad3 2dbc d88b c7bc 5440 673d
000002f0: 4b54 8f3c 1680 36bd 297c 533c 9bf3 98bb
00000300: 4878 023d 2b8b 67bd fa7c d83c 56b3 533d
00000310: 09ae d23c a147 d6bc f729 0e3b 7231 a6bc
00000320: e1c4 9bba 7a93 b03c 1a7f cbbb b890 833c
00000330: f2ae 8cbc 4bec ac3b c8da 303d d6e5 da3c
00000340: 09d4 163c adab 46bc 70b0 36bd 91bc bebc
00000350: 6cad ab3c 5f62 233d 4379 1dbd 54f6 413d
00000360: 39c2 59bc 3616 823d 0e68 f23b ede8 013d
00000370: 4c1c f33c d39e 9fbc 998f 7dbc 17ca 0cbd
00000380: 5f64 e33c 5397 eebc 17e3 3bbd 2f63 26bc
00000390: a36f 11bd 7d71 e13b 9a40 3b3d e2a3 753c
000003a0: 3ad3 febc 8f2f 2bbd 027c 053d d7db 1cbd
000003b0: 12f2 083c cc6c 7ebd b3ee 9ebc 4925 49bd
000003c0: ecc2 05bc dfc6 a73b 2e31 9f3b d2c3 c0bb
000003d0: e527 8ebc 6a36 6d3d 0c61 b63b 4af4 c4bc
000003e0: 9682 2cbd 18a4 14bd 770f 3c3c ec13 063d
000003f0: 62ab 22ba f1b5 433c 97be 03bd c6b6 9dbc
0.022239672 0.0018680232 0.042161673 -0.03881883 0.055016704 0.03366327 -0.01303373 0.028944917
0.0022939781 0.029897043 -0.016548438 -0.0142124 0.03991143 0.0049369754 -0.0011323076 0.037501123
0.017367667 0.010112087 0.02974205 -0.0051695956 0.025405254 -0.011469697 0.051362183 -0.037222654
0.030918257 0.01321057 0.011977561 0.049710084 -0.012044239 0.02950366 -0.013989245 0.0056058005
0.028184788 0.0010138111 0.017362438 0.028078215 0.013641946 -0.017950095 0.008160103 0.0072309626
-0.020204224 -0.008998182 -0.012525854 0.014316822 0.0116675 -0.035710704 0.049285155 -0.0066081206
0.0007239567 0.0026492157 -0.02044018 -0.048948366 0.018831499 -0.036692034 -0.0033980145 -0.014416559
0.022970453 -0.02210028 -0.03354477 -0.021707619 0.0019024459 -0.019688189 -0.016096435 0.012796592
0.01703922 -0.029576678 0.031703398 -0.014162217 -0.011822635 0.020289017 -0.027582226 -0.05542993
0.032615453 -0.028970117 -0.00555067 -0.030799625 -0.011902723 0.007576115 -0.048557032 -0.005761458
-0.038224753 0.019452874 0.0078083538 0.03394107 0.029116135 -0.004171633 -0.036509488 -0.02990138
0.009683471 0.05257272 0.014057133 -0.030471774 0.008803294 0.011789368 0.025328485 0.084386155
-0.011547088 0.0076652477 -0.0049114027 -0.00046065348 -0.023234457 0.027233684 0.018202053 0.020194637
0.034324054 -0.025827149 -0.04343496 -0.025115088 0.0043138177 0.066714965 0.042000566 -0.034939557
0.021611577 0.013378021 0.04973504 0.0643552 -0.030313436 0.012457606 -0.024020474 -0.010330486
0.010516028 -0.024042046 -0.049497373 0.05385867 0.10467173 -0.016771326 -0.029019663 -0.0023305116
-0.022523133 0.0140441 -0.007443421 0.040144645 -0.067808494 0.025185652 -0.021812998 -0.041069444
0.027631765 -0.0045922846 -0.04753844 0.045302432 -0.013833375 0.035769757 0.0291509 -0.07811071
-0.078924425 0.022895256 0.025601182 0.017210834 0.029330438 -0.03382613 0.009392762 -0.028619582
0.070775814 -0.056217592 0.03459944 0.05712559 -0.008542908 -0.0086358655 0.03091466 -0.05701508
0.0133997025 -0.0028532797 -0.019513067 0.061726812 -0.016577035 -0.013908068 -0.029619787 0.032224324
0.0054129553 -0.048729327 0.020293036 -0.015949825 0.003280016 -0.050158687 0.020891603 0.04621845
0.020984402 -0.03276825 -0.009589304 -0.031073583 0.028131803 -0.006398385 -0.023709193 0.047505405
-0.020965938 -0.010609442 -0.024358675 0.056457832 0.017496249 -0.044555746 0.01290802 -0.004667712
0.03185299 -0.056529205 0.026426781 0.0516847 0.025717752 -0.026157202 0.0021692493 -0.02028725
-0.0011884236 0.021554697 -0.00621022 0.016060218 -0.017173264 0.0052771918 0.043177396 0.026720922
0.009205827 -0.012125892 -0.044601858 -0.023283275 0.020956717 0.039888736 -0.038445722 0.047354057
-0.013290935 0.06351893 0.007397658 0.031716276 0.029676579 -0.019484913 -0.015476131 -0.034372415
0.027757822 -0.029124891 -0.045870867 -0.010155483 -0.035506856 0.006879984 0.045715906 0.014992686
-0.03110658 -0.041793402 0.032588966 -0.038295593 0.008358495 -0.062115476 -0.01940093 -0.049107824
-0.008164149 0.005120143 0.0048581576 -0.0058827186 -0.017353008 0.05791322 0.005565768 -0.024042267
-0.042116724 -0.036289304 0.0114782965 0.032733843 -0.00062053476 0.011945234 -0.032164183 -0.019252192

fc.0.bias f4 [100]
00000000: f26b 12bc 358e 1ebc fb9c ebbb dcd6 09bc
00000010: 6a41 47bc 5928 68bc a0ec 153a f893 86bb
00000020: 7422 13bb 2d49 45bc 88f7 0fbc 022f 4bbc
00000030: 89ea 2fbc db04 29bc a6ea 9bbb dcfd 54bc
00000040: dfaf 473c 1645 6abb 6d95 39bc 2d11 cdbb
00000050: 2ea3 9ebb 4586 34bc 856e 17bc 7f23 11bc
00000060: d080 00bd a91e 39bc 759a 27bc e030 913c
00000070: a0ed 26bc 9de1 b5bb 887d 22bc c1d1 4dbb
00000080: e49e 79bc 4eea 98bc 1356 36bc 2f54 17bc
00000090: 6e03 10bb 389e 43bc 4dff 26bb 296f feba
000000a0: ced2 2dbc f6d7 cfbb c119 14bb 6f1b e6bb
000000b0: 6224 febb 9a35 97bc 906a b5b9 f9ea 22bc
000000c0: 7ee6 dabb 5ce8 0c3c 12b7 d2bb 0562 a9bc
000000d0: 8108 43bc a421 7fbb 1002 03bc bcb6 2dbc
000000e0: 0121 1e3c b9d7 58bc 5753 2a3b 6d29 a3bb
000000f0: 50ef 28bc 18af 07bc 6362 59bc f03d f5bb
00000100: 89e8 25bc 7701 80bb 0d47 0cbc 0f5d 363c
00000110: ceb4 43bb 475b e6bb 988d 1dbd d538 f7bc
00000120: f5d0 e8bb 4c00 40bb fd7b e6bb cbd6 0cbc
00000130: cb1d 873c ce2c 45bc b1c4 d5bb 34e2 8dbb
00000140: 11a5 6d3c a139 28bc d446 d8bb 2e83 2ebc
00000150: 009c b53b d99d 10bc 1d56 69bc 049f cebb
00000160: 5920 74bb c2a3 4fbc 8ca3 20bc ef74 69bc
00000170: f0cb 903a bb21 ccbb 7609 05bc d8e4 10bc
00000180: b35b 15bc 7731 21bc 33f4 9cbc 3543 37bc
-0.008936869 -0.0096774595 -0.0071903444 -0.008413043 -0.012161592 -0.014169776 0.0005719159 -0.0041069947
-0.0022450956 -0.012041372 -0.008787043 -0.012401344 -0.01073707 -0.010316099 -0.004758197 -0.012999978
0.012187927 -0.0035746745 -0.01132713 -0.006258151 -0.00484123 -0.0110183405 -0.0092426585 -0.008858561
-0.031372845 -0.011298814 -0.0102296965 0.0177235 -0.01018849 -0.005550577 -0.009917624 -0.003140554
-0.015235636 -0.018666413 -0.01112892 -0.0092363795 -0.00219747 -0.011939578 -0.002548176 -0.001941179
-0.010609342 -0.006342883 -0.0022598358 -0.0070223133 -0.007755802 -0.018458176 -0.00034602406 -0.009943717
-0.006680309 0.008600321 -0.006430515 -0.020676622 -0.011903883 -0.0038929963 -0.007996097 -0.010602649
0.009651423 -0.013235026 0.0025989616 -0.0049793036 -0.010310963 -0.008281492 -0.013268086 -0.00748419
-0.0101262415 -0.0039064246 -0.008561862 0.011130585 -0.0029862407 -0.007029924 -0.038465112 -0.030178467
-0.0071049877 -0.0029297052 -0.0070338235 -0.0085961325 0.016493699 -0.012034608 -0.0065236916 -0.004329944
0.014504687 -0.010267646 -0.0066002402 -0.010651393 0.0055422783 -0.008826696 -0.014241722 -0.0063055772
-0.0037250726 -0.01267332 -0.009804618 -0.014249071 0.0011047106 -0.006229607 -0.008119931 -0.008843623
-0.009116101 -0.0098384535 -0.019159412 -0.011185457

fc.1.weight f4 [100, 100]
00000000: 36e0 e2bc 00be e63b 40d5 333b 0c89 933d
00000010: a12e b1bc 5fb2 983d f2f7 d7bc 4dd1 0dbd
00000020: 0711 ea38 99c4 40bc 354e 33bd 702c 173d
00000030: 3ca1 883d eb71 8b39 3032 5fbd c6ea 1dbc
00000040: 44d8 a0bb 316c bd3d 160c 9abc 0a3a 95bc
00000050: 47fd c13c 0a09 873c 91f9 993d 9d8c ffbb
00000060: 0b3c 973b 815b 13bc 54f8 ca3c 2ac8 603b
00000070: a63a 983d 9b70 85bc ad5c db3c 3749 b83d
00000080: f3ee 4d3d 79bf 85bc c49c 4a3c dda5 15bb
00000090: c204 1fbc 739e d8bc 575e a33d 2f32 05bb
000000a0: c08d 383d 5322 3f3d ea63 f7bc 5d82 8ebc
000000b0: b8d6 283b 6a40 2f3b b93f 85bb 21b2 603d
000000c0: 0350 ec3c 5911 9aba 0c8c b73c 0f02 c9bb
000000d0: 5deb bd3c 389b cc3c 0158 4ebb 3a5a 58bc
000000e0: e7e2 9fbc e454 b5bc 7a1d fd3b 15cb 7b3d
000000f0: 3b05 923c d400 9d3b fdcb 1d3b d359 233c
00000100: 5170 603d 9bde 8a3c fe90 1cbc d94b 403c
00000110: 32f8 8cbc b578 96bc 4f26 f1bc 5a64 e7bb
00000120: 3386 9e3c c3dd 833c 7f0e 82bc f3b3 beba
00000130: 2cda 163c 508b 8cbc 2d60 9cbc 447c 5b3c
00000140: 6292 093d 122e c03d 4887 da3d 4d02 7b3d
00000150: f0c4 cbbb 3071 4f3d f8eb 1c3c 1dcd b63b
00000160: 9764 db3b b683 333d d8fe 9dbc 2031 203d
00000170: 7e5b 72bb f4f8 05bd cab8 d53b be1c 823d
00000180: d531 573d 77a4 3a3d 09cb 7d3c 2b2d 843d
00000190: cf3b d03c 94ad bd3a 7be8 443b 3b4e 8abd
000001a0: a573 bb3c b4e4 97bd eaf1 023a fb50 a73c
000001b0: b38d 1e3d ac34 b33c 2983 5f3a da36 c2bc
000001c0: dee2 9dbd 7d7e f03c 912c aabc a58e 4cbc
000001d0: e91a 8cb9 20e1 babd e530 73bb cab6 96bb
000001e0: 92d1 bf3c 9453 2bbc 8a17 62bd 9ce9 223c
000001f0: 3d09 2f3c e76f efbb 61bf e3bc 7512 653c
00000200: c327 87bd 7564 4ebc 496d 2d3b 7159 84bd
00000210: be45 b3bd fdda 533d 9ae0 cb3c 271f c93c
00000220: ec60 a53b 8c7d da3c 2d22 d5bd 7ff7 0b3c
00000230: d5ac 163d 32f8 a0bd 421b 913c fbc0 44bc
00000240: 7956 a63c 65ab e23c 055b ca3b f54d c0bd
00000250: b450 183d e30b 22bd 62ea 78bc bc5e 293d
00000260: 8a21 fc3b 790f b7bb df9c 34ba 19c6 9cbc
00000270: cfc1 a6bb f6ad 873c 7021 90bc 1b8f 84bd
00000280: af5e 773d d66d 20bc 4641 c63c 7999 343d
00000290: 5bbf b5bd da98 cd3c 5e60 40bb 13b3 8c3c
000002a0: 25e1 263c adfb 083c 90e1 adbc 9043 773c
000002b0: 0984 b6bb bca0 533c 6a8c babb 7a87 f03c
000002c0: 332e 16bd e1eb 873c e79d 3e3c 07b3 54bc
000002d0: a43c f83c eb51 69bd 22fb babd 05c5 6ebd
000002e0: b546 99ba b8c3 d4bd 2dce 233a 692e 3f3d
000002f0: 8d35 9dbc e47f 25bd 30e6 99bb d5f8 77bb
00000300: 4ee0 063b 90e9 42bc b7d5 2a3c fe1d 1dbd
00000310: 71d8 6cbd bc01 b6bd 6aba 713c 7886 d6bd
00000320: 29a3 4d3c 3c7b 86bc cf16 96bc addb c1bd
00000330: 9ee0 b73b 6d83 2fbd cf37 aabc e273 1b3c
00000340: 9787 be3c 3443 23bb 7f5b 463d b3ad 17bd
00000350: 8f8a 70bd a693 3ebc b08d 973c 42bd ebba
00000360: 5cd8 64bc 8580 6ebd fae4 df3c 8a20 23bc
00000370: 94d1 c73c 17c2 453c 1665 8ebd 8372 243d
00000380: be91 8f3c 7e23 363a 914a 88bc afba 373a
00000390: 2b2e 65bd fee2 b93c e5e6 ad3c 96c0 76bd
000003a0: da82 87bd 4691 e13c eca5 e03c 41df 273d
000003b0: fc7b 243c 5792 3e3c fc31 56bd 7077 2a3c
000003c0: 6c02 163b f249 88bd 1082 183d 4b62 62bc
000003d0: e7ca c83b 901f a73b 318c 0bbc 7600 acbd
000003e0: 6b81 153d aceb 06bd 4390 b9bc 96bc 123d
000003f0: c517 2d3d 06ae adbb e284 e73c 5466 b53c
-0.027694803 0.0070416927 0.002744034 0.07203874 -0.02162868 0.074558966 -0.026363347 -0.034623433
0.00011161161 -0.0117656225 -0.043775756 0.036907613 0.06671378 0.00026597021 -0.054491222 -0.009638494
-0.0049085934 0.092491515 -0.018804591 -0.018216152 0.023680342 0.016483802 0.07518304 -0.007798745
0.004615312 -0.008993984 0.024776615 0.0034298995 0.07433061 -0.016289046 0.02677759 0.089983396
0.050276708 -0.016326653 0.012366477 -0.0022834458 -0.009705724 -0.026442742 0.07976978 -0.0020324101
0.04505706 0.046663594 -0.03019901 -0.017396146 0.0025762748 0.0026741275 -0.004066434 0.054857377
0.028846746 -0.0011754438 0.022405647 -0.0061342786 0.023183519 0.024976358 -0.003148556 -0.013205105
-0.019517375 -0.022135206 0.007724461 0.06147297 0.01782476 0.0047913585 0.0024077885 0.009970146
0.054794613 0.01695185 -0.009556053 0.0117368335 -0.017208192 -0.018368104 -0.029437212 -0.0070615234
0.0193511 0.016096955 -0.015876053 -0.0014549479 0.00920729 -0.017156273 -0.019088829 0.013396326
0.033586867 0.09383787 0.10670334 0.06128149 -0.006218545 0.050645053 0.009577744 0.0055786506
0.006695341 0.04382678 -0.019286558 0.03910935 -0.0036980803 -0.032708123 0.0065222727 0.063531384
0.052537758 0.045567002 0.015490302 0.064539276 0.025419144 0.0014471286 0.0030045796 -0.067532025
0.022882292 -0.074166685 0.00049951544 0.020424357 0.038709354 0.021875702 0.0008526319 -0.023707796
-0.07709287 0.02935719 -0.020773204 -0.012485181 -0.0002672293 -0.091249704 -0.0037108 -0.004599427
0.02341536 -0.010456938 -0.05519823 0.009943392 0.010683355 -0.007307041 -0.027801218 0.013981451
-0.06599381 -0.012597193 0.0026462844 -0.06462372 -0.08753537 0.051722515 0.024887372 0.024550987
0.0050469544 0.026671194 -0.10406909 0.008542894 0.03678592 -0.078598395 0.017713193 -0.012008901
0.020304905 0.027669618 0.006175401 -0.09389869 0.03718634 -0.039562117 -0.0151926 0.04135011
0.007694428 -0.0055865613 -0.00068898307 -0.01913743 -0.0050890218 0.016562443 -0.01759407 -0.06472608
0.06039303 -0.009791812 0.024201047 0.044091675 -0.08874389 0.0250973 -0.0029354314 0.017175233
0.010185515 0.008360785 -0.02122572 0.015091792 -0.005569939 0.01291674 -0.005693008 0.029361475
-0.036665153 0.016591968 0.011634327 -0.012982137 0.030302353 -0.05696289 -0.09129931 -0.05829336
-0.0011694046 -0.10388893 0.0006248679 0.04667512 -0.019190574 -0.04040517 -0.00469663 -0.0037837524
0.0020580473 -0.011896506 0.01042693 -0.03835868 -0.057823602 -0.088870496 0.014753917 -0.10474867
0.012551107 -0.016416185 -0.018321423 -0.09465728 0.0056114933 -0.042849947 -0.020778565 0.009488078
0.023258014 -0.0024911882 0.0484271 -0.037030887 -0.05872589 -0.011631882 0.018500179 -0.001798548
-0.0139676 -0.058228035 0.027330864 -0.009956488 0.024391927 0.0120702 -0.06952874 0.04014827
0.01752555 0.0006948038 -0.016637119 0.0007008714 -0.055952232 0.022691246 0.021228263 -0.060242258
-0.06616755 0.027535092 0.027422868 0.040984396 0.010039326 0.01163157 -0.052293763 0.010404453
0.0022889627 -0.06654729 0.037233412 -0.01381738 0.0061277035 0.005100198 -0.008517311 -0.083985254
0.036500376 -0.032939598 -0.022651797 0.03582438 0.042258997 -0.005300286 0.028261606 0.02214352

fc.1.bias f4 [100]
00000000: 097e 123b 9667 92bb a989 93bb 6439 61bb
00000010: dd74 a2bb 863b 583b 0f7c c0bb 6182 a4bb
00000020: da91 8fbb 5f6c 4c3b f539 57bb 0529 a33b
00000030: c916 aabb 2672 dcbb d692 5a3b 8293 423b
00000040: 3936 013b 96f7 803b 3578 af3b 5a7a 733b
00000050: 586b 843b 1de5 d9bb 667e 49bb b9d2 fa3a
00000060: b538 283b 85aa c63b 353a 76bb e54d ba3b
00000070: 565b 003b 0aa1 433b b0c8 a0bb ca91 053b
00000080: 69a3 84bb a3a5 b0bb 53f6 ba3b 832d 983b
00000090: 6f8b a4bb bc0a 04bb 21bc 8bbb e033 c1bb
000000a0: c1b4 f93a cd56 273b 124e 693b 2c9c 913b
000000b0: fe60 acbb e490 683b 6ce9 97bb 42dd 6dbc
000000c0: 0cb5 8fbb b182 9fbb a8ad 50bc d0c6 89bb
000000d0: 2227 023d 822c 9b3b ecdd 3abb 4359 7fbb
000000e0: 73de 813b 32fe b73a a601 8abb f021 85bb
000000f0: 5120 703b 21ed a03b 5b71 873b 4777 e3bb
00000100: 3e2d 78bb 7e87 aebb 05f6 bcbb 0900 a7bb
00000110: 618d 6e3b 9082 6bbb df54 083b 00f2 a4bb
00000120: 96d2 b0bb 272c 85bb 9778 9f3b fcc1 d03a
00000130: 31dc 733b 4446 383b 2985 08bb 3034 78bb
00000140: 21a8 6bbb c0e1 9e3b ecf7 a8bb 17c8 b63b
00000150: 4346 023c bb42 edbb e3a0 93bb 132f 1c3c
00000160: 31c1 ad3b e9a0 23bb 44b1 9abb 31d4 6c3b
00000170: 8352 90bb c266 db3b 32d6 6cbb 4971 923a
00000180: da57 b63b d25d b73b 131a c6bb a2fb 713a
0.0022352955 -0.004467915 -0.0045024944 -0.0034366483 -0.004957779 0.0032994463 -0.005874164 -0.005020425
-0.0043814005 0.0031192524 -0.0032840942 0.004979255 -0.0051907045 -0.0067274747 0.0033351681 0.0029689972
0.0019716157 0.0039357645 0.005354906 0.0037151785 0.0040411167 -0.006649627 -0.0030745505 0.0019136287
0.0025668566 0.006062808 -0.0037571315 0.0056855553 0.001958569 0.0029850625 -0.0049067363 0.0020381087
-0.0040478003 -0.005390839 0.0057056337 0.0046440973 -0.0050215046 -0.0020148 -0.00426437 -0.0058960766
0.0019051061 0.0025533915 0.0035599512 0.004443666 -0.005260586 0.0035486752 -0.0046359804 -0.014518084
-0.004385596 -0.0048678746 -0.012736715 -0.0042046085 0.0317756 0.0047355304 -0.0028513623 -0.0038963116
0.0039632856 0.0014037548 -0.0042116223 -0.0040628836 0.0036640356 0.0049110805 0.004133386 -0.006941709
-0.0037868763 -0.0053262105 -0.0057666325 -0.0050964397 0.0036400186 -0.0035935976 0.002080254 -0.0050337315
-0.0053961975 -0.0040641013 0.0048666704 0.0015926952 0.0037210102 0.0028118053 -0.0020831323 -0.0037872903
-0.0035958367 0.004848689 -0.0051565077 0.005578052 0.007951322 -0.007240621 -0.004505263 0.009532708
0.005302571 -0.0024967736 -0.0047208387 0.0036137218 -0.0044043674 0.0066955993 -0.0036138413 0.0011172678
0.005564672 0.005595901 -0.0060455888 0.00092309166

fc.2.weight f4 [100, 100]
00000000: cc23 893d 1b8a 23bd affb 03bd 0f1f 9abc
00000010: dd35 38bc 04f2 be3c 75a2 6c39 d935 1bbd
00000020: 977a 7ebd 066f 163d fefd 47bd 2e59 b73c
00000030: 99f3 2abd 7197 14bd dee0 843d ec8b bc3d
00000040: d005 373d 8684 853d e0ae bf3d 17e9 783d
00000050: 812b cfbc 859f 55bd 2cde dfbc 25bf 9c3c
00000060: c68e 1f3d 8a9a 023d 0b17 babd aee7 143c
00000070: a6ed a43d e745 593d 00e4 ecbc 9f7e 4a3d
00000080: 7d63 71bd af30 35bd 0729 443d 7322 673d
00000090: 1ae6 14bd 0f79 0dbd ecbc 1abd 3f1f b4bd
000000a0: 2ac1 243d 247b ad3d fbb2 9c3d ee55 bf3c
000000b0: 8c8c afbd d004 c63c c712 e1bc f3ad 37bd
000000c0: d45a 58bd 685d 39bd b079 71bc eafa d7bc
000000d0: 836e 25bc aa05 913d 3339 e3bc 319b 3dbd
000000e0: 94c3 463d 7db3 853d 9d79 4cbd 72c2 4bbd
000000f0: 09ac 583d d823 483c 47a1 cb3d 47a0 6dbc
00000100: ec69 48bd 141f 56bd 6c43 4bbd 5b73 c1bc
00000110: 9147 593d 1363 b1bc c9b5 953d a156 4cbd
00000120: c16c b3bd 72e7 46bd 8e1f 4d3c 6830 643c
00000130: 2091 5d3d 0510 463d a23b 8cbd fa93 89bd
00000140: 6446 233a 5d8d f33c c893 61bc a7be ca3c
00000150: 7111 213d 68ea 0abc 5a04 4abd 61e5 803d
00000160: b533 403d 0c8d 03bc 14ba f5bc ed68 883d
00000170: 4e96 f4bc 4749 033d 6c1e 14bd e739 bf3c
00000180: 1127 143d 0c8f 523d 4b33 41bd 248f 4d3c
00000190: 2c0f a2bd ade3 933d d81e 6dbb b639 5f3d
000001a0: b80e bb3c 0b5c 80bd 36a6 0a3d bd78 693c
000001b0: 2cda 383d a5d5 0cbd 0258 463d e1f9 51bd
000001c0: 0e7d 863d 0782 c13c 6d54 c8bd 2701 9dbd
000001d0: ac17 3cbc 4c6e 0bbd ff3a 83bd bde2 00bd
000001e0: aae1 4cbd 9ff4 e23c f43a 2f3d 9faf bbbc
000001f0: 50e8 86bd e7a2 cebd 9a48 2a3d d46b 1abd
00000200: 1853 bfbd 5e6f 5abb 4850 c63b 44f9 92bd
00000210: 1fd1 013d ddb7 c63c d850 5bbd cca8 48bd
00000220: 29b8 b63d 4ec9 e33c 83d7 463c 0835 943d
00000230: 06ee dbbd 94bf 3abd 1e72 98bd 0015 d2bc
00000240: c8af 773d 7d5c b5bc 40db 663d 62b1 4b3c
00000250: 3e0f 2e3d 36aa 033d 33f6 873c cf83 6f3d
00000260: 2927 c23c 11ff aabd 8c88 a13c 06e0 433d
00000270: 60f0 71bd 33ec 87bd 3071 9e3d f289 183c
00000280: 04ae 9bbd 49fb 95bd 2e67 40bd cd36 1b3d
00000290: b4c2 bc3d d01c b53c dfe1 943c ccf8 5b3d
000002a0: 6c17 3cbd 5a4e 473d 2907 77bd fb68 0e3c
000002b0: 0ee2 9c3c 3c2d 393d c80a 25bd 44e7 83bd
000002c0: 53ae 7abd 63de 17bd f818 ea3c 14e3 103d
000002d0: f4f6 473d 8833 53bd 9c96 573c 5aac ba3b
000002e0: f2b0 10bd 57c9 843d 7961 313d 075f 8fbd
000002f0: 3b0f 39bd ac1f 7c3d 6228 a53d 4fb9 8abd
00000300: 7884 193d c55c 2dbd 61d2 973c 6e67 16bd
00000310: 31bc 23bd 05a6 b3bd fdd1 35bc 66c2 99bd
00000320: d468 64bd 180d 523d bd70 073d 9967 573d
00000330: dd43 c03c 6587 c0bb d33d 173d 5aa7 633d
00000340: f463 943d 187f 5b3b 72ab 003d 5978 66bd
00000350: 116b 223d dc9d 1d3d 8b03 93bd a8cb 9abd
00000360: dcc5 1abd c2c5 e1bb 493e 07bd dd5e 63bd
00000370: 239b 0abd 94e9 703c 588a 013d b800 cabb
00000380: 065d 1bbd df7e 8bbd 725f 8b3d 2df8 e1bc
00000390: c54f 8abd 8d4c d1bc 58a0 303d 43dc 8fbd
000003a0: 75b2 8b3c 68e2 b93c 8a31 25bd 9ea8 30bd
000003b0: fabd d73c a278 93bb b2c9 053d 93e6 b83c
000003c0: 4c4e 66bd 8019 11bd 045b 88bd d535 8cbc
000003d0: d914 0b3d ef38 b2bd b59b 953b 6bac 403d
000003e0: 3f63 903c 5636 5a3d 781e 07bc f93d 863d
000003f0: 5e20 ab3c eb85 9fbd 6d9a 073d 9435 503d
0.06696281 -0.03992663 -0.032222446 -0.018813638 -0.011243311 0.023308761 0.00022567234 -0.03789315
-0.06212863 0.036726974 -0.04882621 0.022381391 -0.04173622 -0.03627724 0.064882025 0.092063755
0.044683278 0.065194175 0.09359527 0.060769167 -0.025289299 -0.052154083 -0.02732762 0.019134114
0.03895452 0.03188566 -0.09086426 0.00908844 0.0805314 0.05304518 -0.028917313 0.04943716
-0.05893277 -0.04423588 0.04789069 0.056429338 -0.036352254 -0.03453928 -0.037777826 -0.08795022
0.040223278 0.08470753 0.07651325 0.023356404 -0.08571729 0.024172217 -0.027474774 -0.044843625
-0.052820995 -0.045255095 -0.014738485 -0.026364762 -0.010097149 0.070811585 -0.027737236 -0.04629058
0.04852636 0.06528375 -0.049920667 -0.049745984 0.05289844 0.012215577 0.099428706 -0.014503545
-0.04892914 -0.052275732 -0.049624845 -0.023614576 0.053046767 -0.021653688 0.073100634 -0.049887303
-0.087609775 -0.048560567 0.01251973 0.013927557 0.05409348 0.04835512 -0.068473116 -0.067176774
0.00062284456 0.029730493 -0.013768144 0.024749113 0.039323274 -0.008478738 -0.049320556 0.062937506
0.04692431 -0.008029234 -0.029995956 0.06660638 -0.029856827 0.032052305 -0.036161825 0.02334304
0.03617007 0.05140595 -0.047168057 0.012546334 -0.0791305 0.0722116 -0.0036181714 0.054498397
0.022834167 -0.06267556 0.033849917 0.014249978 0.04512994 -0.034383435 0.048423775 -0.051263694
0.06566821 0.023621572 -0.09781728 -0.076662354 -0.011480253 -0.034040734 -0.06407737 -0.031466234
-0.050019898 0.027704535 0.04278083 -0.022910891 -0.06587279 -0.10089665 0.041573144 -0.03770049
-0.09342021 -0.003333054 0.0060520507 -0.0717645 0.031693574 0.024257595 -0.053543895 -0.048989102
0.089218445 0.02780595 0.012136343 0.072366774 -0.10738759 -0.04559286 -0.07443641 -0.02564478
0.060470372 -0.022138828 0.056361437 0.012432428 0.042495005 0.032144748 0.01659689 0.05847531
0.023700314 -0.08349431 0.019718431 0.047821067 -0.05906713 -0.06636848 0.077364326 0.0093102325
-0.0760155 -0.073233195 -0.0469734 0.03789406 0.09216824 0.022108465 0.01817411 0.053704068
-0.045920774 0.048658706 -0.060309563 0.0086920215 0.01915076 0.045209154 -0.040293485 -0.06440595
-0.061201405 -0.03707732 0.02857636 0.03537281 0.048819497 -0.051562816 0.013158467 0.0056968154
-0.035325 0.06483715 0.043305848 -0.07000547 -0.04518054 0.061553642 0.08064343 -0.06773626
0.037479848 -0.0423248 0.018532934 -0.036719732 -0.039974395 -0.087719 -0.011097428 -0.07507782
-0.055764034 0.05128202 0.0330665 0.052589033 0.02346986 -0.0058755153 0.036924195 0.05557952
0.07245627 0.0033492502 0.031413503 -0.056267116 0.039652888 0.038480625 -0.0717841 -0.075583756
-0.03778635 -0.0068900296 -0.033018384 -0.05551039 -0.033839356 0.014704127 0.031626076 -0.0061646365
-0.03793051 -0.06811308 0.06805314 -0.02758416 -0.06753496 -0.025549198 0.043121666 -0.070244335
0.017052868 0.022690967 -0.040330447 -0.043129556 0.026335705 -0.0045004645 0.032663055 0.022570884
-0.056227013 -0.03542471 -0.06657985 -0.017115513 0.03395543 -0.087022655 0.004565681 0.04703943
0.01762545 0.053274475 -0.00824701 0.06554789 0.020889457 -0.07789215 0.033106256 0.050832346

fc.2.bias f4 [100]
00000000: 99e6 c33a 9287 733a e0cc 6d39 fe9d ee39
00000010: c434 86b8 1331 3b3a ddc4 f539 1518 3e3a
00000020: 4464 1d3a ee0a 783a 9be5 e839 b321 2f3a
00000030: 49c4 013a c697 9d3a 0575 623a e592 b439
00000040: c22b 363a c261 633a 7437 493a ced3 5a3a
00000050: d5cd 543a 6c0d 1939 9dc4 6f3a fe88 213a
00000060: 38c3 263a b480 3739 7c8e 7c3a 3d0c 8c3a
00000070: a32b 813a 7b71 933a d59b 253a 1dd4 bb39
00000080: 4937 3c3b 08bc 3d3a 2b36 523a 6be8 deb8
00000090: fc6c 463a 416d 573a 6476 903a 4d5e 683a
000000a0: e3b2 a139 6cc6 773a fffa 723a 8fc8 c63a
000000b0: f2ac 3d3a c876 f739 a26a 563a b8a8 fc39
000000c0: a101 913a ccb0 2eb9 3da2 663a 6ff7 273a
000000d0: 3cd9 c039 a5d4 803a f970 133a 04c7 3b3a
000000e0: 8624 4c3a c9ed b53a 91a6 0a3a 7001 b03a
000000f0: 8559 633a 76e2 253a 717f 9439 60b3 3c3a
00000100: 7d06 913a afe5 9d3a 5ca3 083a 8f83 a93a
00000110: 5438 013a 3633 8f38 a4f7 823a 9b9b 3a3a
00000120: 2aa8 fd39 e3f2 0c3b eed5 183a 4e63 103a
00000130: 27af 7b3a 6abf 313a e2b4 503a 773a 1f3a
00000140: 5394 323a 517d 8e3a f250 aa38 3ad5 503a
00000150: a897 ff39 25e6 293a 7494 83b6 46ff 0b3a
00000160: 548e 383a a899 353a 974b b73a 0fb7 413a
00000170: 86de 3d39 797d 763a f6c2 6a3a 9e58 623a
00000180: c5f6 cf39 e529 863a 480f a23a 6bef 783a
0.0014946043 0.0009289916 0.00022678403 0.0004551261 -6.399446e-05 0.00071407965 0.00046876716 0.00072515133
0.00060040154 0.0009462078 0.00044421558 0.0006680742 0.0004950208 0.0012023381 0.0008638653 0.0003444172
0.00069492694 0.000867393 0.00076758047 0.00083476014 0.00081178296 0.00014596217 0.0009146424 0.0006162076
0.00063614873 0.00017500186 0.0009634269 0.00106848 0.0009854924 0.001124903 0.0006317471 0.00035825456
0.0028719476 0.00072377967 0.0008018936 -0.00010629076 0.00075693405 0.0008217879 0.0011021611 0.00088641496
0.00030841594 0.00094518694 0.0009268969 0.0015165972 0.00072355487 0.0004720001 0.00081793417 0.0004819089
0.0011063108 -0.00016659795 0.0008797979 0.0006407415 0.00036782946 0.0009828998 0.0005624439 0.00071631395
0.0007787425 0.001388007 0.00052891026 0.0013428163 0.0008672702 0.0006327996 0.0002832371 0.000719836
0.0011064556 0.00120466 0.0005212331 0.0012932884 0.0004929353 6.82831e-05 0.0009992016 0.0007118524
0.00048381212 0.0021507076 0.0005830218 0.00055079616 0.000960099 0.0006780537 0.0007961524 0.00060740806
0.0006812263 0.0010871087 8.121309e-05 0.00079663435 0.00048750383 0.00064811326 -3.9213865e-06 0.0005340468
0.00070402515 0.00069274986 0.001398432 0.00073896436 0.00018107341 0.0009402852 0.0008955443 0.0008634421
0.00039665974 0.0010235874 0.0012364173 0.0009496125

fc.3.weight f4 [100, 100]
00000000: 3853 e4bc 6639 823d 18e1 2b3d b6b3 41bd
00000010: eaae 5b3d f53b 8dbc 7b89 5cbd 7a7a e2bc
00000020: f99c 6d3d 2f9e 03bd 0884 a3bd ed98 67bd
00000030: 62c4 c8bc 2640 163d 2f89 80bd 8d0f 72bd
00000040: 4184 7b3d 03b7 5bbd a90b 5f3d b75e 153d
00000050: f3b7 1f3d 21f0 523d d92e 4c3d 9474 84bd
00000060: a6e8 8c3d a3cd 4abd 6f1f e73c 06d5 6f3d
00000070: 8e5f 563d 8d5e 7d3d 306c 7abd 2e27 dd3c
00000080: 7129 64bd 77f8 2fbd 2d82 b7bd f2dd adbc
00000090: b490 b7bc 0fcb 5d3d 2780 9a3d 6e14 883d
000000a0: 8ce0 e8bc dea1 163d 7d73 583d e9f7 86bd
000000b0: 6912 883d 70d9 9d3d 3462 8bbd 8783 4cbd
000000c0: ebb7 7e3d 367d b1bd 7e5d 1f3d d931 21bd
000000d0: fd73 203d 8a0d d8bc e866 38bd 1de3 28bd
000000e0: a2d6 d23c ac21 12bd f72a 8abd 162d 923d
000000f0: 7f9f 70bd 9291 b039 c91f 97bb 16ae 863d
00000100: cd63 7a3d 0eb5 d13c 5e59 88bd 27c1 5c3d
00000110: 2c26 46bd 8998 503d ab4c 313d 4a0b d0bc
00000120: f9b4 3dbd 7be0 b3bd e1c9 163d 0805 14bd
00000130: e391 55bd 0b5d 8c3d a72f a5bc e161 f33c
00000140: 097b 02bd a4a7 1b3d c680 42bd 7a22 83bd
00000150: 71a2 393d 35ae 6dbd 9300 89bd 7d35 2f3b
00000160: d02c 22bd 1c80 50bd c6f4 99bc d3fb 043d
00000170: 3a28 73bd 1367 31bd 26ba e43c 6210 2fbd
00000180: 4d09 1fbd efa2 8e3d 1c18 4e3d 8d03 1e3d
00000190: 3adc 70bd e176 7e3d ee98 523c 87eb b8bc
000001a0: 8d5d fd3c 674e 08bc 67e4 a8bd c1c3 01bd
000001b0: 49e1 4d3d 6d58 dfbc 0df7 f5bc 4607 34bd
000001c0: 09f5 26bd 82ae 4b3d c4d3 8fbd df67 8dbd
000001d0: 335d 3f3d 3266 b6bd 471b 2a3d 02b2 223d
000001e0: eacc d53c 7476 093d 11ab 4d3d 4bb3 3abd
000001f0: ea43 8f3d 1b58 04bd affa 723d de1b 463d
00000200: 584c 303d fa13 5b3d cf75 1a3c 1521 6e3d
00000210: 9a82 30bd c750 1abd f842 91bd 9a82 4ebd
00000220: 5644 0ebd 6f45 a13c a762 0a3d ca22 213d
00000230: 6b8f 38bd 1701 fb3c 21cb 2a3d 6ce4 43bd
00000240: d14c 793d bba6 4d3d c54f 53bd 48c1 3cbd
00000250: 63f0 663c 6974 49bd 1e76 833d 4c54 83bd
00000260: 91e4 f83c 0b2d 40bd a39d 39bd 212f b93b
00000270: 9cf7 1b3d f518 41bd cfb2 2dbd b58c f03c
00000280: e63a 98bd 242f 43bd 9f96 4fbd 62fe 953d
00000290: d541 783d ef9c 2f3d c804 1abd 7324 233d
000002a0: ab8c 81bd 6799 483d e028 dc3c abc3 54bd
000002b0: dcfd 28bd 99c8 a2bd 3b4b f53c b2d5 0abd
000002c0: 312f 2ebd 8109 b83d 929d f2bc b346 773c
000002d0: 333b 2ebd b278 943c 2c38 95bd 2afb 72bd
000002e0: d276 833d 9e84 6abd adc9 dcbc f2da 1d3d
000002f0: 2891 7cbd 9e9e 50bd d6a1 73bd 59a7 8b3d
00000300: 2692 8ebd 670d 71bd c219 5c3d 2a25 99bd
00000310: 4d17 49bd 6c27 643d fea2 8b3d b904 133d
00000320: 65ae 1c3d 30ad 5fbd 7bd1 50bd 580f 183d
00000330: 830b 70bd 7c1e 1d3d f051 6c3d fee2 303d
00000340: 5804 3cbc 660c 8e3d fe26 843c aa5a 243d
00000350: 5cec 8d3c 1ab5 96bb 5b36 963d d79f 473d
00000360: 7c1b 87bd 3152 203d 94b1 2abd 7ff5 3dbc
00000370: 557d 34bd 3ca6 43bd 34fe 2bbd 8632 4f3d
00000380: 2b0e e3bc 56e8 893d 7642 8ebd f445 18bd
00000390: 2cf8 3dbd d321 94bd cb1f ad3c 55d0 11bd
000003a0: 6817 e63c f72a 433d 0d91 8c3c 4e2b 803d
000003b0: b474 113d 9c47 83bd 6d81 25bd 0cf1 29bd
000003c0: a43c 9e3d dfe3 3abd a7f4 8ebd 756c 2b3c
000003d0: e340 7ebd 3e57 16bd d6d7 a23d 1dc7 4d3d
000003e0: 1dd8 06bd 5893 853d 6154 8abd 6aae 5d3d
000003f0: 4b46 67bd 8afe 443d 85e0 393d 1b32 ef3c
-0.027871713 0.06358604 0.041962713 -0.047290526 0.053633608 -0.017240504 -0.05384205 -0.027646292
0.05801103 -0.032133278 -0.07984167 -0.056542326 -0.024507705 0.03668227 -0.06276166 -0.05909686
0.061405424 -0.05364133 0.05445448 0.03646728 0.038993787 0.051498536 0.049849365 -0.06467548
0.06880312 -0.049512517 0.02821323 0.058552764 0.05233722 0.06185775 -0.061138332 0.026996221
-0.055703584 -0.042961564 -0.08960376 -0.021223996 -0.022407867 0.05414873 0.07543974 0.06644522
-0.028427385 0.036775462 0.052844513 -0.06590254 0.066441365 0.077074885 -0.0680584 -0.04993012
0.062187117 -0.0866646 0.03890752 -0.03935418 0.039173115 -0.026373643 -0.045020014 -0.041232217
0.02573711 -0.035676643 -0.06746476 0.07137506 -0.058745857 0.00033677794 -0.0046119434 0.06576173
0.061130334 0.025599029 -0.066576704 0.053895142 -0.048376247 0.05092672 0.043286007 -0.025396008
-0.046315167 -0.087830506 0.03681362 -0.03613761 -0.05214108 0.06853684 -0.020164324 0.029709758
-0.031855617 0.03800167 -0.04748609 -0.0640306 0.04532093 -0.058027465 -0.06689563 0.0026734762
-0.039593518 -0.050903425 -0.018793475 0.03246672 -0.059364535 -0.04331119 0.027920794 -0.042740233
-0.03882723 0.06964671 0.05031596 0.038577605 -0.058803774 0.06212509 0.012853844 -0.022573246
0.030928398 -0.008319474 -0.08246689 -0.031680826 0.050263677 -0.027263844 -0.03002503 -0.04395225
-0.040761027 0.04972697 -0.07022813 -0.069045775 0.04671974 -0.08906211 0.04152992 0.039720543
0.026098687 0.03356023 0.05021197 -0.045581143 0.069953755 -0.032310586 0.0593211 0.04836642
0.043041557 0.053485848 0.009427502 0.05813702 -0.0430933 -0.03767469 -0.070928514 -0.05041752
-0.03473314 0.019686429 0.03378549 0.039339818 -0.04505865 0.030640168 0.041697625 -0.047825262
0.060864273 0.050207835 -0.051589746 -0.046082765 0.014095399 -0.049183283 0.064190134 -0.06412563
0.030382426 -0.046917956 -0.04531635 0.00565137 0.038077936 -0.04714294 -0.042406853 0.02936397
-0.07433109 -0.04765238 -0.050680753 0.0732391 0.060609657 0.042874273 -0.037602216 0.039829683
-0.063256584 0.04897442 0.02687496 -0.051944416 -0.041257724 -0.07948417 0.0299431 -0.033895202
-0.042525474 0.08986188 -0.029616151 0.01509254 -0.042536926 0.018123958 -0.072861046 -0.05932156
0.064191476 -0.05725538 -0.026951635 0.03853888 -0.06166187 -0.05093252 -0.05948051 0.068190284
-0.06961469 -0.058850672 0.053735502 -0.074777916 -0.049094487 0.055701658 0.06818198 0.035893176
0.038252253 -0.054608524 -0.050981026 0.037124008 -0.05860473 0.03835915 0.05769533 0.043185227
-0.011475645 0.069359586 0.016131874 0.040125526 0.017324619 -0.0045992257 0.07334586 0.04873642
-0.06597039 0.039140884 -0.041673258 -0.011594175 -0.04406484 -0.047765955 -0.041990474 0.050585292
-0.027716717 0.06733768 -0.0694627 -0.037176087 -0.046379253 -0.07233014 0.021133324 -0.03559907
0.028087333 0.047648396 0.01715901 0.0625826 0.035511687 -0.06410143 -0.040406633 -0.041489646
0.0772641 -0.04562747 -0.069802575 0.01046287 -0.0620736 -0.036704294 0.07951324 0.050238717
-0.032920945 0.06522244 -0.06754375 0.054121412 -0.05646352 0.04809431 0.045380134 0.029198697

fc.3.bias f4 [100]
00000000: a333 093c 574d d33b b4b2 aebb 24c4 25bb
00000010: eaef c43b 2a59 3ebb 5d6b fe3b 5b72 ec3b
00000020: c9de 8ebb eadc e23b 4639 073c 4bde df3b
00000030: c6bf b3bb c1de 20bb c68b 83bb 703b e33b
00000040: bf0e afbb d8af c63b 3d86 d03b 8c2a 033c
00000050: 2968 74bb a32e 3ebb 5ef6 d23b ec21 bd3b
00000060: d7c9 babb ec41 093c cd47 06bb 7ab4 113c
00000070: f8eb a23b 04ce abbb da8a a3bb 9311 51bb
00000080: 546f 60bb 6f92 ee3b f943 c83b c7f4 5cbb
00000090: b3ce 0a3c c147 98bb 19e4 e13b 6bd1 d03b
000000a0: bee8 f13b fb56 e73b b884 df3b d397 80bb
000000b0: d5d7 8cbb dc4a 0a3c 8dee 77bb ada0 6dbb
000000c0: 02ea 7ebb df73 2dbb e310 003c eb04 86bb
000000d0: ed98 7abb 2e6b e43b 1f0d 10bb 789e 61bb
000000e0: b378 06bb 7ce5 95bb 1437 adbb 6d12 f13b
000000f0: 9912 a9bb eda5 d63b 7662 d63b 036b 91bb
00000100: a55c 87bb d007 4ebb ceec b33b 7e6f a3bb
00000110: 27bb 8ebb 3d27 d93b c3f0 d13b 9b40 d63b
00000120: b8b6 de3b 738d 48bb a06b 143c a143 043c
00000130: d717 053c d869 f53b d78b ef3b 96f0 153c
00000140: 2021 c43b 713a 94bb 7355 e63b f4c8 f63b
00000150: a034 fa3b a69b 0e3c 26f6 f83b 274b 28bb
00000160: d9c1 f63b 6556 fd3b 3767 fc3b f0cc 143c
00000170: 29a2 f83b cecf 0c3c 452c 65bb d1a1 043c
00000180: 509a a53b adcc c9bb 574a 8fbb a07e b9bb
0.008374128 0.0064484286 -0.0053313617 -0.002529391 0.0060100453 -0.0029044845 0.0077642635 0.0072157807
-0.004360054 0.0069233077 0.008253401 0.0068319193 -0.0054855077 -0.0024546834 -0.004014465 0.0069345757
-0.005342334 0.0060634427 0.0063636587 0.008005749 -0.003729353 -0.0029019497 0.0064380607 0.005771866
-0.0057003307 0.008377533 -0.0020489574 0.008893127 0.0049719773 -0.005243065 -0.0049909176 -0.0031901344
-0.0034246044 0.00728064 0.0061116186 -0.0033715235 0.0084721325 -0.0046472256 0.0068936464 0.006372621
0.0073824814 0.0070599294 0.006821241 -0.003924349 -0.00429819 0.008440699 -0.0037831396 -0.00362591
-0.0038896804 -0.002646677 0.007816526 -0.0040899417 -0.0038238124 0.0069707846 -0.0021980477 -0.003442673
-0.002051872 -0.004574476 -0.005286107 0.007356933 -0.0051596877 0.0065505416 0.006542499 -0.0044378056
-0.004130917 -0.0031437762 0.005490876 -0.004987656 -0.0043558064 0.006626992 0.006406875 0.0065384633
0.006796684 -0.0030601888 0.009058863 0.008072765 0.00812336 0.007489424 0.0073103714 0.009151598
0.005985394 -0.0045235683 0.0070292293 0.0075312797 0.007635668 0.008704102 0.0075977026 -0.002567956
0.0075304327 0.0077312463 0.007702734 0.009082064 0.0075876904 0.008594466 -0.0034969014 0.008095221
0.005053796 -0.0061584325 -0.0043728757 -0.005660847

fc.4.weight f4 [100, 100]
00000000: 2a22 50bd 0e6b 60bd 9880 8c3d e438 0a3d
00000010: 80d4 ecbc 5daa d03d 0da2 37bd 4c45 a9bd
00000020: df32 ba3d 362e 89bd 7083 4abd d1f0 28bd
00000030: f25d 0f3d 7fca 883d 167c 8f3d fd6e e1bd
00000040: 5b9f 1eb9 d5be c5bc 693b 05bd 07cc 06bd
00000050: df7b bc3c de72 c93d 9881 4abd afd7 a5bd
00000060: c11a a03c afe7 19bd 460c 873d 2bbe 48bd
00000070: f92e 45bd ff41 793d 11da 413d 2d70 043d
00000080: ce8f fc3c ed55 62bd 231f 5dbd ad61 a93d
00000090: 111a 1abd 531a 383d 0dc4 7cbd 3971 b0bd
000000a0: d514 69bd 831c 47bd a71d 84bd 72f4 333a
000000b0: 177c 833d 4ec7 83bd b6b9 5c3d c3fd f93c
000000c0: 1657 d33c b466 c53c e6d5 8bbd 45ee ba3d
000000d0: 683f ed3c b47e 3fbd 640e 803d d422 343d
000000e0: 715a 2e3d c742 623d e90c 6d3d c573 5abd
000000f0: f530 9f3d fa67 62bd ca16 98bd 2095 b93d
00000100: 9bcc 603b f3c6 a33d 1fe8 5bbd 8811 453d
00000110: 0d82 173d e260 4cbd b4b3 a3bc cc9f 3fbd
00000120: 25a5 6fbd 500f a73c ca74 86bd 1627 64bc
00000130: 4bd4 80bd d73f 56bd 8522 55bd 79d3 48bc
00000140: 818a cbbc fe83 573d 7a53 6bbd 2eaf 1dbd
00000150: a078 80bd 1e91 32bd eeeb 94bd 74dd 393d
00000160: d8cc 7cbd d6ef a3bd 30a5 4cbd 116a 64bd
00000170: 6d83 fcbc a085 77bd 4b5e 8e3d c447 21bc
00000180: ba45 d4bd 4ed3 433d 4e48 4b3d 06a4 223c
00000190: 6e91 c8bc 42be 44bd 9c13 133d 7f04 493d
000001a0: 4c0f 14bd 5df2 bf3d 20fb afbc a171 a6bc
000001b0: 2875 a23d 00b9 43bd 7975 b7bc 1fc9 bebc
000001c0: 7096 443d c88c 893d 13a3 a43d 75bd a2bd
000001d0: 0adc 503d f145 b8bc abbb 7abd 133a 18bd
000001e0: f3bc 5a3d 84f7 9d3d a3b1 1fbd 285e 08bd
000001f0: e11d ab3d e565 32bc 3f27 9b3d 13f5 efbc
00000200: 1336 d1bc 2840 673d 6f0b 953d ca99 1b3d
00000210: beef 14bb febc 1cbd 7cee 6dbd 8722 043d
00000220: c866 82bd 6552 9d3d 0c14 85bd fadb 98bd
00000230: 1c6d 40bd 8620 8dbd 5990 a2bd 6cb7 8a3d
00000240: f866 a63c f750 f4bc c22a 8b3d d3cd 923d
00000250: e302 b03d 8ed6 803d e8a8 09bd ba9a c83c
00000260: 72a6 803d 837b 91bd 5beb 1b3d d02d 973d
00000270: e95e 433d 1d0d ea3c 1e5c 8a3d 9609 48bd
00000280: 5dfa 093d ee8d 0cbd 47ca 8abd b796 a63c
00000290: 0571 403d 762b 883d 827b 6abd 9751 573d
000002a0: 181f a73d 6d7a 89bd 45b1 82bd a627 52bd
000002b0: b94f 90bd 388f 4d3d 38b1 a7bd 63ef 7cbc
000002c0: 585e 09bc 5202 7abd 4735 50bd f92d bdbb
000002d0: 2283 fabc 853f e83c e3f9 d9bc ff6c d4bc
000002e0: 1f21 5abd 640c c5bc 5888 2cbd 4e3d 683d
000002f0: 5aa7 14bd 37f4 6bbd b46b 0bbd 110e 4ebd
00000300: c0b0 16bd e8a7 b7bc a648 3d3d fc46 c3bc
00000310: 58b5 7bbd 671d b13d 7937 393d bec1 8f3d
00000320: d03c 343c d56d 173d 411c c9bb 472a e1bc
00000330: 26c9 463d 3ac9 94bc 734e 3d3d 3961 833d
00000340: eba2 89bd 8299 5b3d c1fb bc3c 0a54 b73c
00000350: 040b 5abd 788a 81bd 77d0 55bd dc02 bc3c
00000360: 46e8 3bbd 3401 283d 74a1 123d 199d be3c
00000370: af9e 45bd 0ab6 72bb 5a1b 533d 7381 973d
00000380: 4425 2fbd 2e62 043d f2e1 39bd a6a8 1e3d
00000390: d8ab 4a3d 0536 1abd d8c9 a0bc 2692 11bd
000003a0: 2151 85bd 2f88 ca3c 5bf6 953d 016a 90bd
000003b0: c3b9 a03d ed9b 3dbd 09fa a73b 1dd6 f73c
000003c0: 1dbe ca3c ab62 8c3c 9074 5f3d 662b 7fbd
000003d0: eae0 2abd e049 cd3c 23ff 37bd 692f a3bc
000003e0: 9c2d 8dbc 4c02 d7bc cb86 483d b0db 92bc
000003f0: 5510 abbd 8c72 873c 5577 66bd 393c 3abd
-0.05081383 -0.054789595 0.06860465 0.03374566 -0.028909922 0.10188744 -0.044832278 -0.082651705
0.09091734 -0.06698267 -0.049441755 -0.041245285 0.035001703 0.06679248 0.070060894 -0.110074975
-0.00015127419 -0.024138847 -0.03252736 -0.03290942 0.023008285 0.09836362 -0.049439996 -0.08097779
0.019544007 -0.037574466 0.06594138 -0.049009483 -0.0481405 0.060853954 0.047327105 0.03233354
0.03083029 -0.055257726 -0.053984772 0.08270583 -0.037622515 0.04494698 -0.061710406 -0.086153455
-0.056904633 -0.048611175 -0.06450968 0.00068647333 0.06420153 -0.06434499 0.053888045 0.03051651
0.025798362 0.024096824 -0.06827907 0.091274776 0.028960899 -0.046751693 0.06252745 0.043978527
0.04256672 0.055239465 0.05787364 -0.053333063 0.0777301 -0.05527494 -0.07426222 0.090616465
0.0034301642 0.07996931 -0.053688165 0.048112422 0.03698926 -0.049897082 -0.01998315 -0.046783254
-0.058507103 0.020393044 -0.065652445 -0.013925334 -0.06290492 -0.052306976 -0.052034874 -0.01225745
-0.024846317 0.052616112 -0.057452656 -0.038497142 -0.062730074 -0.043595426 -0.072715625 0.04537721
-0.06171879 -0.080047294 -0.049962223 -0.055765215 -0.030824387 -0.06043017 0.06951579 -0.00984377
-0.10364862 0.047808938 0.049629502 0.009926802 -0.024483409 -0.048033006 0.035907373 0.049076553
-0.0361474 0.09372399 -0.02148205 -0.020317854 0.07932502 -0.04778385 -0.022394883 -0.023289261
0.04799503 0.06716305 0.080389164 -0.07946292 0.050991096 -0.022494288 -0.06121413 -0.03716476
0.053402852 0.077132255 -0.038987767 -0.03329292 0.08355308 -0.010888551 0.07575845 -0.029291665
-0.02553848 0.05645767 0.072775714 0.03798846 -0.0022725905 -0.038266174 -0.058088765 0.03225949
-0.0636726 0.07681731 -0.06497964 -0.07463832 -0.046979055 -0.06890969 -0.079376884 0.06773266
0.020312771 -0.029823763 0.06795265 0.07168164 0.085943006 0.06290923 -0.033608347 0.024487842
0.06281747 -0.07103636 0.03806625 0.07381785 0.047697935 0.028570706 0.06755851 -0.048837267
0.03368603 -0.034315042 -0.067768626 0.020335538 0.046982784 0.066489145 -0.057246692 0.052568045
0.081602275 -0.06712804 -0.06381468 -0.051307343 -0.07046456 0.050185412 -0.08188099 -0.015437934
-0.00838431 -0.06103737 -0.05083206 -0.0057733026 -0.030580107 0.028350601 -0.026608413 -0.02593088
-0.053254243 -0.02405376 -0.042122215 0.05669909 -0.03629241 -0.05760595 -0.03403826 -0.050306384
-0.036789656 -0.022418931 0.04621186 -0.023837559 -0.06145224 0.08648186 0.04521892 0.07019375
0.011000827 0.03696998 -0.0061374013 -0.02748598 0.048531674 -0.018162359 0.046217393 0.06415028
-0.06720527 0.053613193 0.023069264 0.02237894 -0.05323316 -0.06325239 -0.05220076 0.022950582
-0.04587581 0.041016772 0.035798505 0.02326827 -0.048247036 -0.0037034773 0.051539756 0.07397737
-0.04276015 0.032320194 -0.045381494 0.038735054 0.04948029 -0.037649173 -0.019627497 -0.03553977
-0.06509615 0.02472314 0.07322379 -0.07051469 0.07847931 -0.04629128 0.005126242 0.030253464
0.024748856 0.017136892 0.054554522 -0.062297247 -0.0417184 0.02505964 -0.04492105 -0.019920068
-0.017233662 -0.026246212 0.048956674 -0.01792702 -0.083527245 0.016534112 -0.056266148 -0.04546759

fc.4.bias f4 [100]
00000000: ad63 6b3c eab4 023c 3b66 d13c 9e96 773b
00000010: 6052 223c 3c8c 003c 9bcb cc3c 64e0 133c
00000020: 13cf d23c 08f5 993c f4fe d03c c8bd 423c
00000030: 9471 cc3c 9f19 d13c 43a0 593c 4a29 d13c
00000040: fd46 f53b a4a8 d43c 67d1 d13c 58d9 ce3c
00000050: d94a 193b c305 ff3b 2062 323c 5fbf d43c
00000060: b06b c63b 2d8c d13c c992 d23c e248 d53c
00000070: 3f62 ac3c fde3 cb3c 7d79 cc3c 058b cf3c
00000080: 9f5a d03c d6a0 cd3c 992e 983c ca80 fa3b
00000090: 4786 d33c 3f7d 0c3a 923e 133c f67d b13c
000000a0: d469 d43c 0881 d13c 3f48 d53c 707a ef3c
000000b0: c82e d23c e077 3c3c 1a17 8b3c 6692 243c
000000c0: 54ba cd3c 6033 873c 349f 723c 9511 d73c
000000d0: 789d cd3b c5cf d13c 47d9 cc3c faa7 a33c
000000e0: c9bd d13c 7aec 243c 396c c93c 51b3 ce3c
000000f0: 13e6 743c 9bbb 8d3c 57a4 ce3c f770 673c
00000100: f63e cd3c a075 cf3c 5a28 d03c 1131 943c
00000110: 495c aa3c 4f91 d03c 5c51 d33c 2a51 243c
00000120: 740a ce3c 7232 cf3c c557 6e3a df7b 1c3c
00000130: 7b53 073d 9609 d13c fb2c d43c a6ec cc3c
00000140: cb66 a73c 1604 d93c 2a1c d23c 85ad 0b3c
00000150: 5f77 ca3c 4a08 d23c a454 963c 2b66 1a3d
00000160: 4a89 a03c 9f70 c03c e3ee 813b dee6 5b3c
00000170: dee9 ee3b 742f a83c f202 d03c 61c7 863b
00000180: ddc4 ca3c 7e0d 173c 5dda cc3c 3ad3 903b
0.014367026 0.007977704 0.025561443 0.0037778984 0.009907335 0.0078459345 0.02499943 0.009025667
0.025733506 0.018793598 0.025512196 0.011886068 0.024956502 0.025524912 0.013282838 0.025532383
0.007485269 0.02595932 0.025612546 0.025250122 0.002339056 0.0077826693 0.010887653 0.02597016
0.006055318 0.025579536 0.025704758 0.02603573 0.021042941 0.024888987 0.024960274 0.025334844
0.025433837 0.025101107 0.018576907 0.0076447474 0.025820864 0.00053592393 0.008987086 0.021666508
0.025929369 0.025574222 0.026035426 0.029233187 0.025657073 0.01150319 0.01697879 0.01004467
0.025113262 0.01650399 0.014808465 0.026253501 0.0062748753 0.025611768 0.02500595 0.019977558
0.025603192 0.010066146 0.024587737 0.02523199 0.014947432 0.017301371 0.025224848 0.014126054
0.025054436 0.025324643 0.025409866 0.018089803 0.020795958 0.025459914 0.025795631 0.010029117
0.025151469 0.025292609 0.0009092058 0.009551018 0.033038598 0.025517266 0.025900355 0.025015187
0.020434758 0.026491206 0.025648195 0.008525257 0.024715124 0.025638718 0.018350907 0.03769509
0.019596715 0.023491202 0.003965245 0.013421742 0.0072910627 0.02053044 0.02539203 0.0041131233
0.024752075 0.009219525 0.025006467 0.0044197114
