results/Smoothed_InfoNCE_dim10_reg1_alpha0.1.pt (torch, 305581 bytes, 13 tensors)

fc.0.weight f4 [100, 20]
00000000: 7818 f43b 1960 383c edf6 babc 0067 483c
00000010: 485b 523c 68a4 b23c 59e8 3abb 6cbd 07bc
00000020: bdc7 18bb fdcb 843c cc4c 09bc 38d3 5cbc
00000030: d76c ce3c 1bd4 67bc d5a8 12bc 96a2 7bbc
00000040: 3b96 d43a ee4e 3e3c 4bd0 143b 0433 5ebc
00000050: 5416 a33d 8ec2 90bd 7dda 603d 85f5 56bd
00000060: 7594 bb3c 222c 76bd f743 2a3c 4596 0c3e
00000070: a0ed 1bbd a6ce 7ebd af33 6ebd 6edb 843d
00000080: 6d6b 4ebd 3d77 323d 314d bebb b27d 8d3d
00000090: 063b 3a3c 115b d6bd 9d54 b93c cad1 a03d
000000a0: aa73 a8bc c2b9 35bd fd02 aebd 272b 843d
000000b0: 15f7 143d 42a2 3bbd 6b3a ba3c a396 9e3d
000000c0: 6c34 873c 7e5f 5b3d fbb5 753b aece 1d3d
000000d0: 5c9b d73d 8b45 b2bd 2332 61bd f0e7 113d
000000e0: bafd c93a cc56 b2bd 77f8 3dbc ed96 4dbd
000000f0: 28e5 8b3d 1338 3b3d 13a8 8bbd ce9e 3abd
00000100: cba9 ce3c 6e95 f03b 7235 de3c 6762 cebd
00000110: d2b7 893d 9684 363d 4951 7bbd 8c71 a4bd
00000120: 2186 ad3d d283 2b3d cd18 febc 0914 edbc
00000130: 2447 34bd 0e6e d13d f475 94bd 7d55 28bd
00000140: 4cde 75bc 650f a9bd 6981 30bd 5043 d9bc
00000150: 0773 773d 7966 a0bd 336a 21bd 8c26 08bd
00000160: 5dbd 3b3d 1625 ce3c be20 3a3a 09cf 963d
00000170: f0e6 063d a146 ab3c 1e59 86bd 6577 8e3d
00000180: 58b9 383d 638d 413c 8ddd 28bd f143 4cbc
00000190: 21c7 e6bd 463b bc3d 636d 713d 0306 71bc
000001a0: 80e7 2d3b 5c9f 9ebd 2cad f338 a504 9fbd
000001b0: 5d21 393d 42a5 d63d 15d1 d93d 85d2 95bd
000001c0: 2dd4 c4bc fe36 b7bb 1bed a93b 2f2c c23d
000001d0: 7d07 c33c 732e 9b3d 6b4f 6bbd 149a b3bd
000001e0: d015 e4bb ae78 963c 2637 66bd 8070 b03b
000001f0: daf4 953d 566f 9cbb 2c07 323d d492 25bc
00000200: 4aa7 0ebd 8b2c 433d db85 9cb8 5c9c 45bb
00000210: daa8 74bd baed 01bc e2ea 003d 3ac6 4ebb
00000220: 5b61 7c3d 6fbc 02bd 7192 21bd 8fd4 3d3d
00000230: 28a8 553b c5ae ccba d35b ca3c 3972 72bd
00000240: 1a1b 44bc 96d8 813d 4509 373d 890d 04bd
00000250: 40ad cc3a 22eb 0ebd 935a 4c3c 2954 233c
00000260: 110b ec3c c7f6 bdbd b2e4 693c a802 743d
00000270: 5881 903d ee22 2dbd b41f 8e3c e433 12bd
00000280: 8cb9 5bbd fb0c 0ebd 6950 37bc 0717 ec3d
00000290: af35 1e3d 482a a93c c519 cabd 660d 633d
000002a0: 6647 c1bb 2d1d 14bd 1e43 253d 923b b93c
000002b0: 17ad d8bb b204 d7bd 9568 a3bc 4d52 bfbc
000002c0: b274 a03d f28a b2bd e284 c43c 3b8b 063d
000002d0: 4da7 e63c dec7 9d3d 052e d2bd ca7c b03d
000002e0: 74b8 acbd 18bd a1bd 6727 53bc 6a40 c43c
000002f0: 1e69 95bc 8aae 47bd 8c5c d5bc 1160 a1bd
00000300: ca54 e33d f726 afbd ea97 8e3d 17af b93d
00000310: 6267 c23c 9ffb e5bc 10f2 c73c e623 203d
00000320: 0c45 1b3d 1edd 863d 015b 1fbd b597 98bd
00000330: 16ff 5c3d f503 babd e32a 3e3d fba5 c0bc
00000340: dc38 b7bd 9b55 81bd 6ed0 21bd 8286 bcbd
00000350: 674c f83c bbba 903d 70cd 5fbd 7934 9d3d
00000360: 5fac 98bd 20cc e93c 03ce 943d d3b2 6e3d
00000370: 8b64 413d 1e86 0fbc 6de5 85bc 4fe1 57bd
00000380: 8ca3 1e3d 7919 86bd 2601 70bd 0780 943c
00000390: b5f6 c9bd d407 c3bc ba97 623d df56 8a3b
000003a0: 48e5 e9bc bc4f 45bd de16 4e3c 01cb e8bc
000003b0: 171e 08bd 0bc4 0b3d 6027 8ebd f2af 30bd
000003c0: 80f2 b43c 37ce 0a3d 4fe4 68bd d222 21bb
000003d0: 3358 12bd f6d9 ca3c 6877 21bd 8785 ee3a
000003e0: c55d 74bd bada 9f3a 2923 e6bb 3a6c 22bd
000003f0: bb50 733d 1f29 3ebb c897 323d 5abb cbbc
0.007449206 0.01125338 -0.022822822 0.012231588 0.012839146 0.02180691 -0.0028519838 -0.008284908
-0.0023312413 0.01621055 -0.008380126 -0.013478093 0.025198383 -0.014149691 -0.0089513855 -0.015358588
0.0016219089 0.011615498 0.002270716 -0.013561968 0.07963243 -0.07068358 0.054895867 -0.05248024
0.022897938 -0.060100682 0.010392181 0.13729198 -0.038068414 -0.062208794 -0.058154758 0.064871654
-0.050395418 0.043570746 -0.005807542 0.0690874 0.011366611 -0.10466588 0.022623355 0.07852514
-0.020562965 -0.044366606 -0.08496664 0.06453543 0.03636845 -0.045809038 0.022732934 0.077435754
0.016504489 0.053557865 0.0037492502 0.038527183 0.10527679 -0.087046705 -0.054979455 0.035621583
0.0015410699 -0.087079614 -0.011594883 -0.050192762 0.068308175 0.045707773 -0.06819167 -0.045561604
0.025227448 0.007342032 0.027125094 -0.100773625 0.06724514 0.044560038 -0.061356816 -0.0802947
0.08472849 0.04187376 -0.031017685 -0.028940218 -0.044013157 0.102260694 -0.0724906 -0.041097153
-0.015006613 -0.082548894 -0.043092165 -0.026521355 0.060412433 -0.07832045 -0.03940792 -0.033239886
0.045834888 0.025164168 0.0007100216 0.073637076 0.032935083 0.020907702 -0.065599665 0.069563664
0.045098633 0.011813494 -0.041226912 -0.01246737 -0.112684496 0.09190993 0.05894221 -0.014710906
0.002653569 -0.07745239 0.00011619399 -0.07764558 0.045197833 0.10480739 0.10635582 -0.07315544
-0.024026955 -0.0055912724 0.005185736 0.094810836 0.023807282 0.07577219 -0.057448786 -0.087696224
-0.006960608 0.018368091 -0.056204937 0.005384505 0.07322092 -0.0047740145 0.04346387 -0.010105807
-0.034827508 0.0476499 -7.463592e-05 -0.0030153012 -0.059731342 -0.007930214 0.031474 -0.0031551258
0.061616283 -0.031917986 -0.039446298 0.04634529 0.003260145 -0.001561605 0.024701988 -0.059190962
-0.011969352 0.063401386 0.044686574 -0.03223947 0.0015615597 -0.03489221 0.012472766 0.009968796
0.02881387 -0.09275585 0.014275717 0.059572846 0.0705592 -0.04226964 0.017349102 -0.035694018
-0.05364375 -0.034680348 -0.011188605 0.115278296 0.038625415 0.020650044 -0.098681964 0.0554327
-0.005898404 -0.036160637 0.04034721 0.022611413 -0.006612431 -0.104989424 -0.01994733 -0.023354674
0.07834758 -0.08717908 0.023989145 0.032847624 0.028155947 0.07704137 -0.10262684 0.086175516
-0.08433619 -0.07897395 -0.012887812 0.023956496 -0.0182386 -0.048750438 -0.026045106 -0.07879651
0.111001566 -0.08552354 0.06962569 0.09066599 0.023730937 -0.028074084 0.024407417 0.039096735
0.037907645 0.065851435 -0.038905147 -0.07450811 0.053954206 -0.09082786 0.04642762 -0.023516646
-0.08946392 -0.06315156 -0.039505415 -0.09205343 0.030309869 0.07066866 -0.05463928 0.07676024
-0.07454752 0.028539717 0.07265856 0.05827601 0.047215026 -0.008760003 -0.01634475 -0.052705105
0.03873019 -0.06547827 -0.058594845 0.018127454 -0.09861509 -0.023807444 0.05532048 0.0042217816
-0.028551713 -0.048171744 0.012578694 -0.028417112 -0.03323182 0.034122508 -0.06941104 -0.043136545
0.02208829 0.033888068 -0.056858357 -0.0024587405 -0.035728645 0.024762135 -0.039420515 0.0018197753
-0.059659738 0.0012195923 -0.0070232344 -0.039653994 0.059403162 -0.002901621 0.04360178 -0.02486961

fc.0.bias f4 [100]
00000000: 1d00 38ba 9190 d3bc c5b5 27bc e7d4 82bc
00000010: 421e 4f3a d11e e9bc 0d8a 0cbd b2e2 16bd
00000020: b2e4 aabc 573e e1bc 23c4 f5bc 4b31 02bd
00000030: 3c4f 003b 4357 0cbd 2849 28bd d62f e9bc
00000040: abf7 ffbc 470d a3bc 7eb8 cbbc 2a29 e7bb
00000050: 0689 4a3b e1d8 e6bc 291f 12bc 161b 3dbc
00000060: 8d93 00bc d209 86bc 043a bfbc fc1d 01bd
00000070: d4b2 25bd d469 7fba 4f22 b0bc 7abc 1dbd
00000080: 0d9f f6bc cc1d a9bc a409 6dbc b7d7 f6bc
00000090: 040c f5bb 459e 1cbd e85f f1bc 6d14 e6bc
000000a0: d428 d3bb 4d4d 33bb adbd aebc a23c d1bb
000000b0: fcbd 80bc de64 3abc 2a2b 66bc 2626 71bc
000000c0: 00e1 0ebd b5a2 febc a2cb 0dbd 9958 6c39
000000d0: 554b 34bc f36e dabb 395e 8fbc 29f3 033c
000000e0: 78d3 32bc e034 1fbc 5172 07bd e40f 2f3b
000000f0: 09ff e9bb 9cd5 81bc faac 22bd 1c55 16bd
00000100: b5a4 17bd 1db7 03bd d134 f3bc fc35 573b
00000110: 687e 403b c0e7 e6bc aa61 16bd 259f e3bc
00000120: ebdb 1ebd 33e8 15bc 1c7d c0b9 1d19 50bb
00000130: c940 89bc 8e90 a1bc f18a 18bd 9790 fdbc
00000140: 7f4e 113c 0f50 9abc 5690 06bd 748d 4fbc
00000150: 9634 72bb c0ab 24bd 4781 5dbc e341 3fbc
00000160: 1e02 92bc bf29 cfbc 3338 30bd d231 5abc
00000170: 1384 6c39 2fc2 dfbc 4320 5ebb 61f9 c0bc
00000180: 1ce7 8dbc 478c 5dbc 1f41 86bc fecb 4ebb
-0.000701906 -0.02582577 -0.010236208 -0.01597066 0.0007900932 -0.028457077 -0.034311343 -0.036837287
-0.020861004 -0.027495546 -0.030000752 -0.03178529 0.0019578477 -0.034262907 -0.041085392 -0.028465193
-0.031246027 -0.019903792 -0.024868246 -0.0070544677 0.0030904426 -0.028179588 -0.008918562 -0.011542102
-0.007847679 -0.016362105 -0.023343094 -0.031522736 -0.040453747 -0.00097432476 -0.021500735 -0.038509823
-0.030105138 -0.020644091 -0.014467631 -0.030132158 -0.007478239 -0.038236875 -0.029464677 -0.028085912
-0.006444076 -0.0027359307 -0.021330679 -0.006385402 -0.015715592 -0.011376588 -0.014048377 -0.014718568
-0.034882545 -0.031083444 -0.034618028 0.00022539719 -0.011004289 -0.006666058 -0.017500984 0.008053579
-0.010914676 -0.009717196 -0.033068005 0.0026712352 -0.0071409983 -0.015848927 -0.039715745 -0.03670226
-0.03702231 -0.032157052 -0.02968827 0.0032838574 0.002937222 -0.028186679 -0.036714233 -0.027785847
-0.03878395 -0.009149599 -0.00036714307 -0.003175325 -0.016754525 -0.01972225 -0.03724188 -0.030952735
0.008868813 -0.018837003 -0.032852493 -0.012668002 -0.0036957613 -0.040202856 -0.013519592 -0.011673423
-0.017823275 -0.02528846 -0.043022346 -0.013317542 0.00022555915 -0.027314274 -0.0033893741 -0.023556413
-0.017322116 -0.013522214 -0.016388474 -0.0031554694

fc.1.weight f4 [100, 100]
00000000: d11a 9dbc 5b33 943d e75d 843d 4cf5 103d
00000010: 96da 5ebb a50d 8b3d 617d 49bd acea b7bc
00000020: b130 533d c02c f33d be34 463c 058d dabc
00000030: e023 003d 2456 2ebc 929e a3bd 5214 d83d
00000040: 1737 c5bc 50ca ba3d a8fa 293d 8e08 03bd
00000050: a13f 7a3c b1e9 283c 5866 943d 6a07 283d
00000060: f684 a23d ab83 bbbd 142d 823d 1762 59bc
00000070: 4fbb 85bc ec40 dfbb 7b95 d23d 5cef 51bb
00000080: 1d0d 753c ac4c 87bc eec3 933d 1ac7 69bb
00000090: eed2 d1bc 8d8e d8bc dd8d f23d 7de5 c93c
000000a0: 2274 723d 14e2 bdbd 4238 c539 b5c9 033d
000000b0: 3b4c a53d 39c7 bf3d 2c6f ddba 8d8f 933d
000000c0: b876 4bbc 7298 39bc 5f57 b2ba b71b de3c
000000d0: 4847 743d 20b2 ed3d 4dd1 d43d a58a 853c
000000e0: e68c 4bbd 00ff acbc 1527 78bc a788 673c
000000f0: 7dfb ff3d cde4 9dbd fb90 a93b 060f 8c3b
00000100: 012a eabc d4a7 933c 8fee 0a3e cf04 2abc
00000110: e8e5 7bbb 9cc0 f23c a9ac 08bd 51ff 153a
00000120: 6a40 de3a 3363 1b3d fa19 56bc 1cc9 2e3c
00000130: 7824 7fbc 00d6 7dbc d118 fabc 5490 863b
00000140: e95b 4b3d b9e6 b73d f425 b23c e0ea 353c
00000150: f8be 24bc 8f14 f1bc b090 bd3d 24b0 073e
00000160: 1a5c 5f3d 56fa 993c 9f04 56bc 79e7 eabd
00000170: 874a 2cbc a12c 36bd e38e 86bc a3dd 2c3e
00000180: 11cc d63d b952 83bc 456e 023e e828 92bd
00000190: 45d8 2f3c 8f23 99bd 1e13 3fbd 2887 0bbd
000001a0: eb98 d33b 57e0 dabd 4bfc a03c a48c 683c
000001b0: 51bb 93bc cff1 87bd 0821 bebd cf79 ca3c
000001c0: d248 a0bc 55e0 153d 71ae 0a3b 16d6 dfbd
000001d0: 6559 d03c c488 a6bd 4738 63bd dd61 10bc
000001e0: dd58 dc3c a55d 24bc 2b61 1e3b 4476 9dbc
000001f0: 5f5d ebbb 2be3 4bbc 8301 97bd 065e f43c
00000200: b25d c73c 7322 e2bc 84cb 9bbd 1c53 913c
00000210: 073e 7bbd c3b9 91bc 9e57 3bbc 4dee bc3c
00000220: ba29 9cbc 9a6f b63c 04fe cdbd cbfc 8ebd
00000230: 15f4 0f3d 12f5 9bbc 7d7e 2cbd 5146 15bd
00000240: cd0a f6bc 9182 dcb9 18bc abbb edd0 bfbd
00000250: 1e41 7c3d 4365 8abc 2fbc c339 f241 d53c
00000260: a23e 80bc d85a 9ebc d6ab 92bd 3757 a0bc
00000270: 112b 1fbd 4e32 eabc 2db6 eaba 049b 21ba
00000280: d1b5 cd3c ed44 5cbc 4f22 fb3c da0a 323d
00000290: 31ce 333c 2267 123d a5d3 cdbd 4b3c 8c3c
000002a0: 3dc8 013c 2af0 9abd b032 91bc 1f47 6a3c
000002b0: e8ba 4a3c c8ca 83bc 907a 7fbb d6ad 5c3c
000002c0: aa9a 56bd c5b3 0fbd 3bdc f53c 40ec ba3a
000002d0: 8a41 243d 26e9 6dbd 0c07 9ebc 907f 70bd
000002e0: 9b8e 33bc d51b a9bc 335c 15bd d319 d33c
000002f0: 7ee4 82bd 0bf1 5fbd c9d5 43bb 73cf 583d
00000300: b5ee 3c3a 663d b2bb a3f0 b53b a4ce 97bd
00000310: 800b 31bd 2f6e 12bd eb51 9fbc a570 1ebd
00000320: 9cf4 abbb 321c 0b3d 1335 b8bc 6d67 123c
00000330: 2a3a f5bc 9dd6 d73d 525a c3bc c708 cebc
00000340: f58e 493d f64f 773c 7ce9 d83d 0bf5 15bd
00000350: 0edf 03bc 2714 12bd 6e8d 26bc a495 8d3d
00000360: ff81 b7bc c6bb a23c b8c5 9d3d 2e36 1a3a
00000370: 75fe c03c d34f 1abc 967c 37bd 8d89 883d
00000380: 8d22 fabc df9a bc3c 8ef6 4d3d acfe 27bc
00000390: 4d20 83bc d7ea ba3c 1fb8 e93d f721 09bc
000003a0: 8bb9 c83c ca14 ae3d bf0b 5e3d 49db ec3c
000003b0: e323 b63d a563 78bb e3a6 9b3d 1c56 073e
000003c0: d2d4 babb 7c25 2bbd 878a 053e 1ce7 dcbc
000003d0: b3f7 273d bb4a b3bc 1c34 c4bb 93ae 843c
000003e0: 9f81 9b3c 268c f9bc 9444 65bd 40fe 3b3c
000003f0: d9f2 0b3d cef9 093c d413 a83d 47a8 bf3a
-0.019177826 0.07236358 0.06463223 0.035390183 -0.00340048 0.06789712 -0.049191836 -0.022450767
0.051560108 0.1187377 0.012097536 -0.026678571 0.031284213 -0.010640655 -0.07989229 0.10550751
-0.02407412 0.09120619 0.04149881 -0.03199058 0.015273959 0.010309623 0.07246083 0.041022696
0.079355165 -0.09155973 0.06356254 -0.013268015 -0.016324667 -0.006813159 0.102824174 -0.0032033538
0.01495674 -0.016516052 0.07215105 -0.0035671652 -0.025613274 -0.026435161 0.118434645 0.024645561
0.059192784 -0.092716366 0.00037616683 0.032174785 0.080711804 0.093641706 -0.0016894094 0.072051145
-0.0124184415 -0.01132785 -0.0013606361 0.027112825 0.05963829 0.1160624 0.103914835 0.016301462
-0.049694918 -0.021117687 -0.015146037 0.014131702 0.124991395 -0.07709656 0.0051747537 0.004274252
-0.028584482 0.018024363 0.13567565 -0.010377123 -0.0038436595 0.029632859 -0.033367787 0.0005721944
0.0016956453 0.0379364 -0.013067717 0.010668065 -0.01557266 -0.015492916 -0.030529412 0.0041065607
0.0496482 0.08979554 0.021746613 0.011103362 -0.010055296 -0.029428748 0.092561126 0.13250786
0.054531194 0.018796127 -0.013062625 -0.11469931 -0.010515816 -0.044476155 -0.016425556 0.16881423
0.10488141 -0.016030656 0.12737377 -0.071367085 0.010732715 -0.074774854 -0.04664909 -0.034064442
0.006457438 -0.10687321 0.019651553 0.014193688 -0.018033655 -0.06637918 -0.09283644 0.024716286
-0.019565973 0.036590893 0.0021161104 -0.109295055 0.025433252 -0.08131555 -0.055473592 -0.008812395
0.026897842 -0.010032092 0.0024166803 -0.019221433 -0.0071827616 -0.012444298 -0.07373335 0.02982999
0.02433667 -0.027604317 -0.07607177 0.017739825 -0.06133845 -0.017788773 -0.011434464 0.02306285
-0.019062866 0.022270013 -0.10058215 -0.0698181 0.035144884 -0.019037757 -0.042112816 -0.036444012
-0.030034447 -0.0004205895 -0.0052409284 -0.09366021 0.061585538 -0.016893988 0.00037333506 0.026032422
-0.015654866 -0.019330427 -0.07161681 -0.019572837 -0.03885943 -0.02858844 -0.0017907076 -0.0006164762
0.02511111 -0.013444168 0.030656008 0.04346738 0.010974453 0.035742886 -0.100501336 0.017118594
0.007921276 -0.07565339 -0.017724365 0.014299183 0.0123736635 -0.016087905 -0.0038982965 0.01346918
-0.052393593 -0.03508355 0.03001224 0.0014261082 0.040101565 -0.058083676 -0.01929047 -0.058715403
-0.010959293 -0.020643154 -0.03646488 0.02576915 -0.06391238 -0.054673236 -0.0029882065 0.052932214
0.0007207201 -0.005439448 0.005552368 -0.074124604 -0.043223858 -0.03574961 -0.019448241 -0.038681645
-0.0052476656 0.033962436 -0.022486245 0.008935791 -0.029934961 0.10538981 -0.023846779 -0.02515067
0.0492086 0.015094748 0.105914086 -0.036610644 -0.008048786 -0.03566375 -0.010165555 0.06913307
-0.022400854 0.019864928 0.077037275 0.0005882707 0.023558835 -0.009418446 -0.04479655 0.06666861
-0.030534053 0.023023067 0.05028396 -0.01025359 -0.016006613 0.022817058 0.114120714 -0.008369914
0.024502536 0.08500059 0.05421042 0.028913157 0.088935636 -0.003790119 0.076001905 0.13216442
-0.0057016397 -0.041783795 0.13041125 -0.02696567 0.04100771 -0.02188622 -0.0059876572 0.016196525
0.018982707 -0.030462336 -0.055973604 0.011474192 0.034167144 0.0084213745 0.08206907 0.0014622294

fc.1.bias f4 [100]
00000000: fdba 8b3c ed2f f7bc 785c 913c 82d0 c9bc
00000010: 9835 a4bc eda9 353c 48f6 abbc 191a cc3c
00000020: d33f 713c bfe1 453c dd29 dbbc 52d2 923c
00000030: 599b eabc 8301 b13c 0c27 bbbc b2d9 c1bc
00000040: 9a9a aa3c d603 e13b 68d6 593c bb1a b03c
00000050: 5e9d d7bc 4af3 3d3c dad7 f0bc 0ad7 a03c
00000060: 21ee a13c 8727 babc c5da 9a3c a196 843c
00000070: b058 a9bc 7586 eebc f845 79bc 4f92 ab3c
00000080: ea50 c5bc 5c54 dbbc 8981 f0bc 413b dbbc
00000090: b6ca b73c 4320 c23c dd15 f0bc b38f cebc
000000a0: dc33 823c c6c1 dc3c 1f2a 393c b018 9e3c
000000b0: 1cdd d4bc 8ff7 b3bc 0670 863c bb44 c53c
000000c0: aeb4 c2bc 129a 953c 2c63 c2bc 0e90 e4bc
000000d0: 34db 853c f3ac babc 54c5 c2bc c03f cebc
000000e0: 18e4 d8bc 4d68 a23c a593 993c 1a7d d3bc
000000f0: 5a8a 973c 9700 bb3c e1bc cebc b869 e5bc
00000100: 3c01 c7bc 97ce 593c 54ed 6c3c b5c9 efbc
00000110: 6900 c1bc 7642 f4bc 753d edbc e7df 473c
00000120: e076 d4bc c2a8 cebc 7724 903c 1929 5f3c
00000130: 1e96 c9bc 90ee 7f3c 156f d4bc 0f2f cabc
00000140: ee40 babc ab65 b53c be0e c7bc 62c3 8a3c
00000150: d060 e8bc 5454 c83b 0b95 a5bc d530 ccbc
00000160: 3079 213c e28a f8bc 88ae 543c e5a2 c8bc
00000170: e872 cfbc af89 ecbc 2d76 8e3c d7b0 6e3c
00000180: 8b1c 753c d635 953c a41c 383c 778f b83c
0.017056936 -0.03017422 0.017744288 -0.024635557 -0.020045087 0.011087877 -0.02099146 0.024914788
0.01472469 0.012077748 -0.02675336 0.017922554 -0.028638529 0.021607166 -0.022845767 -0.023663376
0.020825673 0.0068669124 0.013295747 0.021497121 -0.026320156 0.011593649 -0.029399801 0.019633789
0.019766869 -0.022723926 0.018903146 0.016185107 -0.020672172 -0.029116848 -0.015214436 0.020943789
-0.024086434 -0.026773624 -0.029358642 -0.026761653 0.022435527 0.023697024 -0.0293073 -0.025215006
0.01589387 0.026947867 0.011301546 0.019298881 -0.02598434 -0.021968631 0.016410839 0.024080625
-0.023767795 0.018261943 -0.02372893 -0.027900722 0.016339876 -0.022787547 -0.023775734 -0.025176883
-0.026475951 0.019825125 0.01874716 -0.025816489 0.018498588 0.02282743 -0.025236549 -0.028004512
-0.02429258 0.013293884 0.01446088 -0.029270986 -0.023559766 -0.029816847 -0.028959969 0.012199379
-0.02593559 -0.025226954 0.017595513 0.013620638 -0.024607714 0.015620843 -0.025931874 -0.024680642
-0.022736039 0.022143206 -0.024299022 0.016938869 -0.028366476 0.0061135683 -0.02021267 -0.024925629
0.0098555535 -0.030339662 0.012981065 -0.024491737 -0.025323346 -0.028874246 0.017390335 0.014568529
0.014960418 0.018214148 0.011237297 0.022529347

fc.2.weight f4 [100, 100]
00000000: e6f7 ee3d 72c1 2bbb 355c bf3c 735c 903c
00000010: 73db 283c 60c0 863d 8b02 ca3c 7cc2 2b3d
00000020: 807a 563d d9fb 8f3d 019b 89bc ba8f f73c
00000030: 84f4 aebc 0e30 833d deff 0b3c 607d 053d
00000040: 5d89 503d 3cbb f13d be94 ef3d 032e f83c
00000050: 7e65 7fbd 64c1 963d 0087 08bd d683 b73c
00000060: 604e aa3d e4c1 b9bc 0650 053c 2bf2 663d
00000070: 4c67 4d3c 8476 a5bc cc2f 2dbc 2c15 213d
00000080: b2c9 36bc 7623 65ba 37c9 1f3a d67e 793c
00000090: afac d53d b481 0d3d 137f 21bd 3b58 3ebd
000000a0: 9ce0 8d3d cf27 a13d 655b c93d 5bcb 0f3d
000000b0: 0686 05bd e454 19bc 0e3c b53d c532 a53d
000000c0: 75be c6bc 0b70 f13d ca97 d1bb c4d6 87bc
000000d0: 93e4 963c f2de d03b 329e 363c bf60 f9bb
000000e0: 2714 fbbb ceec d93d 7806 8b3d 7b24 ecbc
000000f0: 5947 b13d 8dba 393d 2681 c43c bb71 7fbb
00000100: f826 4bbc 16ce 6e3d b478 363d 9f0d d7bc
00000110: ad2c b8ba de73 cfbc 2623 bdba 5a6e 6a3d
00000120: 5335 60bd f09c babc 2525 933c e2ad 673d
00000130: d92f 2b3c 568e 993d 1ace 39bd ea47 c8bc
00000140: 77cb 243d 296d 1c3d 3bd1 613c 30f2 083d
00000150: cbbc e3bc 5d44 ff3d 1785 b8bc 82a5 c0ba
00000160: 7bc1 ce3d dedc a4bc 1a4e b73d 4249 5d3c
00000170: 1f16 8fbc 9c72 6a3c bae7 a23d f906 563d
00000180: 0c7b 5f3d 58a9 8c3d 44e7 493d 94ca 06bc
00000190: 9bda f2bd fb79 f93c 1131 8bbd e7d5 c33c
000001a0: 2eb9 9abb b2e2 c3bd dfcf 033c d135 7ebd
000001b0: 5821 6fbd 8619 9ebd 18e9 883c 41aa 73bd
000001c0: 8d0d 393d 6c74 95bd 1d6c 22bd c78f a1bc
000001d0: 31a6 f2bc 2706 9abd a9f3 d0bd 4fde 44bc
000001e0: f793 9bba 6f24 d0bd e5ce 323d 68e8 f2bc
000001f0: 1259 00be 6662 42bd b600 85bd e9d0 b7bd
00000200: f8a8 edbc 6b14 973d ca29 20bc 88da 73bd
00000210: 0b8b b239 f0e6 a9bc 2135 e7bb b1a7 04bc
00000220: 88fa 36bd de9f 65bd 9a48 873c e196 203d
00000230: 4af7 10be d782 49bd 1561 bbbd b08e 31bd
00000240: ebdb 483c a906 523c 1b70 54bd f128 dbbd
00000250: e48a 933c 1fe2 f0bd 8717 d53b c211 6a3d
00000260: 3fc5 36bc c2cc d0bc e999 9bbc 157a 473c
00000270: 119e 1b3c 2128 c9bd 6109 5dbd bea3 94bc
00000280: 274e f7bd 3129 dfbd 936c cf3c ee90 f03c
00000290: ff4d 6b3d 99d5 aebd edce b6bd 8726 5a3d
000002a0: a2ee 4d3b 5d75 533d b7ab a33c 5267 e2bd
000002b0: d6b9 d6bb d18f bc3c 4048 21bd 3dc7 e2bd
000002c0: 445c 9abc 39e4 56bd 5b02 f13b 1994 dcbb
000002d0: d738 113c 00c9 89bd 76f5 aabc 0a31 913a
000002e0: 055a 123d 148a 8abd e6c6 aa3c 0d8b 94bb
000002f0: 1466 d2bd fd35 8a3d 6dbc bbbc 0df4 3bbc
00000300: f91b b03c 126b f8bc dbaa cebd 6a5e 58bd
00000310: cf67 91bd dd5d d9bd dc55 e6bd e08d 84bd
00000320: c148 b93d 355e b6bc 5ad5 5c3d 2bf0 913c
00000330: f7d9 8fba 0526 b13d 1b75 353c fd09 9b3d
00000340: f768 b63d 2b10 ef3d 303c d1bc af33 b03c
00000350: e23e c6bc 135d d03d da43 b5bb e6ee 58bc
00000360: dcce 763d fa2e fe3d c26f 013e 5327 d63c
00000370: d2c9 dbbb 2912 c43d 812e 4dbd 0262 b93d
00000380: 663d 213e 5e13 30bc 6266 8f3d 43c2 893d
00000390: 00f1 a83b 84ea 00bd 306b df3c 1d92 073d
000003a0: d15b 59bc 710e 99bc 0239 b3bc d57b 03b9
000003b0: dd18 513d 6bb3 9f3c 421f 3dbd cdff 9fbc
000003c0: 06e1 eb3d 7496 723d 8ef6 743d e3a5 a93d
000003d0: 3a34 e8bb 431e 2bbd 8701 a03c 1cd1 ba3d
000003e0: f4e7 30bc cd67 f73d 083d 69bc 1366 843c
000003f0: a2f3 6c3d 9627 81bc db42 d0ba 5d85 243c
0.116683766 -0.0026207832 0.023359397 0.017622208 0.010306227 0.06579661 0.024659416 0.04193352
0.05236292 0.07030458 -0.016797544 0.030219901 -0.021356829 0.0640565 0.00854489 0.03259027
0.05091225 0.1180329 0.11698292 0.030295378 -0.06235265 0.07361105 -0.03333187 0.022401731
0.0831573 -0.022675462 0.008136755 0.056383293 0.012536835 -0.020198114 -0.010570478 0.03932683
-0.011156486 -0.0008740941 0.0006095352 0.015227994 0.104333274 0.034547523 -0.039427828 -0.046470862
0.069276065 0.07868921 0.09831885 0.035106044 -0.032598518 -0.009358618 0.08849345 0.08066324
-0.024260739 0.117889486 -0.0063962685 -0.0165819 0.01841954 0.0063742334 0.011146115 -0.00761041
-0.0076623145 0.1064087 0.06788343 -0.028825989 0.086561866 0.045343924 0.023987364 -0.00389777
-0.012399428 0.058302008 0.044548705 -0.026251612 -0.00140514 -0.025323804 -0.0014430031 0.057234146
-0.054738354 -0.022779912 0.017962048 0.056562312 0.0104484195 0.074978516 -0.04536257 -0.024448354
0.0402331 0.03819004 0.013782795 0.033434093 -0.027799984 0.12464211 -0.0225244 -0.0014697763
0.10095497 -0.020124849 0.089504436 0.013506236 -0.017466603 0.014309552 0.079543546 0.052252743
0.054560706 0.06868237 0.049292818 -0.008227009 -0.11858102 0.030453673 -0.06796468 0.023905708
-0.004721782 -0.09564723 0.008045166 -0.062063042 -0.05838141 -0.07719712 0.01671271 -0.05948854
0.04517894 -0.07297596 -0.039653886 -0.019721879 -0.029620262 -0.07520705 -0.102027245 -0.012015893
-0.0011869658 -0.10163199 0.04365434 -0.029651836 -0.12533978 -0.04745712 -0.06494276 -0.08975393
-0.029011235 0.07376941 -0.009775588 -0.05953458 0.000340544 -0.020740002 -0.007055894 -0.008096621
-0.04467252 -0.056060664 0.016514111 0.03920639 -0.14156833 -0.049197044 -0.09149376 -0.043348968
0.012259464 0.012818971 -0.051864725 -0.10701168 0.018010564 -0.11761879 0.006503049 0.05714584
-0.011155426 -0.025488261 -0.018994289 0.012175103 0.009498135 -0.09822107 -0.053964023 -0.018144485
-0.12075453 -0.108965285 0.025320327 0.029365983 0.05744743 -0.08536834 -0.08926187 0.0532594
0.0031422754 0.0516256 0.019979341 -0.11054863 -0.006552915 0.023017796 -0.039375544 -0.11073158
-0.018842824 -0.052463744 0.007355017 -0.006731522 0.008863649 -0.06727791 -0.020868998 0.0011077237
0.03573038 -0.067646176 0.020846795 -0.0045331777 -0.10273376 0.06748579 -0.022916997 -0.01147176
0.021497713 -0.030324493 -0.10091182 -0.052824415 -0.07099878 -0.10613606 -0.11246845 -0.06472373
0.0904708 -0.022261718 0.053914405 0.017814716 -0.0010974993 0.0864983 0.011075283 0.075702645
0.08906739 0.11673006 -0.025541395 0.02150902 -0.024199907 0.101740025 -0.00553177 -0.013240552
0.06025587 0.12411304 0.12640288 0.026141798 -0.0067074085 0.09573776 -0.050093178 0.09051897
0.15746078 -0.010746805 0.0700195 0.067265056 0.0051556826 -0.03147365 0.02727279 0.03309833
-0.01326652 -0.018683644 -0.02187777 -0.00012539265 0.051049102 0.019494733 -0.046172388 -0.019531155
0.11517529 0.059225515 0.059805445 0.082835935 -0.007086304 -0.041776907 0.019531978 0.09121916
-0.010797489 0.12080345 -0.014235742 0.016161954 0.057849534 -0.015765946 -0.0015889065 0.010041562

fc.2.bias f4 [100]
00000000: 3672 d93c 5b03 d7bc e3f2 e63c 8f59 da3c
00000010: a50b d2bc 8665 e23c 3e50 d63c 1c8f df3c
00000020: baa7 d5bc 061a d8bc 0f23 d63c 1889 d9bc
00000030: ca4c debc e985 d4bc 72e4 d83c ff66 d03c
00000040: 7a5e d1bc 1cce d1bc 90b6 cebc 66d1 e63c
00000050: 0de9 d2bc 1c80 d93c 87e5 e73c 5df0 d93c
00000060: 56f2 cfbc dff1 cf3c 3049 dabc 0c7e d3bc
00000070: fd40 e83c 1fe1 cfbc 8fea d73c 40fa d3bc
00000080: e8ed e03c 364e d1bc b318 d63c 7d7f d4bc
00000090: cb45 c73c 629f d4bc fc8b d9bc 5fc1 dbbc
000000a0: e2ce d83c fd9c d3bc 233f e23c aef3 df3c
000000b0: ef36 cebc 2d09 d4bc 95fc d53c 41d3 d63c
000000c0: e17f d8bc 5cf1 dd3c c063 d6bc 7d15 d5bc
000000d0: 8d2c d2bc 4a99 e03c 67bf dc3c 664c de3c
000000e0: 2460 d83c cb79 d43c a242 dfbc 3bfc cc3c
000000f0: b830 d53c 74b9 d3bc 095c d6bc 87df d3bc
00000100: 0da1 d5bc 25fd d3bc 7228 d73c 82ef d5bc
00000110: 655f d4bc 8a97 d2bc c07b e13c c0d5 ddbc
00000120: ab30 d63c 9e10 d7bc 23bc c7bc db17 d7bc
00000130: cbd3 d3bc 4f9b d2bc 0eb2 d43c c800 cebc
00000140: 3c00 d33c d841 d6bc b6d7 d1bc dbc8 d7bc
00000150: 9c9e cdbc 2b25 d83c e83a d33c 0bff cbbc
00000160: 747e d2bc e671 dc3c 7108 dd3c 992d cbbc
00000170: 6c6b de3c ff08 d73c df44 dd3c e357 de3c
00000180: 0d19 e33c 7c3a d4bc c180 d73c 129b d5bc
0.026543718 -0.026246717 0.02819199 0.026654033 -0.025640318 0.0276363 0.02616131 0.02728992
-0.026080955 -0.026379596 0.026139764 -0.02655463 -0.027136225 -0.02594276 0.026476119 0.025439737
-0.025557745 -0.025610976 -0.025233537 0.02817602 -0.025745893 0.026550345 0.02830769 0.026603872
-0.02538411 0.025383888 -0.026646227 -0.02581694 0.028351301 -0.0253759 0.026356963 -0.025876164
0.027457193 -0.02554999 0.026134824 -0.025939697 0.024325272 -0.025954906 -0.026556008 -0.026825605
0.026465837 -0.025831694 0.027617997 0.027337875 -0.025172679 -0.025883282 0.026121417 0.02622378
-0.026428165 0.027092628 -0.026170611 -0.026011223 -0.02565601 0.027416844 0.026946736 0.027136039
0.02641303 0.025936982 -0.027253453 0.025022617 0.026024207 -0.025845267 -0.026166933 -0.025863422
-0.026077772 -0.025877545 0.026264403 -0.026115183 -0.025924394 -0.025707025 0.027524829 -0.027079463
0.026146254 -0.02625304 -0.024381703 -0.026256492 -0.025857827 -0.025708823 0.02596381 -0.025146857
0.025756948 -0.026154444 -0.025615554 -0.026340893 -0.025100045 0.02638491 0.025784925 -0.024901887
-0.025695063 0.02690978 0.026981564 -0.024802016 0.027150832 0.026249407 0.02701038 0.027141517
0.027721906 -0.025906794 0.026306512 -0.02607492

fc.3.weight f4 [100, 100]
00000000: bb32 bdbd 20bf f83d d7fa f9bd 596b ffbd
00000010: ccdc b83d c7a7 b0bd 07ee f7bd 2c8f a0bd
00000020: eb68 e83d 8d86 ed3d 7d48 05be 235e ba3d
00000030: f6b0 fb3d 1bd7 a63d 52b4 d9bd 7266 f4bd
00000040: 7574 dc3d 299b a33d 55c4 be3d 473c 01be
00000050: b260 ce3d 15db f2bd 241f dbbd 497f fdbd
00000060: 8b46 d23d c46f c6bd b9d4 c93d df0d e73d
00000070: 39be f0bd 4f3d cc3d 0f85 00be 7fb3 9c3d
00000080: 512e 01be b611 cb3d bfb6 15be 0b49 ee3d
00000090: 8938 85bd 64b1 ea3d 48f5 163e f992 053e
000000a0: 5701 94bd 4efa ac3d 919e d7bd c1af 0cbe
000000b0: c470 d93d 08ba ee3d 7f8b eebd fc86 cdbd
000000c0: 6518 073e 9989 24be a7cf cb3d 749d d43d
000000d0: b172 9f3d adbb cabd cb70 d9bd 7bf1 d7bd
000000e0: 7170 e6bd 5161 d3bd 299c ce3d 583d 8abd
000000f0: 6b86 f5bd 2157 143e 999f fc3d 836e f63d
00000100: 4d83 f93d fe9c bd3d 4248 1cbe b90c df3d
00000110: 8462 a83d 9fa2 c53d f91c f9bd 923c ed3d
00000120: 9a56 dabd ed0a 743d ecb0 793d e9fa e83d
00000130: 3fe0 be3d 18fd fe3d 6238 a0bd 545e 993d
00000140: 2049 b9bd c77c bc3d f206 a73d 698f bb3d
00000150: 5492 a73d f389 02be 8d4d 06be 146f 0b3d
00000160: 840c ec3d 5cb5 01be 0e6a a6bd 50c7 983d
00000170: d3f5 01be 08c0 e4bd f94d fcbd 94da c1bd
00000180: 364b d7bd 6042 eb3d 0512 01be be6e c83d
00000190: e95b 03be fe40 fc3d 5bda 1dbe 808d cfbd
000001a0: d8a8 903d fdc5 9bbd 17b3 1cbe 110f acbd
000001b0: b838 df3d 6f75 003e 3f7e adbd a4cb dc3d
000001c0: 96b7 e33d 8e10 cb3d 0999 e9bd 72b7 04be
000001d0: 6675 c23d e487 443d ca15 ab3d 5f77 fabd
000001e0: fe93 ba3d e2b4 11be 7b2d e1bd f954 d5bd
000001f0: e74c e53d 212c a7bd 9674 063e acc9 da3d
00000200: a334 04be 4335 bc3d 7200 62bd 9a6a e53d
00000210: cd26 edbd 81b2 d83d e0a2 05be 6e80 bc3d
00000220: 8cdd 9cbd 794e a93d 1b5a d83d 32bb da3d
00000230: d706 b9bd 9dbd a53d bdf9 eebd 71a4 f8bd
00000240: 546d d83d d21f bf3d bfd5 cfbd 95e4 cabd
00000250: e6ac ac3d 8aa1 05be 5dc1 013e e0d9 ab3d
00000260: 708a 903d 6b13 fdbd e32b ddbd 53be 76bd
00000270: 50ca d3bd 401d edbd 8e4f 013e f83d e2bd
00000280: e8ac 0abe daa6 cc3d 76a0 a73d 2fa4 083e
00000290: 10d3 003e 59b8 e73d 9567 01be 349d ce3d
000002a0: e5c8 903d 0490 c73d c2c5 0fbe a6d8 b53d
000002b0: 4831 d1bd 0e6b 933d 17e6 693d 403a f43d
000002c0: 0d7c d63d 763b 183e a269 b0bd cbaf 813d
000002d0: d1c3 cfbd d991 973d 9165 7e3d 8dd0 c83d
000002e0: f3c5 d43d a5ed 04be 6527 bfbd 1365 983d
000002f0: b179 c53d a470 08be 53eb fcbd 7d67 ec3d
00000300: 4b03 0cbe 25e6 05be fa7f c3bd 60ee 04be
00000310: a669 edbd fded d63d f9fb debd 7fab ca3d
00000320: 977f fcbd 46ee cd3d 1934 02be 78ce 0cbe
00000330: 01e9 893d d161 f7bd 3382 debd 5412 cfbd
00000340: e254 0d3e 2fe5 043e 857a 05be deda c43d
00000350: 8ec8 963d 1b59 093e 0343 82bd dd84 edbd
00000360: a385 8e3d 3903 af3d ebb0 b63d f3fb a3bd
00000370: 66a3 dd3d ca32 02be 0b60 e7bd 2d0d c9bd
00000380: 0b3a ca3d 2a56 98bd b310 b83d b256 e43d
00000390: b114 fdbd ec19 673d dc1c 0bbe a299 d33d
000003a0: ca98 10be e197 c73d 19e5 0abe ae06 d53d
000003b0: 0156 cebd b912 ba3d 25c4 fd3d 084d dd3d
000003c0: 356b 78bd 9a64 c63d ea3b 10be 7c8b 20be
000003d0: ed28 8b3d be68 c43d 6612 87bd 717d c6bd
000003e0: 861b 093e a67d d5bd f45a a83d e847 d93d
000003f0: fb7a 903d cb07 f2bd d661 d9bd 0c7f 06be
-0.09238192 0.12145829 -0.12206047 -0.12471647 0.09026489 -0.08625751 -0.12105947 -0.07839808
0.113481365 0.11597929 -0.13015933 0.090999864 0.12289612 0.08146497 -0.106300965 -0.119336024
0.107644 0.07988579 0.09314791 -0.1262065 0.10077037 -0.11858193 -0.10699299 -0.12377793
0.10267361 -0.09689286 0.09855027 0.112819426 -0.11755032 0.09972631 -0.12550758 0.07651424
-0.12615325 0.099154875 -0.14620493 0.116350256 -0.06504924 0.11459616 0.14742005 0.13044347
-0.07226818 0.08446179 -0.10528291 -0.1373892 0.106172115 0.116565764 -0.116477005 -0.10035512
0.131929 -0.16068114 0.09951716 0.10381594 0.077855475 -0.098990776 -0.10617217 -0.105441056
-0.11251915 -0.10321296 0.10088379 -0.06749982 -0.11988529 0.14486362 0.12335128 0.12032797
0.12183247 0.092584595 -0.15261939 0.108910985 0.08221915 0.09650158 -0.12163729 0.115838185
-0.10661049 0.059580732 0.06095974 0.11375982 0.09320115 0.124506176 -0.07823254 0.07488695
-0.090471506 0.09203487 0.081556216 0.09158213 0.08182207 -0.12747936 -0.13115521 0.03404148
0.11525825 -0.1266684 -0.08125697 0.07459891 -0.12691431 -0.111694396 -0.123195596 -0.094655186
-0.10512392 0.114872694 -0.1260453 0.097867474 -0.1282803 0.12317084 -0.15415327 -0.10134411
0.070634544 -0.07606123 -0.15302692 -0.08401311 0.1089949 0.12544797 -0.08471345 0.10781029
0.111190006 0.09915267 -0.11406142 -0.12960604 0.09495048 0.047981158 0.08353765 -0.122297995
0.091102585 -0.14229158 -0.10995003 -0.10416598 0.111963086 -0.08162714 0.13130412 0.10682997
-0.12910704 0.09189846 -0.055176206 0.11201973 -0.11579666 0.10580922 -0.13050413 0.092041835
-0.07659444 0.082669206 0.10564061 0.10680236 -0.09034508 0.080928065 -0.116687275 -0.1214074
0.10567728 0.09332241 -0.10148191 -0.0990688 0.08431415 -0.13049904 0.12671418 0.08391166
0.07057655 -0.12357219 -0.10799386 -0.0602401 -0.103413224 -0.115778446 0.12628004 -0.11046976
-0.13542521 0.09992762 0.08184902 0.13343881 0.12580514 0.113144584 -0.1263717 0.10088578
0.070695676 0.09744266 -0.14040282 0.08879213 -0.10214478 0.071981534 0.057104196 0.11925173
0.104728796 0.14866433 -0.08613898 0.06332358 -0.10144771 0.07400865 0.06210858 0.09805403
0.10389318 -0.12981279 -0.09333686 0.074411534 0.096423514 -0.13324219 -0.12349572 0.11543176
-0.13673131 -0.13076074 -0.09545894 -0.12981558 -0.115924165 0.104946114 -0.10887904 0.098959915
-0.12329023 0.10055213 -0.12715186 -0.13750637 0.06733895 -0.12079204 -0.10864677 -0.10110918
0.13801911 0.12978052 -0.13035019 0.09612058 0.073624715 0.13412897 -0.06360438 -0.11597607
0.06959083 0.085455365 0.08920463 -0.0800704 0.108221814 -0.12714687 -0.112976156 -0.09816966
0.09874352 -0.074383095 0.0898756 0.11149348 -0.12357462 0.056421205 -0.13585228 0.103320375
-0.14120784 0.097457655 -0.13563956 0.10401665 -0.10074998 0.09085602 0.12390927 0.10805708
-0.060649116 0.09687157 -0.14085355 -0.15678209 0.06794915 0.095902905 -0.06595306 -0.09691895
0.13389406 -0.10424356 0.08220473 0.10609418 0.07054707 -0.11817893 -0.10614364 -0.13134402

fc.3.bias f4 [100]
00000000: 1ec8 b2bc f113 a0bc 1c5a b3bc d1d6 f43c
00000010: 83fc 9fbc e732 f03c bc30 adbc 6053 afbc
00000020: 7782 c2bc a86f a3bc 6643 fc3c dbf9 043d
00000030: db43 033d 794f b4bc 9578 f23c 6d9e 9fbc
00000040: b75d ff3c 26cd 9dbc 5068 9fbc 1cf7 bebc
00000050: d0c3 bcbc a87a e93c 0bfc 97bc 11f3 8ebc
00000060: 4bd2 083d f48a b2bc dde6 ed3c 7669 afbc
00000070: 3e57 90bc d7bd fd3c 4b77 b3bc d344 b5bc
00000080: b0fe f63c 891c 023d 12f1 043d 945a f73c
00000090: d6e4 bbbc df73 fd3c f055 043d ea5b 093d
000000a0: 8676 9abc c1a3 aebc e8bd 9ebc a112 f53c
000000b0: 2eb6 acbc 968f b1bc c216 fb3c e2c1 013d
000000c0: 8d6e bfbc ff0a ec3c 960d b2bc b6b5 f83c
000000d0: 2363 b6bc b224 063d 1177 bfbc f00f fa3c
000000e0: 3196 e63c 4506 ff3c f7c8 fe3c d2a3 a8bc
000000f0: f306 ff3c f3d6 a0bc ebf2 a2bc d1ba f13c
00000100: 5555 fe3c 6b18 e43c f145 95bc abdd fa3c
00000110: c355 f33c e0f5 9ebc f295 a2bc ac4a a0bc
00000120: da01 a7bc be41 e43c defe c8bc facb 003d
00000130: 40c5 b1bc b487 aebc de9f a7bc 7104 c3bc
00000140: e8e9 a6bc 5761 fa3c aa38 aabc 3121 acbc
00000150: 1f15 b8bc 2358 f63c 23a8 b8bc c626 fa3c
00000160: 7494 afbc 7767 b2bc c81d fc3c 0548 c0bc
00000170: a27c b0bc 8ba2 f43c 3ddf f03c bd39 bdbc
00000180: 708f 87bc e923 98bc c3fb fc3c 11e2 033d
-0.021823939 -0.019540759 -0.021893553 0.029887589 -0.019529587 0.029321147 -0.021141402 -0.021402061
-0.023743851 -0.019950703 0.030793857 0.032464843 0.032047134 -0.022010552 0.029598514 -0.019484723
0.031172616 -0.019262861 -0.01945892 -0.02331119 -0.02304259 0.02850087 -0.0185528 -0.017449887
0.033403676 -0.021794774 0.029040748 -0.021412592 -0.017619725 0.030974312 -0.02190747 -0.022127545
0.030150741 0.031765494 0.032456465 0.030194558 -0.022936266 0.03093904 0.03230852 0.03353492
-0.018855345 -0.021318318 -0.019377664 0.02991611 -0.021082964 -0.021674912 0.0306505 0.03167904
-0.023368144 0.028813837 -0.021734994 0.030360084 -0.022264069 0.03274984 -0.023372205 0.030525178
0.028147789 0.03113092 0.031101687 -0.020585928 0.031131243 -0.019633746 -0.019891223 0.029508026
0.031046549 0.027843675 -0.018221827 0.030623278 0.02970398 -0.019404352 -0.01984689 -0.019566856
-0.020386625 0.02786338 -0.024535593 0.031444527 -0.021700501 -0.021304943 -0.020461973 -0.023805829
-0.020375207 0.030563993 -0.020778973 -0.02101192 -0.022471009 0.030071324 -0.022541111 0.030536067
-0.021433093 -0.021777852 0.03077592 -0.023471842 -0.021543805 0.029862663 0.029403323 -0.02309882
-0.016547889 -0.01857181 0.030881768 0.032198016

fc.4.weight f4 [100, 100]
00000000: 8606 08be ab75 0bbe f839 e5bd c188 5f3d
00000010: 2f1a debd 8b5e df3d b70b 00be f48a 21be
00000020: 2145 aabd 7795 18be b729 8b3d 5b0a a73d
00000030: d4b9 743d 52ff debd faae c33d eab7 47be
00000040: 22c4 ee3c edff cdbd e7e1 e0bd e785 d7bd
00000050: 7298 1fbe 75f6 043e 8da0 06be 9b03 27be
00000060: 2322 2a3d d709 ebbd 35e3 bb3d 5fd3 ffbd
00000070: 2c47 0abe b8cf a43d a06b 08be 383b 17be
00000080: 2892 433d 2e7f 833d 8b92 9d3d 1635 ca3d
00000090: 0e0a eebd 0b8a 653d 5c03 843d 35d2 113d
000000a0: 0d7c 0ebe 3e90 00be 5e09 13be c88c dc3c
000000b0: b2f1 f0bd 0bf5 14be 2b01 a53d a1fa 623d
000000c0: fa8e 1abe a42c 003d b475 12be c5dc ed3d
000000d0: b9b4 1cbe dd01 a33d ec18 f8bd 81a5 623d
000000e0: 7503 973d 81c2 9c3d 32bb b23d 5a01 08be
000000f0: e7a2 df3d cfcc 0cbe 8748 23be 02f6 0a3e
00000100: f8ae 9d3c dc5b c83d 75c0 0cbe a143 a13d
00000110: b275 7c3d 6264 04be 8706 c6bd db63 ffbd
00000120: 72c3 0cbe 7d86 623d 82cb 0fbe 9bb8 dd3d
00000130: 1f56 0dbe e98c 04be 231b 07be c22d afbd
00000140: 56c4 c5bd 4f1d af3d 8440 0abe c1b2 e9bd
00000150: 8f15 07be 70c5 b03d 2c39 19be 7e66 aa3d
00000160: 131f 0bbe 77d4 1dbe 1300 ac3d e8ca 04be
00000170: 6251 d3bd 2a20 7f3d d843 bc3d 32a1 a6bd
00000180: 36cd 45be 1dbb 10be 24cc 8a3d a42b 3a3d
00000190: d98d 9fbd bdcb ccbd e245 dabd 4a83 a03d
000001a0: cc0d b5bd 9fdd fb3d c4cf 91bd 7a87 93bd
000001b0: 0556 77bd 9f89 cbbd 8728 d43d ebbf b33d
000001c0: b2ce 8f3d c9ca 98bd 657f dd3d 1300 0abe
000001d0: e15f 8b3d 6cba 97bd 8a2d e6bd 2557 b2bd
000001e0: 3fe8 b7bd add3 b93d 8bc5 c2bd 28a7 aebd
000001f0: da24 d73d efb3 78bd a700 bc3d 1ba2 a9bd
00000200: ab49 a6bd 6a94 a73d c165 8bbd 0cab d6bd
00000210: 1d9d ee3c b740 9c3d 1639 383d 3081 853d
00000220: c72e edbd c087 da3d d14c 493d 254b 353d
00000230: 02bb cfbd d6af f5bd 010c 08be 78a7 b33d
00000240: e907 febd 9cd2 a9bd fe02 a73d 982c a83d
00000250: cd2d 64bd a152 d73d 9d5d a3bd 5806 2e3d
00000260: b4a3 a6bd 2bea 303d feb5 d5bd 9436 de3d
00000270: 0fc5 833d fd14 4c3d 08c2 a63d 31c3 d0bd
00000280: e9d8 563d aa19 b2bd 1040 f8bd 70ad a63c
00000290: bd7b 9e3d e8ef c53d 2e24 e2bd ef37 873d
000002a0: f688 d93d 584f f4bd 29b6 e8bd 1774 d5bd
000002b0: e179 00be db70 8c3d 630b 04be 32aa cf3d
000002c0: 15f0 72bd f6d9 e5bd bd65 d0bd 6c57 63bd
000002d0: 0353 94bd 77ac 013d 23f6 9dbd 2084 a1bd
000002e0: 9f17 cdbd 5a8d ba3d be17 bebd 5481 7d3d
000002f0: 43f8 b3bd af01 d8bd 33ca 8f3d 4572 cdbd
00000300: 3c5e aabd 21c2 cd3d b319 923d e48b 93bd
00000310: 0e45 f1bd b190 7dbd 6e1d 9e3d 082b 9d3d
00000320: 556b 8f3d 63b8 c63d 0a57 0b3e 4d76 c6bd
00000330: 2834 e13d 09b5 b5bd 8ea0 dc3d f323 003e
00000340: 8891 a03d 8e5f eb3d fb5f 02be 29c6 06be
00000350: 3e0b fbbd c26f a03d 197e f1bd 72ea a63d
00000360: 1edb e9bd b5da cf3d 0c0a c53d f1e5 ae3d
00000370: ad6d bf3d c33e 92bd 5af2 e03d 585c 083e
00000380: fd73 eebd 1c1a bf3d 2256 eabd 71c9 ca3d
00000390: 9418 de3d 1c83 dbbd 1c89 fd3d 7522 d93d
000003a0: a6bd 08be 550b 04be da42 9abd aa0c 0ebe
000003b0: 3f93 0f3e 1a75 f2bd 4388 16be 4108 f9bd
000003c0: a335 ab3d 3cd8 a23d e6a7 ed3d 9605 05be
000003d0: ae8e cd3d 9f2d ad3d 33ea edbd b67a bbbd
000003e0: 2cfc 013e 1acd c1bd a9be db3d 8f69 b3bd
000003f0: 8a74 723d 818f 0bbe badf b03d 3613 e8bd
-0.13283738 -0.13619106 -0.11192697 0.054573778 -0.10844838 0.109067045 -0.12504469 -0.15775663
-0.083139665 -0.14900766 0.06795066 0.08156272 0.059747532 -0.10888542 0.095548585 -0.19503751
0.029146258 -0.100585796 -0.109805875 -0.10523587 -0.15585497 0.12984641 -0.13147183 -0.16309969
0.04153646 -0.11476486 0.09174196 -0.12491488 -0.13503712 0.08047432 -0.13322306 -0.14768684
0.047746807 0.06420742 0.076939665 0.098734066 -0.116230115 0.05603985 0.06445953 0.03560086
-0.13914509 -0.12555024 -0.14359042 0.026922598 -0.1176485 -0.14546601 0.080568634 0.0554148
-0.15093604 0.031292573 -0.14302713 0.11614374 -0.15303315 0.0795934 -0.121141285 0.055333618
0.07373706 0.07654286 0.08727111 -0.13281766 0.10919743 -0.13750003 -0.15945636 0.13570407
0.01924847 0.09783146 -0.13745292 0.07874227 0.06163568 -0.12928918 -0.09669214 -0.12470218
-0.13746431 0.05530404 -0.14042476 0.10826226 -0.13802384 -0.12944378 -0.13193946 -0.085536495
-0.09656589 0.08550512 -0.13501173 -0.11411048 -0.13191818 0.08631408 -0.14963216 0.0832033
-0.13586073 -0.1541308 0.08398452 -0.12968028 -0.10318257 0.062286533 0.09192628 -0.08136214
-0.19316563 -0.14133878 0.06777218 0.045451775 -0.07790727 -0.099997975 -0.1065786 0.078375414
-0.08840522 0.1229813 -0.07119706 -0.072035745 -0.06038477 -0.099383585 0.103592925 0.0877684
0.07021846 -0.07460553 0.10815314 -0.13476591 0.06805397 -0.07408604 -0.11239155 -0.08708028
-0.08979844 0.09073577 -0.095103346 -0.08527976 0.10505076 -0.060718473 0.09179812 -0.08282872
-0.0811952 0.081826046 -0.068065174 -0.10481843 0.029127652 0.07629531 0.044976316 0.06518781
-0.11581188 0.106704235 0.049145523 0.044261117 -0.10143091 -0.11996429 -0.13285829 0.087721765
-0.124038525 -0.08292124 0.081548676 0.082116306 -0.05570774 0.10513807 -0.0797684 0.04248652
-0.08136693 0.04319207 -0.10435103 0.10850254 0.0643407 0.049824703 0.08142477 -0.1019348
0.052452955 -0.08696301 -0.12121594 0.020346373 0.07738445 0.09664899 -0.11042057 0.06602465
0.10621826 -0.11929196 -0.11362869 -0.10422533 -0.12546493 0.06857463 -0.12894969 0.10139884
-0.05931099 -0.112232134 -0.10175655 -0.055503294 -0.07242396 0.031658616 -0.077129625 -0.07886529
-0.10014271 0.09108992 -0.09281872 0.061890915 -0.087875865 -0.10547196 0.07020988 -0.10031561
-0.08318755 0.10046793 0.07133808 -0.072044164 -0.11780749 -0.061905567 0.07720457 0.07674223
0.07002894 0.09703138 0.13607422 -0.09690533 0.10996276 -0.0887242 0.10772811 0.12513714
0.07840258 0.11492835 -0.12731926 -0.1316153 -0.12258004 0.07833816 -0.11791629 0.08150186
-0.114187464 0.10149137 0.09621057 0.085399516 0.09347091 -0.07140877 0.10983725 0.13316476
-0.11643217 0.09331152 -0.1144221 0.09901703 0.10844532 -0.107183665 0.12379667 0.10602275
-0.13353595 -0.12894948 -0.07532282 -0.13872018 0.14021014 -0.118387416 -0.14700417 -0.121597774
0.0835984 0.079514 0.1160429 -0.12990412 0.100369796 0.08455967 -0.116169356 -0.09154265
0.12693852 -0.09462948 0.10729725 -0.08760368 0.05919317 -0.13628961 0.086364225 -0.11331789

fc.4.bias f4 [100]
00000000: e662 d8bd 543c f0bd 9b44 89bd 1e0d f7bd
00000010: 2a76 debd e698 bcbd b475 34bd fed0 e1bd
00000020: f394 1cbd 4303 8ebd 66e0 8abd c291 efbd
00000030: a94b 24bd 3781 75bd be7a c3bd d518 fcbd
00000040: b9f6 e2bd 18fc dcbd 2b3e 85bd 67ea 35bd
00000050: 109d febd ec5a 66bd 2477 f5bd 9796 39bd
00000060: 8a81 acbd c8a9 50bd 5393 7dbd bb4f ecbd
00000070: c4dd d1bd 2d87 d8bd 4989 7fbd 4241 54bd
00000080: 074e 70bd 6be8 45bd 2f83 f6bd f4e4 d7bd
00000090: 9195 8dbd 4c0a d7bd d062 d9bd 7332 f6bd
000000a0: e1b9 c5bd f9f8 e4bd bffc dbbd c838 dfbd
000000b0: 0e3b 75bd 54b7 c5bd fd9b c7bd 4996 cbbd
000000c0: af5d 81bd 714e f6bd 71aa ffbd c4ad 9abd
000000d0: 8300 f5bd e2f7 85bd 00cf f6bd cb12 b1bd
000000e0: d6ba 89bd 1c92 fcbd 5654 8cbd b7a4 49bd
000000f0: 02ca c6bd 94cc d5bd 6b24 6dbd 6371 f5bd
00000100: 8e5b 13bd fb0f 93bd f50b 81bd cd64 adbd
00000110: 97b8 cfbd 6898 88bd 3a53 8dbd bc3e 32bd
00000120: 2876 62bd e433 7fbd ee7d 04be 6251 f1bd
00000130: ea84 8abd f3a7 92bd e9a1 66bd f6e9 35bd
00000140: 3d15 b8bd 48a1 ccbd 42a7 8bbd bcde 00be
00000150: 3916 6fbd 0d29 9dbd 582e e4bd e51e c4bd
00000160: c7cc f4bd af1d d5bd dadf e9bd e18d cfbd
00000170: 16c4 f7bd 0047 c3bd ed58 41bd 584c 06be
00000180: 910f f6bd 01fe e5bd 8070 5dbd 0abf 06be
-0.105657384 -0.11730257 -0.067025386 -0.12063049 -0.10862382 -0.092088506 -0.044057563 -0.1102619
-0.038227987 -0.06934216 -0.06781082 -0.11697723 -0.040111218 -0.059937682 -0.095448956 -0.12309424
-0.11082215 -0.107902706 -0.06505998 -0.044412997 -0.12432301 -0.056239054 -0.11985615 -0.04530963
-0.08423145 -0.050943166 -0.061908077 -0.11538645 -0.102473766 -0.10572658 -0.062386785 -0.051820047
-0.058668163 -0.048317354 -0.1203674 -0.10541716 -0.06913293 -0.10500011 -0.1061455 -0.12021341
-0.09654594 -0.111803 -0.10741567 -0.10899502 -0.059870772 -0.09654108 -0.09746549 -0.09940774
-0.06316697 -0.1202668 -0.12483681 -0.075526744 -0.11962988 -0.065414205 -0.12051201 -0.086461626
-0.06725089 -0.12332556 -0.06852023 -0.04922935 -0.09706499 -0.10439411 -0.05789606 -0.119845174
-0.035975985 -0.071807824 -0.06301109 -0.08466492 -0.101426296 -0.06669694 -0.0690064 -0.04351686
-0.055288464 -0.062305346 -0.12938663 -0.11783101 -0.067636326 -0.0716094 -0.056306753 -0.044412576
-0.08988426 -0.099916995 -0.06819011 -0.12584966 -0.058370803 -0.076738454 -0.11141652 -0.09576205
-0.11953121 -0.10406052 -0.114196494 -0.10134483 -0.12097947 -0.095350266 -0.047203947 -0.1311506
-0.12014688 -0.11230088 -0.054062366 -0.13158813
