results/Smoothed_InfoNCE_dim20_reg1_alpha0.0001.pt (torch, 231867 bytes, 13 tensors)

fc.0.weight f4 [100, 40]
0.021467468 -0.021237506 0.0369713 -0.034531992 0.058677576 0.04513581 -0.0056319367 0.018904481
-0.021298992 0.007120174 -0.019580506 0.0048749014 0.030580333 0.0053506526 -0.013150355 0.057545412
0.010379858 0.016941134 0.010155493 0.014899036 0.026435222 -0.026181681 0.04777758 -0.027696172
0.037776824 0.018452702 0.004999606 0.04785896 -0.025401672 0.005579374 -0.023116784 0.004664722
0.017648792 0.011230548 -0.009770229 0.03510886 0.017499376 -0.007995298 0.0034637789 0.02678098
-0.008367206 -0.017827312 -0.04242635 -0.007556896 0.030889729 -0.032383945 0.038166545 0.004548738
-0.011483274 0.024462901 -0.029236991 -0.04624322 0.051535983 -0.036646284 -0.0335531 0.007501994
0.013686176 -0.022397859 -0.04622155 -0.021984112 0.012584218 -0.01414802 -0.031952836 -0.010978676
0.022907112 -0.026917612 0.021548763 -0.0065648505 -0.008941679 0.034785148 -0.037312355 -0.055580456
0.046379272 -0.022777531 -0.0234657 -0.009717536 -0.006886208 0.01838714 -0.04495334 -0.0053222096
-0.04172872 0.018000092 -0.0035930828 0.03297678 0.035602223 -0.009638319 -0.04049806 -0.049681984
0.0024992018 0.092600875 0.007374461 -0.019307958 -0.010545741 0.013698515 0.005054569 0.07247627
0.0024699655 -0.010493013 0.013213841 -0.033186123 -0.031637233 0.022351468 0.0052538193 0.022098845
0.040881127 -0.03727545 -0.04655644 -0.040844306 -0.008194128 0.076686546 0.024330739 -0.024294414
-0.0013163057 0.01170311 0.019577676 0.05511485 -0.018374175 -0.008326409 -0.006135972 -0.028971037
0.021952879 -0.010852985 -0.041931998 0.04353275 0.08924852 -0.011955776 -0.02604874 -0.010107971
-0.033918858 0.023675729 -0.017243342 0.035082176 -0.06069243 0.011399996 -0.023446407 -0.029249264
0.00797476 0.006115343 -0.036490235 0.047583062 -0.023629827 0.0031358942 0.013692917 -0.057544317
-0.05323273 0.025764545 0.025330946 0.004581882 0.025180522 -0.02315893 0.017821666 -0.027192978
0.05531851 -0.011681231 0.028466182 0.040288534 0.001153892 -0.0071271723 0.03505299 -0.040790256
0.006398636 -0.0069958353 -0.026531769 0.07732756 -0.0021823759 0.023988133 -0.01479616 0.033006914
-0.0071448954 -0.033042967 0.0038415494 -0.01473504 0.024266602 -0.047061935 0.027152885 0.040725242
0.031214034 -0.031245694 0.020467613 -0.0011529026 0.020575998 0.002806515 -0.023447184 0.044538215
-0.010591778 0.0065216906 -0.00544336 0.03603144 -0.0034322215 -0.031915773 -0.0022323101 -0.030554859
0.05065075 -0.038324594 0.04075965 0.053275645 0.025494117 -0.0153960725 0.017961448 -0.01772178
-0.021015923 0.0067527206 0.008010803 0.019427111 -0.007802847 0.022303753 0.039096445 0.02682899
0.0057026404 -0.025833625 -0.053135276 -0.01338164 0.03800058 0.043642115 -0.030860644 0.059075367
0.0040446525 0.061556425 0.02705895 0.03829371 0.015558651 0.0022618787 -0.014879944 -0.04551255
0.021179812 -0.02821452 -0.04340903 -0.017441316 -0.023533313 0.014974888 0.04717482 0.0050392994
-0.034959067 -0.03935125 0.02749209 -0.04169163 0.0021027518 -0.04090955 -0.034952145 -0.04417036
-0.012997266 0.0008491317 -0.030514345 0.027889386 -0.0012249484 0.04624299 -0.037368417 -0.013072284
-0.062981255 -0.028947169 0.019428452 0.06403087 -0.01319928 0.050069537 -0.012760233 -0.011768672
00000000: 8bdc af3c 47fa adbc 386f 173d 6b71 0dbd
00000010: e657 703d 54e0 383d 1c8c b8bb 92dd 9a3c
00000020: 397b aebc 5950 e93b 4c67 a0bc a3bd 9f3b
00000030: 9b83 fa3c 8754 af3b 9674 57bc bdb4 6b3d
00000040: 4810 2a3c 22c8 8a3c 3a63 263c 161b 743c
00000050: ae8e d83c f77a d6bc 6cb2 433d 15e3 e2bc
00000060: dfbb 1a3d 1f2a 973c bcd3 a33b c207 443d
00000070: 2b17 d0bc 2ed3 b63b 695f bdbc 86da 983b
00000080: 3394 903c 5500 383c 5013 20bc 4fce 0f3d
00000090: da5a 8f3c b6fe 02bc 9100 633b c963 db3c
000000a0: 9b16 09bc 950a 92bc 41c7 2dbd d79f f7bb
000000b0: 750c fd3c 07a5 04bd 8654 1c3d 940d 953b
000000c0: 5824 3cbc 6c66 c83c 6a82 efbc 8869 3dbd
000000d0: 6517 533d 6a1a 16bd fa6e 09bd 49d3 f53b
000000e0: fc3b 603c b77b b7bc cf52 3dbd 0618 b4bc
000000f0: 092e 4e3c 19cd 67bc fae0 02bd e8df 33bc
00000100: b2a7 bb3c 5382 dcbc 0887 b03c f51d d7bb
00000110: 1f80 12bc df7a 0e3d d7d4 18bd 55a8 63bd
00000120: 31f8 3d3d f297 babc 243b c0bc 4d36 1fbc
00000130: b3a5 e1bb a1a0 963c fe20 38bd ee65 aebb
00000140: bceb 2abd ee74 933c ed79 6bbb a912 073d
00000150: a3d3 113d 0aea 1dbc 4be1 25bd 567f 4bbd
00000160: a6c9 233b 87a5 bd3d 76a5 f13b b92b 9ebc
00000170: 0bc8 2cbc bc6f 603c cca0 a53b 706e 943d
00000180: 25df 213b e3ea 2bbc de7e 583c 2cee 07bd
00000190: 0b96 01bd 6d1a b73c 3b28 ac3b a308 b53c
000001a0: f872 273d 24ae 18bd f7b1 3ebd 5c4c 27bd
000001b0: aa40 06bc d60d 9d3d 4251 c73c 1405 c7bc
000001c0: e487 acba 67be 3f3c 5d61 a03c 1cc0 613d
000001d0: 7085 96bc 7e6b 08bc 4410 c9bb ab54 edbc
000001e0: 86d6 b33c b8d0 31bc e3c0 2bbd 664f 323d
000001f0: eec7 b63d 29e2 43bc 2b64 d5bc e79b 25bc
00000200: 80ee 0abd 9af3 c13c e941 8dbc 54b2 0f3d
00000210: a098 78bd 0cc7 3a3c ae12 c0bc 279c efbc
00000220: 91a8 023c 3763 c83b c976 15bd 75e6 423d
00000230: 5793 c1bc 9383 4d3b 4258 603c 97b3 6bbd
00000240: 900a 5abd 2b10 d33c d882 cf3c 9d23 963b
00000250: 6247 ce3c ccb7 bdbc befe 913c cfc3 debc
00000260: a995 623d a262 3fbc e931 e93c 9705 253d
00000270: 313e 973a 0e8b e9bb b993 0f3d af13 27bd
00000280: a6ab d13b 523d e5bb 2759 d9bc e95d 9e3d
00000290: 3106 0fbb c382 c43c 986b 72bc 4232 073d
000002a0: ba1f eabb 1058 07bd 81c2 7b3b 3d6b 71bc
000002b0: c1ca c63c 04c4 40bd ba6f de3c 83cf 263d
000002c0: 93b4 ff3c f8f6 ffbc b2ab a73c fe1c 97ba
000002d0: ff8e a83c 82ed 373b 4f14 c0bc b46d 363d
000002e0: 2389 2dbc e8b3 d53b 375e b2bb b495 133d
000002f0: 1fef 60bb 1dba 02bd f34b 12bb 2f4e fabc
00000300: 2977 4f3d 40fa 1cbd 97f3 263d 9037 5a3d
00000310: 0ad9 d03c cf3f 7cbc e323 933c 442d 91bc
00000320: 9629 acbc ed45 dd3b be3f 033c 9b25 9f3c
00000330: 06af ffbb 5cb6 b63c 9823 203d 78c8 db3c
00000340: 37dd ba3b 0aa1 d3bc 60a4 59bd ab3e 5bbc
00000350: 7fa6 1b3d 13c2 323d 76cf fcbc 03f9 713d
00000360: 0189 843b 9722 7c3d bbaa dd3c ded9 1c3d
00000370: b6e9 7e3c 073c 143b 02cb 73bc 5e6b 3abd
00000380: 4981 ad3c 2322 e7bc abcd 31bd 17e1 8ebc
00000390: efc8 c0bc 3c59 753c 623a 413d b520 a53b
000003a0: 3d31 0fbd c72e 21bd 1737 e13c d8c4 2abd
000003b0: 52ce 093b c690 27bd fb29 0fbd fbeb 34bd
000003c0: 7cf2 54bc 4498 5e3a 38f9 f9bc 4878 e43c
000003d0: 738e a0ba 4a69 3d3d a00f 19bd 222d 56bc
000003e0: 51fc 80bd 9d22 edbc 6b28 9f3c 9e22 833d
000003f0: cb41 58bc b715 4d3d 4c10 51bc 63d1 40bc

fc.0.bias f4 [100]
-0.018803181 -0.016176986 -0.023880724 -0.014297003 -0.0207118 -0.013265893 -0.01645313 -0.01917427
-0.01693109 -0.016023159 -0.022021648 -0.014490504 -0.014028037 -0.017744066 -0.020449726 -0.021204527
-0.015875556 -0.013275951 -0.022807116 -0.018917894 -0.018011311 -0.011312739 -0.014256133 -0.008908186
-0.017977154 -0.015791303 -0.0061145816 -0.014844024 -0.01590895 -0.013221797 -0.014149626 -0.017961664
-0.014167853 -0.010167518 -0.017598765 -0.021342477 -0.01677446 -0.016857931 -0.00901362 -0.017247055
-0.010110667 -0.016032606 -0.009721569 -0.012519719 -0.013010804 -0.015656438 -0.021596009 -0.007563431
-0.010542194 -0.01295331 -0.02139629 -0.0119355 -0.023107471 -0.022067938 -0.014081911 -0.016062668
-0.012549787 -0.0030571048 -0.016526915 -0.007670763 -0.022440078 -0.0070365355 -0.02050175 -0.018084949
-0.015907945 -0.022100631 -0.009746813 -0.01657324 -0.0021855955 -0.020278817 -0.020764666 -0.022385433
-0.021795562 -0.004109131 -0.00676325 -0.018790781 -0.015419749 -0.010751964 -0.008814089 -0.0104533285
-0.015631555 -0.018734358 -0.016779456 -0.018034713 -0.014972191 -0.017282227 -0.014807203 -0.023184674
-0.014238019 -0.0017166963 -0.020055272 -0.008652466 -0.009159685 -0.022585085 -0.015000473 -0.014617488
-0.013728979 -0.011755969 -0.015236187 -0.015540522
00000000: 2109 9abc 9985 84bc 82a1 c3bc fa3d 6abc
00000010: cbab a9bc 3059 59bc b7c8 86bc 5c13 9dbc
00000020: 12b3 8abc 0043 83bc be66 b4bc 9469 6dbc
00000030: dad5 65bc 015c 91bc 2f86 a7bc 1eb5 adbc
00000040: 740d 82bc 6083 59bc fdd5 babc b3f9 9abc
00000050: 758c 93bc 1159 39bc 8e92 69bc a4f3 11bc
00000060: d344 93bc c35c 81bc d45c c8bb 5934 73bc
00000070: 7c53 82bc 3ca0 58bc d5d3 67bc 5724 93bc
00000080: 4820 68bc a995 26bc 492b 90bc 6bd6 aebc
00000090: 986a 89bc a519 8abc ddad 13bc b249 8dbc
000000a0: 36a7 25bc d056 83bc 3747 1fbc 821f 4dbc
000000b0: 442b 55bc ee41 80bc 1dea b0bc a8d6 f7bb
000000c0: 2bb9 2cbc 1f3a 54bc 4647 afbc 1e8d 43bc
000000d0: e14b bdbc d2c7 b4bc d1b7 66bc db95 83bc
000000e0: 9f9d 4dbc b559 48bb 7463 87bc 065b fbbb
000000f0: 41d4 b7bc bd92 e6bb 49f3 a7bc e326 94bc
00000100: 6151 82bc 620c b5bc 19b1 1fbc 9ac4 87bc
00000110: 353c 0fbb c31f a6bc a91a aabc a861 b7bc
00000120: 9b8c b2bc e4a5 86bb 419e ddbb 20ef 99bc
00000130: 1da3 7cbc 0129 30bc f868 10bc 7044 2bbc
00000140: bf0d 80bc cc78 99bc 1275 89bc 89bd 93bc
00000150: ec4d 75bc 7593 8dbc e999 72bc c9ed bdbc
00000160: 9446 69bc c502 e1ba f44a a4bc 13c3 0dbc
00000170: 8112 16bc 5b04 b9bc 8bc4 75bc 307e 6fbc
00000180: 83ef 60bc 1c9c 40bc 33a1 79bc ac9d 7ebc

fc.1.weight f4 [100, 100]
-0.023418983 0.00048150064 -0.0053660935 0.02202136 -0.015658563 0.060227085 -0.0006261197 -0.030088345
0.0010321247 -0.014923191 -0.04962679 0.03663181 0.029890321 0.00027485142 -0.062276933 -0.014541555
0.017981643 0.023693824 -0.026869923 -0.03340337 -0.001681652 0.055328794 0.036520667 0.024190078
0.0032009066 0.02524767 0.021614105 0.031595953 0.044593018 -0.015559616 0.022389667 0.05259706
0.029048048 0.030598339 0.007922558 -0.00633634 -0.023461862 -0.017400773 0.042667154 -0.011844484
0.085001916 0.02668437 0.00020213125 0.017426904 0.03856346 -0.0028057825 -0.022802787 0.020744784
0.02221271 0.023995163 0.009805163 0.046460595 0.016155181 0.015842814 0.034565922 0.018819753
0.0124489125 0.0116539365 0.041989148 0.020889148 0.020748543 0.031730097 0.010140785 0.007636104
0.013449222 0.007068491 0.03488476 0.041980855 0.009033336 -0.016030952 -0.02644453 -0.010277522
0.004393696 0.03871547 0.0061357073 0.0043475274 0.02349448 0.024319079 -0.002980968 0.04427662
0.0625078 0.06391095 0.06399435 0.036904305 0.031178107 0.02469681 0.0035100598 0.0008829989
0.039616194 0.030351358 -0.013709628 0.014898642 0.030309208 -0.040137716 0.04532545 0.041603252
0.0021475349 0.0054349955 0.046329632 0.028221447 0.022822944 0.0052204505 0.010887996 -0.018151369
0.013512468 -0.061744425 -0.026689902 0.014313902 0.035680816 0.019460283 0.0035036718 -0.026573494
-0.04723706 0.023878712 -0.015123073 -0.008079527 -0.021161683 -0.026809124 -0.0028990593 0.008595431
0.044511095 -0.046322025 -0.021254387 -0.021431247 0.0084214555 -0.04182822 -0.028849483 -0.013565568
-0.03242814 -0.011387849 0.006135705 -0.026114428 -0.053103317 0.005052494 0.026926398 0.029511806
0.014930194 0.01868086 -0.06369799 0.020610197 -0.00027105957 -0.052400503 -0.014339689 -0.043638173
-0.014091255 0.023717036 0.019523762 -0.057020582 0.04317889 -0.06277471 -0.0055348747 -0.012027582
0.011496718 0.0017762419 -0.037845094 -0.05022332 -0.040118717 -0.01590909 -0.051787883 -0.021004705
0.052897725 -0.03320559 0.013433102 0.044432048 -0.03597979 0.03083669 -0.040526897 -0.01437713
-0.020685881 0.009376868 -0.025789734 0.014919654 0.0042209714 -0.0034071768 -0.03225078 0.019258216
-0.04981241 -0.03047282 -0.0077025737 -0.047422957 0.002099695 -0.023701733 -0.051965095 -0.029676521
-0.037120104 -0.07005809 0.0055135 0.048859134 -0.049784023 -0.024779525 -0.011273022 0.020872565
-0.03557724 -0.00897394 -0.030520268 -0.019782498 -0.0079858275 -0.041704427 -0.014638026 -0.06453904
0.012678406 -0.0142812235 -0.01292832 -0.0456072 -0.00038011186 -0.03389499 -0.04571951 0.0061250776
0.020726347 -0.0037828765 0.053455666 -0.03774718 -0.02744265 -0.011107611 0.027242016 0.006313661
-0.032846306 0.00036065347 0.02873809 0.00073306914 0.049919516 -0.025148766 -0.040113393 0.004232405
0.013790449 -0.03364407 -0.014890969 -0.027596088 -0.023606857 0.02085935 0.024276383 -0.03195756
-0.03952861 -0.021709496 0.02927532 0.045624316 0.019130055 0.009713649 -0.017784018 0.024132896
-0.038942415 -0.038524117 0.00040874255 -0.044912588 -0.029446524 0.004627174 0.0077848 -0.047596436
0.041135553 -0.055049054 -0.010138118 -0.011894214 0.048370786 0.0030717351 -0.008259308 -0.01148068
00000000: 2bd9 bfbc ec71 fc39 0ed6 afbb 2466 b43c
00000010: 6346 80bc adb0 763d 2f22 24ba d57b f6bc
00000020: 5c48 873a 6680 74bc 7645 4bbd 3d0b 163d
00000030: 8cdc f43c ef19 9039 1916 7fbd b43f 6ebc
00000040: 3d4e 933c 8d19 c23c 501e dcbc f9d1 08bd
00000050: e16a dcba 72a0 623d b296 153d 452a c63c
00000060: 4dc6 513b 34d4 ce3c 1010 b13c c26a 013d
00000070: 2ba7 363d c2ed 7ebc 896a b73c 0470 573d
00000080: 2cf6 ed3c 5ea9 fa3c 9ecd 013c 13a1 cfbb
00000090: 1733 c0bc 118c 8ebc c1c3 2e3d 5e0f 42bc
000000a0: 7c15 ae3d 2e99 da3c 32f3 5339 dec2 8e3c
000000b0: b8f4 1d3d 38e1 37bb e9cc babc f7f0 a93c
000000c0: 6ef7 b53c 8191 c43c d6a5 203c 774d 3e3d
000000d0: df57 843c cac8 813c ff94 0d3d e22b 9a3c
000000e0: 86f6 4b3c 27f0 3e3c d0fc 2b3d b81f ab3c
000000f0: d9f8 a93c 6bf7 013d 8925 263c 4838 fa3b
00000100: 205a 5c3c cd9e e73b 52e3 0e3d 1ef4 2b3d
00000110: 8f00 143c 5853 83bc 33a2 d8bc 0d63 28bc
00000120: fef8 8f3b 1d94 1e3d 0b0e c93b b475 8e3b
00000130: 7f77 c03c ce38 c73c 585c 43bb 675b 353d
00000140: 1704 803d bfe3 823d 780f 833d f828 173d
00000150: 3b69 ff3c f750 ca3c 0809 663b 0e79 673a
00000160: 9744 223d 69a3 f83c 599e 60bc 6f19 743c
00000170: 044b f83c 7267 24bd 2ea7 393d 2c68 2a3d
00000180: a8bd 0c3b 0c18 b23b 24c4 3d3d aa30 e73c
00000190: 2ff7 ba3c 5010 ab3b 9163 323c 2eb2 94bc
000001a0: 6663 5d3c b9e7 7cbd c8a4 dabc db84 6a3c
000001b0: 0c26 123d 2c6b 9f3c dc9d 653b a8b0 d9bc
000001c0: a67b 41bd 4a9d c33c c4c6 77bc fe5f 04bc
000001d0: 445b adbc cf9e dbbc 25fe 3dbb dad3 0c3c
000001e0: 4451 363d 2abc 3dbd ae1d aebc 9590 afbc
000001f0: 25fa 093c 1154 2bbd c055 ecbc 1e42 5ebc
00000200: 5fd3 04bd 1a94 3abc 060e c93b eded d5bc
00000210: dd82 59bd 648f a53b c094 dc3c bec2 f13c
00000220: c69d 743c 9a08 993c 1774 82bd b7d6 a83c
00000230: 001d 8eb9 e9a1 56bd 04f1 6abc f1bd 32bd
00000240: 02df 66bc 3b4a c23c 4cf0 9f3c 6a8e 69bd
00000250: 59dc 303d 0790 80bd e55d b5bb 560f 45bc
00000260: bb5c 3c3c cad0 e83a 7503 1bbd f8b6 4dbd
00000270: 8653 24bd c853 82bc 881f 54bd 0f12 acbc
00000280: 49ab 583d 9602 08bd 8316 5c3c 61fe 353d
00000290: 8b5f 13bd 3a9d fc3c 88ff 25bd 0e8e 6bbc
000002a0: 7075 a9bc 6fa1 193c fe44 d3bc 9071 743c
000002b0: 1350 8a3b f14a 5fbb 6519 04bd 68c3 9d3c
000002c0: 1908 4cbd 23a2 f9bc df65 fcbb 933e 42bd
000002d0: 099b 093b 232a c2bc 5ad9 54bd 2d1c f3bc
000002e0: 400b 18bd 9e7a 8fbd 97aa b43b 8420 483d
000002f0: 55ea 4bbd 6efe cabc 7bb2 38bc f1fc aa3c
00000300: 71b9 11bd 6f07 13bc a405 fabc e80e a2bc
00000310: fdd6 02bc 43d2 2abd 55d4 6fbc 0b2d 84bd
00000320: 17b9 4f3c cbfb 69bc 4ed1 53bc 9ece 3abd
00000330: c049 c7b9 79d5 0abd 6244 3bbd e0b4 c83b
00000340: 4dca a93c 23ea 77bb 54f4 5a3d c99c 1abd
00000350: 69cf e0bc b2fc 35bc a62a df3c d4e2 ce3b
00000360: d989 06bd 1716 bd39 256c eb3c 702b 403a
00000370: 6878 4c3d c904 cebc f14d 24bd fdaf 8a3b
00000380: 56f1 613c 5dce 09bd 40f9 73bc 3111 e2bc
00000390: 2b63 c1bc 3ae1 aa3c 44df c63c eee5 02bd
000003a0: c0e8 21bd 1dd8 b1bc ccd2 ef3c 90e0 3a3d
000003b0: a2b6 9c3c ff25 1f3c caaf 91bc 5ab2 c53c
000003c0: 1582 1fbd 77cb 1dbd 7f4c d639 43f6 37bd
000003d0: d639 f1bc 8d9f 973b a317 ff3b 7bf4 42bd
000003e0: c17d 283d 1e7b 61bd 591a 26bc f3df 42bc
000003f0: 7220 463d 2a4f 493b 0c52 07bc 7619 3cbc

fc.1.bias f4 [100]
0.0097236475 -0.010978813 0.0010309684 -0.012567627 0.00476476 0.0063203094 -0.0003773086 0.007650403
-0.010321405 -0.010694896 0.0003903551 0.008087463 -0.006614545 -0.012113082 0.00076910894 0.008494031
-0.004413155 -0.010728182 0.007754667 0.0033742813 -0.010665844 -0.0006652302 -0.012850354 -0.0035851055
0.0021290402 0.00051155477 -0.0007942379 0.0028317755 0.00042567163 -0.001956953 0.009905459 -0.005705448
-0.011676028 -0.007973229 0.01153011 0.0064411764 -0.00871875 0.010899249 -0.012092392 -0.0018552856
-0.008235074 0.007970618 -0.0020868657 0.0049038446 -0.008505466 1.7620847e-05 0.011753141 -0.0052631414
-0.0059752017 -0.004618666 -0.0052191773 -0.0099692745 0.0038677293 0.0073208013 -0.014384783 -0.010210092
0.010336669 0.0050980574 -0.008174534 -0.010864319 0.0058037727 -0.013255144 -0.0029836243 0.014130803
0.01008172 -0.007145426 0.009919271 0.009366381 0.00865904 -0.003855778 0.0026308482 -0.010980593
-0.009429184 0.0022095523 0.0020109687 -0.0036545582 0.0075830305 0.0050347047 -0.0072239637 0.0018802686
0.008801708 -0.010068413 0.014642535 -0.010274995 0.008587788 -0.013265275 -0.0006329374 0.0065512885
0.0036570402 -0.006255328 -0.0073362193 0.011510238 0.009764638 -0.0004081904 -0.002150298 -4.8077172e-06
0.013446166 0.007922686 -0.012301332 0.002315889
00000000: ef4f 1f3c 7be0 33bc 8f21 873a 73e8 4dbc
00000010: b421 9c3b 991a cf3b 81d1 c5b9 3bb0 fa3b
00000020: 1c1b 29bc a539 2fbc 93a8 cc39 4781 043c
00000030: d3be d8bb f375 46bc 079e 493a 8c2a 0b3c
00000040: 3a9c 90bb 42c5 2fbc dd1a fe3b 0c23 5d3b
00000050: cbbf 2ebc d862 2eba 4b8a 52bc 17f4 6abb
00000060: 5e87 0b3b dc19 063a 6734 50ba 4f95 393b
00000070: ae2c df39 3940 00bb 824a 223c c4f4 babb
00000080: d04c 3fbc 25a2 02bc c9e8 3c3c 8110 d33b
00000090: 17d9 0ebc c492 323c 2b1f 46bc 0e2d f3ba
000000a0: 67ec 06bc 3297 023c ccc3 08bb 6eb0 a03b
000000b0: 835a 0bbc 7bd0 9337 3f90 403c 6e76 acbb
000000c0: a0cb c3bb 2e58 97bb a205 abbb 2b56 23bc
000000d0: bb79 7d3b 55e3 ef3b 27ae 6bbc 3b48 27bc
000000e0: 225b 293c 9b0d a73b 7bee 05bc 4200 32bc
000000f0: 932d be3b 1a2c 59bc e988 43bb e284 673c
00000100: cc2d 253c 2d24 eabb 7084 223c 7375 193c
00000110: a5de 0d3c 38b1 7cbb 4f6a 2c3b f2e7 33bc
00000120: dd7c 1abc 23ce 103b 75ca 033b 5081 6fbb
00000130: 127b f83b 2afa a43b 00b7 ecbb 5873 f63a
00000140: 0a35 103c fcf5 24bc 3ee7 6f3c 7458 28bc
00000150: cbb3 0c3c 9956 59bc b6eb 25ba 31ac d63b
00000160: f4aa 6f3b 7ff9 ccbb ab64 f0bb 7095 3c3c
00000170: dcfb 1f3c 6302 d6b9 04ec 0cbb fa51 a1b6
00000180: 4f4d 5c3c 27ce 013c 878b 49bc 2cc6 173b

fc.2.weight f4 [100, 100]
0.054708786 -0.022117194 -0.028762028 -0.020586856 0.052973915 0.027769426 0.05951696 0.03726251
-0.052625954 -0.04654446 -0.033571184 0.015847776 -0.035651278 -0.044498324 0.040363777 0.07359462
-0.024546335 -0.017171746 0.074164346 0.04336766 -0.10650707 -0.062018633 -0.020771906 -0.04919059
0.014665457 -0.054537293 -0.06443152 0.020505596 0.046316214 0.03881579 0.04655554 -0.03252357
-0.05308075 -0.04448719 0.041243237 0.05735012 -0.025424529 0.028239032 -0.03830784 -0.079447985
-0.045853887 0.07700409 0.055638306 0.017200476 -0.07571347 0.016782269 0.05196941 -0.03143545
-0.057164244 -0.04782528 -0.027868742 -0.023569316 0.014569086 0.045841582 -0.026963506 -0.03838667
0.03938628 0.044401817 -0.042882875 -0.044968005 0.04097251 -0.06317709 0.07741163 0.06865258
0.027844103 -0.047075704 0.0216502 0.036598854 0.048685696 -0.019865585 0.07380933 -0.049143203
-0.08592512 0.018665055 -0.0077742026 -0.009058799 0.043207977 0.038662724 -0.06440673 0.009898538
0.07914471 -0.054108776 0.059646763 -0.047046054 0.035300538 -0.016852407 0.015385321 0.042444505
0.042212527 -0.0066351984 -0.016983323 0.05522863 0.035958488 0.039696854 -0.03527341 -0.048851427
0.03743608 0.031724352 -0.046689913 -0.0039487462 -0.0681631 0.052703246 -0.005083636 0.05801294
-0.045461107 -0.06384365 -0.026469592 -0.05593621 0.036954165 0.04248461 0.030796198 -0.049092747
0.059833463 0.03534444 -0.0753337 -0.060149174 0.055324547 0.049895134 -0.053990666 -0.02043563
0.03589333 0.041515335 0.0388795 0.04518239 -0.046604376 -0.015769465 0.017579626 -0.048668887
-0.062016632 0.0048565706 -0.063709594 0.012173902 0.035246003 0.020479076 -0.051209982 -0.049718697
0.07994595 -0.043547377 0.014451943 0.06617802 -0.016052524 -0.04111104 -0.056504734 -0.019745376
0.05352325 -0.016308906 -0.028174913 0.00310652 0.04429172 0.032933373 0.028997306 0.060362417
0.0016320919 -0.06440228 0.021868287 0.04406905 -0.047889844 -0.04730747 0.0684981 -0.0013068421
-0.0687606 0.0039650532 -0.03250709 -0.04480791 0.016294442 0.021543255 -0.062460095 -0.008926379
-0.043640763 0.04524098 -0.057974298 0.011562278 0.021163521 -0.019096468 -0.023731787 -0.044740178
-0.04969573 -0.025589714 0.023292353 -0.04191834 -0.029164793 0.02842751 -0.06706366 0.07480855
-0.028967591 0.07198034 -0.01922656 -0.050637763 -0.043848928 0.056855563 0.071302414 -0.05941536
-0.025128353 -0.058481302 0.021418957 0.035606775 -0.045652207 -0.072180256 -0.013391907 -0.06262819
-0.044347666 0.031927653 0.030788807 0.055134136 -0.045483503 -0.0063572214 -0.024230411 -0.01575667
0.06355123 0.081870236 0.013805278 -0.052969474 0.033032563 0.049527824 -0.048369773 -0.058211777
0.030003753 0.07781937 -0.021049641 -0.043077078 0.052844044 0.026905147 0.026965752 0.06286481
-0.0175305 0.018275479 0.043022066 -0.037717354 -0.035265442 -0.015932692 -0.028259013 0.013918542
0.019093562 0.018437272 -0.03639136 -0.04306614 0.015873553 -0.0754614 0.03419626 0.015300095
0.035437074 -0.03023653 -0.04762693 -0.01015914 0.026122129 -0.08056071 -0.08023691 0.03636893
0.01900314 0.05360303 0.0031421452 0.0664473 -1.3477032e-05 -0.057818025 0.034485817 0.046224434
00000000: 5216 603d 1e2f b5bc 589e ebbc c4a5 a8bc
00000010: 2dfb 583d b57c e33c 0ec8 733d 93a0 183d
00000020: 508e 57bd 67a5 3ebd f081 09bd 32d3 813c
00000030: 1307 12bd e043 36bd 7d54 253d c7b8 963d
00000040: 6515 c9bc c3ab 8cbc 7ae3 973d 4aa2 313d
00000050: 6120 dabd 4007 7ebd d829 aabc 127c 49bd
00000060: 6347 703c 7f62 5fbd acf4 83bd 5afb a73c
00000070: 12b6 3d3d 4efd 1e3d 06b1 3e3d 6f37 05bd
00000080: 336b 59bd 3338 36bd abee 283d f6e7 6a3d
00000090: 1a47 d0bc 8b55 e73c aee8 1cbd a0b5 a2bd
000000a0: 49d1 3bbd 52b4 9d3d fee4 633d 03e8 8c3c
000000b0: aa0f 9bbd f87a 893c e0dd 543d 75c2 00bd
000000c0: 0e25 6abd 71e4 43bd fd4c e4bc 7014 c1bc
000000d0: 2db3 6e3c 62c4 3b3d 92e2 dcbc 573b 1dbd
000000e0: 8253 213d aede 353d f4a5 2fbd 5f30 38bd
000000f0: cad2 273d fd62 81bd fd89 9e3d b999 8c3d
00000100: 5119 e43c 74d2 40bd c35b b13c aee8 153d
00000110: a76a 473d 27bd a2bc 5929 973d 624a 49bd
00000120: 82f9 afbd 75e7 983c bdbe febb 5b6b 14bc
00000130: d9fa 303d ce5c 1e3d ade7 83bd 7a2d 223c
00000140: 9f16 a23d 2aa1 5dbd 2a50 743d 5db3 40bd
00000150: 4c97 103d 0f0e 8abc b712 7c3c 4ada 2d3d
00000160: 0be7 2c3d 146c d9bb 9c20 8bbc 6a37 623d
00000170: 3549 133d 2b99 223d da7a 10bd 6f18 48bd
00000180: 9356 193d 65f1 013d ec3d 3fbd 7c64 81bb
00000190: 1899 8bbd 5cdf 573d a194 a6bb fa9e 6d3d
000001a0: 6d35 3abd 76c0 82bd c2d6 d8bc 5e1d 65bd
000001b0: 405d 173d 5804 2e3d 4f48 fc3c 7a15 49bd
000001c0: ef13 753d 55c5 103d 8e48 9abd fb5e 76bd
000001d0: fe9b 623d d75e 4c3d 5125 5dbd 9f68 a7bc
000001e0: e204 133d fc0b 2a3d 1c40 1f3d 2b11 393d
000001f0: 3be4 3ebd f72e 81bc 2603 903c 0759 47bd
00000200: 2705 7ebd de23 9f3b 2d7a 82bd 0c75 473c
00000210: 1d5e 103d bcc3 a73c 8fc1 51bd d5a5 4bbd
00000220: b4ba a33d bc5e 32bd d8c7 6c3c 5788 873d
00000230: 9580 83bc 0d64 28bd 8271 67bd 0ec1 a1bc
00000240: 323b 5b3d 419a 85bc 13cf e6bc c296 4b3b
00000250: 3c6b 353d 25e5 063d c28b ed3c 953e 773d
00000260: ebeb d53a 58e5 83bd 1f25 b33c c081 343d
00000270: 2428 44bd 7ac5 41bd bb48 8c3d 584a abba
00000280: 5cd2 8cbd 47ed 813b 2826 05bd 8088 37bd
00000290: ec7b 853c 7b7b b03c 28d6 7fbd f23f 12bc
000002a0: a8c0 32bd 9b4e 393d 7576 6dbd b56f 3d3c
000002b0: 1f5f ad3c 3270 9cbc 2a69 c2bc 7a41 37bd
000002c0: c08d 4bbd 85a1 d1bc 9bcf be3c 91b2 2bbd
000002d0: 01eb eebc cfe0 e83c ac58 89bd 3a35 993d
000002e0: 714d edbc 6e6a 933d 0581 9dbc 8b69 4fbd
000002f0: ef9a 33bd 61e1 683d 0007 923d 855d 73bd
00000300: fad9 cdbc 178a 6fbd cf76 af3c 69d8 113d
00000310: cffd 3abd 3ed3 93bd bb69 5bbc 3543 80bd
00000320: e6a5 35bd 92c6 023d cf38 fc3c 55d4 613d
00000330: e94c 3abd 3d50 d0bb db7e c6bc 2214 81bc
00000340: 2627 823d 95ab a73d 882f 623c 85f6 58bd
00000350: 274d 073d b0dd 4a3d 621f 46bd 796f 6ebd
00000360: 6eca f53c c35f 9f3d 4c70 acbc 9771 30bd
00000370: ff72 583d 2f68 dc3c 48e7 dc3c 44bf 803d
00000380: 209c 8fbc 75b6 953c e837 303d 837d 1abd
00000390: 7f72 10bd 4785 82bc 727f e7bc 990a 643c
000003a0: 1a6a 9c3c c309 973c 1b0f 15bd 1f66 30bd
000003b0: 4109 823c 828b 9abd 6111 0c3d 40ad 7a3c
000003c0: 7726 113d 99b2 f7bc 7514 43bd 8672 26bc
000003d0: 13fe d53c 03fd a4bd 4053 a4bd 96f7 143d
000003e0: 79ac 9b3c da8e 5b3d 73ec 4d3b 8615 883d
000003f0: 691b 62b7 98d2 6cbd 0041 0d3d d555 3d3d

fc.2.bias f4 [100]
0.00999367 -0.00041386767 -0.002564624 0.007322146 -0.0014787983 0.010598879 0.006104329 0.0102723725
-0.0055966387 0.008136318 0.010272056 0.010316991 0.0061637936 0.00082870445 0.0076466566 0.01075973
5.504873e-05 0.0045275907 0.0077065323 -0.004886015 -0.004109484 -0.0017079286 0.009343547 0.0052799294
0.0051443065 0.0069576614 -0.0014374366 0.009564946 -0.002175355 0.006250357 0.004980218 -0.0042888857
0.007393899 0.0068752244 0.006618091 0.011214544 0.011552135 -0.007389076 -0.0053406465 0.00889121
0.005908912 0.0059900316 0.0064540883 -0.004130077 -0.0071966783 -0.006061643 0.008405115 0.003185532
-0.0008537561 -0.003287505 -0.0052464483 0.0005639503 0.004895346 -0.003514102 -0.0020331205 0.004855865
0.00068826665 0.00689302 -0.0040209526 -0.004556205 -0.004537545 0.008903827 0.004221982 -0.002774663
-0.0022634356 0.006591545 0.010707738 0.012068104 0.0034756 0.007172865 -0.0030544885 -0.004258696
0.008917673 0.006880116 -0.0005467218 0.0060385 0.004552408 0.010245323 0.0047818744 0.006871439
0.010684058 0.009077546 -0.0043986505 0.0073720077 0.0067113265 0.011442709 -0.0018023782 -0.001955501
0.010295581 0.008448485 0.008693439 -0.005007391 -0.0050791483 0.009570386 0.000916984 0.0062114005
-0.005180182 0.0066432273 -0.0036153332 -0.0051858895
00000000: 7dbc 233c 61fc d8b9 4013 28bb 9dee ef3b
00000010: 3dd4 c1ba eca6 2d3c d306 c83b 744d 283c
00000020: 0264 b7bb 314e 053c 204c 283c 9908 293c
00000030: a6f9 c93b 6a3d 593a ce90 fa3b 9449 303c
00000040: 20e4 6638 2f5c 943b 1487 fc3b dd1a a0bb
00000050: daa8 86bb 93dc dfba ad15 193c 4203 ad3b
00000060: 9291 a83b 18fd e33b 5e68 bcba 4bb6 1c3c
00000070: 6790 0ebb cbcf cc3b 1931 a33b c889 8cbb
00000080: 8548 f23b 9049 e13b 92dc d83b 35bd 373c
00000090: 2b45 3d3c 1020 f2bb 9700 afbb 70ac 113c
000000a0: 8c9f c13b 0748 c43b d17c d33b 9955 87bb
000000b0: 1dd2 ebbb bfa0 c6bb 9cb5 093c 5cc4 503b
000000c0: 9ace 5fba 2e73 57bb 66ea abbb 10d6 133a
000000d0: 2369 a03b d94c 66bb 1a3e 05bb f31d 9f3b
000000e0: cb6c 343a d8de e13b 32c2 83bb 384c 95bb
000000f0: b0af 94bb 5be1 113c 8d58 8a3b 1fd7 35bb
00000100: 2656 14bb e3fd d73b 826f 2f3c 4cb9 453c
00000110: e4c6 633b 5a0a eb3b d02d 48bb 888c 8bbb
00000120: 6e1b 123c 9972 e13b e151 0fba 9cde c53b
00000130: 5e2c 953b 00dc 273c 45b1 9c3b cf29 e13b
00000140: 300c 2f3c fdb9 143c 8e22 90bb e290 f13b
00000150: b0ea db3b 337a 3b3c c73d ecba dd27 00bb
00000160: ccae 283c 846b 0a3c ed6e 0e3c 0a15 a4bb
00000170: fc6e a6bb 1ccd 1c3c c161 703a 0189 cb3b
00000180: 84be a9bb 6eaf d93b 3aef 6cbb 65ee a9bb

fc.3.weight f4 [100, 100]
0.060932353 -0.021828406 -0.040308584 0.044877846 -0.027362594 0.075087115 0.039216876 0.06537795
-0.032240953 0.054564923 0.013012549 0.036969386 0.06487165 -0.04655001 0.027128654 0.035750594
-0.01892725 0.028970566 0.054671176 -0.051672455 -0.0450324 -0.031362914 0.055053398 0.018871523
0.06601919 0.04055822 -0.05325739 0.05835979 -0.033167083 0.059017472 0.024522506 -0.055049617
0.03501655 0.045005824 -0.0013770763 0.075981475 0.07101715 -0.037230097 -0.01235663 0.069000356
0.061213817 0.031205967 0.05296957 -0.062132612 -0.021008639 -0.012501411 0.024843968 0.036812942
-0.022128185 -0.07999352 -0.046483006 -0.03237644 0.04106345 -0.021571353 -0.043089483 0.04632834
-0.051466916 0.051443648 -0.064813815 -0.014285125 -0.054965265 0.094271675 0.08434303 -0.018771913
-0.022992713 0.02253106 0.027886985 0.057647195 0.03778705 0.050917212 -0.043176893 -0.02126633
0.0459114 0.0064777415 -0.044124532 0.047328625 0.031556647 0.0694697 0.06472254 0.0288329
0.06149847 0.035680756 -0.043642662 0.027485507 0.046097733 0.03288773 -0.06132277 -0.07741175
0.051715262 0.041788764 0.07114282 -0.054010123 -0.053966843 0.050949033 -0.05650396 0.04617154
-0.039039083 0.06594023 -0.033710063 -0.048227057 -0.06331974 0.05776099 0.013429439 -0.023270132
0.029028688 -0.014652953 -0.0830482 -0.034721483 0.048712857 -0.028230514 -0.033288218 -0.050108954
-0.04106951 0.045933347 -0.071872585 -0.07077854 0.043673113 -0.08835121 -0.05082158 0.039268572
0.026494265 0.031218339 -0.04315392 -0.0459325 -0.017921433 -0.031242142 0.05959259 -0.044338852
0.041126434 -0.035005752 0.011367224 0.059373956 -0.042392 -0.03862237 -0.07070241 -0.055179596
-0.03828163 0.020117065 0.03451593 -0.048340127 -0.04719014 -0.05894334 -0.0457401 0.038186785
0.06276 0.052185435 -0.050306797 -0.041808117 0.010222848 0.039966445 0.06504726 0.021718059
-0.056095198 0.040795516 0.039289076 0.0061006052 0.036311556 -0.0465007 0.047250137 0.027875092
0.014729347 -0.04758716 -0.048180502 0.07111017 0.05904916 -0.047410738 -0.041471034 -0.056744125
-0.06001756 -0.03944109 0.025531135 0.03281032 -0.046115514 -0.0780986 0.025501844 -0.035027463
-0.04158919 -0.0051451963 -0.026937362 -0.0744239 -0.046712853 -0.074880585 0.01532606 -0.06062009
-0.024466267 -0.062250666 0.0602101 0.03629442 -0.06537874 -0.053401962 -0.06099104 0.07005908
0.019678302 -0.061824996 0.0494237 -0.073186904 0.038815558 -0.037429333 0.067657225 0.036715966
-0.059136037 0.03679208 0.039016556 -0.059944026 0.028362887 -0.05949898 -0.04039855 -0.053041518
0.079817824 -0.022150787 -0.08286492 -0.05991933 -0.07561223 0.08330533 -0.021673556 -0.054077018
0.020044375 -0.048430957 -0.041935388 0.08193145 0.0462222 0.042630136 -0.046900496 -0.04006195
-0.0249044 -0.025293887 0.017893411 -0.037535522 0.044397585 -0.070328385 -0.0704975 0.05299815
-0.06995551 -0.045648232 -0.07685888 -0.040110946 -0.06249092 0.029605886 0.051901147 -0.04529214
-0.018772695 -0.04111715 -0.06861359 0.0027216603 0.029798571 0.056811836 -0.016600506 -0.041936733
0.05704553 0.062460806 0.021518731 0.046435904 -0.056520667 0.044301193 0.04040882 -0.065352224
00000000: 3494 793d 7cd1 b2bc 9d1a 25bd d5d1 373d
00000010: 8527 e0bc 46c7 993d e0a1 203d e0e4 853d
00000020: 170f 04bd 787f 5f3d 9632 553c 366d 173d
00000030: 6ddb 843d 39ab 3ebd e93c de3c 376f 123d
00000040: 520d 9bbc ae53 ed3c e2ee 5f3d 7fa6 53bd
00000050: e573 38bd 6676 00bd ac7f 613d 7498 9a3c
00000060: 1235 873d 6020 263d 6c24 5abd ad0a 6f3d
00000070: 35da 07bd 4ebc 713d 6ce3 c83c b57b 61bd
00000080: 846d 0f3d 0758 383d 037f b4ba 2d9c 9b3d
00000090: 7171 913d 967e 18bd 7673 4abc 0f50 8d3d
000000a0: 57bb 7a3d a8a3 ff3c 9ff6 583d c47e 7ebd
000000b0: 4f1a acbc b8d2 4cbc 9485 cb3c 2bc9 163d
000000c0: 2b46 b5bc a5d3 a3bd f764 3ebd 289d 04bd
000000d0: 2632 283d 68b6 b0bc 997e 30bd c9c2 3d3d
000000e0: f9ce 52bd 93b6 523d 1bbd 84bd 280c 6abc
000000f0: 4223 61bd 8211 c13d 0abc ac3d 8ec7 99bc
00000100: 375b bcbc 0f93 b83c 3f73 e43c 771f 6c3d
00000110: 98c6 1a3d 918e 503d 41da 30bd ba36 aebc
00000120: 980d 3c3d 3c43 d43b edbb 34bd a9db 413d
00000130: 8b41 013d 2146 8e3d 408d 843d f932 ec3c
00000140: d2e5 7b3d fc25 123d a6c2 32bd 4929 e13c
00000150: fad0 3c3d 49b5 063d 962d 7bbd 0d8a 9ebd
00000160: 62d3 533d b22a 2b3d 54b3 913d b839 5dbd
00000170: 560c 5dbd efaf 503d b270 67bd 5e1e 3d3d
00000180: 72e7 1fbd ac0b 873d 9013 0abd bc89 45bd
00000190: c8ad 81bd ca96 6c3d 2607 5c3c 01a1 bebc
000001a0: 92cd ed3c f012 70bc 2d15 aabd 1d38 0ebd
000001b0: 2287 473d ae43 e7bc 3a59 08bd 0c3f 4dbd
000001c0: 8138 28bd 9b24 3c3d ef31 93bd 57f4 90bd
000001d0: 94e2 323d 7bf1 b4bd 4a2a 50bd 15d8 203d
000001e0: 800a d93c 9abd ff3c 2ac2 30bd b823 3cbd
000001f0: f8cf 92bc 85ef ffbc 5c17 743d a89c 35bd
00000200: 3174 283d 3162 0fbd 983d 3a3c 1b32 733d
00000210: 3ca3 2dbd 7e32 1ebd 6dcc 90bd 0004 62bd
00000220: 33cd 1cbd 8bcc a43c 9360 0d3d 4c00 46bd
00000230: 734a 41bd 926e 71bd f959 3bbd bf69 1c3d
00000240: 5188 803d 65c0 553d 800e 4ebd fd3e 2bbd
00000250: bb7d 273c dbb3 233d 7f37 853d 12ea b13c
00000260: 14c4 65bd 3319 273d 95ed 203d 96e7 c73b
00000270: 6dbb 143d 8577 3ebd 5c89 413d 4e5a e43c
00000280: 5c53 713c c1ea 42bd eb58 45bd 35a2 913d
00000290: 88dd 713d c331 42bd 88dd 29bd 876c 68bd
000002a0: f9d4 75bd fb8c 21bd ac26 d13c 1d64 063d
000002b0: 9fe3 3cbd 29f2 9fbd 3ee9 d03c f578 0fbd
000002c0: 6d59 2abd 0999 a8bb beab dcbc 8f6b 98bd
000002d0: fa55 3fbd fe5a 99bd 281a 7b3c c64c 78bd
000002e0: 7b6d c8bc 8efa 7ebd de9e 763d 75a9 143d
000002f0: 4ae5 85bd 04bc 5abd bed1 79bd 237b 8f3d
00000300: 6434 a13c 353c 7dbd 8170 4a3d 04e3 95bd
00000310: 10fd 1e3d 804f 19bd df8f 8a3d 7b63 163d
00000320: a138 72bd 4bb3 163d d3cf 1f3d de87 75bd
00000330: 4959 e83c 34b5 73bd f378 25bd 1042 59bd
00000340: 8777 a33d 9175 b5bc 15b5 a9bd f96d 75bd
00000350: 96da 9abd fc9b aa3d be8c b1bc dd7f 5dbd
00000360: 1a34 a43c 8a5f 46bd 71c4 2bbd adcb a73d
00000370: 7d53 3d3d f09c 2e3d bc1a 40bd 0018 24bd
00000380: 5004 ccbc 2035 cfbc 3495 923c d9be 19bd
00000390: 3eda 353d 5408 90bd fe60 90bd 9714 593d
000003a0: d644 8fbd a4f9 3abd 3068 9dbd 604b 24bd
000003b0: 7bf6 7fbd 0b88 f23c 4c96 543d 4084 39bd
000003c0: 32c9 99bc 756a 28bd 4885 8cbd e25d 323b
000003d0: 221c f43c 87b3 683d c9fd 87bc dac5 2bbd
000003e0: 93a8 693d e7d6 7f3d 0d48 b03c 9333 3e3d
000003f0: 3782 67bd 2b75 353d b883 253d 63d7 85bd

fc.3.bias f4 [100]
0.007294909 -0.00081812235 0.002240215 0.007810921 0.0057628388 0.007664213 0.0058882316 -0.0005237962
0.0068704663 -0.0007992386 0.007033038 0.005913913 0.005457009 -0.00024944718 0.00744539 0.0012548226
0.00723116 0.0013571149 -0.0019651924 -0.00077480084 0.007177416 0.0061971126 -0.0011544887 0.0066877133
0.0059285588 0.0014540681 0.007840054 0.00825777 -0.00053200166 0.00029560935 0.0066867126 0.0073060137
0.007517103 -0.00055276504 0.0014335482 0.008037828 0.007986141 0.006148739 -0.00064502895 0.0011723178
0.0061202706 0.0010640268 0.006512145 -0.00045543065 0.0072248275 0.00058784365 0.0067985496 0.006646171
0.0026369558 0.006707099 0.00043316535 -0.00017284798 0.0076562557 0.0010347691 0.008364997 0.0063723177
0.007376735 0.006517564 0.005497185 0.001165383 0.0062648486 -0.001088813 -0.0020652427 0.008814518
0.008635597 0.0016703213 0.0059394552 0.005826985 0.0058763674 -0.00064169796 0.0058984244 0.0060569975
-7.109229e-05 0.0011687374 0.007569045 0.00023388912 0.0076357527 0.0017479665 0.00034992854 0.008799008
-0.00011407973 -0.00011623572 -5.602342e-05 -0.0012381301 -1.0660663e-05 0.00067318795 0.0009786648 0.00050761533
0.00084190286 -0.00031672927 0.0007094628 2.1887441e-05 -0.0007687827 0.0018283966 0.007110987 0.0008926949
-0.0006974823 0.0057922127 0.0062996782 0.0064452384
00000000: 220a ef3b 4377 56ba 92d0 123b c1f2 ff3b
00000010: 32d6 bc3b 1424 fb3b 11f2 c03b 5e4f 09ba
00000020: a621 e13b ff83 51ba 6675 e63b 7fc9 c13b
00000030: b6d0 b23b 3cc8 82b9 75f8 f33b dc78 a43a
00000040: 5ef3 ec3b 38e1 b13a 75ca 00bb 011c 4bba
00000050: 8730 eb3b 2611 cb3b 3652 97ba 9b24 db3b
00000060: 5b44 c23b 6e96 be3a 9273 003c 994b 073c
00000070: 0776 0bba 04fc 9a39 361c db3b 4967 ef3b
00000080: 0852 f63b 6fe7 10ba e5e5 bb3a 18b1 033c
00000090: 4ed8 023c 5c7b c93b 2917 29ba 75a8 993a
000000a0: 8d8c c83b d176 8b3a d563 d53b dec6 eeb9
000000b0: 3fbe ec3b 8519 1a3a 5ec6 de3b 20c8 d93b
000000c0: c7d0 2c3b 39c7 db3b 781a e339 873e 35b9
000000d0: 54e1 fa3b 17a1 873a 570d 093c e0ce d03b
000000e0: 8ab8 f13b 4a91 d53b bb21 b43b c4bf 983a
000000f0: 5c49 cd3b 80b6 8eba 0659 07bb c56a 103c
00000100: 527c 0d3c afee da3a c39f c23b 4bf0 be3b
00000110: 8b8e c03b 9f37 28ba 9247 c13b c779 c63b
00000120: 6217 95b8 5230 993a c005 f83b 2240 7539
00000130: 5635 fa3b 061c e53a 9d76 b739 b729 103c
00000140: 173e efb8 94c3 f3b8 b0fa 6ab8 c148 a2ba
00000150: 33db 32b7 e178 303a 8b46 803a 7d11 053a
00000160: 25b3 5c3a af0e a6b9 3efb 393a ec9a b737
00000170: 2288 49ba cfa6 ef3a 4803 e93b be03 6a3a
00000180: 3fd7 36ba 9acc bd3b 886d ce3b 9432 d33b

fc.4.weight f4 [100, 100]
0.04513718 -0.05193304 -0.029914098 0.027596936 0.0672823 0.09399426 0.04988719 -0.079975314
0.08377328 -0.06348704 0.04643229 0.051540144 0.027505172 -0.03183123 0.063921645 -0.10706307
-0.0068420195 -0.020839756 -0.028448734 -0.028846523 0.016270135 0.09117647 -0.045626 0.015200962
0.012922686 -0.035302203 0.059206117 0.046492696 -0.045322735 -0.038384642 0.040796105 0.02598784
0.023833683 -0.051816598 -0.05104453 0.07642627 0.057123024 0.037749335 -0.057935316 -0.083448775
0.038406305 -0.045206327 0.03150186 -0.09739352 0.057673413 -0.060951464 0.046603777 0.022058506
-0.073735185 0.016736822 -0.06595303 -0.008343713 0.02258651 -0.04318553 0.055652138 0.036933377
0.034918696 0.047775365 0.04936489 -0.050440267 0.07129864 -0.051791273 -0.070127845 0.08460161
-0.0030890047 -0.018724715 0.042521585 0.036490694 0.02845041 -0.045570254 0.07585767 0.04907589
-0.055502206 -0.0768846 0.029351886 -0.010340328 0.032768194 -0.04915109 -0.048874434 0.08357535
-0.021018734 -0.04660991 -0.054541428 -0.036156334 -0.060070317 -0.039911166 -0.06963371 -0.054062627
-0.05812595 -0.07662336 -0.04659015 -0.052478533 -0.025402034 -0.057644762 0.06305078 -0.0071012285
-0.10081421 0.040912706 0.03959981 0.0031139348 0.063759446 -0.047722287 -0.054788604 0.04569827
0.052446015 0.088565014 0.0656453 -0.02016861 0.075042225 -0.046764556 0.06571092 0.061903615
0.043431196 -0.02337585 0.07729273 -0.078980446 0.04710632 -0.021739101 -0.05962946 -0.035482235
0.04950957 0.07290039 -0.03761271 0.055122435 0.079934604 -0.011136208 0.07192882 0.058486834
-0.025292521 -0.03473841 0.06909877 0.034706917 -0.0064346683 -0.03743126 -0.05765993 0.028766308
0.02336549 0.072477266 -0.063710995 -0.0744457 0.040676504 -0.068093844 0.00897597 -0.022393977
0.016649116 -0.028961364 0.06347588 0.06624664 -0.0056983046 0.058601372 -0.033755463 -0.066923045
0.059218235 -0.070063725 0.03393074 0.069776215 0.04290026 0.024030987 0.061922252 -0.048427634
0.030306822 -0.033383142 -0.06616238 0.01697964 0.04336616 -0.024362048 0.031309742 0.043895986
0.07608374 -0.065270826 0.024442505 0.03698019 -0.06997699 -0.039184403 0.005390482 -0.0144033795
0.0797275 -0.06043138 -0.05017561 0.08223027 -0.029258814 -0.06298688 -0.02616397 -0.026052712
-0.053059343 -0.022871846 -0.041503087 -0.03447856 -0.035128478 -0.056798078 -0.033154905 -0.04945763
-0.033945747 -0.022148047 0.04262534 -0.02360655 -0.06117753 0.082289696 0.03806133 0.06617017
-0.073469736 0.04113563 0.07795292 -0.032515682 -0.035876878 -0.02158516 -0.037343334 0.0684917
-0.070418425 0.05718419 -0.061922096 -0.059215814 -0.056200977 0.020171307 -0.056744132 0.027032062
-0.049187347 0.04522184 0.038884223 0.026946088 -0.052588947 -0.0075538987 0.055171322 -0.010822882
-0.04670865 0.037209723 -0.04979018 -0.04567839 0.05386959 0.046805084 -0.023721531 -0.039887168
-0.06962036 0.028152423 0.07767363 -0.075037286 -0.0045016785 -0.049921103 0.008422498 0.034689736
-0.059158683 0.020765193 -0.029789248 0.02068009 -0.04575043 0.028539602 -0.04882688 -0.022635536
0.0677723 -0.030127643 0.053721163 0.06633654 -0.08810064 0.019982563 -0.060508918 -0.04906813
00000000: c3e1 383d bdb7 54bd 690e f5bc f812 e23c
00000010: 4dcb 893d 1080 c03d 8356 4c3d 19ca a3bd
00000020: 5391 ab3d 7e05 82bd c92f 3e3d c21b 533d
00000030: 8752 e13c 7761 02bd 5ae9 823d e243 dbbd
00000040: 0533 e0bb 23b8 aabc 520d e9bc 8b4f ecbc
00000050: f248 853c bbba ba3d 54e2 3abd 750d 793c
00000060: acb9 533c 0b99 10bd 1d82 723d 206f 3e3d
00000070: 55a4 39bd 3739 1dbd d119 273d 73e4 d43c
00000080: db3e c33c a43d 54bd 1214 51bd 6085 9c3d
00000090: d5f9 693d 0c9f 1a3d 954d 6dbd 31e7 aabd
000000a0: ee4f 1d3d 452a 39bd 1808 013d 4176 c7bd
000000b0: f53a 6c3d 3ea8 79bd 9ae3 3e3d 0ab4 b43c
000000c0: 7902 97bd a91b 893c 6212 87bd 12b4 08bc
000000d0: 5807 b93c 4fe3 30bd 7ff3 633d 7447 173d
000000e0: e806 0f3d 1ab0 433d d732 4a3d 749a 4ebd
000000f0: 0505 923d 1623 54bd 309f 8fbd 9c43 ad3d
00000100: e670 4abb 9364 99bc 1d2b 2e3d 4477 153d
00000110: d610 e93c e0a7 3abd 445b 9b3d cd03 493d
00000120: 4856 63bd ac75 9dbd 5e73 f03c 7b6a 29bc
00000130: f137 063d a752 49bd 8f30 48bd 8e29 ab3d
00000140: 7b2f acbc 08ea 3ebd d566 5fbd aa18 14bd
00000150: 4b0c 76bd e479 23bd 1e9c 8ebd c670 5dbd
00000160: 7a15 6ebd b5ec 9cbd 50d5 3ebd bbf3 56bd
00000170: ed17 d0bc ea1c 6cbd c420 813d 6cb1 e8bb
00000180: ae77 cebd 1594 273d 6933 223d 2813 4c3b
00000190: 5094 823d 7278 43bd 046a 60bd 1c2e 3b3d
000001a0: a2d1 563d 9361 b53d 0b71 863d a438 a5bc
000001b0: bdaf 993d 318c 3fbd 7293 863d a58e 7d3d
000001c0: e9e4 313d b67e bfbc a74b 9e3d 80c0 a1bd
000001d0: 8ef2 403d 3316 b2bc 053e 74bd d255 11bd
000001e0: 8cca 4a3d cd4c 953d c90f 1abd 10c8 613d
000001f0: c1b4 a33d a474 36bc 6b4f 933d e48f 6f3d
00000200: 4332 cfbc dd49 0ebd a883 8d3d d728 0e3d
00000210: e9d9 d2bb 8551 19bd d22c 6cbd 52a7 eb3c
00000220: fc68 bf3c f66e 943d e97a 82bd fd76 98bd
00000230: 689c 263d c974 8bbd f20f 133c 9373 b7bc
00000240: ba63 883c 6240 edbc a4ff 813d 52ac 873d
00000250: d8b8 babb fe07 703d 2b43 0abd f30e 89bd
00000260: d28e 723d 927d 8fbd f6fa 0a3d d5e6 8e3d
00000270: 2fb8 2f3d a2dc c43c 30a2 7d3d 0e5c 46bd
00000280: 0346 f83c c3bc 08bd 2480 87bd e318 8b3c
00000290: b7a0 313d eb92 c7bc a53e 003d 47cc 333d
000002a0: cbd1 9b3d b6ac 85bd a63b c83c 8a78 173d
000002b0: 1950 8fbd d37f 20bd a4a2 b03b 27fc 6bbc
000002c0: 2c48 a33d e586 77bd f184 4dbd 5868 a83d
000002d0: 2eb0 efbc 44ff 80bd d255 d6bc 7f6c d5bc
000002e0: c154 59bd bd5d bbbc 24ff 29bd 6439 0dbd
000002f0: e1e2 0fbd 1aa5 68bd 70cd 07bd 1594 4abd
00000300: b20a 0bbd d26f b5bc e997 2e3d 8662 c1bc
00000310: 4a95 7abd 8087 a83d 32e6 1b3d 3a84 873d
00000320: 4d77 96bd d67d 283d c8a5 9f3d 2a2f 05bd
00000330: a2f3 12bd 5dd3 b0bc 53f5 18bd 6045 8c3d
00000340: 8937 90bd f839 6a3d 06a2 7dbd 488c 72bd
00000350: ff32 66bd 4c3e a53c 896c 68bd 5872 dd3c
00000360: ac78 49bd 893a 393d 1045 1f3d 0bbe dc3c
00000370: 8267 57bd b286 f7bb 53fb 613d 7552 31bc
00000380: 9251 3fbd 3969 183d caf0 4bbd 4319 3bbd
00000390: 5ca6 5c3d b0b6 3f3d a853 c2bc ba60 23bd
000003a0: 1f95 8ebd e99f e63c 5a13 9f3d 26ad 99bd
000003b0: d182 93bb 127a 4cbd 84fe 093c d316 0e3d
000003c0: 6050 72bd c41b aa3c 9508 f4bc 4b69 a93c
000003d0: ce64 3bbd e2cb e93c b2fe 47bd 296e b9bc
000003e0: 34cc 8a3d 3fce f6bc b90a 5c3d 74db 873d
000003f0: 1c6e b4bd 79b2 a33c 33d8 77bd aafb 48bd

fc.4.bias f4 [100]
0.005007906 0.007956456 0.004219489 0.0042910646 0.0081159985 0.006199072 0.0075003314 0.0038872526
0.005602435 0.0070333336 0.0048691523 0.0061877817 0.0072744666 0.004505622 0.0052834433 0.004915636
0.0050563114 0.0043597333 0.0049233306 0.006056891 0.0060218545 0.0067340108 0.005709021 0.007819341
0.0057710255 0.006737023 0.005671698 0.0069330414 0.0051471204 0.0067419265 0.0060463487 0.0066985264
0.0059557194 0.0057040425 0.0044851266 0.0063355765 0.004677463 0.005760935 0.0065165367 0.005087707
0.0068659415 0.0058635673 0.0059013898 0.0062830695 0.0053527695 0.0070091677 0.0047492613 0.0074362652
0.005807643 0.0037485245 0.0074495473 0.0051574497 0.0057764924 0.0060621584 0.006144814 0.005470661
0.004072807 0.006524102 0.0061126817 0.0048991744 0.0051068095 0.0062478343 0.0066717216 0.005906899
0.009245324 0.005552242 0.005680495 0.0075011 0.0059290044 0.007415267 0.0057395236 0.0078077875
0.007888244 0.005261549 0.0043789726 0.00598534 0.004618118 0.0048035597 0.0014637329 0.008202999
0.0051006274 0.00436653 0.0041327127 0.0072388365 0.0071280776 0.0041183853 0.0019397743 0.0068592983
0.0045487173 0.008413465 0.005551608 0.00654706 0.0066470033 0.0069023524 0.0071313796 0.005084579
0.0064082323 0.006983286 0.00713156 0.005354791
00000000: 5c19 a43b cc5b 023c a443 8a3b 0f9c 8c3b
00000010: f7f8 043c 9621 cb3b 57c5 f53b 47c1 7e3b
00000020: a294 b73b e177 e63b 698d 9f3b e0c2 ca3b
00000030: a65e ee3b e6a3 933b bc20 ad3b 5813 a13b
00000040: 6aaf a53b 18dc 8e3b e453 a13b e278 c63b
00000050: fa52 c53b faa8 dc3b bd12 bb3b b11c 003c
00000060: df1a bd3b 3fc2 dc3b a7d9 b93b 912e e33b
00000070: 2da9 a83b 61eb dc3b 7320 c63b 507f db3b
00000080: 3228 c33b fae8 ba3b f8f7 923b ab9a cf3b
00000090: 6745 993b 3ac6 bc3b ac88 d53b c8b6 a63b
000000a0: b1fb e03b 2b23 c03b 7260 c13b 35e2 cd3b
000000b0: 4966 af3b 29ad e53b b19f 9b3b eaab f33b
000000c0: 0a4e be3b cea9 753b 551b f43b d3ff a83b
000000d0: bb48 bd3b 12a5 c63b 705a c93b 3b43 b33b
000000e0: 2e75 853b 22c8 d53b e44c c83b 4189 a03b
000000f0: 0657 a73b a2ba cc3b 759e da3b a98e c13b
00000100: b379 173c 95ef b53b 7223 ba3b cacb f53b
00000110: 1848 c23b c5fb f23b 9d12 bc3b 78d8 ff3b
00000120: b23d 013c 1269 ac3b 7c7d 8f3b ac20 c43b
00000130: 9553 973b 2e67 9d3b bada bf3a df65 063c
00000140: 2a23 a73b 1c15 8f3b b56b 873b c333 ed3b
00000150: a692 e93b 85f3 863b 0640 fe3a f7c3 e03b
00000160: 680d 953b a1d8 093c 43ea b53b b888 d63b
00000170: 1bcf d93b 212d e23b 59ae e93b 8a9c a63b
00000180: 26fc d13b 0cd4 e43b dcaf e93b 3e77 af3b
