results/Smoothed_MINE_dim10_reg1_alpha0.0.pt (torch, 260589 bytes, 13 tensors)

fc.0.weight f4 [100, 20]
00000000: c1a4 f63b 70e9 9eba f478 313d 53ec 9bbc
00000010: 4474 bf3c bb37 753d fe47 f1bc 5085 513c
00000020: bf8c d4b9 41bc 4fbc 889d 06bb 56c5 61bc
00000030: 28df 213d f163 b8bc 46de 083c 4b44 553d
00000040: 08a5 ccbc 8d7c b83c c8e7 ab3c 498a 97bc
00000050: d8eb bc3c 9b9b f1bc 39a2 1a3d f437 d5bc
00000060: 79db 193c e592 43bc 5484 1b3c 35ee 7a3d
00000070: 4c19 02bc 7bdf 1dbb 9670 8dbc e4b6 e13c
00000080: c8dd 35bc aba9 f53b 58fb 123b d6db 063c
00000090: 03b8 223c 6db7 25bd 6c52 bb39 a2f9 ef3c
000000a0: ffc5 093b 07cd 34bc 05b5 c7bc 3581 b73c
000000b0: daf5 dd3b 5818 a439 e1ed 1c3c 9b49 053d
000000c0: 59d9 9f3b 701e 6b3c 9122 cb3b 8848 243c
000000d0: 4f93 cd3b d013 ccbc c29c 91bc 5c75 8ebb
000000e0: 0a70 e3bb 6ad3 dabc 3d89 b7bb ebfa 5cbc
000000f0: 3549 2d3d 2228 4c3d 5ef1 67bd b31f b1bc
00000100: 2850 f53c 3d26 be3c 9f84 a83c 7c3e 80bd
00000110: f688 3c3d cd87 d23c d77b 49bd 91fe 85bd
00000120: c97e 693d 4a6e be3c 484b b9bc 6b06 e5bc
00000130: 8e4f 0dbd 9729 a23d 653f 41bd c305 f2bc
00000140: c548 54bd a274 d8bc ffb5 833c 323a 2f3d
00000150: c95e 85bc 7ae9 f73c 1d39 93bb 2ebc eabc
00000160: e92a 0d3c b82e 8c3d d8ca 20bd 9576 13bd
00000170: 2be8 3dba 606e c33c 6b2b d7bc b7ba 513d
00000180: 8baf d13b 0121 f8bc fb59 8b3c e99b fe3c
00000190: 1dc0 0ebd ff07 a23c 2e6b 333c 71e7 bc3b
000001a0: 6831 183c 9fdc 09bd 96b1 a5bb bfd9 67bc
000001b0: a553 7d3c 91f6 1f3d 6d2d fc3c f6a7 8dbc
000001c0: 0ec2 acbc 4cd3 f2bb e2b8 863c 05df b03c
000001d0: 44d3 50bc 89a2 463c c99d 93bc 1af0 f2bc
000001e0: 15b2 98bc 0a0a 123c 47cf 1cbd 6be9 a1bb
000001f0: 86dd 723d 34ca 313b 14fc 2d3c 36ae 89bc
00000200: 4b37 92bc a4c6 63bb 51e9 03bd ad05 aa3b
00000210: 0dcb 52bd 7361 86bc 449b f43c bea7 89bb
00000220: b0a4 813c f726 cbbc 4b9c e8bc f5e9 b73b
00000230: ad94 8bbc 25f6 333b 1e10 ba3c d9ec 52bd
00000240: ba3d b7ba 2e0e 283d 29d2 213d 2c7b ffbc
00000250: f5c1 c73c f308 63bd 2a9b 49bc caaf d3bb
00000260: f435 993c 4ec5 54bd 1706 223c 7708 093d
00000270: c5ae 013d 4ca5 23bd 7bd1 a83c ff19 64bd
00000280: b1c1 823c 9318 603b bd73 123c 66bc 583c
00000290: 6ee2 1d3c ec8b fb3b 082c fabb 14f5 ca3c
000002a0: e85a f13b 75b0 ba3b 2698 71bc c032 093b
000002b0: 4973 8fbc b19a ccbb 40d8 70bc da5c 69ba
000002c0: 7dc1 f63b 3159 8abc 1857 313c d9c2 4f3b
000002d0: c94c 8d3c aeb0 8d3c b54a 00bd 87c4 f93c
000002e0: ed3c 92bc f05b b3ba 9869 0abb 6296 d33c
000002f0: 83df 223c 7db5 07bd 887a 3bbc 8c62 0fbd
00000300: 006b 653d df5a 03bd fc38 4f3d 69e4 6f3d
00000310: 4cad d63c 9b66 14bc 2b02 8c3c 6194 eebb
00000320: 037b cd3c ea73 893d cfdb 98bc 9cb4 55bd
00000330: 1af4 ae3c 0b2a 31bd aaa7 e73c e249 25bb
00000340: 0be5 3ebd e82d 16bd d3e0 06bd 45bb 7bbd
00000350: 270f 3e3c f179 573d f602 9cbc 2e3f 773d
00000360: a9bb febc a8a4 713c 8f19 1b3d 9f9b 313d
00000370: 4e41 0d3d e60a abba 0cda 1cbd b73f 87bd
00000380: 7df1 0b3d 90fd bebc 5f88 a1bc bb80 59bb
00000390: 25ca 95bd 4163 1abd c9bd e73c a529 a2bc
000003a0: 2757 56bd 6220 5cbd 1cf0 963c bb3e b3bc
000003b0: 1f6f d3bc 7cb2 0cbc 77dd 72bd 50bf 31bd
000003c0: 19b4 44bd 71c2 b7bc f1db 06bd 5cef 0cbd
000003d0: 884e 43bc f565 963d a56e 2ebc 5f8c 14bd
000003e0: 8e7d eabc ad4c 1fbd 47bf 433d 891b 0e3d
000003f0: b80e 273d 9211 fa3c 5937 6139 a0fe 69bd
0.0075269644 -0.0012124013 0.04332824 -0.019033587 0.02337087 0.0598676 -0.029453274 0.012788132
-0.00040540655 -0.012679161 -0.0020540673 -0.013779959 0.03951946 -0.022508593 0.008353775 0.052067082
-0.024981037 0.022520328 0.020984545 -0.018498557 0.023061678 -0.029493144 0.037752364 -0.026027657
0.009390705 -0.011936878 0.009491999 0.06126233 -0.007940602 -0.0024089504 -0.0172656 0.02755303
-0.01110024 0.0074970326 0.0022427645 0.008231124 0.009931567 -0.04045813 0.00035728829 0.029293839
0.0021022556 -0.01103521 -0.024378309 0.022400478 0.0067736926 0.00031298655 0.009578199 0.0325409
0.004878205 0.014350519 0.006199189 0.010027058 0.006273664 -0.024911791 -0.017774943 -0.0043474864
-0.0069408463 -0.026712138 -0.005601077 -0.013487558 0.042306144 0.04984296 -0.05662667 -0.02162156
0.029945448 0.023211593 0.020571051 -0.06261918 0.046029054 0.02569952 -0.04919037 -0.06542695
0.057005677 0.02324595 -0.022618905 -0.027957162 -0.034499697 0.07918089 -0.0471796 -0.029543763
-0.05182721 -0.026422802 0.016077993 0.04278011 -0.016280549 0.030262697 -0.0044928924 -0.028654184
0.008616188 0.068448484 -0.039255947 -0.03600176 -0.00072443736 0.023856342 -0.02626582 0.051203456
0.0063991 -0.030289175 0.01701068 0.031080203 -0.034851182 0.019779203 0.010950847 0.0057648947
0.009289123 -0.033657666 -0.0050565703 -0.014151036 0.015461837 0.039053503 0.03078338 -0.017292004
-0.021088626 -0.0074104425 0.01644558 0.021590719 -0.012745682 0.012123712 -0.018019574 -0.029655505
-0.018639604 0.008913526 -0.038283613 -0.0049411557 0.059293292 0.002712858 0.010619182 -0.016806703
-0.017848631 -0.003475585 -0.03220493 0.005188665 -0.051463176 -0.01640389 0.029859193 -0.0042009046
0.0158256 -0.024798853 -0.028394839 0.0056126066 -0.017038668 0.0027459946 0.022712763 -0.051495407
-0.0013980188 0.041029148 0.039507065 -0.031186663 0.024384478 -0.055428457 -0.01230506 -0.0064601647
0.018702485 -0.051945977 0.009889147 0.03345534 0.031660814 -0.03995256 0.0206077 -0.055688854
0.0159615 0.0034194335 0.008938727 0.013228511 0.009636505 0.007676592 -0.0076346435 0.024775065
0.007365573 0.005697305 -0.014745748 0.002093479 -0.017511027 -0.0062440266 -0.0146999955 -0.00089020806
0.00753039 -0.016888233 0.010823987 0.0031701832 0.017248528 0.017296162 -0.031321246 0.03048922
-0.017851317 -0.0013684016 -0.0021120068 0.025828544 0.009940985 -0.033132065 -0.011442788 -0.03500609
0.056010246 -0.032069083 0.050591454 0.05856744 0.026205681 -0.009057666 0.017090878 -0.0072808717
0.02508307 0.06711562 -0.0186595 -0.052174196 0.021356631 -0.043252986 0.02827819 -0.002522104
-0.04660515 -0.036664873 -0.032929253 -0.06145789 0.011600292 0.052606527 -0.01904438 0.060362987
-0.031095343 0.01474873 0.03786617 0.043361302 0.034486108 -0.0013049513 -0.038293883 -0.066039495
0.034165848 -0.023314267 -0.019718347 -0.0033188302 -0.07313947 -0.037692312 0.028288739 -0.019795248
-0.05232921 -0.05374182 0.01842504 -0.021880498 -0.025809823 -0.008587476 -0.059293237 -0.04339534
-0.048023317 -0.022431584 -0.032924596 -0.03440796 -0.011920579 0.073436655 -0.010646497 -0.03626668
-0.028624322 -0.038891483 0.04778984 0.03469423 0.04078552 0.030525956 0.00021478291 -0.057127595

fc.0.bias f4 [100]
00000000: 2553 5cbc cea0 b63c 70a8 013b 3d8f 51bc
00000010: 5bbd 85bc f2ba 74bb b494 84bc 71ab 94bc
00000020: 86e2 833b 22bc a03c a667 8bbc b5f5 b8bc
00000030: f1dc 0abc b039 40bc cfb1 aebc e612 9cbc
00000040: 12a4 9bbc 89b3 3ebc 2a20 ac3c 7ecf 80bc
00000050: 1805 483b 2c3a 42bc da67 1fbc d71a 6ebc
00000060: fa30 d8bb 222e 86b9 93ac 87bc 214d 0d3c
00000070: 6313 94bc e888 efbb a91b c63c 9400 33bc
00000080: 772e 7cbc 5511 88bc c843 15bc 4966 993c
00000090: c286 94bc 70aa 99bc 0ece 2cbc 606b 5dbc
000000a0: ef63 e4b9 101c b7bc 4bf7 3bbc df80 fcbb
000000b0: 3380 78bc 828b e1bb 4c66 05bc 3695 333b
000000c0: f375 59bc d6f7 adbc 3163 a1bc 40c9 89bc
000000d0: d487 91bc 985c 54bc 9460 51bc 0b39 a2bc
000000e0: fdb1 9fbc c0ec 78bc 1e76 9ebc 3ebe 4ebc
000000f0: 76e0 d2bb 6dc7 8c3c 02c9 c0bc 1ac8 68bc
00000100: c6da 803c b554 03bd 6daa 933c 730d 80bc
00000110: 22fb 9fbc 2435 83bc 5ba9 79bc 9c16 1dbc
00000120: 521d a2bc 6bc6 98bc 507f dfbb 7d4f 90bc
00000130: 795d 7bbc df02 53bc 4e59 80bc 2c96 cd3b
00000140: 4dfd 09bc 02aa 5bbc e935 51bc 5cd3 8ebc
00000150: 898d 12bc 9b9f c1ba abea d93c 7dbf 1abc
00000160: 62b0 2abc 4a62 bf3c d0d3 4bbd d98f 293c
00000170: 3318 8cbb 928c 92bc 8e94 91bc 876d 4d3c
00000180: 9a66 c83c 12f6 6abc a2be 4abc 99e1 42bc
-0.013447558 0.022293475 0.0019784234 -0.012790498 -0.016325643 -0.0037342873 -0.016184188 -0.018148156
0.0040248064 0.019620959 -0.017017197 -0.0225781 -0.008475528 -0.011732504 -0.02132502 -0.01905198
-0.018999133 -0.011639484 0.02101143 -0.01572394 0.0030520614 -0.01185469 -0.00972935 -0.014532766
-0.0065976353 -0.00025592843 -0.016561782 0.008624346 -0.01807565 -0.0073100217 0.024183111 -0.010925431
-0.015391937 -0.016609827 -0.009110399 0.018725531 -0.018130664 -0.018758029 -0.010547174 -0.01351437
-0.00043562005 -0.022352248 -0.011472533 -0.0077057923 -0.015167284 -0.0068830857 -0.008142065 0.002740217
-0.01327275 -0.021236341 -0.019700618 -0.016819596 -0.017764963 -0.012961529 -0.012779374 -0.01980259
-0.019494051 -0.015193164 -0.019343432 -0.012618599 -0.0064354492 0.017184937 -0.023533348 -0.014207864
0.01572932 -0.032063205 0.018025601 -0.015631413 -0.01952893 -0.01601655 -0.015238131 -0.00958791
-0.019789372 -0.0186493 -0.0068205968 -0.017616028 -0.01534211 -0.0128791025 -0.015667584 0.0062740054
-0.008422208 -0.013407232 -0.012769201 -0.017434768 -0.008944877 -0.0014772298 0.026601156 -0.009445068
-0.0104180295 0.023362298 -0.049762547 0.010349237 -0.0042753457 -0.017889295 -0.017771032 0.01253832
0.024462987 -0.014340894 -0.012374552 -0.011894607

fc.1.weight f4 [100, 100]
00000000: 1bd2 ddbc 4ce6 ef3c fdad b43c 0390 093d
00000010: dd0f b8bc 7971 113c 800e 12bd 55ed c0bc
00000020: 41c4 3d3c 3299 773c 976e 893c b9f6 92bc
00000030: 4a7d 2d3d 3062 223c ad98 8abd bb58 843d
00000040: ab1a edbc ff42 a73d 58ea 89bc adf5 e4bc
00000050: 758a 0f3d a16e b63c d54b 0e3d 670d 67ba
00000060: 2ec4 f23d ed07 9abc 48b4 ba3d 2e23 ad3b
00000070: 85a7 5dbc 9ddf 9dbc ed9b 0e3d 3ad9 0e3d
00000080: c817 463d 301d 653d c377 8f3d fee0 013c
00000090: a86d 073d 2368 00bd 7b1e df3d 737f 913d
000000a0: 0c13 a13d 9b50 fdbc 5cd9 42bd fe6f 753d
000000b0: ce85 c13d a029 b53d 28cb dd3c bd44 7bbb
000000c0: 1cad 633c c83e 0cbd bf9f 6eb9 84be 893d
000000d0: 5c08 853c 4c09 713c def2 5b3d 7715 b0bc
000000e0: f498 73bc 9b10 883b 5e11 a0bc 67df e53c
000000f0: e293 6c3d 6751 90bb a9cb a6ba b9eb 04bb
00000100: 268b a63c d12c cb3c 95a5 d63c cbea a33b
00000110: 39de c8bc 66b0 913d efde 0cbd 2eec f93c
00000120: 26be 8138 6d9a 7cbb a0f1 a3bc d850 c739
00000130: 6b85 293d 179a 213d e05f 39bd 00a1 af3b
00000140: 36f7 9f3d da6c b73d 0df7 cb3d 39cd 2b3d
00000150: 5175 55bc 1416 b9bc c6c4 9c3c 56f4 083d
00000160: e119 ca3d 2676 353c d1ab b1bc cf4d 09bc
00000170: 9d11 553d 9cb4 05bd 5a0d 08bc 2998 793c
00000180: 9f45 a53c 1a95 853c c767 bfbb b1a1 ad3c
00000190: 9bdc 883c f69b 88bc 6754 19bc f841 44bd
000001a0: c2a4 8a3c 3143 dabc d198 363c 6fa9 063c
000001b0: 7872 e33c 970b 62bb ddf5 9abd fc3f f33c
000001c0: de7a 88bd 1793 8a3c 1886 ddbb 767d a8bd
000001d0: af68 e83c 1edf 92bd 7422 a8bc 3c1c 96ba
000001e0: bd94 ca3c 1156 a6bc 720a e03a c528 0a3c
000001f0: 793b b3bd d748 f8bb 7913 cabd 8863 ac3c
00000200: 3278 a73c 90b0 86bc 82e5 71bc 1b90 85bc
00000210: 007e 9cbd 2725 11bd 5ab4 19bd 0e56 553c
00000220: 66c3 4ebd f46a f43c c755 fabd 57a9 9bbd
00000230: 5482 bc3c 0df2 283b f3c0 c33c 7f07 a5bd
00000240: 8832 8dbd 8e6a 76bd 6a1e 8b3a 6152 0ebd
00000250: c861 5d3d da80 74bb 52e8 453b ca9e 88bc
00000260: 8173 123c a167 acbb b05b 7cbd 897f eabb
00000270: 8ae0 e7bb 1598 5ebc e912 d93b b101 66bd
00000280: 2b96 c13c 68f9 4dbc 5e9c fe3c 68c0 433d
00000290: ed81 04bd 8503 aa3c fd9d 14bd d392 ad3c
000002a0: 47a9 ae3c c7a3 89bd bfb2 babc 96ef 33bd
000002b0: c119 123c 335e e73c 9d04 5fbc 6ccd c43c
000002c0: abf0 98bd 21ad 5dbd 02b4 fc3c ba17 7ebc
000002d0: e7ae c1bb 4ed2 40bd b0a8 b1bd ea7b 42bd
000002e0: f53a 143b d784 05bd 44a6 70bc 7820 013d
000002f0: b227 c7bd 7c0d 2ebc f380 80ba 3461 4c3d
00000300: d87d 50bd a88b f4bb 79b5 b73c 9854 153c
00000310: 18c2 86bc 9c5a 88bd 7951 d43c 0edd 65bd
00000320: 6c29 f93b b62f 04bd 465b 07bd ecde 97bd
00000330: a2a2 103b faca b9bb 3aaa 02bc 370e 2d3a
00000340: 4bff 553c 6e8b e4bc 6d59 fbbc 11e6 0e3c
00000350: 862e 49bd d3f9 c2bc 195d 063d fe2c 87bd
00000360: 11b3 893c 0e41 3bbd 24cf d03b df2e 0dbc
00000370: 9b26 053d 535c 8d3b 5042 45bc 1432 183d
00000380: a09e 92bd 3f36 9fbb 1ccd b2bd c58a d7b9
00000390: 955c fc3c 89ad 7e3c c42e ffb9 fc65 83bc
000003a0: 2d4d 63bd 0583 6bbd dc58 36bd 14e9 df3c
000003b0: dfee 55bd f5a8 953c 478c a4bd 4fa0 95bd
000003c0: dc4b 1cbc f11e 9a3c 53b1 263d f842 a2bd
000003d0: 1663 9cbd 7fb5 aabd 2bce 64bc 69a8 e4bc
000003e0: abf8 4c3d 7935 f43a 0f01 10bb 43be b6bc
000003f0: 78e1 333d 4b62 cabb fd0a dbbc b798 033d
-0.027077725 0.029284619 0.02205562 0.033584606 -0.022468502 0.008877152 -0.03565836 -0.023550669
0.011582435 0.015112208 0.016776366 -0.017939912 0.042355813 0.009911105 -0.06767402 0.064622365
-0.02894338 0.08167075 -0.016835377 -0.027949179 0.035044152 0.022269549 0.034740288 -0.0008813948
0.118538246 -0.018802607 0.09116417 0.0052837348 -0.013528709 -0.019271666 0.03481667 0.034875132
0.048362523 0.05593604 0.070052646 0.0079271775 0.03306356 -0.031349313 0.108944856 0.07104387
0.07864961 -0.030922225 -0.04757057 0.059921257 0.09449349 0.0884583 0.027074412 -0.0038340532
0.013896253 -0.03423956 -0.00022756959 0.06725791 0.016239338 0.014711689 0.053698413 -0.02149461
-0.01486801 0.00415237 -0.019539531 0.028060628 0.05775822 -0.004404235 -0.001272549 -0.0020282103
0.020330023 0.024801644 0.026202003 0.0050023547 -0.024520027 0.071137235 -0.034392294 0.030508127
6.186617e-05 -0.0038544193 -0.020012677 0.0003801647 0.041387003 0.039453592 -0.04525745 0.005359769
0.078108236 0.08956309 0.099592306 0.041943762 -0.013028459 -0.022593535 0.019136798 0.033436142
0.09868217 0.011075532 -0.021688374 -0.008380367 0.05201875 -0.032642946 -0.0083039645 0.015234032
0.0201748 0.016306449 -0.0058412286 0.021195265 0.016706755 -0.01667593 -0.009358502 -0.047914475
0.016924266 -0.026643367 0.011144833 0.008219107 0.027764544 -0.0034491771 -0.07566426 0.029693596
-0.0666406 0.016915841 -0.00676037 -0.08227055 0.02837023 -0.071714625 -0.020524241 -0.0011452506
0.024729127 -0.020304712 0.0017092957 0.008432572 -0.08751578 -0.0075770426 -0.09866995 0.021043554
0.020443056 -0.016441613 -0.014764192 -0.016304066 -0.0764122 -0.03543582 -0.037525512 0.013021005
-0.050479315 0.029836155 -0.12223392 -0.076006584 0.023011364 0.002577904 0.023895716 -0.080580704
-0.06894404 -0.060160212 0.0010613922 -0.03474653 0.05404833 -0.0037308247 0.0030198288 -0.016677279
0.008938671 -0.005261377 -0.061610878 -0.0071563167 -0.0070763277 -0.013586064 0.0066245687 -0.056153957
0.023631176 -0.01257167 0.031080421 0.047790915 -0.03235047 0.020753631 -0.036283482 0.021188175
0.021320952 -0.06720691 -0.02279031 -0.04392966 0.008917273 0.02824316 -0.01361194 0.024023734
-0.07467779 -0.054120187 0.030847553 -0.015508587 -0.0059107426 -0.047075562 -0.08674753 -0.047481455
0.002261815 -0.03259739 -0.014688078 0.031525105 -0.09724368 -0.010623332 -0.0009804055 0.049897388
-0.050901264 -0.0074629374 0.0224254 0.009114407 -0.016449973 -0.06657907 0.025917755 -0.056119017
0.007603815 -0.032272063 -0.03304603 -0.07415566 0.0022069593 -0.0056699486 -0.0079751555 0.00066015444
0.013061355 -0.027898517 -0.03068229 0.008721844 -0.049116634 -0.023800766 0.03280363 -0.066003785
0.016809018 -0.045716338 0.0063723493 -0.008617132 0.03250752 0.0043139844 -0.012039736 0.037157133
-0.071591616 -0.0048587616 -0.08730528 -0.00041111387 0.030805865 0.015544304 -0.00048672233 -0.01603984
-0.055493522 -0.057497997 -0.044518337 0.02733282 -0.05222976 0.018269042 -0.08034568 -0.07305967
-0.009539571 0.018813582 0.040696453 -0.079229295 -0.07636087 -0.08335399 -0.01396517 -0.027912335
0.050041836 0.0018631659 -0.0021973287 -0.02230752 0.043916196 -0.006176268 -0.026738638 0.032128062

fc.1.bias f4 [100]
00000000: 92c0 103c b461 29bc 9248 59bc 09a1 60bc
00000010: 6b82 3ebc 7960 6c3b 6f59 74bc 8233 7bbc
00000020: 6a14 a43b c610 1d3c 766a c83b c6c6 fb3b
00000030: f4d4 6fbc 3bfa 73bc 9c7e 863b 2255 123c
00000040: cdac de3b 328a ae3b 4a5b c73b 7345 44bc
00000050: a0a4 dd3b 760d 38bc a7a4 1abc eee3 0fbc
00000060: ecce 133c b4a1 d93b f149 3ebc ff6a 60bc
00000070: 2997 733b b00d fa3b 4a43 a2bc e6ea f93b
00000080: 183e 5ebc b727 59bc c45c 3e3c 8b96 a5bc
00000090: 5767 19bc 03fe 27bc 895d 30bc e9de 2ebc
000000a0: b36f 4f3b 4bcd 75bc 6fbd 1f3c e19f d73b
000000b0: a106 38bc 68db 9c3b 4f44 213b abd6 183c
000000c0: 7a48 41bc c4e9 65bc fdf1 55bc 9aa7 5ebc
000000d0: 74b7 413b 44be 4d3b b0eb 3dbc 8f8f 2abc
000000e0: 4751 9a3b a656 ee3b 17dd 1abc a162 41bc
000000f0: 2ad0 cd3b c218 4abc cc2c 51bc c96f 023c
00000100: c307 37bc 4703 b13b 00e9 bb3b 9d34 30bc
00000110: 7b1d 083c dd75 35bc 6478 063c 9550 47bc
00000120: 72b6 16bc 0d8c 30bc 14dc 473c cf94 c23b
00000130: f94b 1cbc 7c9a 883b f2bd 51bc 0673 35bc
00000140: 8a0c 31bc b481 48bc b66e 913b 4a1f 513c
00000150: c4cc 33bc fe28 853b 4fb2 82bc 24e1 ce3b
00000160: 2e4d f03a 332b 613c 4994 3bbc 7f41 e23b
00000170: d19b ab3b 33a2 2a3b a286 2ebc ff6f 013c
00000180: 4779 e83b 1391 cb3b 6b88 833b 76e2 f93b
0.008834975 -0.010338236 -0.013261931 -0.013710269 -0.011627774 0.0036068244 -0.014913901 -0.015332105
0.0050073164 0.009586519 0.0061162068 0.0076836077 -0.014638174 -0.014891203 0.0041044485 0.00893143
0.006795502 0.0053265328 0.0060838806 -0.011979449 0.0067640096 -0.011233678 -0.00943867 -0.00878237
0.009021502 0.006641591 -0.011614309 -0.013697385 0.0037168956 0.007631026 -0.019807477 0.007626879
-0.013564609 -0.013254098 0.011618797 -0.020213386 -0.009363017 -0.010253432 -0.010764488 -0.010673263
0.0031652271 -0.015002559 0.009749754 0.0065803383 -0.011232049 0.0047868975 0.0024607365 0.009328525
-0.011797065 -0.014032785 -0.013058183 -0.013589764 0.002955881 0.0031393925 -0.011591837 -0.010410204
0.004709396 0.007273513 -0.009452126 -0.0118033 0.0062809186 -0.012335004 -0.012767028 0.007961222
-0.011171284 0.005402002 0.005734563 -0.0107547315 0.00830781 -0.011075464 0.008207414 -0.012165208
-0.009198772 -0.010775578 0.012198467 0.0059381495 -0.009539598 0.0041688066 -0.012801634 -0.011074787
-0.010806212 -0.012237955 0.0044382466 0.012763808 -0.010974113 0.0040637245 -0.015954165 0.00631346
0.0018333548 0.01374321 -0.011448928 0.0069047804 0.0052370806 0.002603662 -0.010652216 0.007900237
0.0070945355 0.0062123626 0.004014065 0.007625873

fc.2.weight f4 [100, 100]
00000000: b7b4 7b3d d037 e4bc cef5 11bd 51a1 8ebc
00000010: 2e11 c1bc 6021 143d c655 963a 9514 1cbd
00000020: a3c8 ce3c 8954 0b3d c3f8 5e3d 3a2c f93c
00000030: 8e85 d1bc 1ff8 16bd fdfa 563d 6c70 ba3d
00000040: f4a3 5d3d 630c 9d3d 6263 8e3d edf9 32bd
00000050: c148 05bd bd1c 55bd fcde 07bd de02 a1bd
00000060: 6b0a e23c 573d 043d 4080 8ebd bbc6 21bd
00000070: a629 8d3d cc73 773d a753 adbc cab9 173d
00000080: a74e 50bd 05e4 3fbd de59 123d d033 3e39
00000090: 7bf8 aebc 8547 4dbd ac43 02bd 0a60 ddbd
000000a0: d0cf 163d 9478 0bbc f509 713d 8c72 153d
000000b0: 9517 a8bd b5e9 493d fdd4 a43d e540 823d
000000c0: fcf5 8ebd f416 fcbc 9655 c3bc fc06 8dbc
000000d0: 977b 2b3d 61b5 953d ec92 ccbc 66e1 59bd
000000e0: 1a6c 513d 952e 5c3d fb58 4ebd 4ad8 5cbd
000000f0: 1b32 803d 5e37 a4bd c3f6 493c f0b2 973d
00000100: 33c1 82bd 65c9 9d3d 27eb 063d 11ec 25bd
00000110: 5a54 163d f1c9 f3bc 7c92 b73d 4e66 64bd
00000120: ba53 c4bd bd92 77bd f660 ddbb 871a c8bb
00000130: e71c 05bd fcb6 a43d da1b 65bd 4bc7 a6bd
00000140: ba1f 033c c2ff 7dbd 17af 7e3d ea3c 113d
00000150: 0a19 17bd a5ed 8c3d e127 29bd 4e6e 853d
00000160: 35d7 823d 8850 4b3d 6503 d5bb ed4d 8d3d
00000170: 2e3b 7e3d 1255 483d 987e 5cbd 84e4 be3c
00000180: e2b3 1b3d 8d52 883d 69dd 863d 33e1 153c
00000190: 04ed 8bbd dfcf 743d 64f9 a339 3ed2 5d3d
000001a0: e5db f23c 2aad 84bd 534e f93c 2a7d 8e3c
000001b0: 777c 0cbd c1ce 0bbd 4037 56bd 749f 78bd
000001c0: 35bc 403d 174c d13c 17dd b1bd 4024 9abd
000001d0: e56b cdbc 04ab 19bd 431c 54bd ead4 843d
000001e0: 81f3 2bbd 0d9d ff3c 27c1 443d e2d8 943d
000001f0: e605 61bd aaa4 d1bd 3096 a13c 71c5 223c
00000200: 75d6 adbd eaa1 8ebc 4b86 5a3b e949 5fbd
00000210: 96c6 ed3c e519 993c b200 3dbd e5b3 a43b
00000220: f434 9a3d 792b 083d 3e82 a63b 6d09 c03d
00000230: d0a5 d6bd fe80 303d 9081 5dbd bee1 1bbd
00000240: 6320 673d 75d1 48bd fb44 49bd 760e bebd
00000250: b2ec 653d cb9f 733c f79e ce3c 39f5 5c3d
00000260: 668b d5bc 146d bfbd b144 a03c 5307 643d
00000270: 55f0 7cbd 0c48 64bd 471a 9c3d 886f 833b
00000280: 8a8a b1bd ecbe a73c e7d2 003d 0fe9 4ebd
00000290: 2636 db3d f158 c9bd 7b42 8ebd 9409 863d
000002a0: 27b5 0fbd 9bbe 533d 3dce 88bd 29e2 883c
000002b0: a6e7 f63c ab3a 6d3d fc82 b6bc c0f1 53bd
000002c0: 8c42 d23c c94b 7fbd 9826 543c d1da 3e3d
000002d0: 43f3 2a3d fe1e 143d b545 92bd e8c0 7abb
000002e0: 1c75 223d a448 23bc b9c4 173d 617d 95bd
000002f0: 6f5c 89bd 0222 013b b82b 7b3d cadd 8ebd
00000300: 63f8 53bd a110 83bd 3f66 153d a64d 12bd
00000310: c48a 2dbd e1b8 d8bd ae6d 00be 6808 9bbd
00000320: 3750 39bd 2b5f 203d b158 173d c7a1 563d
00000330: a317 f93c 7f33 00bc a62c 093d 09ad 703d
00000340: 58da 12bc 34e3 803b 3c37 90bd 1d9b 85bd
00000350: 92e5 ab3c f928 243d 54b4 77bd 8a88 97bd
00000360: b3bd 54bd bc5d 2abc 510e a2bc 5436 303d
00000370: ef58 d2bc a4d2 8a3c 2944 163d 5798 b93d
00000380: e7df debc a67a 8dbd 3d23 3c3d 1cca b43c
00000390: 5b20 71bd ff56 20bd fc38 243d 6112 5bbd
000003a0: d03b 653c cabc 923c 6891 03bd 4fd4 513c
000003b0: 1e06 433c 10ae fe3a 073f d23c 0c9c 323d
000003c0: 26a6 5abd 1df2 5f3d 57c0 3dbd 2e59 efbc
000003d0: b08f f43c 6de7 e9bd 5acb d0bd acef 77bd
000003e0: bff1 003d 888b 153d 736d 15b7 8c44 783d
000003f0: 4a33 e7bc 3afc b2bd 9425 063d 0e91 703d
0.06145164 -0.027858645 -0.03563481 -0.017410906 -0.023567762 0.03616464 0.0011469654 -0.038105566
0.025242155 0.034016166 0.054436456 0.030416597 -0.02557638 -0.03685772 0.052485455 0.09103474
0.054111436 0.07668378 0.069525495 -0.04369538 -0.032540087 -0.05202936 -0.03317164 -0.07861875
0.027592858 0.03228506 -0.069580555 -0.039496165 0.068927094 0.060413167 -0.021158053 0.037042417
-0.05085626 -0.046848316 0.035730235 0.00018139114 -0.02135872 -0.050117034 -0.03180282 -0.108093336
0.03681928 -0.008512635 0.058847386 0.036486194 -0.08207623 0.049295146 0.08048437 0.06360034
-0.069805115 -0.030772664 -0.023844521 -0.017215244 0.04186591 0.07309986 -0.024972402 -0.053193472
0.051128484 0.05375536 -0.050377827 -0.053917207 0.06259557 -0.08018373 0.012326899 0.074071765
-0.06384506 0.077044286 0.032939103 -0.040508334 0.036701538 -0.02975938 0.089634866 -0.055761628
-0.09586282 -0.060442675 -0.0067559434 -0.006106678 -0.032498267 0.08042714 -0.055934764 -0.08143481
0.00800317 -0.062011488 0.062178697 0.035458483 -0.036889113 0.068812646 -0.041297797 0.065151796
0.06388704 0.049637347 -0.006500649 0.06899629 0.062068157 0.048909254 -0.053831667 0.023302324
0.038013346 0.0665637 0.065851994 0.00914793 -0.068323165 0.059768554 0.00031275593 0.05415558
0.02964587 -0.06478341 0.030432856 0.017393667 -0.034298386 -0.034132723 -0.052298784 -0.06069894
0.04705449 0.025548978 -0.08684748 -0.075264454 -0.025075862 -0.03751661 -0.051784765 0.06485923
-0.04198027 0.031202817 0.048035767 0.072679296 -0.054937266 -0.10236485 0.019724935 0.009934769
-0.0848817 -0.017411191 0.0033344205 -0.054513846 0.029025357 0.018689105 -0.04614324 0.005026328
0.07529631 0.033244584 0.005081444 0.09376798 -0.10480845 0.043091767 -0.05407864 -0.03805708
0.05642737 -0.04902788 -0.04913805 -0.09280102 0.056133933 0.014869641 0.025222285 0.0539448
-0.026067447 -0.09346977 0.019564005 0.055671047 -0.061752636 -0.05573277 0.076221995 0.0040110983
-0.08669002 0.02047678 0.031451132 -0.05051523 0.10703687 -0.09831417 -0.06946274 0.06544796
-0.03508487 0.051695447 -0.06679962 0.016709404 0.030139755 0.05791728 -0.022279255 -0.051744223
0.025666498 -0.062328134 0.012948655 0.0465954 0.0417359 0.03616237 -0.07142202 -0.0038261954
0.039662465 -0.009966049 0.037052844 -0.07299305 -0.067070834 0.0019704108 0.06132099 -0.06975897
-0.051750552 -0.06399656 0.036474463 -0.035718583 -0.042368665 -0.10582138 -0.1254184 -0.07569963
-0.045242514 0.03915326 0.036949817 0.052400377 0.030406779 -0.007824778 0.033489846 0.05875877
-0.00896319 0.0039333347 -0.07041785 -0.06523726 0.020983491 0.040078137 -0.06047471 -0.0739909
-0.051938724 -0.010398325 -0.019782217 0.04302056 -0.025677172 0.016946144 0.036686096 0.0906226
-0.027206374 -0.06908159 0.045932043 0.02206903 -0.058868747 -0.039145466 0.040093407 -0.053484324
0.013991311 0.017912287 -0.032121092 0.012806966 0.011903314 0.0019430537 0.02566482 0.04360585
-0.053381108 0.054674257 -0.046326008 -0.029217329 0.029853672 -0.11421094 -0.10195036 -0.060531303
0.031480547 0.03651002 -8.906575e-06 0.060612246 -0.028222699 -0.08739515 0.03275068 0.058732085

fc.2.bias f4 [100]
00000000: 2d86 da3b cddd 49bb a152 7abb 480b a63b
00000010: 86d7 8b3b 20a4 b93b c039 a83b cd42 ba3b
00000020: 3de4 8bbb b256 ac3b 6a1f 943b 8de9 a43b
00000030: c08f aa3b 6ee3 53bb cbe6 c43b 4923 983b
00000040: 1f88 86bb d32c 48bb 64a7 68bb ab2e 44bb
00000050: fc4f 74bb 237b 83bb 4ac0 62bb 1240 ae3b
00000060: 1087 8dbb e6f0 8a3b efe2 54bb b4ae 2cbb
00000070: c5bb 4dbb 4749 82bb 3f53 c33b e135 8fbb
00000080: 7020 46bb 9431 ad3b c43f c13b d2b6 8cbb
00000090: 7d01 983b 7052 36bb 64ac 32bb f239 70bb
000000a0: faeb 923b 06e5 4fbb 0f88 6cbb 2e65 7bbb
000000b0: b506 75bb a8c2 54bb d17b a83b 1883 a23b
000000c0: 5dc6 3abb efbe 753b f093 59bb 99ee 903b
000000d0: e088 a8bb b383 d63b a479 963b fb3c 913b
000000e0: 06dd 80bb faf8 cc3b 3f31 803b 4bf3 56bb
000000f0: c118 5abb 08dc 923b a370 853b f60b 5bbb
00000100: 0194 47bb 3912 33bb c3a3 953b 71fb cc3b
00000110: c8a5 a03b fbd0 5bbb d5e6 d03b 004f 853b
00000120: 5b88 ab3b f0bf a03b a109 76bb 02d8 a83b
00000130: c774 50bb e8ce 4ebb f1a9 b13b bb52 83bb
00000140: 51f6 ae3b 468d 53bb e3ad 7f3b 2e02 a83b
00000150: 4c71 89bb 284d a73b 97d1 893b 8d8c 9bbb
00000160: e529 9d3b 02d8 a73b 6ce3 c93b e5c8 64bb
00000170: e17a 9f3b ecf9 a03b 8673 38bb d42d a43b
00000180: 1a54 c23b b296 74bb 5fe5 4abb d58b 26bb
0.006668827 -0.003080237 -0.0038196223 0.005067263 0.0042676358 0.005665317 0.0051338375 0.005684233
-0.0042691515 0.0052593583 0.0045203464 0.0050327242 0.0052051246 -0.0032331604 0.006008958 0.004642878
-0.0041055824 -0.0030544295 -0.0035500163 -0.0029935043 -0.003727912 -0.004012482 -0.0034599476 0.0053176964
-0.004319079 0.004240143 -0.0032483896 -0.0026349248 -0.0031392437 -0.0039760205 0.0059608514 -0.0043704365
-0.0030231737 0.005285451 0.005897494 -0.004294255 0.0046388493 -0.0027820133 -0.0027263397 -0.0036655632
0.004483697 -0.0031722202 -0.003609184 -0.0038359868 -0.003738803 -0.0032464657 0.005141713 0.0049594752
-0.0028499581 0.0037497838 -0.003319975 0.0044229743 -0.00514327 0.0065464615 0.0045921374 0.0044323183
-0.003932598 0.0062552663 0.0039121206 -0.0032798823 -0.0033278915 0.004481796 0.0040722652 -0.0033423877
-0.0030453207 -0.0027324094 0.004566641 0.00625556 0.004902575 -0.003354131 0.0063751736 0.0040682554
0.0052347607 0.0049056932 -0.003754236 0.0051527033 -0.0031807886 -0.0031556431 0.00542187 -0.004007665
0.005339422 -0.003228025 0.0039013557 0.005127213 -0.0041944142 0.0051056333 0.0042058933 -0.0047469796
0.004796254 0.0051221857 0.006161144 -0.0034909782 0.004866943 0.0049126055 -0.002814503 0.005010346
0.005930436 -0.0037321267 -0.003095947 -0.0025412936

fc.3.weight f4 [100, 100]
00000000: c29b 01bd fb40 873d eb4b 443d 1853 56bd
00000010: 74d9 22bd 9ff4 c8bc c90a 6ebd 9e0d f0bc
00000020: ddc6 763d 9758 16bd 1d58 aebd d947 7abd
00000030: d950 e2bc 1d9a 1a3d 76a5 82bd 9881 7dbd
00000040: f24d 833d cd43 123d 8413 6d3d 5329 2b3d
00000050: 74f7 303d ce41 633d a292 543d 9be9 87bd
00000060: 1360 903d c0bd 61bd 0de0 0e3d b6a1 7d3d
00000070: a7e5 613d ac2b 783d 4983 7dbd 5a3e 023d
00000080: 2652 1b3d 2e25 45bd aa5a b9bd b4e4 933d
00000090: ed98 cabc 1728 743d 9f8a a23d 55a2 923d
000000a0: b14e 00bd 554b 1f3d 0b1f 663d ae13 f13c
000000b0: 9113 933d ae93 a83d 2d26 90bd 5863 58bd
000000c0: ab8e 833d 74d2 b7bd 1b88 2b3d b7e7 39bd
000000d0: 877b 333d 4860 d8bc 09af 5cbd 118d 3ebd
000000e0: 8315 ff3c 0e27 21bd 996f 90bd 28d8 943d
000000f0: 18c6 153d e4de 87bb d3b8 06bc af7b 8b3d
00000100: a8aa 833d a38d e73c 94f0 8ebd b41a 1fbd
00000110: c841 5fbd f610 653d 4af0 4fbd f94e 0bbd
00000120: 2f0f 46bd 3173 bbbd 09d6 1f3d 452d 2fbd
00000130: 0dda 283d a1d8 933d b808 c2bc 5b82 063d
00000140: f15c 0dbd c6ec 233d 3d08 62bd 5515 8abd
00000150: d745 463d 9955 74bd ebc0 8fbd c270 db3b
00000160: c7fa 35bd 23c3 60bd 4013 b3bc 9731 0e3d
00000170: 0ede 80bd 32f7 46bd 2fe4 043d f0c4 44bd
00000180: 0328 34bd 85c9 903d 7cde 523d c809 2e3d
00000190: 286a 80bd 0203 833d 8cbd 963c 8846 e1bc
000001a0: 6be0 7ebd 3ede 7bbc cfe9 b1bd 9a4b 0abd
000001b0: e8f3 573d 6e65 02bd 230c 10bd 314e 45bd
000001c0: 93a9 33bd aca5 503d 98c7 92bd c63e 92bd
000001d0: 08ab 4a3d 190c 8138 1fc5 373d ad71 363d
000001e0: e7ee f43c 5d2a 183d 552f 563d 23fe 41bd
000001f0: c02f 933d 3ab0 1abd 9941 863d eb4e 523d
00000200: 6178 3a3d 0668 573d e6fc 093c 94c5 803d
00000210: 4af1 4e3d 72f5 2ebd b597 93bd 9396 303d
00000220: d4c5 17bd ef40 cb3c 88d8 183d b392 353d
00000230: e7ad 44bd 3213 063d d472 373d 692f 413d
00000240: f746 873d 5cc9 623d fa8e 5dbd f8e2 48bd
00000250: 0f0b 823c 969f 57bd 9c29 893d 023e 8fbd
00000260: 7a57 113d 1fe6 43bd 75bb 5dbd f45a 3c3a
00000270: bfed 303d 34a2 52bd c2e3 39bd bb72 f83c
00000280: 2864 a83c 5d3b 54bd 19fb 5cbd ed24 9a3d
00000290: 7903 823d 406c 3a3d bac6 26bd bed7 56bd
000002a0: 77ec 8cbd 6a9f 5a3d 6a42 89bd 25fc 76bd
000002b0: ba1e 32bd c305 a9bd 3fde 043d 0842 24bd
000002c0: d741 4f3d 3e1f bf3d 6c89 08bd 5b9c 923c
000002d0: 9b6f 39bd 8799 a63c 4b71 a3bd ba8c 7ebd
000002e0: fd5f 8a3d 298b 72bd 3655 f9bc 540c 2f3d
000002f0: 1250 87bd b28b 60bd b238 80bd 48cb 8f3d
00000300: 4ae0 96bd 0d08 84bd e306 6e3d c992 a4bd
00000310: d9a4 5ebd 5693 6a3d c651 8e3d e4ed 203d
00000320: 2d52 343d 1e19 70bd dd60 6abd 8376 393d
00000330: 0b15 313d 9384 3f3d 53a0 863d 773c 493d
00000340: 173e 9dbc 26c7 9d3d 74f7 bf3c 6a7b 3a3d
00000350: b2b4 bc3c 44c8 25bc 438a a03d 7110 563d
00000360: 785b 93bd d0d2 71bd d255 45bd 1566 a1bc
00000370: 37a8 4abd e90f 5bbd 6cac 42bd 6127 5d3d
00000380: 77ed 06bd 0b83 983d e5b2 9fbd e19d 2fbd
00000390: 830a 50bd c0e3 99bd bc28 cc3c 0876 2fbd
000003a0: e715 99bd 3848 633d 6a82 b23c c0d8 25bd
000003b0: cb21 243d 9931 96bd 6b50 41bd 4c5e 49bd
000003c0: bce7 a83d 89b0 51bd 5ad4 99bd e24c bebd
000003d0: 365c 8ebd 8d60 3bbd e12b af3d ba01 6a3d
000003e0: 1e28 19bd f34b 983d fd46 97bd c7f1 803d
000003f0: 54ed 86bd 0a8d 603d 3b76 673d f407 143d
-0.031642683 0.06604191 0.047923964 -0.052325338 -0.03975816 -0.024530707 -0.058115754 -0.029303368
0.060248245 -0.03670558 -0.085129 -0.061103676 -0.027626442 0.03774463 -0.063792154 -0.06189117
0.06411351 0.03570919 0.05787994 0.041787457 0.04320474 0.055482678 0.051897652 -0.066363536
0.07049575 -0.0551126 0.03488164 0.061921798 0.055150654 0.060588524 -0.06189278 0.031797744
0.03792014 -0.04813116 -0.09050496 0.07221356 -0.024731124 0.059608545 0.07936596 0.07159869
-0.031325046 0.0388902 0.05618195 0.02942833 0.07181466 0.08231293 -0.070385315 -0.052829117
0.06423696 -0.089756876 0.041877847 -0.045386996 0.043818977 -0.026413098 -0.053877864 -0.04652125
0.031138187 -0.039343886 -0.070525356 0.07267791 0.03656587 -0.0041464437 -0.008222776 0.068107
0.064290345 0.02826578 -0.069794804 -0.038843825 -0.054506093 0.05592438 -0.050766267 -0.03401086
-0.048354324 -0.091528304 0.03902248 -0.04276778 0.041223574 0.07219053 -0.023685798 0.03283916
-0.034512464 0.040020727 -0.055183638 -0.0674235 0.04840645 -0.059651945 -0.07019218 0.0066967914
-0.044428613 -0.054873597 -0.021859765 0.03471526 -0.062923536 -0.048575588 0.032444175 -0.048039377
-0.04398347 0.07069687 0.05148171 0.042489797 -0.06270248 0.06397058 0.01840093 -0.027499452
-0.06222574 -0.015372811 -0.086871736 -0.033763506 0.05272284 -0.031835012 -0.035167824 -0.048170272
-0.04386289 0.050939247 -0.07166976 -0.07140879 0.049479514 6.153453e-05 0.044865724 0.044542003
0.029899074 0.037149776 0.052291233 -0.047361504 0.07186842 -0.03776572 0.065554805 0.051344793
0.04552496 0.05258944 0.008422112 0.06287685 0.05052308 -0.042714544 -0.0720667 0.04311235
-0.037053898 0.024811236 0.037315875 0.044329356 -0.04801741 0.03273315 0.044787243 0.047164354
0.06605332 0.055367813 -0.05409143 -0.04904458 0.015874414 -0.052642427 0.066973895 -0.06994249
0.035483815 -0.047826882 -0.05413385 0.0007185184 0.043195482 -0.05142422 -0.045383222 0.030328145
0.02055557 -0.051814426 -0.053950403 0.07526574 0.063483186 0.04551339 -0.040716864 -0.05245184
-0.068810396 0.053374685 -0.067021206 -0.060299058 -0.043486334 -0.08253052 0.032438513 -0.040102035
0.0505999 0.09332131 -0.03333418 0.017896822 -0.04527245 0.02033688 -0.07980593 -0.062145926
0.067565896 -0.059214745 -0.03043614 0.042736366 -0.06607069 -0.054820724 -0.06260814 0.07021195
-0.073669985 -0.06446848 0.058112036 -0.080358095 -0.05435643 0.057269417 0.06949191 0.03928937
0.04402368 -0.058617704 -0.057221282 0.045279037 0.04323296 0.046757292 0.06573548 0.04912993
-0.019194646 0.07704 0.023433425 0.045527853 0.023035381 -0.010118548 0.07838871 0.052261773
-0.07195181 -0.059038937 -0.048177548 -0.019701997 -0.04947683 -0.05348197 -0.047527716 0.053992633
-0.032941308 0.074468695 -0.07797793 -0.042875174 -0.050791275 -0.07514143 0.024921767 -0.042837173
-0.07474881 0.055488795 0.021790702 -0.040489912 0.04007129 -0.07333679 -0.047195833 -0.049162194
0.08247325 -0.051193748 -0.07511206 -0.09292008 -0.069511816 -0.045746375 0.08553291 0.057130553
-0.037391774 0.07436361 -0.07386587 0.06296115 -0.065882355 0.054822005 0.056509238 0.036140397

fc.3.bias f4 [100]
00000000: 8471 733c c5c7 e03b dd8b 99bb 461c 7e3b
00000010: d34d 9e3b 8663 523b 4307 263c 4781 253c
00000020: 683f 0cbb 2117 e83b a388 4a3c af35 fa3b
00000030: 67e4 e4bb 8cff 5e3c aebc ddba 95c8 b0bb
00000040: 60cc d3bb 6a48 873b 3ff9 b13b d7ab 543c
00000050: b937 c53a 67e8 163b b392 e63b 1a5e 6b3b
00000060: b828 1ebc 84f3 5f3c ff35 de3b 2452 643c
00000070: 22ea 213b 90be cbbb de78 bbbb 0cd8 0c3b
00000080: 0fb8 5cb7 2260 123c 2ed9 953b e0f1 343a
00000090: ba94 623c 4c03 88bb 5491 0a3c 65e4 cb3b
000000a0: 0fc5 1d3c 5a8c 163c 437e e53b a1ed 5c3a
000000b0: b92b 77ba 51d5 623c 9ecf 86b8 25b6 97ba
000000c0: 2614 b03a 52d5 503b db92 473c 3c77 12bb
000000d0: 293a 1b39 5cac 033c 87ca 003c a46d d139
000000e0: d798 be3b 84c0 85bb 1029 c9bb c7fd 233c
000000f0: 9cf3 e7bb 9c95 df3b 1ce1 e43b af4e 02bb
00000100: 3ecc 5cbb fae7 343b 4677 8e3b 0bee afbb
00000110: ab4f 68bb 52f5 f73b 657b be3b 54f9 003c
00000120: b1ed 1a3c 9b32 ca3b d231 843c 9ee2 313c
00000130: 494f 423c 6c4c 2f3c 5c37 063c 6cd0 6c3c
00000140: d8f1 a83b b299 b53a 32b7 1f3c cfdd 313c
00000150: 3cf5 2b3c 5e3e 5f3c 0303 323c 13b4 213b
00000160: 1d21 393c 9598 3d3c 6d25 263c ddbc 853c
00000170: 83ae 323c 4e56 553c 2a00 25ba 4fed 523c
00000180: 1541 083b 873a 08bc 6544 ebba 988f edbb
0.014858607 0.006859752 -0.0046858625 0.0038774177 0.0048310547 0.0032102778 0.010133567 0.010101623
-0.0021400098 0.0070828353 0.012361678 0.007635794 -0.0069852355 0.013610732 -0.0016917193 -0.005395005
-0.0064635724 0.0041285055 0.005431324 0.012980423 0.0015046514 0.0023026706 0.007036531 0.0035914243
-0.009653263 0.0136688985 0.006781339 0.0139355995 0.0024706204 -0.006217785 -0.0057211956 0.0021491079
-1.3155876e-05 0.008934053 0.004573009 0.0006902497 0.0138294045 -0.0041507836 0.0084575005 0.006222295
0.009629502 0.009188736 0.007003577 0.00084277435 -0.00094288174 0.013844804 -6.4282896e-05 -0.0011574669
0.0013433739 0.003186543 0.012181009 -0.0022348901 0.00014803618 0.008036699 0.007860786 0.00039945275
0.00581656 -0.0040817875 -0.0061389282 0.010009236 -0.007078601 0.0068232547 0.006984843 -0.0019883325
-0.0033691074 0.002760409 0.0043477146 -0.005368953 -0.0035447876 0.0075670863 0.0058130496 0.007871944
0.009456084 0.0061705834 0.016137037 0.010857252 0.011859723 0.010699373 0.00819191 0.0144539885
0.005155783 0.0013855009 0.009748267 0.010856106 0.01049548 0.013625709 0.010864976 0.0024673983
0.011299399 0.011572023 0.010140759 0.016325409 0.010905865 0.013021065 -0.0006294275 0.012873962
0.0020790745 -0.008314735 -0.001794946 -0.0072497837

fc.4.weight f4 [100, 100]
00000000: d885 54bd fcd1 72bd 1d0c a63d f275 523d
00000010: 31fe 0abd 0aab f33d f2e5 42bd fa3a b0bd
00000020: bcb2 d53d 82f5 92bd ff53 50bd 3fe9 37bd
00000030: 96a8 3f3d 65bd 14bd 3d53 b03d a905 5f3b
00000040: c803 413c c20a f2bc b8bd 16bd 086a 0fbd
00000050: 193a 203d 89cd ea3d 0aca 5ebd 429b b1bd
00000060: 57a9 f73c ac78 22bd 7c6a ac3d f922 50bd
00000070: fab1 5ebd 9483 973d 7b04 773d bb33 483d
00000080: 2001 403d c672 71bd 614a 74bd 9cc0 c93d
00000090: 2511 21bd b10e 743d ff7d 85bd 3767 b9bd
000000a0: 921f 76bd 6b10 54bd a3a7 8dbd a7ce 843c
000000b0: 2d0a a13d 33a3 85bd e3ca 8d3d 2435 383d
000000c0: 2044 2b3d 7230 2a3d 0eab 8fbd c8f9 d83d
000000d0: 7adc 373d 899d 4dbd 8b57 a73d d0b1 743d
000000e0: f1fa 793d c8a6 8d3d 9177 903d 5bc2 66bd
000000f0: 34c1 b83d ea4f 73bd c1f0 9fbd 7fef d63d
00000100: c8aa 8e3c 850a c63d 7968 73bd 79ca 763d
00000110: fab4 513d a3bf 5cbd 8e5c d2bc a4ce 50bd
00000120: 875b 80bd a09b 1e3d 0dcf 86bd 8c90 7fbc
00000130: 7d20 86bd 40c8 61bd 909f 64bd b745 61bc
00000140: 6f64 f3bc c007 8c3d d04f 78bd eaf3 28bd
00000150: 439f 85bd a6a3 36bd 603d 9abd aa28 803d
00000160: a8a6 84bd 2fd6 a8bd adfc 57bd 0bfe 64bd
00000170: d911 07bd c490 7cbd 4103 ae3d bd50 39bc
00000180: 9320 e2bd 9102 6f3d 313d 833d 8989 b03c
00000190: cba0 cabc 0b9b 4abd 6825 2a3d 3d19 683d
000001a0: b919 1abd 4b7b ce3d 55ef b6bc c670 afbc
000001b0: 7f75 ae3d c0dc 4abd ffff bbbc 6c56 c8bc
000001c0: 1abe 5b3d 468d c7bc a1f0 b33d c533 8c3c
000001d0: 1636 683d d9ea c5bc 4c26 7fbd d3f0 1abd
000001e0: 4786 773d 8450 ac3d 8dfe 26bd a714 10bd
000001f0: ce82 b53d 1b6e 3cbc be19 ab3d 1a2d f5bc
00000200: bf95 e1bc 7457 803d 888a a13d ba3d 393d
00000210: c5c7 993b d2d9 21bd c630 75bd 7740 203d
00000220: a749 83bd 2163 ab3d b72c 87bd 2789 9bbd
00000230: 6b2f 44bd f9c4 8ebd 7dbd a5bd 626f 983d
00000240: af16 da3c 1527 f4bc 98ec 983d 8df0 9f3d
00000250: 9c6c be3d de73 903d 29c0 0bbd 0384 003d
00000260: 93f8 8e3d 6e44 93bd b4d2 3b3d 08ac a53d
00000270: e5a2 633d 7f19 0f3d 932d 963d d1e7 4abd
00000280: 5e62 223d 2ef9 10bd 0222 8dbd e610 db3c
00000290: 8314 5a3d d5e0 963d 287d 72bd cbf5 6d3d
000002a0: afcf b43d 4331 8cbd d194 86bd 98bd 57bd
000002b0: e90f 93bd 597a 6e3d 1383 a7bd 81b5 7cbc
000002c0: 249e 15bc 1108 7dbd 84bc 54bd a86c d0bb
000002d0: c075 03bd f749 0f3d 7dfc e1bc 64e0 dbbc
000002e0: f39e 5cbd c9b6 c5bc b027 2fbd 54e6 833d
000002f0: 9596 18bd 5379 6fbd 3441 0ebd 54d0 4dbd
00000300: 8bac 17bd ca4c babc 95ed 583d 9234 c5bc
00000310: fd9c 82bd 7a5b ba3d dd59 533d dce0 9a3d
00000320: c278 6b3c ebd4 223d f50a 0ebc 37b9 f1bc
00000330: 8e73 513d 1c2e a4bc 568b 493d bc12 8a3d
00000340: 0736 8ebd f156 663d 1d16 da3c 8087 cf3c
00000350: 7f74 65bd b4eb a23c 491f 5ebd 8f62 73bd
00000360: dc92 47bd aaa7 323d 87dd 1c3d b988 db3c
00000370: 762b 4dbd 6fc3 b8bb e412 5f3d b3ac 9c3d
00000380: 405e 3abd 789c 113d 918f 40bd fc3f 2b3d
00000390: f2ae 553d 9cc0 24bd af28 b7bc 1739 19bd
000003a0: ef05 89bd c5de e03c f6b1 9b3d 923d 94bd
000003b0: b57f a73d b6ee 46bd ab24 053c 4723 073d
000003c0: 2a47 e13c 4aa1 a23c fe9a 6b3d 594a 83bd
000003d0: 6869 33bd 88ef e83c abc5 3fbd b404 b3bc
000003e0: 9e0b 9dbc d1d1 e3bc 5a76 563d 488f a7bc
000003f0: e541 afbd 9243 9e3c 03d5 6bbd 1865 42bd
-0.051885456 -0.059282288 0.08107779 0.051382013 -0.033933822 0.118978575 -0.047582574 -0.08604999
0.104344815 -0.07175733 -0.050861355 -0.044900175 0.046791635 -0.036313433 0.086096264 0.0034030473
0.011780687 -0.029546145 -0.036802024 -0.03501323 0.039117906 0.11464984 -0.0543919 -0.08672191
0.030232115 -0.039665863 0.08418748 -0.050814603 -0.05436895 0.073981434 0.060307007 0.04887746
0.046876073 -0.058947347 -0.059641246 0.098511904 -0.03932299 0.059584323 -0.065181725 -0.0905289
-0.0600887 -0.05177347 -0.0691674 0.01621182 0.07863269 -0.065252684 0.06923463 0.044972554
0.041813016 0.041550107 -0.07015048 0.10594517 0.044887997 -0.050199065 0.08170994 0.059739888
0.061030332 0.069165766 0.070540555 -0.056337696 0.090212256 -0.059402384 -0.07809592 0.10494899
0.01741542 0.09669975 -0.059425805 0.060251687 0.051197983 -0.053893697 -0.0256789 -0.050978318
-0.062674575 0.038722634 -0.065824606 -0.0155984275 -0.065491654 -0.055122614 -0.055816233 -0.0137495315
-0.029710976 0.06837416 -0.06062299 -0.04124824 -0.065245174 -0.04458966 -0.075312376 0.06257756
-0.064771 -0.08243977 -0.052731205 -0.055906337 -0.032976005 -0.061661497 0.084967144 -0.011310753
-0.11041369 0.058352057 0.06408156 0.021549957 -0.024734875 -0.049464267 0.04153958 0.056664694
-0.037622187 0.1008211 -0.02233092 -0.02141608 0.08518504 -0.04952693 -0.022949217 -0.024455272
0.05364809 -0.024359357 0.08786131 0.01711453 0.056692205 -0.024159836 -0.062292382 -0.037827324
0.06043079 0.08413795 -0.040770102 -0.035175946 0.0886284 -0.011500861 0.08354519 -0.029928733
-0.027537225 0.0626668 0.07887751 0.045224883 0.004693004 -0.03951437 -0.059860967 0.03912398
-0.064105324 0.08368517 -0.066003256 -0.07594519 -0.047896784 -0.06971163 -0.08092783 0.074431196
0.026622145 -0.029803792 0.07467002 0.07809553 0.09298059 0.0705335 -0.034118805 0.031375896
0.069810055 -0.07190786 0.04585524 0.08089453 0.05557527 0.034936424 0.07332911 -0.049537484
0.03964459 -0.035393886 -0.06891252 0.026741456 0.053242218 0.07367102 -0.05920139 0.058095735
0.08828675 -0.068453334 -0.06571353 -0.052671045 -0.07180769 0.05822215 -0.08179297 -0.015424133
-0.009131942 -0.06177527 -0.051937595 -0.006360609 -0.032094717 0.034982648 -0.027586216 -0.026840396
-0.053862523 -0.02413501 -0.04276246 0.06440416 -0.03725298 -0.058465313 -0.03473015 -0.050247505
-0.037029784 -0.022741694 0.05296095 -0.024072919 -0.063775994 0.09099479 0.051599372 0.0756242
0.014372053 0.039753836 -0.008669605 -0.029507263 0.051135592 -0.020041518 0.049205147 0.067418545
-0.06943899 0.056235258 0.026621873 0.025333166 -0.056019302 0.019887783 -0.054229055 -0.059420165
-0.04872404 0.04361693 0.038297202 0.026798593 -0.050090276 -0.005638532 0.054461375 0.07650127
-0.04550004 0.03554961 -0.047011916 0.041809067 0.052168794 -0.04022275 -0.022358267 -0.03740796
-0.06690585 0.027449975 0.07602303 -0.07238306 0.08178655 -0.048567496 0.008126418 0.032992627
0.027499754 0.0198523 0.05752086 -0.06410665 -0.043801695 0.02843453 -0.04681937 -0.021852829
-0.019170579 -0.02781001 0.052358963 -0.020454064 -0.0855749 0.01931933 -0.05757619 -0.04745969

fc.4.bias f4 [100]
00000000: 96d1 183e 05a0 803d 476b 853d de0e 9c3d
00000010: 1c84 103e 9a43 f23d 243a 7f3d a235 083e
00000020: ab59 883d ce3d 9a3e a78e 843d c905 343e
00000030: 6a87 813d 5af3 863d 2378 4d3e 766f 863d
00000040: 4ec0 d23d 7214 8a3d b7cd 863d f2b6 823d
00000050: 9d8c 1e3d c0ab b83d ea1a 033e 812d 893d
00000060: 90f4 763d 6385 853d 9550 833d e9b9 c73e
00000070: cb36 ae3e f995 c23e ed58 833d d9e2 833d
00000080: 75c3 853d e888 853d 7f6f 623e e503 173e
00000090: 5379 863d d8d9 d43c bfe5 e23d b846 9d3e
000000a0: 2622 883d 6dea 823d cbef 883d 6f9a ce3e
000000b0: 67d3 863d d363 f63d 5a67 763e 6392 073e
000000c0: 9cf9 823d 56ed 4b3e acce 4d3e ac48 8b3d
000000d0: a946 b33d e538 853d 703c 803d 7bb3 793e
000000e0: b932 8a3d 14b7 e13d 89cf 7f3d e731 843d
000000f0: 2176 2d3e 513b 8b3e 7f13 843d 2d33 2d3e
00000100: d64a 783d 9670 803d 27aa 863d b4a9 593e
00000110: bde0 7e3e 8a84 833d 1e69 863d 0e04 103e
00000120: 65c8 7d3d 5ebc 853d 459e 2b3d 8c32 e63d
00000130: fa6b db3e 2d47 843d 94e8 8a3d 3a50 773d
00000140: a624 a43e aecb 8c3d a650 8b3d 0ccb d73d
00000150: 1bf3 7d3d d143 8b3d fb32 b23e cfa5 db3e
00000160: d908 a43e 40ed be3e 6305 9b3d 62b1 263e
00000170: fb41 bd3d 7ece 923e 697e 833d 3470 d13d
00000180: 840b 813d 1df2 f23d 1c29 803d a686 873d
0.149237 0.06280521 0.06514602 0.07620023 0.14112896 0.118293 0.062311307 0.1330171
0.06657728 0.30125278 0.06472521 0.17580332 0.06324656 0.065893844 0.2006536 0.06564228
0.102905855 0.06742181 0.06582206 0.0638255 0.038708318 0.09017134 0.12803236 0.06698132
0.060291827 0.06519582 0.06411854 0.39009026 0.3402618 0.38005045 0.064134456 0.06439752
0.06531421 0.065202534 0.22112845 0.1474758 0.065661095 0.025982782 0.11078977 0.30718017
0.06647138 0.063923694 0.06686362 0.40352198 0.065832905 0.12030759 0.24062863 0.13239436
0.063952655 0.19914755 0.2009837 0.068009704 0.08753712 0.065049924 0.062615275 0.24384873
0.06747956 0.110212475 0.06245378 0.064548306 0.16939594 0.27193692 0.06449031 0.16914053
0.060618244 0.06271474 0.06575423 0.21256143 0.24890418 0.06421764 0.06563018 0.14064047
0.06195869 0.06530069 0.041898984 0.1124011 0.42855817 0.06458888 0.06782642 0.060379244
0.3205921 0.06874786 0.06802492 0.10536775 0.06199942 0.06800044 0.3480452 0.4289994
0.32038 0.37290382 0.07569387 0.16278604 0.092411004 0.28673166 0.06420595 0.10226479
0.063010246 0.11862586 0.06257841 0.06617479
