results/Smoothed_MINE_dim25_reg1_alpha0.01.pt (torch, 407533 bytes, 13 tensors)

fc.0.weight f4 [100, 50]
00000000: 546b 0d3d 9de2 113c 98c9 013d 5679 2cbd
00000010: 3da1 a33d 57e2 5d3d 5643 40bc ccbd f23b
00000020: fb9c 413c 12c2 5ebc 0785 a73b b613 ce3b
00000030: 98ed 0fbd e67c 65bc 64e0 e83c 235d 323c
00000040: 5b53 8cbb 3d8b b43b c16c 283d 25e9 0fbd
00000050: 7c32 debb e85f 663b 19ac 553d bc89 eabc
00000060: 7bd5 ef3b 6761 153d c2fc c93c 7749 413d
00000070: 62e1 e2bc 3c92 6e3d 205d 273d 2fc2 2e3c
00000080: 3ad7 943c c78f 483c 5cb3 33bd 4cc5 843c
00000090: 3894 203c 2620 64bd 4d34 f7bb 1b8e 213d
000000a0: 3fe5 0abc 2a5d b0bb 33ac ae3b 70af 123d
000000b0: 14ff cfbc 2bc7 bebb 2f68 3e3c 93b5 493d
000000c0: fb90 bcbc f569 533c da61 b5bc 3710 eebc
000000d0: 3a97 573d 56bc a0bd ad8e 263d 35e6 86ba
000000e0: a195 cd3c f7ee 4fbd 7ba6 01bd 82cb b6bc
000000f0: bb6a 153c 3c6f 2e3d 0cd9 82bd 30be 7dbd
00000100: 8754 7b3d cc47 82bb 9f36 84bc 256d 833a
00000110: 4a38 c03b ea9b 91bc 13ac d53c 5775 c3bb
00000120: 7f3d 373c 3434 f53c cd77 7fbc 336b ebbc
00000130: 9260 05bd 35f0 313d 456f a0bd 92ab 4e3d
00000140: c175 84bc 5815 d23c cb43 10bd b521 2fbc
00000150: acc8 05bd beb8 b8bb 1364 fd3c 29fc adbd
00000160: 24f8 5fbd d3f8 ac3d de41 cbbb 3ea6 a0bc
00000170: 571a 933b b8c8 393c 78f1 d5bc eaba 3a3d
00000180: b89e 5b3b 54c4 dd3a b6cd 1e3d 9ac2 b8bc
00000190: 8616 22bd edcc c13c 9944 173d f96b 99b7
000001a0: c442 fa3c 5d2f dbbc f716 1ebd d24f 90bc
000001b0: 3c25 6b3c 73a5 993d 1c94 a73d 0502 44bd
000001c0: d211 e8bc 3aed f93c 7e8d ec3c eea8 4e3d
000001d0: aee3 0abd db0f ff3b 2d1d 2ebd 8409 aabc
000001e0: 0896 c2bc fd84 19bc d541 5e3b b771 d7bc
000001f0: ffbc de3d 08f7 323d 860c ee3c dde4 18bd
00000200: 03a6 f4bb e53f 15bd fe29 daba a818 f93c
00000210: 7df9 2ebd 946f 943c 7275 57bd effe 65bd
00000220: bf98 343d 5483 f1ba f1da 33bd f689 d4ba
00000230: eb86 c5bc 5f41 1e3d 4a6d 8fbc 6d54 23bd
00000240: fda0 1d3a 0481 a33c 84f2 833c 0bd5 fdbb
00000250: eeca 7d3c e657 acbd 8d86 1ebd df2e 6dbc
00000260: 0aab d43c c424 06bc 3c4a 893c a4ce 843d
00000270: 42ed 643c 804b f1bc 2b87 d5bb 9b61 0abd
00000280: 8066 5fbb 5523 13bc 4074 4dbc 0003 a73d
00000290: 9604 583a f781 4a3c 6d10 66bd 098a 693d
000002a0: b741 89bd 857c 693b df89 5e3d b74d 953b
000002b0: c5f2 babc e305 02bc 2a5f debc 560e 45bd
000002c0: 1d77 5fbb 3994 333c bef0 8e3c 5197 b83c
000002d0: 110f 8f3d ebe1 c53c 1981 17bd 3f81 82bc
000002e0: 7edd 98bc c501 0d3c e900 69bb b98d b8bc
000002f0: ac97 a13d 3aa9 3cbc 602f 8f3c 10c4 7dbd
00000300: d791 a93d e4f3 46bd 3f69 853b d347 a13d
00000310: 7b49 eb3c b555 34bc 2ea4 f8bb ac9a c2bc
00000320: 3611 82bd a430 f4bc 9dde 9d3b 15a4 19bd
00000330: 2666 573a 1270 063d cd85 35ba 672c 3f3c
00000340: ffd2 62bd 45db 653c 000b 26bd f758 29bd
00000350: 39a9 bcbc c290 08bc e603 acbc 8ed1 1dbc
00000360: 63f0 ccbc 18ae 7b3c 8d4a cebb d564 a93c
00000370: 7443 853d f967 3ebc 6a1c 81bc cf88 90bd
00000380: 9b25 a13c 4b67 7dbd 9b74 01bd 3f6b 093c
00000390: 5641 34bd 1140 05bc 1392 813d 99b8 c53c
000003a0: 3b31 ac3a 9862 65bd 9e83 a5bb 9818 dabc
000003b0: 7201 eabc ac6b 0cbd 5924 68bc d023 97bc
000003c0: b4f3 75bc a36c c8bb 524b a53b d193 c43b
000003d0: bcd8 7abb 90f4 ae3d 114d 7fbc 3336 afbc
000003e0: 4b68 5fbd 8d74 243c 8ab6 e83c 9fa7 113d
000003f0: ebd1 403d d9a6 62bc 5718 9f3c f89b b33c
0.034526184 0.0089041265 0.031686395 -0.042107902 0.07989738 0.054170933 -0.011734804 0.0074078795
0.011817212 -0.013596075 0.0051122936 0.006288971 -0.035138696 -0.014006829 0.02842731 0.010886463
-0.0042823977 0.0055097626 0.04111934 -0.035134453 -0.0067809206 0.003515238 0.05216608 -0.02863013
0.00731915 0.036469843 0.024656657 0.047189202 -0.027695362 0.05824493 0.040860295 0.010666414
0.018169034 0.01224131 -0.043872222 0.01620736 0.009800963 -0.05569472 -0.0075440765 0.039442163
-0.008477508 -0.0053822 0.0053305863 0.03581184 -0.025390185 -0.0058220825 0.011621519 0.04924543
-0.02301835 0.01290368 -0.022141386 -0.029060466 0.052634455 -0.07848422 0.04066341 -0.0010291996
0.025095763 -0.050765004 -0.03165291 -0.022313837 0.009119685 0.04258655 -0.06389055 -0.061948955
0.06135991 -0.003975844 -0.016139327 0.0010027034 0.005866085 -0.01777454 0.026083028 -0.0059649157
0.011184095 0.029932119 -0.015592528 -0.02873764 -0.0325628 0.04344197 -0.07833723 0.05045659
-0.01616943 0.025644943 -0.035220902 -0.010689189 -0.03266208 -0.0056372574 0.030931508 -0.08495361
-0.054680005 0.08445897 -0.0062029203 -0.01961052 0.004489224 0.011339359 -0.026116118 0.04558841
0.0033511352 0.0016919472 0.0387704 -0.02255373 -0.03957226 0.023657287 0.036930654 -1.82893e-05
0.030549414 -0.026755983 -0.03859612 -0.017616186 0.014352139 0.0750226 0.081825465 -0.04785349
-0.02832881 0.030508626 0.028876062 0.050454073 -0.03390854 0.0077838725 -0.042508293 -0.02075649
-0.023753181 -0.009370086 0.003391375 -0.02629934 0.10875892 0.04369262 0.029058706 -0.037327636
-0.007466079 -0.036437888 -0.0016644595 0.030407265 -0.0427184 0.01811961 -0.05260224 -0.056151327
0.044090983 -0.001842598 -0.04390997 -0.0016215432 -0.024112185 0.03863656 -0.017508168 -0.039875437
0.0006013064 0.01995898 0.016106851 -0.007746344 0.015490277 -0.08415203 -0.038702536 -0.014476507
0.025960464 -0.008187477 0.01675903 0.06484726 0.013972582 -0.029454947 -0.0065163574 -0.03378449
-0.0034088194 -0.008980592 -0.012539923 0.08154869 0.00082404295 0.012360088 -0.05616801 0.057016406
-0.06701987 0.0035627198 0.054330703 0.0045563835 -0.02282084 -0.007935974 -0.027144987 -0.048109375
-0.0034098097 0.010960632 0.01744878 0.02253309 0.069852956 0.024155578 -0.03698835 -0.01593077
-0.018660303 0.008606379 -0.003555352 -0.022528516 0.07890257 -0.011514956 0.017478645 -0.061954558
0.0827977 -0.048572436 0.004071384 0.078750275 0.028721562 -0.011006762 -0.007587931 -0.023755394
-0.06350939 -0.02980835 0.0048177973 -0.037509996 0.00082168204 0.032821722 -0.000692454 0.011668301
-0.055377003 0.014029329 -0.040537834 -0.04134461 -0.02302991 -0.008335294 -0.020997953 -0.009632481
-0.02501697 0.015361331 -0.0062955082 0.020677963 0.06507006 -0.011621469 -0.01576062 -0.07057344
0.019671252 -0.061866086 -0.031605344 0.008387386 -0.04400762 -0.00813295 0.063266896 0.024135875
0.001313723 -0.05600223 -0.0050510904 -0.026623055 -0.028565142 -0.03428237 -0.014168822 -0.018449694
-0.015011717 -0.006116466 0.0050443793 0.0059990664 -0.0038276156 0.0854274 -0.015582339 -0.021388149
-0.05454282 0.0100375535 0.028407354 0.035560247 0.047075193 -0.013833725 0.019420786 0.021924958

fc.0.bias f4 [100]
00000000: ba78 1dbd 39e1 38bd 381b bd3a fead 2fbd
00000010: 16dd 31bd c8f1 1dbd f782 3ebd c60e ecbc
00000020: 491a 1fbb 8636 42bd 0463 5b3b fa69 3bbd
00000030: b34b 21bd f410 1ebd c8d1 4fbd e17b 58bd
00000040: d3d8 23bd e4bb 0bbd 3e4f d8ba 2013 43bd
00000050: f5b1 56bd c643 47bd 28ae 36bd e315 e4bc
00000060: 5024 50bd d31d 2bbd 7a02 d7bb ed93 4dbd
00000070: 49e5 f1bc 5c5c 4cbd be20 a4bc 82ff 34bd
00000080: 0682 39bd b6af dabc f377 2abc 535f 48bd
00000090: 4ae7 c6bc 9322 2ebd 8d87 e7bc 0227 07bd
000000a0: 6c86 36bd 0db2 febc 68d8 32bd bc5b c7bc
000000b0: dcfe bc3b 6fa7 16bd e834 43bd d0c6 68bd
000000c0: 07e5 49bd 8b27 41bd 2fa2 36bc 2a7c 4cbd
000000d0: f45f 3bbd d51f 3dbd e30d 36bd bc5c 06bd
000000e0: eedc 39bd ecfb 14bd 6728 40bc ea52 0abd
000000f0: 5fa1 29bd 8b8d 1ebd fec5 3ebd 5a87 0d3c
00000100: 68bf 01bd 1be9 b3ba 61bc 49bd c966 2abd
00000110: 9750 13bd 64f7 2cbd edc2 8abc 6e3b d83b
00000120: 09a5 2fbd 313d 38bd 6bd1 26bd 1bb1 b2bc
00000130: 99a9 10bd 76f3 e0bc 23ea 3cbd d67e ddbc
00000140: da55 44bd d84c e6bc c28a 6ebd 869d 53bd
00000150: d2b3 36bd 569a 0cbd 62a2 89bc 6dc4 3bbd
00000160: b5a5 47bd 9b1d 2dbd 5464 73bb 7725 04bd
00000170: 4294 88bc ccd3 19bd cd82 36bd 52e3 71bc
00000180: 5864 6ebd d07c 19bd aa94 2ebd d01b 223c
-0.038445212 -0.045136664 0.0014427667 -0.04289054 -0.043423735 -0.03856066 -0.046511617 -0.028815638
-0.0024277142 -0.04741528 0.0033475766 -0.045755364 -0.039378833 -0.038590387 -0.050737172 -0.052852515
-0.0400017 -0.034114733 -0.0016503108 -0.04762566 -0.052415807 -0.04864862 -0.044599682 -0.027842468
-0.05081588 -0.04177649 -0.0065615745 -0.0501899 -0.029528277 -0.04989277 -0.020035144 -0.044188984
-0.045290016 -0.026695114 -0.010404575 -0.048919033 -0.02428021 -0.04251344 -0.028262878 -0.032996185
-0.04456179 -0.03109076 -0.043663412 -0.024335735 0.0057676863 -0.03678077 -0.047657877 -0.056830227
-0.049290683 -0.04715685 -0.011147066 -0.0499231 -0.045745805 -0.046172936 -0.044446837 -0.032803282
-0.04537671 -0.036373064 -0.011728383 -0.03377048 -0.04141366 -0.038709205 -0.04657554 0.008638227
-0.03167668 -0.0013726087 -0.049251918 -0.04160193 -0.03596553 -0.042228118 -0.016938651 0.0065988814
-0.042882 -0.04498023 -0.04072706 -0.021812966 -0.03531799 -0.027459841 -0.046121728 -0.02703802
-0.047933437 -0.028112814 -0.0582378 -0.051663898 -0.044605084 -0.034326874 -0.016801063 -0.045841623
-0.048742015 -0.042264562 -0.0037138658 -0.03226229 -0.016672257 -0.0375555 -0.044558335 -0.01476367
-0.058201164 -0.037472546 -0.042622246 0.009894326

fc.1.weight f4 [100, 100]
00000000: efeb 0b3a 1891 293d 56ed 80b8 e3da dc3b
00000010: c2cf e73b 1a4f 1f3d cb1a 4dbc 63b2 56bc
00000020: 7cf6 1e3c d5eb 3a3c 3d53 30bd 1fd4 b43c
00000030: 64b0 b8bd 8e30 283c 4552 38bd 869b 243c
00000040: 36c2 7abc 10ee a6bd 55c8 4fbc 24df 19bc
00000050: ac2c df3c 7003 0b3d f4f4 acbd 70d4 a0bd
00000060: 6d2e 3a3d 95bf 99bd fb58 60bd 06a7 f33c
00000070: 666b 65bd cdba 1bbc 829a d23c 82a0 d63c
00000080: d6db 5fbd 50d4 c0bd 9e18 083d 3cb6 bd3c
00000090: 1cfa 0abd 0e8e ddbb 4c98 1cbd 5bfb 413b
000000a0: 741c a73d 28f5 c5bd 8919 ffbc 53f5 a6bd
000000b0: 83d2 213c 3aae a6bd 5191 453c feb4 973c
000000c0: 67dd ef3c bc78 693c c39c 7d3c 4c0e 083d
000000d0: 5eb5 013d 1e49 223d 3a98 4dbd 6c28 c0bd
000000e0: ae2d 98bb 03f9 cf39 9d25 0ebc 11c3 87bd
000000f0: 7b4b 493d 1d52 cabd 5da7 b83c 447f 8e3c
00000100: dda5 eebd 1855 9b3c a7e5 7d3c 4c9d 663c
00000110: 2f7b 91bc 22d0 b23c 7a8a b4bc e384 003c
00000120: 3d54 9b3c 833c 103d 59de 97bd 0fc7 84bd
00000130: 752c 16bc 0e6a 46bb 74d9 29bc cb60 8bbd
00000140: f56e 243d 1f5c 853c 80b0 273d 0112 623c
00000150: 8d49 1f3c 7aba 4bbd 2d70 7d3c 8214 333d
00000160: e4e8 823c 79fb 45bd 8a9d c9bb 293f e8bd
00000170: 5309 62bc a26d 17bc 3b99 b43c 1134 063b
00000180: 43e0 ab3c 0d89 e6bd 84a7 b23c 51d9 cab9
00000190: 041f a73c b444 963c c0ce 95bc 8f46 d93c
000001a0: 50e9 593c 4732 c8bc 4543 d23c e836 913b
000001b0: 0eb5 fe3c dc24 6f3c cba3 b9bc 0283 bb3c
000001c0: 259a d5bd 99e0 b03c 0162 9fbc a4b6 69bc
000001d0: 4a6a 6e3c bea2 02be f81f a3bc 3309 d53b
000001e0: 4370 0e3d 7503 81bc f429 b2bd 01af 9dbd
000001f0: 8488 883c 33d1 8fbd 594d 6dbd ecc5 1c3d
00000200: 9305 4dbd 3329 4dbc 4556 a6bc 2e49 ab3c
00000210: d977 9ebd 0832 92bd 6ea2 9a3c 1232 d93c
00000220: 5377 f13a f170 943c 6f90 abbd f971 1a3c
00000230: f3cc 543d 9a6c c6bd 1b30 763c 2733 c0bd
00000240: dc02 a23c d0f5 9fbd ba67 d33c cb8e 60bc
00000250: 0016 3e3d 87f6 78bb 54ba c9bc 1301 0f3d
00000260: 2514 9bbb 2a40 e53a fb96 82bd 53f5 eabd
00000270: c840 343c c119 2c3c 6db5 ccbc 560a 8cbd
00000280: 82af 6a3d 34e3 e8bd 0e64 2f3c 6c4c a83c
00000290: 1ebd bfbd d892 313c 47bb 8cbc 488d fb3c
000002a0: 4f6a aa3b 2262 8f3c 25e6 43bd 4aa4 483b
000002b0: 06e0 61bc 15ef d83c 9de1 97bd febc a0bd
000002c0: 15c5 38bc 6754 28bb 1b4d 023d 13b4 b5bd
000002d0: 025a 4a3d 547b bdb9 0ccb 2ebc d8ab ea3c
000002e0: 635b d73b 3a46 a4bd 13b7 f5bb 1957 783d
000002f0: c6a8 88bc 474a 6fbd 0f59 15bd 80c9 9dbd
00000300: 0fa1 95bc a1df 86ba 7be2 a73c 4db9 c53b
00000310: 9398 073c ac04 ccbd 85df e53c a517 1cbd
00000320: db8c 2f3c 5e2f 2c3a 36c0 dabc faa3 bd3c
00000330: 7164 03bc d9a7 3cbc d6c1 98bb 0cca f0bb
00000340: fb2a 31bc 5ac5 9bbc d0fd 993c 9416 723c
00000350: 291c 91bd 3105 aebc 0776 213d 78b7 91bb
00000360: 4ef5 aabb 3af3 f1bd 267b 5a3c 22af 473c
00000370: a520 173d 62fe 5f3c f5fe bebd 7541 3dbd
00000380: df97 863c 7cc6 85bd 5467 4bbd e8bd a13c
00000390: 8061 d6bc 0a1a cb3c cc67 343b 9b53 5a3c
000003a0: ba45 9ebd 0b56 bdbd bbc7 85bc e554 153d
000003b0: e5ab 223b 6c3c 123b d627 36bd 408b 913a
000003c0: 7eba 573c 0f82 a8bd d735 203d 9419 b0bd
000003d0: 37be 18bd 2c8b a1bd 5c5f 733c 565a 953b
000003e0: bcd2 0c3d 98f4 843b 08c1 8dbc ea50 fa3c
000003f0: d2e2 dc3c 5eb4 ce3b ab7c 3cbd 37b0 bbbd
0.0005337586 0.041398138 -6.147723e-05 0.0067399605 0.007074327 0.038893797 -0.012518595 -0.013104054
0.009702321 0.011408766 -0.043048132 0.022073803 -0.09018019 0.010265483 -0.045000333 0.010046845
-0.015305093 -0.081508756 -0.01268204 -0.00939158 0.02724298 0.033938825 -0.084451586 -0.07853019
0.04545443 -0.075072445 -0.05477236 0.029742729 -0.056010626 -0.009504986 0.02570844 0.026199583
-0.05465301 -0.094154954 0.0332266 0.023158185 -0.03392993 -0.006761319 -0.03823118 0.0029599282
0.08159724 -0.096659005 -0.031140106 -0.08152261 0.00987685 -0.081387 0.012058572 0.018518921
0.029280378 0.014249977 0.015479269 0.03321676 0.031667106 0.03962051 -0.050194003 -0.0938271
-0.0046441173 0.00039667645 -0.00867596 -0.06629003 0.04914425 -0.09878943 0.022540743 0.01739467
-0.1165273 0.018961474 0.015496648 0.014075588 -0.017758934 0.021827761 -0.022038687 0.007844183
0.018961066 0.03521396 -0.07415456 -0.0648328 -0.009165873 -0.0030275616 -0.010366786 -0.06805571
0.04014488 0.016279278 0.040939808 0.013798238 0.009722126 -0.049738385 0.015468639 0.04372073
0.015980192 -0.048335526 -0.0061528133 -0.11340172 -0.013796168 -0.009242447 0.022045722 0.0020477811
0.02098096 -0.11256609 0.021808393 -0.00038690356 0.020400532 0.018343307 -0.018287063 0.026522903
0.013300255 -0.024438037 0.025666842 0.004431594 0.031092193 0.01459619 -0.02266111 0.022889618
-0.10429791 0.021591472 -0.019455912 -0.014264736 0.0145517085 -0.12757394 -0.019912705 0.006501341
0.03477503 -0.015748719 -0.08699408 -0.07699395 0.016666658 -0.070223235 -0.057935093 0.03827469
-0.050054144 -0.01252203 -0.020304808 0.020908918 -0.07737703 -0.07138449 0.01887628 0.026513133
0.0018422402 0.01812026 -0.08377158 0.009426587 0.051953267 -0.09688683 0.015026118 -0.093847565
0.019776754 -0.07810557 0.025806297 -0.0137059195 0.0464077 -0.0037988739 -0.024624981 0.034913134
-0.004732626 0.0017490436 -0.063764535 -0.11472573 0.011001773 0.010504187 -0.024988854 -0.06837909
0.057296284 -0.113714606 0.010705007 0.020544253 -0.09362243 0.010838233 -0.017179145 0.030707017
0.0052006613 0.017502848 -0.047826905 0.0030615502 -0.0137863215 0.02648119 -0.07416079 -0.078485474
-0.011277457 -0.0025685073 0.031811815 -0.08872237 0.049402244 -0.00036140776 -0.010668527 0.028646395
0.0065721734 -0.08021207 -0.007498631 0.060629938 -0.01668204 -0.058420446 -0.036461886 -0.07704449
-0.018265275 -0.0010290035 0.020493736 0.0060340525 0.008276123 -0.099618286 0.028060684 -0.038108487
0.010714735 0.00065683376 -0.026702981 0.02314948 -0.008019553 -0.011514627 -0.004661779 -0.0073483046
-0.01081347 -0.019015003 0.018797785 0.014775891 -0.07085449 -0.02124271 0.0394192 -0.00444692
-0.005217231 -0.1181397 0.013335025 0.012187751 0.036896367 0.013671489 -0.09325973 -0.046205003
0.01642984 -0.065319985 -0.04965909 0.019743875 -0.026169538 0.02479269 0.0027527688 0.013325597
-0.07728143 -0.09244927 -0.01633059 0.036457915 0.0024821695 0.0022313846 -0.044471584 0.0011104122
0.013167022 -0.08227932 0.039113846 -0.08598629 -0.037290778 -0.07887873 0.014854278 0.004557888
0.03438066 0.004057478 -0.017303959 0.030556161 0.026963625 0.0063081225 -0.04601733 -0.0916447

fc.1.bias f4 [100]
00000000: d5c6 09bd 6696 f7bc 7f3d cdbc c81d 06bd
00000010: 469e e8bc ab4c a43c 260a f6bc 1c35 f8bc
00000020: c1e0 f4bc 3ca1 9f3c 85ce d5bc 1838 a93c
00000030: d721 06bd 27d9 d7bc 8f4f cb3c a7af ae3c
00000040: 2a31 c03c 562e e23c 9210 943c 5aee e23c
00000050: d42f b43c ee47 f3bc d221 0abd 4a45 00bd
00000060: 58ba fdbc 2cac 04bd 94e6 03bd 5bd6 01bd
00000070: 0b1e fdbc 37c5 b13c 6408 f9bc a8d6 ab3c
00000080: 3410 00bd 1f15 07bd ebe7 873c cf60 b33c
00000090: bba8 07bd ade6 ecbc dcec 04bd 3c3c 00bd
000000a0: 0db8 13bd 42c0 a33c 7203 bd3c 91f0 c43c
000000b0: 512b fdbc ef18 b53c c73b febc 2408 a83c
000000c0: 2a65 fbbc 9f9f f9bc eac7 e8bc dd8c fbbc
000000d0: de29 8f3c 399d c73c 1fe7 debc 0b8e febc
000000e0: 9eae 07bd f5a2 c13c 41b1 fbbc d03b 04bd
000000f0: cc49 ac3c b2e6 a83c bb14 0abd 9db4 07bd
00000100: ef49 dc3c 09e6 d83c 1b6b 06bd fde7 f3bc
00000110: 1b9b d53c 1961 05bd f032 c8bc 46a6 01bd
00000120: b658 eebc e7d3 07bd 2c66 bc3c 96bd bf3c
00000130: 717c b23c 5bba a23c 9ab8 0ebd bff8 f73c
00000140: 9df3 f9bc feed d73c 19bf a63c 7113 9a3c
00000150: bf8b a63c 909d b23c 8985 babc bba3 b73c
00000160: e5fa bd3c ae97 8d3c 0d2a 03bd 14ea d13c
00000170: 898b b73c 123d a43c c40f 05bd cf0e bb3c
00000180: 5b91 b33c 02d1 e13c 23ce 08bd 4119 dd3c
-0.033636887 -0.030223083 -0.025053738 -0.032743245 -0.028395783 0.02005609 -0.030034136 -0.030298762
-0.029892327 0.019486062 -0.026099453 0.02065663 -0.032747116 -0.026348663 0.02481821 0.021323992
0.023460943 0.027609985 0.018074308 0.027701546 0.021995462 -0.029697385 -0.03372366 -0.03131608
-0.030972645 -0.03239076 -0.03220232 -0.031698566 -0.030898115 0.021700485 -0.030399509 0.02097638
-0.031265453 -0.032979127 0.01659008 0.021896748 -0.0331199 -0.028918589 -0.03245245 -0.031307444
-0.036064196 0.019989137 0.023072932 0.024040492 -0.030904444 0.022106616 -0.031034363 0.020511694
-0.030687887 -0.030471621 -0.028415639 -0.030706817 0.017476019 0.024366962 -0.027209817 -0.03107359
-0.033125512 0.023637274 -0.03072417 -0.032283604 0.021031283 0.020617817 -0.033711176 -0.03313123
0.026890723 0.026476877 -0.032816987 -0.029773707 0.026074937 -0.032563303 -0.024438351 -0.03165271
-0.029095035 -0.03316107 0.022997938 0.023405831 0.021787854 0.019864252 -0.03484402 0.030269979
-0.030511672 0.0263586 0.020354794 0.018808099 0.020330308 0.021803647 -0.022768753 0.02241694
0.023190925 0.01728424 -0.032022525 0.025624312 0.022405403 0.020048652 -0.03248574 0.02283421
0.021919897 0.027565483 -0.033399712 0.026989581

fc.2.weight f4 [100, 100]
00000000: c7d5 ebbc 0d57 52bd 8c51 ccbb 59ab febc
00000010: e1c0 24bc ded7 de3c a3fc b2ba b39a ddbc
00000020: 3aef 52bd a146 cb3c 0f13 93bc d063 063d
00000030: c6ae 3abd 0ca6 debc 5b08 ac3d ae3e f23d
00000040: 4180 323d 9945 973d 9f82 073e e1fa 393d
00000050: d363 33bd c8e3 28bd 7ee2 39bd 4c1a 81bd
00000060: b0bb 63bd 328e 85bd 6f5b a4bd 9395 a3bd
00000070: 8386 47bc d4d8 1d3d 1154 03bd 6943 713d
00000080: 36f7 55bd c0ae 66bd efcf c13d b4f7 db3d
00000090: 7891 1ebd f1e7 0fbd 830a 3ebd b438 a0bd
000000a0: 1cff 76bd eb98 df3d f1bf b23d a178 eb3c
000000b0: 1449 d5bd 1d38 a53d 43e3 4ebd d254 e73d
000000c0: 6368 2abd 4bd9 40bd f141 c3bc 4a4d f5bc
000000d0: 76bb babb 12b4 4e3d a636 763b 0186 e3bc
000000e0: 7b1c edbc 93c4 8c3d 5435 35bd 3370 7dbd
000000f0: 516c 963d c678 243d bdd6 9b3b 218c 8d3a
00000100: ea3b 3b3d e1d0 4e3d f17e 80bd dfa3 b1bc
00000110: 7716 543d 4b47 abbc 030e cd3c bfc3 4bbd
00000120: cef7 afbd 2191 5abd d872 d43b 62fd 8a3c
00000130: f444 533d 6606 a73d 89a2 41bd b86a 883c
00000140: 7d01 f03c 78e2 883b 90e4 a93d 3ead 793c
00000150: 12c5 7c3d e9bb f63d 9432 fcbc 7fae 8a3d
00000160: eba8 2b3d 837f 033d d2a9 b5bc 2aa1 b33d
00000170: 2b26 a43d 4ea9 613d 0a3c 7dbd 41f3 883c
00000180: e045 383d 134f d33d 0f00 30bd 0346 26ba
00000190: 13e7 643c 85a1 a53d 7d6e b2bc 6eeb a33d
000001a0: a10c 803c 8697 69bd e74a e43c 7dde f63b
000001b0: 90c2 043d 6e97 0bbd 6986 be3b 30ed 80bd
000001c0: 29e4 873d fe52 863c ff1a f1bd 5104 d6bd
000001d0: b0d7 ffbb b21f 25bd bbe2 e0bd e8e8 99bc
000001e0: cd74 a9bc 3379 023d df1b 6e3d 7975 603d
000001f0: 5c4d 9b3c fce7 abbb b480 143d df52 433d
00000200: db31 a83a 1e97 c93a 6be2 703c 6c32 86bd
00000210: 71b1 1a3d ba89 203d 2e88 c5bd d3c9 adbd
00000220: f5cc bd3d 3efc 323c 93a3 813c 8e05 873d
00000230: 4b39 f73a 3130 82bd fac7 b1bd bae1 e8bc
00000240: 155e aa3d 669b aebd a4f3 943d 6740 0cbe
00000250: d2ba 093d 1898 f63c 1cf0 c53c 2dec 783d
00000260: e845 d83c a592 abbd 4c65 e5bb aefa f73c
00000270: 0a74 393c e88f 82bd 5449 973d fec4 383c
00000280: 6638 d4bd 1586 b0bd 11fa 073d 9558 f53c
00000290: b8b7 7db9 5898 a7bd 3551 953c 45fb 4f3d
000002a0: 1402 44bd 9a5b 433d 4d87 88bc 415e 173c
000002b0: 4bdf b93c e723 463d 343d 1abd 0318 99bd
000002c0: ed41 57bd 99f9 7dbd a309 673c 4f3b 48bd
000002d0: cac8 f83c 6d8b 16bd aa7b c2bd 214f ac3c
000002e0: 22f1 47bd f8f8 7bbd 7f1a ac3c 3513 9ebd
000002f0: 9b1f 36bd eb44 9a3c 2aa5 973d f89b b6bd
00000300: 8827 9dbd 7faf 97bd 7605 493d 3689 05bd
00000310: 2eb0 0fbd 3646 0cbe d3da 7ebc a4c2 83bd
00000320: e539 5a3d 0569 723d de29 593b 8f31 8e3d
00000330: e94d ad3c 681a aab9 e32b 043d 78eb 0c3d
00000340: 84b2 8f3d 6700 c33c 21db 81bc 5f66 a1bd
00000350: 0dcc fe3c ebbc 073d b3f9 b5bd 927f d8bd
00000360: 8795 1bbd 0f09 a4bc 0f34 a4bd af24 44bd
00000370: 26b3 79bc b95b 173d 516f 173d 50fd 9c3d
00000380: 779f 0c3d fd34 cd3c 3331 8c3d b2d6 6d3d
00000390: a18e d23c 6245 e1bb c1ee 473d de5d 6bbd
000003a0: 8189 ad3c 10db 363d e2ca 93bd aaf3 8fbd
000003b0: c186 db3c 3915 92bc 1b3b e13c e760 293c
000003c0: 7ad4 903d 355e 49bd f5b6 b7bd 6679 c4bc
000003d0: 6902 7d3d fb68 1cbe bb60 fb3c 4442 dbbd
000003e0: c072 65bc 1e98 483d 52e1 cabb ecbd 973d
000003f0: 9fbd d43a 3074 90bd d1ab b13c 67b9 1f3d
-0.02878846 -0.05135255 -0.006235307 -0.031087564 -0.010055752 0.027202543 -0.0013655614 -0.027051305
-0.051497675 0.024813952 -0.017953424 0.032810032 -0.045576833 -0.027178787 0.08400031 0.118283615
0.043579344 0.073863216 0.13233422 0.045405272 -0.04379637 -0.041232854 -0.045382015 -0.06303844
-0.055598915 -0.06521262 -0.08025252 -0.079875134 -0.012178066 0.03853686 -0.032062594 0.058902178
-0.05223771 -0.056319 0.09463488 0.10740605 -0.03871295 -0.035133306 -0.046396744 -0.07823315
-0.060301885 0.10917839 0.08728016 0.028744044 -0.10414329 0.080673434 -0.050509702 0.11295475
-0.041603457 -0.047082227 -0.023835154 -0.02994408 -0.0056986166 0.050464697 0.0037569194 -0.027773859
-0.028944245 0.06873431 -0.04424031 -0.06187458 0.073448785 0.04015424 0.0047558234 0.0010799208
0.045711435 0.05049217 -0.06274212 -0.021684585 0.051779237 -0.020908019 0.025031095 -0.049747225
-0.08592187 -0.053361062 0.006483417 0.016966525 0.05157943 0.08155517 -0.047274146 0.01665245
0.029297585 0.004177388 0.08295548 0.015239058 0.06171138 0.1204756 -0.030785836 0.06771564
0.04190914 0.032104027 -0.022175703 0.08770974 0.080150925 0.055093102 -0.061824836 0.016717555
0.044988513 0.103178166 -0.042968806 -0.000634283 0.013971108 0.08087448 -0.0217812 0.08003889
0.015631022 -0.05702927 0.027867747 0.007533847 0.03241211 -0.03407996 0.005814363 -0.0629524
0.06635315 0.016396996 -0.11772727 -0.10450042 -0.0078076944 -0.04031343 -0.109807454 -0.018787816
-0.020685578 0.031853866 0.05813205 0.05479953 0.018957786 -0.0052461606 0.036255553 0.047686454
0.0012832241 0.001538012 0.01470242 -0.06552586 0.037766878 0.039193846 -0.09645115 -0.084857605
0.09267608 0.010924397 0.015825069 0.06592856 0.0018861679 -0.06356848 -0.086807206 -0.028427947
0.08318726 -0.08525734 0.07273033 -0.13696443 0.03362543 0.03010182 0.024162345 0.06077211
0.026400521 -0.083775796 -0.007000601 0.0302709 0.01131917 -0.06375104 0.07387033 0.011277435
-0.1036232 -0.08619324 0.033197466 0.029949466 -0.00024196401 -0.08183354 0.0182272 0.05077674
-0.047853544 0.04769478 -0.016666079 0.0092387805 0.022689482 0.048374083 -0.037656024 -0.07475283
-0.052553106 -0.062005613 0.014101419 -0.048884686 0.030369181 -0.03675406 -0.09496243 0.021033825
-0.048813947 -0.061516732 0.021008728 -0.07718507 -0.044463735 0.01883169 0.074045494 -0.089164674
-0.076735556 -0.0740652 0.049077474 -0.032601558 -0.035080127 -0.13698658 -0.015555101 -0.06433609
0.05327787 0.059182186 0.0033136527 0.06943046 0.021155315 -0.000324446 0.032268416 0.034404248
0.07016471 0.023803903 -0.01585156 -0.07880854 0.031103158 0.03313915 -0.08885517 -0.10571207
-0.037984397 -0.02002385 -0.08017742 -0.047886547 -0.015240466 0.036952708 0.036971394 0.07665503
0.034331765 0.02504968 0.068453215 0.058066078 0.025702776 -0.006874726 0.048811678 -0.057462566
0.021183731 0.044642508 -0.07216431 -0.07028897 0.026797654 -0.017832385 0.027494004 0.010338045
0.07071777 -0.04916211 -0.08970443 -0.023983669 0.061769877 -0.15274422 0.030685773 -0.107059985
-0.014004409 0.048973195 -0.006191411 0.074092716 0.0016230828 -0.07053411 0.021688374 0.038995173

fc.2.bias f4 [100]
00000000: 68b3 f13c d41e e1bc 6dd7 cabc 7eeb debc
00000010: 141f eabc ad63 d33c 9ece f73c 880b ce3c
00000020: 1f85 dcbc fa34 cf3c 3300 eb3c 1542 cb3c
00000030: cc18 e13c d51a e1bc 89a2 cd3c 9a31 fb3c
00000040: 4f9c ddbc 4112 f03c f3a8 dbbc b150 ebbc
00000050: 1bc6 e7bc 2b84 d83c 17c5 dcbc 9bed c43c
00000060: c21c e8bc b2b1 e13c f8dd c6bc 2144 fdbc
00000070: 3ff8 e8bc b597 cbbc 4aed dd3c 3287 e4bc
00000080: 6414 dbbc 956e d33c ad06 d43c c908 dd3c
00000090: dc4c de3c a383 e3bc ef60 d8bc 9a45 dcbc
000000a0: 87d1 b13c 273a e7bc 19ab dabc 2952 f9bc
000000b0: 6ee5 debc ecdc e1bc 443d f13c 4784 cc3c
000000c0: e774 03bd 10ac c13c 828b c0bc 3cd5 df3c
000000d0: 5d77 a7bc 8348 c03c f708 ec3c 4504 e13c
000000e0: fbbb e8bc db83 c73c ac50 d83c 4f99 e0bc
000000f0: 9bd2 cf3c d318 eb3c c433 f13c 2fe3 e5bc
00000100: 3a77 bcbc 0076 d5bc d267 c63c bd48 033d
00000110: 3ab9 d13c 5d09 b3bc 24ba fabc df7a e43c
00000120: 731c e53c 47dc c93c b518 d3bc 8813 ee3c
00000130: 4770 b43c 72d1 e8bc b057 db3c cdfa d4bc
00000140: 64c8 cb3c 0e23 ebbc 37ae e53c 38e5 cf3c
00000150: 1b1d e4bc 0312 cb3c b40e 023d ed7b e7bc
00000160: 2893 d03c 6425 ee3c 00eb bc3c bbd0 c7bc
00000170: ba56 eb3c fbd9 db3c 8b16 ddbc 42f0 d23c
00000180: 5393 b43c 0ea1 c2bc f68b f4bc fd2e e5bc
0.029504493 -0.02748052 -0.024760926 -0.0272119 -0.028579272 0.025804365 0.03024989 0.025151983
-0.026918946 0.025293816 0.028686618 0.024811784 0.027477644 -0.027478615 0.025101917 0.0306633
-0.027052073 0.02930558 -0.02681396 -0.028725 -0.028292706 0.02643021 -0.026949449 0.02403908
-0.028334025 0.027550552 -0.024275765 -0.030916275 -0.028438685 -0.024852613 0.027090687 -0.027896497
-0.026743121 0.025809566 0.02588209 0.026981728 0.027136259 -0.02777273 -0.026413409 -0.026888657
0.021706356 -0.028225971 -0.026692914 -0.030434685 -0.02720901 -0.027571164 0.029448159 0.024965419
-0.03209391 0.023641616 -0.023504023 0.027323358 -0.020442659 0.023472076 0.028812869 0.027467856
-0.028409949 0.024354866 0.026405655 -0.027416853 0.02536898 0.02869836 0.02944363 -0.028062431
-0.02300607 -0.026057243 0.024219427 0.03205179 0.025601018 -0.02185505 -0.030606337 0.02789062
0.027967667 0.02464117 -0.025768617 0.029062048 0.022026194 -0.028420184 0.026775211 -0.025998497
0.024875827 -0.028703239 0.028037174 0.025377855 -0.02784591 0.024788862 0.031752303 -0.028257335
0.025460795 0.029070564 0.023061275 -0.024391523 0.028727878 0.02683734 -0.026988288 0.02574933
0.022042906 -0.023758437 -0.029851895 -0.027976507

fc.3.weight f4 [100, 100]
00000000: 424a 0fbd 96d0 863d 2c8a 2c3d 03b2 593d
00000010: 0625 683d e0b9 b5bc c712 81bd b092 d9bc
00000020: bdc0 813d b3f1 d9bc 6e49 acbd 3356 5cbd
00000030: cc40 f4bc 3b54 223d 0428 69bd 35ca 96bd
00000040: 3c40 8c3d 4bbb 69bd 3866 513d ab7a 5a3d
00000050: d473 3d3d c36d 2fbd a23d 3a3d 06c6 6bbd
00000060: d76e 8e3d 04e9 47bd abaf 003d 21b7 9b3d
00000070: e99a 693d 6f20 6f3d a348 71bd c7f0 1f3d
00000080: 801f 0b3d 4a44 47bd 58e3 bdbd 8274 ebbc
00000090: ecab d0bc 7110 843d 12a1 a73d 72ac 8f3d
000000a0: c486 b8bc 778f 233d ca80 453d 642c 0d3d
000000b0: d8a9 853d 66aa ac3d 9b76 91bd 6771 5abd
000000c0: fb4f 9a3d caa0 b3bd daa6 093d 19d5 3fbd
000000d0: 6f97 083d 8f2e 8dbc 3155 43bd f890 54bd
000000e0: 35c8 103d 3935 f7bc ab31 89bd f917 ab3d
000000f0: 79d5 71bd 7594 38bc babf 46bc dddf 893d
00000100: 0c97 723d 108d ed3c 9c88 83bd cc6d 37bd
00000110: 1eee 4fbd b862 3f3d 63c4 513d e03d 0bbd
00000120: 2402 51bd e6ff b0bd 9063 ea3c 66e5 11bd
00000130: 7cb2 3abd f4b1 933d f2b3 d3bc 4bf5 163d
00000140: 3697 0cbd 0ba8 243d 0a62 58bd 9b25 88bd
00000150: 4ed2 243d 8376 59bd f21b 93bd 262d acb9
00000160: 04d6 07bd 4c3b 77bd c8ac 62bc 9891 de3c
00000170: d263 73bd b4d7 27bd bb6c 223d 0890 3dbd
00000180: e40c fabc f1fe 863d b620 773d b737 503d
00000190: cfef 96bd 2347 8d3d 1165 203c 01a6 a33d
000001a0: 3ac3 383d 897c c4bb 240b d1bd 95f2 babc
000001b0: b468 6b3d e959 8ebc 3ad8 27bd 7c0a 0fbd
000001c0: bc74 3dbd 6618 633d 57bc 75bd 2763 bfbd
000001d0: 0c81 673d 7801 d4bd 6779 353d bd80 8a3d
000001e0: c2d7 333d 6b83 5bbd 8191 603d 62f9 e9bc
000001f0: 2430 a73d e785 10bd c673 643d b73d c63d
00000200: e867 743d b81e 453d 9dda 183c 2223 9d3d
00000210: 9586 5c3d d341 1dbd 48ac 87bd 6fcd 64bd
00000220: 768c 0abd 71a2 1e3d c3b3 263d f282 583d
00000230: 4b3a a6bc bf19 2f3d af8f 323d 9efa 8e3d
00000240: 12a4 863d 54c2 803d c40a 7abd 3ac1 1fbd
00000250: 4e87 8b3d 668b 0ebd 3c58 563d 101f 9cbd
00000260: 2c8c 113c e9ed d8bc c8e0 5abd c894 c1bb
00000270: 8475 823d fce3 05bd 7268 28bd cfd5 3e3d
00000280: 883a 8bbd 43fe 70bd 20f9 85bd b618 b63d
00000290: 0170 4e3d 1011 473d 976b c0bc e7ed 94bd
000002a0: b967 6bbd 4333 033d 1730 7c3d c1ef 84bd
000002b0: 2d37 50bd 2289 86bd db91 c73c bf30 36bd
000002c0: a994 9dbc c361 d53d 999f 10bd bf3f ac3c
000002d0: 75df 18bd 0a47 0f3d f4ee afbd 270f 5abd
000002e0: 9900 8e3d a287 33bd 33d3 5dbd 6cfe 3f3d
000002f0: 7dde 5bbd b9a5 87bd db01 1fbd 300f 703d
00000300: 6383 a4bd 7bbf 69bd 7e45 893d b26f 99bd
00000310: be90 d8bc 5845 3f3d 777a c63d 08c9 6c3d
00000320: 321c c93c b864 0fbd 37f8 7ebd 19ab 5fbd
00000330: 15cc 83bc 4730 983d 9d98 1e3d 62ac a43d
00000340: d745 55bc a2ef b63d cb50 be3a 5065 923d
00000350: 06c6 dd3c c40b 773c ab49 cf3d 8249 d53c
00000360: ffe5 83bd 4716 cfb7 ce16 81bc 3e28 a63c
00000370: ae63 3abc 87ac a73d 2588 85bb 933c bb3d
00000380: 5f15 063c f939 6f3d 4a3d bfbd 9919 653d
00000390: 568b a43b dcbc 9cbd 65f9 863c 53aa 9bbc
000003a0: 8d1a 34bd 0056 ad3d d336 343d 8339 9f3d
000003b0: de90 5e3d 947c 34bd bf04 27bd 81d6 5cbc
000003c0: 2366 1a3e 7799 a4bc fb6c 30bd 89c5 efbc
000003d0: 44f2 30bd 8016 ccbc 9d23 8a3d ca07 d93d
000003e0: 1692 bd3d bc7c 0e3e 09e8 b9bd 955d 633d
000003f0: 5095 ffbd 03ce cb3d ea2b 363d 8fcf 3f3d
-0.034982927 0.06582753 0.04212396 0.05314828 0.056675933 -0.022183359 -0.063024096 -0.026559204
0.0633559 -0.026604509 -0.08412443 -0.053793143 -0.029816054 0.03963111 -0.056922927 -0.07362787
0.06848189 -0.057063382 0.051122874 0.05333964 0.04625304 -0.042829286 0.045468934 -0.057561897
0.06954735 -0.048806205 0.03141753 0.076032884 0.0570325 0.05838054 -0.058907162 0.039047983
0.033965588 -0.04864911 -0.09271878 -0.028742079 -0.025472604 0.064484484 0.081850186 0.07015313
-0.022525199 0.03993174 0.048218526 0.034466162 0.06526536 0.084309384 -0.071027 -0.053330805
0.07534786 -0.087709025 0.033606388 -0.046834085 0.033347543 -0.017234115 -0.047688667 -0.051896065
0.035347182 -0.030176746 -0.066989265 0.08354182 -0.059041474 -0.011265864 -0.012130672 0.06732152
0.05922608 0.028997928 -0.064225405 -0.044782445 -0.050764196 0.046725005 0.05121268 -0.033994555
-0.051027432 -0.08642559 0.028611928 -0.035619162 -0.045580372 0.07211676 -0.02584264 0.036855023
-0.034323893 0.04019932 -0.052827872 -0.06647798 0.040239625 -0.053091537 -0.071830645 -0.00032840035
-0.033163086 -0.060359284 -0.01383514 0.027169034 -0.059421368 -0.040977195 0.039654475 -0.046279937
-0.030523725 0.06591595 0.06033393 0.050834384 -0.073699586 0.06898334 0.009789721 0.07990647
0.045108058 -0.005996291 -0.10207203 -0.02282075 0.0574729 -0.017376857 -0.040977694 -0.034922108
-0.046253905 0.05544319 -0.059994068 -0.09345084 0.056519553 -0.10351843 0.04430523 0.06762836
0.043906935 -0.053592127 0.054826263 -0.028561298 0.08163479 -0.03528395 0.055774473 0.0967974
0.059669405 0.048125 0.009329465 0.07672717 0.053839285 -0.038392853 -0.06624657 -0.05585998
-0.03382536 0.038729135 0.040698778 0.052859254 -0.020291468 0.042749163 0.04359406 0.06981395
0.06574263 0.06287065 -0.061045423 -0.039002635 0.06812917 -0.03480091 0.05233024 -0.07623112
0.008883517 -0.026480632 -0.053437024 -0.0059076287 0.063700706 -0.032688126 -0.04111523 0.046590623
-0.06798273 -0.058836233 -0.065416574 0.08891432 0.050399784 0.048600256 -0.023488803 -0.07271939
-0.057471965 0.03203131 0.0615693 -0.06491042 -0.05083387 -0.06569125 0.024361541 -0.04448008
-0.019235926 0.10419037 -0.035308454 0.02102649 -0.03732248 0.034979858 -0.085904986 -0.053237107
0.06933708 -0.04383052 -0.054156493 0.046873495 -0.05367898 -0.06623406 -0.03882013 0.058608234
-0.080328725 -0.057067376 0.06702708 -0.07492007 -0.026436206 0.04669699 0.09691327 0.057808906
0.024549577 -0.035008162 -0.062248435 -0.05460653 -0.016088525 0.07431083 0.038719762 0.08040692
-0.013017139 0.08932425 0.0014519928 0.0714823 0.027071964 0.015078489 0.10121473 0.026036028
-0.06440353 -2.4686697e-05 -0.015757944 0.02028286 -0.011376305 0.08187204 -0.0040750676 0.09142413
0.008183806 0.058404896 -0.09337862 0.055932615 0.005021493 -0.076532096 0.016476342 -0.019002115
-0.043970633 0.08463669 0.043997597 0.07774641 0.054337375 -0.04406412 -0.04077601 -0.013478876
0.15078025 -0.020092709 -0.043072682 -0.029268997 -0.043199793 -0.024913073 0.06745074 0.10597189
0.09256379 0.1391477 -0.0907746 0.05550917 -0.12479651 0.09951403 0.044475473 0.046828803

fc.3.bias f4 [100]
00000000: 37aa a4bc 7ab9 e8bc b790 4a3c f4e1 c73c
00000010: 8d5c debc cc26 cf3c 5233 04bd 5761 00bd
00000020: fc78 7b3c 4375 02bd 94dc 9abc 20e0 0ebd
00000030: 2965 4d3c 64e8 c3bc 2bf9 9e3c d627 d2bc
00000040: 5ec1 663c f265 02bd cbc9 03bd 5179 b1bc
00000050: 039a 663c b2e1 c33c ae13 0dbd 7bbd 02bd
00000060: c68e 303c 40c8 e9bc 6d19 063d e024 78bc
00000070: eca4 07bd a30c 813c d46c 6a3c 4158 b83c
00000080: 4fc8 c73c bb69 07bd 4c32 04bd adb5 ae3c
00000090: 9274 22bc f5fa ad3c 68b7 aabc 2874 13bd
000000a0: b791 fcbc c466 89bc 0750 02bd 796d 893c
000000b0: 1846 8f3c cab4 a4bc aa91 e13c e5d9 583c
000000c0: 8003 c23c 92c7 d93c cb61 c6bc aa36 bb3c
000000d0: ac27 be3c f622 ffbc 8013 b03c e9aa 943c
000000e0: e6dc a93c 961c 603c 36af 593c 9503 e2bc
000000f0: 6505 4e3c 75e5 c4bc 9641 d7bc 604b a73c
00000100: 4f83 b13c 2095 c43c a8b9 dfbc 93fa 363c
00000110: ca2a a03c f442 f6bc 77d3 c7bc 7564 dbbc
00000120: 904d babc a2dc ab3c df19 9bbc 16b3 d6bc
00000130: e100 c0bb 881f e4bc b86b dcbc b771 25bc
00000140: 8c76 f5bc 07e0 353c f699 06bd b0d2 e6bc
00000150: c34b f5bc 2049 e6bc 5a7c 9bbc ab5f 933c
00000160: f762 c1bc e2b3 bcbc 56a9 dfbc a259 ccbc
00000170: 5c8a a7bc da88 bebc 87e7 563c 54dd 06bd
00000180: dd13 17bd a4c7 3d3c c685 be3c 38f7 033c
-0.020100696 -0.028408755 0.012363604 0.024399735 -0.027143741 0.025287054 -0.032275505 -0.03134283
0.015348669 -0.03185011 -0.018904008 -0.03488171 0.0125363255 -0.023914523 0.019405922 -0.02565376
0.014084188 -0.031835504 -0.032174867 -0.021664293 0.014074805 0.02391133 -0.034442596 -0.031918984
0.010776227 -0.02853787 0.03273909 -0.01514551 -0.033116266 0.015753096 0.014308173 0.02250302
0.024387507 -0.033059817 -0.03227453 0.021326864 -0.009915488 0.02123783 -0.020839408 -0.035999447
-0.030831201 -0.016772635 -0.0318146 0.016775833 0.017489478 -0.020105738 0.027535278 0.013235544
0.02368331 0.02658442 -0.024216553 0.022853214 0.023212276 -0.0311446 0.021493673 0.018147903
0.020735215 0.01367869 0.013286402 -0.027589599 0.012574528 -0.024035195 -0.026276391 0.020421684
0.021669058 0.02399689 -0.027310207 0.01116814 0.019551653 -0.030061223 -0.024392826 -0.0267813
-0.022742063 0.02097923 -0.018933235 -0.026208442 -0.00585948 -0.027847067 -0.026906833 -0.0100979125
-0.029963754 0.011100776 -0.032861672 -0.028176636 -0.029943353 -0.02811104 -0.018980194 0.017989954
-0.02360676 -0.023034994 -0.027302425 -0.024945084 -0.020451717 -0.023258615 0.013116724 -0.03292592
-0.036884177 0.011583243 0.023257148 0.008054547

fc.4.weight f4 [100, 100]
00000000: 87f6 70bd 5218 8abd d8ac 273d 32f7 bb3c
00000010: 5996 2abd 6b33 bd3d 5a0f 9dbd 3ba2 dcbd
00000020: 6e88 983d 77d3 bdbd fd37 4ebd 4d04 a1bd
00000030: 61db 453c 2d44 4ebd 6532 5e3d 7712 fabd
00000040: a5d5 bebc b066 4ebd ea97 79bd 2c61 10bd
00000050: f485 bf3b d73d b83d 072e acbd a2e1 dbbd
00000060: d391 11bc eacf 6fbd 4fdc 863d 7aa6 38bd
00000070: 5672 a2bd 493d 383d 50f1 e13c ad52 c83c
00000080: 4102 ae3c ab6b b0bd b330 a2bd 30a1 8e3d
00000090: 1836 c1bc 7e52 093d 3c69 83bd 6c60 fcbd
000000a0: 1a61 abbd f8a5 2cbd 699b bfbd abce 62bc
000000b0: da31 513d faff 83bd 34a0 4e3d 8ea6 f23b
000000c0: bced a63c 355f 9f3c 47d7 9ebd 0748 a83d
000000d0: 546d a93c 1e65 96bd 015f 443d d6d4 e63c
000000e0: 970d fc3c b570 013d d6a0 1b3d 5ff7 91bd
000000f0: 8593 523d fbf1 77bd 8e06 afbd d69e a13d
00000100: cd4a 02bc c44e 8f3d 67b4 89bd a243 c43c
00000110: 4314 c13c 5b2a 91bd ccfc d0bc ec32 6dbd
00000120: aaae 83bd 7d56 a83b 818a 8bbd c5b7 edbc
00000130: 1b3f 40bd 516f 8ebd 0afb 90bd 7418 cbba
00000140: 19cc 35bd 10b7 e93c 7620 b0bd 30b7 5abd
00000150: 8575 aabd dc5e 8abd 7272 94bd e2dd f93c
00000160: ea8e 8bbd 2acf afbd d9be 8fbd 3b58 89bd
00000170: f6ea f3bc 0d7f 8bbd a0ae 303d b804 31bd
00000180: 8822 11be bd41 db3c db47 223d 37e6 bebc
00000190: e2f2 24bd 015d 8dbd 7633 6d3c 050c 3b3d
000001a0: 8a49 6abd fbce bb3d 0ab8 7bbd 180a 5cbd
000001b0: 5b00 8e3d cc8c a7bd fade fcbc 5a4f 8dbd
000001c0: ee6a 003d 39b7 41bd c609 933d 5ce0 cbbd
000001d0: 1be5 0b3d 241b 6abd 9b9b c8bd 6b9d 42bd
000001e0: a90b 313d 5edd 9b3d 7708 a8bd ba81 8bbd
000001f0: e8ef 7b3d d31c 24bd f25c ab3d 138d 06bd
00000200: c8a9 85bd afed 403d 5c29 743d ce2d 1a3d
00000210: ffd6 93bb 429e 9ebd bfb1 bbbd a743 da3c
00000220: 6e98 69bd 1e04 953d 07fe 99bd ce6b f6bd
00000230: 89b4 a7bd 8a0e 90bd 6b1f efbd e230 753d
00000240: 8bd1 673c ef21 19bd f1e6 933d 81fe 623d
00000250: 83b9 b33d cf87 873d 7dca 4fbd 6cfe bc3c
00000260: 8165 7e3d 9481 d8bd 6a2c fb3c df2f 853d
00000270: 95d0 303d b37d 3b3c db4a 5d3d 893c 99bd
00000280: 734f 5e3c 652b 42bd 3c0e b2bd 7fd1 7a3c
00000290: e021 313d 316a 823d 302b a2bd f9ed 0c3d
000002a0: 921c 9a3d 3682 c5bd 95f9 9ebd af70 90bd
000002b0: dace acbd 1353 2a3d a37b bcbd ba59 1dbd
000002c0: 41d8 2639 74c2 b0bd 3c52 9fbd 6be2 22bb
000002d0: 2c34 6fbd 3a92 293c 4e75 82bd e5cd 48bd
000002e0: 73d0 a7bd da37 65bd 6508 4cbd 85bb 493d
000002f0: ada8 4fbd 63e8 91bd 107d 7ebd 235f 8ebd
00000300: 1f6d 31bd 0ac5 1abd 02c9 d83c 23f3 85bd
00000310: eeba ddbd a703 933d e7a7 2d3d be18 2f3d
00000320: aaef 0b3d a013 743d 4aed 93bd fb7b 94bd
00000330: f065 933d 4590 79bd 56ae 333d bf9e 903d
00000340: 6c4c f3bd 6b1b 753d 9c10 6e3d ce52 5a3c
00000350: af5e e6bd 982c 093d 70be ccbd c90b 353d
00000360: 6038 dbbd f180 413d 9b2d 1c3d 933d 693d
00000370: 281b c7bd f7b4 2cbd 5f7a 3f3d 4950 a23d
00000380: 8583 debd 721e 233d be20 9bbd 7536 a23d
00000390: 52fb 4d3d 57ed b0bd 5795 98bd 51b0 98bd
000003a0: 9fe3 d6bd 7b95 be3c 0fa9 a43d e862 f0bd
000003b0: fcaa 063e 88b9 babd 3cc1 203d 49ce b93c
000003c0: 019f f13c 8b02 7f3d 1f10 653d 261e e2bd
000003d0: 8850 afbd 0cf9 763d ad27 a0bd 5f12 a1bd
000003e0: 897e 5dbd 2f8f 79bd 34e5 943d 7693 74bd
000003f0: f8a8 fdbd c42f ad3c 9e8b d6bd 9eeb c3bd
-0.058828857 -0.0674292 0.04093632 0.02294502 -0.04164729 0.09238323 -0.07668944 -0.107731305
0.07447897 -0.09268849 -0.050346363 -0.078621484 0.01207623 -0.050357986 0.05424728 -0.12210553
-0.023295233 -0.0503909 -0.060935892 -0.03524892 0.005844826 0.0899617 -0.084072165 -0.107363954
-0.008884865 -0.05854789 0.06584989 -0.04508064 -0.07931964 0.04498032 0.027580887 0.024453485
0.02124131 -0.08614286 -0.07919445 0.06964338 -0.023585364 0.033525936 -0.06416556 -0.123230785
-0.0836813 -0.042150468 -0.09355814 -0.013843219 0.051072933 -0.06445308 0.05044575 0.007405109
0.020377032 0.019454578 -0.07755905 0.08216863 0.020682015 -0.07343505 0.047942165 0.02817766
0.030768199 0.031601626 0.037995182 -0.071272604 0.051410217 -0.060533505 -0.08546172 0.07891624
-0.007952404 0.06997445 -0.06723862 0.023958031 0.023569232 -0.07088157 -0.025511168 -0.05790989
-0.06429799 0.0051372633 -0.06813527 -0.029018292 -0.046935182 -0.06954826 -0.07079132 -0.0015494958
-0.044384096 0.028529674 -0.085999414 -0.053397357 -0.08323196 -0.06756374 -0.07248391 0.03050131
-0.06814368 -0.08584435 -0.07018823 -0.06706282 -0.029775124 -0.068113424 0.043135285 -0.04321739
-0.14173329 0.026764745 0.039619308 -0.023303134 -0.040270694 -0.06902505 0.014477601 0.04566576
-0.05719904 0.09170338 -0.06145481 -0.053720564 0.069336616 -0.08181152 -0.030868042 -0.06899901
0.031351976 -0.047293875 0.071795985 -0.099549025 0.03415404 -0.05715479 -0.097953044 -0.047513407
0.04322401 0.07610582 -0.082047395 -0.06811853 0.06150809 -0.04006655 0.08367337 -0.032849383
-0.06526524 0.047101673 0.059609756 0.03764134 -0.0045117135 -0.07745029 -0.09164762 0.026643587
-0.057030134 0.07276176 -0.07519155 -0.12032281 -0.08188731 -0.07034023 -0.116759144 0.05986107
0.01414908 -0.037385877 0.07221783 0.055418495 0.08775618 0.066177 -0.050730217 0.023070537
0.06210852 -0.1057159 0.030660827 0.06503271 0.04316767 0.011443543 0.054026466 -0.07482249
0.013568747 -0.047404665 -0.08694121 0.015308737 0.043245196 0.06367911 -0.079183936 0.034406636
0.075249806 -0.096439764 -0.07762448 -0.07052743 -0.08437891 0.041583132 -0.09203269 -0.038415648
0.00015911555 -0.08630839 -0.07779357 -0.0024854194 -0.058399364 0.010349805 -0.0637003 -0.04902448
-0.081940554 -0.055961467 -0.049812693 0.0492511 -0.05069797 -0.071244024 -0.062130988 -0.0695174
-0.043316957 -0.037785567 0.026463035 -0.06540515 -0.1082667 0.07178431 0.042396452 0.042748205
0.03416411 0.05958903 -0.07222994 -0.0725021 0.071971774 -0.0609286 0.04386743 0.070615284
-0.11879811 0.0598406 0.05812131 0.013325406 -0.11248528 0.033489794 -0.099972606 0.044200692
-0.10704112 0.04724211 0.03812943 0.056943487 -0.097219765 -0.04216477 0.04674756 0.079254694
-0.10864929 0.039823957 -0.075746045 0.07920543 0.050288506 -0.08639019 -0.07450359 -0.07455505
-0.10492634 0.023264637 0.08040058 -0.11737615 0.13151163 -0.091174185 0.039246783 0.022681372
0.029494764 0.062258285 0.055923577 -0.110409066 -0.08560282 0.060296103 -0.078200676 -0.07864832
-0.05407575 -0.060927566 0.072702795 -0.059710942 -0.12385744 0.02114094 -0.104758486 -0.09566425

fc.4.bias f4 [100]
00000000: 66a8 8f3d 8476 bb3d 6265 193c aad3 8c3d
00000010: 3dc8 a93d a96d ab3d cfa6 bc3c a57b 893d
00000020: 38a1 cc3c f165 803d a198 ca3b 9e1f 903d
00000030: cc35 d73c 7602 c13b 7dcd a53d 967a 2d3c
00000040: c51e 973d 0cfb 5bb8 accb 9b3c 1485 a93c
00000050: 5357 703d d168 c03d cfc1 873d dc61 e53c
00000060: 9af1 493d 3fe0 c73c 4ff1 ad3c f479 953d
00000070: 8301 553d ee0a 883d 7ecb 973c f32d ab3c
00000080: ed18 b63c 131c b93c 67ff 8a3d a905 8f3d
00000090: 7e13 513c 99e5 943d 18ee 933d 1dfc 603d
000000a0: 2583 fd3c 811f 903c 17cf c23c f0eb 773d
000000b0: b8f9 ab3c de99 8e3d 07f7 863d a6de 733d
000000c0: 3247 553c 4955 7e3d 584d aa3d 52e4 2c3c
000000d0: e028 893d 9dcb ca3c c5b0 b93c 255b 933d
000000e0: 3127 5e3c 3bb7 903d cdf7 7c3c 362c 8a3c
000000f0: 0dc9 b53d dfcc 9a3d c62c 943c 78dd 763d
00000100: acee e43c a454 d43b 2d6a 9f3c 9d34 8f3d
00000110: dc57 813d 855e be3c 64f0 7f3c 4406 e83d
00000120: f5f0 8c3c 0032 843c c1ff 853d cd5f 903d
00000130: 7c6f 8d3d 14f5 303c 6bb3 8c3c 3a33 e03c
00000140: 340a 673d b906 c13c bda9 fa3b f6cb a53d
00000150: eed6 b13c f1d9 3d3c ba03 a43d 0486 8a3d
00000160: 0b7b 643d d4a6 a43d e515 8c3d b336 b63d
00000170: 0ffe c63d 3f15 ad3d 72ed e23c 9616 863d
00000180: 3f98 ba3c bf81 943d 6e8c 5d3c 61ff a03d
0.07014541 0.091534644 0.00936255 0.06876309 0.082901455 0.083705254 0.02302876 0.067130364
0.024979219 0.06269444 0.0061827456 0.070372805 0.02627077 0.005890186 0.080958344 0.010588309
0.07378916 -5.2447474e-05 0.019018017 0.02069334 0.05867703 0.09394992 0.06628763 0.028000765
0.049302675 0.024398921 0.021233229 0.07298651 0.052003395 0.0664271 0.01852965 0.020895934
0.022228682 0.022596395 0.067869954 0.069835015 0.012760995 0.07270355 0.07223147 0.054927934
0.030946324 0.017593147 0.023780389 0.060527742 0.020993099 0.069629416 0.065900855 0.059538506
0.013017463 0.062093053 0.083155334 0.010552483 0.066972494 0.024755294 0.022667298 0.07195119
0.013559149 0.070661984 0.01543994 0.016866785 0.08876238 0.07558607 0.018087756 0.060269803
0.027945839 0.0064798165 0.019459808 0.06992457 0.06315586 0.02323843 0.015621278 0.1132932
0.017204741 0.016137123 0.06542922 0.070495225 0.069060296 0.010800619 0.017175397 0.027368177
0.056406215 0.023562776 0.007649629 0.08095543 0.021708932 0.011587606 0.08008523 0.06763843
0.055781405 0.080396324 0.068401136 0.08897152 0.097164266 0.08451318 0.027701113 0.06547277
0.022777675 0.072513096 0.013522251 0.0786121
