results/Smoothed_MINE_dim25_reg1_alpha0.001.pt (torch, 407533 bytes, 13 tensors)

fc.0.weight f4 [100, 50]
0	0x3a32ba22	0.0006817897
1	0xbb1c6a18	-0.0023866948
2	0xbc003c66	-0.0078269
3	0xbc344010	-0.011001602
4	0x3d640f7e	0.055678837
5	0x3d2414f0	0.04005903
6	0xbd1af9d2	-0.037835903
7	0xbcad273f	-0.021136878
8	0xbc3bab2e	-0.011454387
9	0xbc94a68e	-0.018145826
10	0xbb851544	-0.004061373
11	0xbcb5880f	-0.022159604
12	0x3d0dfbe2	0.034664042
13	0x3c06f04c	0.008236002
14	0xbd3ba070	-0.045807302
15	0x3cab24b8	0.020891532
16	0x3c91a92a	0.017780859
17	0x3cba94da	0.022776056
18	0x3d11f3eb	0.03563301
19	0xbd42e161	-0.04757822
20	0x3d730ba8	0.05933729
21	0xbd476674	-0.04868169
22	0x3cc891e6	0.024483632
23	0xbcb38b52	-0.021917019
24	0x3cda0a54	0.026616253
25	0xbb17d1eb	-0.0023165892
26	0x3d30f438	0.043201655
27	0x3d01d561	0.031697635
28	0xbcd488e6	-0.025944185
29	0xbcd1b75d	-0.02560013
30	0xbd0412e4	-0.032244578
31	0x3d682f74	0.05668588
32	0x3d084ca4	0.033276215
33	0x3cc46ab0	0.023976654
34	0xbc204f6a	-0.009784559
35	0x3b1d81fa	0.002403377
36	0x3b106670	0.0022033714
37	0xbcdfa10e	-0.027298477
38	0xbbc419fd	-0.0059845434
39	0x3d6a834d	0.057254124
40	0xbd12c4be	-0.03583216
41	0xbd059c51	-0.032619778
42	0xbc29bfaf	-0.010360642
43	0xbcc5a529	-0.024126606
44	0x3cc33869	0.02383061
45	0xbcbb7e8c	-0.02288749
46	0x3d7eb328	0.062182575
47	0x3b9550ab	0.0045567355
48	0x3c799832	0.01523404
49	0xbc349f60	-0.011024326
50	0xbaa20e28	-0.0012363838
51	0xbd1e711a	-0.03868208
52	0x3d9b80a0	0.07592893
53	0xbd4499d6	-0.047998272
54	0xbb0848a7	-0.0020795257
55	0xbb898625	-0.0041968995
56	0x3d5db402	0.054126747
57	0xbd7a158e	-0.061055712
58	0x3bff490f	0.0077906917
59	0xbc5f4982	-0.0136283655
60	0x3d31c468	0.0434002
61	0x3bf11561	0.007357285
62	0xbcbb8518	-0.022890612
63	0xbca50f21	-0.020148816
64	0x3dd3f36c	0.103491634
65	0xbc07939f	-0.008274942
66	0xbbe16780	-0.0068787932
67	0xbd4a862b	-0.04944436
68	0x3cf534eb	0.02993246
69	0x3d58f32a	0.052966274
70	0x3d074763	0.033027064
71	0x3a06b51c	0.0005138682
72	0xbc3f4180	-0.011673331
73	0x3d05229f	0.03250372
74	0xbd11e077	-0.035614457
75	0xbd0ca44d	-0.034336377
76	0xbd887c63	-0.0666435
77	0x3d623d6a	0.05523435
78	0xbd8dfc1a	-0.0693285
79	0x3c93a0c5	0.018020997
80	0xbcad377b	-0.02114462
81	0x3d38ba1b	0.04509936
82	0xbd3442ab	-0.044008892
83	0x3c8aad5f	0.016928373
84	0xbc5fe373	-0.013665068
85	0x3d5848c6	0.052803777
86	0xbc85a00b	-0.016311666
87	0xbd112353	-0.03543408
88	0xbc77fccf	-0.015135958
89	0x3ddcc8b6	0.1078047
90	0xbcaf7242	-0.021416787
91	0x3b3f0e53	0.0029152825
92	0xbd5f8a94	-0.054575518
93	0x3d29c341	0.041445974
94	0x3cbf7874	0.023372866
95	0x3d4a2e61	0.049360637
96	0x3b948c31	0.0045333137
97	0xbc3f2888	-0.011667378
98	0x3c9d7cec	0.019224606
99	0xbbe2cb9e	-0.0069212457
100	0xbc555034	-0.01301961
101	0x3a585d2c	0.000825363
102	0xbc2594f7	-0.010106317
103	0xbb41dfa1	-0.0029582756
104	0x3c110f94	0.008853812
105	0x3c92e554	0.017931618
106	0x3c1f21c6	0.009712642
107	0xbb57db88	-0.0032937247
108	0x3a415364	0.0007374792
109	0x3c88fd85	0.01672245
110	0x3ce2294e	0.027607586
111	0xbbdd1f64	-0.006748127
112	0x3b15fd90	0.002288673
113	0x3c81f1ef	0.015862433
114	0xbbfa1bf0	-0.007632725
115	0xbaf9747f	-0.0019031911
116	0xbc87d327	-0.016580177
117	0x3ce72c3a	0.028219331
118	0x3a39740f	0.0007074484
119	0xbc868a2c	-0.016423307
120	0xbac68d00	-0.0015148222
121	0x3c8f0234	0.017457105
122	0x3ba3fd20	0.00500454
123	0xba7ec039	-0.00097179745
124	0x3d0610b3	0.03273077
125	0x3b9ec2ff	0.0048450227
126	0x3c889235	0.01667128
127	0x3ba89853	0.0051451116
128	0xbbf0244e	-0.0073285466
129	0x3bdbf620	0.00671269
130	0xbc56ea91	-0.013117448
131	0x3ba1f384	0.0049423594
132	0x3be02e39	0.0068414477
133	0xbc1ab043	-0.009441438
134	0xbc685ede	-0.014182774
135	0x3b8c4818	0.004281055
136	0x3c054cad	0.008135957
137	0x3bbbf579	0.0057360497
138	0xbc07d125	-0.00828961
139	0x3c7c5e38	0.015403323
140	0xbca0e488	-0.019640222
141	0xbb5b9a2e	-0.0033508646
142	0xbc2a09c2	-0.010378303
143	0xbba97aab	-0.005172094
144	0xbbaded55	-0.005307833
145	0x3c90402e	0.017608728
146	0xbc297ac0	-0.010344207
147	0xbb0467f9	-0.0020203574
148	0xbbe70087	-0.0070496234
149	0xbbd25677	-0.006418999
150	0x3a4af2e2	0.0007741881
151	0x3c0f9245	0.008762901
152	0x3b6dc22c	0.0036279066
153	0xbd583396	-0.05278357
154	0x3cb1fd4f	0.021727232
155	0x3d5635aa	0.05229727
156	0x3cb3c234	0.02194319
157	0xbca5b7d6	-0.020229261
158	0x3d599cb0	0.053127944
159	0xbcae1766	-0.021251392
160	0xbbe4f187	-0.0069868
161	0xbc06e6a9	-0.008233705
162	0x3cf5abcf	0.029989151
163	0x3d820845	0.063492335
164	0xbcf18e68	-0.02948685
165	0x3d2ce0ec	0.04220669
166	0xbd9e8498	-0.07740134
167	0x3d9f01ed	0.07764039
168	0xbc8b71ee	-0.0170221
169	0xbd5e944b	-0.054340642
170	0x3d6e7e62	0.058225997
171	0x3cd281e8	0.02569671
172	0xbcc7dbb3	-0.024396753
173	0xbcd5547a	-0.026041258
174	0xbd58c2b0	-0.052920043
175	0xbcc7c63b	-0.024386516
176	0x3cd85cf2	0.026411507
177	0xbca7fa07	-0.020504965
178	0xbd2030aa	-0.03910891
179	0x3c541e24	0.012946639
180	0x3d604ffc	0.05476378
181	0x3d48d5b3	0.049031924
182	0xbcd0d5d9	-0.025492596
183	0x3d4b4743	0.049628507
184	0xbc55b253	-0.013043004
185	0xbc5a14e8	-0.0133106485
186	0xbb9328c6	-0.0044909446
187	0x3cf5711c	0.029961161
188	0x3d1d6910	0.038430274
189	0xbd6261cb	-0.055269044
190	0x3cfd1c93	0.030897414
191	0xbd959180	-0.073031425
192	0x3ddb3795	0.10703961
193	0xbcd1839f	-0.025575457
194	0xbc85daba	-0.016339649
195	0x3d479f51	0.04873592
196	0x3c85ac67	0.01631756
197	0xbcc4bdfb	-0.024016371
198	0xbc64ffdf	-0.01397702
199	0xbd22a3d2	-0.039707012
200	0xba3941ec	-0.0007067013
201	0x3aba2ebb	0.0014204601
202	0xbd25e571	-0.040502016
203	0xbdb0ab33	-0.08626404
204	0xbcd49aa8	-0.025952652
205	0x3bd7a116	0.0065804822
206	0x3c0f103d	0.008731899
207	0x3be3acda	0.0069480957
208	0xbd750813	-0.059822153
209	0xbc34a985	-0.011026745
210	0xbd572c5c	-0.05253254
211	0xbc34cd43	-0.011035266
212	0xbb59a4bb	-0.003320976
213	0x3c050f35	0.008121301
214	0xbcdb777f	-0.026790379
215	0x3d16c1d6	0.03680595
216	0x397fef28	0.00024407788
217	0x3d37a0e4	0.04483117
218	0xb93d542f	-0.00018055805
219	0xbcc105b5	-0.023562292
220	0x3d561a81	0.05227137
221	0xbc5972f2	-0.013272034
222	0xbc6705ed	-0.014100534
223	0xbdaaf9c4	-0.0834842
224	0x3b7c1d32	0.003846955
225	0xbc7b337f	-0.015332102
226	0x3bfef68c	0.0077808555
227	0xbd5e1ca5	-0.054226536
228	0xbdc74e79	-0.09731764
229	0xbd061ba2	-0.032741196
230	0x3c62de3e	0.013846932
231	0x3ca86612	0.020556483
232	0xbad82d89	-0.0016493063
233	0xbd885a38	-0.06657833
234	0xbbbd2614	-0.0057723615
235	0xbd3e275b	-0.04642425
236	0xbc3f4643	-0.011674467
237	0xbc84baed	-0.016202414
238	0x3a7f94e5	0.0009749665
239	0xbd409465	-0.04701652
240	0x3c4c96f1	0.012487159
241	0x3c962384	0.018327482
242	0x3d1547bc	0.036445364
243	0xbc16c9da	-0.009203399
244	0xbcf84f41	-0.030311229
245	0x3d618e4a	0.055067338
246	0xbcb90b81	-0.022588493
247	0xbb1e30c1	-0.0024137946
248	0xbd82d38e	-0.06388007
249	0x3c5c9e76	0.013465514
250	0x3caa8935	0.020817379
251	0x3c8f2815	0.017475167
252	0xbd9e7e88	-0.07738978
253	0xbb9498f3	-0.0045348345
254	0xbcb425a8	-0.021990612
255	0xbc19382d	-0.009351772

fc.0.bias f4 [100]
0	0xbc475df8	-0.0121684
1	0xbd0b2e31	-0.0339796
2	0xbc42a8c1	-0.011881054
3	0xbd2a0430	-0.0415079
4	0xbd359c41	-0.04433847
5	0xbcd59f8f	-0.02607706
6	0xbd2b740d	-0.04185872
7	0x3bb06f7e	0.0053843847
8	0xbc6ee29b	-0.014580394
9	0xbcf459f1	-0.029828044
10	0xbc99c648	-0.018771306
11	0xbd125a89	-0.035730872
12	0x3c05cbba	0.008166248
13	0xbd0db585	-0.03459694
14	0xbd10847f	-0.035282608
15	0xbce046df	-0.027377544
16	0xbd2fe57e	-0.04294347
17	0xbd30f978	-0.043206662
18	0xbcd25a7a	-0.025677908
19	0xbd2fb51d	-0.042897332
20	0xbc262a1f	-0.010141878
21	0xbd2b2d55	-0.04179128
22	0xbd27df56	-0.040984474
23	0xbd2fe0da	-0.042939045
24	0xbd325a78	-0.04354331
25	0xbd34f768	-0.044181257
26	0xbcd2c457	-0.025728388
27	0xbcebdaa3	-0.028790778
28	0x3a8759da	0.001032646
29	0xbd0da2fb	-0.03457926
30	0xbcc984e4	-0.0245995
31	0xbd200d96	-0.039075457
32	0xbd11d713	-0.0356055
33	0xbcc28272	-0.023743842
34	0xbd2b55e9	-0.041829977
35	0xbd1a3fa0	-0.037658334
36	0xbd227293	-0.039660048
37	0xbd1a7d27	-0.03771701
38	0xbd16d7ec	-0.036827013
39	0xbc89db72	-0.016828272
40	0x3a1b3611	0.0005920837
41	0xbc9b25c2	-0.018938903
42	0xbd226cc7	-0.03965452
43	0xbcd37147	-0.02581085
44	0xbb72276d	-0.003694977
45	0xbce5a455	-0.028032461
46	0xbd8e2620	-0.069408655
47	0xbcb40deb	-0.021979293
48	0xbbc3aaa2	-0.0059712688
49	0xbd5ba417	-0.053623285
50	0x3be94f0a	0.007120018
51	0xbd2977e8	-0.041374117
52	0xbd142e92	-0.036177225
53	0xbd293baa	-0.041316666
54	0xbd100d8a	-0.03516916
55	0x3c3ab559	0.011395776
56	0xbd361492	-0.04445321
57	0x3c4583a4	0.012055311
58	0xbd299a06	-0.041406654
59	0xbcac4184	-0.021027334
60	0xbd357d0d	-0.04430871
61	0x3bcaccdb	0.0061889715
62	0xbd303e29	-0.04302803
63	0x3c0754e2	0.008259984
64	0xbcf199f4	-0.029492356
65	0x3a02d7bb	0.0004991253
66	0xbd2969ec	-0.04136078
67	0xbd1f30aa	-0.03886477
68	0xbd29f4f9	-0.04149339
69	0xbd0c4b51	-0.034251515
70	0xbd26c046	-0.04071071
71	0xbc10d452	-0.008839684
72	0xbbe48cf0	-0.006974809
73	0xbc84b48c	-0.016199373
74	0xbd294f2b	-0.041335266
75	0x3c91f9ef	0.017819373
76	0xbc91b990	-0.017788678
77	0xbcd917f3	-0.026500678
78	0xbd1d6674	-0.038427785
79	0xbd26ff4e	-0.04077082
80	0xbd21e4d8	-0.039524883
81	0xbcfcfd03	-0.030882364
82	0xbd81516f	-0.0631436
83	0xbccc706b	-0.024955949
84	0xbd289862	-0.04116095
85	0xbcb51293	-0.022103583
86	0xbd230afd	-0.0398054
87	0xbd132595	-0.035924513
88	0xbd011cd6	-0.03152164
89	0xbd05ec79	-0.03269622
90	0xbb3f598b	-0.002919766
91	0xbd03b974	-0.032159284
92	0xbcc0d584	-0.023539312
93	0xbc671251	-0.014103488
94	0xbd1fafa0	-0.03898585
95	0xbca87ef5	-0.02056835
96	0xbccb3b1d	-0.02480846
97	0xbcf2dfab	-0.029647669
98	0xbc8b7fe6	-0.01702876
99	0xbd88b1f5	-0.066745676

fc.1.weight f4 [100, 100]
0	0xbcb0f28c	-0.02160003
1	0x3cfb6701	0.030688765
2	0x3b551c0b	0.0032517936
3	0x3bf61b7e	0.0075106015
4	0x3c68d17c	0.014210101
5	0xbda4ac01	-0.0804062
6	0xbc64cd20	-0.013964921
7	0xbc9a76ee	-0.018855538
8	0x3c508e2a	0.012729207
9	0xbdbfae2b	-0.09359392
10	0xbdf27ab9	-0.11839814
11	0x3c3a3c21	0.011366875
12	0xbb1d3ea0	-0.0023993626
13	0x3cd44b00	0.025914669
14	0xbd32e3cf	-0.043674286
15	0xbd9162a9	-0.07098896
16	0xbbe83711	-0.0070866426
17	0x3d30f6ad	0.043204
18	0xbdabe4e4	-0.08393267
19	0xbc8211cb	-0.015877625
20	0x3cb25343	0.021768218
21	0x3d455c98	0.048184007
22	0x3c3cafac	0.011516493
23	0x3c05c43c	0.008164462
24	0x3d2616ac	0.040548965
25	0x3a7c2238	0.0009618136
26	0xbde49cba	-0.11162706
27	0xbd80da05	-0.06291584
28	0xbaaa84ba	-0.0013009526
29	0xbcafe8d1	-0.02147332
30	0x3d095799	0.033530805
31	0x3d1e8228	0.038698345
32	0x3c7ce3e9	0.015435197
33	0xbde47e7c	-0.111569375
34	0x3d0ff73e	0.035147898
35	0x3cb0bf29	0.021575527
36	0xbc84112e	-0.016121473
37	0xbc22256f	-0.00989662
38	0x3cefa7ea	0.029254872
39	0xbc124661	-0.008927912
40	0x3d78e626	0.06076636
41	0xbdeaada9	-0.11458904
42	0xbc77424e	-0.015091492
43	0xbd4cd1e6	-0.050004862
44	0xbad182d4	-0.0015984424
45	0xbdc6ec36	-0.097130224
46	0x3c94df20	0.0181728
47	0xbda1f924	-0.07908848
48	0x3c3dde04	0.011588577
49	0x3c9572ae	0.01824316
50	0x3b3d4f2c	0.0028886301
51	0x3d11be55	0.035581905
52	0x3d18ccce	0.037304692
53	0x3d2aea34	0.04172726
54	0x3bd2a237	0.006428029
55	0xbc504ba5	-0.012713348
56	0xbbd7c61a	-0.006584895
57	0x3a8247bf	0.0009939595
58	0x3cb49b49	0.022046702
59	0xbd9fcadd	-0.07802365
60	0x3d45d87e	0.048302166
61	0xbc5e5b05	-0.013571505
62	0x3d09a80f	0.03360754
63	0x3c31504f	0.01082237
64	0xbd845bd0	-0.06462824
65	0x3ca53632	0.020167444
66	0x3c31d249	0.010853359
67	0x3c586326	0.013207233
68	0x3a0ab7f3	0.0005291693
69	0xbb0f6d53	-0.002188523
70	0xbc039128	-0.008030213
71	0xbbd90668	-0.006623078
72	0x3c5754b7	0.013142756
73	0xbc192910	-0.009348169
74	0xbb8ba789	-0.004261915
75	0x3b397b45	0.0028302234
76	0xbc4ffe30	-0.01269488
77	0xbdc3ac97	-0.09554403
78	0xbc7cdc1c	-0.015433338
79	0x3cbf82bb	0.023377767
80	0x3d2e5650	0.042562783
81	0xbd3f8f38	-0.046767443
82	0x3d2ed1ec	0.042680666
83	0xbcce9d4c	-0.02522149
84	0x3c3942d2	0.011307435
85	0xbdbd7da6	-0.09252481
86	0x3d092579	0.033483002
87	0x3cf4be75	0.029875973
88	0xbda246b1	-0.079236396
89	0x3be5076b	0.0069894097
90	0xbaba0821	-0.0014193096
91	0xbde36b40	-0.11104441
92	0xbda33fac	-0.07971129
93	0xbd150845	-0.03638484
94	0x3c64f375	0.01397406
95	0xbd92c729	-0.07166893
96	0xbd64fc53	-0.055904698
97	0xbdd8a0e6	-0.10577564
98	0x3b256763	0.0025238625
99	0x3bc66f71	0.0060557653
100	0x3bd0d790	0.0063733533
101	0xbb11d07d	-0.0022249513
102	0xbc4ef866	-0.012632465
103	0x3cf0694e	0.029347088
104	0x3c8bf94f	0.017086653
105	0xbe055ff7	-0.13024889
106	0x3cca4d32	0.024695013
107	0xbbefa7d2	-0.007313707
108	0x3d061a4b	0.03273992
109	0xbdb29eab	-0.0872167
110	0xbde27f42	-0.11059429
111	0x3c861e39	0.016371833
112	0xbc946204	-0.018113144
113	0x3d196062	0.037445433
114	0xbcd8290f	-0.026386766
115	0xbdafb2fa	-0.08579059
116	0x3cd073c0	0.025445819
117	0xbcb8fa67	-0.022580339
118	0xbdaf83a0	-0.08570027
119	0xba9e65c4	-0.0012084772
120	0x3ce9a20a	0.028519649
121	0xbb8cb332	-0.0042938227
122	0x3cb864a4	0.022508927
123	0x3c9c7da1	0.019102873
124	0x3ca96aab	0.020680746
125	0xbc2b8da5	-0.010470782
126	0xbe02492b	-0.12723224
127	0xbd5a5f65	-0.05331363
128	0x3c082fc3	0.0083121685
129	0xbcb994ea	-0.022654016
130	0xbc030f26	-0.007999217
131	0x3ce95e59	0.028487371
132	0xbb8666fe	-0.004101633
133	0xbdb03d6a	-0.08605464
134	0x3cc4a7e3	0.024005836
135	0x3cf153af	0.029458849
136	0x3c760872	0.015016662
137	0x3c573114	0.01313426
138	0xbd0c8626	-0.03430762
139	0xbaebda57	-0.0017994147
140	0x3cdc2abe	0.02687585
141	0xbded33c7	-0.11582141
142	0x3d050546	0.032475732
143	0xbd6d2d25	-0.05790438
144	0x3c362f3b	0.011119659
145	0xbdb9b2e7	-0.09067326
146	0x3d0b7202	0.034044273
147	0xbdd8efcc	-0.105926126
148	0x3d1fad53	0.038983654
149	0xbc14d4b3	-0.009083915
150	0xbd1d05fd	-0.03833579
151	0x3d12c902	0.035836227
152	0xbb8944cc	-0.0041891094
153	0x3b0234a4	0.0019867802
154	0xbbd2fa20	-0.0064385086
155	0xbcaa5f96	-0.020797532
156	0x3bc5e40a	0.0060391473
157	0x3c5abfd3	0.0133513985
158	0xbb4492f5	-0.002999482
159	0xbd97b824	-0.07408169
160	0x3d5b043a	0.053470828
161	0xbcbbead0	-0.022939116
162	0x3c89e4e8	0.016832784
163	0x3cc477d7	0.023982925
164	0xbd5830c9	-0.0527809
165	0x3c2b98af	0.010473414
166	0xbc8c3e3e	-0.017119523
167	0x3d1275cd	0.035756875
168	0x3c78be3a	0.015182072
169	0xbb632601	-0.0034660103
170	0xbd00ac2e	-0.031414203
171	0x3b5ccf9f	0.0033693088
172	0xbc85b6cb	-0.016322514
173	0xbbb8e938	-0.005643036
174	0xbc26fbb2	-0.010191845
175	0x3b3aa467	0.002847934
176	0xbc9ba6e1	-0.019000473
177	0xbdc3e87c	-0.09565827
178	0x3cc3f8ad	0.023922289
179	0xbc0119e9	-0.007879713
180	0x3d3b0136	0.04565545
181	0xbd72d224	-0.059282437
182	0xbb9cd459	-0.004786056
183	0xbc5c0ff5	-0.013431539
184	0x3b9ae055	0.0047264495
185	0xbdf93793	-0.12168803
186	0x3a9260dd	0.0011167784
187	0x3d2a1318	0.041522115
188	0xbdd2dd59	-0.10296125
189	0xbae96509	-0.00178066
190	0xbd023910	-0.0317927
191	0xbd9526cd	-0.07282791
192	0xbdad6acb	-0.08467635
193	0xbcf33d25	-0.029692242
194	0x3c6ac6af	0.014329596
195	0xbdaf4c10	-0.0855943
196	0xbd95ac0f	-0.07308208
197	0xbde62e5e	-0.112393126
198	0x3bed3114	0.0072385166
199	0xbcda6fa7	-0.026664568
200	0xbba1ceef	-0.0049379985
201	0xbc3c0a1b	-0.011477019
202	0xbd0fa69a	-0.035070993
203	0x3b154fe1	0.0022783207
204	0xbbd49e84	-0.006488623
205	0xbdd2b3b9	-0.102881856
206	0x3aeea961	0.0018208438
207	0xbc22bc60	-0.009932607
208	0x3c0e7f5a	0.008697355
209	0xbdd54f60	-0.1041553
210	0xbd9292c7	-0.07156902
211	0xbb94020e	-0.0045168465
212	0x3b381914	0.002809112
213	0xbb9c0991	-0.0047618826
214	0x3cbd215d	0.023087198
215	0xbd6ed44e	-0.05830794
216	0x3c1eeaca	0.009699533
217	0x3b4ca425	0.0031225767
218	0xbd681502	-0.05666066
219	0xbb016525	-0.0019744125
220	0x3cf36f74	0.02971623
221	0x3ca49e92	0.020095143
222	0x3c5ea06d	0.013588053
223	0x3d51b480	0.05119753
224	0x3cb202b4	0.021729805
225	0x3c237b43	0.009978118
226	0xbdf4679b	-0.11933824
227	0xbd69f31f	-0.057116624
228	0x3c7a1093	0.015262741
229	0x3ca637cf	0.020290283
230	0x3c70c21e	0.014694719
231	0x3ca7784e	0.020443108
232	0x3c98f768	0.01867266
233	0xbdc11da4	-0.094294816
234	0x3cf78565	0.030214975
235	0x3d37d2f3	0.04487891
236	0x3c87f40c	0.016595863
237	0x3c024083	0.007949951
238	0x3c8d784c	0.017269276
239	0x3b9cfb8e	0.00479073
240	0xbc42eca5	-0.011897241
241	0xbdb1fdd3	-0.08690991
242	0x3d5a2127	0.053254273
243	0xbd540e1a	-0.05177126
244	0x3b0fecc1	0.0021961185
245	0xbddaa930	-0.10676801
246	0x3cd6f001	0.02623749
247	0xbdbd158a	-0.09232624
248	0x3d004a5b	0.03132091
249	0xbbb8d305	-0.00564039
250	0xbd35a6f2	-0.044348665
251	0x3cf7b7e9	0.030239062
252	0x3d0a8a98	0.03382358
253	0x3b212840	0.0024590641
254	0x3cd1eb03	0.025624758
255	0x3caedccf	0.021345524

fc.1.bias f4 [100]
0	0xbce53810	-0.027980834
1	0xbcbc2888	-0.022968546
2	0xbcd1f7d5	-0.02563087
3	0xbcc209c3	-0.023686295
4	0xbcd781bc	-0.02630698
5	0x3c92fde5	0.017943332
6	0xbccfdf8c	-0.02537515
7	0xbcd6e8c5	-0.02623404
8	0x3c9b8bb2	0.01898751
9	0x3b5ff95c	0.003417573
10	0xbcecb5df	-0.028895317
11	0x3c842dc6	0.016135108
12	0xbcd5a19b	-0.026078036
13	0xbccfa976	-0.02534936
14	0x3c98e86d	0.018665517
15	0x3c9368f7	0.017994387
16	0x3c9c664c	0.019091748
17	0x3c90991e	0.017651137
18	0x3c88ddfb	0.016707411
19	0x3ca20950	0.019779831
20	0x3cf39de6	0.029738378
21	0xbcccae01	-0.024985315
22	0xbccb2528	-0.02479799
23	0x3c87d651	0.016581686
24	0x3c8a3283	0.016869789
25	0xbcdc7e74	-0.026915766
26	0xbcc72a62	-0.024312202
27	0x3c988cde	0.018621858
28	0xbcd988b4	-0.026554443
29	0x3caa3bdb	0.020780494
30	0xbce77d23	-0.028257912
31	0x3ca4eab5	0.020131448
32	0xbcc66d19	-0.024221944
33	0xbcc15e28	-0.023604468
34	0x3cbe5eea	0.023238618
35	0xbcc9ed51	-0.024649294
36	0x3cb9d2c0	0.022683501
37	0xbcdc7ff0	-0.026916474
38	0xbcc5d634	-0.024149992
39	0xbcca1d1d	-0.024672085
40	0x3c999b00	0.018750668
41	0x3c95178b	0.018199703
42	0x3c9578a7	0.018246008
43	0x3ca739f4	0.020413376
44	0xbcd68ae2	-0.026189271
45	0x3c700a5c	0.014650907
46	0xbcd16466	-0.025560569
47	0xbd089b44	-0.033351198
48	0xbcd8fc89	-0.026487606
49	0xbccc5e1f	-0.024947224
50	0xbcd63afb	-0.026151171
51	0xbcbf2801	-0.023334505
52	0x3c91662b	0.017748913
53	0x3c8530ad	0.016258562
54	0xbcc7a634	-0.024371244
55	0xbcc79552	-0.024363194
56	0x3cad4758	0.021152183
57	0x3ca17ab2	0.019711826
58	0xbcd0b2a8	-0.025475815
59	0xbcdfbae8	-0.027310804
60	0x3c9edab9	0.019391404
61	0x3cb77312	0.022393737
62	0xbcd2dc30	-0.02573976
63	0x3c8056e2	0.015666429
64	0xbcc429d3	-0.023945725
65	0xbce0cda5	-0.027441809
66	0x3c9f993c	0.019482248
67	0xbcccd42a	-0.025003511
68	0x3cc0826d	0.023499692
69	0xbcc8fc2d	-0.02453431
70	0x3ca42255	0.020035902
71	0xbcc9fe1b	-0.0246573
72	0xbcc18f0a	-0.023627777
73	0xbcd54af9	-0.026036726
74	0x3cd2c42b	0.025728306
75	0x3ca8ffb3	0.02062974
76	0x3c9f38d1	0.019436272
77	0x3cb0160f	0.021494893
78	0xbcbfe72b	-0.02342566
79	0xbcc8da15	-0.024518052
80	0xbccdd407	-0.025125517
81	0x3cacda32	0.021100137
82	0xbcdb7303	-0.02678824
83	0x3d948177	0.07251256
84	0xbccf2972	-0.025288317
85	0x3cacc23d	0.021088714
86	0xbce9c6d0	-0.028537184
87	0xbce4c7e2	-0.027927343
88	0x3c86b624	0.016444273
89	0x3cd501c4	0.026001818
90	0xbcad13ae	-0.021127548
91	0x3ca7f334	0.02050171
92	0xbcd663a3	-0.026170557
93	0x3c99ee4a	0.018790383
94	0xbccce236	-0.02501021
95	0x3cc5b2cc	0.024133109
96	0x3cb15d3e	0.021650907
97	0x3cb5db6f	0.02219936
98	0x3c9804ee	0.018557038
99	0x3ca1d650	0.019755512

fc.2.weight f4 [100, 100]
0	0xbc5318e3	-0.012884351
1	0xbd633ca8	-0.05547777
2	0xbbcf1330	-0.006319426
3	0xbd7db815	-0.061943132
4	0x3b3d0f51	0.002884824
5	0x3d166619	0.03671846
6	0xba9bbd3c	-0.0011881958
7	0xbd8602cd	-0.06543503
8	0x3d48f44f	0.049061116
9	0xbd712017	-0.058868494
10	0xbcde13d7	-0.02710907
11	0x3dd664e3	0.10468461
12	0xbd46c56b	-0.048528116
13	0xbd4eaf9c	-0.050460443
14	0x3db28c45	0.087181605
15	0x3dfedbe3	0.12444284
16	0x3d10edb6	0.03538295
17	0x3e0794c6	0.13240346
18	0x3df98511	0.121835835
19	0x3dc1305a	0.094330505
20	0xbd5dc4f7	-0.05414292
21	0xbd91f669	-0.07127077
22	0xbd4156fc	-0.047202095
23	0x3cc5ec71	0.024160596
24	0x3d8b220e	0.06793605
25	0xbd9eb93c	-0.077501744
26	0xbdb1648f	-0.08661758
27	0xbadf3a01	-0.0017030836
28	0xbc8f226f	-0.017472474
29	0xbc321ab4	-0.010870624
30	0xbd170ba0	-0.03687632
31	0x3dc83c58	0.09777135
32	0xbd98450c	-0.07435045
33	0xbdaee453	-0.08539643
34	0x3d5aaf4f	0.053389844
35	0xbd13d35d	-0.036090244
36	0x3dfd3ec2	0.12365486
37	0xbd395e50	-0.04525596
38	0xbd83c11f	-0.06433319
39	0xbdcae6c9	-0.099073
40	0x3c88498f	0.016636638
41	0x3decbbcb	0.11559256
42	0x3dd394f8	0.10331148
43	0x3daf618c	0.085635275
44	0xbdf0365d	-0.11729119
45	0x3d830121	0.063967
46	0xbd44f714	-0.048087195
47	0xbcffc75f	-0.031222997
48	0xbd7b70d6	-0.061386906
49	0xbd9519f0	-0.07280338
50	0xbc80660c	-0.01567366
51	0xbc8990a1	-0.016792597
52	0x3d272247	0.040804174
53	0x3dc6051d	0.09668944
54	0xbd1b1fb9	-0.03787205
55	0xbd762094	-0.060089663
56	0x3d86b47c	0.065773934
57	0x3dc80924	0.097673684
58	0xbd249b7a	-0.040187337
59	0xbda66dab	-0.08126386
60	0x3db7c936	0.08973925
61	0x3d6fec7c	0.05857514
62	0xbcfc071a	-0.030765105
63	0x3dd1faf0	0.10252941
64	0xbda68d60	-0.08132434
65	0xbd8351cc	-0.06412086
66	0x3d522c2c	0.051311657
67	0xbd4e599e	-0.050378434
68	0x3d655139	0.055985663
69	0xbd51988f	-0.05117088
70	0x3e01189d	0.12607045
71	0xbd0b96c2	-0.03407932
72	0xbdf5ac37	-0.11995738
73	0xbdb55e05	-0.088558234
74	0x3c0ac25a	0.008469189
75	0x3c07273c	0.0082491
76	0x3d8eb8f4	0.06968871
77	0x3dabc18c	0.083865255
78	0xbda5284b	-0.08064326
79	0xbdd7b3d5	-0.10532347
80	0x3d03f27e	0.03221368
81	0x3d90742e	0.070534095
82	0xbc192fd4	-0.009349782
83	0x3d5c0ed8	0.053725094
84	0xbd99b672	-0.07505502
85	0x3df64ed5	0.12026755
86	0xbda63162	-0.08114888
87	0xbd8166fc	-0.06318471
88	0x3dab3268	0.083592236
89	0x3d58387d	0.052788246
90	0xbd5ac0b7	-0.053406443
91	0x3dc241e9	0.094852276
92	0xbd529a3e	-0.051416628
93	0x3d2e488f	0.042549666
94	0xbd775281	-0.060381416
95	0x3a31e7b9	0.00067865435
96	0x3d809795	0.06278912
97	0x3dfa91af	0.12234818
98	0x3da08c47	0.07839256
99	0xbbea45c7	-0.0071494314
100	0x3c66735a	0.014065588
101	0x3db04f29	0.086088486
102	0xbc9635a5	-0.018336127
103	0x3dd126b7	0.102124624
104	0x3c9d493f	0.019199966
105	0xbdc414a6	-0.09574251
106	0x3d1bcac5	0.038035173
107	0x3cc9a539	0.024614917
108	0xbd7e618a	-0.06210474
109	0xbb0d19ca	-0.0021530264
110	0x3cc66732	0.02421913
111	0xbdf3549d	-0.11881373
112	0x3d7c43d4	0.061588123
113	0x3d220799	0.039558027
114	0xbe083db1	-0.13304783
115	0xbdf42ee0	-0.11923003
116	0xbd2c8ead	-0.042128254
117	0xbd8442c5	-0.06458048
118	0xbddb1f72	-0.10699357
119	0xbda1ab81	-0.0789404
120	0xbcb527d2	-0.022113714
121	0x3d3872e5	0.045031447
122	0x3d392638	0.045202464
123	0xbd2f3d1b	-0.042782884
124	0xbdb90004	-0.09033206
125	0xbbb6623c	-0.0055659097
126	0x3d4b77d2	0.049674816
127	0xbd3ca7d1	-0.04605848
128	0x3b838a60	0.0040142983
129	0x3cbdc949	0.02316727
130	0x3c0000da	0.007812703
131	0xbddf7166	-0.10910301
132	0x3d5266c3	0.051367532
133	0x3d7e025c	0.06201397
134	0xbd7a6658	-0.06113276
135	0x3d395502	0.045247085
136	0xbd69e56f	-0.05710357
137	0x3cdde24d	0.027085448
138	0x3d125c76	0.03573271
139	0x3da13d3e	0.07873009
140	0xbdd3e65c	-0.10346672
141	0xbd715864	-0.058922186
142	0xbddbd64b	-0.107342325
143	0xbda6ec77	-0.08150571
144	0x3dbac276	0.09119122
145	0xbda20a71	-0.07912148
146	0x3dab929e	0.083775744
147	0xbc03882e	-0.008028073
148	0x3d5448c0	0.051827192
149	0x3d2ef0ab	0.042709988
150	0x3cd86080	0.026413202
151	0x3d9ac645	0.07557348
152	0xbd09f75e	-0.033683173
153	0xbddfc2c8	-0.109258235
154	0x3ceedcb7	0.02915798
155	0x3d808f2a	0.062773064
156	0xbd8274d0	-0.063699365
157	0xbdcb4f98	-0.09927291
158	0x3d80882d	0.062759735
159	0x3c5838e9	0.013197162
160	0xbdf99cf9	-0.12188143
161	0xbde28621	-0.11060739
162	0x3d8becd2	0.06832279
163	0xbd9d2c25	-0.076744355
164	0x3e0cfea2	0.1376901
165	0x3d16bb44	0.036799684
166	0xbdc7d4d6	-0.09757392
167	0x3d9f2f17	0.077726535
168	0xbd1ee36b	-0.0387911
169	0x3d9dae17	0.07699221
170	0xbdd3b305	-0.1033688
171	0x3c1ef45b	0.009701814
172	0x3d56a41a	0.052402593
173	0x3da06fc5	0.07833818
174	0xbd23d86d	-0.04000132
175	0xbd9037d2	-0.07041897
176	0xbdb3bb7d	-0.08775995
177	0xbdbc7c80	-0.09203434
178	0x3d0ca4c2	0.034336813
179	0x3d956baa	0.07295926
180	0x3ccc1c44	0.024915822
181	0xbdc4ae92	-0.09603609
182	0x3cba7e74	0.022765376
183	0x3cb2c01d	0.021820122
184	0x3d8d4870	0.06898582
185	0xbd743de9	-0.059629355
186	0x3d60ff41	0.05493093
187	0x3d4a5b5f	0.049403545
188	0xbdacfba7	-0.084464364
189	0xbb2fec74	-0.0026843818
190	0x3dd64ace	0.104634866
191	0xbdc92b0f	-0.09822666
192	0x3d6d539b	0.05794106
193	0xbd923c93	-0.0714046
194	0x3d3c7a72	0.04601521
195	0xbcbdf771	-0.023189278
196	0xbd715b46	-0.058924936
197	0xbe1da668	-0.1539551
198	0xbe0f1188	-0.13971531
199	0xbd962a1d	-0.07332251
200	0x3d48c361	0.049014453
201	0x3d8b0455	0.06787936
202	0x3ccbabc7	0.024862183
203	0x3dcfd00d	0.101471044
204	0x3cffc9b7	0.031224115
205	0xbd4fed37	-0.050763335
206	0x3d360b7f	0.044444557
207	0x3d6425e4	0.055700198
208	0xbd1e86dc	-0.03870283
209	0x3c082dc4	0.008311693
210	0x3c1fb7b1	0.009748385
211	0xbdef2cd0	-0.11678469
212	0x3ceca523	0.028887337
213	0x3d659249	0.05604771
214	0xbde67fb9	-0.1125483
215	0xbdfbd380	-0.122962
216	0xbdb1968d	-0.086712934
217	0xbcc7dd69	-0.024397569
218	0xbd966cd6	-0.073449776
219	0xbdd7a1ed	-0.10528932
220	0xbc2de130	-0.010612771
221	0x3cfc4f36	0.03079949
222	0x3cc2c14f	0.023773817
223	0xbcff6920	-0.031178057
224	0xbd60e7d8	-0.054908603
225	0x3cd20315	0.025636235
226	0x3d9e79e3	0.07738092
227	0xbd33aacf	-0.043864068
228	0x3d098d44	0.033581987
229	0xbc75b12f	-0.014995857
230	0x3d228afa	0.03968332
231	0xbdd1dc49	-0.10247094
232	0x3d0df62b	0.034658592
233	0x3d7ef987	0.062249687
234	0xbd5128cc	-0.051064298
235	0x3d499afb	0.049220067
236	0xbdebaf22	-0.11508013
237	0xbbe5eb91	-0.007016607
238	0x3d629fe6	0.055328272
239	0x3cd76cdd	0.026297027
240	0xbd824331	-0.06360472
241	0xbd21b6e2	-0.03948105
242	0xbdc71fbd	-0.097228505
243	0xbd8dfed2	-0.06933369
244	0x3d83b55d	0.06431077
245	0xbe1b6168	-0.15173876
246	0x3d1a18aa	0.037621178
247	0x3cd2c762	0.025729839
248	0x3cf0dc6a	0.029401977
249	0x3d6e24f0	0.058140695
250	0x3bdfe76d	0.006833008
251	0x3dc17315	0.09445778
252	0xbd17fea6	-0.037108086
253	0xbdcde4e7	-0.10053425
254	0x3d2c9a00	0.042139053
255	0x3d8423a3	0.0645211

fc.2.bias f4 [100]
0	0x3ce3318d	0.027733589
1	0xbc839dd8	-0.016066477
2	0xbc745d65	-0.014914845
3	0x3c9a09d9	0.018803524
4	0xbbcf6ef4	-0.0063303653
5	0x3c954129	0.018219547
6	0x3ccfd706	0.025371086
7	0x3c956db3	0.018240785
8	0xbcba82ac	-0.022767387
9	0x3c3bad5a	0.011454904
10	0x3c678d8d	0.014132869
11	0x3cd9dda0	0.026594937
12	0x3ca54f42	0.020179395
13	0xbc4a8aef	-0.012362226
14	0x3c8b8307	0.017030252
15	0x3c561bb8	0.013068132
16	0xbc8cb175	-0.017174462
17	0x3caceb91	0.02110842
18	0xbc44ec99	-0.0120193
19	0xbc430ec0	-0.011905372
20	0xbcc15eb6	-0.023604732
21	0xbc935c5e	-0.01798838
22	0xbc7c5dc1	-0.015403212
23	0x3ca80749	0.020511286
24	0xbcacd8dc	-0.0210995
25	0x3c83879e	0.016055878
26	0xbc7c862c	-0.015412848
27	0xbc39a56b	-0.011330943
28	0xbc7243b0	-0.014786646
29	0xbca7da00	-0.020489693
30	0x3c923fdc	0.017852716
31	0xbc759e26	-0.014991319
32	0xbc977e9f	-0.018492995
33	0x3caa286d	0.02077123
34	0x3c91fa09	0.017819421
35	0x3c61de64	0.013785932
36	0x3c1f27db	0.009714092
37	0xbc421309	-0.011845359
38	0xbc67f319	-0.01415708
39	0xbc5337f2	-0.012891756
40	0x3c7c317f	0.01539266
41	0xbc5a0a0c	-0.013308059
42	0xbc412849	-0.01178939
43	0x3ce631a3	0.02809984
44	0xbc98660d	-0.01860335
45	0xbc8c9ee8	-0.017165616
46	0x3c9be361	0.019029321
47	0x3c9e8dba	0.01935469
48	0xbc8e2bd3	-0.017354881
49	0x3c6e897e	0.014559148
50	0xbc74290a	-0.014902363
51	0x3c79529d	0.01521745
52	0xbcbc23e3	-0.02296633
53	0x3cc0e97f	0.02354884
54	0x3c86512d	0.01639613
55	0x3c6b0334	0.014344025
56	0xbc51262f	-0.012765451
57	0x3cbf3f76	0.02334569
58	0x3bd67d3e	0.0065456918
59	0xbc9349f1	-0.017979594
60	0xbc64a32c	-0.013954919
61	0x3c9f05ef	0.019412009
62	0x3c93ec38	0.018056974
63	0xbc9a90fc	-0.018867962
64	0xbc5c3970	-0.013441429
65	0xbc83ba52	-0.016080055
66	0x3c9f08d8	0.019413397
67	0x3c8e4efa	0.017371643
68	0x3c2f7f90	0.010711566
69	0x3cb8ee7a	0.022574652
70	0x3c831c53	0.016004717
71	0x3c92ceee	0.017920937
72	0x3ca48ffc	0.020088188
73	0xbcbea78c	-0.023273252
74	0xbc8cb083	-0.017174011
75	0x3c5eebe7	0.013606048
76	0x3c81ee24	0.015860625
77	0xbc934979	-0.01797937
78	0x3ca889ec	0.020573579
79	0xbc702324	-0.014656816
80	0x3c895273	0.016762948
81	0xbc6dcc51	-0.014514045
82	0x3c916719	0.017749356
83	0x3c6de41c	0.014519718
84	0xbca942c8	-0.020661727
85	0x3c7ff758	0.015622936
86	0x3c586a71	0.013208971
87	0xbccff62e	-0.025385942
88	0x3ca520a1	0.02015716
89	0x3c5db24a	0.013531277
90	0x3ca5f302	0.020257477
91	0xbc54e88a	-0.012994895
92	0x3c923710	0.017848521
93	0x3c956c52	0.018240128
94	0xbc2d3064	-0.010570619
95	0x3c96d771	0.018413277
96	0x3c9539ea	0.018216092
97	0xbc84a3b3	-0.01619134
98	0xbc4072c3	-0.011746111
99	0xbc2f5571	-0.010701523

fc.3.weight f4 [100, 100]
0	0x3cddafdf	0.027061401
1	0x3ddc4ac3	0.10756447
2	0x3ddcf3fe	0.10788725
3	0xbd8e6e99	-0.069546886
4	0x3e6490c7	0.22320853
5	0xbdbcb16b	-0.09213527
6	0xbb185bee	-0.0023248154
7	0xbd972733	-0.073805235
8	0x3c8321c2	0.016007308
9	0xbe18a8fb	-0.14908211
10	0xbe1bc9bf	-0.15213679
11	0x3b995d1b	0.0046802885
12	0xbcb448d5	-0.022007385
13	0x3e0b51cb	0.1360542
14	0xbdfbdf32	-0.122984305
15	0xbe1b74d1	-0.1518128
16	0x3dc26716	0.09492318
17	0xbdb61f9e	-0.08892749
18	0x3e117546	0.14204893
19	0x3e0fd9c0	0.14047909
20	0xbbfb0295	-0.00766022
21	0x3d70a730	0.058753192
22	0x3db3d9a1	0.08781744
23	0xbd92e059	-0.07171697
24	0x3c9837c0	0.018581271
25	0xbde50933	-0.11183395
26	0x3ddcf81e	0.10789512
27	0x3e2a75ed	0.16646548
28	0x3db7126c	0.089390606
29	0x38e8ac74	0.00011094744
30	0xbdde46b9	-0.10853333
31	0x3db0c44f	0.08631193
32	0x3ca3dfc9	0.02000417
33	0xbd856f9b	-0.06515428
34	0xbe07fa46	-0.13279065
35	0xbde87805	-0.11351017
36	0xbe18d5eb	-0.14925353
37	0x3e2e368e	0.17012998
38	0x3e053063	0.1300674
39	0x3e05651f	0.13026856
40	0xbdd5b914	-0.104356915
41	0x3e00525a	0.12531415
42	0x3e2451d7	0.16046844
43	0xbc3a4cc5	-0.011370842
44	0x3db72ee3	0.0894449
45	0x3deb7d5f	0.11498522
46	0xbdaed497	-0.08536642
47	0xbd74c209	-0.05975536
48	0x3d8b0b23	0.067892335
49	0xbe053998	-0.13010252
50	0x3db44d8b	0.08803853
51	0xbe0421f6	-0.1290358
52	0x3d1131be	0.03544783
53	0xbcd7d655	-0.026347319
54	0xbdf44c5c	-0.11928627
55	0xbdbfae1e	-0.09359382
56	0x3e08ef6f	0.13372587
57	0xbc8f1bae	-0.017469253
58	0xbe486492	-0.19569615
59	0x3da455f6	0.08024208
60	0x3dd548d0	0.104142785
61	0xbcef42be	-0.02920663
62	0xbd0d053b	-0.034428816
63	0x3d792074	0.060821965
64	0x3de3d6c6	0.11124949
65	0x3da5ed3f	0.08101892
66	0xbdc2605d	-0.09491036
67	0xbdc0ab88	-0.09407717
68	0xbe29c6b1	-0.16579701
69	0xbccf67a8	-0.025317982
70	0xbd9c0fa8	-0.07620174
71	0xbd782c8e	-0.060589366
72	0xbd3afbd3	-0.045650315
73	0xbcbd2350	-0.023088127
74	0x3d26b70e	0.04070192
75	0xbe097a7e	-0.13425633
76	0xbe09cd42	-0.13457206
77	0x3d88ff35	0.06689302
78	0xbcbb7b43	-0.022885924
79	0x3dad73dc	0.08469364
80	0xbde6f2f1	-0.11276806
81	0x3dcbf349	0.09958512
82	0xbdd02cc2	-0.10164787
83	0xbe0f9c33	-0.14024429
84	0x3c98c31e	0.018647727
85	0xbdd2da71	-0.10295571
86	0xbe1428e0	-0.14468718
87	0xbd94d45c	-0.07267067
88	0xbd68321b	-0.05668841
89	0xbe1c6602	-0.15273288
90	0xbd43050f	-0.047612246
91	0x3df5d7a2	0.12004019
92	0xbddb81f5	-0.10718147
93	0xbdc91fcd	-0.09820519
94	0x3e063aec	0.13108414
95	0xbdb3f14a	-0.087862566
96	0xbd84e443	-0.0648885
97	0x3df8f842	0.121567264
98	0x3e1f7de4	0.15575367
99	0x3e112ef2	0.14178064
100	0xbe05601e	-0.13024947
101	0x3deede1c	0.11663458
102	0x3d899215	0.06717316
103	0xbdaad1c3	-0.0834079
104	0x3da45578	0.08024114
105	0xbd9b0b79	-0.075705476
106	0xbe1ae701	-0.15127183
107	0xbdc9aea5	-0.09847764
108	0x3de9bc0a	0.11412819
109	0xbdb0dd6a	-0.086359814
110	0xbdb791f3	-0.089633845
111	0xbdd7c98e	-0.105364904
112	0xbdd3529b	-0.1031849
113	0x3dd3d54c	0.103434175
114	0xbe0357b1	-0.1282642
115	0xbe015bdd	-0.126327
116	0x3dcd762c	0.10032305
117	0xbe1c1183	-0.15241055
118	0x3dc4c7d2	0.09608425
119	0x3dbbaacf	0.091634385
120	0x3db34c40	0.08754778
121	0x3da8ee32	0.08248557
122	0x3dcd70b9	0.10031266
123	0xbdeb5c39	-0.114921995
124	0x3e0a3846	0.13498029
125	0xbdb87f19	-0.09008617
126	0x3debb843	0.115097545
127	0x3dd64aa1	0.10463453
128	0x3dbc2ba1	0.09188009
129	0x3dea4952	0.11439766
130	0xbd5b7462	-0.05357779
131	0x3de3c5a9	0.11121685
132	0x3dca5d3f	0.098810665
133	0xbdcee92b	-0.10103067
134	0xbe0b4ab1	-0.13602711
135	0xbde1c062	-0.11023022
136	0xbdc4d8cf	-0.096116655
137	0x3d9ebfe0	0.07751441
138	0x3db07bd7	0.086173706
139	0x3dac7a54	0.0842177
140	0xbddda096	-0.10821645
141	0x3db76f63	0.08956792
142	0x3db76a9c	0.08955881
143	0xbdf879b0	-0.12132585
144	0x3dfcef25	0.12350301
145	0x3de3ac31	0.11116827
146	0xbdf01c2d	-0.11724124
147	0xbdddcc6c	-0.10830006
148	0x3d810f22	0.063017145
149	0xbde8a202	-0.113590255
150	0x3deb4e71	0.11489571
151	0xbe0264db	-0.12733786
152	0x3dbfea66	0.0937088
153	0xbde7753c	-0.113016576
154	0xbde3a474	-0.11115351
155	0xbd5e5aad	-0.054285694
156	0x3dc1d5fc	0.094646424
157	0xbdea5bfd	-0.114433266
158	0xbdc25a6e	-0.09489904
159	0x3dbb5f93	0.09149089
160	0x3d89cebb	0.06728884
161	0xbddf6c74	-0.10909358
162	0xbded93e4	-0.116004735
163	0x3e041e6f	0.12902234
164	0x3ddf66bf	0.10908269
165	0x3dd308c8	0.10304409
166	0xbdd5bd0b	-0.10436448
167	0xbdecf99a	-0.11571045
168	0xbdfeedc3	-0.12447693
169	0xbddf1ee2	-0.10894562
170	0xbdf4ae86	-0.1194735
171	0xbdfaa950	-0.12239325
172	0xbdd904e7	-0.10596638
173	0x3da06680	0.0783205
174	0x3db0622d	0.086124755
175	0xbdb56ceb	-0.08858665
176	0xbdd99031	-0.106232055
177	0x3e136461	0.1439376
178	0xbdb9f426	-0.09079771
179	0x3d8dc223	0.06921794
180	0xbdcdba28	-0.10045272
181	0x3d953553	0.072855614
182	0xbe0eccee	-0.13945362
183	0xbdfd6eba	-0.12374635
184	0x3df792b3	0.120885275
185	0xbdec0a6a	-0.11525424
186	0xbdab742e	-0.08371769
187	0x3dd11260	0.10208583
188	0xbdf705c8	-0.120616496
189	0xbdf25e6d	-0.118344165
190	0xbe02a26d	-0.12757273
191	0x3dfdc1b3	0.12390461
192	0xbe05914f	-0.13043712
193	0xbe0262f2	-0.12733057
194	0x3de404d0	0.111337304
195	0xbe161952	-0.14658096
196	0xbde4fe2d	-0.11181293
197	0x3de9ae84	0.11410239
198	0x3df07f46	0.117430255
199	0x3dbd638c	0.09247503
200	0xbca67fe7	-0.02032466
201	0xbd5d51c5	-0.05403306
202	0xbd7ef7d1	-0.062248055
203	0x3c4d6d9a	0.012538338
204	0xbe15d883	-0.14633374
205	0x3d229331	0.039691154
206	0xbada1ff4	-0.0016641603
207	0x3cee913c	0.029121988
208	0x3d39b488	0.045338184
209	0x3dcdbc2d	0.10045657
210	0x3c8d3113	0.017235314
211	0xbce12228	-0.027482107
212	0xbccea5c8	-0.025225535
213	0xbd2bd743	-0.041953336
214	0x3d8d2557	0.06891888
215	0x3d8ad452	0.06778778
216	0xbd75debe	-0.060026877
217	0x3cd6aef6	0.026206475
218	0xbd92e2fb	-0.07172199
219	0xbd6ee086	-0.05831959
220	0x3ca05ab6	0.019574504
221	0xbcba2ecf	-0.022727398
222	0xbd1423e2	-0.036167033
223	0x3c81a4d2	0.015825663
224	0x3ceb7ba4	0.02874548
225	0x3d8389b0	0.06422746
226	0xbdb5902e	-0.08865391
227	0xbda2fca1	-0.079583414
228	0xbd1fc940	-0.039010286
229	0xbbffc698	-0.0078056566
230	0x3c0564f2	0.008141743
231	0xbd2c3057	-0.042038288
232	0xbcef1619	-0.029185342
233	0x3cc1473b	0.023593536
234	0x3b989df7	0.0046575028
235	0x3da8315d	0.0821254
236	0x3d94441b	0.072395526
237	0xbde551a6	-0.11197214
238	0xbd342cb7	-0.043987956
239	0xbd676934	-0.056496814
240	0x3da6ca93	0.08144107
241	0xbd9289ad	-0.07155166
242	0xbde36da5	-0.111048974
243	0xbd4cbacb	-0.049982827
244	0xbd3b2f8c	-0.04569964
245	0xbd03b0e3	-0.032151114
246	0x3d5554b7	0.052082743
247	0x3c99a50d	0.01875546
248	0xbc1e54c3	-0.009663763
249	0x3d5475a3	0.05187
250	0xbd8ee4e9	-0.06977255
251	0x3d9594a7	0.07303744
252	0xbd164a84	-0.036692157
253	0x3c732051	0.014839248
254	0x3d4c5a20	0.049890637
255	0x3cace77e	0.021106478

fc.3.bias f4 [100]
0	0x3d858181	0.065188415
1	0xbc1e2172	-0.009651529
2	0x3bb69c27	0.005572814
3	0x3e3a92b5	0.18220027
4	0xbc8de8b0	-0.017322868
5	0x3e2685aa	0.16261926
6	0x3c38d6f4	0.011281718
7	0x3d01d72d	0.03169935
8	0x3cf93457	0.030420465
9	0xbbf7f7c6	-0.0075673787
10	0x3d2a63e9	0.041599188
11	0xbb848361	-0.004043982
12	0xbce0f320	-0.027459681
13	0x3d76f250	0.06028968
14	0x3d72e47a	0.059299923
15	0xbbad2041	-0.005283386
16	0xbd1874ca	-0.037220754
17	0xbcd73a31	-0.026272865
18	0x3b418aa5	0.0029532101
19	0x3d6d73ea	0.057971872
20	0x3dd229f1	0.10261906
21	0x3df001a7	0.11719065
22	0x3a9101c4	0.0011063148
23	0xbccba31d	-0.024858052
24	0xbd6f289d	-0.05838834
25	0x3d3402aa	0.043947853
26	0x3e6ea46e	0.23304912
27	0x3d7f028b	0.062258285
28	0xbd310f95	-0.04322775
29	0xbd260161	-0.04052866
30	0xba493166	-0.00076749024
31	0x3d80b7b2	0.06285037
32	0x3d1e709d	0.038681615
33	0x3c0b7638	0.008512072
34	0xbc86f665	-0.016474912
35	0x3d6f48c7	0.058419015
36	0x3d34dd70	0.04415649
37	0x3cf619df	0.030041633
38	0x3c6e0e47	0.014529771
39	0xbc36998e	-0.011145009
40	0x3c8ea6c8	0.017413512
41	0x3cabcd94	0.02097205
42	0xbc7de331	-0.015496061
43	0x3d872b61	0.06600071
44	0x3da04ebf	0.078275196
45	0x3d84a657	0.06477039
46	0x3e02d9d3	0.12778406
47	0x3d299f9d	0.041411985
48	0x3e5ca910	0.21548867
49	0x3dd125c3	0.102122806
50	0x3ce9a775	0.028522233
51	0x3d377e8f	0.04479843
52	0x3d581216	0.052751623
53	0xbbd6fe4a	-0.0065610753
54	0x3e33e1eb	0.1756665
55	0x3d74ba05	0.059747715
56	0x3e0fecfb	0.14055245
57	0x3ba87dc5	0.005141946
58	0xbba280a7	-0.004959184
59	0x3c2ba7b4	0.010476995
60	0xbce18548	-0.027529374
61	0xbc088894	-0.008333344
62	0xbc07c106	-0.0082857665
63	0x3dde2d81	0.10848523
64	0x3c7d24aa	0.015450636
65	0x3da94ef8	0.08267015
66	0xbcb3933a	-0.021920789
67	0xbc8a03bc	-0.016847484
68	0x3cf00801	0.029300692
69	0xbc70e72f	-0.014703556
70	0xbb9bc06d	-0.0047531636
71	0x39af8fce	0.00033485744
72	0x3cf8b593	0.030360019
73	0x3e501c75	0.20323355
74	0x3d938447	0.07202964
75	0x3d0a3b69	0.033748064
76	0x3d0e0f22	0.0346824
77	0x3bdac544	0.006676348
78	0x3c034d92	0.0080141
79	0x3d748dec	0.05970566
80	0xbce90301	-0.028443815
81	0x3de668c3	0.112504505
82	0x3c89d787	0.016826404
83	0x3d1fdea4	0.039030686
84	0x3d06d3de	0.032916896
85	0x3d12a38d	0.035800505
86	0x3cb60229	0.022217827
87	0x3db725e4	0.08942774
88	0x3caf3350	0.021386772
89	0x3c71f077	0.014766804
90	0x3c1336bf	0.00898522
91	0x3d833da8	0.06408244
92	0x3d142f0d	0.036177684
93	0x3d06e992	0.032937594
94	0x3d6efa52	0.058344193
95	0x3d539506	0.05165579
96	0xbd125b8c	-0.035731837
97	0xbd610a3e	-0.05494141
98	0x3d36892a	0.044564404
99	0xbcdae074	-0.026718356

fc.4.weight f4 [100, 100]
0	0xbce79f4b	-0.028274199
1	0xbd838896	-0.06422536
2	0x3ca4caf5	0.020116309
3	0x3d1622cd	0.036654282
4	0xbd3b7297	-0.04576358
5	0x3ddb7e5f	0.10717463
6	0xbd40eb52	-0.04709942
7	0xbda1d04a	-0.07901056
8	0x3d62c28f	0.055361327
9	0xbd9b36a3	-0.075787805
10	0xbd0cda97	-0.03438815
11	0xbd5302ac	-0.05151622
12	0xbc7cda9c	-0.01543298
13	0xbc61aea9	-0.013774552
14	0x3d271381	0.040790085
15	0xbdf6c8e3	-0.12050035
16	0xbd6670b0	-0.05625981
17	0xbd1aea4f	-0.03782111
18	0xbd22f7e8	-0.039787203
19	0xbc53048c	-0.012879502
20	0x3ba958f1	0.0051680733
21	0x3dadf5d0	0.08494151
22	0xbd690516	-0.056889616
23	0xbdc774ee	-0.097390994
24	0xbd2ce8ff	-0.04221439
25	0xbccf9ded	-0.02534386
26	0x3de5796c	0.112048
27	0xbcefb8fb	-0.02926301
28	0xbd93f033	-0.07223549
29	0x3babd5fb	0.0052440143
30	0x3b89074d	0.0041817785
31	0x3b590d92	0.003311966
32	0xbbd05bb4	-0.006358588
33	0xbd755f24	-0.059905186
34	0xbd925141	-0.07144404
35	0x3d556845	0.052101392
36	0xbcb5bc45	-0.0221845
37	0x3bbd14ca	0.0057703005
38	0xbd7f9c80	-0.06240511
39	0xbdc71999	-0.09721679
40	0xbd64c478	-0.05585143
41	0xbd2909ee	-0.041269235
42	0xbd95a372	-0.07306565
43	0xbcd065d4	-0.02543918
44	0x3d20aae0	0.03922546
45	0xbd041e42	-0.03225542
46	0x3d219823	0.03945173
47	0xbc0d0793	-0.008607763
48	0x3db48730	0.088148475
49	0x3b626250	0.0034543462
50	0xbd7ebcac	-0.06219165
51	0x3d693428	0.056934506
52	0xba7fedfe	-0.00097629416
53	0xbd5d7955	-0.05407079
54	0x3d835209	0.06412131
55	0x3c7f58f1	0.01558517
56	0x3d11a07a	0.035553433
57	0x3c554bfb	0.013018603
58	0x3c802ae5	0.015645454
59	0xbd6b2c7f	-0.05741548
60	0x3ccdaa37	0.025105579
61	0xbd8bcae1	-0.068258055
62	0xbda731a7	-0.08163767
63	0x3d99f54f	0.07517492
64	0xbd199b97	-0.037501898
65	0x3d6a944f	0.057270344
66	0xbd9fa5a7	-0.077952676
67	0x39e72489	0.00044086974
68	0x3b63b21a	0.0034743608
69	0xbd4c290b	-0.04984383
70	0xbceef1ef	-0.029168097
71	0xbd5bd4b8	-0.05366966
72	0xbd5a5ffc	-0.053314194
73	0x3d30a463	0.04312552
74	0xbd1a2df3	-0.037641477
75	0xba07b661	-0.0005177018
76	0xbd5b6183	-0.05355979
77	0xbd59ab31	-0.053141776
78	0xbd605772	-0.054770894
79	0x3b7ee42a	0.003889332
80	0xbd2be881	-0.04196978
81	0x3d275219	0.04084978
82	0xbd744898	-0.059639543
83	0xbcdf13f4	-0.027231194
84	0xbd4ad1a8	-0.04951635
85	0xbd0f97be	-0.035056822
86	0xbd93c98c	-0.072161764
87	0x3cdefd58	0.027220413
88	0xbd6c0c30	-0.05762881
89	0xbda9b742	-0.08286907
90	0xbd5dae9a	-0.05412159
91	0xbd00cc6f	-0.031444963
92	0xbcc0af2a	-0.023521025
93	0xbd4b40fc	-0.04962252
94	0x3d22b944	0.039727464
95	0x3bf9f1ad	0.007627687
96	0xbdfb96e8	-0.122846425
97	0xbc81cf40	-0.015845895
98	0x3c5316d9	0.012883865
99	0xbd1dba22	-0.03850759
100	0xbd8c8cc3	-0.06862786
101	0xbdd550b5	-0.10415784
102	0x3ca56455	0.020189444
103	0x3d31d26b	0.04341356
104	0xbdc6e887	-0.0971232
105	0x3db88cc6	0.090112254
106	0xbd9ca3ff	-0.07648467
107	0xbd99994d	-0.07499943
108	0x3d8d0aef	0.06886851
109	0xbdd53c84	-0.10411933
110	0xbd8db773	-0.06919756
111	0xbda588c4	-0.080827266
112	0x3d0765c9	0.033056054
113	0xbd8f35d1	-0.069926865
114	0x3d925ca3	0.07146575
115	0xbe0d5ad3	-0.13804178
116	0x3d0c478c	0.03424792
117	0xbda2c12f	-0.07947003
118	0xbdf356b6	-0.11881773
119	0xbdac5e9a	-0.08416481
120	0x3d4241a9	0.0474259
121	0x3d926a4e	0.07149182
122	0xbdc3f4a8	-0.09568149
123	0xbdbbcc0f	-0.091697805
124	0x3d83d924	0.06437901
125	0xbd779907	-0.060448673
126	0x3d9f47e6	0.077773854
127	0xbd9b04ed	-0.07569299
128	0xbdb3115f	-0.08743548
129	0x3d23705e	0.039902084
130	0x3d74968a	0.059713878
131	0x3cef329e	0.02919894
132	0xbc688aab	-0.014193217
133	0xbdc0ea85	-0.09419731
134	0xbdf37a26	-0.11888532
135	0x3cb985e5	0.022646854
136	0xbde1cb42	-0.110250965
137	0x3d82d7e1	0.06388832
138	0xbdf4be2a	-0.119503334
139	0xbe079fb2	-0.13244513
140	0xbdcc67a4	-0.099807054
141	0xbdf2b686	-0.1185122
142	0xbe08d293	-0.13361578
143	0x3d75452a	0.059880413
144	0x3c52cf01	0.012866736
145	0xbd89aa67	-0.06721955
146	0x3d75a165	0.05996837
147	0x3d6e3a05	0.0581608
148	0x3db7430e	0.089483365
149	0x3d63fa75	0.055658776
150	0xbdaff7cd	-0.08592186
151	0x3c65226d	0.0139852585
152	0x3d5d4f56	0.05403074
153	0xbe00768c	-0.12545222
154	0x3d02d540	0.031941652
155	0x3d859e63	0.065243505
156	0x3d2f3e8d	0.042784262
157	0x3c835ceb	0.016035518
158	0x3d63d1a5	0.055619854
159	0xbdd56ad7	-0.10420769
160	0x3c8f4a03	0.017491346
161	0xbdbc23b8	-0.091865
162	0xbdfd93c3	-0.12381699
163	0x3c54a486	0.012978679
164	0x3d0df4c3	0.03465725
165	0x3d6f3f08	0.05840972
166	0xbdf83c76	-0.12120907
167	0x3d1dece8	0.03855601
168	0x3d95479f	0.07289051
169	0xbded25e0	-0.1157949
170	0xbdf80e44	-0.12112096
171	0xbdddad69	-0.10824091
172	0xbdfcd931	-0.123461135
173	0x3d493409	0.04912189
174	0xbdfde273	-0.123967074
175	0xbd7e35bc	-0.062062964
176	0xbd6e6ba5	-0.058208127
177	0xbde8f276	-0.11374371
178	0xbdd97fd8	-0.106200874
179	0xbd5f8ccc	-0.054577634
180	0xbdb5d53d	-0.088785626
181	0x3cba8782	0.022769693
182	0xbda961d0	-0.082706094
183	0xbd9b51d2	-0.07583965
184	0xbdcac48c	-0.099007696
185	0xbd985ec1	-0.07439948
186	0xbdc7ea01	-0.097614296
187	0x3d53fff4	0.051757768
188	0xbdb41608	-0.087932646
189	0xbde5bf36	-0.11218111
190	0xbdb7b9bc	-0.08970973
191	0xbdbef579	-0.09324164
192	0xbdb67ecf	-0.089109056
193	0xbd921100	-0.07132149
194	0x3d17fbdd	0.03710543
195	0xbd90ef8c	-0.0707694
196	0xbdf82606	-0.121166274
197	0x3d8718d7	0.06596535
198	0x3d07b7f1	0.033134405
199	0x3d68c185	0.05682518
200	0x3d474a49	0.04865483
201	0x3d476cd2	0.048687764
202	0xbb07e667	-0.0020736696
203	0x3d924c27	0.07143431
204	0x3d6d4354	0.057925537
205	0x3d976589	0.07392413
206	0x3d892955	0.066973366
207	0x3dbe2806	0.092849776
208	0xbd60c30e	-0.05487352
209	0x3d87b5db	0.06626483
210	0x3d5c015b	0.05371223
211	0x3d15b3c0	0.036548376
212	0xbd7a2d55	-0.06107839
213	0x3d606d80	0.054791927
214	0xbce1ed3c	-0.027578942
215	0x3d160488	0.036625415
216	0xbd75d241	-0.060014967
217	0x3d477ed5	0.04870494
218	0x3d5d4e62	0.05402983
219	0x3d6de575	0.058080155
220	0xbb517ac1	-0.0031964036
221	0x3d5e04dc	0.054203853
222	0x3d89d9e2	0.06731011
223	0x3da71e79	0.08160109
224	0xbd8450f3	-0.06460752
225	0x3d7f2e68	0.062300116
226	0x3d97f67b	0.07420059
227	0x3d9ad5e0	0.07560325
228	0x3d4d8f95	0.05018576
229	0xbd52ce72	-0.051466413
230	0xbc946630	-0.018115133
231	0xbc17cd80	-0.009265304
232	0xbd4abbdf	-0.049495574
233	0x3d2e34ca	0.042530812
234	0x3daa02d3	0.0830132
235	0xbd403bc5	-0.046932
236	0x3ddc3b3d	0.10753486
237	0xbd04753c	-0.032338366
238	0x3ce38376	0.027772646
239	0x3d2b5e82	0.041838177
240	0x3d45072a	0.048102535
241	0x3d2ac595	0.041692335
242	0x3d84ead4	0.064901024
243	0xbd14be14	-0.036314085
244	0xbc42b7bb	-0.011884625
245	0x3d826a7e	0.06367968
246	0x3cb6258c	0.0222347
247	0xba960db5	-0.0011448177
248	0x3dbfda32	0.09367789
249	0x3c86c275	0.016450146
250	0x3d9d76e3	0.076886915
251	0xba857d51	-0.0010184442
252	0xbd802906	-0.062578246
253	0x3cfbfd01	0.03076029
254	0x3d2a52f3	0.041583013
255	0xbcac1d72	-0.021010134

fc.4.bias f4 [100]
0	0x3ebdd8cb	0.37079462
1	0x3def9bda	0.11699648
2	0x3e4bf211	0.1991656
3	0x3e99c028	0.30029416
4	0x3e74ac6c	0.23893899
5	0x3e44a89b	0.19204943
6	0x3e2107aa	0.1572558
7	0x3e7c89b4	0.24661905
8	0x3e51c0ad	0.20483656
9	0x3ee81387	0.45327398
10	0x3e43ae5d	0.19109483
11	0x3e67c974	0.22635442
12	0x3d8e47aa	0.069472626
13	0x3e3beb16	0.18351397
14	0x3f02b830	0.510623
15	0x3e5c8a9b	0.21537249
16	0x3e9f4889	0.31110027
17	0x3e5feffa	0.21868888
18	0x3e6e7bfd	0.23289485
19	0x3e4ea9a8	0.20181906
20	0x3dabc253	0.08386674
21	0x3d3925fa	0.045202233
22	0x3e878a96	0.2647292
23	0x3e0443ba	0.1291646
24	0x3dc76b87	0.09737306
25	0x3e1e6fb1	0.15472294
26	0x3e48729c	0.1957497
27	0x3f034999	0.51284176
28	0x3ef30217	0.47462532
29	0x3ef3e43e	0.47635072
30	0x3e65bc48	0.22435105
31	0x3e3d6c4d	0.18498345
32	0x3e618be8	0.22026026
33	0x3e4780e2	0.19482759
34	0x3e94713d	0.28992644
35	0x3ea83643	0.32853898
36	0x3e669b10	0.22520089
37	0x3d919dc3	0.07110169
38	0x3e8e1783	0.27752313
39	0x3ea89b6d	0.3293108
40	0x3da01adf	0.07817625
41	0x3e673fb9	0.22582902
42	0x3e0292b2	0.12751272
43	0x3f1bb87f	0.60828394
44	0x3e7b32be	0.24531075
45	0x3e868861	0.26275924
46	0x3f16c854	0.58899426
47	0x3ef59288	0.47963357
48	0x3e66b886	0.22531328
49	0x3ec84856	0.39117688
50	0x3e9762e5	0.29567638
51	0x3e5ab338	0.21357429
52	0x3e08c025	0.13354547
53	0x3e044be6	0.12919578
54	0x3e203dcd	0.15648575
55	0x3f1adb55	0.60490924
56	0x3e5ad40c	0.21369952
57	0x3e5b9023	0.21441703
58	0x3e5b4bb3	0.21415596
59	0x3e491a2d	0.19638892
60	0x3ef30d97	0.47471306
61	0x3e9d12ad	0.3067831
62	0x3e559de0	0.20861006
63	0x3f0d338d	0.55156785
64	0x3e319179	0.1734065
65	0x3e6d156a	0.231527
66	0x3e617b2d	0.22019644
67	0x3e88f5cf	0.26750037
68	0x3f0e6b33	0.55632323
69	0x3e3f517a	0.18683425
70	0x3e761b42	0.24033836
71	0x3eb5f26a	0.3553651
72	0x3e597eb4	0.2123974
73	0x3e44e58d	0.19228192
74	0x3d70fcdd	0.0588349
75	0x3ec2c1d0	0.38038492
76	0x3e265eab	0.1624705
77	0x3e515bd4	0.20445186
78	0x3e5fffc4	0.2187491
79	0xbb9a2621	-0.0047042524
80	0x3eafc568	0.34330297
81	0x3e518643	0.20461373
82	0x3e43e63c	0.19130796
83	0x3e38e366	0.18055496
84	0x3d601d68	0.054715544
85	0x3e6fb273	0.23407917
86	0x3f1fec51	0.62469965
87	0x3f14777b	0.5799481
88	0x3ee5f359	0.44912222
89	0x3f0af250	0.5427599
90	0x3dc01e27	0.09380751
91	0x3e78a4b8	0.24281585
92	0x3e5df1b0	0.21674228
93	0x3f0ab222	0.5417806
94	0x3e37158b	0.17879312
95	0x3e31dee6	0.17370185
96	0x3e6b616e	0.22986385
97	0x3eb17a17	0.3466346
98	0x3e1cfb4d	0.15330239
99	0x3e1b637d	0.1517467
