results/Smoothed_InfoNCE_dim20_reg1_alpha0.01.pt (torch, 402875 bytes, 13 tensors)

fc.0.weight f4 [100, 40]
000000 c6 95 93 3d cd 59 ac bc f1 dc e8 3c bc 7f ba bd
       0.072063014 -0.021038914 0.028425666 -0.09106395
000010 e7 49 39 3d 8f 1d a4 3d 14 e3 8f bd 1a 72 6a bb
       0.045236494 0.0801345 -0.070257336 -0.0035773576
000020 be a9 49 bd 33 23 09 3d 2a 67 a5 bd fb 1f 4d bd
       -0.049234144 0.033480834 -0.080763176 -0.050079327
000030 fa 5f bc 3c d3 dd 40 3a b7 f4 b0 3b 0d 1f e1 3d
       0.022994984 0.0007357273 0.005400266 0.109922506
000040 27 4c a4 3d 11 71 16 bb 73 9f cc 3c 86 4f aa 3c
       0.080223374 -0.0022955576 0.024978375 0.020789873
000050 cd 33 d9 3d 94 da 92 bd c3 d5 4b 3d 83 7b b5 bd
       0.10605583 -0.07170597 0.049764406 -0.088614486
000060 be e6 32 3c 3f 4f 8b 3d 15 09 80 bd 80 a3 06 3c
       0.010919271 0.06802224 -0.06251732 0.008217692
000070 cf ed 8e bd 31 b1 81 3c b1 cb 8a bd bf 56 90 bd
       -0.06978952 0.015831562 -0.06777132 -0.070477955
000080 ff 7c 9a bc cd fd fe 3c 73 e2 06 bc 2b af e0 3d
       -0.01885843 0.031126881 -0.008232701 0.10970911
000090 c1 b1 81 3d d3 b8 dd bb 9a eb fd 3c 64 b7 18 3d
       0.06332732 -0.0067664175 0.030996133 0.03728427
0000a0 31 96 82 bd 8f e5 4f bd a0 e0 e2 bc b9 5c 5b 3d
       -0.06376303 -0.050756034 -0.027695 0.053555224
0000b0 ff 16 f8 3c 78 b7 1d bc ae fa cb 3d 53 9c db 3d
       0.030284403 -0.009626262 0.09959923 0.10723176
0000c0 ac 50 2b bd 30 1b 88 bd b7 fb f5 3c 16 5c 5a 3d
       -0.04182498 -0.066458106 0.030027254 0.053310476
0000d0 11 0e e2 3b 84 fc 90 bd e4 d1 9d bc 15 dc 14 3d
       0.0068986495 -0.070794135 -0.019265123 0.0363427
0000e0 5b e0 22 3e 5f b1 fe bd c6 f5 40 3d a3 da c8 bd
       0.15905897 -0.124361746 0.047109388 -0.09807327
0000f0 95 34 a3 3d 90 92 7b 3d 1e 12 61 bb 55 5b 60 bd
       0.079690136 0.06141907 -0.0034343074 -0.0547746
000100 87 3b 65 bc da 31 93 bc 31 33 ef bd e6 9f a2 bd
       -0.013991243 -0.017968107 -0.11679686 -0.079406545
000110 8a 97 69 3d 06 9d 7e 3d 0a e7 11 bd 9d 8a 41 bd
       0.057029285 0.062161468 -0.035620727 -0.047251333
000120 ca 52 cd 3c 1b e4 83 3d 23 3c fe 3c c9 a9 2f bd
       0.025063891 0.06439992 0.031034535 -0.04288653
000130 f0 42 ff bd c6 67 25 3e 26 e8 47 bd e2 f2 a2 3d
       -0.12463939 0.16152868 -0.04880538 0.079564825
000140 d8 a4 8f bd 54 2d 84 3d 5e 48 13 3d b7 aa 56 3c
       -0.07013863 0.06453958 0.035957687 0.013102225
000150 e5 ce c4 3d 61 65 71 bd 67 06 c9 bc 3b 1e 9c bd
       0.096097745 -0.058934573 -0.024539186 -0.076229535
000160 ca d4 1b 3d 70 25 e5 3d 88 54 79 bc 9f d4 96 bd
       0.03804473 0.11188781 -0.015217908 -0.07364773
000170 a1 1a 09 bd d8 84 e9 3b 76 95 49 bb 7d 55 96 3d
       -0.03347266 0.007126432 -0.0030759252 0.07340524
000180 ad 87 db bc a2 48 8b 3c c3 1a 3b bc 13 6c 4d bd
       -0.026798094 0.017002407 -0.011419955 -0.050151896
000190 c6 5c 1a bd ba 1a b0 3d df 97 4d 3d 73 51 b8 3c
       -0.037686132 0.08598848 0.050193664 0.022499776
0001a0 90 f2 ac 3d 83 bf a7 bd 58 4d 23 bd 51 fb 77 bd
       0.084447026 -0.08190825 -0.039868683 -0.06054241
0001b0 e0 47 c5 3c f4 b2 cc 3d 4a bf 41 3c 3a 5b 92 bd
       0.024082124 0.0999507 0.011825392 -0.07146306
0001c0 1d 11 69 bc ca 33 49 3b 5f 0d 8d bc 22 5b b4 3d
       -0.0142252715 0.0030701035 -0.01721829 0.08806445
0001d0 2e c3 22 bd e2 7f e8 3c 57 06 21 bb f6 a1 1f bd
       -0.03973692 0.028381292 -0.002457043 -0.038972817
0001e0 ff 0c 74 3c cb b4 ca bc ff 0b aa 3b 2f f6 d5 3d
       0.014895677 -0.024744412 0.0051894183 0.104473464
0001f0 b8 cb 37 3e 76 3d 10 bd 76 8d 04 bd c7 84 fd 3b
       0.17948806 -0.035214864 -0.03236147 0.0077367756
000200 f8 c5 f0 bc 9b cf 5d 3d 44 29 52 bd b8 9e 18 3d
       -0.029391274 0.054153066 -0.051308885 0.03726074
000210 9a 84 df bd 3d a5 3c 3d 9b 26 9b bd 97 57 6f bd
       -0.109139636 0.04605602 -0.07575723 -0.05843314
000220 9b 7f d0 3a 52 6b 34 3c c2 35 8d bd 4c ce c6 3d
       0.001590717 0.011011915 -0.06895019 0.09707317
000230 72 72 0b bd 6b 43 a5 3c 05 89 a0 3c 7c 81 e1 bd
       -0.03404469 0.020173749 0.019596586 -0.11011025
000240 2d 0c 25 be 4c 41 34 3d ac 2f 97 3c e5 e7 a3 bc
       -0.16117926 0.044007584 0.018455349 -0.020008037
000250 9d d3 0a 3d 5e a2 62 bd 5e d9 3e 3d 35 77 84 bd
       0.033893216 -0.055330627 0.046594016 -0.064680494
000260 88 be 00 3e 8d ef 4f bd 7b ee 90 3d 3f 65 b0 3d
       0.12572682 -0.050765563 0.070767365 0.08613061
000270 10 6c 81 bc df 3b a5 bb 76 fa d2 3d 0f 79 b5 bd
       -0.015798599 -0.0050425376 0.10301678 -0.08860981
000280 94 c7 20 3d 3e ea 3d 3c d5 0c c0 bc e4 e0 c2 3d
       0.039252833 0.011591492 -0.023443619 0.09515551
000290 73 1e a4 3c c2 a1 47 3d 70 56 d9 bd 22 74 87 3d
       0.02003405 0.04873825 -0.1061219 0.066139475
0002a0 c1 31 df bb b9 d7 9b bd 79 34 1a 3d e8 06 f1 bc
       -0.006811351 -0.07609505 0.037647698 -0.029422238
0002b0 e2 4c 15 3d 04 77 2f bd 9a 5a 58 3d c7 fb 43 bb
       0.036450274 -0.04283811 0.05282078 -0.002990471
0002c0 4a b4 cf 3c cd 25 aa bd 16 e0 a4 bc 8e a8 f8 b9
       0.025354523 -0.08307991 -0.020126384 -0.0004742783
0002d0 c6 ac 96 3c 4d ac 51 3c dd 09 cd bc 8e f8 b5 3d
       0.018392932 0.012797427 -0.025029117 0.08885299
0002e0 38 4d a8 bc 1d 78 50 3d 22 26 94 bd 0c 20 79 3d
       -0.020544633 0.0508958 -0.07233836 0.060821578
0002f0 72 d0 ae bb 41 70 59 bd 79 a8 c8 3c 20 f9 82 bd
       -0.005334907 -0.05308557 0.024494397 -0.06395173
000300 6e c7 43 3d 8f 04 43 bd e5 bb 58 3d 0a 03 16 3c
       0.047797613 -0.04761177 0.052913565 0.009155998
000310 07 e4 cd 3c c6 32 ac bd b8 4d 89 bc bd 74 b5 bb
       0.025133146 -0.08408122 -0.016760692 -0.005537598
000320 fb cf 4c bd 6f ad 49 bb 43 34 5c 3d 54 1d 98 3d
       -0.050003033 -0.003077354 0.05376078 0.07427469
000330 77 40 32 bc 5c b3 7c 3d d5 fa ad 3d 56 96 08 3d
       -0.010879627 0.061694488 0.08495108 0.033346497
000340 dc 92 bd 3c db 43 b2 bc 88 7b b2 bd 9a b1 40 bd
       0.023141317 -0.021760872 -0.08714968 -0.047044374
000350 4a 3b 82 3d 3f 36 0c 3e f7 dd 7a bd 1a 48 b1 3d
       0.06358965 0.13692568 -0.06124684 0.086563304
000360 51 47 3b bc 99 82 e9 3d 8b 4d bc 3d 28 24 33 3d
       -0.011430577 0.11401863 0.09194478 0.043735653
000370 8d 97 5b 3d d3 af 98 bb f5 32 f4 bc e8 a6 8e bd
       0.053611327 -0.0046596318 -0.029809454 -0.069654286
000380 df d2 50 3d b8 6a 23 bd 31 60 8b bd 45 fd 22 bd
       0.050982352 -0.039896697 -0.068054564 -0.039792318
000390 75 40 90 bc e0 de 03 3d 6f 0e e6 3d 1c 8c 37 3c
       -0.01760886 0.032194972 0.11233222 0.011202838
0003a0 06 bf aa bd e2 37 14 be 8f 93 5a 3d 31 68 9e bd
       -0.08337216 -0.14474443 0.05336338 -0.07734717
0003b0 5c 08 84 3c 87 f7 e8 bd b7 8f a1 bd 62 f5 8d bd
       0.016117267 -0.11375337 -0.078887396 -0.06931569
0003c0 63 90 72 bd 0e 2e 01 bd 5d fa 8d bd 3a 8c 4c 3d
       -0.05921973 -0.03153806 -0.06932519 0.049938418
0003d0 ea e7 86 bc f4 bc 12 3e 4d 43 6e bd 07 a7 61 3c
       -0.016468007 0.14329892 -0.05816965 0.013772733
0003e0 fd cd e8 bd 5c 6f 5a bd 02 40 96 3c 63 75 98 3d
       -0.11367414 -0.053328857 0.018341068 0.07444265
0003f0 59 26 52 bc c8 bc 09 3e 72 a4 37 bd 09 1c 47 bd
       -0.012826526 0.1345092 -0.04483456 -0.04861072

fc.0.bias f4 [100]
000000 63 d3 37 bd 7c f9 94 bc 8b 1e 63 bd 71 f2 ff bc
       -0.04487933 -0.01818537 -0.05544905 -0.031243535
000010 94 5c 2c bd 1c 42 f0 bc 15 95 f0 bc 42 18 17 bd
       -0.042080477 -0.029328398 -0.029367963 -0.03688837
000020 77 6c fa bc ca 84 83 bc a5 ea 43 bd e4 b4 bd bc
       -0.030569298 -0.01605453 -0.047831196 -0.023157544
000030 46 01 a0 bc 5b 55 03 bd 82 9e 27 bd df 9f 43 bd
       -0.019531857 -0.032063823 -0.04092265 -0.047759887
000040 bd 15 ec bc cd 01 27 bd 79 4e 3f bd e9 0b 56 bd
       -0.02881896 -0.0407732 -0.046705697 -0.052257452
000050 1e af 41 bd bb d9 9f bb 2c 4d d3 bc 13 0b d7 bc
       -0.047286145 -0.0048782504 -0.025793634 -0.026250398
000060 c7 d5 21 bd c5 b5 c8 bc 5d 65 a4 bc 4c 08 fd bc
       -0.039510515 -0.024500737 -0.020067865 -0.030887745
000070 51 dc e6 bc d1 8c 8c bc b2 ff c8 bc fc ad f7 bc
       -0.028181227 -0.01715699 -0.024535988 -0.03023433
000080 f5 18 0e bd 74 63 04 bd cd 6e 53 bc c4 85 54 3c
       -0.03469177 -0.03232141 -0.012904835 0.012971345
000090 02 60 31 bd a3 cc 21 bd 3b cf a4 bc a8 97 a6 b9
       -0.04330445 -0.039501797 -0.020118346 -0.0003177498
0000a0 26 0d ac bc 3d ad 0a bd b5 ce d9 3c e3 35 31 bd
       -0.021002363 -0.03385662 0.026587823 -0.04326428
0000b0 03 0f 33 bd 86 10 46 bd 39 8d b8 bc 42 a3 17 bc
       -0.04371549 -0.0483556 -0.022528278 -0.009255232
0000c0 a9 1a 03 3d db 03 db bc 44 10 39 bd 00 50 03 bd
       0.032007847 -0.026735237 -0.045181528 -0.032058716
0000d0 8e f7 e7 bc 86 e6 1e bd 44 56 be bc 30 b6 08 bd
       -0.028316285 -0.038794063 -0.023234494 -0.033376873
0000e0 39 95 f8 bc ce 57 e1 bc 64 2e 13 bd fb c1 8f 3b
       -0.030344592 -0.027507689 -0.035932913 0.004387138
0000f0 26 f6 27 bd b1 e2 19 bd 55 1a 53 bd 42 d8 20 bc
       -0.04100623 -0.037569705 -0.051538784 -0.009817185
000100 65 62 fe bc fd 46 45 bd 73 c5 f7 bc e3 c8 10 bd
       -0.031052778 -0.048163403 -0.030245518 -0.03534783
000110 ba c5 7a bc cf 5d 11 3c c2 22 59 bd 59 d8 49 bd
       -0.015305931 0.008872463 -0.053011663 -0.04927859
000120 a7 cb 3a bd 2e e1 4c 39 21 ea 33 bd 05 2e 5e bd
       -0.045604374 0.00019538842 -0.043924455 -0.054243106
000130 e6 27 fc bc 01 ab c1 bc 6f 73 a8 bc 88 25 d2 bc
       -0.030780744 -0.023641111 -0.020562856 -0.025652662
000140 74 40 dc bc 41 bc 28 bd 40 13 f8 bc 48 0d d3 3b
       -0.026886202 -0.041195158 -0.030282617 0.006440792
000150 50 09 06 bd 72 40 2c bd 9c 12 9a bb f3 5d 2a bd
       -0.032723725 -0.042053647 -0.0047019254 -0.041593503
000160 4a 4f e0 bc 27 76 b4 bc 12 3b 39 bd 58 62 c0 bc
       -0.027381558 -0.022028996 -0.04522235 -0.023484394
000170 77 8e ff bc 92 ec 3c 3c b9 db 05 bd 15 f1 f1 bc
       -0.031195862 0.011531012 -0.032680247 -0.029533902
000180 ea 3d 9b bc 41 bc 12 bd eb 16 0b bd 77 3b 00 bd
       -0.018950421 -0.035824064 -0.033957403 -0.03130671

fc.1.weight f4 [100, 100]
000000 d5 41 2b bd 33 95 19 3e 84 1d 10 bc c2 80 77 3b
       -0.04181083 0.14998321 -0.0087961 0.0037765955
000010 de c6 c4 bb f2 60 a3 3d d6 c5 b6 39 7d b5 34 bd
       -0.006005152 0.07977475 0.00034861144 -0.044118393
000020 2a d9 c9 ba 79 37 97 bd 11 3b 33 bd be 09 bc 3c
       -0.0015399803 -0.073836274 -0.043757502 0.022953864
000030 e8 84 cb 3d 15 e7 20 bc 58 70 7c bd 2a 8a 19 bc
       0.09937459 -0.009820719 -0.061630577 -0.00937132
000040 09 57 7a 3c 84 0c 36 3c d7 cc ef bc c0 8c a1 bc
       0.01527954 0.011111382 -0.02927248 -0.019720435
000050 52 ac 5d bc ab b8 a1 3c 33 88 ba 3d ee 33 bb 3d
       -0.013529854 0.019741377 0.09108009 0.09140764
000060 2c 4b 32 bc 36 2b 57 3d 6a ab 5e bc 63 29 96 bb
       -0.01088218 0.052531444 -0.013590673 -0.0045825704
000070 56 21 f8 3d 92 0e 43 3d 02 4d 27 3e 84 f8 01 3e
       0.12115733 0.047621317 0.1633797 0.12692457
000080 95 f5 75 3d 03 ee 36 3d 0a 9b b4 3c b5 83 ae bb
       0.06004866 0.04466058 0.022046585 -0.0053257593
000090 27 e2 b9 bc 8b 05 05 bd ed b0 1b 3e d3 d4 2c bd
       -0.022690846 -0.03247599 0.1520421 -0.042195152
0000a0 44 73 09 3e 83 d0 1e 3d 29 fe 8d bc 40 fc 55 bd
       0.13422877 0.03877307 -0.017333107 -0.052242517
0000b0 0a b2 14 3e 5b 06 08 bd a2 4d 98 bb 3c fc 6f bc
       0.14521042 -0.033209186 -0.0046479264 -0.01464754
0000c0 ca 96 26 3e 99 37 23 3d d7 a5 6b 3c 9e 41 e0 3d
       0.16268459 0.039847944 0.014382801 0.109500155
0000d0 13 1d 0b 3d 16 07 73 3c fd 13 54 3d 41 42 bf bc
       0.033963274 0.014833232 0.051776875 -0.023347022
0000e0 f1 3f 0e bc 65 15 64 3d 19 1a d4 3d 0f 96 23 ba
       -0.008682237 0.055684466 0.1035654 -0.0006240317
0000f0 fa 41 ce 3c 38 ad b6 bc 37 fe 49 3a 3a 69 50 3c
       0.025177944 -0.022299394 0.00077054225 0.0127204005
000100 a4 19 84 bd be 53 35 3b e0 71 50 3d d3 66 b0 3d
       -0.06450203 0.0027668322 0.05088985 0.08613362
000110 ef da 27 bb f0 24 34 bd 2c cb f0 bc 44 a5 d3 bb
       -0.0025612672 -0.04398054 -0.029393755 -0.00645891
000120 67 73 57 bc ad 20 e0 3d 9f 43 2d bd 7d 16 05 ba
       -0.013150073 0.109437324 -0.042300817 -0.00050768984
000130 6a 1b f7 3a 51 4a e9 3b 8b e3 ae bd b0 92 e5 3d
       0.0018852775 0.007119455 -0.08539494 0.11209619
000140 12 38 f3 3d 23 2b f0 3d 89 8a f5 3d c7 c8 5c 3d
       0.11875929 0.11726978 0.11989314 0.053902414
000150 4c 41 f9 3c 9e bb 9f 3d 6e fa 91 3d ab 52 92 3c
       0.030426644 0.07799457 0.07127844 0.017861685
000160 e2 d7 a7 3d 86 e8 c2 3d 34 cc 24 bd ff e1 8c 3d
       0.08195473 0.095170066 -0.040233806 0.06879043
000170 b4 83 0f 3e a1 ae 07 bc 95 f8 e0 3d 8f 3d 10 3e
       0.14015085 -0.008281381 0.10984913 0.14085983
000180 d7 4f c5 3d 3b e5 4e bc 12 a5 e0 3d 6f ed 8a 3d
       0.09634369 -0.012627895 0.10968985 0.06783568
000190 7c 6d 59 bc 9a 51 7e 3d 7c 9f 00 bd 02 79 b4 3d
       -0.013270732 0.06208954 -0.031402096 0.08812143
0001a0 43 89 fd ba 12 5e a3 3c 0e f8 b5 3d ad 7e d4 bc
       -0.0019343275 0.019942317 0.08885203 -0.02593931
0001b0 e4 15 d7 3b b1 4a ee bc 1a 53 05 bd f0 d8 99 3d
       0.006563889 -0.02908835 -0.032549955 0.07512081
0001c0 fd 1a 78 3d b6 e3 b5 3b f9 27 32 bd ca ed 9f bc
       0.060572613 0.005550827 -0.043495152 -0.019522566
0001d0 dd 79 84 3d b3 92 15 bd 50 02 d0 bc ab eb 1f bc
       0.06468556 -0.036516856 -0.025391728 -0.0097607775
0001e0 5c e0 b8 bb 7a 75 b5 bc 21 db 7e 3d 58 47 57 3d
       -0.00564198 -0.022150744 0.062220696 0.052558273
0001f0 ce a3 c8 bc 59 f2 87 3d 70 b4 4d 3b b3 7e 81 3d
       -0.02449217 0.06638021 0.0031388067 0.06322994
000200 dc 07 f8 3d 32 6c 8c bd 47 69 63 3d cb 58 a6 3d
       0.12110874 -0.06856574 0.055520322 0.08122405
000210 7b cd 23 3d f9 07 c9 3d 2f 59 72 ba d5 57 c8 ba
       0.039990883 0.09815974 -0.0009244857 -0.0015284965
000220 4f b9 8a bb d7 93 27 bc 29 be 96 3c a2 db 56 3c
       -0.0042335163 -0.010228119 0.018401222 0.013113888
000230 fa 0e ac 3d 31 fb 0b 3d fe f8 84 3c 83 01 17 bd
       0.08401294 0.0341751 0.01623201 -0.036866676
000240 dc 6a 12 3e 65 71 1b bd 82 ba ee 3b cc 8d ca bc
       0.14298576 -0.03794994 0.007285417 -0.024725817
000250 d6 68 f9 3d 91 fb d5 3c 35 f2 f8 bc 64 fd 2c 3e
       0.12178199 0.026120933 -0.03038893 0.16893536
000260 7e 06 5f 3b ca 7f 81 bc 49 08 13 bd 68 e0 38 bc
       0.003403097 -0.015808005 -0.035896573 -0.011283971
000270 bb 2b 20 3d f6 51 bc 3d 3b 2c 7e 3d 47 1b 3a bc
       0.039104205 0.0919532 0.0620539 -0.0113590425
000280 25 b7 c8 3c 3c ad ba bc 6b 75 0a bc 72 28 11 3d
       0.024501393 -0.022787683 -0.008450846 0.035438962
000290 9c e7 98 3c 6d 2c e5 bb ad 4e 88 3d db 4b 0e 3e
       0.018665127 -0.0069938214 0.06655631 0.13896124
0002a0 2a 64 36 3b cf 9a 25 bc 68 88 61 bd 39 9c 0c bc
       0.0027830699 -0.01010771 -0.055061728 -0.008582168
0002b0 0b 61 4b bd 9d 34 9a 3c d3 1c 25 bd 1b e3 3d 3b
       -0.049653094 0.018823916 -0.040310692 0.0028974477
0002c0 f6 3f 71 3d fe bc 14 bc 30 01 71 3d 92 aa c2 3c
       0.05889889 -0.009078262 0.058839023 0.023762975
0002d0 2c 1f ac 3d 33 6c a2 3d 85 31 2b 3d cb 32 31 3d
       0.08404383 0.079307936 0.041795272 0.04326133
0002e0 57 f5 80 3d a5 8b e5 3c ab e2 42 3c bf e8 b5 3c
       0.06296795 0.02802069 0.011894862 0.022205709
0002f0 40 e9 88 3c c6 9f ac 3d 64 43 61 bd ba ed 17 3e
       0.016712785 0.08428912 -0.05499591 0.14836779
000300 ce fb 80 3d 75 37 a3 bc de 06 88 3d c2 0a 07 3e
       0.06298028 -0.019923905 0.06641935 0.13187698
000310 26 47 81 3d 0e b9 70 bc 5b f8 f7 3d c0 96 b9 bc
       0.063123986 -0.014692558 0.12107917 -0.022654891
000320 da 6a 30 3c e4 95 95 bd a0 61 2d 3d cb 95 27 3d
       0.010767663 -0.0730398 0.04232943 0.040914338
000330 f9 d2 13 3c 60 27 7f bd 41 19 9a 3c 2f b9 8a ba
       0.009022468 -0.06229341 0.01881087 -0.0010583753
000340 95 65 01 bd eb 76 f4 bc eb 40 46 3d b2 0d 86 bd
       -0.031591017 -0.02984186 0.048401754 -0.06545581
000350 26 09 09 3d 80 13 9a 3c b7 e8 09 3d 04 58 4c 3d
       0.03345599 0.018808126 0.0336692 0.049888626
000360 26 13 52 bc fd fe 2f 3c 5b f1 89 ba 12 41 b4 3c
       -0.012821948 0.010741946 -0.00105242 0.022003684
000370 2a 2c 4f 3d 83 ea 5b 3d 14 61 8a bc 03 b5 e8 bc
       0.050579228 0.053690445 -0.016891994 -0.028406626
000380 e0 d6 75 3c 17 ae ed bb 15 82 f4 bc 76 60 ad 3c
       0.0150048435 -0.007253419 -0.029847184 0.02116416
000390 a7 0c 8a 3c 43 ef 03 bc bc 1f 05 3c 1d bb e8 bd
       0.016851736 -0.00805265 0.008125242 -0.11363814
0003a0 a4 4a 65 bd 74 8c c2 bc 8a d4 dd bc d6 34 63 3c
       -0.055979386 -0.023748614 -0.027078886 0.013867578
0003b0 67 f5 ff 3c 76 f5 04 3d 31 02 8b bd a9 e2 67 3d
       0.031244947 0.032460652 -0.06787527 0.056612644
0003c0 a7 a2 84 3b 59 0d d6 bd e5 f9 13 3d bd 1b 85 ba
       0.00404771 -0.104517646 0.03612699 -0.0010155361
0003d0 70 44 ce bd 25 fc 84 3c 59 cd 84 bd 30 9a 05 3d
       -0.10071647 0.016233513 -0.064844795 0.032617748
0003e0 04 41 16 3d 77 9b 4b bd 0c 11 cb bc df c0 c7 bc
       0.036683097 -0.04970881 -0.024788402 -0.02438396
0003f0 3a 06 1b 3d cb 7e cd 3b b9 70 06 bc 75 19 43 bd
       0.037847735 0.0062712184 -0.008205586 -0.0476317

fc.1.bias f4 [100]
000000 f5 0c dd 3c ec ac 07 3d e6 e3 fa ba 67 2c 2e bd
       0.026983717 0.033123896 -0.0019141405 -0.042522814
000010 a9 0f d9 3c 43 65 a6 3c 0b 7a 15 3c 1f d0 bc 3c
       0.026496725 0.020311957 0.009123336 0.023048459
000020 c4 38 ff 3c b2 1b 27 bd be a0 50 bd 59 b4 8a 3c
       0.031154998 -0.040797897 -0.050934546 0.0169317
000030 97 fa 24 bd 0f 2a 62 bd a7 58 8c 3c 3b c6 07 bd
       -0.040278044 -0.05521589 0.017132116 -0.03314803
000040 ad 7a 78 bd 88 0d f8 bc ad 3d 8f 3c b0 16 af 3c
       -0.060663868 -0.03027989 0.017485464 0.021373123
000050 32 f5 3d bd c7 24 2a bd 0e b0 52 bd 90 bd c8 3c
       -0.046376415 -0.04153898 -0.05143743 0.024504453
000060 df 49 9e 3c 2e 22 51 bd 2f 79 05 bd 66 3b 33 3c
       0.019322334 -0.051057987 -0.032586273 0.010939455
000070 f3 14 9e 3c 07 07 36 3c 99 9d 42 bd 27 fe 72 bd
       0.019297099 0.011110074 -0.047513578 -0.05932441
000080 37 61 1f bd 66 a6 37 bd e4 f5 18 3d 2d 2d c5 3c
       -0.03891107 -0.044836424 0.037343875 0.024069393
000090 6c 48 1d bd 90 72 d4 3c 4a c0 47 bd c7 5a 82 bd
       -0.038399145 0.025933534 -0.048767366 -0.06364971
0000a0 9c 83 15 bd c9 e7 e6 3c 9c fc 49 3c 9b 22 e5 3c
       -0.036502466 0.028186696 0.012328293 0.027970603
0000b0 27 62 4a bd 74 ad 15 3c e7 95 d7 3c 00 c9 6d bd
       -0.04941001 0.009135593 0.026316596 -0.058053017
0000c0 b4 42 77 3c 48 db 38 bd 0d 6f 93 3b 0c e5 22 bd
       0.015091587 -0.045130998 0.0044993223 -0.039769217
0000d0 53 60 d3 3c 18 ab c6 3c 0a be 32 bd ae b9 23 bd
       0.025802767 0.024251506 -0.043638267 -0.039972
0000e0 91 d9 8e bd 00 64 89 bd 57 97 44 bd 08 56 73 bc
       -0.06975091 -0.067085266 -0.04799589 -0.014852054
0000f0 b8 8c c7 3c ad 54 1a bd c6 48 52 3c 93 8b 8c bd
       0.024359092 -0.03767841 0.012834733 -0.06862559
000100 75 34 ba 3c 2d 4a 37 bd 68 69 b4 3c ab 05 d9 3c
       0.022730092 -0.044748474 0.022022918 0.02649196
000110 36 29 af 3c 4e 38 e6 bc d5 36 8e 3c e1 29 83 bd
       0.021381956 -0.02810302 0.01736013 -0.06404472
000120 c6 a4 69 bd 2e 47 9b 3c 9c 03 c4 3c 6b 40 39 3c
       -0.057041906 0.01895484 0.023927502 0.011306862
000130 ea 2a c7 3c bf 0d cf 3c ee 47 0c bd 5a de cb 3c
       0.024312455 0.02527511 -0.034248285 0.024886299
000140 e8 51 c3 3c b9 e5 14 bd 0e 4c 01 3d 77 76 35 bd
       0.023842767 -0.036351893 0.031566672 -0.04430243
000150 c3 ba e8 3c 81 ca 8a bd d1 f1 3b 3c f1 8c ae 3c
       0.028409367 -0.06776906 0.011471228 0.02130744
000160 9f 6f 55 3c ab 11 c4 bc c6 c6 1f bd 29 7c 92 3c
       0.013027101 -0.023934206 -0.039007924 0.01788147
000170 5f 16 bc 3c de f6 73 3c 2d ff 38 bd ac ad 72 bd
       0.022959886 0.014890401 -0.04516523 -0.059247658
000180 13 7a fc 3c 72 71 bd 3c 9e 1b 80 bd c8 5b 32 bd
       0.030819928 0.023125384 -0.062552676 -0.04354456

fc.2.weight f4 [100, 100]
000000 fe bc a3 3d 06 59 14 3d 76 00 4f bc 7f 77 c4 3c
       0.07995032 0.036217712 -0.012634387 0.023982761
000010 6c 30 99 3d 62 b0 f2 3d 4f c4 05 3e 42 1d 80 3d
       0.07479939 0.118500486 0.13063167 0.062555805
000020 eb ab 76 bc 5b e7 6e 3c 4c 9e a0 3c 4e 94 b0 3d
       -0.015055637 0.014581527 0.019606732 0.08622037
000030 1b 39 ec 3b fb 43 fb 3b 43 42 e4 3d 00 0c ca 3c
       0.007208956 0.007668016 0.11145451 0.024663925
000040 57 72 08 3d 79 d5 93 3c 28 73 cd 3d 53 de f8 3d
       0.033312168 0.018046128 0.1003173 0.1215178
000050 ae 3d 1c bd 15 fe 9f bc 87 d0 cd 3c 93 0e f8 3a
       -0.03814476 -0.019530335 0.025123848 0.0018925242
000060 e6 3d 84 3d a6 39 c9 bb f8 cd c1 bc 5f cc ec 3d
       0.06457119 -0.0061409054 -0.023657784 0.11562418
000070 87 ce df 3d 03 ae e9 3d 58 bc 73 3c 6b a5 e7 3c
       0.10928064 0.11410143 0.014876448 0.02827712
000080 3d 44 a4 3b 44 bf a9 b7 4d e7 00 bb bb 23 d8 3d
       0.0050130174 -2.0235435e-05 -0.0019669116 0.1055369
000090 44 28 ec 3c 52 fe d4 3c 02 89 b5 3c 2b ab c9 bc
       0.028827794 0.026000176 0.022160057 -0.024617752
0000a0 84 09 ec bc ec 7d b9 3d 84 4f b9 3d 65 eb 12 3d
       -0.028813131 0.09057221 0.090483695 0.03586902
0000b0 aa 7a 96 bc 31 17 9f 3d 4b 17 90 3d f8 8a 90 3c
       -0.018369038 0.07768095 0.07035693 0.01764439
0000c0 ed e7 f0 3c 94 7a 5e 3b ea 22 9e bc dd d9 8f 3c
       0.029407466 0.0033947574 -0.019303758 0.01755994
0000d0 b8 6c 3f bc c2 8c 2e 3d ac 17 f0 3c b0 01 e2 bb
       -0.011683635 0.042614706 0.029308163 -0.006897174
0000e0 de c4 19 3d bf 45 43 3d ec 3d 95 3c 2b 75 c3 bc
       0.037541263 0.047673937 0.018218003 -0.023859581
0000f0 7f d6 9b 3d d1 87 c6 bc de 56 fd 3d 1a 85 47 3d
       0.07609271 -0.024234684 0.12370084 0.04871092
000100 73 56 f3 3c 02 14 6f 3b 26 b5 73 3d ab 11 13 3d
       0.029704308 0.0036480431 0.05949893 0.03590552
000110 fc 1e ee 3d 4a 5d 87 3c 48 ab 26 3e 6e 2a 94 3c
       0.116270036 0.016523976 0.16276276 0.018086638
000120 cc 87 fb bc 72 b3 10 3d 1a d2 54 bd 9f 56 a5 3c
       -0.030704401 0.035327382 -0.05195818 0.020182906
000130 b2 37 44 3d 89 86 78 3d 73 a6 31 bc d4 b5 3d b9
       0.047904678 0.060675178 -0.010842907 -0.00018092181
000140 e3 7d 9d 3d f0 55 09 bd 76 d5 2c 3d f3 12 be 3c
       0.076900266 -0.033529222 0.04219576 0.023202395
000150 55 5f 83 3c 70 c2 68 3d 2e 96 9b 3d d1 a7 45 3d
       0.016036669 0.056826055 0.07597004 0.048255745
000160 4f 30 e9 3d 25 f4 89 3c 63 ea 1a 3d 70 36 99 3d
       0.11386167 0.01684005 0.037821185 0.07481086
000170 5d a8 9a 3d 7b 70 94 3d bb 02 d1 3b ae 7a 1e 3c
       0.07551644 0.072480164 0.0063784993 0.009672804
000180 8a d2 ca 3c 5a 06 b8 3c 2e 91 7e 3c 2e 2e 34 bd
       0.024758596 0.022463966 0.015537543 -0.043989353
000190 bc fb f9 bd 8e bd 8f bc 57 4b 61 bd 33 26 dd 3c
       -0.12206218 -0.017546441 -0.05500349 0.026995754
0001a0 d3 a1 82 bd 58 2c 13 be 4f 40 8b bd 3c 20 cd bd
       -0.06378522 -0.14372385 -0.06799375 -0.10015914
0001b0 ab 66 5e bd 37 0f d9 ba ca 30 cb 3c 21 1b e0 bd
       -0.05429713 -0.001656032 0.024803538 -0.109426744
0001c0 8e ed 0b 3d 32 e1 13 3d e2 f1 f2 bd 96 0c 89 bc
       0.034162097 0.036103435 -0.11862542 -0.016729634
0001d0 80 bd 72 3d 34 98 14 3a f7 43 a7 bd 64 c3 82 bd
       0.059262753 0.0005668432 -0.0816726 -0.06384924
0001e0 ce b5 02 3c 35 36 8e 3c 67 4f af 3c e9 ff 32 3c
       0.007977916 0.017359832 0.021400167 0.010925272
0001f0 88 f3 9d bd 30 7e dc bc 53 ac 54 bc 10 6b e4 bd
       -0.077124655 -0.02691564 -0.012980538 -0.11153233
000200 da 18 d8 bd 90 c4 49 bd 56 88 7d 3c 15 4c 92 3c
       -0.10551615 -0.049259722 0.0154744 0.017858544
000210 89 85 74 3c 03 f1 57 bc cc 34 06 bd 63 50 b8 bd
       0.014924415 -0.01318002 -0.032765195 -0.089997075
000220 b9 69 36 3d 12 16 b6 bc ed c1 9a 3a 0e fa 99 3d
       0.04453442 -0.02222732 0.0011807062 0.07518397
000230 43 cd 16 bd 7a 22 8f bd 90 91 9e bd 8d c5 7d bc
       -0.036816847 -0.06988998 -0.077426076 -0.015488994
000240 d4 55 c9 3c 4a 90 87 bd 9c ae 4c bd 25 71 71 3c
       0.024577059 -0.06619318 -0.049971208 0.014736448
000250 ce 6b cf bd 03 09 4a b9 3a 7f 24 bc e0 a3 24 3d
       -0.10127984 -0.00019267578 -0.010040099 0.040195346
000260 20 60 aa 3c 4f 40 c3 bd d3 89 8e bb 0e a6 6e 3c
       0.02079779 -0.0953375 -0.004349926 0.014565958
000270 d1 ea 1e 3d e6 6d 78 3c da 5c 45 3d 96 b8 47 bd
       0.038798157 0.015162921 0.048184253 -0.04876002
000280 ee 23 cf bd c7 e6 03 bd 86 56 53 bd d4 29 4d 3d
       -0.10114275 -0.03220251 -0.051596187 0.05008872
000290 45 fe 09 bd 0e ee 28 39 40 cd ca bd 61 bc 12 bd
       -0.033689756 0.00016110411 -0.099024296 -0.035824183
0002a0 05 57 c2 bd a6 55 1f 3b c8 21 01 be df 16 89 3c
       -0.09489254 0.0024312525 -0.12610543 0.016734539
0002b0 17 ae 93 3c b8 2a 84 bd 3d 3d a3 bc d5 e6 e2 bd
       0.018027348 -0.064534605 -0.019926662 -0.11079184
0002c0 bb 9f e4 bc 1c e5 3a bd e3 9f dc ba 3b e9 7a bd
       -0.027908197 -0.045628652 -0.0016832318 -0.061257582
0002d0 32 5d e6 bc a7 dd f0 bb 54 af c9 bd aa 65 40 3d
       -0.02812061 -0.007350642 -0.09847894 0.046971954
0002e0 f8 49 48 bd 4b 9b 9f 3d f2 bd cd bd ef 43 bf bd
       -0.048898667 0.07793292 -0.10045995 -0.09339129
0002f0 e2 44 e7 bd f2 ed 1f 3c 8c d6 57 3d 0b 33 ab bd
       -0.11292435 0.00976132 0.052694842 -0.08359345
000300 28 e3 fd bd 0c 2e b7 bd 5b 3e a6 bb f7 8d e7 3c
       -0.12396842 -0.089443296 -0.0050733513 0.028265936
000310 58 9e bf bc 02 ff 9f bd 8a 6f 22 bc 76 8d db bc
       -0.023390934 -0.07812311 -0.009914288 -0.026800852
000320 36 8f ca bd 29 24 1f bd 99 1c 87 bc 1b 5d bd 3c
       -0.098905966 -0.038852844 -0.016493129 0.023115685
000330 8a 48 84 bd 4c de bb bd 2b ba 85 bd b9 8c 6c bd
       -0.06459148 -0.09173259 -0.06529649 -0.05775139
000340 b3 ea ce bc 99 ae 15 3d 4f 15 1a 3c 96 78 f7 bd
       -0.025258398 0.036543462 0.009404494 -0.12083547
000350 22 f7 01 3c 66 f2 4e 3d 15 f7 bb bd da c0 33 bc
       0.007932456 0.050524138 -0.091779865 -0.010971272
000360 ee c4 0f 3d 7e c2 ed 3c 58 b8 3f bd 18 3b be bd
       0.035099916 0.029023405 -0.046806663 -0.09288615
000370 12 77 ce 3c 27 96 85 3b fd 79 15 3c b0 01 08 3d
       0.025203262 0.0040767374 0.009123323 0.033204734
000380 4f c1 4f bd df a7 2f 3c f5 31 73 3c 32 e4 d0 bd
       -0.050721463 0.010721176 0.014843454 -0.10199775
000390 51 d3 9e bd 61 4c 8d bd d8 d3 58 3d b4 96 8d 3c
       -0.07755149 -0.06899334 0.052936405 0.017283775
0003a0 38 fe a9 3a fc 6f 5d bc ae be 79 bc 6e af ae bd
       0.001296944 -0.013515469 -0.0152432155 -0.08529554
0003b0 aa 76 9a bc f4 ef 52 bd d9 71 c4 3c 4f f4 de 3c
       -0.018855412 -0.05149837 0.023980068 0.027216105
0003c0 1a 6b 99 3c e9 7a 79 bd 56 57 8d bd 84 51 28 bc
       0.018727828 -0.060908232 -0.06901424 -0.010273341
0003d0 de f8 28 bb 21 4e ff bd f4 d1 ca bd bf 43 57 3d
       -0.0025783102 -0.12466074 -0.09903327 0.052554842
0003e0 04 3a ed bd f1 db d1 3c 52 55 0d bd e6 c5 51 3d
       -0.11583331 0.025617572 -0.034505196 0.05121412
0003f0 18 d4 94 3c 5a db b8 bd db b0 31 3c f8 34 a9 3c
       0.01816754 -0.09026213 0.010845388 0.02065514

fc.2.bias f4 [100]
000000 1f 31 fc 3c 1d 3f ed bc 36 1e fd bc 2d 07 f5 3c
       0.030785142 -0.028960759 -0.030898195 0.029910648
000010 91 ed ec bc 94 6a ff 3c 08 71 fb 3c 1f db f9 3c
       -0.028921874 0.03117875 0.030693546 0.030499993
000020 b3 c9 fb bc 76 48 07 3d 0b 63 0e 3d 25 18 08 3d
       -0.030735826 0.03302809 0.034762423 0.03322615
000030 85 4f f7 3c ff e5 e8 bc 7d e0 fe 3c 15 4e 01 3d
       0.030189285 -0.028429983 0.031112904 0.031568605
000040 0e 95 e1 bc 58 7b cb 3c 1c ed f3 bc ed 81 01 bd
       -0.027536895 0.024839088 -0.029776148 -0.031618048
000050 e1 be f6 bc 4c 9c f5 bc cc e7 00 3d 0a 03 f0 3c
       -0.030120315 -0.029981755 0.03147106 0.029298324
000060 80 ce d9 3c 66 4c f3 3c 56 fc f8 bc 57 75 04 3d
       0.026587725 0.029699516 -0.03039376 0.032338466
000070 7b ff fa bc f2 9f 05 bd 92 d6 f1 3c bd 1f fb bc
       -0.0306394 -0.03262324 0.02952126 -0.030654782
000080 06 9b f9 3c 7b f7 fc 3c 71 a5 07 3d df a6 ff 3c
       0.030469429 0.030879727 0.03311676 0.0312075
000090 2d 4a 0b 3d aa 9e 07 bd d4 6f 00 bd 36 f4 03 3d
       0.034006286 -0.0331103 -0.031356648 0.03221532
0000a0 e6 54 f2 3c 49 ab 02 3d bb a2 fa 3c 1a 7a 05 3d
       0.029581498 0.03190163 0.030595174 0.03258715
0000b0 43 fb 00 3d 55 fc 00 bd 37 41 02 3d 7e 7e ea 3c
       0.03148962 -0.031490643 0.031800475 0.02862477
0000c0 11 00 ef bc 76 3d f7 bc c9 d0 03 bd 11 ed ef bc
       -0.029174836 -0.030180674 -0.032181535 -0.029287847
0000d0 e3 70 0e bd 91 83 f1 bc 7b a3 fb bc 06 37 04 3d
       -0.034775626 -0.029481681 -0.030717602 0.032279037
0000e0 77 5a ef bc 34 a9 ef 3c c4 56 02 bd 41 a1 03 bd
       -0.029217942 0.029255487 -0.031821027 -0.032136206
0000f0 ff 15 04 3d 83 7c f6 3c 4f a1 ef 3c 7f af f4 bc
       0.03224754 0.030088669 0.029251723 -0.02986884
000100 3c f8 ef bc 87 b5 0d 3d 2e e4 0e 3d e1 9a 0e 3d
       -0.029293172 0.034596946 0.034885578 0.034815673
000110 7e ae 00 bd cb 5b e2 3c 0c 89 f6 bc ed aa 03 bd
       -0.03141641 0.02763166 -0.030094646 -0.03214543
000120 18 67 05 3d 15 6f 0a bd d3 33 f4 bc 3a f7 f6 3c
       0.03256902 -0.033797342 -0.029809868 0.030147184
000130 af d6 e6 3c fe 2d 05 3d 74 ef d3 3c 2f 6e fd 3c
       0.028178541 0.032514565 0.025871016 0.030936329
000140 92 d6 03 3d 5f 44 05 3d 05 04 09 bd c8 1f f6 3c
       0.032187052 0.032535907 -0.0334511 0.030044451
000150 95 59 02 bd a6 08 0a 3d aa 7d e0 bc 5d b7 03 bd
       -0.031823713 0.033699654 -0.027403671 -0.03215729
000160 41 84 00 3d 1c 58 06 3d 4e e1 01 3d 6d 50 05 bd
       0.031376127 0.03279887 0.031709008 -0.032547403
000170 b9 26 05 bd 37 ea 05 3d d3 95 df bc 32 d3 01 bd
       -0.032507632 0.032694068 -0.027293121 -0.031695552
000180 bb 12 f9 bc 90 f3 01 3d a2 c2 fb bc 33 3b 03 bd
       -0.03040444 0.03172642 -0.030732457 -0.03203888

fc.3.weight f4 [100, 100]
000000 b3 40 06 bd 60 f6 b2 3c bd 38 73 3c d6 55 35 bc
       -0.032776546 0.021845996 0.01484507 -0.011067828
000010 6d 01 85 3c d7 6b fc 3c 69 ec 86 bc 08 39 3a bb
       0.016236031 0.03081314 -0.016470151 -0.002841534
000020 94 16 66 3c 6a 2c 8e bc a0 e5 20 bd 39 78 21 bd
       0.014043469 -0.017355163 -0.039281487 -0.039421294
000030 af 2e 0b 3c 8c a4 50 3c 6a ae 3a bd cc 05 85 3c
       0.008495017 0.0127345435 -0.04557649 0.016238116
000040 ba c6 f3 3c aa 85 45 bd 67 7d 48 3c ed 6c 13 bc
       0.029757846 -0.048223175 0.0122369295 -0.008998138
000050 b3 54 6f bb 6a 53 f6 3b 8e 4a c6 3c 1a 2e 85 bd
       -0.003651899 0.007517268 0.024205472 -0.06502934
000060 ee 4a a8 3c 3d c4 75 bb ff 72 b1 bc 9f 5f ba bb
       0.020543542 -0.0037501 -0.02166128 -0.0056876685
000070 f1 3b 81 3c d6 7a 01 3d 39 f6 76 bd 26 95 8a bc
       0.015775653 0.031611286 -0.06029341 -0.016916823
000080 58 70 1f bd a0 7f 64 bc db f9 aa bd df 53 57 ba
       -0.0389255 -0.013946444 -0.083484374 -0.0008214097
000090 18 ca d9 3c 15 23 6d bb 8a 60 e1 3c 70 b3 70 3c
       0.026585624 -0.003618424 0.027511854 0.014691219
0000a0 d3 63 91 bc e4 a0 6f bd 23 d9 47 bd 31 9b 1c bd
       -0.017747795 -0.058503047 -0.048791062 -0.03823394
0000b0 07 cd cf 3a cb 93 0c 3d f6 28 4d bd 3f f7 ca bc
       0.001585395 0.034320634 -0.05008789 -0.0247761
0000c0 0b 92 c7 3c c0 fb f7 bc 5c 6b 7e 3b 1e a0 d9 3c
       0.02436163 -0.030271411 0.0038821315 0.026565608
0000d0 76 91 13 bb ba 03 9e 3c 22 92 fa 3b 92 a6 c0 bc
       -0.0022517121 0.019288886 0.007646815 -0.023516927
0000e0 1b 24 a9 3b 5a 25 a3 bc 80 85 b8 bc 1d e8 08 3d
       0.005161775 -0.019915272 -0.022524595 0.033424485
0000f0 9d 97 95 bc 12 93 44 3d 85 86 d8 bb 30 7b 37 3d
       -0.018260771 0.04799182 -0.006607833 0.044795215
000100 52 cf 93 3c b5 09 10 bd 1c b5 4f bd 4e b5 41 3b
       0.018043194 -0.035165507 -0.05070983 0.002955753
000110 c6 54 58 3c 87 0d d8 b9 08 ff 7d 3c 77 9f 05 3d
       0.013203805 -0.0004120881 0.015502699 0.03262278
000120 20 6e 51 bc 51 dc 86 bc eb c4 83 3c 1b c5 ee bc
       -0.0127826035 -0.016462477 0.016085109 -0.029146722
000130 29 83 b7 bb 54 79 82 bb ad 9a 01 3b 04 72 32 bd
       -0.0056003523 -0.0039817486 0.0019776032 -0.043565765
000140 3e a2 f4 3b 27 c2 ec bc 15 bb 5d 3c 9a b6 1d bd
       0.00746563 -0.028901173 0.013533373 -0.03850422
000150 cd 33 9c 3c 89 e4 7d bc b8 f4 b5 bc 98 41 6e bc
       0.01906767 -0.015496382 -0.022211418 -0.014542006
000160 66 ce c7 ba ce 14 68 bc a5 54 0c bb cf 46 dc bb
       -0.0015244007 -0.0141651165 -0.0021412757 -0.006722308
000170 23 e7 55 bb 37 89 c8 bc ce d3 61 bc 9c 59 dc ba
       -0.003263899 -0.024479492 -0.013783408 -0.0016811374
000180 94 b0 b5 3a ef b6 0f bd cd 90 41 3c a8 ad db 3a
       0.0013861828 -0.03508657 0.011814308 0.0016760128
000190 e3 88 a9 bd b2 3b ac 3d 5d 0a 18 3d 57 23 4a bd
       -0.08278062 0.084098235 0.03711926 -0.04935011
0001a0 95 51 6a 3d 52 5e 07 bd 48 33 d1 bd 49 bd 7e bd
       0.05720671 -0.033048935 -0.10214859 -0.062192235
0001b0 77 9e 99 3d 5d 19 43 bd 85 de 5a bd 01 5e 8c bd
       0.07500928 -0.04763161 -0.053434867 -0.06853867
0001c0 37 d9 82 bd c0 d6 90 3d 30 62 cd bd e2 26 c2 bd
       -0.06389087 0.0707221 -0.100284934 -0.094800726
0001d0 5d 9f 8d 3d be 73 ff bd 4f 9b 80 3d 50 18 91 3d
       0.06915162 -0.12473248 0.06279623 0.07084715
0001e0 64 f5 55 3d 99 2c 76 3d 00 13 87 bd d6 f7 8d bd
       0.052235976 0.060101125 -0.06595421 -0.069320366
0001f0 f2 05 4e bd e9 0d 54 bd 58 e4 b9 3d 8f c6 84 bd
       -0.05029864 -0.05177108 0.09076756 -0.064831845
000200 9f 6b 88 3d 87 4b 94 3d 71 f7 4c bc ba f8 b1 3d
       0.06661152 0.07240968 -0.0125101665 0.08690019
000210 70 f5 96 bd 4a 02 89 bd fc 44 c4 bd 8a 9b a9 bd
       -0.07371032 -0.0668989 -0.0958347 -0.0828162
000220 12 93 77 bd 2c ec 48 3d f9 97 73 3d 9d 82 8f bd
       -0.06044299 0.049053356 0.059471104 -0.070073344
000230 f9 c3 84 bd eb 64 a9 bd 68 71 84 bd 52 20 99 bd
       -0.06482691 -0.08271202 -0.06466943 -0.07476868
000240 d5 ef 54 bd db e9 9a 3d 2b af 95 bd 1d 6d 91 bd
       -0.051986534 0.07564136 -0.07308801 -0.0710089
000250 80 c4 1c 3d 15 55 8f 3d a3 63 b5 3d 13 34 34 3d
       0.038273335 0.0699865 0.08856895 0.043994974
000260 32 40 66 3d d6 42 85 3d 97 0f 86 3d 27 b2 7f bc
       0.056213565 0.065068886 0.06545942 -0.01560644
000270 36 cf 78 3d fe 33 88 bd 5b a4 9e 3d ce 13 69 3d
       0.060744487 -0.06650542 0.07746192 0.056903653
000280 04 fc b2 bd a6 05 90 bd fd dc 9e bd 99 ad bd 3d
       -0.087394744 -0.07032327 -0.07756994 0.09261627
000290 69 30 b2 3d 9c 46 87 bd b6 86 89 bd c0 f7 96 bd
       0.0870064 -0.066052645 -0.06715147 -0.07371473
0002a0 43 cb 41 3d 5f 2d 8e bd 33 b4 41 3d a7 23 75 3d
       0.047312986 -0.069422476 0.047290992 0.059848454
0002b0 7e ba 89 bd b3 39 07 3d d0 7f 41 3d 99 a5 6b bd
       -0.06725024 0.03301401 0.047241032 -0.057530973
0002c0 7e 8e 95 bd a9 b3 c8 bc ef 21 6f bd 7a 6a ab bd
       -0.07302569 -0.024499731 -0.05838197 -0.08369918
0002d0 52 ef 96 bd 8e 07 c1 bd 47 3e 14 3d f6 5c ab bd
       -0.073698655 -0.09425269 0.036192205 -0.0836734
0002e0 19 ba b4 3d b1 d9 a6 bd 1d 7a ad 3d 09 9d 6b 3d
       0.08824558 -0.0814699 0.08470557 0.057522807
0002f0 77 77 b6 bd 8d 0d a1 bd 84 05 be bd 02 be c2 3d
       -0.08909505 -0.07863913 -0.09278396 0.09508897
000300 45 dc 43 3d 61 26 9f bd a1 8f 98 3d 00 e5 2d 3d
       0.047817487 -0.07770992 0.0744927 0.04245472
000310 6b 9e 88 3d 59 92 74 bd 07 28 c2 3d 5c 8c 78 3d
       0.06670841 -0.05970988 0.09480291 0.060680732
000320 d3 b3 a2 bd 19 a2 82 3d 1f 6d 82 3d 09 e8 b1 bd
       -0.07944455 0.06378574 0.063684694 -0.08686835
000330 e0 c8 6a 3d ec 4c a0 bd c0 a1 77 bd 64 aa a5 bd
       0.057320476 -0.07827172 -0.06045699 -0.0808914
000340 82 42 da 3d 94 c1 2c bd 5a 72 d5 bd d4 d0 a2 bd
       0.106572166 -0.042176798 -0.104222015 -0.07949987
000350 da 5d ca bd 66 d6 de 3d d2 5b 51 bd fc 87 a0 bd
       -0.09881182 0.10880737 -0.051112957 -0.07838437
000360 40 20 3c 3d d0 c2 ad bd 61 0c 95 3d 61 92 e9 3d
       0.045929193 -0.08484423 0.07277752 0.11404873
000370 62 f5 93 3d c2 59 93 3d 2d a4 8f bd c0 fc 82 bd
       0.072245374 0.07194854 -0.07013736 -0.063958645
000380 40 d8 69 bd 8e 92 3f bd 65 9d 4a 3d e3 f1 70 bd
       -0.057090998 -0.046770625 0.04946651 -0.05882443
000390 87 1c 90 3d f9 30 1f 3d b7 5d c2 bd 1c 31 a6 3d
       0.07036691 0.038865063 -0.09490531 0.081148356
0003a0 2a c5 cf bd 2f 97 98 bd f4 0e d3 bd 03 90 8d bd
       -0.10145028 -0.07450711 -0.103055865 -0.06912234
0003b0 1e 22 ae bd 53 1e 74 3d 9c 86 9e 3d 2f 14 8a bd
       -0.08502601 0.059599232 0.077405185 -0.06742131
0003c0 6b 34 19 bd 56 7d 86 bd 8e 38 b4 bd 4b 9a e3 bd
       -0.037403505 -0.06566875 -0.087998495 -0.111134134
0003d0 59 5f af bd 50 fc a5 3d ed 3a 25 bd f5 97 91 bd
       -0.08563108 0.081047654 -0.0403394 -0.07109062
0003e0 3c 8e b0 3d d5 f1 be 3d 2d 79 3b 3d 36 8a 8e 3d
       0.08620879 0.093234695 0.04576986 0.069599554
0003f0 97 35 69 3d f6 31 8e 3d dd f4 89 3d c1 7d b3 bd
       0.056935873 0.06943123 0.06736157 -0.0876422

fc.3.bias f4 [100]
000000 35 a9 84 bd 34 e9 ab bc 89 71 b7 bc 09 88 49 bd
       -0.06477586 -0.020985223 -0.022393005 -0.049202
000010 17 6a f2 bc 29 82 98 bd ff b3 0b bd bb c2 c3 bc
       -0.029591603 -0.07446701 -0.034107205 -0.023896566
000020 00 cc 33 bd d4 18 af bc ac 40 06 bd 71 95 01 bd
       -0.04389572 -0.021374144 -0.03277652 -0.03163666
000030 ab 5c 1f bd 69 07 c0 bc d8 08 ee bc 58 4c b0 bc
       -0.038906734 -0.023441033 -0.029056951 -0.021520779
000040 52 7e 30 bd c6 95 9b bc d6 12 a4 bc aa 4f c0 bc
       -0.04308922 -0.018992316 -0.020028513 -0.023475487
000050 4e ba 80 bd cc b1 4c bd 8b b2 b0 bc ce ae d8 bc
       -0.06285535 -0.049974248 -0.02156951 -0.02645054
000060 23 68 de bc 5f 64 c6 bc 05 8d 35 bd 08 dc 62 bd
       -0.027149266 -0.024217783 -0.04432394 -0.05538562
000070 af 01 a2 bc e0 02 ad bc 25 34 90 bc 13 a0 03 bd
       -0.019776193 -0.021119535 -0.01760299 -0.03213508
000080 e0 a9 c9 bc 4f be c0 bc 44 22 aa bc cc 9a 04 bd
       -0.024617136 -0.023528246 -0.020768292 -0.03237419
000090 46 79 cb bc be 56 f0 bc 08 f7 ab bc ba d3 9b bc
       -0.024838101 -0.029338237 -0.020991817 -0.019021858
0000a0 68 39 ed bc 2f 5a a9 bc 16 ed 36 bd 42 4f be bc
       -0.028958037 -0.020672886 -0.044659697 -0.023231152
0000b0 b5 87 46 bd 1c b0 cc bc dc fa 22 bd 9e 55 41 bd
       -0.048469264 -0.02498632 -0.03979002 -0.04720079
0000c0 1a 2b ba bc 4c 51 a1 bc 41 ad ac bc 63 bc b9 bc
       -0.02272563 -0.019692086 -0.021078708 -0.022672838
0000d0 fa 4a 95 bc 0f e2 a4 bc 0d 36 03 bd a2 d8 0e bd
       -0.018224228 -0.020127324 -0.03203397 -0.034874566
0000e0 ef 9f 81 bd 17 d6 85 bc 36 3a 33 bd b4 b0 b6 bc
       -0.06329333 -0.016337438 -0.043756686 -0.022301055
0000f0 25 41 c5 bc 1f 42 a4 bc 04 f1 22 bd ea 13 2c bd
       -0.024078915 -0.02005106 -0.03978063 -0.04201118
000100 cb 71 06 bc 8e a6 8b bd 74 40 16 bd 51 48 ae bc
       -0.008205841 -0.06818877 -0.03668256 -0.021274718
000110 a5 0c c1 bc f2 b7 9b bc c7 78 9c bc a2 fe a8 bc
       -0.0235656 -0.01900861 -0.01910056 -0.02062923
000120 69 e2 b5 bc 18 7e cc bc 53 00 90 bd 6c df a8 bc
       -0.022202687 -0.02496247 -0.07031312 -0.020614348
000130 e2 7a 70 bd c7 a1 b8 bc 59 56 bc bc 5a d1 8d bd
       -0.05871094 -0.022538079 -0.022990393 -0.06924696
000140 c1 42 a3 bc c5 73 aa bc a9 f6 bf bc e1 b1 be bc
       -0.019929292 -0.020807156 -0.023433046 -0.023278179
000150 ef 67 be bc f3 41 d0 bc 27 fb c2 bc a1 23 b4 bc
       -0.023242919 -0.025422072 -0.0238014 -0.021989645
000160 91 95 c1 bc b6 19 6c bd 86 94 b3 bc 09 ce d2 bc
       -0.02363089 -0.057641707 -0.021921407 -0.02573301
000170 39 f4 ab bc 71 af ba bc 15 66 b8 bc 9f bb c5 bc
       -0.020990478 -0.022788735 -0.022509614 -0.024137316
000180 b3 a5 94 bc 05 9b 2b bd e2 21 fb bc 43 52 86 bd
       -0.018145418 -0.041895885 -0.030655805 -0.06558659

fc.4.weight f4 [100, 100]
000000 8a a1 e3 3d a0 d7 2e be 38 74 21 be a4 50 bb 3d
       0.111147955 -0.17074442 -0.1576699 0.0914624
000010 10 c8 cb 3d 5a ad 27 3e e7 7d da 3d 1c db 53 be
       0.09950268 0.16374722 0.10668545 -0.20689052
000020 96 95 09 3e df 02 3d be 61 3c d6 3d 62 12 e7 3d
       0.13435969 -0.18458126 0.10460735 0.11282803
000030 15 e5 a4 3d 7f af 19 be 79 12 bf 3d b5 f2 6e be
       0.080515064 -0.15008353 0.09329695 -0.23334773
000040 ca 7b 36 3d 6b 32 1e be 2d bf 1a be ac 60 1b be
       0.04455165 -0.1544892 -0.1511199 -0.15173596
000050 45 14 a0 3d a9 cf 0e 3e bc 05 34 be 3f 40 a2 3d
       0.07816366 0.13946404 -0.17580312 0.0792241
000060 f1 b2 90 3d 29 07 26 be f9 d7 da 3d 62 0a db 3d
       0.0706538 -0.16213669 0.10685725 0.1069534
000070 7a 1a 31 be 97 5e 25 be c3 6d b9 3d 29 38 b8 3d
       -0.17295256 -0.16149364 0.090541385 0.08995087
000080 8c a6 c2 3d df 6d 37 be 3b 47 37 be 07 b2 f5 3d
       0.095044225 -0.17913006 -0.17898266 0.11996847
000090 34 33 19 be 30 a2 cf 3d d7 9f 36 be 42 d7 57 be
       -0.14960939 0.10138357 -0.17834412 -0.21078208
0000a0 6e fa bb 3d 6f 57 28 be 81 15 ab 3d 55 67 60 be
       0.09178625 -0.16439603 0.08353711 -0.21914418
0000b0 e7 f6 db 3d e3 b1 39 be 19 2d f7 3d 40 47 9a 3d
       0.10740452 -0.18134265 0.120691486 0.07533121
0000c0 9a bb 4d be d2 56 26 3d 76 35 46 be 5b a2 06 be
       -0.20091096 0.040610142 -0.19356331 -0.13147871
0000d0 41 21 c2 3d 7b 8c 2b be be 33 fa 3d 87 fe 8d 3d
       0.09478999 -0.16752808 0.122169 0.06933313
0000e0 c7 22 c6 3d 6d d1 90 3d 05 6c c1 3d 15 78 3b be
       0.09674602 0.07071195 0.09444431 -0.18307526
0000f0 84 fa e9 3d 5c 3b 34 be e4 71 72 3d 68 19 03 3e
       0.11424735 -0.17600769 0.059190646 0.1280266
000100 25 a1 f1 3b ad e7 0e 3e 0a df c9 3d 8d d9 28 be
       0.0073739463 0.13955565 0.098569945 -0.16489239
000110 1f b2 38 be 18 ea 2a be 4a 6a 06 be 56 1e 29 be
       -0.18036698 -0.16690862 -0.13126484 -0.16515478
000120 43 8b 34 be 45 a4 45 be 05 6f a8 3d e0 3c 01 be
       -0.17631249 -0.19300945 0.082243 -0.12620878
000130 a7 ca cb 3d 0f df 35 be 38 47 32 be f0 06 1e 3e
       0.09950762 -0.17760871 -0.1740998 0.15432334
000140 87 40 14 be 09 9a 2f be 1f f8 3c be 45 42 21 be
       -0.1447774 -0.17148603 -0.18454026 -0.15747936
000150 2d 29 3c be c8 c6 1f be 28 9d 48 be bb 99 30 be
       -0.18375082 -0.15603173 -0.195912 -0.17246144
000160 98 ac 41 be 87 06 99 3d 62 26 2d be 11 21 2f be
       -0.18913496 0.07471948 -0.16909173 -0.17102458
000170 4d c4 11 be fb 2e 3b be 72 1e f7 3d db c5 0a be
       -0.14235039 -0.1827964 0.12066354 -0.13552038
000180 a5 75 71 be ba e7 ae 3d cc 95 da 3d 0d cc 95 3d
       -0.23580034 0.08540292 0.10673103 0.0731431
000190 7a c5 15 3e 19 60 1a be 63 90 28 be 03 3c 0b 3e
       0.14626113 -0.15075721 -0.16461329 0.13597111
0001a0 25 30 69 3d a2 92 29 3e 9b 12 3d 3e 9e dc 02 be
       0.05693068 0.16559842 0.18464129 -0.12779471
0001b0 a9 6a c7 3d f6 a7 1a be ae ac 48 3e 30 da 2e 3e
       0.09737141 -0.15103135 0.19597122 0.1707542
0001c0 ee 8b bb 3d e7 80 ff bd 77 72 9a 3d a6 78 40 be
       0.09157549 -0.12475758 0.07541364 -0.18796024
0001d0 11 18 d9 3d 96 12 0b be 82 2b 28 be e7 d5 0f be
       0.106002934 -0.13581309 -0.16422847 -0.14046441
0001e0 88 57 e7 3d 21 69 03 3e b8 89 16 be 6a 26 1e 3e
       0.11295992 0.12833072 -0.14700973 0.15444341
0001f0 80 74 41 3e 01 e5 f4 bd a1 68 d1 3d 11 65 05 3e
       0.18892097 -0.119577415 0.102250345 0.13026835
000200 57 e4 09 be 9c 4b 10 be d6 56 ca 3d 53 dd e7 3d
       -0.13466011 -0.14091343 0.09879844 0.11321511
000210 36 b0 bb 3d 04 1e 13 be 50 6b 2c be b1 49 96 3d
       0.09164469 -0.14366919 -0.16837811 0.07338274
000220 b2 d3 25 be 89 b1 59 3e 6f ff 2a be 57 42 3b be
       -0.16194037 0.2125913 -0.16699003 -0.18287025
000230 62 18 1d 3e f7 09 31 be 5b f0 ed 3c e7 8e 02 be
       0.15341333 -0.17288958 0.029045274 -0.12749825
000240 1d 6e 10 3d 5a 80 05 be 7f b5 3c 3e 78 55 0a 3e
       0.035261262 -0.13037243 0.1842861 0.13509166
000250 3a a8 ea bd b3 f3 42 3d f8 13 12 be 4f 38 30 be
       -0.11457868 0.04759569 -0.1426543 -0.1720898
000260 a8 e2 15 3e 9f 99 34 be 9f 87 16 3e a6 73 bd 3d
       0.14637244 -0.17636727 0.14700173 0.09250574
000270 dc 58 b7 3d 6a c8 36 3c 9b 1d de 3d 33 3a 24 be
       0.089524955 0.011156181 0.108454905 -0.16037826
000280 9f ea 5e 3d 7a 6e 0e be db 70 8b 3d e2 c7 11 3d
       0.05442297 -0.13909331 0.06808635 0.035591014
000290 34 6f b8 3a a8 55 1d 3e 14 3a dc 3d 7f bd 0c be
       0.0014071227 0.15364707 0.10753265 -0.13744162
0002a0 42 c6 e2 bd 02 f7 2f be fb b6 27 be 3a 19 1e be
       -0.11072971 -0.1718407 -0.16378395 -0.1543931
0002b0 ea 1b 34 be 73 4f 0e be b1 26 2a 3d ae 81 e8 bd
       -0.17588773 -0.13897495 0.041540805 -0.113528594
0002c0 7f 03 24 3e 29 f3 2e be 15 21 22 be 53 1e 20 3e
       0.16016959 -0.17084946 -0.15832932 0.15636568
0002d0 34 82 0a be 4c 2a 2e be 57 0e 0a be 0a 92 05 be
       -0.13526231 -0.17008322 -0.13482033 -0.1304399
0002e0 07 0a 24 be 57 4c fb bd b9 64 19 be 9b 2d 0c be
       -0.1601945 -0.1227042 -0.14979829 -0.13689272
0002f0 09 48 16 be e8 95 b2 3d 32 aa 0e be 04 e2 19 be
       -0.14675917 0.087199986 -0.13932112 -0.15027624
000300 b2 22 0a be 38 62 05 be b7 f0 12 3e cd 12 09 be
       -0.13489798 -0.13025749 0.14349638 -0.13386078
000310 fe 60 32 be 85 ec d5 3d 06 33 03 3e 63 50 0a 3e
       -0.17419812 0.10445503 0.12812433 0.13507228
000320 44 da 1c bd b6 70 39 3d 27 49 ac 3d 2a 46 05 3b
       -0.03829409 0.045273505 0.0841239 0.002033601
000330 e7 7d a2 3c a4 d2 79 3c bc 5d 50 bc 24 6e 97 3d
       0.019835426 0.015247975 -0.0127176605 0.073940545
000340 25 9e 5c bc e7 e0 7a 3d 38 6a 15 bd e2 d1 fa bc
       -0.013465439 0.06124964 -0.03647825 -0.030617658
000350 3d ac ef bb 89 3d c8 3c f9 7a da ba cc 2f 07 3d
       -0.0073142336 0.024443405 -0.0016668729 0.033004567
000360 2b 91 c3 bb 25 05 55 3d 8c f4 2c 3d 38 3a 06 3d
       -0.005968233 0.05200686 0.042225406 0.032770365
000370 1e 43 49 bc 35 81 0d 3d 60 46 7b 3d db db c2 3c
       -0.012284068 0.03454705 0.06134641 0.023786476
000380 7e 39 80 bc 91 97 30 3d 2f 9d ad 3a 63 85 c2 bb
       -0.015652414 0.043113295 0.0013245697 -0.005936311
000390 38 66 73 3d 58 56 54 3d cc 26 d1 3c 99 7d a8 ba
       0.059423655 0.051840156 0.025531195 -0.0012854814
0003a0 b5 8d 07 bd 36 0e 09 3d ec a8 ab 3d dc c1 01 bd
       -0.033094127 0.03346082 0.08381829 -0.03167902
0003b0 22 90 ae 3d 83 1a d0 bc 16 40 4f 3c 98 07 23 3d
       0.08523585 -0.025403267 0.012649557 0.039802164
0003c0 8b 81 03 bd 34 21 d0 3c 6d b5 df 3c af 52 d4 3c
       -0.032105964 0.025406457 0.02730819 0.025918333
0003d0 db b8 35 3c a9 0e 07 3d 42 c4 a4 bc 00 20 7d 3c
       0.011091436 0.032972965 -0.020113114 0.015449524
0003e0 60 f7 96 3d a6 01 ee 3c 76 54 72 3d d9 be 91 3d
       0.07371402 0.02905352 0.05916258 0.071164794
0003f0 72 c0 45 bd 72 fc ca 3c 95 9f f6 bc ec 89 cb ba
       -0.048279233 0.024778578 -0.030105392 -0.0015528775

fc.4.bias f4 [100]
000000 be c4 93 be 34 4d 8b be de 51 7c bd 04 24 ba be
       -0.2886104 -0.2720734 -0.061601512 -0.36355603
000010 fe 6d 9d be dc 50 7c be 62 bc 0f bd 94 1c ce be
       -0.3074798 -0.2464022 -0.035091765 -0.40256178
000020 20 91 fa bc 40 5e 86 be 92 87 82 bd 6b f7 42 bd
       -0.03058678 -0.26243782 -0.06373514 -0.047599237
000030 f8 4a c5 bc 5c e4 4e bd 53 bd 84 bd da e5 6b bd
       -0.0240836 -0.05051075 -0.06481423 -0.05759225
000040 d0 9b 8d be 08 ad c3 be 96 65 68 bd e5 28 11 bd
       -0.27657938 -0.3821795 -0.056737505 -0.03543939
000050 da d7 7a be 3e d2 85 be b5 22 c2 be 77 59 e8 be
       -0.24496403 -0.26136965 -0.37917104 -0.45380756
000060 2b 2e 86 bd a9 d5 22 bd 4f b7 41 bd 49 16 a4 be
       -0.065517746 -0.039754543 -0.047293957 -0.32048252
000070 b9 c4 82 be 54 21 c9 be 3a ac 5d bd ce 2c 20 bd
       -0.25540712 -0.3928324 -0.054119326 -0.03910523
000080 d5 18 3d bd 7f 1c 12 bd f8 8b 73 bd db e3 79 be
       -0.04616626 -0.035671707 -0.059459656 -0.24403326
000090 97 8d a9 be 92 cb 5b be 05 0d 7c be 98 c4 d3 be
       -0.33115837 -0.21464375 -0.24614342 -0.41360927
0000a0 93 86 90 be b0 c7 84 be a7 57 3e bd 31 30 b4 be
       -0.28227672 -0.259336 -0.04647031 -0.35193017
0000b0 40 10 94 be 27 01 9e be bf ad 86 be d3 33 9e be
       -0.28918648 -0.30860254 -0.26304433 -0.30898914
0000c0 c7 0e 2d bd 96 01 b0 bd 05 48 74 be 0f 2e 87 be
       -0.04225042 -0.085940525 -0.23855598 -0.26402327
0000d0 f0 1a 71 be 27 72 2d bd 98 77 89 be b8 34 ba be
       -0.23545432 -0.042345192 -0.26849055 -0.36368346
0000e0 7e c9 50 bd 56 b5 93 be 8b 94 16 bd eb 8e 1f bd
       -0.050973408 -0.28849286 -0.036762755 -0.038954657
0000f0 6f 61 9d be 7b 10 ab be 3a 58 31 bd d6 9f 92 be
       -0.30738398 -0.3341101 -0.04329703 -0.2863757
000100 97 76 fb bc e5 9c 81 bd 78 e7 4f bd 81 ec 8b be
       -0.030696196 -0.063287534 -0.050757855 -0.27328876
000110 6a f1 89 be 90 94 3b bd e5 e3 5e bd f6 b9 28 bd
       -0.26941997 -0.045795977 -0.054416556 -0.04119297
000120 2e a9 cd be ce 0b 45 bd 2a 20 51 be 60 3f 93 be
       -0.40168136 -0.04810696 -0.20422426 -0.2875929
000130 40 7f 44 bd e9 03 7a be b3 25 29 be 43 7b b4 bd
       -0.047972918 -0.24415554 -0.16518287 -0.08812573
000140 a6 8d df be f8 03 53 bd 2e f2 83 bd 0b 8b 4c be
       -0.43662757 -0.051517457 -0.064426765 -0.19974916
000150 c1 ab 0d bd 22 0f 5d bd 16 f5 9f be 71 36 c9 be
       -0.034587625 -0.05396951 -0.31241673 -0.39299348
000160 0f 86 61 bd 4c 25 ac be 6f c3 83 be e3 5c 76 be
       -0.05505949 -0.33622205 -0.25735041 -0.24058871
000170 fa 0d d2 bc c4 d3 5f be d8 0f 16 bd 18 6f 44 be
       -0.02564143 -0.21858126 -0.036636204 -0.19183004
000180 11 d8 3c bd 8f 4a 88 be 56 50 82 be 3d 79 86 be
       -0.046104494 -0.26619384 -0.25451916 -0.26264372
