results/Smoothed_MINE_dim10_reg1_alpha0.1.pt (torch, 395565 bytes, 13 tensors)

fc.0.weight f4 [100, 20]
0	0xbba1b825	-0.004935282
1	0xbdd1f1ab	-0.10251173
2	0x3cd63ec8	0.026152983
3	0x3dbb2fb7	0.0913996
4	0x3dac7ce5	0.08422259
5	0x3c21cdc3	0.009875718
6	0xbcca72f1	-0.024713011
7	0x3bcc31f6	0.0062315417
8	0x3dd15292	0.10220827
9	0x3dc00148	0.093752444
10	0x3c299d8e	0.010352505
11	0x3dbf5cbe	0.09343861
12	0x3cce6c61	0.025198163
13	0xbe14ef41	-0.14544393
14	0xbd867ce1	-0.065667875
15	0xbcfe8fc0	-0.031074405
16	0x3d295795	0.04134329
17	0x3d02c08f	0.03192192
18	0xbdb04e2d	-0.08608661
19	0xbdde2fc2	-0.10848953
20	0x3d4620a4	0.048370972
21	0xbd96b836	-0.07359354
22	0x3d502338	0.050814837
23	0xbd461d08	-0.04836753
24	0x3c4de94a	0.0125678275
25	0xbd4e9c8d	-0.050442267
26	0x3cbf916c	0.023384772
27	0x3dd6a1e0	0.10480094
28	0xbd2c4a91	-0.0420633
29	0xbd787aba	-0.060663916
30	0xbd8d67b8	-0.069045484
31	0x3da90ebd	0.08254764
32	0xbd0f6b42	-0.0350144
33	0x3d62abcb	0.055339616
34	0xbc6a490f	-0.014299645
35	0x3d013755	0.03154691
36	0xbc81a5c1	-0.015826108
37	0xbdbe8340	-0.09302378
38	0x3d35132f	0.044207748
39	0x3d2e305d	0.04252659
40	0xbd338a9f	-0.04383337
41	0xbc95c4b8	-0.01828228
42	0xbd2f4726	-0.04279246
43	0xb9497d23	-0.00019215471
44	0xbc90c4ea	-0.017672021
45	0xb891b5c5	-6.947996e-05
46	0x3d839537	0.06424945
47	0xbd2a6499	-0.041599844
48	0xbc907bd4	-0.01763717
49	0xbc853cd5	-0.016264359
50	0xbcde3993	-0.027127063
51	0xbd0eb4e3	-0.034840476
52	0xbcab560f	-0.02091506
53	0xbc91e726	-0.017810415
54	0xbca526a9	-0.020160036
55	0x3ca578ef	0.020199267
56	0x3d7641df	0.060121413
57	0xbd42f7ff	-0.04759979
58	0xbcf10c4c	-0.029424809
59	0xbc6380e3	-0.013885709
60	0x3d7de3d0	0.061984837
61	0x3d29d35d	0.041461337
62	0xbd9067b2	-0.07051028
63	0xbd710915	-0.058846552
64	0x3d5f6a28	0.054544598
65	0xbbdfd9de	-0.0068313917
66	0x3d419ff7	0.047271695
67	0xbdaa9fc4	-0.08331254
68	0x3d79d4b5	0.06099387
69	0x3cb90c0a	0.022588748
70	0xbd671ed3	-0.05642588
71	0xbd96d1ac	-0.073642105
72	0x3d54d650	0.051962197
73	0x3d856d0e	0.06514941
74	0xbd8f8a52	-0.070088044
75	0xbce8eeff	-0.028434275
76	0xbd5ac9ee	-0.05341523
77	0x3ddee8a3	0.10884216
78	0xbd37abe1	-0.04484165
79	0xbd379748	-0.044822007
80	0xbb543d0f	-0.0032385027
81	0xba443418	-0.0007484569
82	0xbb9fcce3	-0.0048767193
83	0xbc06614f	-0.008201911
84	0xbc8792ed	-0.016549552
85	0x3b3b7722	0.0028604944
86	0xbb22fe57	-0.0024870837
87	0x3ba62614	0.0050704572
88	0xbc8deda6	-0.017325234
89	0x3b90f3eb	0.0044236085
90	0x3aa72b3e	0.0012753976
91	0xbb626867	-0.0034547092
92	0x3c0762bd	0.008263287
93	0x3c4cf85c	0.012510385
94	0x3c3838ad	0.011243981
95	0x3aa18de8	0.0012325617
96	0x3a5d19fc	0.0008434353
97	0xbbd4c3ba	-0.006493059
98	0x3cac68a1	0.021045985
99	0xbbb395cc	-0.0054805037
100	0xbda0b487	-0.07846933
101	0x3da2a3aa	0.07941373
102	0xbbcd9f61	-0.006275103
103	0x3cba05fb	0.02270793
104	0x3d05fba9	0.032710705
105	0xbe19303a	-0.14959803
106	0x3d1e8650	0.03870231
107	0xbd7aebd3	-0.061260056
108	0x3cbb79ca	0.022885222
109	0x3d6139a8	0.054986626
110	0x3d6713d3	0.05641539
111	0xbdcacba5	-0.09902123
112	0x3b88221e	0.0041544577
113	0xbcedc51d	-0.029024655
114	0xbc7b6342	-0.015343489
115	0x3e0c0f79	0.13677777
116	0xbd4f2e85	-0.050581474
117	0x3d2c7287	0.04210141
118	0xbce64f5a	-0.02811401
119	0xbcc14784	-0.023593672
120	0xbbfe6598	-0.0077635758
121	0xbc158f8d	-0.009128463
122	0xbd8cc80d	-0.06874094
123	0x3cdcd9fd	0.026959414
124	0x3d51df36	0.05123826
125	0xbc1bddf8	-0.009513371
126	0xba5c7bac	-0.00084107625
127	0xbced3631	-0.028956505
128	0xbc8c350c	-0.017115138
129	0x3b7f8f7b	0.0038995433
130	0xbd0e335e	-0.034716956
131	0xbc601c97	-0.013678691
132	0xbd9309dc	-0.07179615
133	0x3d037376	0.032092534
134	0x3cbdcf13	0.02317003
135	0xbcbfe8cb	-0.023426434
136	0x3caeccbd	0.021337861
137	0xbd7052fd	-0.058672894
138	0xbcef3b90	-0.029203206
139	0x3c278d9c	0.010226633
140	0xbd201c9b	-0.03908978
141	0x3c9e6a0d	0.019337678
142	0x3c5c6b30	0.01345329
143	0xbd71984e	-0.05898314
144	0x3c6964a9	0.014245191
145	0x3d1bbf93	0.038024496
146	0x3d404c1b	0.04694758
147	0xbc80de5a	-0.015731025
148	0x3d346aa2	0.044047005
149	0xbd9d865a	-0.07691641
150	0xbba59963	-0.0050536855
151	0x3c35627a	0.011070842
152	0x39f523cc	0.00046756712
153	0xbd70654e	-0.05869036
154	0x3d1e4bd6	0.03864654
155	0x3d24bc72	0.040218778
156	0x3cdfb4aa	0.027307827
157	0xbcbd7625	-0.023127625
158	0x3d39be31	0.045347396
159	0xbdaa4c1e	-0.083152995
160	0x3badc258	0.0053027086
161	0xbcf2c181	-0.029633285
162	0xbc1c2e45	-0.009532516
163	0x3d59d8d2	0.05318529
164	0x3cb168f5	0.021656493
165	0x3d016dcc	0.03159885
166	0xbd8a9d14	-0.067682415
167	0x3d55e367	0.05221882
168	0xbc663a30	-0.014051959
169	0xbcde6fa3	-0.027152842
170	0x3bdfb266	0.0068266867
171	0x3d1211e7	0.035661604
172	0xbc15a1e9	-0.009132841
173	0xbd303be8	-0.04302588
174	0xbcef87ef	-0.029239623
175	0xbced87db	-0.028995445
176	0x3d7576b0	0.059927642
177	0xbd6695ca	-0.056295194
178	0x3caf60f7	0.021408541
179	0x3cae96d7	0.02131216
180	0x3d4884d3	0.048954796
181	0x3d90f4b6	0.07077925
182	0xbdc0c81e	-0.09413169
183	0x3dc87cf4	0.09789458
184	0xbd2ff159	-0.042954776
185	0xbdf33fd4	-0.118774086
186	0xbce99162	-0.028511707
187	0x3d60104f	0.054703053
188	0xbcf59b83	-0.02998138
189	0xbd51a104	-0.051178947
190	0xbd18d8ac	-0.03731601
191	0xbd81a7a8	-0.06330806
192	0x3dbdc938	0.09266895
193	0xbd97c55d	-0.07410691
194	0x3d8112de	0.06302427
195	0x3de25d2a	0.11052926
196	0x3d1590a1	0.036514882
197	0xbce33f91	-0.027740272
198	0x3c947ad8	0.018124983
199	0x3d378288	0.04480222
200	0xbb72c2ca	-0.0037042373
201	0x3d313a2e	0.043268375
202	0xbcc016ca	-0.023448367
203	0xbd48ca21	-0.04902089
204	0xba927b82	-0.0011175724
205	0xbd129451	-0.035785977
206	0x3d770cc1	0.060314897
207	0xbcae655b	-0.021288564
208	0xbcf261af	-0.029587595
209	0xbceb5cf2	-0.028730843
210	0x3b8d715a	0.004316491
211	0xbd426adf	-0.0474652
212	0x3cb64327	0.022248818
213	0x3d8055d2	0.06266369
214	0x39b30f88	0.00034153112
215	0x3d295854	0.041344002
216	0xbd6f4dc9	-0.05842379
217	0x3cbe5ddc	0.023238115
218	0x3cdd4337	0.02700959
219	0x3d0474f5	0.0323381
220	0x3d5907be	0.0529859
221	0xbc5e25f4	-0.013558853
222	0xbd32b5da	-0.04363046
223	0xbd632395	-0.055453856
224	0x3d05684b	0.032570165
225	0xbd3a7b31	-0.04552764
226	0xbcc1d9e2	-0.023663465
227	0xb895c841	-7.142174e-05
228	0xbd8d2bdf	-0.06893133
229	0xbccfabc5	-0.02535046
230	0x3caf68c1	0.021412255
231	0xbc308a06	-0.010775095
232	0xbd98bb21	-0.07457567
233	0xbd7eddca	-0.062223233
234	0x3d17216f	0.03689712
235	0xbd132691	-0.03592545
236	0xbcecaf36	-0.02889214
237	0xba35b4b0	-0.00069315266
238	0xbd33713e	-0.043809168
239	0xbd177f5b	-0.03698669
240	0xbcf7ab25	-0.030232975
241	0x3a5bece3	0.0008389486
242	0xbd3295e4	-0.043599978
243	0xbd6bb6f2	-0.057547517
244	0x3bf7a090	0.0075569823
245	0x3dad6c1c	0.08467886
246	0xbbb55095	-0.005533288
247	0xbd18504c	-0.037185952
248	0xbd6a8dfb	-0.05726431
249	0xbd5f83a3	-0.054568898
250	0x3ce16ee1	0.027518691
251	0x3cd54a2b	0.026036343
252	0x3d652bcf	0.055949982
253	0x3d19415d	0.03741585
254	0xbca32731	-0.019916149
255	0xbd8954ea	-0.06705649

fc.0.bias f4 [100]
0	0xbbaee3e3	-0.005337225
1	0xbc8e00cf	-0.01733437
2	0xbd3606c1	-0.044440035
3	0xbc2f84f3	-0.01071285
4	0xbafa8a93	-0.0019114785
5	0xbc9024ca	-0.017595667
6	0xbcef8b77	-0.029241307
7	0xbd31c343	-0.043399107
8	0x3c2b44f8	0.010453455
9	0xbcfe6516	-0.03105406
10	0xbb9f5aa6	-0.004863101
11	0xbd432e6a	-0.047651686
12	0xbc4e82f6	-0.012604466
13	0xbd046bb0	-0.03232926
14	0xbd3bb46a	-0.045826353
15	0xbd222607	-0.039587047
16	0xbd027376	-0.031848393
17	0xbd1a7a11	-0.037714068
18	0x3c871f98	0.016494557
19	0x3b92e1de	0.004482492
20	0xbce15e77	-0.027510865
21	0xbc00cd0f	-0.00786139
22	0x3ab72632	0.0013973175
23	0xbd990c23	-0.07473018
24	0x3c439b09	0.011938819
25	0xbcc5ce72	-0.024146292
26	0xbd0a5a76	-0.033777677
27	0xbc9b6a61	-0.018971624
28	0xbcebd2c8	-0.028787032
29	0x3c7c9b20	0.015417844
30	0x3c0a2029	0.008430519
31	0xbc52910b	-0.012851964
32	0xbcd6f38d	-0.026239181
33	0xbcd828e6	-0.02638669
34	0xbc17153c	-0.009221371
35	0xbd0fd874	-0.035118535
36	0x3af80f1b	0.00189254
37	0xbd5ad6af	-0.053427394
38	0x3cbe4735	0.023227314
39	0xbd224a12	-0.03962142
40	0xbd28ae66	-0.041181944
41	0x3c77ffd2	0.015136676
42	0xbc6e7bb0	-0.014555857
43	0xbce4342d	-0.02785691
44	0x3c5feef6	0.013667813
45	0xbc982f45	-0.018577227
46	0xbca61921	-0.020275654
47	0xbcaceb1e	-0.021108206
48	0x3ba7d59f	0.005121901
49	0xbd3018f8	-0.042992562
50	0xbcea034f	-0.02856603
51	0x3c3b4087	0.011428959
52	0xbb669ba5	-0.0035187986
53	0xbd5ac0d2	-0.053406544
54	0xbc7220f9	-0.014778369
55	0xba04f642	-0.00050720957
56	0xbca2551e	-0.019815978
57	0x3b7252e1	0.003697567
58	0xbd01a077	-0.03164717
59	0xbc85ae82	-0.016318563
60	0x3b84b12b	0.0040494404
61	0xbd13f7a7	-0.03612485
62	0xbd565588	-0.052327663
63	0xbd11a5ab	-0.035558384
64	0xbbca0c2b	-0.0061660013
65	0xbcc33bcc	-0.023832224
66	0x3c564249	0.013077327
67	0xbd182a0d	-0.037149478
68	0xbd02248b	-0.03177313
69	0xbbb4a3da	-0.0055126967
70	0x3c1b46bb	0.009477313
71	0xbc5f81b6	-0.013641765
72	0x3bc4fe77	0.00601178
73	0xbc046a83	-0.008082035
74	0xbaecc3d7	-0.0018063736
75	0xbd46dc69	-0.048550043
76	0xbd1bef4f	-0.03807002
77	0xbca96093	-0.020675933
78	0xbcf436f4	-0.02981136
79	0x3b487051	0.0030584524
80	0xbc6b10fc	-0.014347311
81	0x3cab64be	0.020922061
82	0xbd107c4e	-0.035274796
83	0xbd6c8388	-0.057742625
84	0xbd5579ab	-0.052117985
85	0xbcd815c5	-0.026377568
86	0xbc8517ce	-0.016246703
87	0xbcbb6350	-0.022874504
88	0xbb5c1856	-0.0033583841
89	0xbcee7c6f	-0.029112069
90	0xbd8bcf5d	-0.06826661
91	0xbcd02484	-0.025408037
92	0xbbcda721	-0.006276027
93	0xbcf4a835	-0.029865364
94	0xbd2eeb4a	-0.042704858
95	0xbcda171e	-0.026622351
96	0xbccce1d4	-0.025010027
97	0xbc99127d	-0.018685574
98	0xbc2f29ed	-0.010691148
99	0xbcdf1dcb	-0.027235886

fc.1.weight f4 [100, 100]
0	0xbcd019e2	-0.025402967
1	0x3dc9f09b	0.09860345
2	0x3a6fb75a	0.0009144448
3	0x3d981281	0.07425404
4	0xbb5f5f6a	-0.003408397
5	0x3c3cc03d	0.011520443
6	0xbd227357	-0.039660778
7	0xbd0a3b62	-0.033748038
8	0x3c1f2b3c	0.009714898
9	0x3dce2b79	0.100668855
10	0xbd162fd1	-0.036666695
11	0xbc472599	-0.01215496
12	0x3d29943a	0.041401125
13	0xba8d27e3	-0.0010769333
14	0xbd5a5efc	-0.05331324
15	0x3dee5b7e	0.116385445
16	0xbc9c8b11	-0.01910928
17	0x3e3e9ba1	0.18614055
18	0xbbb128be	-0.005406468
19	0xbc9796aa	-0.01850446
20	0x3b08479f	0.0020794643
21	0x3d09ccf8	0.03364274
22	0x3d9fd243	0.07803776
23	0xbcc7e6e3	-0.024402088
24	0x3cd83dd8	0.026396677
25	0x3cf73022	0.030174319
26	0x3e166372	0.14686373
27	0x3d3652bc	0.044512495
28	0xbc61c355	-0.013779481
29	0xbcb0cf3a	-0.021583188
30	0x3cfaf099	0.030632304
31	0xbb2b47fc	-0.0026135435
32	0xbbc47f32	-0.005996608
33	0x3dc15379	0.09439749
34	0x3c19a17a	0.009376878
35	0xbb17b811	-0.0023150484
36	0xbc378a00	-0.011202335
37	0xbcb94147	-0.022614134
38	0x3d5ccab8	0.053904265
39	0xbc5a220e	-0.013313783
40	0x3d138c5c	0.03602253
41	0xbc4ebcfd	-0.0126183005
42	0xbd270c54	-0.04078324
43	0x3c279066	0.010227298
44	0x3cc96435	0.024583915
45	0x3d8da66f	0.0691651
46	0x3d63acc9	0.055584703
47	0x3d96e4ad	0.07367835
48	0x3cddc9ca	0.02707376
49	0xbd1cc018	-0.038269132
50	0x3c855551	0.016276034
51	0x3c534752	0.012895422
52	0x3d0049c1	0.031320337
53	0xbb058839	-0.0020375384
54	0xbaea5f14	-0.0017881119
55	0xbc4e2a97	-0.012583396
56	0x3c867a96	0.016415875
57	0xbcb1c033	-0.021698093
58	0xbb19ba50	-0.0023456998
59	0x3d042569	0.03226224
60	0x3d100324	0.035159245
61	0x3dae8d68	0.08523065
62	0x3c30f410	0.010800377
63	0x3b88957f	0.004168212
64	0x3ce48562	0.027895633
65	0x3c51ab87	0.012797243
66	0x3c8e9377	0.017404301
67	0xba7dac0c	-0.0009676821
68	0xbc42d869	-0.0118924165
69	0xbc48a3e5	-0.012246107
70	0xbc183d5a	-0.009291971
71	0xbbd83ac9	-0.0065988046
72	0x3cceae4b	0.025229594
73	0x3bf6bfce	0.007530189
74	0xbcd76007	-0.026290907
75	0xbb229549	-0.002480822
76	0x3cea6011	0.028610261
77	0x3d8cc1be	0.06872891
78	0xbd43769c	-0.047720537
79	0x3ac0495c	0.00146703
80	0x3cd2ff54	0.025756516
81	0x3cfe203b	0.031021228
82	0x3dd2e127	0.10296851
83	0xbced7776	-0.028987627
84	0xbc9961e8	-0.018723443
85	0x3c2e72de	0.010647504
86	0x3c81b37c	0.015832655
87	0x3dd36675	0.103222765
88	0x3dc0ad49	0.094080515
89	0x3dcbbb47	0.0994783
90	0xbce9268e	-0.028460767
91	0x3d7744ee	0.06036847
92	0x3c6a8c77	0.014315716
93	0xbd4739fa	-0.048639275
94	0xbc593e3d	-0.013259468
95	0x3daf2190	0.085513234
96	0x3dc3b603	0.095562
97	0x3c9e9ebe	0.019362804
98	0x3ae9727f	0.0017810612
99	0x3d0eaa73	0.03483052
100	0x3bee66b5	0.007275427
101	0xbdb78325	-0.08960561
102	0x3bd4fb41	0.0064996784
103	0xbd59622f	-0.05307215
104	0x3a7701e3	0.00094225834
105	0xbd05badb	-0.032648902
106	0x3c8a7ec3	0.016906148
107	0x3c93a9f5	0.018025378
108	0x3cee178e	0.029063966
109	0xbdb8cd5b	-0.090235434
110	0xbc1a9d65	-0.00943694
111	0x3ccf4956	0.025303524
112	0xbd667181	-0.05626059
113	0x3ceac22d	0.028657043
114	0xbc66a811	-0.014078156
115	0xbe06ac58	-0.13151681
116	0x3c9a3a7a	0.018826712
117	0xbe0be241	-0.13660528
118	0xbc39a220	-0.0113301575
119	0x3aa5ee01	0.0012659432
120	0x3d3084ae	0.043095283
121	0xbc5cecce	-0.013484193
122	0xbd194f82	-0.03742934
123	0x3d089db0	0.033353508
124	0xba73f84a	-0.00093067123
125	0xbd633c7a	-0.055477597
126	0xbe12710b	-0.14300935
127	0xbc9854f3	-0.018595194
128	0x3cda1ac2	0.026624087
129	0xbcd6d1b2	-0.026223037
130	0xbbbb4e3f	-0.005716115
131	0x3be1d129	0.006891389
132	0xbcc24b93	-0.023717677
133	0xbd85b865	-0.06529311
134	0x3c48d15c	0.012256946
135	0x3ca44985	0.020054588
136	0x3a0c7d30	0.00053592306
137	0x3c9594d1	0.018259438
138	0xbd8464c5	-0.06464533
139	0x3cc4f180	0.024040937
140	0x3d1e026f	0.03857654
141	0xbcbd72c4	-0.023126014
142	0x3c47a108	0.012184389
143	0xbd50afc3	-0.05094887
144	0x3c2b7cf7	0.010466806
145	0xbc9cb728	-0.019130304
146	0xbd1ba5c3	-0.03799988
147	0xbddc38da	-0.10753031
148	0x3d1b1055	0.037857372
149	0xbbd7fe17	-0.006591569
150	0xbc808e43	-0.015692836
151	0x3c8d258d	0.01722982
152	0xbb96d72d	-0.0046032877
153	0x3ba33136	0.0049802316
154	0xbc426918	-0.011865877
155	0xbcb2239f	-0.021745501
156	0xbd432d59	-0.04765067
157	0x3be5c585	0.0070120716
158	0xbbff48a5	-0.0077906423
159	0xbd3b9b1a	-0.045802213
160	0x3d141958	0.036156982
161	0xbdc40079	-0.09570403
162	0x3c8afe37	0.016966922
163	0x3d1e77a4	0.038688317
164	0xbd113974	-0.035455182
165	0x3d181b84	0.037135616
166	0xbc96ce12	-0.018408809
167	0x3ca72781	0.02040458
168	0x3b818617	0.0039527523
169	0xbbfc1742	-0.0076932022
170	0xbd161cba	-0.03664849
171	0x3b5223d6	0.0032064817
172	0xbb99895d	-0.0046855644
173	0x3c544a87	0.012957222
174	0xbc09b784	-0.00840557
175	0x3cf3aa80	0.029744387
176	0xbdaba506	-0.08381085
177	0xbdaf9c8d	-0.085747816
178	0x3cfae6be	0.030627605
179	0xbc74972f	-0.014928623
180	0x3d00bf7b	0.03143261
181	0x3c2aef17	0.01043298
182	0xbdcd95cd	-0.10038338
183	0x3d0f76e6	0.0350255
184	0x3bf403e9	0.007446755
185	0xbdad2db5	-0.084559835
186	0xbc3760d7	-0.011192522
187	0xbd015acd	-0.031580735
188	0xbdcb382e	-0.09922825
189	0xbdcab63c	-0.0989804
190	0x3ba5ecd2	0.0050636316
191	0xbc5ce347	-0.0134819215
192	0x39a7f43b	0.00032034688
193	0xb8ec41d2	-0.00011265617
194	0x3d00a9af	0.031411823
195	0xbd8d0875	-0.06886379
196	0xbd9c5a39	-0.07634396
197	0xbd829a78	-0.06377119
198	0x3c924db6	0.017859321
199	0xbd94e054	-0.0726935
200	0xbabd233b	-0.0014430055
201	0xbdcedeb8	-0.10101074
202	0xbcb1635a	-0.02165382
203	0xbdae950a	-0.08524521
204	0xbc71aa64	-0.014750097
205	0xbbe0306a	-0.006841709
206	0xbbcf9403	-0.006334783
207	0x3c114aa2	0.0088678915
208	0x3c62d84f	0.013845517
209	0xbde230ed	-0.11044488
210	0x3d0f8a82	0.0350442
211	0x3b4cbffb	0.003124236
212	0xbd10d5ca	-0.035360135
213	0xbc394b01	-0.011309386
214	0x3cdc27c8	0.026874438
215	0xbdf1cb3b	-0.11806341
216	0x3bc57103	0.006025435
217	0xbdd837b2	-0.10557498
218	0x3c505758	0.012716137
219	0xbc1ca769	-0.009561398
220	0x3d3a2e58	0.045454353
221	0x3c3e7805	0.011625295
222	0xbd345087	-0.04402211
223	0x3d611fa5	0.05496182
224	0x3be3d8aa	0.0069533186
225	0xbd3c6269	-0.04599229
226	0xbe0167bf	-0.12637232
227	0xbcfabc40	-0.030607343
228	0x3d127640	0.035757303
229	0x3c19b7e2	0.00938222
230	0x3c05278d	0.008127105
231	0x3b991559	0.0046717343
232	0xbad9804a	-0.0016594019
233	0xbdc1a970	-0.09456146
234	0x3c62870a	0.013826141
235	0x3d164509	0.03668693
236	0x3c1e929e	0.009678511
237	0x3c2b1158	0.010441147
238	0xbc9216e9	-0.01783319
239	0x3c9f8eb5	0.019477228
240	0xb961f443	-0.00021548667
241	0xbbbc578c	-0.005747741
242	0x3cda47e5	0.02664561
243	0xbd5c7dba	-0.05383084
244	0xbb5b177e	-0.003343075
245	0xbd532b84	-0.05155517
246	0xbd4a8c7f	-0.049450394
247	0xbdd69b8b	-0.10478886
248	0x3cfa8f5d	0.030585939
249	0xbad8c92e	-0.0016539448
250	0xbcb10f5b	-0.021613767
251	0x3c51bf53	0.012801963
252	0x3cff50f1	0.031166526
253	0x3baa56d1	0.0051983376
254	0x3cb9e7fe	0.02269363
255	0x3caa57f9	0.020793902

fc.1.bias f4 [100]
0	0x3cf1994a	0.02949204
1	0xbcf094e7	-0.029367877
2	0xbcf1dce3	-0.029524272
3	0xbd0a3727	-0.033744004
4	0xbcd1396d	-0.025540078
5	0x3c9f6760	0.019458473
6	0xbd04579d	-0.032310117
7	0x3ce72cdd	0.028219635
8	0x3c984ede	0.018592294
9	0x3c9a0477	0.018800957
10	0xbcf164fd	-0.0294671
11	0x3c9e724a	0.019341607
12	0xbcfd4468	-0.030916408
13	0xbd0c43b8	-0.03424427
14	0x3c5f1ab7	0.013617209
15	0x3ce55e17	0.027998967
16	0x3cb7e550	0.022448212
17	0x3c717a90	0.014738694
18	0x3c80443c	0.015657537
19	0x3ca4ded9	0.020125793
20	0x3ca842f9	0.020539748
21	0x3c5d9856	0.013525089
22	0xbd05ad9e	-0.032636277
23	0x3c93bd6a	0.018034656
24	0x3cbfe93a	0.02342664
25	0xbd063487	-0.032764938
26	0xbd01dd09	-0.031704936
27	0x3ca931bd	0.0206536
28	0xbd039980	-0.03212881
29	0x3ca08d4d	0.019598627
30	0x3a143bbc	0.0005654653
31	0x3ca8f259	0.020623373
32	0xbcfc46c1	-0.030795457
33	0xbd02f99c	-0.031976327
34	0x3cb8a955	0.022541681
35	0xbd0bd6c3	-0.03414036
36	0x3c8c3a08	0.017117515
37	0xbcf4ca40	-0.029881597
38	0xbd0b358e	-0.03398662
39	0xbd06a7eb	-0.032874983
40	0x3ca1be4f	0.019744067
41	0x3ca3c14a	0.019989628
42	0x3ca6c92d	0.0203596
43	0x3c98aa26	0.01863582
44	0xbd040f27	-0.032241013
45	0x3cbe8d4b	0.023260733
46	0xbcf2b42f	-0.029626934
47	0x3cd1fe03	0.025633818
48	0xbce9eb78	-0.028554663
49	0xbcf0f385	-0.029412994
50	0xbccf22a1	-0.025285067
51	0xbcf2f317	-0.02965693
52	0x3c789069	0.015171149
53	0x3c84f020	0.016227782
54	0xbbb48fe7	-0.0055103186
55	0xbd02c089	-0.031921897
56	0x3c76540a	0.015034685
57	0x3cad4c17	0.021154447
58	0xbcd45803	-0.025920874
59	0xbcfa7419	-0.030572938
60	0x3c88cba6	0.01669867
61	0x3c8fc03e	0.017547723
62	0xbcee22e4	-0.029069372
63	0x3cb61723	0.02222783
64	0xbcf337e0	-0.02968973
65	0x3cce099a	0.025151063
66	0xbcf191b4	-0.029488422
67	0xbcb1aa1d	-0.021687562
68	0x3cab32ac	0.020898186
69	0xbcfa9ad1	-0.0305914
70	0x3cd566c5	0.02604998
71	0xbce46d0f	-0.027884034
72	0xbd049908	-0.032372504
73	0x3c5a54f5	0.013325919
74	0x3ca987c3	0.020694619
75	0x3c89268e	0.016742017
76	0x3caf970f	0.021434335
77	0x3ccca479	0.02498077
78	0xbb121944	-0.0022292892
79	0xbd02a64a	-0.031896867
80	0xbc559b1b	-0.013037468
81	0x3cccd95f	0.025005994
82	0x3cc380d7	0.023865147
83	0x3c9505b5	0.018191198
84	0xbd01eef0	-0.03172201
85	0x3ca2ce4d	0.019873763
86	0xbc6fcbba	-0.014635975
87	0x3cc172b2	0.023614261
88	0x3c7f08f9	0.015566104
89	0x3cc2ec31	0.023794265
90	0x3c5f7716	0.013639232
91	0x3cb50a88	0.022099748
92	0xbcf4a3a0	-0.029863179
93	0x3c83daee	0.016095605
94	0xbd14a73c	-0.0362923
95	0x3ca422e1	0.020036163
96	0x3c8fd0e1	0.017555656
97	0x3cbe9c69	0.023267942
98	0x3ccd6b3a	0.025075544
99	0xbd151b43	-0.036402952

fc.2.weight f4 [100, 100]
0	0x3db2cc12	0.087303296
1	0xbbca556b	-0.0061747334
2	0xbce0986f	-0.027416436
3	0xbcf01342	-0.029306058
4	0x3c287d92	0.010283845
5	0x3c93b37d	0.018029923
6	0xbc6f8c1f	-0.01462081
7	0x3d7cf781	0.061759476
8	0x3d1c0555	0.038091023
9	0x3d2c0b9a	0.04200325
10	0xbcefc139	-0.02926694
11	0x3d35f9b8	0.044427603
12	0xbc3d32da	-0.0115477685
13	0xbc57fc35	-0.013182689
14	0x3e09e97b	0.13467972
15	0x3d9e18a9	0.07719547
16	0x3d68e1e3	0.056856047
17	0x3e1143b1	0.14185978
18	0x3e2361fb	0.15955345
19	0x3dcd893b	0.1003594
20	0xbd28a49a	-0.0411726
21	0x3d428c02	0.047496803
22	0xbcaf5f7f	-0.02140784
23	0x3d46d1ae	0.04853981
24	0x3d81863e	0.06324433
25	0xbd3cd451	-0.04610092
26	0xbd057363	-0.032580744
27	0x3ca0f17f	0.019646404
28	0xbcabc81d	-0.020969445
29	0x3d827dca	0.063716486
30	0xbc6cb7ad	-0.014448089
31	0x3d2c4da2	0.042066224
32	0xbd04d651	-0.03243095
33	0xbd0eb6ba	-0.03484223
34	0x3d035262	0.03206099
35	0x3cb024c3	0.021501904
36	0x3db20c51	0.086937554
37	0xbc5ea728	-0.013589658
38	0xbcd1cdc4	-0.025610812
39	0xbdb01d66	-0.08599357
40	0x3dd2ea5c	0.10298607
41	0x3d86e336	0.06586306
42	0x3d89891a	0.06715603
43	0x3d8d3d75	0.068964876
44	0xbd845097	-0.06460684
45	0x3ddb9127	0.10721045
46	0x3b70f3d2	0.0036766422
47	0x3dec3d22	0.11535098
48	0xbd60aa49	-0.054849897
49	0xbb8b66e2	-0.004254208
50	0xbc80fd2b	-0.01574572
51	0xbbc01377	-0.0058616954
52	0x3ca62303	0.020280367
53	0x3e02fa2f	0.1279075
54	0x3bbe80a4	0.005813675
55	0xbce1ff80	-0.027587652
56	0x3d8ba96a	0.068194225
57	0x3d8060b7	0.06268447
58	0x3abfb31e	0.0014625525
59	0xbcc35392	-0.02384356
60	0x3dbd582e	0.092453346
61	0x3d0beba0	0.034160256
62	0x3d220fd8	0.03956589
63	0x3dbbcf85	0.091704406
64	0xbc94077a	-0.018069971
65	0x3dc91c68	0.09819871
66	0xbd2fda51	-0.042932812
67	0xba6e34ba	-0.00090868364
68	0x3dabec40	0.083946705
69	0xbc8fcc14	-0.017553367
70	0x3d9208b0	0.07130563
71	0xbcfb2887	-0.030658973
72	0xbdaba331	-0.08380736
73	0x3d9fbdd7	0.07799881
74	0x3cfae16c	0.030625068
75	0xbb4031e8	-0.0029326621
76	0x3d427674	0.047476247
77	0x3dd1d1cd	0.102450944
78	0xbcd5a2b4	-0.02607856
79	0xbd580159	-0.05273566
80	0x3d043eab	0.032286327
81	0x3cca57cf	0.024700074
82	0x3e067d0b	0.13133638
83	0x3cca2b45	0.024678836
84	0xbc58f659	-0.013242328
85	0x3e1d9921	0.15390445
86	0xbce84cd2	-0.028356943
87	0x3d8472de	0.06467222
88	0x3dbc4ab1	0.09193934
89	0x3d387cb2	0.045040794
90	0x3e204b02	0.15653613
91	0x3dfe33f0	0.1241225
92	0xbbf6a0b1	-0.00752648
93	0x3daf0c88	0.08547312
94	0xbd26162d	-0.040548492
95	0x3d40e0e0	0.047089458
96	0x3d82c094	0.063843876
97	0x3de9e702	0.11421014
98	0x3d9213e8	0.07132703
99	0xbd922647	-0.07136207
100	0xbdceb35e	-0.10092805
101	0x3d01e6bb	0.031714182
102	0xbc4bd40e	-0.0124406945
103	0x3da083f3	0.07837667
104	0x39a19a55	0.000308233
105	0xbd4049c4	-0.04694535
106	0x3d30e80e	0.043190055
107	0xbda6567b	-0.081219636
108	0xbd5a73ad	-0.053332973
109	0xbd44e91b	-0.04807387
110	0x3c7891b9	0.015171462
111	0xbd905a82	-0.07048513
112	0x3d0930d4	0.03349383
113	0x3caeec3e	0.021352883
114	0xbe200193	-0.156256
115	0xbd71162b	-0.05885903
116	0xbc8fdacd	-0.017560387
117	0xbdbcb834	-0.092148215
118	0xbe10f719	-0.1415676
119	0xbd9eef68	-0.07760507
120	0xbd1a4c40	-0.037670374
121	0xbda01670	-0.078167796
122	0x3cc14c9a	0.023596097
123	0xbd2eeb58	-0.04270491
124	0xbdbf58f2	-0.09343137
125	0xbc81d89f	-0.015850363
126	0xbb5e0167	-0.0033875348
127	0xbd3f7415	-0.046741564
128	0x3a2a63e4	0.000649987
129	0xbcf36335	-0.029710392
130	0xbca2b57d	-0.019861931
131	0xbd8bb4f1	-0.06821621
132	0x3cd49353	0.025949156
133	0x3cbfab23	0.023397034
134	0xbd363162	-0.04448069
135	0x3b5ca07c	0.0033664992
136	0xbce95a92	-0.02848557
137	0x3c500439	0.012696319
138	0x3c30e93f	0.010797798
139	0x3d8ffd24	0.070307046
140	0xbe2d1d8b	-0.16905801
141	0xbd0fc4b2	-0.035099693
142	0xbd93532d	-0.07193599
143	0xbda47b1c	-0.08031294
144	0x3d714de5	0.058912177
145	0xbdd8ab95	-0.10579602
146	0x3c8fd36b	0.017556867
147	0xbe1590e6	-0.14606056
148	0x3d2ceba1	0.0422169
149	0x3c324c97	0.010882518
150	0x3c60201f	0.013679533
151	0x3d1cdcc6	0.038296483
152	0xbc0b1e47	-0.008491105
153	0xbe22946b	-0.1587693
154	0xbd140ebb	-0.03614686
155	0x3d2b77ff	0.041862484
156	0xbdaffd3d	-0.08593223
157	0xbd824f52	-0.063627854
158	0x3d14ec0e	0.03635793
159	0xbc8baea1	-0.017051043
160	0xbdeaf50c	-0.1147252
161	0xbdc6c369	-0.0970524
162	0x3c235af9	0.00997042
163	0xbd97c104	-0.07409862
164	0x3dab06e2	0.08350922
165	0xbe023b24	-0.12717873
166	0xbb8000e5	-0.0039063566
167	0x3cc2e8a5	0.023792574
168	0xbda1709a	-0.07882805
169	0x3d2aaf8f	0.041671332
170	0xbd551907	-0.05202582
171	0xbcba9791	-0.02277735
172	0x3cc982e1	0.02459854
173	0xbda82251	-0.0820967
174	0xbd86da2d	-0.065845825
175	0xbd6e0430	-0.058109462
176	0xbd86bcf9	-0.065790124
177	0xbd9ae845	-0.07563833
178	0xbccc22e1	-0.024918975
179	0x3d020584	0.03174354
180	0xbbdb1575	-0.0066859075
181	0xbd8558d9	-0.06511087
182	0xbe050619	-0.12990607
183	0x3c9cce70	0.019141406
184	0x3c493ec5	0.012283032
185	0xbdacf9e7	-0.084461026
186	0x3c3e130a	0.011601219
187	0xbd940c01	-0.07228852
188	0xbda65fb7	-0.08123725
189	0xbb80db05	-0.003932359
190	0xbdb4b49d	-0.08823512
191	0xbdf9ae6d	-0.12191472
192	0x3d1016dc	0.03517805
193	0xbdc92e84	-0.09823325
194	0x3cf1c026	0.029510569
195	0xbd72e05b	-0.059295993
196	0xbd826cd9	-0.06368417
197	0xbe153496	-0.14570841
198	0xbe0a069f	-0.13479088
199	0x3c1e3248	0.009655543
200	0xbda09a76	-0.07841961
201	0x3c0dee20	0.00866273
202	0x3cb72d87	0.022360576
203	0x3d9d120a	0.07669456
204	0x3a849843	0.0010116178
205	0x3c45b7f5	0.012067785
206	0x3d359871	0.044334833
207	0xbd220400	-0.039554596
208	0xbcf71a24	-0.030163832
209	0xbc6acdb4	-0.01433127
210	0xbb9ba1ed	-0.0047495277
211	0xbd984892	-0.07435717
212	0x3be3bbfa	0.006949899
213	0x3d24dbb4	0.040248588
214	0xbe04cb13	-0.12968092
215	0xbd69bd69	-0.0570654
216	0xbd2713e7	-0.040790465
217	0xbd81eaaa	-0.06343587
218	0xbde14525	-0.109995164
219	0xbdcd77f5	-0.100326456
220	0xbcb293ca	-0.021798987
221	0xbdc0c1d9	-0.094119735
222	0x3c285329	0.010273733
223	0xbccecb88	-0.025243536
224	0xbd870cde	-0.06594251
225	0x3c9b539b	0.018960765
226	0x3cd0102e	0.02539834
227	0xbd14ca7f	-0.036325928
228	0x3cd60b43	0.026128417
229	0xbd5cb247	-0.053880956
230	0x3be08dd9	0.006852847
231	0xbd85a3c5	-0.06525377
232	0x3c3f9a80	0.0116945505
233	0x3cb9ccf1	0.022680731
234	0xbcefaa6c	-0.029256068
235	0x3c8aa617	0.016924901
236	0xbdb57cc5	-0.088616885
237	0xbc90566f	-0.01761934
238	0x3cf631ec	0.030053101
239	0x3ca12355	0.019670168
240	0xbdf51421	-0.1196673
241	0xbcc60ea2	-0.0241769
242	0xbd8ab574	-0.06772891
243	0xbd93ac89	-0.07210643
244	0x3d102c79	0.035198662
245	0xbe2dc14f	-0.16968273
246	0xbd11795e	-0.035516135
247	0xbde84811	-0.113418706
248	0x3c8bf13f	0.017082809
249	0x3d0bdde2	0.03414715
250	0xbc5e55cf	-0.013570263
251	0x3d333695	0.043753225
252	0xbc1a1440	-0.009404242
253	0xbe1b0349	-0.15137972
254	0xbcf825f7	-0.03029154
255	0x3d351a00	0.04421425

fc.2.bias f4 [100]
0	0x3cf9988f	0.030468253
1	0xbd03db6c	-0.03219168
2	0xbd03677c	-0.032081112
3	0x3cfd253c	0.030901544
4	0xbcebd4d9	-0.028788017
5	0x3cfc82a7	0.030824019
6	0x3cf9c1aa	0.030487854
7	0x3d043355	0.032275517
8	0xbd07b42a	-0.033130802
9	0x3cf9ab68	0.03047724
10	0x3ce71b20	0.028211176
11	0x3cedd04c	0.029029988
12	0x3d07d0dc	0.03315817
13	0xbd0c4686	-0.034246944
14	0x3cf724e5	0.03016896
15	0x3d00bf05	0.03143217
16	0xbcf5b983	-0.029995685
17	0x3d004624	0.03131689
18	0xbcec362a	-0.028834421
19	0xbcfe6dad	-0.031058157
20	0xbcff66bc	-0.031176917
21	0xbd06c4e9	-0.032902632
22	0xbd064c0d	-0.03278737
23	0x3cef5c70	0.029218882
24	0xbcfccdaf	-0.030859796
25	0x3ce79550	0.02826944
26	0xbceef122	-0.029167715
27	0xbcf0d8b7	-0.029400213
28	0xbd05b7af	-0.032645877
29	0xbd051b04	-0.032496467
30	0x3d0ae0ee	0.033905916
31	0xbcdc2528	-0.026873186
32	0xbce79e0d	-0.028273607
33	0x3cfe086e	0.031009879
34	0x3cf7bd32	0.030241583
35	0x3cf4603f	0.02983105
36	0x3cf5435a	0.029939342
37	0xbcf843f9	-0.03030585
38	0xbcf80869	-0.030277448
39	0x3d0de85c	0.034645423
40	0x3cf6ba71	0.030118199
41	0xbceed203	-0.029152876
42	0xbcfcc7dd	-0.030857021
43	0x3d00d305	0.031451244
44	0xbce7e52e	-0.028307524
45	0x3cff9a03	0.031201368
46	0x3d021069	0.03175393
47	0x3d0352b7	0.032061305
48	0xbd02d54c	-0.031941697
49	0x3cfa5700	0.030559063
50	0xbcef9e7c	-0.029250376
51	0x3cf84b47	0.030309333
52	0xbd0639d7	-0.032770004
53	0x3ce9ee2e	0.028555956
54	0x3d019517	0.031636324
55	0x3cfe0616	0.031008761
56	0xbd02e2e4	-0.03195466
57	0x3d017a49	0.03161076
58	0x3cf67321	0.030084195
59	0xbcf51edb	-0.02992194
60	0x3d067156	0.03282293
61	0x3d031a33	0.032007407
62	0x3cf64f06	0.030066978
63	0xbce46672	-0.027880881
64	0xbcf2ae9c	-0.029624276
65	0xbd06d921	-0.032921914
66	0x3cfb81c4	0.030701526
67	0x3d080cdb	0.033215385
68	0x3cfc995f	0.030834852
69	0xbcea3cfb	-0.02859353
70	0x3cf14c11	0.029455217
71	0x3cf2a01d	0.029617364
72	0x3d00d7c9	0.03145579
73	0xbd0e3c1b	-0.03472529
74	0xbceeba48	-0.02914156
75	0xbd098634	-0.03357525
76	0x3d0240fa	0.031800248
77	0xbceb9cfb	-0.028761378
78	0x3ce1cb0e	0.027562644
79	0xbcef52f1	-0.029214354
80	0x3cef223b	0.029191127
81	0xbd012ad9	-0.031535003
82	0x3ce9ef12	0.02855638
83	0x3d09440a	0.033512153
84	0xbcfabfa8	-0.030608967
85	0x3cfdebb3	0.03099618
86	0x3ceeca13	0.02914909
87	0xbd026d2f	-0.031842407
88	0x3cf1f761	0.029536905
89	0x3d012c34	0.031536296
90	0x3cf80ca1	0.03027946
91	0xbd0bbb7a	-0.03411434
92	0x3cfb1202	0.030648235
93	0x3cf994ef	0.030466525
94	0xbcf5e67d	-0.030017132
95	0x3d0bfbd5	0.034175713
96	0x3cf984cc	0.03045883
97	0xbcfd1a83	-0.03089643
98	0xbd0d2d0d	-0.034466792
99	0xbcf983cb	-0.030458352

fc.3.weight f4 [100, 100]
0	0xbe055384	-0.1302014
1	0x3e3244b2	0.17409018
2	0x3e204ac9	0.15653528
3	0xbe2d82b2	-0.16944388
4	0x3dfb4272	0.12268533
5	0xbe1f7a85	-0.15574081
6	0xbe2c916b	-0.16852348
7	0xbe15803b	-0.14599697
8	0x3e5408e9	0.20706524
9	0xbe12a1ce	-0.14319536
10	0xbe62667c	-0.22109407
11	0xbe15dc2d	-0.14634772
12	0xbe1ab540	-0.15108204
13	0x3e1f390c	0.15549105
14	0xbe1bc00f	-0.15209983
15	0xbe4bc95c	-0.19901031
16	0x3e1043ff	0.14088438
17	0xbe36f8aa	-0.17868295
18	0x3e15b3cd	0.1461937
19	0x3e0fdf58	0.14050043
20	0x3e256eb0	0.16155505
21	0x3e2b06bf	0.16701792
22	0x3e3d8391	0.1850722
23	0xbe28d1c6	-0.16486272
24	0x3e336c88	0.1752187
25	0xbe15dfff	-0.14636229
26	0x3de248b3	0.110490225
27	0x3e225302	0.15851977
28	0x3e1032b4	0.14081842
29	0x3e303b40	0.17210102
30	0xbe61e5c4	-0.22060305
31	0x3ddd1666	0.10795288
32	0x3de4c32d	0.11170039
33	0xbe2a7fd5	-0.16650327
34	0xbe4132ce	-0.18867037
35	0xbe0f80e8	-0.14014018
36	0xbdddec62	-0.10836102
37	0x3e299643	0.16561227
38	0x3e19e235	0.15027697
39	0xbe1e4c68	-0.15458834
40	0xbdf663f6	-0.12030785
41	0x3df4d2f8	0.119543016
42	0x3e18aa08	0.14908612
43	0xbe428782	-0.18997005
44	0x3e1d015b	0.15332548
45	0xbdfb5d2b	-0.1227363
46	0xbe4803c2	-0.19532683
47	0xbe2c92b6	-0.16852841
48	0x3e50eb29	0.20402206
49	0xbe45a243	-0.19300179
50	0x3de884ce	0.113534555
51	0xbe27fca6	-0.16404971
52	0x3e30af8a	0.17254463
53	0xbde573d6	-0.112037346
54	0xbe3df812	-0.18551663
55	0xbe1a4c61	-0.15068199
56	0x3e024247	0.12720595
57	0xbe0ba119	-0.13635673
58	0xbe2b42bd	-0.16724677
59	0x3e32bcb4	0.17454797
60	0xbe35bbc3	-0.17747407
61	0xbe137777	-0.14401041
62	0xbdf081fc	-0.117435426
63	0x3e076df0	0.13225532
64	0x3e0ee769	0.13955463
65	0x3e296f58	0.1654638
66	0xbe351d6c	-0.17687005
67	0xbe2f1532	-0.17097929
68	0xbe29eeb9	-0.16594972
69	0x3e0e6c99	0.13908614
70	0xbe0ad171	-0.13556458
71	0xbe1791bc	-0.14801687
72	0xbe19101f	-0.14947556
73	0x3e15c94b	0.14627568
74	0x3e03e2a1	0.12879421
75	0x3e369aa0	0.17832422
76	0xbe293ee8	-0.16527903
77	0x3e25f6bc	0.16207403
78	0xbdf0e9f5	-0.11763374
79	0x3e1912ff	0.14948653
80	0xbe0f82e8	-0.1401478
81	0x3e1c8b43	0.15287499
82	0xbe38ac2d	-0.1803443
83	0xbe585268	-0.21125185
84	0x3e0fefe8	0.1405636
85	0xbe1bb0c0	-0.15204144
86	0xbe36e68c	-0.17861384
87	0x3de0e9ec	0.10982117
88	0xbe229189	-0.1587583
89	0xbe2ad078	-0.16681087
90	0xbdfbf52c	-0.12302622
91	0x3e104a71	0.14090897
92	0xbe268bd6	-0.1626428
93	0xbe197af5	-0.1498831
94	0x3e016c5b	0.1263899
95	0xbe452247	-0.19251357
96	0xbe2595fe	-0.16170499
97	0x3e42b99e	0.1901612
98	0x3e2115fe	0.15731046
99	0x3e1b0513	0.15138654
100	0xbe3a3827	-0.18185483
101	0x3e235b90	0.15952897
102	0x3dce37ab	0.100692116
103	0xbe23c4a2	-0.15992978
104	0x3dfa26d0	0.12214434
105	0xbe117610	-0.14205194
106	0xbe723ca0	-0.23655939
107	0xbe01a571	-0.12660767
108	0x3e243b10	0.16038156
109	0xbe35136b	-0.17683189
110	0xbe20614f	-0.1566212
111	0xbe554935	-0.20828708
112	0xbe2b08c2	-0.1670256
113	0x3da9e215	0.08295075
114	0xbe450627	-0.19240628
115	0xbe4cddb8	-0.20006454
116	0x3e102652	0.14077118
117	0xbe88ed5c	-0.2674359
118	0x3e16f916	0.14743456
119	0x3e2558b6	0.16147122
120	0x3e0fc0d6	0.14038405
121	0x3e1297d7	0.14315735
122	0x3df6f711	0.12058843
123	0xbe3f2d1a	-0.18669549
124	0x3dfaf9de	0.1225469
125	0xbdf7bd7f	-0.120966904
126	0x3e569f1f	0.20959137
127	0x3e4af867	0.1982132
128	0x3dd070ed	0.10177789
129	0x3dec4749	0.11537034
130	0xbd902974	-0.070391566
131	0x3e5ecbef	0.21757482
132	0x3e2c3541	0.1681719
133	0xbe5ad77f	-0.21371268
134	0xbe6119ca	-0.21982494
135	0xbe6b8f0f	-0.23003791
136	0xbdff2913	-0.12459006
137	0x3e3f8dc8	0.18706429
138	0x3e2308eb	0.1592137
139	0xbe02dda2	-0.12779859
140	0xbe29b5c3	-0.16573243
141	0x3e221210	0.15827203
142	0x3df9d86d	0.12199483
143	0xbe613919	-0.21994437
144	0x3e3aa83c	0.18228239
145	0xbe1db021	-0.15399219
146	0xbe27bdca	-0.16380993
147	0xbe326643	-0.17421822
148	0x3dfe7be6	0.124259755
149	0xbe3c8b9f	-0.18412636
150	0x3e663f5c	0.22485107
151	0xbe2cab0c	-0.16862124
152	0x3de3dbe9	0.11125929
153	0xbe550b28	-0.20805037
154	0xbe1ae9e8	-0.1512829
155	0xbe104700	-0.14089584
156	0x3e08061a	0.13283578
157	0xbe47d371	-0.19514252
158	0xbe643deb	-0.22289245
159	0x3e2f99d4	0.17148525
160	0xbe448f89	-0.1919538
161	0xbe62089f	-0.22073601
162	0xbe2bd55a	-0.16780606
163	0x3e6434b9	0.22285737
164	0x3e58480c	0.21121234
165	0x3df35563	0.118815206
166	0xbe60c946	-0.2195178
167	0xbe5bf4e6	-0.2148014
168	0xbe6669a6	-0.22501239
169	0x3e4bd0ac	0.19903821
170	0xbe6fd383	-0.23420529
171	0xbe6f7aec	-0.23386735
172	0xbe243b18	-0.16038167
173	0x3d90c51c	0.07068846
174	0x3dc264ad	0.09491859
175	0x3e01b511	0.12666728
176	0xbe201df2	-0.15636423
177	0x3e8101a2	0.25196558
178	0xbe2ff729	-0.17184128
179	0x3e3d1ef3	0.18468837
180	0xbe4cf476	-0.2001513
181	0x3df1aebe	0.118009076
182	0xbe79f77f	-0.24410819
183	0xbe5469ca	-0.2074348
184	0x3e1714c4	0.14754015
185	0xbe230eff	-0.1592369
186	0xbdcabe1c	-0.09899542
187	0x3dbdea74	0.09273234
188	0xbe7a8e15	-0.24468262
189	0xbe6b6fcb	-0.22991864
190	0xbe507ad6	-0.20359358
191	0x3e0617bf	0.13094996
192	0xbe3004ac	-0.17189282
193	0xbe1022b5	-0.1407574
194	0x3e43af01	0.19109727
195	0xbe32bf3a	-0.1745576
196	0xbe34ed69	-0.1766869
197	0x3ded1346	0.11575942
198	0x3de04afa	0.10951801
199	0x3e265c8e	0.16246244
200	0x3df1b026	0.11801176
201	0xbdc1d983	-0.09465315
202	0xbdbd6152	-0.09247078
203	0x3e165a4a	0.1468288
204	0xbe10642b	-0.14100711
205	0x3e134d41	0.14384939
206	0x3e41b7ce	0.18917772
207	0x3de760d6	0.11297767
208	0xbd902674	-0.07038584
209	0x3e4fd7f5	0.20297225
210	0x3e316215	0.17322572
211	0x3e103ba0	0.14085245
212	0x3d91932f	0.07108151
213	0x3baf738f	0.005354352
214	0x3e48f6db	0.19625418
215	0x3e39d92f	0.18149255
216	0xbe0afcad	-0.1357295
217	0x3e05ef19	0.1307949
218	0xbe094f4b	-0.13409154
219	0xbda7950f	-0.081827275
220	0xbdde53d6	-0.10855834
221	0xbdb2964e	-0.087200746
222	0xbd8575e7	-0.06516629
223	0x3e2d103f	0.16900729
224	0xbd66b679	-0.056326363
225	0x3e42f14c	0.1903736
226	0xbe29a4ae	-0.16566727
227	0xbe26fcb4	-0.16307336
228	0xbd19b6af	-0.037527736
229	0xbda76a8c	-0.08174619
230	0x3d957417	0.07297533
231	0xbe3a1156	-0.18170676
232	0xbe30de44	-0.17272288
233	0x3e441f3c	0.1915254
234	0x3dbc3f08	0.0919171
235	0x3e5a360e	0.21309683
236	0x3dcca45e	0.09992288
237	0xbe45af76	-0.19305214
238	0xbdeff866	-0.117173
239	0x3dc70509	0.09717757
240	0x3e26b3a0	0.16279459
241	0xbe362eaa	-0.17791238
242	0xbdcd87dc	-0.10035679
243	0x3df0662e	0.11738239
244	0xbe2bedd9	-0.1678995
245	0x3e30dc48	0.1727153
246	0x3e4ade2a	0.19811311
247	0x3e07eb7b	0.13273422
248	0xbdd7b9f8	-0.105335176
249	0x3e3a006a	0.1816422
250	0xbe3668af	-0.17813371
251	0x3e2a627e	0.16639134
252	0xbdb770e5	-0.0895708
253	0x3e22a06a	0.15881506
254	0x3e2ffcb8	0.17186248
255	0x3e028a84	0.12748152

fc.3.bias f4 [100]
0	0xbcc45f0c	-0.023971103
1	0xbcb59235	-0.022164444
2	0x3cf8e8f9	0.030384528
3	0x3d0c40b8	0.034241408
4	0xbd067a77	-0.032831635
5	0x3d04c280	0.032412052
6	0xbd094b7e	-0.03351926
7	0xbce75ecc	-0.028243445
8	0x3d0676c3	0.032828104
9	0xbce14860	-0.027500331
10	0xbcdbb225	-0.026818344
11	0xbcf650e7	-0.030067874
12	0x3cfd2720	0.030902445
13	0xbc93c7a1	-0.018039526
14	0x3d07891c	0.033089742
15	0xbccc288d	-0.02492168
16	0x3cfecf6f	0.031104771
17	0xbcf333b7	-0.029687745
18	0xbcf99895	-0.030468265
19	0xbcb78617	-0.022402806
20	0xbcdd6709	-0.02702667
21	0x3d014a02	0.03156472
22	0xbd1b3d76	-0.03790041
23	0xbcfa02d0	-0.03051892
24	0x3d0788f8	0.033089608
25	0xbcd986f6	-0.026553612
26	0x3d13e2f6	0.03610512
27	0xbce0fa13	-0.027462995
28	0xbce29df9	-0.027663218
29	0x3d04db0f	0.032435473
30	0x3d00cc8c	0.03144507
31	0x3d0aa135	0.033845145
32	0x3d0b7371	0.03404564
33	0xbd0797c3	-0.033103716
34	0xbd27a4f4	-0.040928796
35	0x3d035f7d	0.032073487
36	0xbca2d689	-0.019877689
37	0x3d035f6a	0.032073416
38	0xbcf76918	-0.03020148
39	0xbd22b101	-0.039719585
40	0xbcde9072	-0.027168486
41	0xbcca4fce	-0.024696257
42	0xbce8ee40	-0.028433919
43	0x3d01e4be	0.031712286
44	0x3d0431b0	0.03227395
45	0xbccb9d51	-0.024855288
46	0x3d02958f	0.03188091
47	0x3d0b06a9	0.0339419
48	0x3cf8062e	0.030276384
49	0x3cfda264	0.030961223
50	0xbcdc1ef4	-0.026870228
51	0x3d03ea34	0.032205775
52	0x3d08c876	0.0333943
53	0xbce51b86	-0.027967226
54	0x3d0b8482	0.034061916
55	0x3d0550b2	0.03254766
56	0x3d02837a	0.031863667
57	0x3d074f78	0.03303477
58	0x3cf8ad3b	0.03035604
59	0xbce438a8	-0.027859047
60	0x3d068706	0.032843612
61	0xbcb3e69b	-0.021960547
62	0xbd0e9970	-0.0348143
63	0x3cfd90dd	0.030952865
64	0x3d05c99a	0.032662965
65	0x3d0136da	0.03154645
66	0xbd091a84	-0.033472553
67	0x3cfa285b	0.030536821
68	0x3d024018	0.031799406
69	0xbcc8f0f9	-0.024528967
70	0xbd0ee20f	-0.034883555
71	0xbd02173b	-0.031760436
72	0xbd06f353	-0.032946896
73	0x3d063acd	0.03277092
74	0xbca8e81b	-0.020618489
75	0xbcbe842e	-0.023256388
76	0xbcb30d71	-0.021856995
77	0xbcd8ccd9	-0.026464866
78	0xbcf6fa13	-0.030148542
79	0xbcb540b6	-0.022125583
80	0xbd176cb7	-0.036968913
81	0x3d02e27e	0.03195428
82	0xbd0dd67a	-0.03462837
83	0xbcc6b29a	-0.024255086
84	0xbcb45310	-0.022012264
85	0xbcbc2013	-0.022964513
86	0xbcc7adab	-0.024374804
87	0x3d0d76b1	0.03453702
88	0xbce6e08a	-0.02818324
89	0xbd1efa3f	-0.038812872
90	0xbd0c27f0	-0.034217775
91	0xbcb11147	-0.021614684
92	0xbcd6cf7c	-0.026221983
93	0xbcc64346	-0.024202
94	0x3d047e9d	0.03234731
95	0xbd03aec8	-0.032149106
96	0xbd0f14a4	-0.034931794
97	0x3d03915d	0.03212105
98	0x3d0a26ea	0.033728518
99	0x3d0a86c7	0.03381994

fc.4.weight f4 [100, 100]
0	0xbe04d887	-0.12973224
1	0xbe1eacff	-0.1549568
2	0x3dd5e09e	0.10443233
3	0x3d748b7a	0.059703328
4	0xbdd32790	-0.1031028
5	0x3dd7599e	0.1051514
6	0xbdfa4c6a	-0.12221606
7	0xbe28f077	-0.1649798
8	0x3e105fc8	0.14099038
9	0xbe1cfd46	-0.15330991
10	0xbe13a1a0	-0.14417124
11	0xbdf0cbcc	-0.11757621
12	0x3d8a7c32	0.067619696
13	0xbdfbd7fb	-0.122970544
14	0x3dfebd83	0.1243849
15	0xbe4f295b	-0.2023062
16	0x3cbf6ce1	0.023367347
17	0xbdda52ea	-0.10660346
18	0xbddb94cb	-0.107217394
19	0xbdffca0a	-0.12489708
20	0xbe2f328b	-0.17109124
21	0x3e1ea8e1	0.1549411
22	0xbe0479ad	-0.1293704
23	0xbe26cd97	-0.16289364
24	0x3d8970d3	0.06710973
25	0xbe03b874	-0.12863332
26	0x3d6e31e7	0.05815306
27	0xbdf14f57	-0.11782711
28	0xbe0eb998	-0.13937986
29	0x3d3fd87c	0.046837315
30	0x3d8c539f	0.06851887
31	0x3d7e8606	0.062139533
32	0x3d97b62e	0.07407795
33	0xbe095129	-0.13409866
34	0xbe16893f	-0.14700793
35	0x3e021020	0.12701464
36	0xbe0caba0	-0.13737345
37	0x3d874765	0.06605414
38	0xbe0fa322	-0.14027074
39	0xbe365ae7	-0.17808114
40	0xbe0326fe	-0.12807843
41	0xbe17bbb4	-0.14817697
42	0xbe0d2637	-0.13784109
43	0x3d2e3501	0.042531017
44	0x3e047fec	0.12939423
45	0xbe197412	-0.14985684
46	0x3dc0d6a2	0.09415938
47	0x3d6b5aff	0.057459828
48	0x3da21604	0.079143554
49	0x3d8d1dbe	0.068904385
50	0xbe1bd063	-0.15216212
51	0x3e09ddde	0.13463542
52	0x3d85b83b	0.0652928
53	0xbe0f1e8b	-0.13976495
54	0x3dc0ed1c	0.09420225
55	0x3dbd60fd	0.09247015
56	0x3db21b87	0.08696657
57	0x3dae81db	0.08520862
58	0x3daa6be1	0.083213575
59	0xbe0e34d7	-0.13887344
60	0x3dff2f77	0.12460225
61	0xbe27a9fb	-0.16373436
62	0xbe1b54d3	-0.15169077
63	0x3e0b8238	0.13623893
64	0x3cff8b70	0.031194419
65	0x3de13f39	0.10998387
66	0xbe0299ca	-0.12753978
67	0x3dcb97a7	0.09941035
68	0x3d9b0dc4	0.07570985
69	0xbe17975a	-0.1480383
70	0xbdcb0b06	-0.09914212
71	0xbdf410a4	-0.119172364
72	0xbe0af430	-0.13569713
73	0x3d9cd020	0.07656884
74	0xbe223a99	-0.15842666
75	0xbde56ffc	-0.11203
76	0xbe195882	-0.1497517
77	0xbe177444	-0.14790446
78	0xbe041dfa	-0.1290206
79	0xbde3fab9	-0.11131806
80	0xbde27b2c	-0.110586494
81	0x3de926d1	0.11384357
82	0xbe0b5a20	-0.13608599
83	0xbe046415	-0.12928803
84	0xbe2546ea	-0.16140333
85	0xbe10b054	-0.14129764
86	0xbe310a73	-0.17289142
87	0x3d8c4f70	0.06851089
88	0xbe17ff94	-0.14843589
89	0xbe2add75	-0.16686042
90	0xbe06cf3e	-0.13164994
91	0xbe18c057	-0.14917122
92	0xbdf3328a	-0.11874874
93	0xbe271c43	-0.16319375
94	0x3e02bb24	0.12766701
95	0xbdb0e643	-0.08637669
96	0xbe3a265e	-0.18178698
97	0x3db92a1f	0.09041237
98	0x3dcabe08	0.09899527
99	0x3d8af7f3	0.06785574
100	0xbcfbe5df	-0.03074926
101	0xbd4ff395	-0.050769407
102	0x3ca0c870	0.019626826
103	0x3d468c71	0.04847378
104	0xbd6781f1	-0.056520406
105	0x3e036617	0.12831913
106	0xbd1dc6c6	-0.038519643
107	0xbd165f42	-0.03671194
108	0x3d643e34	0.055723384
109	0xbd7408fd	-0.059578884
110	0xbd0d4470	-0.034489095
111	0xbd19f829	-0.03759018
112	0x3d2da2ac	0.042391464
113	0xbc9e7386	-0.019342195
114	0x3d703e34	0.05865307
115	0xbdb2be80	-0.08727741
116	0x3d7602e5	0.060061354
117	0xbd19905b	-0.037491184
118	0xbd9c00d9	-0.07617349
119	0xbd1e4e02	-0.038648613
120	0xbd5f37bd	-0.054496516
121	0x3d341635	0.04396649
122	0xbd8d1c7b	-0.06890198
123	0xbd472216	-0.04861649
124	0x3cec6e1b	0.028861096
125	0xbcd05c0b	-0.025434515
126	0x3e03e38f	0.12879775
127	0xbd2d2bc3	-0.042278063
128	0xbd104010	-0.035217345
129	0x3dd8dba6	0.105887696
130	0x3dae8d0c	0.08522996
131	0x3d27fd93	0.04101331
132	0xbc9ad072	-0.018898223
133	0xbd6a63fa	-0.05722425
134	0xbdcc4bb4	-0.09975377
135	0x3cbb9b3a	0.022901166
136	0xbd875841	-0.0660863
137	0x3dbd4f48	0.09243637
138	0xbd9f5d31	-0.07781447
139	0xbde56c8d	-0.11202345
140	0xbd75b475	-0.05998655
141	0xbda96f84	-0.08273223
142	0xbdc4125b	-0.095738135
143	0x3d193c06	0.03741076
144	0xbce17fe5	-0.027526805
145	0xbd211e4b	-0.03933553
146	0x3d6038a0	0.0547415
147	0x3d8c913f	0.06863641
148	0x3d91d7ad	0.07121215
149	0x3d5b3fb5	0.053527553
150	0xbd38994e	-0.045068078
151	0xbb068695	-0.0020526994
152	0x3d78ba9b	0.060724836
153	0xbdaba196	-0.083804294
154	0x3d35bf9b	0.044372182
155	0x3d4c4685	0.04987194
156	0x3cd12dea	0.025534589
157	0x3d0a19c0	0.033715963
158	0x3d918e78	0.07107252
159	0xbd80920e	-0.06277858
160	0x3bbbe484	0.0057340283
161	0xbd39f1db	-0.045396667
162	0xbdb18e7d	-0.086697556
163	0x3c5cba99	0.013472223
164	0x3d320eff	0.043471333
165	0x3d6daca2	0.058025964
166	0xbd9d012b	-0.076662384
167	0x3c544ada	0.012957299
168	0x3d8f377b	0.06993004
169	0xbd91279f	-0.07087635
170	0xbdb441b9	-0.08801598
171	0xbd879f8d	-0.06622229
172	0xbdbf6c11	-0.09346784
173	0x3c312f41	0.010814489
174	0xbdaba5cb	-0.08381232
175	0xbce6159a	-0.028086472
176	0xbc19a126	-0.0093768
177	0xbdaaee8e	-0.08346282
178	0xbd882243	-0.0664716
179	0xbc305d3d	-0.010764417
180	0xbd671159	-0.05641303
181	0xbbcd578c	-0.00626654
182	0xbd42f228	-0.04759422
183	0xbd04dace	-0.03243523
184	0xbd6cf847	-0.057853963
185	0xbd150877	-0.036385026
186	0xbd5ef56e	-0.05443328
187	0x3d7709a6	0.060311936
188	0xbd635908	-0.05550483
189	0xbdbd7eb5	-0.09252683
190	0xbd6dc4a1	-0.058048848
191	0xbd6486b3	-0.05579252
192	0xbd4cc785	-0.049994964
193	0xbd01ad76	-0.031659566
194	0x3c823f13	0.015899217
195	0xbd3c65d3	-0.045995545
196	0xbd9e0fc0	-0.07717848
197	0x3d9ea235	0.07745782
198	0x3c331f5c	0.01093277
199	0x3cc3c031	0.023895355
200	0x3e1d271a	0.15346947
201	0x3e21d2bb	0.15803044
202	0xbdf8bb92	-0.12145151
203	0xbe1f5c1b	-0.15562479
204	0x3e5b126b	0.21393745
205	0xbe1be1d7	-0.1522287
206	0x3e5146bc	0.2043714
207	0x3e59d042	0.2127085
208	0xbe3e9d8d	-0.18614788
209	0x3e48dec9	0.19616236
210	0x3e2140ec	0.15747422
211	0x3e3325bd	0.17494865
212	0xbe3138b0	-0.17306781
213	0x3e08d897	0.13363872
214	0xbe27ef3c	-0.16399854
215	0x3e1fc595	0.15602715
216	0xbe30d521	-0.17268802
217	0x3e3e7d4a	0.18602481
218	0x3e4388be	0.19095132
219	0x3e165340	0.14680195
220	0x3e303d29	0.17210831
221	0xbde491a3	-0.111605905
222	0x3e655536	0.22395787
223	0x3e63b94f	0.22238658
224	0xbe240673	-0.16018085
225	0x3e2a48be	0.16629311
226	0xbe41696a	-0.18887869
227	0x3e448b0a	0.19193664
228	0x3e40bfa6	0.18823108
229	0xbe3a1688	-0.18172657
230	0xbe14ec31	-0.14543225
231	0xbe26c986	-0.16287813
232	0xbe386556	-0.18007407
233	0x3e382662	0.17983392
234	0x3e7bdec7	0.24596702
235	0xbe41007f	-0.18847845
236	0x3e46271f	0.19350861
237	0xbe2eeae8	-0.17081797
238	0x3e20c0b5	0.15698512
239	0x3e4c6f4e	0.19964334
240	0x3e339ea3	0.17540984
241	0x3e12d75f	0.1433997
242	0x3e524863	0.20535426
243	0xbe385331	-0.18000485
244	0xbe1702d3	-0.14747171
245	0x3e28bf05	0.16479118
246	0xbe2645dd	-0.16237588
247	0xbe14658b	-0.1449186
248	0xbe0653a9	-0.13117851
249	0xbe0de6fd	-0.13857646
250	0x3e447774	0.19186193
251	0xbe08f49e	-0.13374564
252	0xbe50eb21	-0.20402195
253	0x3e1c4c67	0.1526352
254	0xbe37b8bd	-0.17941566
255	0xbe23da40	-0.16001225

fc.4.bias f4 [100]
0	0xbcc4bb0f	-0.024014978
1	0xbcb962ea	-0.022630174
2	0xbd1518ea	-0.036400713
3	0xbcd06d0f	-0.025442628
4	0xbcd8613d	-0.026413554
5	0xbcac9b4d	-0.021070147
6	0x3bb90615	0.005646477
7	0xbce32a5c	-0.02773016
8	0x3a664213	0.00087836495
9	0xbcb7d80c	-0.022441886
10	0xbd35ded7	-0.04440197
11	0xbc98fc45	-0.018674979
12	0x3d01429f	0.031557675
13	0xbd0e3deb	-0.03472702
14	0xbca6ed08	-0.020376697
15	0xbcd1b438	-0.02559863
16	0xbccf082c	-0.025272451
17	0xbd4b062e	-0.04956644
18	0xbc35536a	-0.011067251
19	0xbbddcfc7	-0.0067691538
20	0xbbcdf092	-0.0062847817
21	0xbcaa3e21	-0.020781578
22	0xbcd8403b	-0.026397815
23	0x3bb80071	0.005615287
24	0xbbe56ba8	-0.007001359
25	0x3bbfd1db	0.005853874
26	0xbbe3038c	-0.006927913
27	0xbc5daf54	-0.013530571
28	0xbce49f7c	-0.02790808
29	0xbbebfd49	-0.007201825
30	0xbc839fbf	-0.016067384
31	0xbb3dd38d	-0.0028965205
32	0xbc547728	-0.012967862
33	0xbb6e9258	-0.0036403146
34	0xbcae744b	-0.021295687
35	0xbcc9c768	-0.024631217
36	0xbcdf620c	-0.027268432
37	0xbcfe4a3f	-0.031041263
38	0xbcb8234c	-0.022477768
39	0xbc8fa29e	-0.017533597
40	0x3c6d185b	0.014471139
41	0xbca9cf5b	-0.020728758
42	0xbbef3ab4	-0.007300699
43	0xbc938e68	-0.01801224
44	0xbc5998c8	-0.013281055
45	0xbcb7efda	-0.022453237
46	0xbc8725de	-0.016497549
47	0xbc99efbd	-0.018791074
48	0xbc6480f4	-0.01394676
49	0xbcbea962	-0.023274127
50	0xbc87ccaa	-0.016577084
51	0xbd0d7462	-0.03453482
52	0xbce9f6fe	-0.028560158
53	0x3844990e	4.6872585e-05
54	0x3b52b975	0.0032153998
55	0xbc839b0f	-0.016065149
56	0xbcd48013	-0.025939977
57	0xbcdda074	-0.02705405
58	0xbbb00cf3	-0.0053726374
59	0xbc5db674	-0.01353227
60	0xbc9f212a	-0.019424994
61	0xbc66de88	-0.0140911415
62	0xbb30095a	-0.0026861043
63	0xbc931e11	-0.017958673
64	0x3c17d184	0.009266261
65	0xbd1e7dba	-0.03869412
66	0xbc6eed44	-0.014582936
67	0xbcdaf32b	-0.02672728
68	0xbca622d2	-0.020280275
69	0xbc42821b	-0.01187184
70	0xbca13f1e	-0.019683417
71	0xbc833a85	-0.016019115
72	0xbc56e834	-0.013116885
73	0xbc97b902	-0.018520836
74	0xbc1f7458	-0.009732328
75	0xbc658dca	-0.014010856
76	0xbb4f192b	-0.0031600695
77	0xbcf2780b	-0.029598257
78	0xbcb091db	-0.021553924
79	0x3c95ae98	0.01827173
80	0xbcb70b68	-0.022344306
81	0xbc273d7d	-0.010207531
82	0xbd260435	-0.040531356
83	0xbccdbd67	-0.025114728
84	0x3c0612ea	0.00818322
85	0xbcc06a30	-0.023488134
86	0xbc7017bc	-0.014654096
87	0xbacbe173	-0.001555486
88	0xbcc6bc22	-0.02425963
89	0xbc06982a	-0.00821499
90	0xbd053b01	-0.032526974
91	0xbcaf0aee	-0.021367516
92	0xbcc25317	-0.023721261
93	0xbc1a3765	-0.009412621
94	0x3b6b8989	0.0035940132
95	0xbcc3f68f	-0.02392128
96	0xbbb92f5c	-0.0056513976
97	0xbca9f677	-0.020747406
98	0x3ad3ecea	0.0016168628
99	0xbcd186e4	-0.025577016
