results/Smoothed_MINE_dim6_reg1_alpha0.1.pt (torch, 229691 bytes, 13 tensors)

fc.0.weight f4 [100, 12]
00000000: 172c e43b e590 d2bb 69ae 823b 86e7 7dbb
00000010: 5026 ff3c b329 013d f11d a2bc 6b97 02bc
00000020: e569 883b 262f b63b d530 293c 97ae a13b
00000030: 0ae3 9c3c 47c6 baba 51fc 213a 37b0 b53c
00000040: 8538 d13b c84c 853c e878 c63c df56 a8bc
00000050: 77c5 663c fdc1 d0bc 6bbd e33c 6286 67ba
00000060: 7750 163d 1c0d 3cbd 56be 603d be4e 6b3d
00000070: 1216 1bbd 1c87 acbc 0809 09bd b8e7 2f3d
00000080: d204 4bbd 6462 18bd de07 c63c c56b 413c
00000090: 6f3a 683d 925d 66bd 903d 7fbc e954 7c3d
000000a0: 5fb7 a2bd 978f 20bd d105 8cbd 183d 3f3d
000000b0: 75e7 973b c0df 57bd 295a b03d 4979 1e3d
000000c0: 5b87 59bc a68f c53b 0422 4e3c 6c12 ecbc
000000d0: 8bca 8b3c 92d7 4abd b111 9abc 0939 c43b
000000e0: c83e 043d f6c2 51bd 5124 30bb bad4 2ebd
000000f0: 2b1d 913c c8db 843b 3fd8 e0bc 3f0d 89bb
00000100: a65d dcbc b164 07bd 7b0e 893c 851c 9ebb
00000110: 4d1d 97bc 4d9f 903c 9011 51bd 9928 23bd
00000120: e563 b33a 68b0 433c 74fc 2abd 53d1 eebb
00000130: dfe9 f5bc 9687 333d b45e 60bc f750 833c
00000140: 1cb0 30bd e435 8e3a 4b38 c6bc 7866 243d
00000150: b63a 983b 5fdf c83b cbd5 03bd cff1 08bc
00000160: 4f0a c8bc 692e 833d c4e1 953a e593 6eba
00000170: c1a6 adbc 2765 a6b9 73ee 13bd 0bac 813d
00000180: b794 e33c 5182 edbb 9c64 073d 3f88 23bd
00000190: 214b 2cbd 5824 943b cc76 013d 8dfe 27bc
000001a0: c977 273d adc3 4fbd f2df 77bd 9957 a9bb
000001b0: 95d1 06bc bb15 843d 8bb4 993c 603a 45bc
000001c0: f714 89bc 0ad6 87bb 6b65 a33c ab9d 4a3d
000001d0: d04a bfbc a0bc 7ebb 00ff 04bd 6de8 9ebc
000001e0: f1bf 5abc a66d 9c3b 6d70 f5bc bcc5 fa3c
000001f0: e6bf 653d efa7 803c 78ef 87bc 8cff 33bc
00000200: 1680 82bb fdc8 b63c 1718 893c ff32 d73c
00000210: 950f 44bd d3a4 2e3c 40d3 9ebc 20d4 753b
00000220: face f73c 4dff 14bd ce75 63bd 3666 3d3c
00000230: 4312 55bc e7af 043c 6895 ee3c bdb7 10bd
00000240: 86df 8fbc 5420 833c 7ff0 383d cf0e 23bc
00000250: ce36 ab3c e072 26bc 0692 25bc 84c6 81bb
00000260: 749c 5c3d 945d e8bc 65a9 e63c ec2d 883c
00000270: f1ab f13c 3b10 e3bc c3b8 9e3c ba86 05bd
00000280: e977 32bc 2d1d 64bc d640 c2ba 5566 813d
00000290: 9d27 783c cf41 ce3c 5e10 34bd f103 9b3c
000002a0: fd49 d7bc fc06 1bbd 00f2 0e3d b1fd 00bd
000002b0: b3d2 a6bb 8862 3abd 0539 99bc 34b8 05bd
000002c0: d5ff 253d a6c6 33bd 759a 7bbb fd10 cdbc
000002d0: 4ed7 2a3d 1e86 8d3c 1f5d bdbc 68cc 233d
000002e0: 9ae0 d2bc ac63 183c dfab 04bb 0109 9d3c
000002f0: 7acf bd3c 8f6a 2bbd 4e52 9b3b 4de1 e3bc
00000300: 1a98 4f3d 3f09 2ebd 5ecd 1d3d 86e5 8b3d
00000310: 3635 c13c abb9 d9bb 8971 153d 70b2 28bd
00000320: 8b26 c93c 7834 313d 2457 6f3c 6617 19bc
00000330: ad36 213d a2f9 ed3c e0fd d03c ffff e03b
00000340: 40d2 f1bc 9222 1bbd 0c9d 30bd 9345 c4bc
00000350: ba0b 89bc 144c 36bb 8ec4 0e3c 7ad8 323d
00000360: 912e 92bc 83a9 213c a19c b43c be54 c63b
00000370: 201d 1e3c 87e7 143c fcde a8bc 062e 17bd
00000380: c0da f13c 18d9 54bc c9a9 05bc c8b8 a53c
00000390: c291 86bd 21a9 3cbb 87ea 413d b07f 1d3c
000003a0: dc0f 89bc 8eeb ae3c fd04 533d 8b48 79ba
000003b0: 519c 1bbd 8b57 6ebc bed8 ee3b 663c 14bd
000003c0: 87aa d239 f92f 0e3d cc4d ee3c 69ee 5bbb
000003d0: 7122 00bd 4de9 583d 637b 23bc 6fbf 14bd
000003e0: 2a53 36bd c41c 62bc 30c7 0b3d 634b eb3a
000003f0: b9e8 bb3c a47a 073d 1900 21bc 6154 fcbc
0.0069632637 -0.006425964 0.0039880765 -0.0038742735 0.031146199 0.031533908 -0.019789668 -0.007970671
0.0041630142 0.0055598198 0.010326584 0.004934143 0.01915123 -0.0014249765 0.00061792607 0.022178752
0.0063849115 0.016271964 0.024227574 -0.020549236 0.014085165 -0.025483126 0.027800282 -0.0008831975
0.03669783 -0.04591094 0.05486902 0.05744814 -0.037862845 -0.021060519 -0.03345588 0.042945594
-0.049565144 -0.037203208 0.024173673 0.011805479 0.05669635 -0.05624158 -0.0155786425 0.061604414
-0.079451315 -0.039199438 -0.06837047 0.046689123 0.004635746 -0.05270362 0.08610947 0.038689885
-0.0132769 0.006029087 0.012581352 -0.028817378 0.017064353 -0.04952199 -0.018807264 0.0059882444
0.032286435 -0.05121132 -0.0026877115 -0.04268334 0.017714104 0.0040545203 -0.027446864 -0.0041824873
-0.026900124 -0.03305501 0.016730538 -0.004825177 -0.018446589 0.017654086 -0.05104214 -0.03983364
0.0013686387 0.011943914 -0.041744664 -0.007288137 -0.030018745 0.043830477 -0.013694454 0.016029818
-0.0431367 0.0010849801 -0.024196764 0.040136784 0.0046456708 0.0061301435 -0.03218631 -0.008358433
-0.024418978 0.064053364 0.0011435081 -0.00091010175 -0.021197679 -0.00031737352 -0.036116075 0.06331643
0.027780874 -0.007248201 0.033054933 -0.039924856 -0.042063836 0.004520934 0.031607434 -0.010253561
0.04088572 -0.05072372 -0.060516305 -0.005167913 -0.008228679 0.06449457 0.018762847 -0.0120378435
-0.01673363 -0.0041453885 0.01994582 0.04946677 -0.023351103 -0.0038869753 -0.03246975 -0.019397939
-0.013351426 0.0047738133 -0.029960835 0.030611865 0.05609121 0.015705077 -0.01659368 -0.01098622
-0.003982554 0.022312636 0.01673512 0.026269434 -0.047866423 0.010659414 -0.019387841 0.003751047
0.030250061 -0.036376286 -0.05553227 0.0115600135 -0.013004842 0.008098579 0.029123977 -0.035331476
-0.017562639 0.016006626 0.04515123 -0.009952261 0.020900156 -0.010159224 -0.0101056155 -0.0039604325
0.053860143 -0.028364934 0.028156945 0.01662346 0.029500933 -0.0277177 0.01937521 -0.03259919
-0.010892847 -0.013922972 -0.0014820348 0.063183464 0.015146163 0.025177864 -0.04396092 0.018922778
-0.026280398 -0.037848458 0.034898758 -0.03149194 -0.0050910353 -0.045504123 -0.018703947 -0.032646373
0.040527184 -0.043890618 -0.0038391624 -0.025032515 0.041709237 0.017275866 -0.023115693 0.03998986
-0.025741864 0.009301107 -0.0020244045 0.019169332 0.023170222 -0.04184967 0.004740036 -0.027817393
0.050682165 -0.042489287 0.03852593 0.068308875 0.023584943 -0.006644448 0.03648523 -0.041185796
0.024554512 0.04326293 0.014608178 -0.0093439575 0.039358784 0.029049698 0.025511682 0.0068664546
-0.0295192 -0.037874766 -0.04311852 -0.023958957 -0.016729224 -0.0027816342 0.0087138545 0.04366348
-0.01784447 0.009867075 0.022047343 0.0060525825 0.009650499 0.009088404 -0.02061414 -0.036909126
0.029523253 -0.012991212 -0.008158156 0.020229712 -0.0657077 -0.0028787332 0.047342803 0.009612963
-0.016731195 0.021352556 0.05151843 -0.0009509406 -0.03799087 -0.014547239 0.0072890213 -0.036190413
0.00040181374 0.03471372 0.02908983 -0.0033558852 -0.031282846 0.052956868 -0.009978148 -0.036315378
-0.044512905 -0.013800804 0.034125507 0.0017951544 0.02293812 0.033075944 -0.009826683 -0.030801954

fc.0.bias f4 [100]
00000000: ee4e 08ba 465f 87b9 7996 b4bb ceac 31bc
00000010: 9988 d7bb 5a9e 30bc e512 21bc 33a9 2ebc
00000020: a906 10bc 9844 d2bb af31 ccbb cd5b 45bc
00000030: ad9d fdbb dd9e 853c bd8a 56bc 40e7 8d3c
00000040: f042 95bc fcf0 3cbc 61a9 29bb 65d3 e1bb
00000050: b122 0cbc 3f42 85bb 3f06 6dbb 7b4c 31bc
00000060: 7606 3cbc 90da 5cbc ec8f 90bb 832c 263b
00000070: 7543 4fbc 0fa0 67bb 4caa bdbb c24b 50bc
00000080: 337b 5abb 8376 2c3b daaf 17bc ae4e 48bc
00000090: d982 9abb 7c60 9abc b51b 22bc d824 e0bb
000000a0: b07c 97ba 3090 30bc fb46 afbb f9b8 6dba
000000b0: a5db 3bbc 4009 cabb ed31 0abc db9e 39bb
000000c0: c5ae 68bb a66b 05ba d543 4ebc 7ee3 46bb
000000d0: 758f 0abc 8d41 d8bb 6dee bcbb 4f85 b13c
000000e0: 0ea1 65bb b811 c9bb 6154 23bc e44e 41bc
000000f0: 7072 69bc adb6 a9bb 7e73 e3bb fe9d 87bc
00000100: 8413 a1bb 5e1e 283c bff4 c33b 3827 19bc
00000110: 0dc4 1aba 1e7b 5dbc 1475 e6bb 62ad 19bd
00000120: 3439 69bb d02b c2bb b11d 303b f286 2c3b
00000130: 803a 9f3c 0f1f 95bb 35ab 08bc 5b5f 963c
00000140: 82be e13b 7ec7 44bb 9527 bcbc 2a02 1abc
00000150: 2299 30bb 8de1 38bc 59fb 23bc 0c4a 1dbc
00000160: d70b ffbb 24e7 b33c b4d1 9fbb b994 b7bb
00000170: 3cb0 033a f671 45bc 5ffd be3b 3c0d b53c
00000180: 1dc6 0dbc a9e6 62bc b94f 15bb 5bac d5bb
-0.000519975 -0.0002582019 -0.005511102 -0.0108444225 -0.006577563 -0.010779941 -0.009831165 -0.010660457
-0.00879065 -0.0064168684 -0.0062315087 -0.012045813 -0.0077397437 0.016311103 -0.013094601 0.017322183
-0.018220395 -0.0115320645 -0.0025888311 -0.0068916553 -0.008553193 -0.004066735 -0.0036167053 -0.010821457
-0.01147615 -0.013479844 -0.004411688 0.002535612 -0.01265036 -0.0035343205 -0.0057881232 -0.012713375
-0.0033337593 0.0026315756 -0.009258235 -0.01222579 -0.0047153053 -0.018844835 -0.009894301 -0.0068403296
-0.0011557546 -0.0107765645 -0.0053490377 -0.00090683956 -0.011465942 -0.0061656535 -0.008434755 -0.0028323445
-0.0035504561 -0.0005089588 -0.012589415 -0.0030347998 -0.008457054 -0.006599611 -0.0057657273 0.021670012
-0.0035038623 -0.0061361454 -0.009968848 -0.011798594 -0.014248475 -0.0051792474 -0.006941258 -0.016554829
-0.0049156565 0.010261146 0.0059801037 -0.009347729 -0.00059038476 -0.013518123 -0.007033 -0.037518866
-0.0035587074 -0.005925633 0.0026873166 0.002632555 0.019437075 -0.0045508216 -0.0083416 0.018356016
0.0068891654 -0.0030026133 -0.022968093 -0.00939993 -0.0026946743 -0.011284244 -0.010008656 -0.009600174
-0.007783394 0.021960802 -0.0048772935 -0.005602446 0.00050235144 -0.012051096 0.005828544 0.022101037
-0.008653191 -0.013848939 -0.0022783114 -0.0065207905

fc.1.weight f4 [100, 100]
00000000: 1c2b 74bb b047 4c3c 732d 5f3d eac3 9a3d
00000010: 61ab 7cbb e219 443c 1122 2dbd 7583 f5bc
00000020: 2c08 fabb 883c 03bb 5ef3 07bd 4379 a5bb
00000030: cfe9 233a 9d4e c83c 6f71 8dbd 80d5 2dbb
00000040: 2fb2 21bd 78b1 1e3d ec2a abbb 8a8b e33b
00000050: e6a8 fa3c 0e70 033d 6f77 a13a c45e d23d
00000060: 2486 cd3b 2b9b b2bc c1df d13c 5b59 933b
00000070: c31e ce3d e386 a6bc 5fe1 173d 6562 bd3d
00000080: 4fb2 b03d 051d 953d 7a15 fc3b 360f a137
00000090: 1615 09bc 53f2 eabc d8c8 ec3d 7667 e5bb
000000a0: 12ab 793d 4028 81bc b5fd 17bd 46b9 3fbc
000000b0: c4d2 913d c187 1d3d ed5d 503d e61e 7ebb
000000c0: 920a e83c b3ab 203c 3e41 483c 14ae 443c
000000d0: 66ab b73c 3d24 5c3d 11bb 973d 38e5 943b
000000e0: 6291 afbc 6316 093d 9156 cd3d c9b2 bc3d
000000f0: 5881 883c 9388 8f3d 9345 b13c d855 b43a
00000100: c1cd 6e3d 3602 053d 094f 8c3c dfea 30bc
00000110: c422 85bc 631d be3d 222c c3bc 7877 2cbc
00000120: d102 963c 530f 583d 812c cfbb f71f 9c3c
00000130: 0b8e 443c e6ac 88bb 8dd1 1cbd be15 a33c
00000140: 0f13 1a3d 8aa7 7a3d f601 c83c a80a 873d
00000150: a3bd 68bb b848 c9bc f1b8 053e 30e0 c53d
00000160: 6668 1b3d 07b0 363d 9765 2bbc 4db9 89bb
00000170: fed6 893b 7942 24bd b63b 043c 8b71 063d
00000180: faee a13d 43dc 8b3d 9258 773c b527 563d
00000190: dff6 fd3b acee 37bc b6dd 90bd 4898 acbd
000001a0: c00f 823b 4a9c 9bbc 8612 9f3c 9775 403c
000001b0: 2ff0 263d fdf0 fa3b 4d74 4abb f6d6 b03c
000001c0: c92f dfbb 8cbb 1cba 6eda fabb 2888 03bd
000001d0: fa4b 063d a6b7 3cbd b913 84bc 6f53 0cbd
000001e0: c5ba be3b 954e afbc 8fcf 453c 71f4 c4bd
000001f0: b3ef 0c3b 22b9 a43a b72a dcbc 8419 843c
00000200: d58a b5bd 07dc 7abc 86cd 123b 7717 50bd
00000210: 7745 e3bd aa1f a8bc 4772 b73c d728 003d
00000220: 8453 f4bc 86c2 e33c 91ac fcbd d264 513c
00000230: 1e4c be3c 6fe7 2bbc fe72 bb3c 42c7 43bc
00000240: 7f41 c7bc 1fdc 62bc 2577 a1bc 8c3c 04bd
00000250: 0c2f 333d 8359 f9bc a3ba c2ba c044 d63c
00000260: 4cc2 3c3c a108 33bd 8ec7 b5bd fce6 12bd
00000270: 810f 93bb 4e59 2dbd 799e b6bd 7060 b9bd
00000280: 0523 643d 269f 95bd 64ec b23b 3a46 443d
00000290: d568 a8bd 0bbd 2c3c f768 76bc 66a7 153d
000002a0: ebd5 203c d1d8 abbd dbb6 d6bc 90e2 923c
000002b0: 9fe4 ecbb 5ee3 cfbb 8eef 27bc b23c 093c
000002c0: 0d3f 32bd 24c2 dabb 6e61 d63c 6a26 adbc
000002d0: 1677 e53c c02c eebc a73f 8bbc fb14 1dbd
000002e0: 37e2 1bbb e7c7 12bd 3c57 cdbd a620 24bc
000002f0: 9fc5 44bd 4ed0 09bd c4d3 97bc 2910 2b3d
00000300: 9b39 923b 8cee 93bb 7399 8abb fda2 7bbc
00000310: 7769 b4bd b885 05be c4b3 943c 331f c8bd
00000320: 99a7 38bb 04c5 e8bc a25f a7bd dbb4 cabd
00000330: 8b2a 39bc 2bc3 d03b c1dd 2ebb 482c 583a
00000340: 3d67 c03c fcac 96bc 3452 293d a46c 723a
00000350: edbb ba3b 9f6c 17bd 2dc0 013d 68db b4bc
00000360: 9d12 943c ccc5 adbc b03b 333c 6fbb 08bd
00000370: b2f3 db3b db32 6aba facd 59bc 2c0a 89bd
00000380: 5071 2f3c 9397 c13b 36ca 82bc dcf9 8e39
00000390: 4dcb adbd 7de2 a03c b05b a03c 3fe6 8dbd
000003a0: 7978 b3bd e9fd 25bd 7d45 c23c 4240 3d3d
000003b0: 4897 68bc bef7 773c d90d 8fbd c2e5 7b3c
000003c0: 2790 12bc ace0 753b 40f6 2b3d d5e3 94bc
000003d0: 6f45 e7bc 1937 d5bc fa70 ecbc d8e3 d1bc
000003e0: 9735 363d dbae c4bc b32f 17bc f0ab 963c
000003f0: b70c 383d c3bb 2abd 56c8 41bd ab35 d33b
-0.003725714 0.0124682635 0.054486703 0.07556899 -0.0038554298 0.011969062 -0.042268816 -0.02996991
-0.0076303687 -0.0020025093 -0.033191077 -0.005049856 0.0006252797 0.024451548 -0.06906401 -0.002652496
-0.03947657 0.038743466 -0.0052236225 0.0069441246 0.030598115 0.032089286 0.0012318919 0.10271981
0.0062720943 -0.021802505 0.02561939 0.004496736 0.10064461 -0.02032799 0.037080165 0.09247283
0.0862776 0.07280926 0.00769299 1.9199779e-05 -0.008366844 -0.028680002 0.115617454 -0.007000859
0.06095416 -0.015766263 -0.03710719 -0.0117018875 0.071202785 0.038459543 0.050870825 -0.003877574
0.028325353 0.009806561 0.012222586 0.012004394 0.022420596 0.053745497 0.07408727 0.0045439266
-0.021431629 0.033468615 0.10026277 0.09213788 0.016663238 0.07008471 0.02163962 0.0013758494
0.05830169 0.03247281 0.01712753 -0.010798185 -0.01625193 0.09282949 -0.023824755 -0.01052653
0.01831189 0.05274899 -0.006322444 0.01905821 0.011996756 -0.0041710017 -0.03828578 0.019907828
0.037615832 0.061194934 0.024414998 0.065938294 -0.0035513423 -0.024570808 0.13058831 0.09661901
0.03794136 0.044601467 -0.010461233 -0.004202998 0.0042065373 -0.040102456 0.008070877 0.032823127
0.07906909 0.06829121 0.0150968 0.05228396 0.0077503766 -0.011226337 -0.07073538 -0.08427483
0.0039691627 -0.018995423 0.019418012 0.011746786 0.0407564 0.0076581226 -0.0030892075 0.021586876
-0.0068111164 -0.00059788744 -0.0076554334 -0.03211227 0.0327873 -0.04607358 -0.016122686 -0.034259256
0.0058206045 -0.021399776 0.012073412 -0.09616936 0.0021505177 0.0012567381 -0.026875837 0.016125448
-0.08864371 -0.015311248 0.0022400334 -0.050803628 -0.11097234 -0.020522911 0.022393359 0.031288948
-0.02982498 0.027802717 -0.12337602 0.012780385 0.023229655 -0.01049219 0.022881981 -0.011949362
-0.024323223 -0.013846426 -0.019710133 -0.032284304 0.04374604 -0.03043819 -0.0014856647 0.02615583
0.011520933 -0.0437094 -0.08875953 -0.035864815 -0.004487932 -0.042321496 -0.08916945 -0.09051597
0.05569746 -0.07305746 0.005460309 0.047918536 -0.0822312 0.010543118 -0.015039674 0.036536597
0.009816627 -0.08390964 -0.02621024 0.017930299 -0.007229402 -0.006344243 -0.010249985 0.008376287
-0.04351716 -0.0066759754 0.026169505 -0.021136481 0.028010886 -0.029074073 -0.016998125 -0.038350087
-0.0023785958 -0.035835173 -0.10026404 -0.01001755 -0.04804003 -0.03364592 -0.018533595 0.04176346
0.0044624335 -0.004514521 -0.0042297184 -0.015358684 -0.08809178 -0.13039291 0.018152125 -0.09771576
-0.0028176068 -0.028414257 -0.081725374 -0.09897777 -0.011301647 0.006370922 -0.0026682469 0.00082463445
0.023486728 -0.018393032 0.04133816 0.0009247756 0.005698672 -0.036968824 0.031677414 -0.022077277
0.018075282 -0.021212481 0.010939524 -0.033381876 0.0067124004 -0.00089339697 -0.013293738 -0.06691393
0.010708168 0.0059079616 -0.015965562 0.0002727051 -0.08486042 0.019639248 0.01957497 -0.069286816
-0.08763213 -0.04052535 0.023714775 0.04620386 -0.0141962245 0.01513475 -0.06985063 0.015374603
-0.008945501 0.0037517948 0.04198289 -0.018175045 -0.02823135 -0.02602725 -0.028862465 -0.02562134
0.0444847 -0.024009159 -0.009227681 0.018392533 0.044934 -0.04168297 -0.047310196 0.0064456067

fc.1.bias f4 [100]
00000000: 2f75 c23b 16d8 ebbb a471 97bb fee3 963b
00000010: 1655 a3bb bf22 c73a 6285 c9bb 93d7 bbbb
00000020: ce7e 99ba 83bf bb3a 6342 babb b4af c13b
00000030: b8df 413b d32e c3bb 3e4a 8d3b 4e3b e23b
00000040: 7439 a13b 0487 d139 d015 5d3b ddf5 883b
00000050: b30b b33b dc19 d9bb c331 e2bb dd37 b6bb
00000060: dbc6 993b bd7a 943b 084d fcbb 1954 de3b
00000070: a9a8 b73b bd95 0e3b da84 b9bb c8da 853b
00000080: c588 dabb ebbe dabb 79e8 7f3b d969 e2bb
00000090: 579e f2bb 5e0e d5bb 50c6 01bc 674e c5bb
000000a0: ed50 783b 5514 023b 72cc 453b 81d5 a53b
000000b0: 8cfb cfbb 2729 e33b 23a0 c2bb 7bf9 9d3b
000000c0: cbb8 bbbb 33eb e1bb 5b77 c7bb e809 d3bb
000000d0: bc88 743b 556c c53b 1b33 c5bb 45fd b5bb
000000e0: c4ed 293b 6602 ed3b 472e b4bb d8cd babb
000000f0: 8931 9d3b 4e89 0fbc 484d ebbb 3657 863b
00000100: b510 cebb d221 db3b 3dc2 973b b45d b0bb
00000110: 3c5c b13b 564f e8bb 57da 11bc f1c9 d63b
00000120: d6c0 c3bb d981 9ebb ee47 383b 52ed ae3b
00000130: fdfa d3bb f454 8f3b 8405 dcbb ee76 c8bb
00000140: 5ca4 cebb 54ee 843b 3bbd d6bb cda2 913b
00000150: 72c4 bebb f818 cdbb 0f70 babb f5ac cb3b
00000160: 0f04 523b 41c2 903b 40ed b4bb 7a8d a53b
00000170: e149 c5bb d00f 38bc d77b babb a45e 5e3b
00000180: f011 473b 4e15 b73b 7f30 b83b b9e8 8b3b
0.0059343795 -0.0071973903 -0.0046217013 0.0046048155 -0.0049845083 0.001519285 -0.0061499337 -0.0057324856
-0.0011710764 0.0014324043 -0.0056841834 0.005910838 0.002958281 -0.0059565096 0.004311829 0.0069040423
0.004920179 0.0003996418 0.0033734925 0.0041797 0.005464041 -0.006625397 -0.0069029047 -0.0055608586
0.004692895 0.004531233 -0.0076996125 0.0067849276 0.0056048227 0.0021756731 -0.005661589 0.0040849186
-0.006669136 -0.006675591 0.0039048477 -0.0069095907 -0.0074041295 -0.006501957 -0.007920817 -0.006021309
0.0037890032 0.0019848545 0.0030181673 0.005060852 -0.0063471254 0.006932396 -0.0059395 0.004821
-0.005728816 -0.006894493 -0.0060872263 -0.00644039 0.0037312945 0.006024877 -0.006018055 -0.0055538737
0.0025929073 0.007232952 -0.0054986808 -0.005700808 0.004797165 -0.008760763 -0.0071808435 0.004099752
-0.0062886127 0.0066873813 0.0046313093 -0.005382264 0.0054126065 -0.0070895357 -0.008902154 0.006554835
-0.0059739156 -0.0048372564 0.0028119045 0.0053383494 -0.006469129 0.004374141 -0.0067145247 -0.006117693
-0.0063062143 0.0040567312 -0.0065533197 0.004444456 -0.005821758 -0.00625908 -0.005689628 0.0062156864
0.0032045876 0.004417688 -0.0055214465 0.0050522657 -0.00602077 -0.011234239 -0.0056910324 0.0033930922
0.0030375682 0.0055872565 0.0056210156 0.004269686

fc.2.weight f4 [100, 100]
00000000: 7ca1 bd3d faec f8bc 5121 9dbc b699 9e3d
00000010: 73bc 48bc 62cc 1e3d 6cc0 363c ff7b 14bd
00000020: 930c dcbc 97f7 db3c 110b 20bd 7f08 e43c
00000030: 372a 693d 0e70 e2bc f751 973d ba49 aa3d
00000040: adeb b23c f0da b03d 88a1 b33d 23c2 953d
00000050: ebd6 13bd b414 6bbd a0b1 13bc 72e1 a5bd
00000060: 2653 313d 5dc3 1a3d 8486 78bd b24b 903c
00000070: fc4a b03d 9397 743d 10d3 5cbc 4014 f83c
00000080: 4106 84bd cd64 f0bc 58e9 1b3d 6e75 8cbc
00000090: e1ea 45bd b0f7 54bd 14a7 c5bc 47c5 91bd
000000a0: bc37 883d 086a c43d 5717 813d 2392 4e3d
000000b0: 5bc9 fdbd 7d30 943d 9bd3 4abc 44c7 b23d
000000c0: f754 83bd bdb1 45bd 631b ebbc a8f6 9fbc
000000d0: c79b c33c e986 8f3d d060 e0bc 5c80 97bc
000000e0: 3532 d03d dd74 133d f1bd 05bd a31e 31bd
000000f0: b441 253d 7088 78bd acc7 e83c cae4 de3d
00000100: 2179 0fbd e8a8 773d dfd3 373d fa0c ccbc
00000110: 1624 9a3d 20bf babc cda6 66bb 54ec 513d
00000120: bb89 a5bd 4395 53bd c2eb 31bc 93fc b7bb
00000130: d577 01bd 3e13 c33d ced1 64bd 5ea8 51bd
00000140: 70f9 613c 688e cf3c 460c f0bc 3a45 f53b
00000150: 6047 62bc f837 28bc 1fd3 35bd 12b1 aa3d
00000160: 5efd 293d 7cce 453d 8194 f9bc ef85 613d
00000170: 337c d0bc ec52 5abd f496 afbc d770 a03c
00000180: 2ea4 423c 05d1 b43d b69c 803d d877 283c
00000190: 2bdd d1bd a8fd 7b3d e6e8 64bc c974 20bd
000001a0: cdd5 9f3c 4e1b 9cbd a1f3 9d3c 3320 833c
000001b0: 7f8b 5e3c db6e d8bc 27b7 193d 0fb4 72bd
000001c0: 5df6 03bd 6a9b 8a3c bcdb dfbd 3fbe 8abd
000001d0: 52b0 013c 73f8 49bd 9038 73bd b6b7 4dbd
000001e0: 8039 15bd 1f12 1a3d 2385 c13c 138c 993d
000001f0: 8d20 93bd 6107 dcbd e8e0 543c 4c53 30bd
00000200: fb9c d4bd 9669 13bc 4c3f 60bb 6667 4cbd
00000210: 728a 2d3d 8ccb a33b fc9b 3abd 0e6b cf3c
00000220: 10ab cc3d 7042 173d a8f2 04bb 6e8f 693d
00000230: e11c 02be 9a8e 61bd 268f 6bbd bfc1 5dbd
00000240: 3e6d cb3d 6790 89bd fc38 143d 413b e8bd
00000250: f639 4d3d 5155 083d afe4 f03c ad7b 693d
00000260: 0ca6 04bc 9931 abbd 5165 c13c 3eeb c13c
00000270: 0fe5 dcbd eb09 1bbd 119d 733d 55b8 5fbb
00000280: 0c67 8ebd 888e a7ba a8bd 873c 56c7 abbd
00000290: dded 9f3d 86d1 a9bd 22e1 b0bd e934 573d
000002a0: 5251 8dbd 81e8 3a3d fe1b 7b3c bcd3 adbd
000002b0: c30d 823c 246a 503d d853 73bc e665 3bbd
000002c0: f9f4 c13c f0c5 abbd 90e8 7a3c 644d 9a3c
000002d0: f0eb 103d 3be9 5ebd 3560 b43c 31fb 9b3c
000002e0: 8c7f af3c a427 863d faee 243d 2849 c1bd
000002f0: a281 29bd b887 803b 0e2a b03d c451 76bd
00000300: 0071 183d 6866 fc3c 8033 d53b e93e 05bd
00000310: 3b06 a5bc d789 03be 4a5f febd aa1c 9ebd
00000320: 7848 a4bd d333 293d 7e50 b53c 2569 2fbd
00000330: 5651 a83c 8bac a2bc 16d6 ba3c fd66 693d
00000340: 17b9 1b3d eb26 323c eff0 ad3c 29df 84bd
00000350: 4f0d 73bd b172 023d b30a aabd 3d01 89bd
00000360: c507 98bc 8be3 c2bc 82e0 e9bc d8b3 96bd
00000370: 18f7 a7bc f64e c73c 14af 533c dfeb be3d
00000380: 28fe 34bd 6ae0 97bd d16f 213d a00c 06bd
00000390: 052a 9dbd 722a 01bd 98c8 073d 79b6 48bd
000003a0: 339a e43c 6f68 803b 1013 08bd 9e1d 083d
000003b0: bcf1 183d fe1d c83b d6b6 993c f94f fc3b
000003c0: 5d8c 9cbd 3613 3fbd 695e 4cbd 8daa 3bbd
000003d0: 310c 963d e812 07be 584b 73bc d13f a6bd
000003e0: 7583 d13c 0d1d 5f3d 967d 983b 7e20 833d
000003f0: 912f 2dbc 7d5d a0bd 6ceb 143d 3ef8 d93c
0.09259316 -0.030386437 -0.019180926 0.07744162 -0.012251961 0.038769133 0.011154275 -0.036251064
-0.026861465 0.026851458 -0.039073054 0.027836083 0.056925025 -0.027641322 0.073886804 0.083148435
0.021840895 0.08635509 0.08771044 0.07312419 -0.036093634 -0.05739279 -0.009014517 -0.08099641
0.043292187 0.03778397 -0.06067516 0.01761422 0.08608052 0.059714865 -0.013478056 0.030283093
-0.06446505 -0.02934494 0.03806433 -0.017145839 -0.0483197 -0.051994026 -0.02412752 -0.07117706
0.066512555 0.09590536 0.0630328 0.050432336 -0.12391921 0.07235811 -0.012379552 0.08729413
-0.0641269 -0.048265208 -0.028699582 -0.019526795 0.023877991 0.07008154 -0.027389914 -0.018493824
0.10165826 0.03600012 -0.032651845 -0.043242108 0.040345863 -0.060676992 0.028415523 0.10883482
-0.035027627 0.060463816 0.04487979 -0.024908531 0.07526414 -0.022796214 -0.0035194636 0.05125077
-0.080829106 -0.05165602 -0.010859432 -0.005614826 -0.03160842 0.095251545 -0.055864148 -0.051185958
0.013792381 0.02533646 -0.029302727 0.007485059 -0.013810962 -0.01026725 -0.044390794 0.08334555
0.041501395 0.048292622 -0.03046632 0.05505937 -0.025449848 -0.053301737 -0.021434285 0.019585056
0.011879964 0.0882893 0.0627989 0.010282479 -0.102472626 0.061521202 -0.013971543 -0.039173875
0.019511128 -0.076223955 0.01928121 0.016006565 0.013583063 -0.026420048 0.037528183 -0.05925375
-0.032217372 0.01691981 -0.10930583 -0.06774568 0.007915573 -0.049309205 -0.059380114 -0.05022403
-0.03643179 0.037614938 0.023623055 0.0749742 -0.07183943 -0.10743595 0.012993075 -0.043048188
-0.10381504 -0.008997342 -0.0034217415 -0.049903296 0.04236836 0.00499863 -0.045558915 0.025319602
0.09993565 0.036928594 -0.0020286236 0.05702155 -0.12706329 -0.055067636 -0.057509564 -0.05413985
0.09932946 -0.06716996 0.036187157 -0.11339427 0.050104104 0.03328449 0.02940592 0.057002712
-0.008096229 -0.083590694 0.023607882 0.023671743 -0.10785877 -0.037851255 0.059475962 -0.003413697
-0.069532484 -0.0012783566 0.016569927 -0.0838763 0.07809041 -0.082919165 -0.08636691 0.052540693
-0.06900276 0.04563189 0.015326498 -0.08487651 0.015875703 0.050882474 -0.014851533 -0.045751475
0.023676382 -0.08387363 0.015314236 0.01883573 0.035381258 -0.054421645 0.022018531 0.019040676
0.021423124 0.065505296 0.04026697 -0.094377816 -0.041383393 0.003922429 0.08601771 -0.06013657
0.03721714 0.03081055 0.0065063834 -0.0325307 -0.020144572 -0.1284555 -0.12420519 -0.07720311
-0.08021635 0.04130919 0.022133108 -0.042824883 0.020546596 -0.019857666 0.022807162 0.056982983
0.038018312 0.010873537 0.02123305 -0.06487877 -0.059338864 0.03184766 -0.08302822 -0.06689689
-0.018558392 -0.023790142 -0.028549436 -0.07358521 -0.020503566 0.024329644 0.01292016 0.093223326
-0.044187695 -0.074158505 0.039413277 -0.032726884 -0.0767403 -0.03153462 0.033150285 -0.049002144
0.02790556 0.0039186995 -0.033221304 0.03323137 0.03733991 0.006107091 0.01876394 0.007699963
-0.0764396 -0.04664918 -0.049894724 -0.045816947 0.07326544 -0.13190806 -0.014849506 -0.08117641
0.025575379 0.054471064 0.004653643 0.06402682 -0.010570423 -0.078303315 0.03635733 0.026607629

fc.2.bias f4 [100]
00000000: 2980 b93b 5ed4 73bb fa5c 7bbb 1c5a a63b
00000010: 9280 78bb e956 ac3b 2d2e a83b 3cca a43b
00000020: df20 80bb 537b a43b 25f8 9d3b 9438 983b
00000030: dd9d a23b cf2b a73b 8885 a03b 2e86 a23b
00000040: 3cfc 7cbb e483 903b a83d 6cbb 9f43 68bb
00000050: fde8 73bb f3ab 87bb 62e0 65bb 9ab7 9c3b
00000060: e8db 7bbb 1a9d 973b 57bd 64bb f112 44bb
00000070: d522 5fbb be44 6bbb 486b 883b 54d0 86bb
00000080: 1198 51bb 9b0a a73b 8b4d aa3b aec0 8f3b
00000090: 23f9 af3b d1aa 79bb ebec 61bb eafb 66bb
000000a0: 5232 873b 55ca 70bb deb2 4abb 5e0c b83b
000000b0: 7ae3 5ebb 4859 6ebb 4866 ad3b 612b b83b
000000c0: d9e0 54bb 2e58 923b d48d 73bb 4d20 973b
000000d0: cd87 6abb 1854 b03b e580 993b a9b2 a43b
000000e0: fb26 5fbb 811b ae3b 2a0c 9c3b 3971 5cbb
000000f0: cf32 983b 159c a13b e774 9b3b 3ba3 77bb
00000100: f675 5cbb dee7 71bb 2513 a53b fcbf 41bb
00000110: 34c3 71bb 00a1 cd3b a8c6 4dbb c1e3 9f3b
00000120: 8bd7 9a3b bebd 9f3b 548e 75bb c6a3 943b
00000130: c087 9f3b d2a9 71bb ae61 b03b 55b6 84bb
00000140: 5f55 973b d4f5 72bb 5579 943b 0cb1 a63b
00000150: 0787 79bb 17a1 933b c318 9abb 02b0 7bbb
00000160: 3c7e a23b 94e5 a43b 913f b13b bdb1 73bb
00000170: 5de6 9f3b 343e 9e3b c378 62bb 787e 9e3b
00000180: cc29 a03b 4509 6cbb 8067 63bb 4d73 5abb
0.00566103 -0.0037205438 -0.003835498 0.00507666 -0.003791843 0.005259384 0.0051324577 0.005028991
-0.0039101685 0.005019584 0.004820841 0.0046454165 0.0049626664 0.005101658 0.0048987307 0.004959843
-0.0038602492 0.004410254 -0.0036047492 -0.0035440696 -0.003721773 -0.004140371 -0.003507637 0.004782629
-0.0038430635 0.0046268823 -0.0034902894 -0.0029918517 -0.003404786 -0.0035899128 0.0041631795 -0.00411419
-0.0031981508 0.0050977 0.005197232 0.004386983 0.0053702756 -0.00380962 -0.003447349 -0.0035245367
0.0041258717 -0.0036741693 -0.0030929367 0.0056167087 -0.0034010098 -0.0036369134 0.005291734 0.0056204055
-0.0032482652 0.0044660782 -0.0037163394 0.004612005 -0.003578651 0.0053811185 0.004684555 0.0050261808
-0.0034050334 0.0053133373 0.0047621923 -0.0033636822 0.0046447287 0.0049319365 0.0047441605 -0.0037786502
-0.0033639646 -0.0036911885 0.0050376826 -0.0029563894 -0.0036890032 0.006275296 -0.0031398926 0.0048794453
0.0047254018 0.004874914 -0.0037468867 0.004536125 0.0048684776 -0.0036874902 0.005382738 -0.004050056
0.0046183313 -0.0037072795 0.0045310655 0.0050870236 -0.0038074867 0.0045052874 -0.004702659 -0.003840447
0.004958896 0.0050322507 0.005409189 -0.0037184798 0.0048797564 0.0048291925 -0.0034556843 0.0048368536
0.004887795 -0.0036016267 -0.0034699142 -0.0033332885

fc.3.weight f4 [100, 100]
00000000: e814 20bd 8989 923d ff1e 523d 5310 6fbd
00000010: 8dee 783d 870b 03bd 3834 87bd ca01 2bbd
00000020: 35c7 883d 6baf 35bd 13ba bcbd 59e5 8fbd
00000030: 0837 15bd 628a 88bd cd69 92bd 1afb 90bd
00000040: 648a 933d 07a5 85bd 5e68 793d 2ce0 513d
00000050: ef58 443d dff1 7d3d d85c 673d 03a2 98bd
00000060: cedb 993d cc63 7fbd 218a 163d 33a4 853d
00000070: 1f75 7f3d 9b1c 8f3d 1bb5 94bd 7670 163d
00000080: 26d9 373d 77be 63bd afa6 d3bd 642e 05bd
00000090: 03ba 0abd ba8d 853d 57aa ad3d 29ab 9c3d
000000a0: 4ab4 23bd f8ae 333d 134a 723d 0e1d 9dbd
000000b0: ed36 953d 1dc4 b03d 41ac a0bd 6bee 7fbd
000000c0: b5da 8c3d bbe5 c8bd ba8e 453d 360e 4fbd
000000d0: d4dc 493d 8569 03bd 6cdd 6abd 9307 58bd
000000e0: 7bf9 053d 30db 3bbd 2754 9bbd 23dd ab3d
000000f0: 258c 8cbd 4326 65bc fd26 8fbc 4a80 9e3d
00000100: fec7 913d 2354 143d 9e98 9bbd 152f 7a3d
00000110: 6598 4a3d 2b9a 4fbd 0b16 563d 5837 1ebd
00000120: a755 6bbd fb82 c7bd 4110 303d 0444 2ebd
00000130: 79e6 83bd 6b2a a23d 4e72 fbbc 1e86 253d
00000140: 11ac 39bd 1225 493d 3181 75bd ee33 97bd
00000150: 20ca 583d b785 86bd 867d 0b3d a44d 183c
00000160: 1135 40bd 70b9 7ebd 6bff efbc 9f73 233d
00000170: 1d24 8ebd 63e9 60bd 7b6a 1d3d 1d86 58bd
00000180: 07a2 51bd f603 9c3d ec20 6b3d a713 423d
00000190: 4dd9 8fbd 09e5 8f3d c357 b73c 57c2 0bbd
000001a0: ea65 1e3d 0171 bebc 3c42 c3bd 1630 3ebd
000001b0: 675a 753d e1e5 23bd eea5 2ebd dab9 6cbd
000001c0: a038 59bd a29f 5dbd 7be3 a2bd 9827 a6bd
000001d0: 70cc 6c3d ede8 cebd c22f 473d bba4 613d
000001e0: 3461 113d 2273 363d 59b3 6b3d 44b3 63bd
000001f0: 57b8 9d3d d17e 3abd 09fa 8b3d 7889 633d
00000200: b4b7 5a3d f928 7e3d 493c 2dbb c263 8c3d
00000210: 1bd3 6e3d b978 50bd 195d aebd b5d6 7dbd
00000220: ff8c 3dbd 1508 013d 969f 323d ae98 4d3d
00000230: d7bf 68bd d8c2 1d3d a389 463d a811 72bd
00000240: 77c7 8a3d 7b27 773d 9b23 80bd 31d1 72bd
00000250: 8b0a af3c 0172 7cbd 8fda 973d 66a6 9bbd
00000260: 5926 293d 4f76 5bbd 73ee 6ebd ac14 c9bb
00000270: af39 3a3d d19b 6dbd 8ed9 51bd c95c 2c3d
00000280: 4369 adbd 0a25 80bd 69e0 82bd a07a ae3d
00000290: ba6c 913d 053a 5e3d 17dd 41bd 702d 453d
000002a0: a0d3 113d dd69 5abd af8c 153d 5888 86bd
000002b0: 0759 58bd 0dc1 b6bd e535 163d 3f9e 25bd
000002c0: 6b77 61bd 8747 cf3d a4c6 26bd d61a d63c
000002d0: f5b0 67bd 249c f83c 5303 afbd ea9a 8dbd
000002e0: eee6 943d 2848 86bd 54fb 973d c4be 3a3d
000002f0: d327 8ebd 11b2 80bd fee7 8fbd 8dc0 9b3d
00000300: 114d a5bd 8c59 92bd fe34 853d 9dba afbd
00000310: 2471 7dbd fe62 813d 2190 9b3d 21be 383d
00000320: 3993 483d c608 7fbd 62b7 72bd a44f 4c3d
00000330: c82a 8abd d7cd 563d 333b 943d b3f2 733d
00000340: 2655 c5bc d1f5 a93d c3a5 ec3c a69f 593d
00000350: f0ec f23c 3cff da3d 88ec ab3d da59 753d
00000360: 210f 9fbd bb0b 513d 766c 4dbd 44fd ebbc
00000370: 80e4 5abd cad8 74bd 006a 52bd cbd2 723d
00000380: f84a 18bd b5e6 a53d 495f a2bd 40b8 38bd
00000390: b1ef 67bd 8ce9 a8bd 62e0 093d d7cd 41bd
000003a0: a37a a8bd 1425 7d3d d222 033d 6b9d 983d
000003b0: ef32 3c3d 99f1 a0bd 3de1 4fbd cab4 60bd
000003c0: 87dd b43d 3de2 64bd c56e 9dbd 1cc5 b73c
000003d0: fd5e 8fbd 716c 4dbd d407 bc3d d7d6 853d
000003e0: 7f34 2dbd bf0b a73d 7f0c a2bd 2bbe 8b3d
000003f0: b396 8ebd 6097 6e3d 0a3b 763d aecd 263d
-0.039082438 0.07155139 0.05129909 -0.058365177 0.060774375 -0.031993415 -0.06601757 -0.041749753
0.06678621 -0.044356745 -0.09215178 -0.070261665 -0.036429435 -0.066670194 -0.07149086 -0.07079144
0.0720413 -0.06525617 0.060890548 0.051239178 0.047936376 0.061998244 0.056485027 -0.07452776
0.075126275 -0.062351033 0.036752824 0.06525459 0.062367555 0.06987878 -0.072611056 0.036728345
0.044884823 -0.055601563 -0.10334527 -0.032514945 -0.0338688 0.06521173 0.08479755 0.07649834
-0.03996686 0.043868035 0.059152674 -0.07671557 0.07285867 0.08631156 -0.07845355 -0.062483232
0.068776526 -0.098094426 0.048231818 -0.050550662 0.049282864 -0.032083053 -0.05734007 -0.0527416
0.032708626 -0.04586333 -0.0758441 0.08391788 -0.06862668 -0.013986173 -0.017474646 0.07739313
0.071182236 0.03621305 -0.07597469 0.061080057 0.04946174 -0.050684135 0.052267116 -0.038627
-0.05745473 -0.097417794 0.04298425 -0.042545334 -0.064404435 0.07918247 -0.030694153 0.040411107
-0.04533011 0.04910762 -0.05993766 -0.07382952 0.052927136 -0.06568473 0.034055255 0.009295855
-0.046925608 -0.062188566 -0.029296597 0.039905187 -0.06940482 -0.054910075 0.038431626 -0.052862275
-0.051179912 0.07617943 0.057404444 0.047382023 -0.07023869 0.07026107 0.022380715 -0.034120884
0.03867141 -0.023247244 -0.095341176 -0.046432577 0.059900668 -0.04001415 -0.04263871 -0.05779443
-0.053032517 -0.054107316 -0.07953545 -0.08113021 0.057812154 -0.10103021 0.04862953 0.05508874
0.03549309 0.044543393 0.057544086 -0.055590883 0.07701176 -0.045531098 0.068348 0.055551022
0.05339785 0.062050793 -0.0026433638 0.06854965 0.058306795 -0.05089638 -0.08513851 -0.06197234
-0.046277042 0.03150185 0.043609224 0.050194435 -0.056823578 0.038515896 0.048471104 -0.05909887
0.06776326 0.060340386 -0.06256791 -0.05928153 0.021367332 -0.06163216 0.074147336 -0.07600097
0.041296337 -0.053579625 -0.05833287 -0.0061364975 0.045465168 -0.058009926 -0.051232867 0.042080674
-0.08467343 -0.06257065 -0.06390459 0.085194826 0.07100816 0.05425455 -0.04732999 0.048139036
0.035602212 -0.053323615 0.03651112 -0.06568974 -0.052819278 -0.0892354 0.03667249 -0.04043412
-0.055045526 0.10121065 -0.040716782 0.026135843 -0.056565244 0.030347891 -0.08545556 -0.06914313
0.07270609 -0.065567315 0.07420984 0.045592085 -0.069411896 -0.062839635 -0.07026671 0.076050855
-0.0807134 -0.07145986 0.06504248 -0.085805155 -0.061875477 0.063177094 0.0759585 0.045103196
0.048968527 -0.062264226 -0.05925692 0.04988064 -0.06746441 0.052442398 0.07237854 0.059557628
-0.024088454 0.08298839 0.028887635 0.05313077 0.029653996 0.10693213 0.08394724 0.059900142
-0.077665575 0.051036578 -0.050152265 -0.02880729 -0.05344057 -0.05977706 -0.05137062 0.05928306
-0.03718087 0.081006445 -0.079283305 -0.04509759 -0.056625072 -0.082476705 0.033661254 -0.047315445
-0.08226516 0.06180294 0.03201563 0.074519 0.04594701 -0.07858581 -0.050751913 -0.054859914
0.088313155 -0.05587982 -0.07687143 0.022432856 -0.070005395 -0.050152246 0.091811806 0.06535118
-0.042286392 0.08156537 -0.0791254 0.06823381 -0.06962337 0.05824983 0.060114898 0.040723495

fc.3.bias f4 [100]
00000000: 02c0 7c39 50dc c237 b9aa 2d3b 7244 703b
00000010: 1fa2 f938 3884 813b c3b4 443a 3969 f538
00000020: 302b 613b ee17 fb39 1dd5 7f3a 4b3c a239
00000030: 3e60 483b 0a54 733b bdca 813b 8712 523a
00000040: 1081 463b 3245 9e39 88d7 8939 42d3 bf39
00000050: b0bf 4e3b a45d 723b 1811 af35 85da c038
00000060: e131 503b b13b 0a3a 7a31 823b 563a 8b3a
00000070: 868d fab9 8111 463b d0ea 5f3b eebd 843b
00000080: 2541 803b cc57 dd39 0e57 9c39 abd3 7d3b
00000090: 6910 1d3a e455 853b 80e8 d139 49bc ac39
000000a0: 179b d539 f593 9739 0a9b 0b3a cd6b 623b
000000b0: a9ce 4e3b e8b9 553a 5c4c 633b 678e 873b
000000c0: 5c57 5f3b 5ae0 8a3b 489b d439 dfed 753b
000000d0: 6445 753b 3aae 083a ec6d 713b 1381 7f3b
000000e0: 936b 903b 5d8f 733b 9518 4c3b 012a a639
000000f0: 0bb2 653b e58c 8c39 0585 9139 1a73 4d3b
00000100: 0d6b 7a3b f4e3 663b 0c03 ddb9 adba 403b
00000110: 5790 623b 980b 8939 f329 2139 f338 ae38
00000120: 875b 3fb9 14eb 4b3b a013 1f3a af94 913a
00000130: 9e8c 743a 3250 043a f880 423a 8dc9 7e3a
00000140: 8d46 1fb9 7fc4 343b 59c0 88b8 9162 8739
00000150: 38ea 073a ab50 933a 8418 be39 b85b 903b
00000160: c8f8 1c39 8c25 0b3a 9163 403a 0a33 2a3a
00000170: 2ad3 8c39 05bd 983a 71ba 813b 6829 043a
00000180: 00ab adb9 5726 183b 04d0 533b 5589 463b
0.00024104121 2.3229193e-05 0.0026499464 0.003666189 0.00011903443 0.0039525293 0.0007503742 0.000117021096
0.0034358017 0.0004789228 0.00097592344 0.0003094397 0.0030574943 0.0037128949 0.003960936 0.0008013625
0.003028933 0.00030187663 0.0002629126 0.00036587758 0.003154736 0.0036982084 1.3043491e-06 9.195976e-05
0.0031768011 0.0005273177 0.003973183 0.0010622244 -0.0004778916 0.0030222835 0.0034167059 0.0040509617
0.003914016 0.0004221782 0.000298195 0.00387309 0.000599152 0.004069077 0.00040036812 0.0003294668
0.00040742077 0.000289112 0.0005325532 0.0034549118 0.0031556285 0.00081530074 0.0034682965 0.0041368487
0.003407917 0.0042381706 0.00040551485 0.0037525815 0.0037425393 0.000521395 0.00368392 0.0038986846
0.004407355 0.0037164309 0.0031142582 0.00031693283 0.0035048749 0.00026807855 0.00027755662 0.0031349123
0.003821078 0.0035231085 -0.00042154675 0.0029408142 0.0034570897 0.00026139314 0.00015369784 8.307574e-05
-0.00018249276 0.003111546 0.0006068293 0.0011106933 0.0009328815 0.00050473504 0.00074197305 0.00097193645
-0.00015189704 0.002758294 -6.520813e-05 0.00025822644 0.00051847426 0.0011239251 0.0003625789 0.004405465
0.00014969998 0.0005308024 0.00073390553 0.0006492591 0.0002686021 0.0011653012 0.003958993 0.00050415704
-0.00033124536 0.0023216212 0.0032320032 0.0030294259

fc.4.weight f4 [100, 100]
00000000: 8a47 87bd 2244 8fbd 2233 ac3d cd01 4a3d
00000010: 6c47 34bd 33b6 ef3d 9dd8 75bd ffbc c7bd
00000020: fc39 d93d a002 a8bd 8d22 84bd 675f 67bd
00000030: 2380 4f3d 8390 a83d 1022 af3d 65dd ffbd
00000040: afc5 813c a3da 20bd 46cb 42bd e9a8 43bd
00000050: a410 1c3d 901e e83d 5395 84bd 00ff c4bd
00000060: 17d5 0d3d 0b1f 58bd 14b5 a53d b501 84bd
00000070: f6bc 81bd 5469 9c3d 0efe 803d 393a 433d
00000080: a8f9 3a3d 22b3 8fbd d984 8dbd d5e9 c83d
00000090: c30f 57bd d0bf 793d fdcb 9cbd fb7b cfbd
000000a0: 7c50 94bd b470 82bd fc8c a2bd 37b4 833c
000000b0: 588f a23d 45d1 a1bd 8a55 8d3d 2f49 3b3d
000000c0: aced 283d d68a 213d c4ae aabd 602d db3d
000000d0: b3dc 353d c156 7cbd d70d 9f3d dd88 743d
000000e0: 3573 6c3d 3129 903d 7925 953d 2396 8bbd
000000f0: 40c6 be3d cf3f 90bd b4b9 b6bd 5401 d93d
00000100: 29cb 933c d47b c33d 8c3d 8dbd 970a 823d
00000110: 0a00 583d f872 85bd 0b0a 10bd 48db 7cbd
00000120: 4516 97bd 2a05 133d 93f8 a5bd dbbb eabc
00000130: 5406 9fbd 63a5 89bd 6f5b 89bd f797 e2bc
00000140: 3988 23bd f2a9 8a3d a943 94bd b3c5 5cbd
00000150: 834e 9fbd 8245 6fbd 02e6 b3bd 444b 783d
00000160: ed11 9dbd e4de c2bd b146 85bd 0204 91bd
00000170: bc49 3cbd e3e0 9abd f26a ad3d fe33 cabc
00000180: 2da7 f3bd a1d4 803d 4727 853d 8a76 d13c
00000190: bf16 25bd 76b2 82bd aba8 533d f268 853d
000001a0: 7b36 54bd d0d4 df3d 59c3 17bd 50a3 12bd
000001b0: db3e c23d 84e7 81bd 6776 1bbd e58b 20bd
000001c0: c93b 833d 8f7a aa3d 7566 c53d 0a98 c2bd
000001d0: 3400 8a3d f16c 1cbd a844 9dbd b599 57bd
000001e0: 9b58 8d3d 3090 bd3d 1ef5 60bd 7410 49bd
000001f0: bae5 ca3d 38da d9bc 07dd ba3d 7d29 39bd
00000200: a57c 29bd 1d4a 943d 8b08 b63d 04ab 5c3d
00000210: e2cd 553c 58a5 5cbd 0109 97bd 863e 453d
00000220: b7fc a1bd 921a bf3d 8389 a4bd 47f9 b8bd
00000230: 76ee 80bd 0839 adbd a127 c2bd b713 ab3d
00000240: e53b 133d c818 38bd c72f ab3d 6917 b33d
00000250: 4e82 d03d 215e a13d 01c4 49bd 6f16 273d
00000260: 0f2a a13d 33ff b0bd 039c 5b3d 9071 b83d
00000270: b8dc 813d a005 353d d8d2 a93d 439c 83bd
00000280: b132 4b3d e0c1 4cbd b779 aabd ccbd 133d
00000290: 0052 7e3d 96cd a83d b3fd 95bd 16ed 8b3d
000002a0: e56e c83d e806 aabd 881e a3bd 6e00 89bd
000002b0: e3bf b0bd 5c4e 873d 2551 c8bd 7427 fabc
000002c0: ab32 c2bc 0eb5 9cbd 4c1f 88bd 738d b1bc
000002d0: 628c 3dbd 7929 333d dfd3 2cbd f191 2bbd
000002e0: 4622 8dbd c222 21bd a8ab 6cbd e88a 943d
000002f0: ab90 54bd 422f 96bd 6878 4bbd 6314 87bd
00000300: f7b1 56bd 8bf6 1bbd 0278 7d3d 7091 20bd
00000310: 73b3 9ebd 6d8f d03d bab1 793d 7584 b03d
00000320: 6bb7 5f3c ee47 223d 84ae 23bc ab35 04bd
00000330: 4d80 523d a593 b7bc 7166 483d 819c 883d
00000340: d877 91bd a285 653d 4258 d03c ba18 cd3c
00000350: 1043 6bbd 640d 8abd 928d 67bd da99 d03c
00000360: 59d4 4cbd 4a7b 343d 80a3 1d3d b0ca d43c
00000370: 262a 57bd 105e 01bc 357b 5e3d a1db 9c3d
00000380: b362 3fbd 7ad7 103d daa8 4abd 7262 2a3d
00000390: 64be 563d 2ccf 2abd 4ef3 c3bc bd75 23bd
000003a0: 7aec 8dbd 6377 dc3c eb3a 9c3d d64c 99bd
000003b0: e3c9 a53d 9e10 50bd 11cb fa3b 73ba 073d
000003c0: 0d51 e13c 80d0 a23c 7bb6 693d 08e8 87bd
000003d0: e601 3cbd ad9e e03c 1345 49bd 47da c5bc
000003e0: 064b abbc 877b fbbc 9ecd 533d 7ab1 b6bc
000003f0: 9c27 b4bd d290 9b3c f483 78bd 8cf7 4cbd
-0.06605442 -0.06995417 0.0840819 0.049318124 -0.044013426 0.117046736 -0.06002103 -0.09752845
0.10606763 -0.08203626 -0.064519025 -0.056487467 0.05065931 0.082306884 0.08551419 -0.124933995
0.015841333 -0.03927101 -0.047557138 -0.047768507 0.038101807 0.11333954 -0.06473794 -0.0961895
0.034627046 -0.05276398 0.080911785 -0.06445638 -0.063348696 0.07637277 0.06298457 0.047662947
0.045648247 -0.07016589 -0.06910104 0.09810225 -0.052505266 0.060973942 -0.07656095 -0.10131069
-0.07241914 -0.06369153 -0.07937047 0.016077144 0.07937497 -0.07901243 0.06901081 0.04572409
0.041242287 0.039439045 -0.08334115 0.10702014 0.04439993 -0.061606172 0.077663116 0.059700835
0.057727057 0.07039107 0.07282538 -0.06815746 0.09315157 -0.070434205 -0.08922139 0.105959564
0.01804121 0.09545103 -0.06896505 0.06349676 0.052734412 -0.06516069 -0.035165828 -0.06173256
-0.073772945 0.035893597 -0.081040524 -0.02865403 -0.07764879 -0.06720998 -0.06706893 -0.027660353
-0.039924834 0.06770696 -0.07239468 -0.05389948 -0.07778647 -0.058415897 -0.08784105 0.060618654
-0.07669435 -0.09515169 -0.06507624 -0.070808426 -0.045968756 -0.07562425 0.08467664 -0.024682995
-0.118971206 0.06290556 0.06501632 0.02556922 -0.040304895 -0.06381695 0.051674526 0.06514157
-0.05180977 0.10929263 -0.037051532 -0.03580028 0.09484645 -0.06342986 -0.037954714 -0.039195914
0.064078875 0.083241574 0.09638683 -0.095016554 0.0673832 -0.038189832 -0.07679111 -0.05263682
0.06901666 0.09256017 -0.054921262 -0.049087957 0.09907098 -0.026593313 0.09124189 -0.045205582
-0.041378636 0.072406985 0.08888348 0.05387403 0.013049575 -0.05386862 -0.07374764 0.04815533
-0.0790953 0.0933124 -0.08034041 -0.09031921 -0.06295483 -0.084581435 -0.09480215 0.0835337
0.03594579 -0.04494551 0.08358722 0.087446995 0.10181104 0.07879282 -0.04925919 0.04079288
0.0786935 -0.086424254 0.05361558 0.09006035 0.06340927 0.044194818 0.082921684 -0.06426289
0.04960889 -0.04998958 -0.083239965 0.036069676 0.06208992 0.082423374 -0.0732378 0.0683233
0.097867765 -0.083020985 -0.07964808 -0.06689535 -0.086303495 0.06606743 -0.09781102 -0.03053639
-0.023705801 -0.07651721 -0.066465944 -0.021673894 -0.046276458 0.043740723 -0.042194244 -0.041887227
-0.06891303 -0.03933979 -0.05778089 0.07253057 -0.05189578 -0.073332325 -0.049675375 -0.06595685
-0.052415814 -0.03807692 0.061882026 -0.0392012 -0.07749071 0.10183606 0.06096051 0.08619014
0.01365457 0.03961938 -0.009990338 -0.032277744 0.05139189 -0.02240927 0.04892582 0.06670476
-0.071029365 0.056035645 0.02543271 0.025036205 -0.057437003 -0.06740835 -0.056531496 0.025463987
-0.050007198 0.04406289 0.038486004 0.025975555 -0.05253043 -0.007895961 0.054316718 0.076590784
-0.046724986 0.035361744 -0.049477436 0.04159779 0.052427664 -0.04170148 -0.023919728 -0.039907206
-0.0692987 0.026912397 0.07628425 -0.074853584 0.080951475 -0.050797097 0.007653602 0.033136796
0.027504468 0.019874811 0.057058793 -0.06636053 -0.045900248 0.027419413 -0.04913814 -0.024151934
-0.020909797 -0.03069855 0.051709764 -0.022301424 -0.087966174 0.018989954 -0.060672715 -0.050040767

fc.4.bias f4 [100]
00000000: 81e5 78ba 46eb 2d3b 6bca 8e3b 28ec b6ba
00000010: 2b2e c239 cdaa d1b8 ef65 dd3b 0b72 3cbb
00000020: 7432 a93b 619c 033a 83f2 663b 1be2 41ba
00000030: d695 db3b 79da 433b 6365 55ba 44dd 9e3b
00000040: 1533 3cbb 141b 713b 98e6 a63b d594 bb3b
00000050: e019 d0ba b88f dc39 a49c 32ba 307c da3b
00000060: 66c9 b7ba 6498 d63b 8f31 e63b 8c60 0b3b
00000070: 582c 92ba ea61 093b 3b80 a33b a5c6 cb3b
00000080: 36d5 b03b 2014 bb3b 2a43 12ba 6ec1 3d39
00000090: 75dd a73b 87c4 0eba 1916 3c3a 2117 683a
000000a0: 804c 023c a040 bd3b 8289 b93b ec7a de39
000000b0: bb42 b13b 8e68 013b 7629 b2ba 577c 293b
000000c0: 411d b93b d9f7 c0ba b3af d13a 1663 903b
000000d0: 9bf5 acba a146 e83b 33bd e63b a423 e6ba
000000e0: 1c51 763b 29ea 293a ebb9 c63b 56c5 953b
000000f0: 4f7f d5b9 88e1 c538 bb02 c53b 3b3e 9b3a
00000100: d198 093c d877 933b 6680 b33b 66ec fb3a
00000110: ef29 c33a 6a22 cb3b c763 a83b 582d ed3a
00000120: 5fa0 dd3b 1f3f b03b 8187 ccba 783b 6c3a
00000130: 5ad9 743a 6532 a73b ba13 633b d40d 0c3c
00000140: 9f98 27ba 6a3f bf3b a1db 373b 7e7d 143b
00000150: 5f69 e13b 6861 803b 07a8 3abb 8ed3 3d3b
00000160: 494e d3ba 91c2 3f3b c2e6 92ba 9fa8 063a
00000170: 183d 633a 2472 2f3b 32e9 df3b 0c8c 883a
00000180: a87d d13b 6e80 ca3a 88e7 eb3b 6ec2 4bba
-0.0009494648 0.002653794 0.004357626 -0.0013955878 0.0003703696 -9.997711e-05 0.006756536 -0.0028754498
0.005163485 0.00050205557 0.0035239763 -0.0007396058 0.0067012114 0.0029884859 -0.0008140413 0.0048481543
-0.002871697 0.0036789821 0.005093407 0.0057245293 -0.0015876852 0.0004206875 -0.00068135024 0.0066676363
-0.0014021813 0.006548928 0.007024951 0.0021267263 -0.0011152131 0.0020962902 0.0049896515 0.0062187486
0.0053965105 0.005709186 -0.0005579466 0.00018096503 0.0051228353 -0.0005446155 0.00071749237 0.0008853544
0.007952809 0.005775526 0.005662144 0.00042434724 0.005409566 0.0019746157 -0.0013592679 0.0025861466
0.0056492393 -0.0014722302 0.0015997797 0.004406343 -0.0013195755 0.0070884977 0.0070415973 -0.0017558229
0.0037584966 0.0006481731 0.0060646436 0.0045706434 -0.00040721378 9.4357005e-05 0.0060122884 0.0011844108
0.008398251 0.0045003705 0.005477953 0.0019220232 0.0014889817 0.006199171 0.0051388475 0.0018095179
0.0067635025 0.0053786184 -0.0015604348 0.0009011547 0.0009340249 0.005102443 0.003464921 0.008548219
-0.0006393287 0.005836417 0.0028054493 0.0022657807 0.0068790163 0.0039178617 -0.00284815 0.0028965208
-0.0016121353 0.0029260258 -0.0011207687 0.0005136821 0.00086684665 0.0026770914 0.006833219 0.0010417714
0.006393153 0.0015449652 0.0071992315 -0.0007772808
