results/Smoothed_MINE_dim20_reg1_alpha0.0.pt (torch, 268589 bytes, 13 tensors)

fc.0.weight f4 [100, 40]
0	0x3c767171	0.015041695
1	0xbcef1c14	-0.029188193
2	0x3d39f388	0.045398265
3	0xbd2fc479	-0.04291198
4	0x3d4948fc	0.04914187
5	0x3d56dbba	0.05245564
6	0xbc2cd90e	-0.010549797
7	0x3cdb1a97	0.026746077
8	0xbcb4d37f	-0.022073505
9	0x3c958934	0.0182539
10	0xbca7feb2	-0.02050719
11	0x3ad2ee40	0.0016092733
12	0x3cb4df36	0.022079092
13	0x3c699618	0.014256977
14	0x3b3b639d	0.002859331
15	0x3d25a8a7	0.040444043
16	0x3c988043	0.018615847
17	0x3c8a36f5	0.016871909
18	0x3cef967c	0.029246561
19	0xbba8d21f	-0.0051520015
20	0x3c9ff2b4	0.01952491
21	0xbd2c811f	-0.042115327
22	0x3d4ba357	0.04971632
23	0xbd1cac83	-0.038250457
24	0x3d2b6a48	0.041849405
25	0x3cb6d1a2	0.022316758
26	0x3853b375	5.0473453e-05
27	0x3d52e61f	0.05148899
28	0xbcb5838a	-0.02215745
29	0x3c432a0e	0.011911882
30	0xbc723f77	-0.014785639
31	0x3c91aba3	0.017782038
32	0x3d0060d3	0.03134234
33	0x3cc8c295	0.024506846
34	0x3c49ad7b	0.012309427
35	0x3cd388c9	0.02582206
36	0x3c978317	0.018495126
37	0xbbb22730	-0.0054368004
38	0x3c5e76ac	0.013578098
39	0x3c83b5ed	0.01607796
40	0xbc2f102c	-0.010685008
41	0xbc3a8c80	-0.011386037
42	0xbd2cc520	-0.04218018
43	0xbc49ad8a	-0.012309441
44	0x3c5c647f	0.0134516945
45	0xbccd4804	-0.025058754
46	0x3d059720	0.032614827
47	0x3ac74702	0.0015203657
48	0xbc3e30e8	-0.01160834
49	0x3c4b044e	0.012391163
50	0xbd0200bf	-0.031738993
51	0xbce79bad	-0.028272474
52	0x3d26e772	0.040748067
53	0xbcc9f50c	-0.02465298
54	0xbca63175	-0.020287255
55	0xbc4ad0a0	-0.012378842
56	0x3b1fba0f	0.0024372374
57	0xbcece4d5	-0.02891771
58	0xbd4f197b	-0.05056141
59	0xbc8a9410	-0.016916305
60	0x3ad4fc7f	0.0016249566
61	0xbc7f6b18	-0.015589498
62	0xbce09e5b	-0.02741926
63	0xbc376e51	-0.011195735
64	0x3cb935dd	0.022608692
65	0xbc808185	-0.01568676
66	0x3ce586c9	0.028018372
67	0xbc788617	-0.015168688
68	0xbba264e9	-0.004955877
69	0x3d128ebd	0.035780657
70	0xbce8f401	-0.028436663
71	0xbd44781e	-0.047966115
72	0x3d652b5d	0.055949558
73	0xbba34358	-0.0049823932
74	0xbc2f91dd	-0.010715929
75	0xbcae85a4	-0.02130396
76	0xbc92bcad	-0.017912233
77	0x3c86252c	0.016375147
78	0xbd48d598	-0.049031824
79	0xbba42292	-0.005009004
80	0xbd09bc0b	-0.033626597
81	0x3befb4fd	0.0073152767
82	0x3c85ac2b	0.016317448
83	0x3d0662c5	0.032809038
84	0x3cdfcf3a	0.027320493
85	0xbc2915b8	-0.01032012
86	0xbd03caa7	-0.032175686
87	0xbd3b25a1	-0.045690183
88	0x3be2a941	0.0069171493
89	0x3dc1864b	0.094494425
90	0x3cd277bc	0.02569186
91	0xbd27ce8d	-0.040968467
92	0xbbd6c917	-0.0065547335
93	0x3cbc0e2a	0.022955973
94	0xbc14c628	-0.009080447
95	0x3d8b2e7c	0.067959756
96	0xbc2c48eb	-0.010515432
97	0xbc1acfcb	-0.009448956
98	0xbc8254c7	-0.015909566
99	0x3ba3d4c5	0.0049997293
100	0xbce32c3a	-0.02773105
101	0x3bd67fc8	0.0065459944
102	0x3ca264bc	0.019823425
103	0x3d14bc5d	0.03631245
104	0x3d46ee6c	0.04856722
105	0xbcd878ab	-0.026424726
106	0xbd411ecd	-0.047148515
107	0xbd107952	-0.03527195
108	0x3c4b7bd8	0.012419663
109	0x3db7fae1	0.08983398
110	0x3d7b08a7	0.06128755
111	0xbd454876	-0.048164807
112	0x3c527eb8	0.012847595
113	0x3cbc0c9e	0.022955235
114	0x3c9e4142	0.019318227
115	0x3d82db17	0.06389444
116	0xbc9f19c4	-0.019421466
117	0xbc01e3e8	-0.007927872
118	0xbcc65d97	-0.024214549
119	0xbb9394fd	-0.004503845
120	0x3bd92af6	0.006627436
121	0x3ceaec94	0.028677262
122	0xbce2f0ad	-0.027702654
123	0x3d2098ed	0.03920834
124	0x3dddcab6	0.1082968
125	0xbc05d2b8	-0.008167915
126	0xbd2ce653	-0.04221184
127	0xba781b51	-0.00094645197
128	0xbc68a030	-0.014198348
129	0x3ce6cbeb	0.028173408
130	0xbbbd3d4e	-0.0057751304
131	0x3c87d576	0.016581278
132	0xbd6f2824	-0.05838789
133	0x3cc1a575	0.023638466
134	0xbd07f863	-0.033195864
135	0xbd4ae24a	-0.049532212
136	0x3c84a760	0.016193092
137	0xbc61beec	-0.0137784295
138	0xbcf6bf4c	-0.030120514
139	0x3d23d472	0.039997526
140	0xbd08379f	-0.03325617
141	0xbc528645	-0.012849395
142	0x3cf96a8d	0.030446315
143	0xbd5c8233	-0.053835105
144	0xbda5314f	-0.080660455
145	0x3c807f9a	0.015685845
146	0x3d29939b	0.041400533
147	0xbb56a82e	-0.0032754051
148	0x3cc1beb4	0.023650505
149	0xbcdf930a	-0.027291793
150	0x3bde64ee	0.006786934
151	0xbb418d95	-0.0029533852
152	0x3d866903	0.06562998
153	0xbcd146a5	-0.025546381
154	0x3d1e9945	0.038720388
155	0x3d828949	0.06373841
156	0xbc6204f1	-0.013795123
157	0xbb069dba	-0.002054079
158	0x3cec6d33	0.028860664
159	0xbd307df5	-0.043088872
160	0x3a7de565	0.00096853665
161	0xbc86d5bd	-0.01645934
162	0xbc931ab6	-0.017957073
163	0x3d874372	0.06604661
164	0xbb8e6868	-0.0043459423
165	0x3cdf8cc6	0.027288806
166	0xbcc8a9f5	-0.024495104
167	0x3ccaa41c	0.024736457
168	0xbbaaccdc	-0.0052124094
169	0xbd62d97f	-0.0553832
170	0x3c80dc82	0.015730146
171	0xbce4d053	-0.027931368
172	0x3cac0ba7	0.02100165
173	0xbd3ab691	-0.045584265
174	0x3cb92df9	0.02260493
175	0x3d38b239	0.04509184
176	0x3bdcc035	0.00673678
177	0xbd23b992	-0.039971896
178	0xb9ad3881	-0.0003303923
179	0x3be34e02	0.0069367895
180	0x3ca63778	0.020290121
181	0x3bc2ade1	0.005941138
182	0xbca21aa8	-0.019788101
183	0x3d558f7a	0.052138783
184	0xbbefaf30	-0.007314585
185	0x3c8b20e1	0.016983451
186	0xbb8522ff	-0.0040630098
187	0x3d0ac51b	0.03387938
188	0x3beab078	0.00716215
189	0xbd7691b6	-0.060197555
190	0x3c9abac6	0.018887889
191	0xbd4cbc91	-0.04998452
192	0x3d850094	0.06494251
193	0xbd16e773	-0.03684182
194	0x3d672435	0.056431014
195	0x3d89b1df	0.06723379
196	0x3c958372	0.018251155
197	0xbcc8b424	-0.02449996
198	0x3bdc501e	0.006723418
199	0xbb89336e	-0.004187039
200	0x3b902a6a	0.0043995874
201	0x3c5eaca5	0.013590966
202	0xbbfde7a6	-0.007748562
203	0xbba6e74d	-0.005093491
204	0xbb8b2bba	-0.004247156
205	0xbb7a3c98	-0.003818309
206	0x3c5a6164	0.013328884
207	0x3bb52ae9	0.005528797
208	0xbcee2188	-0.029068723
209	0x3a0d2869	0.0005384745
210	0xbcb3fa97	-0.021970076
211	0x3c30f0d7	0.010799608
212	0xbb02b977	-0.0019946971
213	0x3b061000	0.0020456314
214	0xbc35b019	-0.011089348
215	0xbae2ea1f	-0.0017312205
216	0xbcf1c546	-0.029513013
217	0x3c1c0ddf	0.0095247915
218	0x3c1085f6	0.008821001
219	0x3c3879e9	0.011259534
220	0x3c17866b	0.009248356
221	0x3c4953c4	0.012288038
222	0xbc9859a4	-0.018597431
223	0xbc893e2c	-0.016753279
224	0x3ca8e129	0.020615177
225	0xbcb17e5d	-0.0216667
226	0xbb82a9ef	-0.003987543
227	0x3c99d9f5	0.018780688
228	0xbd137607	-0.03600123
229	0xba3cfc41	-0.00072092196
230	0x3cc8a9d7	0.024495048
231	0xbb69908d	-0.0035639137
232	0x3c42a322	0.011879714
233	0xbc295a0a	-0.010336408
234	0x3c931406	0.017953884
235	0xb7513a2d	-1.2470916e-05
236	0xbc291f6f	-0.010322436
237	0x3b589996	0.0033050529
238	0xbc2197fb	-0.009862895
239	0xbcb37a71	-0.02190897
240	0x39a504f5	0.00031474946
241	0x3c2d9ce5	0.010596489
242	0x3b188ba5	0.0023276594
243	0xbcd90fe2	-0.026496831
244	0xbc7eb4d6	-0.015546044
245	0x3d5bb657	0.05364069
246	0x3c04b724	0.008100305
247	0xbd308e4b	-0.04310445
248	0xbc8e447a	-0.017366637
249	0x38b31f8b	8.5412605e-05
250	0x3c194b92	0.009356396
251	0x3a8af2fb	0.0010600978
252	0x3cb2c123	0.02182061
253	0xbc609143	-0.013706508
254	0x39af4f35	0.00033437615
255	0xbbd8f9ef	-0.0066215913

fc.0.bias f4 [100]
0	0xbcbb7523	-0.022883004
1	0xbcae43a3	-0.021272486
2	0xbd000883	-0.031258117
3	0xbc600f08	-0.013675459
4	0xbcabba1a	-0.020962764
5	0x3cda5543	0.026651984
6	0xbcb81bd6	-0.02247421
7	0xbccf946e	-0.025339331
8	0xbcc81b13	-0.024426972
9	0xbd0c24a6	-0.03421464
10	0xbcf2da44	-0.029645093
11	0xbcd89f3c	-0.026443116
12	0xbc826046	-0.015915047
13	0xbc965a87	-0.018353714
14	0xbcb9ed72	-0.02269623
15	0xbc80ceb0	-0.015723556
16	0xbc9dbac0	-0.019254088
17	0xbac68556	-0.0015145938
18	0xbcde2caf	-0.027120916
19	0xbcb7a702	-0.022418503
20	0xbce1d7b3	-0.027568674
21	0xbce4f6ab	-0.027949652
22	0xbc9f4bbe	-0.019445296
23	0xbc8f66dd	-0.017505104
24	0xbca14bd0	-0.01968947
25	0x3b20716e	0.0024481672
26	0xbbd12841	-0.0063829725
27	0xbc8e9b40	-0.017408013
28	0xbbdb4e90	-0.006692715
29	0xbcc55ea0	-0.024092972
30	0xbcc2ccdf	-0.02377933
31	0x3cbc7ae5	0.02300782
32	0xbcf8b5b3	-0.030360078
33	0xbc366c1d	-0.011134175
34	0xbc43692c	-0.01192693
35	0xbd05ef22	-0.032698758
36	0xbc094b68	-0.008379795
37	0xbccc6fd0	-0.02495566
38	0xbd0116f9	-0.03151605
39	0xbc857fb9	-0.016296254
40	0xbc56c375	-0.013108124
41	0x3cbe6c87	0.02324511
42	0xbd007312	-0.03135974
43	0xbc00303b	-0.007823999
44	0xbd0c7af9	-0.034296963
45	0xbc5e5754	-0.013570625
46	0xbbfbd0e5	-0.0076848143
47	0xbc7e3003	-0.015514377
48	0xbca70887	-0.020389808
49	0xbc768eed	-0.015048725
50	0x3b7a1691	0.0038160423
51	0xbc7a6a68	-0.015284158
52	0xbcfd864b	-0.030947825
53	0xbcbd354d	-0.023096705
54	0xbc3d4cd5	-0.011553963
55	0xbc2b2103	-0.010444882
56	0xbccc5797	-0.02494411
57	0xbca04d83	-0.01956821
58	0xbccf47f5	-0.025302866
59	0xbcf8e721	-0.030383648
60	0xbcdaca44	-0.026707776
61	0xbd15ddfb	-0.03658865
62	0xbcd05c90	-0.025434762
63	0xbceb9704	-0.028758533
64	0xbc5eda98	-0.0136019215
65	0xbd77d978	-0.06051013
66	0xbcb4c42f	-0.022066204
67	0x3c4e45d4	0.0125898905
68	0xbd0a72ee	-0.03380101
69	0xbce70a65	-0.028203199
70	0xbcd35167	-0.025795652
71	0xbd569876	-0.05239149
72	0xbcf44003	-0.02981568
73	0xbce28669	-0.027651982
74	0xbcf0ed4a	-0.029410023
75	0xbcd0ad90	-0.025473386
76	0xbc766c88	-0.015040524
77	0xbc9d7a90	-0.019223481
78	0xbcb528a9	-0.022114115
79	0xbcf1ee3f	-0.02953255
80	0xbc90bfee	-0.017669644
81	0x3c08ccbe	0.008349596
82	0xbcaa803e	-0.020813104
83	0xbd3917eb	-0.045188826
84	0xbcbdfdb2	-0.02319226
85	0xbc8cf1ec	-0.017205201
86	0xbc2c6045	-0.010520999
87	0xbcac1a34	-0.021008588
88	0xbb5aeddf	-0.0033405942
89	0xbd163a91	-0.036676947
90	0xbd0b1768	-0.03395787
91	0xbc5c7856	-0.013456425
92	0xbc7fb76c	-0.015607696
93	0xbd0386ac	-0.032110855
94	0xbcef50a5	-0.029213259
95	0xbc1f07d6	-0.009706458
96	0xbd1dbfad	-0.038512874
97	0xbc5a2cce	-0.013316346
98	0x3c3b2bd5	0.011424025
99	0xbc846310	-0.016160518

fc.1.weight f4 [100, 100]
0	0xbcb397a0	-0.021922886
1	0x3c01deea	0.007926682
2	0xbc80571e	-0.01566654
3	0x3d2f9d2c	0.0428745
4	0xbc695cec	-0.014243346
5	0x3ceb49f3	0.028721785
6	0xbd0471fa	-0.03233526
7	0xbcfac7be	-0.030612823
8	0xbb3eee3e	-0.0029133703
9	0xbccf64e0	-0.025316656
10	0xbd60f807	-0.054924037
11	0xbc047b24	-0.008086
12	0x3d1a46dc	0.037665233
13	0x3c2bf239	0.010494762
14	0xbd399fee	-0.045318536
15	0x3d2e41a9	0.042543087
16	0xbc4d77b1	-0.012540744
17	0x3cea750e	0.02862027
18	0xbd0e734e	-0.034777932
19	0xbcc2d4ba	-0.023783077
20	0x3b4b432e	0.0031015384
21	0x3aacbd3d	0.0013178956
22	0x3d89adc5	0.06722597
23	0x3d599740	0.05312276
24	0x3c711ce1	0.014716358
25	0xbb40a16c	-0.002939309
26	0x3d8fb3cd	0.07016716
27	0x3d86e92d	0.065874435
28	0x3becd24c	0.007227218
29	0xbc0d2cef	-0.00861667
30	0x3db5e1ab	0.088809334
31	0x3c842cf4	0.016134717
32	0xbc503289	-0.012707361
33	0x3d7b2ad0	0.061320126
34	0x3d74b84f	0.059746083
35	0xbc8c1172	-0.017098162
36	0xbc2561a8	-0.010094084
37	0xbccba41e	-0.02485853
38	0x3c6ed871	0.014577971
39	0x3cf98c32	0.030462358
40	0x3e0a113b	0.13483135
41	0xbc25b6c0	-0.010114372
42	0xbd2d3bce	-0.042293362
43	0x3b31d554	0.002713521
44	0xbc47f346	-0.012203997
45	0x3d1185cd	0.035527993
46	0xbc299bec	-0.010352116
47	0x3cca34bd	0.02468335
48	0x3c897b3d	0.016782397
49	0x3ccc24fb	0.024919977
50	0x3d129a19	0.03579149
51	0x3d921cea	0.07134421
52	0xbb06ead7	-0.0020586753
53	0x3caf76ed	0.021419013
54	0x3d915e6d	0.070980884
55	0xbc6b0473	-0.0143443225
56	0xbcdca6d5	-0.02693502
57	0xbb06e37d	-0.002058237
58	0xba25abb9	-0.0006319839
59	0xbc6ee29b	-0.014580394
60	0x3c56d79d	0.01311293
61	0xbcaf2c46	-0.021383416
62	0x3ba9ad83	0.005178155
63	0xba9f0bcd	-0.0012134254
64	0x3d006c1f	0.031353112
65	0xbc2036c0	-0.009778678
66	0x390f1326	0.00013644676
67	0x3c7b770a	0.015348205
68	0xbd1355ae	-0.035970382
69	0xbcdb66c3	-0.026782399
70	0xbd01fca9	-0.031735096
71	0xbbcb1eb5	-0.006198729
72	0x3b0775c9	0.002066957
73	0x3c1734fe	0.009228943
74	0xbcb23e44	-0.021758206
75	0xbc21f6a7	-0.009885467
76	0x3d3bca4d	0.045847226
77	0xbbae6156	-0.005321662
78	0xbd10f2df	-0.03538787
79	0x3a606288	0.0008559604
80	0x3dccb720	0.09995866
81	0x3caec231	0.021332832
82	0x3e000cdb	0.12504904
83	0xbcadad1e	-0.021200713
84	0xbc35bac4	-0.011091892
85	0x3d40ad41	0.047040228
86	0x3d063de4	0.032773867
87	0x3d8c07a2	0.06837393
88	0x3c3be8bd	0.011469063
89	0xbc31fbf6	-0.010863295
90	0xbcd71d45	-0.026259074
91	0x3d4b8c30	0.04969424
92	0x3d3ce12c	0.046113178
93	0xbd4875f4	-0.048940614
94	0xbc00960f	-0.007848277
95	0x3c535be7	0.012900329
96	0xbb080534	-0.0020755054
97	0x3d33315e	0.043748252
98	0x3c69f6bb	0.0142800165
99	0x3d52d320	0.051470876
100	0x3cb38637	0.021914585
101	0xbbf08b88	-0.007340852
102	0x3ca25304	0.019814976
103	0xbd37664c	-0.044775292
104	0x3c78f8e8	0.015196063
105	0xbd01e344	-0.031710878
106	0x3c04117b	0.008060808
107	0x3c7b9f63	0.015357825
108	0x3d3b1fc4	0.04568459
109	0x3d070def	0.032972272
110	0x3c30bcba	0.010787183
111	0x3cc564a4	0.02409584
112	0xbd4b5c32	-0.04964847
113	0x3ca809d6	0.020512503
114	0xbcc479d7	-0.023983879
115	0xbd820d67	-0.063502125
116	0x3c61be9d	0.013778356
117	0xbd1bfcf9	-0.03808305
118	0x3c2f061e	0.010682611
119	0x3bac72f6	0.005262728
120	0x3d325834	0.04354115
121	0xbbbbff04	-0.0057371873
122	0xbd4c3088	-0.04985097
123	0xbd449f6a	-0.04800359
124	0xbb31e304	-0.0027143368
125	0xbc5e83b9	-0.01358121
126	0xbd999d27	-0.075006776
127	0xbd3fbf3f	-0.046813246
128	0x3b34a174	0.0027562054
129	0xbca432fd	-0.020043844
130	0xbd5765b5	-0.05258723
131	0x3c22b229	0.009930172
132	0xbc1ba366	-0.009499406
133	0xbcf33cf6	-0.029692154
134	0xbcbd53ee	-0.02311131
135	0x3d2d93a1	0.042377118
136	0x3bb574a3	0.005537586
137	0x3cea8c94	0.028631486
138	0xbd0cf482	-0.03441287
139	0xbcff504d	-0.03116622
140	0xbd3d7736	-0.046256267
141	0xbcad7406	-0.021173488
142	0x3cfd7f59	0.030944513
143	0xbd22abd1	-0.03971464
144	0x3d13bede	0.036070697
145	0xbbe60057	-0.0070190835
146	0x3c020d2e	0.007937713
147	0xbd8090ec	-0.06277642
148	0x3d4a71f8	0.049425095
149	0xbd86eec7	-0.06588512
150	0xbcb38898	-0.021915719
151	0xbd0f176d	-0.03493445
152	0x3cf992a0	0.030465424
153	0xbb425f64	-0.0029658908
154	0xbd8645db	-0.065562926
155	0xbcb85153	-0.022499716
156	0x3c12598e	0.008932484
157	0xbc06b4dc	-0.008221831
158	0xbc61a781	-0.013772846
159	0x3c4fa7cf	0.012674286
160	0x3d864c9d	0.065575816
161	0x3c76ab0b	0.015055428
162	0x3c8407e8	0.016117051
163	0x3d5cdf78	0.053924054
164	0xbd8ba571	-0.06818665
165	0x3d4e3f7d	0.050353516
166	0xbc666cb6	-0.014064005
167	0x3c890c01	0.016729357
168	0x3cea7053	0.028618013
169	0x3c80644d	0.015672827
170	0xbca7d55f	-0.020487485
171	0x3c0c125f	0.008549302
172	0x3c31c506	0.010850197
173	0x3cb03d8e	0.021513727
174	0x3bc732cb	0.006079053
175	0x3d04995d	0.03237282
176	0xbd9dfffb	-0.0771484
177	0x3b8313df	0.0040001716
178	0x3cd5b2ad	0.026086176
179	0xbb579828	-0.0032897089
180	0xbce9a409	-0.0285206
181	0x3c4471b7	0.011990002
182	0xbdcc1052	-0.0996405
183	0x3d04ab6e	0.03239005
184	0x3bebb665	0.007193374
185	0xbdbb5cb4	-0.09148541
186	0xbca63adf	-0.020291744
187	0xbc33cfb8	-0.010974817
188	0xbcc0aa6c	-0.023518763
189	0x3c9ab6b8	0.018885955
190	0x3b2fa0fe	0.002679884
191	0xbc8eedf8	-0.017447457
192	0xbd5fc9d8	-0.054635853
193	0x3b96c17d	0.0046007023
194	0x3caddd2a	0.021223623
195	0x3c2a716c	0.010403018
196	0x3ba967ff	0.005169868
197	0xbdb1d9b0	-0.08684099
198	0x3c580fd8	0.013187371
199	0xbdb539cc	-0.088489145
200	0x3c2c9bc1	0.0105351815
201	0xbcd2159c	-0.02564507
202	0xbb5c83f5	-0.0033647988
203	0xbd891f3b	-0.0669541
204	0x3971d70d	0.00023063664
205	0xbbb605d4	-0.005554894
206	0xbc46e317	-0.012139103
207	0x3bcbd1d2	0.006220081
208	0x3cf1392c	0.029446207
209	0x3bd52f7b	0.0065059043
210	0x3d71390e	0.058892302
211	0x3981967f	0.00024716926
212	0xbcec56ce	-0.028849985
213	0xbc9a5592	-0.018839631
214	0x3c9b5be3	0.018964713
215	0xbd52333c	-0.051318392
216	0x3a78c141	0.00094892463
217	0xbbf771f4	-0.007551426
218	0x3d1eca9e	0.03876745
219	0xbae596c5	-0.0017516246
220	0x3d3574d5	0.044300873
221	0x3ca0faef	0.019650904
222	0xbd8de7b1	-0.06928957
223	0xbcb30dd0	-0.021857172
224	0x3ac55b9f	0.0015057212
225	0xbb4523e6	-0.0030081212
226	0xbd8532d1	-0.06503833
227	0xbd742db7	-0.05961391
228	0x3c5edcb3	0.0136024235
229	0x3c5c1c87	0.013434536
230	0xbd168d04	-0.036755577
231	0x3aaed606	0.001333893
232	0x3bdb3908	0.0066901483
233	0xbd684676	-0.05670782
234	0xbcab249b	-0.020891478
235	0x3d6c0c1d	0.05762874
236	0x3c1fd6b9	0.009755784
237	0x3c9e0dec	0.019293748
238	0x3c890c84	0.0167296
239	0xbcb467a3	-0.022022074
240	0xbd9cb17e	-0.076510414
241	0xbc0f194a	-0.008734057
242	0x3d49a574	0.049230054
243	0xbd0592d7	-0.03261074
244	0x3cc1bf3c	0.023650758
245	0xbd067cf2	-0.032834
246	0xbc1094ad	-0.00882451
247	0xbd6235f8	-0.05522725
248	0x3d44c1f4	0.04803653
249	0xbd613be0	-0.054988742
250	0xbcce6d6e	-0.025198665
251	0xbd16855b	-0.03674827
252	0x3d781e68	0.060575873
253	0xbb554160	-0.0032540187
254	0xbd0d413b	-0.034486037
255	0x3ca5e74a	0.020251889

fc.1.bias f4 [100]
0	0x3c3a83a5	0.011383926
1	0xbc84bc0d	-0.01620295
2	0xbca00a77	-0.01953624
3	0xbc5ba23f	-0.013405382
4	0xbcb95ec3	-0.022628194
5	0xbc5c5ed6	-0.013450345
6	0xbc8a4306	-0.016877662
7	0xbcc055ef	-0.023478476
8	0xbc72a217	-0.014809153
9	0x3ca03803	0.019557958
10	0xbc6f4f1e	-0.014606265
11	0x3c5551da	0.013020003
12	0xbc81e820	-0.015857756
13	0xbc60e5a0	-0.013726622
14	0x3c57f755	0.013181527
15	0x3c76e647	0.015069551
16	0x3c4fc394	0.012680907
17	0x3c801061	0.01563281
18	0x3c360ba0	0.01111117
19	0xbc6d06bd	-0.014466939
20	0x3c9b5521	0.018961491
21	0xbca1af2e	-0.019736852
22	0xbc74fecc	-0.014953326
23	0xbc48107e	-0.012210963
24	0xbc851170	-0.016243666
25	0xbc8950c8	-0.016762152
26	0xbc425722	-0.011861594
27	0xbc42111d	-0.0118449
28	0x3c3aa779	0.011392468
29	0x3c3b4ffd	0.011432645
30	0xbcb8e99c	-0.022572331
31	0x3c3dde41	0.011588634
32	0xbc706f27	-0.014674938
33	0x3ca11f2c	0.019668184
34	0x3ca9c2fa	0.020722855
35	0xbc4491dd	-0.011997667
36	0x3c81a015	0.015823403
37	0xbc82e5bf	-0.015978692
38	0xbc803538	-0.015650377
39	0xbc5c0460	-0.013428777
40	0x3c153e4a	0.009109089
41	0xbc6aabc3	-0.014323178
42	0x3c4054ab	0.011738936
43	0x3c444ffd	0.011981961
44	0xbc631e38	-0.013862185
45	0x3c13f251	0.009029941
46	0x3c363511	0.01112105
47	0x3c0e07fc	0.008668896
48	0x3c67a618	0.014138721
49	0xbc8f3fe7	-0.017486526
50	0xbc9c5a2b	-0.019085964
51	0xbc844d49	-0.016150134
52	0x3c9cff1a	0.01916461
53	0xbc951fad	-0.01820358
54	0xbc650359	-0.013977849
55	0xbc646c0a	-0.013941774
56	0xbc86d7c1	-0.016460301
57	0x3c39b2e7	0.011334158
58	0xbc64c882	-0.01396382
59	0xbc8abc2d	-0.016935432
60	0x3c67b6c0	0.014142692
61	0x3c5b4f26	0.01338557
62	0xbc7c2886	-0.015390521
63	0x3c1be6f2	0.009515511
64	0xbc838338	-0.01605378
65	0xbc881603	-0.016612059
66	0x3c3dd8c4	0.0115873255
67	0xbc880aca	-0.016606707
68	0x3c8789c4	0.016545184
69	0xbc822bb8	-0.015889987
70	0xbc6d56b7	-0.014486006
71	0x3c403cc6	0.0117332395
72	0xbc56c1aa	-0.013107697
73	0xbc82fc06	-0.015989315
74	0x3c5111ca	0.012760589
75	0x3c456a47	0.012049264
76	0x3c7f3be8	0.015578248
77	0x3c3f568e	0.011678351
78	0xbc894c50	-0.016760021
79	0x3c2e940b	0.010655413
80	0xbc611f1d	-0.013740328
81	0x3c519b90	0.012793437
82	0x3c64c967	0.013964034
83	0x3c551bca	0.013007114
84	0xbc4f6f5d	-0.012660828
85	0xbc8d58a5	-0.017254183
86	0xbca03be8	-0.019559816
87	0x3c5b3177	0.013378493
88	0x3c01f124	0.007931028
89	0x3c5d3b91	0.013502971
90	0xbc7a0278	-0.015259378
91	0x3c4f8f08	0.012668379
92	0xbc8f846f	-0.017519204
93	0x3c71ddba	0.014762336
94	0xbc524be5	-0.0128354775
95	0x3c4e7884	0.012601975
96	0x3c754409	0.014969834
97	0x3c50da59	0.012747371
98	0x3c2e644a	0.010644028
99	0x3c0dc68f	0.008653297

fc.2.weight f4 [100, 100]
0	0x3d8fc560	0.07020068
1	0xbca151cd	-0.019692326
2	0xbcfce39d	-0.030870253
3	0xbcb96fc7	-0.022636307
4	0xbbc9aec5	-0.0061548674
5	0xbd1653c3	-0.036700975
6	0xbc77114f	-0.01507981
7	0xbd0fd877	-0.035118546
8	0xbd3b8441	-0.045780424
9	0x3cd4c44b	0.025972506
10	0xbd0016b2	-0.031271644
11	0x3c8f5f91	0.017501624
12	0xbccccbbe	-0.024999496
13	0xbd5aa492	-0.053379603
14	0x3d5c8c63	0.05384482
15	0x3d9cfb76	0.0766515
16	0x3d5c88d4	0.053841427
17	0x3d77b7a4	0.060477868
18	0x3dcb6a3c	0.09932372
19	0xbceefd81	-0.029173614
20	0xbd19be52	-0.03753502
21	0xbd948b52	-0.07253136
22	0xbce16469	-0.0275137
23	0xbd84d25e	-0.06485437
24	0xbd45f496	-0.04832896
25	0xbd6d7bf9	-0.057979558
26	0xbda240be	-0.07922505
27	0xbd40ad9f	-0.047040578
28	0x3da366cc	0.07978591
29	0x3d7e92aa	0.06215159
30	0xbce5b99e	-0.02804261
31	0x3d3cccb8	0.046093673
32	0xbd670e6c	-0.05641024
33	0x3ce71e22	0.02821261
34	0x3d1c1fd7	0.038116302
35	0xbcaa3b70	-0.020780295
36	0x3d510574	0.05103059
37	0xbd0531f8	-0.032518357
38	0xbd3211c0	-0.04347396
39	0xbdaee5a6	-0.08539896
40	0x3cbf4b15	0.023351232
41	0xbba835d7	-0.0051333713
42	0x3d9323f7	0.07184594
43	0x3cf51f4a	0.029922146
44	0xbdad2d35	-0.08455888
45	0x3d4fd442	0.050739534
46	0x3d4bd4ec	0.049763605
47	0x3d443ed3	0.047911476
48	0x3cbed4f7	0.023294909
49	0xbd3f813f	-0.046754118
50	0xbd1ae953	-0.03782017
51	0xbd02fa06	-0.031976722
52	0x3c877fd7	0.016540451
53	0xbcf2707c	-0.029594652
54	0xbcdef036	-0.02721415
55	0xbd46cf5a	-0.04853759
56	0xbd22a149	-0.039704595
57	0x3d8ffc18	0.07030505
58	0xbd2aa7f0	-0.041664064
59	0xbd6b4fe1	-0.057449225
60	0x3d672464	0.05643119
61	0x3c109769	0.0088251615
62	0x3c098b41	0.008395017
63	0x3d798abd	0.060923327
64	0xbd1b9d2a	-0.03799168
65	0xbd5582bd	-0.052126635
66	0x3cf44989	0.02982022
67	0xbcf60666	-0.030032348
68	0x3d24e9a7	0.04026189
69	0xbcc287cf	-0.0237464
70	0x3c30c0d3	0.01078816
71	0x3d0158f4	0.031578973
72	0xbdbdbdc5	-0.09264711
73	0xbd15ca0f	-0.03656965
74	0x3c47035f	0.0121468
75	0xbb2f0d98	-0.0026710983
76	0x3d2c9495	0.042133886
77	0x3d785918	0.06063184
78	0xbd8c81b2	-0.06860675
79	0x3c0489e9	0.008089521
80	0x36d1714d	6.2418753e-06
81	0x3d1b98c5	0.03798749
82	0x3d67cd79	0.05659244
83	0x3cfc6231	0.03080854
84	0xbd3e8222	-0.046510823
85	0xbce9d93f	-0.028545974
86	0xbd3408e5	-0.043953795
87	0x3d113cc2	0.035458334
88	0x3d66efc4	0.056381002
89	0x3d87c441	0.06629229
90	0xbca28c9f	-0.019842444
91	0x3d6f975e	0.058493964
92	0xbd2f0d6f	-0.04273742
93	0x3d226d11	0.039654795
94	0xbd4335e3	-0.047658812
95	0x3ccc87d1	0.024967106
96	0x3d040ab0	0.032236755
97	0x3d39b865	0.045341868
98	0x3d17645b	0.03696094
99	0x3c9ef148	0.019402161
100	0xbdab3a6c	-0.083607525
101	0x3d4b3972	0.04961533
102	0xbbb33dc3	-0.005470009
103	0x3d7b50ff	0.06135654
104	0x3c63e9b4	0.0139107
105	0x3aa2ad3d	0.0012411248
106	0x3d436eea	0.047713198
107	0x3c8cd413	0.017190969
108	0x3cfe3c1d	0.031034524
109	0xbcf5781e	-0.029964503
110	0x3d05e420	0.03268826
111	0xbd503906	-0.05083563
112	0x3d52502a	0.05134598
113	0x3d2b882a	0.041877903
114	0xbdb1505f	-0.08657908
115	0xbd7e4f1b	-0.06208716
116	0xbcaf355f	-0.021387754
117	0xbcdb20b8	-0.026749
118	0xbd9b2ad1	-0.07576526
119	0x3d651426	0.05592742
120	0xbd0c7631	-0.034292404
121	0x3d4b06f8	0.049567193
122	0x3d34d146	0.04414489
123	0x3d828a23	0.06374004
124	0x3c9908ac	0.018680893
125	0xbc4a67c8	-0.012353845
126	0x3d0f7267	0.035021212
127	0x3cac2b1c	0.02101665
128	0xbdba8797	-0.09107893
129	0xbc9a6c69	-0.018850522
130	0x3c25b0d2	0.010112958
131	0xbd82fff1	-0.06396473
132	0x3d22fa82	0.039789684
133	0xbd587790	-0.0528484
134	0xbd3613e0	-0.044452548
135	0x3ced1d0e	0.028944518
136	0x3b38c0a0	0.0028190985
137	0x3c9ec41a	0.019380618
138	0x3ca9af5b	0.020713499
139	0x3d934ee7	0.07192784
140	0xbdb0791e	-0.08616851
141	0x3d2b846b	0.04187433
142	0xbd8f4ca9	-0.06997044
143	0xbd10169d	-0.035177816
144	0x3d810fbc	0.06301829
145	0xbd46ecae	-0.04856556
146	0xbcfcfceb	-0.03088232
147	0xbd9d464b	-0.07679423
148	0xbd0ed7fa	-0.03487394
149	0x3cebd721	0.028789105
150	0x3d12a887	0.03580525
151	0x3d8bc566	0.0682476
152	0x3754958e	1.2671006e-05
153	0x3c37d297	0.011219642
154	0x3cba859a	0.022768784
155	0x3d55998e	0.052148394
156	0x3cfbfc3d	0.030759925
157	0xbd8d0a25	-0.068867005
158	0x3d8e3b2a	0.069448784
159	0x3c0ce426	0.008599317
160	0xbda770f3	-0.0817584
161	0xbd90b997	-0.070666485
162	0x3d1ac207	0.037782695
163	0xbd14ea6a	-0.036356367
164	0x3dadd1ad	0.08487258
165	0x3cc94345	0.02456821
166	0xbd908ca2	-0.070580736
167	0x3d68acf8	0.05680558
168	0xbd124c6c	-0.035717413
169	0x3d3e8daa	0.04652182
170	0x3be0f487	0.0068650874
171	0xbd89197e	-0.066943154
172	0x3cd9e5a8	0.026598766
173	0x3d25b984	0.040460125
174	0xbd2b5782	-0.0418315
175	0xbd54e816	-0.051979147
176	0xbd49eb0c	-0.049296424
177	0xbd32d1f7	-0.04365727
178	0x3cd357b0	0.025798649
179	0xbd296cf5	-0.041363675
180	0x3d437f5d	0.047728885
181	0xbd792ce4	-0.060833827
182	0xbd81830a	-0.06323822
183	0xbb8037ec	-0.0039129164
184	0x3d559b57	0.052150097
185	0x3da713b2	0.081580535
186	0x3d297d99	0.041379545
187	0xbd378f8c	-0.04481463
188	0xbd6ec02c	-0.058288738
189	0xbc925850	-0.017864376
190	0x3d9ab8f6	0.0755481
191	0xbd74e38a	-0.05978731
192	0x3d5a69da	0.053323604
193	0xbd69dc06	-0.057094596
194	0x3cfd3217	0.030907674
195	0xbd1f3641	-0.0388701
196	0xbd27fb82	-0.04101134
197	0xbdb06b71	-0.08614243
198	0xbdc26bc3	-0.0949321
199	0xbdabdb6f	-0.08391463
200	0xbd74926e	-0.05970996
201	0x3cea29ec	0.028584443
202	0x3cfcac72	0.030843947
203	0x3d70a4b9	0.05875084
204	0x3c6a9523	0.0143177835
205	0x3d730bcb	0.05933742
206	0x3d4e3f3d	0.050353277
207	0x3d6d633e	0.057955973
208	0x3d6cb0b0	0.05778569
209	0x3c0e4dce	0.008685542
210	0x3c7950d1	0.015217022
211	0xbd603758	-0.05474028
212	0x3cc8788b	0.024471542
213	0x3d6531ac	0.055955574
214	0xbd758b4f	-0.05994731
215	0xbd7739fd	-0.060358036
216	0xbd43cc8e	-0.0478025
217	0x3a432b64	0.00074451254
218	0xbd312468	-0.04324761
219	0x3d08473b	0.033271056
220	0xbc90a788	-0.01765801
221	0x3d1182bd	0.035525072
222	0x3d04d6c6	0.032431386
223	0x3da5d499	0.080971904
224	0x3d43f6d2	0.047842808
225	0x3cb514b1	0.022104593
226	0x3d7750bc	0.06037973
227	0x3d02e98a	0.031961
228	0xbd84f2ca	-0.06491621
229	0xbd24299e	-0.04007875
230	0x3d3db3c2	0.04631401
231	0xbd7f7ccd	-0.06237488
232	0x3cc3bbee	0.023893323
233	0xbd62173d	-0.055197943
234	0xbcfa779e	-0.030574616
235	0x3d121073	0.03566022
236	0xbd7ba373	-0.061435174
237	0xbc4d938e	-0.012547387
238	0x3d26fec7	0.04077032
239	0x3caeb9c6	0.021328818
240	0xbd0dc9bc	-0.034616217
241	0x3d58a16f	0.05288833
242	0xbd7baf38	-0.0614464
243	0xbcd25a59	-0.025677847
244	0x3d12a872	0.035805173
245	0xbde815eb	-0.113323055
246	0xbda9a1b1	-0.08282793
247	0xbd330cfd	-0.04371356
248	0xbd7852dd	-0.0606259
249	0x3d4ccd66	0.05000057
250	0x3c2a276f	0.010385378
251	0x3d98922d	0.07449756
252	0xbaffba64	-0.0019510505
253	0x3c962716	0.018329185
254	0x3d10b870	0.035332143
255	0x3d60a5af	0.05484551

fc.2.bias f4 [100]
0	0x3bc73722	0.0060795704
1	0xbb0cd7fd	-0.0021491044
2	0xbb395117	-0.0028277093
3	0x3b9a482c	0.0047083106
4	0xbb7f7f14	-0.0038985657
5	0x3ba2e290	0.004970856
6	0x3b9e2cd6	0.004827122
7	0x3b7b64a7	0.0038359554
8	0xbb8c5e04	-0.0042836685
9	0x3ba8a787	0.005146924
10	0x3b6ef03b	0.0036459106
11	0x3bd3d0e7	0.006464112
12	0x3b8e715d	0.00434701
13	0xbb4550f4	-0.0030108066
14	0x3bc5ded1	0.0060385247
15	0x3b554d6c	0.0032547368
16	0xbb0d8bbc	-0.002159818
17	0x3bba9ea5	0.0056951814
18	0xbb026947	-0.0019899176
19	0x3beca267	0.0072215083
20	0xbb3cc1fb	-0.0028802145
21	0xbb5f147f	-0.0034039316
22	0xbb2b7568	-0.002616251
23	0x3b92ce39	0.00448015
24	0xbb46b7c1	-0.0030321928
25	0x3b67c77a	0.00353667
26	0xbb3ce2b3	-0.0028821647
27	0xbb1bf583	-0.002379746
28	0xbae27de2	-0.0017279948
29	0xbb0eb853	-0.0021777346
30	0x3b77b05d	0.003779433
31	0xbb7453cc	-0.0037281392
32	0xbafe2820	-0.001939062
33	0x3b61b48e	0.0034439894
34	0xbb469872	-0.0030303267
35	0x3ba429cf	0.005009867
36	0x3b3fad3f	0.002924755
37	0xbb30fbb2	-0.002700549
38	0xbb26aae2	-0.0025431444
39	0x3b998e37	0.004686143
40	0x3b3cc660	0.0028804764
41	0xbab592ad	-0.0013852917
42	0xbb1fba4d	-0.0024372519
43	0x3bd47665	0.0064838403
44	0xbb142d56	-0.002261003
45	0x3b8e6ff1	0.0043468405
46	0x3b82c3cb	0.0039906255
47	0x3b86b87a	0.004111347
48	0xbaa60de5	-0.0012668936
49	0x3b1de179	0.002409069
50	0xbb3bf39f	-0.0028679145
51	0xbbaa5ff7	-0.005199428
52	0xbb95cf5d	-0.004571839
53	0x3bac7ee3	0.0052641495
54	0x3b5ef583	0.0034020848
55	0x3b88223f	0.004154473
56	0xbb5d8895	-0.0033803333
57	0x3bbf33e4	0.0058350433
58	0x3b49160a	0.0030683302
59	0xbaf01a9a	-0.0018318475
60	0xbb1e4594	-0.0024150359
61	0x3b9c33d4	0.0047669206
62	0x3b3b4f70	0.0028581284
63	0xbb26e9a4	-0.002546885
64	0xbb15fd0a	-0.0022886419
65	0xbadeaa68	-0.0016988041
66	0x3b59d9cc	0.003324139
67	0x3bdc0c01	0.006715298
68	0x3b9063bd	0.004406421
69	0xbb25a802	-0.0025277142
70	0x3ba67b98	0.0050806515
71	0x3b5d9110	0.0033808388
72	0x3b71d5da	0.0036901147
73	0x3b82a216	0.0039866073
74	0xbb029385	-0.0019924354
75	0x3b99bef4	0.004691953
76	0x3bccdc4a	0.0062518464
77	0xbb6f0213	-0.0036469742
78	0x3b8a68de	0.004223927
79	0xbb152b62	-0.0022761454
80	0xbb597504	-0.003318132
81	0xbb460437	-0.0030214915
82	0x3b253550	0.0025208779
83	0x3b9413e9	0.004518975
84	0xbb548948	-0.0032430459
85	0x3b6876ca	0.0035471194
86	0x3b80f601	0.003935576
87	0xbb56cb2d	-0.003277491
88	0x3b945ef8	0.0045279227
89	0x3b990d40	0.004670769
90	0x3bb53f86	0.005531254
91	0xbb4ccf99	-0.0031251668
92	0x3b838564	0.004013704
93	0x3b98d128	0.0046636052
94	0xbb35063c	-0.0027622124
95	0x3b83a83c	0.004017858
96	0x3ba2aa04	0.004964115
97	0xbb5894ff	-0.0033047793
98	0xbadbc9c8	-0.001676851
99	0xbaa564d7	-0.0012618554

fc.3.weight f4 [100, 100]
0	0xbcbd9ec0	-0.023146987
1	0x3d6e0650	0.05811149
2	0x3d254379	0.04034755
3	0xbd3187d2	-0.04334242
4	0x3d4ea8ea	0.050454058
5	0xbc74fa87	-0.0149523085
6	0xbd4063b2	-0.046970077
7	0xbcc3621f	-0.023850499
8	0x3d55ba1a	0.052179433
9	0xbcdfb3be	-0.027307387
10	0xbd9b56d7	-0.07584923
11	0xbd4f4be7	-0.050609495
12	0xbca449ad	-0.020054663
13	0x3d01a0af	0.03164738
14	0xbd6a8456	-0.05725511
15	0xbd5d8215	-0.054079134
16	0x3d72bcec	0.0592622
17	0xbd515b40	-0.051112413
18	0x3d4f7163	0.050645243
19	0xbd479f9e	-0.048736207
20	0x3d16a5f9	0.036779378
21	0x3d455b83	0.048182976
22	0x3d3a6475	0.04550596
23	0xbd74ca23	-0.059763085
24	0x3d856839	0.065140195
25	0xbd3e133b	-0.04640506
26	0x3cd71707	0.026256097
27	0x3d5fe2c3	0.054659616
28	0x3d4383b0	0.04773301
29	0x3d67c6de	0.05658614
30	0xbd63e02b	-0.055633705
31	0x3cccd78c	0.025005125
32	0x3cf6c84f	0.030124811
33	0xbd26eec2	-0.04075504
34	0xbb899139	-0.00419822
35	0xbc552eef	-0.013011678
36	0xbc8f43c1	-0.017488362
37	0x3d3e3c81	0.04644442
38	0x3d90717a	0.07052894
39	0xbc8729c1	-0.016499402
40	0xbccd3a21	-0.025052132
41	0x3d03c321	0.03216851
42	0x3d4991e9	0.049211416
43	0xbd7abcf2	-0.06121535
44	0x3d8427eb	0.06452926
45	0xbc044573	-0.008073199
46	0xbd7f282c	-0.06229417
47	0xbd39335b	-0.045214992
48	0x3d68ca05	0.056833286
49	0xbda36524	-0.079782754
50	0x3d0a4f6c	0.03376715
51	0x3d3b4c3c	0.045727
52	0x3d12f5d8	0.035878986
53	0xbc9fe4dc	-0.019518308
54	0xbd318461	-0.043339137
55	0xbd1593f4	-0.036518052
56	0x3cbe9312	0.023263488
57	0xbd0000cf	-0.03125077
58	0xbd7b7388	-0.061389476
59	0x3d87b983	0.066271804
60	0x3ce50c68	0.027960017
61	0x3bd9f28e	0.006651229
62	0x3b133093	0.0022459372
63	0x3d7bc11d	0.061463464
64	0x3d6d0b37	0.057872023
65	0x3ca915e2	0.020640317
66	0xbd77fcc4	-0.06054379
67	0xbd0200a4	-0.031738892
68	0xbd3bc940	-0.045846224
69	0x3d444a72	0.04792256
70	0xbd2b8fd7	-0.041885223
71	0xbcb34ff5	-0.021888712
72	0xbd2a059d	-0.04150926
73	0xbda63e7e	-0.08117388
74	0x3d0b5553	0.03401692
75	0xbd0cb87e	-0.034355633
76	0xbd466459	-0.048435543
77	0x3d80b610	0.06284726
78	0xbc836e14	-0.0160437
79	0x3ce36e7f	0.02776265
80	0x3d56234d	0.05227976
81	0x3cfe7b9d	0.031064803
82	0xbd3a5fc9	-0.045501504
83	0xbd70a1b1	-0.05874795
84	0x3d29335d	0.04130875
85	0xbd581839	-0.052757476
86	0xbd7375dd	-0.059438575
87	0x3a0719b6	0.00051536725
88	0xbd108702	-0.035285003
89	0xbd3b721b	-0.045763116
90	0xbc6eb809	-0.014570245
91	0x3ce00f11	0.027350934
92	0xbd5bc27d	-0.053652275
93	0xbd13303b	-0.035934668
94	0x3cb2c1c0	0.021820903
95	0xbd1e80a6	-0.038696907
96	0xbd158cd0	-0.036511242
97	0x3d827aff	0.06371116
98	0x3d38c5e9	0.045110617
99	0x3d13251a	0.035924055
100	0xbd59b1e5	-0.05314817
101	0x3d630bf6	0.05543133
102	0x3c1f9074	0.00973903
103	0xbc912a04	-0.01772023
104	0x3cdba2d2	0.026811037
105	0xbb9b3781	-0.004736841
106	0xbd992fc5	-0.074798144
107	0xbcdd782a	-0.027034838
108	0x3d33409b	0.043762784
109	0xbcb06ac7	-0.02153529
110	0xbccaf868	-0.024776652
111	0xbd18d2ce	-0.037310414
112	0xbd1156d9	-0.035483215
113	0x3d32ee49	0.043684278
114	0xbd838ad4	-0.06422964
115	0xbd80425a	-0.062626556
116	0x3d320bf2	0.043468423
117	0xbdaf7aa0	-0.08568311
118	0x3d159cbe	0.036526434
119	0xbd375126	-0.044755124
120	0x3cb98b0f	0.022649316
121	0x3cee96b0	0.029124588
122	0x3d383e11	0.044981066
123	0xbd22ead0	-0.039774716
124	0x3d8595e4	0.0652273
125	0xbce4f034	-0.027946569
126	0x3d65dacf	0.056116875
127	0x3d318461	0.043339137
128	0x3d17ce65	0.037062068
129	0x3d419fdc	0.047271594
130	0x3c8110d5	0.015755096
131	0x3d61a84f	0.055092152
132	0x3d2ac78a	0.0416942
133	0xbd0cf829	-0.03441635
134	0x3c57c0b4	0.013168503
135	0xbd28e99b	-0.04123841
136	0xbcea2572	-0.028582308
137	0x3c365371	0.011128292
138	0x3ce49ae1	0.027905883
139	0xbd2d6707	-0.042334583
140	0xbd260f4f	-0.040541943
141	0x3ccb2136	0.02479611
142	0x3d17762f	0.036977943
143	0xbd2e9aa8	-0.04262796
144	0x3d6bd81c	0.057579145
145	0xbd09e86d	-0.033668924
146	0xbd3828d2	-0.044960804
147	0xbd26b1a9	-0.040696774
148	0x3bf62a02	0.007512332
149	0xbd2b77cd	-0.041862298
150	0x3d6e3177	0.058152642
151	0x3ca3142c	0.01990708
152	0x3cd8d97d	0.026470894
153	0xbd235e45	-0.039884824
154	0xbd2db8b9	-0.042412493
155	0x3c39878f	0.011323824
156	0x3d0d60c0	0.034516096
157	0xbd2ce327	-0.042208817
158	0xbd1173e6	-0.03551092
159	0x3cbcdab4	0.023053505
160	0x3c3738b9	0.011182957
161	0xbd25df17	-0.04049596
162	0xbd2f44bd	-0.042790163
163	0x3d8adcd9	0.067804046
164	0x3d6683a6	0.056277893
165	0x3d173cfb	0.03692339
166	0xbcf9ca15	-0.030491868
167	0xbd361841	-0.044456724
168	0xbd727623	-0.059194695
169	0x3d37794c	0.044793412
170	0xbd6ab5b3	-0.057302188
171	0xbd427528	-0.04747501
172	0xbd118aed	-0.03553288
173	0xbd923975	-0.07139865
174	0x3cd618c2	0.026134852
175	0xbcfdd7b2	-0.03098664
176	0xbd1c362a	-0.038137592
177	0x3daaf54e	0.083475694
178	0xbcc95288	-0.024575487
179	0x3c3fd2b6	0.011707952
180	0x3d25915b	0.040421825
181	0x3c2f9956	0.0107177105
182	0xbd8dbc14	-0.06920639
183	0xbd57c6b7	-0.052679744
184	0x3d73cf5b	0.05952392
185	0xbd52689c	-0.051369295
186	0xbc9b5c6f	-0.018964974
187	0x3d105d34	0.035245135
188	0xbd668269	-0.056276713
189	0xbd377f6e	-0.04479926
190	0xbd5ed54e	-0.054402642
191	0x3d7ea67f	0.0621705
192	0xbd81ac1d	-0.06331656
193	0xbd50edbe	-0.05100798
194	0x3d3ff328	0.04686275
195	0xbd8f82ec	-0.07007393
196	0xbd3b7990	-0.045770228
197	0x3d494712	0.049140044
198	0x3d7e4a42	0.062082537
199	0x3d01f2e7	0.03172579
200	0x3ced0b6d	0.028936112
201	0xbd3e928b	-0.046526473
202	0xbd37a904	-0.04483892
203	0x3cfaaab7	0.030598981
204	0xbd5bf8f3	-0.053704213
205	0x3cf66b7b	0.030080548
206	0x3d46a8a1	0.04850066
207	0x3d1b4959	0.037911747
208	0xbbc73afd	-0.00608003
209	0x3d7f91b9	0.06239483
210	0x3bfae4df	0.007656678
211	0x3cf70c94	0.030157365
212	0x3c2648ac	0.010149162
213	0x3b2fd2fa	0.0026828633
214	0x3d88c4cb	0.0667816
215	0x3d1ef997	0.038812246
216	0xbd7c2795	-0.061561186
217	0x3d054256	0.032533966
218	0xbd12e830	-0.035865963
219	0x3d9ce61d	0.07661078
220	0xbd1f2ac8	-0.03885916
221	0xbd2c58f9	-0.04207704
222	0xbd126a97	-0.035746183
223	0x3d2c3d26	0.042050503
224	0xbcb47b93	-0.022031581
225	0x3d708240	0.058717966
226	0xbd83cc8d	-0.06435499
227	0xbcf98f44	-0.030463822
228	0xbd17e9ae	-0.03708809
229	0xbd85b2b9	-0.06528229
230	0x3c541f57	0.012946925
231	0xbcfafb1f	-0.030637322
232	0xbd783ed3	-0.06060679
233	0x3d3293f5	0.043598134
234	0xbd914daa	-0.07094891
235	0x3d4e3e18	0.050352186
236	0x3cd57f15	0.026061574
237	0xbd62e293	-0.05539186
238	0xbd0e38bd	-0.03472208
239	0x3d336950	0.043801606
240	0x3d8e986c	0.06962666
241	0xbd23775d	-0.039908756
242	0xbd83a520	-0.064279795
243	0x3b97fb36	0.004638101
244	0xbd699dc9	-0.05703524
245	0x3d4bb1ac	0.049729988
246	0x3d92ea57	0.07173603
247	0x3d375c68	0.04476586
248	0xbcca445c	-0.0246908
249	0x3d72b7ec	0.059257433
250	0xbd7c8cc5	-0.061657686
251	0xbd068d52	-0.032849617
252	0xbd57bf88	-0.052672893
253	0x3d2ee91f	0.04270279
254	0x3d239126	0.039933346
255	0x3caa1db0	0.02076611

fc.3.bias f4 [100]
0	0x3cbb81f2	0.022889111
1	0x3c4c291a	0.012460971
2	0xbc8287e9	-0.015933948
3	0xbbd2e717	-0.0064362395
4	0x3c1d0ffa	0.009586329
5	0xbbc4e1a8	-0.0060083456
6	0x3c8186b3	0.0158113
7	0x3c78ffc0	0.015197694
8	0xbc5ad6a0	-0.013356835
9	0x3c56ecf3	0.0131180165
10	0x3c905a5f	0.017621217
11	0x3c669674	0.014073957
12	0xbc9fdf16	-0.019515555
13	0x3ca0a954	0.019611992
14	0xbc5622a0	-0.013069779
15	0xbc9459ba	-0.018109191
16	0xbc92f379	-0.017938362
17	0x3c27d2d3	0.0102431355
18	0x3c3bd362	0.011463972
19	0x3c959381	0.018258812
20	0x3c84bd3b	0.016203513
21	0xbc0f80d5	-0.008758743
22	0x3c58c338	0.0132301375
23	0x3c14c091	0.0090791145
24	0xbca032d7	-0.019555492
25	0x3c9f66d4	0.019458212
26	0xbacd4f39	-0.0015663869
27	0x3ca3bcd2	0.019987497
28	0x3bd9a17f	0.0066415663
29	0xbc8ee43b	-0.017442813
30	0xbc75bf81	-0.014999271
31	0xbc1ac104	-0.009445433
32	0xbc120d11	-0.008914248
33	0x3c721cc9	0.014777371
34	0x3c2eadf4	0.010661591
35	0xbc238a9e	-0.009981779
36	0x3c9591b6	0.018257957
37	0xbc9486e0	-0.01813072
38	0x3c6a413b	0.014297779
39	0x3c4c6b07	0.012476689
40	0x3c8812b1	0.016610475
41	0x3c6d2549	0.0144742215
42	0x3c5602a2	0.013062151
43	0xbc3c42b8	-0.011490516
44	0xbc269f55	-0.010169824
45	0x3caabf8f	0.020843295
46	0xbc0e208a	-0.00867475
47	0xbc2538dc	-0.010084357
48	0xbc15077f	-0.0090960255
49	0xbc248287	-0.010040886
50	0x3c9c4f73	0.019080853
51	0xbc3676ae	-0.011136694
52	0xbc1742d1	-0.009232239
53	0x3c45e98b	0.012079607
54	0xbabc59c9	-0.001437002
55	0xbc4fd434	-0.0126848705
56	0xbb611d8f	-0.0034349894
57	0xbc68a7c0	-0.014200151
58	0xbc8600a0	-0.01635772
59	0x3c891901	0.016735556
60	0xbc995f80	-0.018722296
61	0x3c46210c	0.01209284
62	0x3c5b7096	0.013393542
63	0xbc4103ad	-0.0117806615
64	0xbc52eda2	-0.012874039
65	0xbc2171c3	-0.009853783
66	0x3c0c379b	0.008558179
67	0xbc7e5e2d	-0.015525383
68	0xbc73c087	-0.014877445
69	0x3c4f2e20	0.012645274
70	0x3c4a6608	0.012353428
71	0x3c6261ac	0.013817232
72	0x3c884de5	0.016638706
73	0x3cb281c4	0.021790393
74	0x3cb46061	0.022018613
75	0x3c828fd9	0.015937733
76	0x3c98d4e3	0.0186562
77	0x3c853772	0.01626179
78	0x3c4cc36b	0.012497763
79	0x3ca49059	0.020088362
80	0x3c243f28	0.010024823
81	0xbbcab385	-0.006185951
82	0x3c816009	0.015792863
83	0x3c8b9125	0.017036984
84	0x3c8fe9c4	0.017567523
85	0x3c974d03	0.01846934
86	0x3c780cb4	0.015139747
87	0xbbbb0be7	-0.005708206
88	0x3c90af75	0.01766179
89	0x3c8558d3	0.016277706
90	0xbc06854c	-0.008210491
91	0x3cb2450c	0.02176144
92	0x3c914aaa	0.017735798
93	0x3c8d6d02	0.017263893
94	0xbc2de061	-0.010612578
95	0x3c9b2040	0.018936276
96	0x3c060322	0.008179458
97	0xbc9c024f	-0.01904407
98	0xbc2c7fa8	-0.0105284825
99	0xbc9bf73e	-0.019038793

fc.4.weight f4 [100, 100]
0	0xbceb01fe	-0.028687473
1	0xbd099a2e	-0.033594303
2	0x3d588307	0.052859332
3	0x3c9d8ee1	0.019233169
4	0xbbf9b4f1	-0.007620447
5	0x3db2aa0d	0.08723841
6	0xbcbb29ab	-0.022847017
7	0xbd79f4a9	-0.06102434
8	0x3d986d92	0.07442774
9	0xbd39df7f	-0.045379158
10	0xbcde38c6	-0.027126681
11	0xbca11358	-0.019662544
12	0x3c92c005	0.017913828
13	0xbc50a826	-0.012735402
14	0x3d656df9	0.05601308
15	0xbcd24db4	-0.025671817
16	0xbc83917f	-0.016060589
17	0xbb521e75	-0.003206161
18	0xbc2ca68a	-0.010537753
19	0xbc35082b	-0.011049311
20	0xbd69f54e	-0.057118706
21	0x3dabfca6	0.08397798
22	0xbce74fbe	-0.028236266
23	0xbd761cc6	-0.060086034
24	0x3b567ebc	0.0032729348
25	0xbc812ca9	-0.015768366
26	0x3d556983	0.052102577
27	0xbcd982ae	-0.02655157
28	0xbce01ca2	-0.027357403
29	0x3d381e20	0.044950604
30	0x3d03365c	0.032034263
31	0x3c8ebd58	0.01742427
32	0x3c88f8f3	0.01672027
33	0xbd0973ea	-0.03355781
34	0xbd068068	-0.0328373
35	0x3d8aaac6	0.06770854
36	0xbc80d377	-0.015725834
37	0x3cf422f5	0.029801825
38	0xbd216f72	-0.039412923
39	0xbd847e44	-0.06469396
40	0xbd0eadf7	-0.034833875
41	0xbcdc18bc	-0.026867263
42	0xbd2fee8a	-0.042952098
43	0xbc715231	-0.014729069
44	0x3d44de6a	0.048063673
45	0xbd2a4530	-0.04156989
46	0x3d226ebd	0.03965639
47	0x3c88cba5	0.016698668
48	0x3c2cfc98	0.01055827
49	0x3c23ca5f	0.0099969795
50	0xbd3efecc	-0.046629712
51	0x3d9da721	0.07697893
52	0x3c7029d2	0.014658408
53	0xbcce3f11	-0.025176557
54	0x3d466ff4	0.04844661
55	0x3ce9dc51	0.028547438
56	0x3cecd49c	0.028909974
57	0x3d244347	0.040103223
58	0x3d2c871b	0.042121034
59	0xbd012663	-0.03153075
60	0x3d7c8173	0.06164689
61	0xbd097973	-0.03356309
62	0xbd560fe6	-0.052261256
63	0x3d9b7f31	0.07592619
64	0xbc3962f6	-0.011315098
65	0x3d852cce	0.065026864
66	0xbd06125e	-0.03273236
67	0x3d04be48	0.03240803
68	0x3cb0d171	0.021584244
69	0xbcea8873	-0.028629517
70	0x3a8fef50	0.0010981355
71	0xbccf4b5d	-0.02530449
72	0xbd1649f4	-0.03669162
73	0xbd7437b3	-0.05962343
74	0xbd3062dc	-0.04306303
75	0x3c103e84	0.008803967
76	0xbd2800b1	-0.041016284
77	0xbcfb50db	-0.030678203
78	0xbcfabc31	-0.030607315
79	0x3c20a913	0.009805935
80	0xbb5282e8	-0.0032121483
81	0x3d1ba3e6	0.037998103
82	0xbd11eee3	-0.03562821
83	0xbc876249	-0.016526358
84	0xbd250473	-0.040287446
85	0xbcad60e0	-0.021164358
86	0xbd5098ce	-0.050926976
87	0x3d036782	0.032081135
88	0xbd2242e5	-0.039614577
89	0xbd6f219d	-0.058381665
90	0x3d1c9f4d	0.03823786
91	0xbd080046	-0.033203386
92	0xbc0723ce	-0.008248283
93	0xbd1c9582	-0.03822852
94	0x3d60a703	0.054846775
95	0x3c4a475d	0.012346116
96	0xbdaa5a7a	-0.08318038
97	0x3cf7a2ba	0.030228961
98	0x3d0ec710	0.03485781
99	0xbbd2b32b	-0.00643005
100	0xbac8ccad	-0.0015319787
101	0xbcc63013	-0.024192845
102	0x3c5fa82b	0.013650934
103	0x3cd586fb	0.02606534
104	0xbc3fde3d	-0.011710701
105	0x3d8f7c0a	0.070060804
106	0x3b0d4074	0.002155331
107	0x3b643033	0.0034818768
108	0x3d66c4f0	0.056340158
109	0xbcc490f3	-0.023994898
110	0x3a8caf3f	0.001073338
111	0x39b8ea6f	0.00035269881
112	0x3cd1bcfa	0.025602806
113	0xba42babb	-0.00074283377
114	0x3d6e3746	0.05815818
115	0xbc31330f	-0.010815396
116	0x3cefefb9	0.029289113
117	0x3ad07e1e	0.0015906726
118	0xbd170875	-0.0368733
119	0xbc5f0bee	-0.013613684
120	0xbc730295	-0.014832159
121	0x3d5d2c7e	0.05399751
122	0xbc7d680c	-0.015466701
123	0xbc17b90d	-0.009260428
124	0x3d794c3d	0.060863722
125	0x3c525c89	0.012839445
126	0x3d56b5a5	0.052419323
127	0xbbc6519e	-0.00605221
128	0xbaa4549e	-0.0012537425
129	0x3d0b5970	0.03402084
130	0x3d4d8414	0.050174788
131	0x3c77f040	0.015132964
132	0xbcd1f978	-0.025631651
133	0xbc70e0e6	-0.0147020575
134	0xbd0b2f12	-0.033980437
135	0x3c170c8f	0.009219303
136	0xbd243639	-0.040090773
137	0x3d5f90ca	0.05458144
138	0xbd2804ae	-0.041020088
139	0xbd4f8b5a	-0.050670005
140	0xbcbdffad	-0.023193205
141	0xbd3758c7	-0.0447624
142	0xbd634b4b	-0.055491727
143	0x3d37c929	0.044869576
144	0xbb3d8a4c	-0.0028921543
145	0xbbd17c31	-0.0063929786
146	0x3d376c1c	0.044780836
147	0x3d48a8fe	0.04898929
148	0x3d808e03	0.062770866
149	0x3d23ae0b	0.039960902
150	0xbc298637	-0.010346941
151	0x3b0c53fd	0.0021412366
152	0x3d2396ca	0.039938726
153	0xbd403862	-0.04692877
154	0x3c6ab44e	0.014325215
155	0x3d51ef33	0.05125351
156	0x3cc87ef7	0.024474604
157	0x3bc2b28d	0.005941695
158	0x3d37e4e2	0.044896014
159	0xbcce2d7d	-0.025168175
160	0x3c37aa3c	0.011210021
161	0xbc29d62d	-0.010366005
162	0xbd33f8dd	-0.043938506
163	0xbb143823	-0.0022616468
164	0x3cc3c1b7	0.023896081
165	0x3d32e858	0.04367861
166	0xbd06f022	-0.032943852
167	0x3cf6df91	0.030135902
168	0x3d72b3ab	0.059253376
169	0xbd312d31	-0.04325599
170	0xbd2384bf	-0.03992152
171	0xbce17007	-0.02751924
172	0xbd3f268a	-0.046667613
173	0xbc95522c	-0.01822766
174	0xbd6f5b06	-0.058436416
175	0x3c100700	0.008790731
176	0x3c7766bb	0.015100176
177	0xbd197a24	-0.037469998
178	0xbcdba4da	-0.026812006
179	0x3c8ca9a0	0.017170727
180	0xbbc98c0a	-0.006150727
181	0x3ba137d1	0.004919984
182	0xbb2805cb	-0.0025638219
183	0xbb168a4c	-0.0022970615
184	0xbcf0272a	-0.02931555
185	0xb9da269a	-0.0004160896
186	0xbc94a6df	-0.018145977
187	0x3d0a493d	0.03376125
188	0xbc4c097a	-0.012453431
189	0xbd0c56b0	-0.03426236
190	0x3d0f2195	0.034944136
191	0xbcdadc48	-0.026716366
192	0xbc5093bf	-0.012730538
193	0x3aa5cd0e	0.0012649612
194	0x3cbfada3	0.023398226
195	0xb9130261	-0.00014019899
196	0xbd19bf4b	-0.037535947
197	0x3d822c09	0.06356055
198	0x3cb7b4a1	0.022424998
199	0x3d448be4	0.047984973
200	0x3c610db0	0.0137361735
201	0x3d1e0681	0.03858042
202	0xbbbbf728	-0.0057362504
203	0xbcdaf882	-0.026729826
204	0x3d4ae5c9	0.049535546
205	0xbc88f5f9	-0.016718851
206	0x3d44dd17	0.04806241
207	0x3d873f4a	0.06603868
208	0xbd8841a2	-0.066531435
209	0x3d623948	0.05523041
210	0x3ccc99a6	0.024975609
211	0x3cc7063b	0.024294963
212	0xbd5a59ad	-0.053308178
213	0x3c9ca33a	0.019120801
214	0xbd518c9e	-0.051159494
215	0xbd684ae2	-0.05671204
216	0xbd3c857c	-0.046025738
217	0x3d2e8ccb	0.04261474
218	0x3d18c287	0.03729489
219	0x3cd29760	0.025706947
220	0x3d0b31b0	0.033982933
221	0xbb28d6d4	-0.0025762813
222	0x3d5c431a	0.05377493
223	0x3d99d67b	0.07511612
224	0xbd2c7039	-0.04209921
225	0x3d0d7159	0.034531925
226	0xbd32dbc1	-0.043666605
227	0x3d286868	0.041115195
228	0x3d4fd362	0.0507387
229	0xbd177fdc	-0.03698717
230	0xbc99e515	-0.018785993
231	0xbd0d623d	-0.034517515
232	0xbd81d495	-0.06339375
233	0x3cd8df31	0.026473613
234	0x3d998424	0.07495907
235	0xbd8e3e52	-0.069454804
236	0x3da4e0bc	0.08050677
237	0xbd3b4ea6	-0.045729302
238	0x3be3b13f	0.0069486196
239	0x3d030d4a	0.031995095
240	0x3cd8a9cf	0.026448159
241	0x3c97c966	0.018528651
242	0x3d666d02	0.0562563
243	0xbd7b77cd	-0.061393548
244	0xbd279fc8	-0.040923864
245	0x3ce2157d	0.027598137
246	0xbd3153c9	-0.043292794
247	0xbc968925	-0.018375942
248	0xbc80b896	-0.015713017
249	0xbccbed87	-0.024893535
250	0x3d525c8e	0.0513578
251	0xbc8b1df5	-0.016982058
252	0xbda8941f	-0.08231377
253	0x3c924b02	0.017858032
254	0xbd5f7e6c	-0.054563925
255	0xbd386149	-0.045014653

fc.4.bias f4 [100]
0	0x3e1327f4	0.1437071
1	0x3bf1138f	0.007357068
2	0x3d999506	0.07499127
3	0x3c12db7f	0.008963465
4	0x3dbe7442	0.09299518
5	0x3d6b099b	0.057382207
6	0x3d933645	0.071880855
7	0x3db18997	0.08668821
8	0x3d9fca0b	0.078022085
9	0x3e49f70c	0.19723147
10	0x3d98f5e7	0.07468777
11	0x3e1762bf	0.14783762
12	0x3d95fb5a	0.07323332
13	0x3d9bd835	0.076095976
14	0x3dea4036	0.114380285
15	0x3d9bc69f	0.07606243
16	0x3c96e69d	0.018420512
17	0x3d9f9b32	0.07793273
18	0x3d9e679c	0.07734606
19	0x3d9752ed	0.07388864
20	0x3c67a546	0.014138525
21	0x3d2d8dc2	0.04237152
22	0x3d18beeb	0.03729145
23	0x3d9dc583	0.07703688
24	0xbbf564f0	-0.0074888393
25	0x3d9b7077	0.0758981
26	0x3d961fca	0.07330282
27	0x3ed3a1d1	0.41334394
28	0x3ebba6a0	0.36650562
29	0x3f0e3be9	0.55560166
30	0x3d968815	0.07350174
31	0x3d977684	0.07395652
32	0x3d984b05	0.07436184
33	0x3d98db0a	0.074636534
34	0x3e3e436a	0.18580404
35	0x3d6250a9	0.055252705
36	0x3d9d72ea	0.07687934
37	0xbd2377c5	-0.039909143
38	0x3d5c1718	0.05373296
39	0x3e4b9c3a	0.19883814
40	0x3d9b613f	0.075869076
41	0x3d97dc4c	0.07415065
42	0x3d9ebc9f	0.0775082
43	0x3f223c01	0.6337281
44	0x3d9ac48f	0.07557022
45	0x3d1b9bd1	0.037990395
46	0x3e18f5df	0.14937542
47	0x3d971300	0.07376671
48	0x3d96c776	0.07362263
49	0x3de70b38	0.11281437
50	0x3e1d3382	0.1535168
51	0x3da30a11	0.079609044
52	0x3b500753	0.0031742647
53	0x3d986180	0.07440472
54	0x3d9532ae	0.07285057
55	0x3e9a884e	0.30182117
56	0x3d9f3616	0.07773988
57	0x3d5d032b	0.0539581
58	0x3d93e064	0.072205335
59	0x3d98d792	0.07462992
60	0x3e10843f	0.14112948
61	0x3e78e0c3	0.2430449
62	0x3d9566a0	0.07294965
63	0x3dd6e77a	0.104933694
64	0x3d8b9985	0.06816391
65	0x3d951e32	0.0728115
66	0x3d99842f	0.07495915
67	0x3e2bef45	0.16790493
68	0x3e726c17	0.23674046
69	0x3d96906e	0.073517665
70	0x3d9c4a55	0.07631365
71	0x3dbf81fa	0.09350963
72	0x3d90ae3f	0.07064485
73	0x3d98cf66	0.07461433
74	0xbc7f1e9e	-0.015571265
75	0x3d8f2977	0.06990331
76	0x3f4b9216	0.79519784
77	0x3d9830d5	0.07431189
78	0x3da34b93	0.07973399
79	0x3d8b973b	0.06815954
80	0x3e84490c	0.2583698
81	0x3da4e2dd	0.08051083
82	0x3da136b0	0.07871759
83	0x3c362118	0.011116289
84	0x3d9235a7	0.071391396
85	0x3da32d39	0.0796761
86	0x3e946698	0.28984523
87	0x3f56d928	0.83925104
88	0x3e996a8e	0.29964107
89	0x3eac566a	0.3365968
90	0x3d0abcfb	0.033871632
91	0x3dec7bd7	0.11547058
92	0x3b5d1a20	0.0033737496
93	0x3e231c4a	0.1592876
94	0x3d96961d	0.073528506
95	0x3c917178	0.017754301
96	0x3d911d1e	0.07085632
97	0x3d56291d	0.052285302
98	0x3d9380f2	0.07202329
99	0x3cb620be	0.02223241
